8_Inv_Lorenz/logs/models/2024-01-12-11-56-08_Lorenz_DNN_100X5/epoch_4000.pt (torch, 100203 bytes, 13 tensors)

alpha f8 [1]
00000000: ca3b 703e e8ef d43f
0.32714277360440447

beta f8 [1]
00000000: 7010 6e16 cdf0 e4bf
-0.6543946683964474

rho f8 [1]
00000000: b895 565c dfa4 1140
4.411008303436965

rbf_layers.0.centres f8 [128, 1]
00000000: 7420 9949 e4f8 bbbf d713 593b 964c df3f
00000010: 5c55 c3e4 3196 e23f 3065 14b0 1757 f13f
00000020: 9396 a3a6 1cf5 acbf 7d81 766c 0854 dfbf
00000030: 29ff 1e45 7703 b5bf 901f dba7 03f0 d2bf
00000040: 4d77 7b7e 6ab8 ee3f 55f4 2864 f38d d4bf
00000050: 36c0 5328 0549 e9bf 4b7c 79ba 5a44 d53f
00000060: bb3d 5f1b b2ec e7bf 9b84 347c 4a0a dcbf
00000070: a73a 30e3 c94a e33f 6553 4907 2773 e23f
00000080: a2dd 1896 df19 ea3f 8aad 276f 4a6b e33f
00000090: a2f5 20cc 8ef9 f4bf 7ffe 02ac 3704 e1bf
000000a0: b707 d381 288b e33f 469d 06a0 3e19 e6bf
000000b0: 262b 7b88 c8d3 ea3f 684a 1ddf aedc cbbf
000000c0: 949a f3e9 d0ca df3f e33c ed93 9e74 c53f
000000d0: 2f91 67c0 3904 dc3f b57b e05d 84ec f53f
000000e0: 58db 733f a510 e1bf 0fa5 6d84 9618 d33f
000000f0: 7017 69a9 35c9 d0bf 25d6 5fcd 08ad eb3f
00000100: 1186 adb5 7fdf f6bf a6d2 bc3c 7f55 e7bf
00000110: 171c be35 858e e83f d522 7a74 faa2 f73f
00000120: 398e 0a04 cef6 a23f 6b2d 227d 0811 c83f
00000130: 6d26 494c e83d bbbf 64e4 9a29 33a0 d33f
00000140: 258d c667 d64c ce3f 73e0 3b0f b983 e13f
00000150: 2676 2b6a 7e6c 97bf 73c8 c9d0 e0f7 fd3f
00000160: b889 65bc 1328 dabf 8478 46fb 3875 dc3f
00000170: 6608 bedd 6afd ecbf 1bfd 67a3 0329 e1bf
00000180: a4a0 278b 81dc e33f b406 ad91 7169 b13f
00000190: 841c 3a30 aaed d6bf 339b 3762 43f3 f13f
000001a0: 6235 dd1e 51d6 c03f 863d 2afa e7cc ef3f
000001b0: a535 0258 91d7 ed3f 7b99 a2f6 b08a 993f
000001c0: 9043 92c2 995e a93f 0043 c25f 7ab8 d5bf
000001d0: c1f8 a50b 631d d7bf 1c64 a037 47be d9bf
000001e0: 5870 691e a402 d73f 9126 7d72 7e92 f6bf
000001f0: bf93 d074 1594 e83f 8267 bce5 aa18 ccbf
00000200: d213 af84 10fd fc3f 72c8 8540 6619 e1bf
00000210: 2914 4268 4a3a fcbf 25c4 0a25 06d1 e03f
00000220: eb10 5eed bb71 f8bf fbc8 46ca cc81 e9bf
00000230: cdff a704 4b27 d1bf ddf4 86c1 53e0 d7bf
00000240: 8359 e5f3 8eba f5bf 5c4e 38ec 53a4 e53f
00000250: ef3e da1d b55d f23f 4163 07e0 6413 e03f
00000260: 44db 3348 c1fe c2bf bc83 5aa8 b3fc df3f
00000270: 36c6 09bd c130 ecbf 892f f278 c5aa f6bf
00000280: 5c1d e65c d13b f23f a78e a9ca b526 e3bf
00000290: 8b02 ce83 f46a edbf 3abb eadf fd1d ed3f
000002a0: c9eb d7f0 9341 e53f c16f 8373 e9ad f8bf
000002b0: c702 28cf de31 e03f e683 306a 13b2 a13f
000002c0: 1900 7775 4bb2 eebf 205e 5e8e eb95 f0bf
000002d0: a137 525a 7a5f d23f 90d7 887d 91ac e83f
000002e0: 18e3 1206 faea f8bf c47b 09c2 1c8a d1bf
000002f0: d1d5 90c4 3922 fbbf 5e03 010e 9aad fb3f
00000300: f7d7 c647 dcaa f23f bf6f a4cb d42c edbf
00000310: 19f2 7cec 8c06 ddbf dc0d 5c31 8406 e3bf
00000320: 20b6 2fa2 3e96 d0bf cca5 f21a cdb2 c1bf
00000330: 2d95 6666 d85a 0040 3bd6 b267 d608 e7bf
00000340: bace a97c 1fea d93f dc32 38f0 e188 f13f
00000350: 3a24 da43 7864 f9bf fbe7 abd9 6d5d ff3f
00000360: d766 7171 5ef3 c2bf 5172 d8fd a572 e43f
00000370: 20ec 00e0 6fe1 ed3f dda2 70c8 a872 c3bf
00000380: 5eff ca19 b5cd e13f 3e0d 3691 8b61 f8bf
00000390: 80c6 6af9 bd9a 8d3f 6819 a5b0 64eb ed3f
000003a0: fa52 77c7 8960 dc3f c1c1 dd46 9867 fa3f
000003b0: d8fa 812c fb80 f8bf 12af e115 3234 f1bf
000003c0: 5954 823a e7f1 f33f b705 4cfb 0104 f93f
000003d0: f929 10fb c844 e5bf 66e5 d44e 2036 d63f
000003e0: 183c 1b8f bfed f73f dfa8 1cff b4a6 ea3f
000003f0: 79bc a52a 5686 e73f 6f8e 7016 f0b2 fabf
-0.10926653668241376 0.4890494899339592 0.5808343380000838 1.08376282483216 -0.05655755552451782 -0.4895039614875925 -0.08208413541342154 -0.29589930908377315
0.9600117178303919 -0.32116398602722046 -0.7901635921134644 0.33229702196507976 -0.7476435217485496 -0.4381281102124121 0.6028794705651607 0.5765566961587011
0.8156583720764738 0.6068470164295132 -1.3109271978167745 -0.531764827690452 0.6107370887404987 -0.6905816197876582 0.8383524575850501 -0.2176722134996283
0.49675391051133855 0.16762144301399137 0.4377579096747181 1.3702434222284243 -0.5332819213207172 0.2983757298703304 -0.26228086036677833 0.8648723612993235
-1.4295651528158297 -0.7291866480141678 0.7673975038204642 1.4772896337400898 0.037039220803560764 0.18801981077227067 -0.10641338217205894 0.3066528230952541
0.23671989504973925 0.5473294541871055 -0.022874808530891987 1.8730171352185863 -0.4086961116610399 0.44465469874001706 -0.9059347468285182 -0.5362566176917513
0.620667239939412 0.06801519209423185 -0.35825590810458885 1.1218904339418259 0.1315404320434182 0.993762959102171 0.9325644225042892 0.024943127683081805
0.04954987049234838 -0.339384644999015 -0.3611686338189309 -0.40223865921285706 0.35953619928273417 -1.4107651207181429 0.768076637414758 -0.2195027944333639
1.8117833312000937 -0.5343505153853256 -1.7642311165411775 0.5255156253316541 -1.5277671119848104 -0.7970947218621228 -0.2680232568236505 -0.3730668439782912
-1.358046486585949 0.6763095487280668 1.147877804385583 0.5023674369395864 -0.14839950585857242 0.49979869309214187 -0.8809517566825835 -1.4166922306494334
1.1396039608824458 -0.5984753568886462 -0.9193060468970357 0.909911095941289 0.664255113980624 -1.5424589645617603 0.5060876890202842 0.03456173583277415
-0.9592644972071894 -1.0366015969538083 0.2870775110285369 0.77106546896424 -1.5573673474556866 -0.27405470799379494 -1.6958558729505635 1.729883246138534
1.166713981988776 -0.9117225625409374 -0.4535248097852516 -0.5945454563192771 -0.25917020643723454 -0.13826907935917487 2.0443580627494584 -0.7198287988055151
0.4049147336402076 1.0959185966086613 -1.5870287561867955 1.9603098395150471 -0.14805202998359476 0.6389951665801822 0.933769166476285 -0.15193662440403602
0.5563607696312649 -1.52381474230863 0.014455303358178684 0.9349845361801217 0.4433922241126279 1.6502917068684015 -1.531489538057647 -1.075243077731049
1.2465584073554707 1.5634784523284517 -0.6646466163231813 0.3470536012497035 1.495544013032264 0.832849977746516 0.7351485093075915 -1.668685996680235

rbf_layers.0.log_sigmas f8 [128]
00000000: ae8e cf25 2ea8 b5bf 6876 f8b1 130c e0bf
00000010: 20de 1c5a daff d8bf 2b5f f3ad 61e9 c6bf
00000020: ee68 0509 f0c8 b0bf 3295 5a1a 130e b5bf
00000030: c18c f6f2 3cf2 b5bf c3f0 39ea eca8 b1bf
00000040: 00d6 720d 4639 c8bf 5b53 9102 1cca c4bf
00000050: 23c0 d5b8 5ab5 b53f 335b bb9f 3352 dcbf
00000060: 1060 c2f4 8e52 ba3f e1f9 9f2c 881f 91bf
00000070: 570c e27b bf15 d5bf 543d cd67 7e42 d7bf
00000080: fede 9ae0 ef07 cfbf 66c8 d631 019a d4bf
00000090: 24cd 19a6 2930 d23f e94f a90f 68d8 b2bf
000000a0: 4213 0cec f96d d9bf d29b c546 f435 9a3f
000000b0: 30bd 5737 e08d bbbf 8e49 f717 792e bdbf
000000c0: 2eeb 7c9f 1825 e1bf cb7e 028c 61c0 c7bf
000000d0: 2f28 a45b 7747 d8bf 67cd 580a d65a c9bf
000000e0: 3419 216a f79e b1bf 7b1e 2250 509b c0bf
000000f0: 99e9 e875 73d9 c6bf 8ce6 3733 f82d c1bf
00000100: f07c 6dd4 de4d d43f 9642 e90e c8ec b13f
00000110: f9d9 e4ca 705c c2bf 4449 4a03 4a74 663f
00000120: 8365 a672 daa8 c4bf c42d 1b28 abfa c4bf
00000130: bd51 603b 9c7b aebf 0fbb 1aee 03bd d4bf
00000140: e92e 6a93 737e c2bf c19c a559 238f d9bf
00000150: a376 20f9 e965 b6bf 1f7c c69f 6887 c53f
00000160: 0a54 5e73 0244 c1bf 84ca 625e 9940 dcbf
00000170: 64f7 4f3a 5992 c33f b9e0 fc53 4c51 b9bf
00000180: a933 fa4f 790a d8bf f78c 61ff 9f1a cfbf
00000190: a838 a8ba e1ca bcbf 65d8 bcd8 0a36 85bf
000001a0: c17c ce52 2da7 cdbf 7255 e634 31b4 c7bf
000001b0: 3ffd cf67 848a c7bf 7957 9e4f cea1 c5bf
000001c0: 797b d8ec 65e4 c4bf 4e30 796d f6aa a4bf
000001d0: d004 da65 be2d 87bf be80 224e 53b7 afbf
000001e0: a9f1 816f 3da1 d8bf e4e0 f24a 9f51 d13f
000001f0: 5b8d b46b 4c74 ccbf e3b8 d4ec ee9d aebf
00000200: 4d74 f53d bf70 c53f 0e66 09b2 c00b a5bf
00000210: 32f1 801c 2bf6 e43f 07e0 afb4 d787 ddbf
00000220: 191d 77d0 db33 d53f 3c2f 12b0 34d4 b23f
00000230: f905 ac62 f18b b7bf 1639 5dd5 135a a1bf
00000240: 6231 e2f3 a454 d13f 90f7 f7dd 92f3 d5bf
00000250: c2d4 d30e eb27 c9bf 4dd6 15c4 329b dcbf
00000260: 2bd8 97d8 7dd7 b1bf 27ba 93c1 05e2 dabf
00000270: fd80 a938 5476 c13f dbf2 042c 6482 d23f
00000280: 44eb 6364 60ce c4bf 1364 3e76 9d15 95bf
00000290: 94f8 b3e0 7344 b43f bfe0 84d2 6e81 c7bf
000002a0: 09cd 9fe3 0ab0 d2bf 305d fa86 6b29 d83f
000002b0: a59c 976b 1fd1 debf c272 b348 99d7 c8bf
000002c0: 0834 e4f1 ee6c c63f df3d adeb 3aba c43f
000002d0: 3280 3573 ef48 c5bf 0b4a 9650 b7af d0bf
000002e0: bc28 6eca 20e9 d63f 4db1 ec6b fac3 92bf
000002f0: c13c e272 db9d e13f 8ddf 52a5 7201 b13f
00000300: 0e17 f81d 9ae6 afbf 770e 1eba 5964 c13f
00000310: 4a50 4f0b 2ef4 8fbf 06d5 ebfb fe64 913f
00000320: 9acc 3960 7314 b1bf e4bb 98a0 4154 c4bf
00000330: b795 62af 3422 da3f c3b9 2fe3 cdaf 97bf
00000340: f8ce ddbb 9881 d3bf e1cb 9df2 ff95 bdbf
00000350: 1dbe f8d3 8622 e73f 65a2 1c7d 3320 d53f
00000360: be5c 7138 5800 acbf 430d 9162 9933 d2bf
00000370: 0cd7 93e9 d908 c8bf b647 a26d 106e c0bf
00000380: fe5e 8606 fa80 d6bf 2b5d 39b9 a92a e03f
00000390: 862a c8b4 d779 aabf a40f 5464 c9bf c4bf
000003a0: c0f2 7bd1 4db3 dfbf 103c 9783 23e0 9cbf
000003b0: 2fdc 5555 fc4f d53f 9282 6d23 1e55 c93f
000003c0: 9aa1 d988 b594 bfbf f9bf f324 f9a0 c4bf
000003d0: 5092 f098 ce71 83bf 5284 72ec 451b d9bf
000003e0: f0c4 9b40 21e2 bbbf 1233 b7e1 bc40 c7bf
000003f0: a83d 756d 38a4 cabf b2d3 412e ef97 e13f
-0.08459747717966579 -0.5014742351520001 -0.39061602401804585 -0.17899724000630476 -0.06556606502764215 -0.08224601167110704 -0.08572750980106304 -0.06898384779373416
-0.18924785286587564 -0.16241788983702574 0.0847984982735857 -0.4425171909219216 0.10282224155014341 -0.01672184727066817 -0.32945239160489365 -0.36343345772634916
-0.24242971865691482 -0.32189969889726056 0.28418961735515524 -0.0736146009670048 -0.3973374180935033 0.025596443957876698 -0.10763360358372576 -0.11399037203890414
-0.5357783427237786 -0.18555850349820555 -0.37936195325221694 -0.19808459763735728 -0.06883188572928561 -0.12973979866750426 -0.1785110784274593 -0.1342153787698418
0.3172528337945115 0.07001924861948292 -0.1434460631077881 0.002740997845031819 -0.16140299413818235 -0.16389979799565257 -0.05953682160194116 -0.3240365815390058
-0.14448399255740377 -0.3993614554842218 -0.08749258358190075 0.1681948452141748 -0.13488798745370928 -0.4414428159463244 0.15290370318683266 -0.09889676142199989
-0.3756392746952835 -0.24300003022936043 -0.11247072989519558 -0.010356983889874447 -0.2316643385247286 -0.18518652995104962 -0.18391470974891352 -0.16900042426703601
-0.16322015824058747 -0.04036684118600019 -0.011317718013062722 -0.06194553688806213 -0.38484130753911444 0.27060682601178443 -0.22229914912268608 -0.059798685464885336
0.1675032665761215 -0.041105291111943484 0.6550498539650447 -0.4614161743661502 0.33129020078600174 0.07355050371751032 -0.09197910937293576 -0.033890361590794324
0.27079128090624327 -0.34299155880568666 -0.19653070663449596 -0.44697255276637265 -0.06969439065855514 -0.4200453176880807 0.13642361418443008 0.28920845316660654
-0.16254811193342722 -0.0205902675075756 0.07916950450814603 -0.18363747863054944 -0.2919947836773678 0.37752807790225784 -0.4815138388352785 -0.19407955217220346
0.17519938288788262 0.16193329341557125 -0.166288310293568 -0.2607248579962806 0.35797900932869786 -0.018325722539132717 0.5505196803877866 0.06642834221099587
-0.062306228788697834 0.13587495410694192 -0.01560245487227276 0.016986831785250643 -0.06671830271970905 -0.1588212999499482 0.40833775641871334 -0.023131577483519693
-0.3047849497445294 -0.11557006524326098 0.7229646816321665 0.3300904008670272 -0.05469012917517933 -0.28439936280866024 -0.1877701178088319 -0.12835889199464895
-0.3516221107215499 0.5052078836114665 -0.05171083528337754 -0.16210286520810968 -0.49531884629668 -0.028198771387732136 0.33300693830045963 0.19791008691665418
-0.12336287108485636 -0.16116251282028296 -0.009494413416242825 -0.3922896203094456 -0.10891921832423512 -0.18166314145346313 -0.20813660950305501 0.5497966674289414

linear_layers.0.layer.weight f8 [50, 128]
00000000: 0b9a 2113 484b a6bf e50c f840 f30b b43f
00000010: 6cc4 0443 14f3 bf3f d39f 0233 0d50 8a3f
00000020: dcd4 e666 699c ae3f 97b5 47aa 4502 83bf
00000030: b683 fbd7 d333 4fbf 0502 8395 aef2 a3bf
00000040: a59a fb7b 7e14 9fbf c00f 5b08 23ae 74bf
00000050: dec0 3a16 73db c4bf ab81 aa47 880e ba3f
00000060: 1474 ee73 1038 c8bf 9266 b066 4d6e aabf
00000070: 279d b141 022f a03f 1a47 71e3 1a87 ac3f
00000080: 0baf aa08 7450 b23f 85da a0cf 47ad c13f
00000090: 2828 b3cb 0fdf c0bf 97be bc99 ff23 a7bf
000000a0: 829c 619e 860b a73f 2137 aec4 c8f2 c5bf
000000b0: b1c9 0d0e 52a1 b83f 781c 69ce 7a16 803f
000000c0: 1b77 8822 130f b13f b669 d22c e989 b53f
000000d0: b829 34d7 c832 b13f a90d 60a5 ad8f a63f
000000e0: 75c3 40fd 309b 9fbf 4047 0047 63f4 b23f
000000f0: 5601 2623 a512 a83f 73bb 9662 4f78 a2bf
00000100: 40d5 96a6 1cc8 d0bf 0a12 fde7 b692 c8bf
00000110: 7a38 8b0a 8c50 96bf d708 89fe 38a1 b13f
00000120: 4557 cb43 566f b43f be67 7542 1c15 b13f
00000130: c175 77bf dbb3 8fbf c606 ba59 a669 94bf
00000140: eac4 0ce2 2f33 b93f eeb6 a6cc 8040 7d3f
00000150: 0283 5013 de6e 97bf b7dd 0447 8ecc b73f
00000160: f0f6 6039 9320 95bf 248e 3365 0cea b33f
00000170: 8273 14f2 e00c c0bf 5ebd a7ff c9cb c4bf
00000180: c708 9f7e 2eba ba3f 9bbd e636 e4f2 a83f
00000190: 6799 bce7 ea01 c1bf 5a61 3794 b12d 993f
000001a0: 6d08 d657 3350 8e3f a681 bf86 a960 9dbf
000001b0: acab f032 e335 a23f 0549 75a7 f0dc 7dbf
000001c0: 428a ce64 05ad a9bf 76f0 83ba f556 9abf
000001d0: d2b9 54d1 83e1 a13f 4136 fd54 180c a6bf
000001e0: 74f8 6b96 e78e bf3f dc84 7c46 c8a5 ccbf
000001f0: 266e 1c37 5349 ac3f 7421 a5a2 d7e4 91bf
00000200: 1d13 6506 773b 873f 4b73 5d76 ddad b5bf
00000210: 5f5a 7789 e080 d9bf 0fb4 bd44 b4cd 9ebf
00000220: 0c24 e908 cc7e c8bf 702a 058f ba4a c9bf
00000230: e879 7371 9592 b0bf 2f95 fb11 7c7e a3bf
00000240: 0a1d 9c85 e92a d1bf c73e 175f 75b6 b93f
00000250: 6b49 5575 0613 a73f eb4f d256 df17 b33f
00000260: a613 e402 69ca 93bf e7e0 dbe8 8d7d b83f
00000270: a293 5dac 8104 cbbf fe90 6e6c 63fb d1bf
00000280: 4a24 ad85 2212 b43f a77c 649b b8c5 c7bf
00000290: d357 47fe 25f5 ccbf 09aa 95e5 3870 31bf
000002a0: b6c8 7e2b 68a4 c13f 4117 4291 4d8f c6bf
000002b0: d286 74c9 18d0 be3f 6a2c a768 e0e8 a83f
000002c0: 994e 6fa1 fd10 b4bf f997 800e 1e0a ccbf
000002d0: 3494 7d43 ef01 b93f 67a5 2917 e0f0 bc3f
000002e0: ea83 46a5 3673 c9bf a613 4f2c 9d31 a3bf
000002f0: fd79 eccf fc30 d9bf 4c90 80a8 814c a53f
00000300: ad21 23e2 0770 993f e17a 4056 9c9b c2bf
00000310: 6d90 347e bde1 7ebf 6973 084b 9e27 a1bf
00000320: 54af bf2a ff75 a5bf bca3 6c02 30ef a2bf
00000330: 55e1 1a59 a9ad c13f 9ce6 b9bb 5a15 a7bf
00000340: a8ff d8a0 cad5 b13f d025 b57f 6d1c c03f
00000350: 54ff db69 8adf 9ebf 21d9 8308 faeb ad3f
00000360: a6d6 bbed a336 a33f c3c7 19d7 ba9c 8dbf
00000370: 8926 3e46 ea73 ac3f f6de d557 9b29 b4bf
00000380: 8f58 acd6 7c21 a93f 69e8 79cf 8bb5 c5bf
00000390: c035 ce35 4f07 82bf ca6e 8645 fc37 76bf
000003a0: 159c e8a7 992e a2bf ae10 0172 a394 b13f
000003b0: d867 8146 bca0 cabf ae81 d5ea 375f c5bf
000003c0: 9f15 2b28 3ca4 a23f 33dc cdc0 385d 95bf
000003d0: 7a85 1860 7ad8 c2bf bc41 76e6 8a46 c03f
000003e0: 2441 b35f cfb0 ac3f 2f1f d0f5 5356 83bf
000003f0: 8245 9ee7 e6e5 7bbf 35ea 859e 6fd0 d2bf
00000400: 7ecc d976 27f1 ae3f 9f4a 5acf a32e a93f
00000410: 9ec5 3419 ffa3 a33f d560 2a69 5aff a23f
00000420: 49d3 15dc 2eb9 a43f 0dd0 cdf5 7453 a43f
00000430: d38d 7b17 ae8a ad3f 8f5a a459 abe8 bc3f
00000440: 5bf3 eb10 67ce b0bf c8f6 6cb7 b86b b33f
00000450: 2adb 088a 4648 c73f d48c bb29 d79c b63f
00000460: ebf0 1b44 7ff4 c53f c7e8 e0eb d16c b03f
00000470: e713 a0d1 bdf9 c03f 08db 0594 d2f1 a03f
00000480: 1d47 3088 9b4f 883f 0e65 0d6c 5e99 b93f
00000490: e8db 6c43 fc64 ca3f 35f5 e1a4 9b2d a43f
000004a0: 341d ffc8 762b be3f b7a0 a317 b379 c03f
000004b0: 8ad9 b76c 0b96 b73f e13b 4c01 7e04 c23f
000004c0: 8317 3a9e 4dd6 c63f c97f 7ff9 5cf8 c13f
000004d0: 1737 5464 1106 c83f 016d 578c 28b6 d0bf
000004e0: 4713 91e0 8fe7 ab3f ad2d a9c5 ee9d c03f
000004f0: 710e 14a1 b7bd b03f 9afc fd4c 3f23 9dbf
00000500: 3cf1 caae e43e d23f b8d7 485a 1146 ba3f
00000510: df05 95ef f7f5 ac3f c913 93d5 bf2c c7bf
00000520: 0710 04f9 81a0 b43f 1a3b 80a6 f63d be3f
00000530: 8e61 d0ba fa83 bb3f bb15 d7ad 04c9 c53f
00000540: 3c87 b6df 9427 b83f 0d6e 8289 6e6a c33f
00000550: 49b3 a77b 8de7 923f e9a3 628e e83b e0bf
00000560: 6e43 57de 9805 b03f 6771 f750 39c9 c63f
00000570: 0c05 01cb 85c6 b73f f9e7 7af2 ce9a 73bf
00000580: bab6 7aea eb75 c23f 9ae4 f7b0 5681 c23f
00000590: 227c f1da cecd a93f b89f a560 e5f0 c4bf
000005a0: e6b9 8409 7e89 c63f 51a2 b0d1 84d1 ab3f
000005b0: b92d bb6c c8f4 95bf 99d9 4465 df38 a93f
000005c0: d3ad bc75 67b8 c23f 52d1 4d41 b59c c13f
000005d0: 59a6 ba7a 2748 c33f 9749 302a 57d0 c23f
000005e0: d630 439b 62fb a93f 7f5e f99b 5771 cf3f
000005f0: 8d03 4600 297b bc3f ced5 6559 018a b03f
00000600: f493 227d a00b e2bf 94c3 b19c 43bb b93f
00000610: ab9d b548 6c43 f33f 63c6 bbbb c6b1 a83f
00000620: 5cb9 b7c9 40dd d03f 8900 0431 0e1b 973f
00000630: 09be 17d9 c8ab c43f 9d99 5709 6c8d a93f
00000640: bada fb8e 2d50 c43f 35c3 b88a f5fd c13f
00000650: 6a78 5b2c e86b b1bf 308c 5730 feee c33f
00000660: 6874 8485 d0d7 b33f b5ac 3d2b 127e b23f
00000670: 1566 05a7 3f43 b83f e8f9 f850 cd4c ce3f
00000680: 2d60 5dcc 8992 b3bf 54e6 e61f 7942 b53f
00000690: 2c51 ea95 d285 923f 96c4 f124 d9b8 913f
000006a0: c467 e308 cbe1 9b3f 3382 dcf0 430d d73f
000006b0: 0980 ee9e 9a1b ca3f 2119 4349 96fe 9f3f
000006c0: 4f4f 68d4 46d5 be3f 7e75 cd9f f3b1 b33f
000006d0: 985f 09f5 e9e8 bb3f abb8 3583 cf3b 5d3f
000006e0: 83d0 9ddb b1bf d23f e681 30dc 9010 c63f
000006f0: 056c 8946 f788 ea3f 103b dbc5 bdac debf
00000700: af64 b0b8 2d5f b1bf 864e 714a 5052 c83f
00000710: 6aa7 f231 c2d6 a53f 2c43 c79a d6fa 753f
00000720: ec33 30c4 bae0 c33f 94b2 79b0 378b bb3f
00000730: b998 db71 3eb6 e1bf c8cb 387a 6f63 973f
00000740: a5bf 0bf8 dce0 c43f e478 ef3d 8906 96bf
00000750: 4a57 06de 9e37 f53f cdd2 0824 3829 dfbf
00000760: f201 b6c2 1d35 c63f e32b 2178 9109 c43f
00000770: dbcf 3349 35fe adbf adaf dc98 875b b53f
00000780: 86f4 b552 1fb3 b93f c263 2844 9f1c e63f
00000790: 2ed0 5604 9e9e c53f 680b b9c3 cb50 633f
000007a0: 43d9 9631 651a ba3f b388 fa5e 2294 dabf
000007b0: ac24 9e4a 6a7a ce3f 49b4 e0b1 4a7b b33f
000007c0: 4a48 a761 b2f1 c4bf 5036 ff71 0ebd ddbf
000007d0: cd06 3da9 a726 8e3f 89a5 506d 9e2a b73f
000007e0: f552 9495 965b d6bf 2b83 264a eb37 7fbf
000007f0: 656e f846 a4ed 9abf 1e72 4312 33e5 e73f
-0.04354310258422708 0.07830734573512961 0.12480284343907194 0.012847998732766463 0.05978707677005854 -0.009281677493130398 -0.0009522232430435515 -0.0389608914861164
-0.03035161620837336 -0.005048882337806704 -0.16294706902909345 0.10178424596461493 -0.18921094570842512 -0.051622790131841914 0.031608648795378884 0.05571826959989164
0.07154011928167507 0.13810060155966056 -0.13180730291634402 -0.04519652129817791 0.04500981028905306 -0.17147168735066834 0.09621155589210308 0.007855376648093534
0.06663627236454454 0.08413560241971293 0.0671811604881104 0.044064928471949934 -0.030865445573172907 0.0740415619223116 0.047017250576575506 -0.036074143204465246
-0.2622138621184895 -0.1919773705250381 -0.02179163755754885 0.06886631216278559 0.07982386736997878 0.06672836897396814 -0.015479771404836808 -0.019934272028428145
0.09843730229183092 0.007141593096475536 -0.022883863381255594 0.09296502336370947 -0.020632076623079365 0.07779004545914653 -0.12539302654559142 -0.16246914847531974
0.10440340606058661 0.04872811479742297 -0.13287102046269725 0.02458837000981027 0.014801407926601418 -0.028689049577111846 0.03556737896754866 -0.007290782981117743
-0.05014817100097392 -0.025722350605960696 0.03492366724309516 -0.04306102788414679 0.12327430174261328 -0.22380927507132398 0.05524692580931072 -0.017474526693406614
0.011343889124540813 -0.08468422069331642 -0.3984910337871152 -0.03008157414972251 -0.19136953768818932 -0.19759304030806701 -0.06473669071008425 -0.038074376292380634
-0.26824415252527045 0.10044034549286628 0.04506702596940467 0.07458301419893558 -0.019326821137855575 0.09566580710441351 -0.21107502857480848 -0.28096852864315724
0.07840171588499448 -0.18572146976018652 -0.22623133579207763 -0.0002660883815993891 0.13782980083266744 -0.1762482604282756 0.12036280554141435 0.04865170743468002
-0.07838425818709495 -0.21905875881310502 0.0976857700130303 0.1130504662084114 -0.1988285357483897 -0.03748789945488022 -0.3936149626260031 0.04159932310020106
0.024841426064797712 -0.14537386142270406 -0.007539501387587061 -0.03350538888864813 -0.04191586872897682 -0.03698110608667757 0.13811222887830846 -0.04508479634837423
0.06966844965881924 0.12586754546855028 -0.030149615012305134 0.05844098428672085 0.037526247759087014 -0.014459094704964209 0.05557186229186779 -0.07875986952228317
0.04908361549876005 -0.16960284834550812 -0.008803004102243217 -0.005424485622281325 -0.035511781450900205 0.06867429288201052 -0.20803025667811315 -0.1669683357859077
0.03640926351867368 -0.020863425033408056 -0.14723138515641293 0.1271527886679119 0.056036453659205315 -0.009442001284710592 -0.006811048480714789 -0.2939719245984265
0.06043361020865577 0.04918395906601813 0.03836056883518356 0.03710444005736383 0.0404753345164069 0.03969922543083735 0.057698669783146216 0.11292525232816274
-0.06564945376517299 0.07586245039143613 0.18189317455263537 0.08833069580900893 0.17152396035806503 0.06416046150926312 0.13262150512323886 0.03309495980186311
0.011870589345594202 0.09999647272106335 0.20620682995078643 0.03941046130874285 0.11785070807592463 0.12871397642380142 0.09213324932338743 0.14076209128731335
0.17841501451419725 0.14039194281121883 0.18768517874598764 -0.2611180658838777 0.05450105301182489 0.12981972361954544 0.06539485628678122 -0.028454770158984212
0.285088701911963 0.10263164953434412 0.05656409072481571 -0.18105314186519042 0.08057415322770121 0.11813298764193939 0.10748259602440255 0.17019709099092303
0.09435396634810628 0.15168554033594753 0.01846142832976064 -0.5073130398715168 0.06258540561908685 0.17801586583562853 0.09287296491767821 -0.004786308658077936
0.14422368001162572 0.14457210198432763 0.05039831564567289 -0.16360156268205883 0.17607093300598747 0.05433287677471255 -0.021441585194038135 0.04926202880089931
0.14625256775739945 0.13759484947844186 0.15063947193748353 0.14698304710379936 0.05074604172986745 0.24564643016741525 0.11125427490880054 0.06460579330981561
-0.5639193004650438 0.10051367354914326 1.2039606895649324 0.048231325546919356 0.26350421618453423 0.022564145795513944 0.16149244880897154 0.04990708936729791
0.15869683725005307 0.14056271813890367 -0.06805277903501553 0.15573098526428586 0.07751181850149325 0.07223619037329139 0.09477613284743598 0.23671881154764596
-0.07645474662183523 0.08304554966789485 0.018088617706397844 0.017306702499301517 0.02722851983785525 0.3601846553956733 0.20396740684827844 0.03124461004406343
0.12044184385041244 0.07693407679967909 0.10902273399676543 0.0017842794885285878 0.2929501194660206 0.172380549921413 0.8292194726631129 -0.4792932922545541
-0.06785856017121959 0.19001201281445307 0.04265410289492773 0.005366171168547134 0.15529570178514918 0.10759304102402673 -0.5534965728554858 0.022840253672437943
0.16311227904907102 -0.021509308247794304 1.3260792420237117 -0.48689082640639186 0.1734959793793816 0.15654199948980282 -0.05858007925590388 0.08342788202270297
0.10038944024377558 0.690993912811898 0.16890311443205647 0.0023578624511925612 0.10196526013064493 -0.4152913978124488 0.23811081546253854 0.07610003321379212
-0.16362600105509478 -0.4646640885592648 0.014722165920491826 0.09049406212638735 -0.3493401013122786 -0.007621687984653384 -0.0262971561734119 0.7467284542759136

linear_layers.0.layer.bias f8 [50]
00000000: d772 aa24 f8bf bd3f f72d 0925 9de9 a4bf
00000010: aa9d f927 fcb6 873f 9d43 d848 e2e2 b5bf
00000020: bb2d d21b be37 ae3f 30bf 3c79 18a0 a33f
00000030: 3de9 27bf dd24 acbf 5498 bbc4 b5e7 a73f
00000040: 7887 6dff 5d2b b5bf b94a bd0f b745 b0bf
00000050: d5b1 5c3b c632 a73f 1379 99a6 42eb 983f
00000060: ab49 a693 834a b6bf 8e4e 1f05 05f7 a53f
00000070: db91 cad9 62ac aa3f 3d4c 084c 0e20 ba3f
00000080: ad5d 6b5a ce11 b1bf 9dc9 ffc4 c132 77bf
00000090: aa17 fa18 5af5 afbf d5c6 c728 a349 aa3f
000000a0: 1465 b237 810b a6bf f7c5 0ba7 9935 933f
000000b0: 5f4c c0f7 f97f a63f 403d c037 0f2b b7bf
000000c0: 6e16 8482 3f70 b33f 5c11 a84b c7ff a8bf
000000d0: 83a4 3ba9 d96a b3bf 9f30 bdf4 7734 a6bf
000000e0: a95e bcdd 4265 a0bf 7a70 17e8 0720 9fbf
000000f0: 30d2 9367 2d21 82bf 05cb ac77 090e 7fbf
00000100: 9ef6 2fce 4546 a3bf fff3 fbc4 26b5 b7bf
00000110: 5d19 1f1b b03a 22bf 9f63 6983 3f5b 313f
00000120: 9e63 ff95 7265 b23f abd6 5097 bebc a2bf
00000130: 2cfe 4093 f0d3 983f 82f0 ce2d ac15 ab3f
00000140: 5d03 5c76 33e7 9e3f 1ccd ceaa a0a1 923f
00000150: 9058 eb7d 75aa 94bf f369 fa07 fab8 b5bf
00000160: e634 d515 20e6 a33f 5157 db91 954e b1bf
00000170: 06f7 286f 167e 473f dcc3 7132 d15e 8f3f
00000180: 4749 d82f dfc9 c1bf a2fd 95c6 cc82 acbf
0.11621046919976706 -0.0408448322019374 0.011579484910909727 -0.08549322393834165 0.05901903237926428 0.038330807494615704 -0.05496876676984861 0.046689682259782345
-0.08269298063308195 -0.06356376775992602 0.0453092524970519 0.02433494703142809 -0.08707449297643303 0.04290023505714401 0.05209645184121189 0.10205163341770258
-0.0666779490232929 -0.005663639938563139 -0.06241876177686774 0.05134305832679124 -0.04305652432339904 0.018759156056097095 0.04394513272577493 -0.09050078497988512
0.07593151985573751 -0.04882643507520143 -0.07584915525116469 -0.04336905348336128 -0.032022561614380614 -0.030395625630135183 -0.008852343295509518 -0.007581746084542433
-0.03764551298079975 -0.09260790166077014 -0.0001390781376910494 0.00026483822458583413 0.07186046754885786 -0.03659625622860337 0.024245985973037218 0.0528997236174016
0.030178836917005614 0.018194685387880147 -0.020181499300485017 -0.08485377020625844 0.03886509195818082 -0.06760535059887941 0.0007169351141056164 0.015317568160954247
-0.1389731391541977 -0.05568542408127121

linear_layers.1.layer.weight f8 [50, 50]
00000000: 041c 3015 d636 c4bf 41f5 611d 6334 d3bf
00000010: fe8f a45c 91b8 d6bf 3453 644b 7c13 c63f
00000020: 56b4 354f 0d3f e33f b2cf ed8a 0a46 933f
00000030: b6c9 90a2 e769 d63f 8842 1289 8d07 b03f
00000040: 56b0 5753 553d aabf 034b c32c 5d7b da3f
00000050: 406b 5a73 3e06 b23f d3e0 e817 0427 b73f
00000060: 2e0c 145b 8f31 c53f 5d38 4344 8066 a53f
00000070: 5d13 9ee5 0207 c03f 477c f8a8 fd5c b23f
00000080: f052 70a7 21ae b13f 45a5 aeb9 555c bbbf
00000090: 5a71 b29a ed3a bd3f a48a ba42 5920 acbf
000000a0: c743 fca3 0bc2 c03f 99c2 96a1 69a0 c1bf
000000b0: ebbd 2999 d867 a03f 455d 5604 5f96 76bf
000000c0: 1711 5281 1e21 c7bf 0f35 c7c1 758c bd3f
000000d0: b9f6 07c6 17d1 cc3f 544d e2f6 a3c3 d5bf
000000e0: b106 58fe 3c8c cdbf f61e ad37 e995 b93f
000000f0: 0ce2 5676 bb28 aebf 995c 8da9 d4c5 b93f
00000100: 701c 3c07 9978 bf3f 02b3 723b 72d0 c83f
00000110: 933f 8bd6 2a13 b43f 973a cdba 8bde d3bf
00000120: 26b1 2208 069f dfbf 6be1 0e2c 7d4f d1bf
00000130: 6c9b 3dd0 92ee aabf 05dd 56c1 6fd4 b0bf
00000140: c771 ef62 f265 73bf b978 5837 bae2 a03f
00000150: 45ed 8069 942e cf3f 0ddc f617 a2db 8f3f
00000160: ecad 12cc bdc3 c73f 48d2 fc08 a9b9 b8bf
00000170: b833 53ae cc6c c93f 4a15 5099 68fc b0bf
00000180: 6549 21f4 3a07 683f 4447 5636 2077 ad3f
00000190: 56b2 0427 c355 b43f c674 b9f3 4fc3 b93f
000001a0: c770 5cf5 b5c4 b13f f377 9cf0 f076 a5bf
000001b0: c19d 7f02 b264 89bf f8a3 1cc8 f42b b63f
000001c0: debf d314 6f24 c1bf c02a 06eb 7a7d b43f
000001d0: c0f7 e992 6864 c7bf b8fe 7b3c 0703 cbbf
000001e0: b7c6 eaee 0ef9 8cbf fdbc 11db 4f7f b13f
000001f0: 0731 4a67 aa1d c5bf 84e7 9130 da64 c1bf
00000200: 3909 5711 cb1f b53f efa9 e0ba 8a3b b33f
00000210: 8434 a057 c814 c8bf bc4d 0e9d 63b7 c23f
00000220: 2799 f62f 8d3a a2bf e65a 6f2a c364 c43f
00000230: db46 e0b9 d72a acbf 8dff b045 2bd3 aabf
00000240: a89c 6d86 5635 be3f c35a a44c b498 b13f
00000250: cdd4 f314 bfc4 c13f 8661 5107 81c1 8ebf
00000260: 727b 888c f0eb 713f 2b59 fc6c 6cef 803f
00000270: fde2 919d 3dfd b43f aae2 58a3 6b03 c4bf
00000280: 814f b7cf f48b bb3f 26c3 08ec d769 b33f
00000290: 5397 b9fc b3b0 a8bf ca24 2504 5d70 afbf
000002a0: 9353 1f5c d118 abbf 3c83 c040 be98 af3f
000002b0: fb62 09f2 0188 b43f affa e634 a4be a03f
000002c0: 80ee 64d7 793f a33f 1ca7 90dd 7753 ac3f
000002d0: e5a3 bb2c 3085 c23f 384f 7b8d 6088 c8bf
000002e0: 2aff ede5 f353 84bf df0e 959c 1c52 aebf
000002f0: 4c7f 547a 23c5 afbf 0ab9 7ded 074a adbf
00000300: ba61 6620 7f10 b0bf 56e2 1e70 4a69 af3f
00000310: e1c3 d376 a2d4 cebf 8282 ca15 6794 a1bf
00000320: f3df 618e d8d7 ba3f 233b 569a a060 a03f
00000330: 3120 f391 8ca7 b8bf 9858 8896 9699 a93f
00000340: e6a1 4227 d2fe ac3f b701 61c4 f1a8 b83f
00000350: 24d5 16f8 71cf c23f 91e9 9474 484c c73f
00000360: 94b8 7613 ea70 a5bf 1166 c945 2147 a73f
00000370: bbbe 0669 28eb c33f 9e7b 70b7 f824 b9bf
00000380: ad10 b191 4eb4 93bf 2055 e143 5ae2 b5bf
00000390: 48b9 4a75 dd30 bfbf c894 9064 b143 a0bf
000003a0: dcfe 3661 7647 a6bf ae4b a51c 9253 9ebf
000003b0: fea5 31db b8e3 ba3f bd98 2dee f424 cb3f
000003c0: b0eb a7f0 c7f4 c9bf 60f6 7889 4950 c4bf
000003d0: 244a 3d8a d6cd 893f 3a75 99c2 2dcc c5bf
000003e0: d0fa 1775 43e0 b03f 2179 955c b107 bbbf
000003f0: a011 4ade 3813 93bf 53bc 6b7c 2b8e 99bf
00000400: 59bf b2cf ebf3 94bf c931 6bf6 9e98 883f
00000410: 9423 ec2e 141c ac3f d33b e6b9 8cbb d33f
00000420: b9e9 5a23 9c5b c3bf 60bf e561 dd65 a2bf
00000430: df6d bcb3 9749 c53f 8448 d099 ffba abbf
00000440: 4110 80f2 3bbc bebf 44c5 b4f7 4e2f a03f
00000450: 98b2 85bb d479 c4bf 0d2b 9e99 6a08 a6bf
00000460: 1bad 15a4 64e0 cc3f 1208 95cd 5255 b33f
00000470: 5801 8691 6074 b5bf 6c60 08c1 db4a cfbf
00000480: 5ea8 af50 f1d4 c7bf 6942 83ec 4a35 c8bf
00000490: d2fa 1c3f 8c57 b6bf da70 e08d 19f2 c13f
000004a0: ee75 0a58 8451 b3bf 8783 3e3a ae60 c3bf
000004b0: fb78 2f39 2005 bf3f a6a7 ac6f 971b e33f
000004c0: 4e6d 5cf8 2d13 d73f 3ce8 79ce ae5d 903f
000004d0: 978a a98b f136 e8bf 444c f08a 14c1 96bf
000004e0: 1ce5 069b 23c9 debf 95be cbb4 f469 b5bf
000004f0: 910c a21f d530 c5bf a4ca dfe8 ac95 e6bf
00000500: 2aac bce0 2317 903f 4846 0613 0afc 9ebf
00000510: 2a59 e885 155a cebf 89bd cee7 eb0c 963f
00000520: 6ef6 f4dc 08fd c2bf 1f8a 4e4e 27f1 a7bf
00000530: 8871 4ceb 7c65 bcbf aca2 fae5 de65 cb3f
00000540: ec74 f550 8181 a2bf 9ed6 7a1f f80b c53f
00000550: be04 9c78 2a09 a23f f0c4 3b16 efc7 db3f
00000560: 3724 4f03 20a4 713f a624 27da 6178 c1bf
00000570: df99 e8b1 0d39 d03f 2449 ca04 8c50 d9bf
00000580: a4ee 4a67 f70b b6bf 78c8 d95a cc18 d53f
00000590: 81cf f170 1cb4 d23f e65b d665 2498 d4bf
000005a0: 4c5d f21a 895d 9abf c756 1590 8dad 95bf
000005b0: 2686 2281 6db9 673f 576c 5f80 38e5 afbf
000005c0: 87ba f10d a402 adbf 0603 89b9 509b c73f
000005d0: b5c7 5783 f125 e23f 8a9f 7a07 b041 db3f
000005e0: de66 5664 1ca8 a6bf 11fc c923 7933 d63f
000005f0: 7a67 52d2 79da c03f c6e2 85e2 8892 bcbf
00000600: 81a8 7d73 11c6 cabf 024d b7b0 cd7e ac3f
00000610: d325 4781 e8e6 80bf 6d74 bfc8 2143 bfbf
00000620: 960c ad80 4663 dbbf 203e 0750 aca7 a43f
00000630: 821a d7dd 699d a53f ecbd 54c6 0773 b9bf
00000640: 9ea2 81df 02d2 c53f 6a03 816d 277e bbbf
00000650: 2c96 3abc e141 a53f 5ab0 9463 08c6 aa3f
00000660: 33f5 eb14 17a5 bf3f e0e1 eb2f f88e ab3f
00000670: 3fca c90d 9574 c43f b547 c11d ad82 c23f
00000680: a5f8 c84d 61a5 b7bf c781 ce0a 0050 b83f
00000690: 820c c3a8 5156 cf3f 30bd 7f0c d60e c2bf
000006a0: eb23 732e e68a 7c3f e20c bdff 5f3a d3bf
000006b0: 3ca3 5016 8d4a c2bf cd5f fb32 2bf9 d33f
000006c0: 9298 fc96 9160 b3bf 7268 6d3a ce99 b1bf
000006d0: 2570 7e69 4029 c03f 4553 9d21 b078 b93f
000006e0: bf60 1587 a194 cabf c7dc cdac bceb 93bf
000006f0: 5507 0598 0ff8 aebf f543 3f5a 93d4 d2bf
00000700: d530 bf61 4817 adbf bd87 0f40 8a16 89bf
00000710: 26ef 3bf6 bf78 7e3f 514f 10e6 f9dd bbbf
00000720: 6ad3 fee0 74ad 94bf d7a1 ae19 e443 b4bf
00000730: 3510 2836 b4bb bc3f 2d64 bb79 de63 ba3f
00000740: 27a2 bad2 af97 ac3f 035b 9602 ff7c b8bf
00000750: 0f37 4fcc 5e4b b23f a6f6 2375 ba67 71bf
00000760: 668a 4b0e 06af 843f ba83 1845 380e abbf
00000770: 2c18 c5f2 482a b5bf a8ff bdcf 2857 a33f
00000780: 62b4 b137 d566 c43f 467a 2c77 7100 babf
00000790: 8123 9cfa b20b a23f 038d 8ba5 4960 cebf
000007a0: d54a 7de1 60ba d1bf 70c1 fc4d 5c53 c3bf
000007b0: 505c d2f1 c2e8 a23f 0665 12b1 3286 b5bf
000007c0: 91e2 bb12 7ecb b5bf 1858 e164 e1ee c9bf
000007d0: e63b 3266 f600 c03f 5f44 ff61 72dc 98bf
000007e0: 6147 c52b d477 ba3f be70 65d7 e907 c1bf
000007f0: 7334 84ef 1c91 a93f 55b7 dfec 048d 863f
-0.15792346987311146 -0.30007245892905493 -0.35501512572432137 0.17246965104336598 0.6014467761102746 0.018821873406934926 0.350213917499015 0.06261524769275628
-0.05124918596615717 0.4137795388352716 0.07040777508011065 0.09043908675892291 0.16557495066817424 0.0417976458862632 0.1252139683894268 0.07173142791042252
0.06906328523502814 -0.10687766822106422 0.11418042208464865 -0.05493430079993303 0.1309217978200918 -0.1377079047211012 0.032042282768880735 -0.005514498863156196
-0.18069821657639615 0.1154244993296809 0.22513100785720555 -0.340065947625779 -0.23084223193295864 0.09994371041568315 -0.05890451259205429 0.10067490710695139
0.12293392588263585 0.19386127379166146 0.07841747033967143 -0.31045811884261226 -0.4940810279320139 -0.27047662069846606 -0.05260142127990872 -0.06574152441213606
-0.004735895940907792 0.032979792839101525 0.24360900069755523 0.015555635792095424 0.1856610533189803 -0.09658295125411442 0.19863279830897596 -0.06635144942273033
0.0029331351698058 0.0575494829491974 0.07943362906071036 0.10063647938064255 0.06940781822453622 -0.041923074122891445 -0.012399092389343449 0.08660821805518981
-0.13392437474203595 0.0800396751202852 -0.18275172399074613 -0.21102991536462468 -0.014146916071101285 0.06834887598391855 -0.1649678234429148 -0.13589026805476234
0.08251637624110665 0.07512728750649676 -0.1881342342243536 0.14622159165138082 -0.03560296259392919 0.15932502338429017 -0.055014363708449664 -0.05239234185910311
0.11800137311876091 0.06873633261816807 0.1388167240435564 -0.015017517124008572 0.004375400204053347 0.008269164157849026 0.08198914620323801 -0.15635438419282838
0.10760431357567592 0.07583379280619038 -0.048223137474265564 -0.061404139286034345 -0.05292371987858426 0.06171221294812887 0.08020031127069764 0.03270447870044301
0.03759365801167025 0.055324312016024474 0.14468958076693564 -0.19166190059933697 -0.00992575211944276 -0.05922021304516333 -0.062050923045033984 -0.0572054364591726
-0.06275171795858273 0.06135017985019846 -0.2408640938006377 -0.034335347566643484 0.104856047402677 0.03198720821375491 -0.09630659640527096 0.04999991023594069
0.05663162926913738 0.0963278870049241 0.1469557248471257 0.182015473293927 -0.0418770931968179 0.045464553612600274 0.15561394813766136 -0.09822039106846467
-0.019242503778756404 -0.08548511655074664 -0.12183937181064153 -0.03176645615193646 -0.04351396500305579 -0.029615672109979556 0.1050372634068921 0.21206533078947656
-0.20278262377527545 -0.1587001725437629 0.01259963616727073 -0.17029354097295785 0.0659219895241947 -0.10558613310192701 -0.01862801415201576 -0.024956397503896287
-0.020461735298055703 0.012009851355650707 0.05490172455581113 0.3083221259520858 -0.15123321272205972 -0.03593341655766724 0.16630836750196828 -0.054161059881281864
-0.12005972547928058 0.03161093496090442 -0.15996798664436507 -0.04303296208589389 0.22559793483683496 0.07552068251700941 -0.08380702545946883 -0.2444719975035271
-0.1861859935737042 -0.18912636326287505 -0.08727337399339355 0.14020080020498576 -0.07546260022578341 -0.1513879570384484 0.12117196460846806 0.5971181088582298
0.36054562810905544 0.015982371666247483 -0.7567069747713785 -0.022220917682784128 -0.48102655543660133 -0.08364800847970806 -0.1655527500589398 -0.7057709263156835
0.015713272659166368 -0.03025832882992166 -0.23712414778192087 0.021533666633045043 -0.14834700383100902 -0.04676173048871512 -0.11092358345599085 0.21404634694524327
-0.036144295818965805 0.16442777192212515 0.03522618028910916 0.4340779988406913 0.004306912470334593 -0.13648627426144805 0.25348226903807175 -0.3955411955622756
-0.08612009307665375 0.32963856575145867 0.2922431090330449 -0.3217860216622611 -0.02574743487329316 -0.02116986457743655 0.002896036029668608 -0.0622956902222646
-0.056660772993258716 0.18442734774910025 0.5671317639628258 0.4258842537915305 -0.04425133442710004 0.3468916749479272 0.13166735429404836 -0.11161094217630838
-0.20916956080629137 0.05565493375947918 -0.008252922482728053 -0.12211810256072093 -0.42793428960812585 0.04034174420268877 0.04221659501086085 -0.09941147415224066
0.17047153390310127 -0.10739370749889834 0.04151826307979109 0.052292120128499334 0.12361282597335758 0.053825145578176636 0.15980780766729372 0.14461292221909408
-0.09236724995659758 0.0949707056411234 0.2448217462570917 -0.14107776270200523 0.006968402048365778 -0.30043792700253225 -0.14290011968230398 0.3120830533857742
-0.07569227157782368 -0.06875313688706955 0.12625889922208092 0.09949780293147821 -0.20766085716127766 -0.01945395283425169 -0.060486304576001494 -0.29422458470531804
-0.05681825822066037 -0.012250022964454982 0.007439374781593766 -0.10885583750524332 -0.020192934258108343 -0.07916093470578943 0.1122391350000392 0.10308638069126692
0.05584477851272523 -0.09565728963057656 0.07146255958579338 -0.004249313688203726 0.01009945613026737 -0.05284286349729635 -0.08267646719932092 0.03777434860148726
0.15938821048203794 -0.10156926307215838 0.03524550732806287 -0.2373134668660911 -0.2770006372494838 -0.15098146255469258 0.0369320793335467 -0.08407894919436751
-0.08513629872676122 -0.20260255265992622 0.12502937307405587 -0.02427843783499772 0.1033909422742716 -0.13305399911303611 0.04993524955543984 0.011011160353486519

linear_layers.1.layer.bias f8 [50]
00000000: 7827 18bb 084d c2bf 302c fc40 bfca a33f
00000010: b471 a061 163f 603f a7f0 d06c 3b66 a03f
00000020: d551 ece0 f16e ba3f 0168 9447 7af4 b4bf
00000030: 2e7e ab10 5e3e b23f fa10 3305 1c98 a13f
00000040: a62d e9a2 f2a4 a13f 49dd 3413 b183 cb3f
00000050: 2181 730d e890 c03f 4dd8 f032 dd22 ac3f
00000060: 4a43 52f9 8f42 b23f 2b2e 7e77 bf91 9ebf
00000070: 5dc4 a50e 0bd8 5c3f 59d3 d9ba fe5d b23f
00000080: 0d82 9017 36b6 bebf 0425 ac29 85ed 993f
00000090: 8341 3517 64db 7cbf 0c6e 91af 314c b2bf
000000a0: 6753 1844 5681 b73f 125b 4b7a 2781 b9bf
000000b0: 0941 1cfd 6cc2 a53f a3d6 ac53 2919 b3bf
000000c0: a6e8 69ac 32e2 c73f 7b2e 5e3e 09bd c03f
000000d0: 7aa5 a343 0c33 74bf 8eae b240 473e c03f
000000e0: 44d2 fb86 5380 8b3f d8f5 c7a2 5e31 bf3f
000000f0: 6282 a1a0 ae81 993f abbb ba7d 43ed b93f
00000100: 0789 7336 96d3 bfbf 114b 8503 b56b bb3f
00000110: 2db4 e17f 2612 b5bf c776 9937 8637 bc3f
00000120: 0053 e645 6300 c53f 99d0 be7a e76e 633f
00000130: 8d38 b729 60d7 7d3f 5bac 091a 1b41 babf
00000140: aafa d1b4 4d58 9f3f 8e3c 8d19 95ac 923f
00000150: b628 24a6 ec33 abbf 7f67 8f99 8ec8 c23f
00000160: 875e 1ff5 c493 9cbf 4efa da32 1c72 b7bf
00000170: fc63 9abb 697c a43f 9c0a 606b 3eb9 b03f
00000180: 32c9 19db 17aa ba3f a834 3c5c 551d c33f
-0.14297589431253832 0.03865621250414397 0.0019832074294880656 0.032029969247078065 0.10325538388526152 -0.08185543296386301 0.07126415163974606 0.034363628039075736
0.03446157683046218 0.21495641172234972 0.1294221940688738 0.054953491657599864 0.07132816159197577 -0.029852859180705387 0.001760493085921653 0.07174675046719638
-0.11996782374672695 0.025320130032047153 -0.007045165042044113 -0.07147512947397433 0.09181727564312113 -0.09962698684408292 0.042498975655805245 -0.07460268299913735
0.1865905134071159 0.13076892419154604 -0.004931495577900841 0.1269005838306509 0.013428356701731599 0.12184707140109852 0.024908760599262066 0.10127660579267565
-0.12432230786683728 0.10711222969011326 -0.08230820295439463 0.11022223336609747 0.16407433426925166 0.002372219189021929 0.007285476337939423 -0.10255593667686595
0.030610288773909623 0.018236474690010378 -0.05313052681056389 0.14674551485114404 -0.027907445393650334 -0.09158493272387 0.04001169600559959 0.06532659646476663
0.10415791606081795 0.14933268550558876
