8_Inv_Lorenz/logs/models/2024-01-13-13-06-48_Lorenz_DNN_100X5/epoch_34000.pt (torch, 230843 bytes, 14 tensors)

alpha f8 [1]
00000000: 6e87 9ee2 fcf6 2340
9.982398111201942

beta f8 [1]
00000000: 7f93 79a0 f65e 0540
2.6713688408948992

rho f8 [1]
00000000: 69db b4bb ca0e 2e40
15.028890481784133

net.0.layer.weight f8 [128, 128]
00000000: 58d3 95ed d697 afbf 9d0f e581 a257 c83f
00000010: 6033 c3c7 d3b8 b4bf 2b92 aa05 e022 9bbf
00000020: a02d 63df 732a ad3f 5a40 a6bd 3813 c13f
00000030: d6ea 320a 054d 653f 9bc6 980d 32a2 d13f
00000040: 837a a36e b3a6 c43f 4777 1d7d edc9 ab3f
00000050: 1b90 6dd5 44ff c53f c73f f2c1 e1b9 d93f
00000060: 6ab2 7a45 9303 c03f 67d7 dba4 89d5 bf3f
00000070: 33ad cfaf 4e17 d13f 4299 f6f1 89fe bf3f
00000080: 7248 142c 29ad c2bf af20 2741 caf3 c23f
00000090: ce5a 0cdf 33b6 9b3f 9870 202d 5ea4 b4bf
000000a0: cda2 766c f9c0 8a3f 62f6 6044 e685 853f
000000b0: 5e69 2264 8215 bfbf 376e 8226 d1ea ca3f
000000c0: 9937 15bc 2f47 953f 55e8 0a8f 7eea b53f
000000d0: 9d74 6abe f62d d03f d330 ec79 1761 b63f
000000e0: a0b2 b70b 2dca a23f 9b56 1092 2ee8 bc3f
000000f0: 86e8 44a3 a04c c83f 1084 7310 2059 80bf
00000100: 1edc f69b 0f7b bb3f 2540 4b23 b43e be3f
00000110: 690a c36d 26a7 a53f 7793 11c6 0596 c63f
00000120: 3344 c3d8 5946 bf3f 2682 7f7b 7480 9b3f
00000130: c53a aee8 5ab0 c43f da9c bc0b 45bd c93f
00000140: 3dd8 2a97 c011 ab3f 7b8a cb99 e7b9 cb3f
00000150: dc01 e2e3 4a7a 7b3f e21a b04a e665 d13f
00000160: 7f37 0a75 787d b93f 7049 b1b4 086f a1bf
00000170: d29d 388a 38e4 c1bf 8dcd 4103 9b23 94bf
00000180: 99c5 9fb9 5c6e c0bf 0511 a2ff 5b7f bd3f
00000190: 7715 c53c 09e1 b13f 74a7 cc65 23e0 903f
000001a0: 889b 8c2c bd45 c63f abd5 5c75 f5ed c53f
000001b0: 4023 0005 49e6 bb3f dc88 2832 9275 abbf
000001c0: 7eca 2af5 3897 adbf 488d 5f24 98e3 b53f
000001d0: 06b2 38b6 48cf a2bf 54df d19c 960b c33f
000001e0: 1320 065e 3fae b73f 38a2 96fc 22a4 b13f
000001f0: b235 87d1 7d0c c13f c760 472b 4634 c33f
00000200: b9b7 10d6 1ae2 c9bf edbc 6025 ea6c bfbf
00000210: e3d3 76ed 9570 c8bf dcd7 bbdf f3c2 c4bf
00000220: 59e9 a706 fca3 913f 75c5 1202 5c5c c13f
00000230: 4c87 d1bd dad0 67bf b502 f49b 1129 a83f
00000240: ee94 938a 6436 67bf c2b5 ff20 df1a c1bf
00000250: 296b e726 2427 b63f d212 1ade ddd8 833f
00000260: 1e58 04d8 f962 c3bf 9b75 1e48 91fb b4bf
00000270: 133f de59 0df5 3cbf c2df 695c 0343 943f
00000280: 5ae0 7e11 2728 c3bf 6fe8 5cf9 44e1 bbbf
00000290: 564c f245 1661 ae3f da2e eb55 ac7c cd3f
000002a0: c042 0552 e593 973f 8267 061c 9abd b43f
000002b0: 025c 44c4 846e b13f 2b9f ad71 c1cd 9b3f
000002c0: 9b3c 8515 36f0 c1bf 18a1 bb39 e289 b6bf
000002d0: 8f42 5660 4b54 ad3f c0c1 95a3 e91c 803f
000002e0: 98f7 f554 ac3e 803f ee4d 8c55 7233 aebf
000002f0: 12db dc95 4343 b5bf 84cd 3058 cc1b b4bf
00000300: 4de1 5e07 eec3 9b3f 33d0 1802 970b bebf
00000310: 8580 d171 0af6 87bf 7d9b 4d42 531e c13f
00000320: b0c7 3cef 4464 76bf fecb 1b16 2816 7cbf
00000330: 750c 1215 be45 793f 55ac a6ef a3c0 bcbf
00000340: 56b3 c913 dc57 74bf 2a6f 4f63 299b 7dbf
00000350: f367 78fb 19e3 c43f 7888 0222 ec2a b93f
00000360: 788c 267c 4947 aabf b005 93b2 ba02 bbbf
00000370: 3be9 18ec c6b6 9dbf 17c4 0ca1 c47c b63f
00000380: 9db3 7d93 b9ae 883f 5b22 8b05 ed57 b4bf
00000390: 4d2c 6abc f604 3e3f ed35 5ff7 eefd c13f
000003a0: fee6 aaeb e4eb adbf ded4 2d50 2bfb b33f
000003b0: f7f1 9b2d 04ee bc3f fba9 e7bd 691f c5bf
000003c0: bc30 2210 7fd8 b8bf fe6a 4a2d 7c13 a43f
000003d0: 6a15 87b4 93e0 a53f 14ce ec39 e6e2 c1bf
000003e0: 13a8 ea66 b688 b83f 116e b48c 71bb aabf
000003f0: ae8c 6791 f228 bc3f a56c 6bf9 69c8 b93f
00000400: 90e9 b3a2 65a8 c33f 4b15 d04b 6f8b ad3f
00000410: 83f2 2a02 5a44 b83f 9f10 3743 14c2 663f
00000420: bc6e c80b 1304 8cbf 192a 7699 5774 c33f
00000430: 992a 90b4 ce26 b3bf 1d70 a0c2 1452 c83f
00000440: a355 eea0 fe83 ba3f 394f 23d7 7d17 b63f
00000450: 9998 d35d 31e0 b03f 2561 d038 f3a5 b43f
00000460: cea2 e4b4 782b 883f 46e7 6ebc 9a94 c33f
00000470: b56c d78c 3c12 c63f 1b7c 8391 605b c53f
00000480: ce88 9e91 b6b5 be3f 7c07 bbcf 07e8 91bf
00000490: d735 eda2 09ac aebf d601 5cee fb17 b03f
000004a0: 27a6 dd5e 17cf a63f 08cb 5577 e9f1 84bf
000004b0: 5a21 5822 c2d5 a83f ecfc 0b4a 867e c43f
000004c0: 2ecb 5f03 7bc0 c0bf b756 f7a4 7973 883f
000004d0: fe84 927f f115 a83f 1218 dc89 a6a8 abbf
000004e0: 7de9 f8d7 c278 c13f a66c 75a0 3970 c1bf
000004f0: c66b 8798 7859 a83f 2f58 0bd0 c549 9fbf
00000500: 72a5 cd98 8f97 a63f de23 de82 4b4b c53f
00000510: 5d6b c997 b8d5 85bf 4ff4 5a98 b128 c83f
00000520: d1a5 a76e a01c 9abf 7ddb 17a4 a67a 733f
00000530: e687 b3aa 0c68 c73f 4575 a10d 4031 b33f
00000540: db17 d010 c4ca 75bf db8f c4f9 b882 c13f
00000550: df66 7dec b12b c13f 860f 3db4 0956 c73f
00000560: 157b 40c4 c775 bb3f f0d3 5277 cbac bfbf
00000570: d3e1 b497 18ad b8bf 1892 e0eb b027 38bf
00000580: 73ee 7d57 6450 93bf 9ec1 1cc3 8f65 9bbf
00000590: 9856 80fe 4c4f 76bf e843 c87a 3b19 b0bf
000005a0: 8786 e1ae d849 b4bf 3328 4181 f626 c83f
000005b0: 49f9 949f f18b b9bf ee61 17cf 323d 92bf
000005c0: 2087 822f 96a5 a03f bd01 7719 9785 b83f
000005d0: 167e 667b 353e c23f b587 b683 3487 a23f
000005e0: 685f 3666 126f c0bf 46ac 3fdb ff34 c73f
000005f0: 61f9 5047 3693 c63f b120 fdb0 03a7 9d3f
00000600: ac4a 62ee ee3d b9bf df48 1c1e 1ba0 c2bf
00000610: b157 4662 0ead ac3f 5eb6 3307 90e0 c03f
00000620: 181d ce8c bf78 b4bf d941 8703 3964 ba3f
00000630: 1910 946f 2126 8bbf a30d 003f 8e2c a33f
00000640: 72b4 5901 0744 c6bf 52c9 8a30 f6f5 a23f
00000650: e19f 2e4e f7c2 bd3f 965d 778f 64c6 44bf
00000660: f9fe 96f2 bad1 70bf f6f2 1f60 2b7e c1bf
00000670: 147c 899e 3bfa bebf 1b76 a08c 27d1 b33f
00000680: b946 40d7 b970 afbf aa1d a525 69c5 9bbf
00000690: a140 c550 7921 c1bf 256f 866d d7c9 b03f
000006a0: d476 ed0b a028 7f3f cfaa 93b9 9aad bd3f
000006b0: 109a 4760 b9f5 ba3f fb77 c1a7 4685 af3f
000006c0: cd88 a203 0dcf a3bf 8651 9d93 137d c0bf
000006d0: 87bd a7c3 9d95 bfbf b22c 7c66 29eb aa3f
000006e0: 592c 7853 5b07 c5bf 32d2 8fec 0112 a9bf
000006f0: 768a b422 7572 b5bf 5c95 7fef bf98 c3bf
00000700: 5004 38bc 2a4b b93f 9253 0f2c e566 93bf
00000710: 2178 6676 e837 a7bf 678a 2521 8bd5 a33f
00000720: 1f7f b047 d565 bbbf fd1b ec96 f822 9dbf
00000730: 1273 bfda b0c8 c0bf 95b0 580a 2302 b3bf
00000740: 915f 35b8 6361 b6bf 7c14 1cb8 7d53 c03f
00000750: 09aa 3134 455a b3bf 283e 8a62 75d4 c23f
00000760: 9557 ef87 856b c03f ddef e60a a783 bdbf
00000770: 2d5f 29b3 5299 b5bf f184 7923 1b53 b13f
00000780: 181e 4225 635d c03f 1a6c f2d3 0daf 87bf
00000790: 434c 59cb d4c8 60bf ef0b e7a4 6b41 c2bf
000007a0: 6521 3d93 8dae b8bf c1e0 89fe 2aef c53f
000007b0: b3e1 2e7a 0383 c03f 376d e5e4 aa60 c1bf
000007c0: 2d24 e979 9ef1 c9bf 22bc d75e 682e b8bf
000007d0: f20f 55b7 8676 99bf 7b84 445b befc a5bf
000007e0: b77c 024d e427 c2bf 7d3a cf57 3102 a5bf
000007f0: 7767 b6f6 f595 ab3f 21bf 74f3 e659 b83f
-0.06170531892977377 0.1901744016887478 -0.08094524027837968 -0.026500225396960325 0.056964512843104886 0.13339909801698263 0.0026002024111141204 0.2755246289044437
0.16133730795168696 0.054274961016501914 0.17185268803871243 0.40197032871310195 0.1251091088537522 0.12435207629081689 0.2670475689798934 0.12497770459467453
-0.14590944912248777 0.14806488210002075 0.027062235344682155 -0.0806330547497417 0.013063381788769668 0.010509299241785178 -0.12142195648849483 0.21029104595514678
0.020779367308299965 0.0856093501305691 0.2528054103402811 0.08741900183321442 0.03669873016392455 0.11291781488429324 0.18983848545196141 -0.007982492925693335
0.10734651143762661 0.11814428197544709 0.04229087915293379 0.17645332499810326 0.1221672205167728 0.02685720447323283 0.16163193093639996 0.20108855317196267
0.05286981435112679 0.216610860915427 0.006708424129215431 0.2718444566129802 0.09957077844066296 -0.03405024724692651 -0.13977724789695728 -0.01966707427386676
-0.12836798728635015 0.1152245997528248 0.06984002812995081 0.016480019653648495 0.17400326419121037 0.17132442694280078 0.10898262378772205 -0.05363137113842395
-0.057794361045485396 0.08550406349200046 -0.03673770164855132 0.14879114777772406 0.09250255628114727 0.06891077677449509 0.133193709667848 0.1500327788660398
-0.20221267177970306 -0.12275565540834395 -0.19093584151201445 -0.1621994821977627 0.017227113634342348 0.13563108540760607 -0.0029072067541599297 0.047188329970599886
-0.0028335536668345684 -0.13363255606911478 0.08653474759868786 0.009690984097013997 -0.15145800636008827 -0.08196361551968893 -0.00044185234025294443 0.019786884799458233
-0.14966286043432114 -0.10890608871423678 0.059334465063465444 0.23036722369430757 0.023025115138184615 0.08101809677319063 0.06809263030696402 0.027152082980506236
-0.140143166072879 -0.08804143819327626 0.057283740529901477 0.007867646507947579 0.007932039587782033 -0.05898625654495136 -0.08305761727102048 -0.0785491671857042
0.02711460037218787 -0.11736434746927742 -0.011699754332028309 0.13373795258959467 -0.005466717982743605 -0.006857067668295079 0.006170027264604906 -0.11231445885521059
-0.0049666020173447425 -0.007228051826100127 0.16318058756661422 0.0983111937553377 -0.05132512703428288 -0.10551039561962372 -0.029017551574932226 0.08784130985147019
0.012052011312073502 -0.0794666422399443 0.0004580595381546468 0.1405619342680632 -0.05844035507966615 0.07805128772254785 0.11300684083466438 -0.16502115032865547
-0.09705347198377273 0.03921115925660067 0.04272901133257785 -0.13973691776628583 0.09583606731999365 -0.052211330819968656 0.10999980974115672 0.1007143243727336
0.15357656902763184 0.057704427723403194 0.09479296257900142 0.0027780910256485904 -0.01367964629849127 0.15198798173180775 -0.07481090458183316 0.19000491622216567
0.10357657841662742 0.08629595281973658 0.06592091122328937 0.08065719735202899 0.01180166532556495 0.15297254753914497 0.1724315345480584 0.16685111146122797
0.11996022277029114 -0.01748668866526469 -0.059906293047429386 0.06286596841164935 0.04454873116521823 -0.010227035478896265 0.048505846683897416 0.16011122336929107
-0.13087403931384628 0.011939001414173018 0.04704241449622691 -0.05402107651575262 0.13649783654711803 -0.13623733839890412 0.04755761014867903 -0.030554858038918716
0.044125068094966205 0.16636031999612916 -0.010661546833196029 0.18874187411521112 -0.025499827150189894 0.0047556409276613395 0.18286283812545817 0.07497024853497176
-0.005320325738471933 0.13680183597273196 0.1341459660277939 0.18231316853245633 0.1072659353380739 -0.12373038924381752 -0.09639123634122564 -0.00036857671136861355
-0.01886135849006938 -0.026754614146911153 -0.00544672084654043 -0.06288501498808297 -0.07925180692248023 0.1886890536428055 -0.09979162355464156 -0.0178115786455652
0.032513325976891716 0.09578842517567572 0.14252346539886734 0.03618778331589515 -0.12838964453544155 0.18130491452697778 0.17636755449525324 0.028957421948945853
-0.098601277541358 -0.14551104517210597 0.0560078139271093 0.13185310699138858 -0.07996747195840148 0.10309177719250985 -0.013256322114564555 0.03744930762334355
-0.17395103040636034 0.03703278868251182 0.11625619562857949 -0.0006340018289234136 -0.0041062643662710336 -0.13666288560479928 -0.12100575085195003 0.0774101942374376
-0.061406905675665376 -0.027120249674479936 -0.13383404201386376 0.06557985710099652 0.007607102567673347 0.11593024283107954 0.1053119525964592 0.0615636901645615
-0.03868904752131783 -0.1288170309804963 -0.1233767130540767 0.05257539154089254 -0.1642870099607048 -0.04896551144330309 -0.08377773377700656 -0.15309905237442478
0.0988032063978761 -0.018947201551629052 -0.04534841962161829 0.038738582416745264 -0.10702260017614805 -0.028453716479841507 -0.13112459832236617 -0.07425135614966145
-0.08742354628827644 0.12754794587832297 -0.0755961658884773 0.14710871993564578 0.12828129899451982 -0.11529010788120737 -0.08437077402174671 0.06767434707719013
0.1278499538350253 -0.011564357786758395 -0.0020488887919696565 -0.1426214747608294 -0.09641346783349077 0.17136132649080163 0.1289982172581979 -0.13576255966732173
-0.20268612816497136 -0.09445812526222189 -0.024866204204286597 -0.0429439054880811 -0.14184240112533583 -0.041032354325229094 0.05387848507525821 0.09512179797888766

net.0.layer.bias f8 [128]
00000000: 654f c64f 30c2 983f 9ba6 81cd c393 803f
00000010: f4f5 cbed 3628 af3f 1310 a3ca b499 a33f
00000020: a056 4e3d aa3c 9c3f ad9d 60eb d82f 9abf
00000030: eac8 3608 2683 86bf a2c8 111a 6780 c13f
00000040: 5904 782f ff36 7e3f f2e8 af7c 3c79 b0bf
00000050: 7da4 caac 4c6b ae3f 5dab f07f bd40 ba3f
00000060: 7cb5 a831 43f5 9e3f aed6 c194 43b8 ac3f
00000070: 25bf e8fa 7d97 a0bf 15c8 16e6 6e3a b4bf
00000080: dc49 73e4 ffd4 b8bf a07c db11 bc04 a1bf
00000090: 1c93 92d0 ada0 94bf 66c4 c050 1d9a 773f
000000a0: f3bd 9da9 a9c4 b73f 7e9f dc0a af9d a23f
000000b0: fef7 1bfb 9cd3 97bf 3ba6 e09a 0aa1 99bf
000000c0: d778 5812 db06 b1bf 3a65 e7ae 4585 623f
000000d0: f31a b26c 33f4 b4bf f2d2 9d47 1424 9fbf
000000e0: feb2 6d27 d358 9d3f e711 6943 1e61 abbf
000000f0: 66fc cf27 242a 9a3f 1208 3ee2 a2c2 99bf
00000100: 0ff2 1fa9 099d 98bf 6be8 c1af 2674 a5bf
00000110: d124 7190 73e5 a6bf 8c81 0e67 4784 a13f
00000120: fb87 e50f 345e a63f f10c 4f59 dd8c aa3f
00000130: 13c3 acb5 3cd6 7abf 828d 9df8 ccad b83f
00000140: d9a3 4799 0952 9dbf c6b8 b5a1 5049 773f
00000150: 344a 96aa 4ad8 893f 92b0 a67e 4d3a a43f
00000160: f873 bbed 5e7a 93bf 9126 12ac 4002 50bf
00000170: ea5f e1ca 577b 90bf b6ef 89e4 0b96 b5bf
00000180: 94cd 4672 7d89 7e3f 8669 577d 4f50 93bf
00000190: 4eba e01d d204 7d3f 423e 2c0f 1d68 983f
000001a0: 5506 a909 befa a33f 6d47 7a44 208d a13f
000001b0: a329 9c21 c130 aa3f 115b 6b77 09a2 a0bf
000001c0: c1de 1e48 94f9 ae3f 82d2 09ee c55c 96bf
000001d0: bcd1 c2d3 f68b 94bf 3fc8 1d0a bc31 92bf
000001e0: 6345 1db9 df5b a3bf 5ef7 8ded d59d a9bf
000001f0: 493f eade f39a b23f 8307 5d86 7271 97bf
00000200: faa4 764a 459e b83f 5e1d 9b21 b498 b53f
00000210: 2bd3 c5ea 3ae4 a13f a658 35db eb8f 84bf
00000220: 5f43 3ebf a62c a9bf f2b8 33e0 39ea 913f
00000230: 7a11 4e2b 0d78 aabf 468c 75cb 6c62 783f
00000240: bdfe 916f 2136 923f 16e7 1092 9ddd 633f
00000250: 781c caab 46e7 b0bf c923 6734 1f26 a63f
00000260: a073 1c0a d8c6 a13f 90a5 081b 2c15 97bf
00000270: 85dc eed1 06ff 96bf 22ba 65bb ebe2 a73f
00000280: 99be f0e2 5bff ad3f 8b54 e297 b17f ac3f
00000290: 17b5 c759 720a 933f 1670 2145 abd6 9d3f
000002a0: 4029 de2a 2628 b93f 0560 de5c 2080 bdbf
000002b0: 89a2 f1fe ebfb b4bf cf7a c0a1 b49e a13f
000002c0: 5ed8 6ea2 d46b b4bf 74c6 7a97 2b7a 9abf
000002d0: a8de 6ca6 bc25 a03f 9c0f 5660 dd71 a73f
000002e0: 0003 8ed0 0730 85bf aec9 10c3 f4f7 9b3f
000002f0: a5e9 bd90 c0c5 9c3f 8130 4826 c4f2 1dbf
00000300: 0c1b 1d9e daa3 afbf e247 ab16 f09f b03f
00000310: 1cb4 6fb0 491d b53f 674c 2c4b 753d b93f
00000320: 1dbd 16df 9293 abbf dacc c8fe 875a 553f
00000330: e789 e40e 3a13 9b3f 9e3b dbb5 3028 a13f
00000340: 1091 dc17 2a46 ae3f e62f b2a4 9b1f a4bf
00000350: 80f8 2bf4 7d3f a7bf cf54 0b3d 3c01 b63f
00000360: 4be8 5840 851d b7bf 3444 b21e 2e8f 94bf
00000370: d355 a4a5 e7b8 6bbf 4369 8e0b 6864 a7bf
00000380: 331a c8e3 0978 8d3f 0a37 5405 f9c3 a73f
00000390: 7b86 a107 06bc 843f 2a0a 8a4f 8382 91bf
000003a0: c238 a8b7 9ae9 94bf 108a e567 d015 ae3f
000003b0: 46aa 24cc 1dc5 973f 8435 a73a a638 773f
000003c0: 4e12 727c 963b 93bf 9fb4 ecf0 8a2b a33f
000003d0: 426d 5d70 bf7d 88bf a27f 689f 868f a8bf
000003e0: 2f1c 24f3 57ee b4bf cd68 2669 049c afbf
000003f0: 96f6 29e4 9643 94bf 89ba 027d 8084 833f
0.02417827116876427 0.008094339093264671 0.06085368778984082 0.038282060371358416 0.027575168601819855 -0.025573148123070478 -0.010992333532020077 0.1367310406963656
0.007376667802874237 -0.064349918786238 0.059412380306931724 0.10255035756624183 0.030232477098413466 0.05609332266696519 -0.032405793074188595 -0.07901661984831805
-0.09700011565590877 -0.033239247493605406 -0.02014419160390722 0.005762209428255982 0.09284458533306132 0.03635928161230505 -0.023268177820675355 -0.02502838678643669
-0.06651086042299724 0.0022608147621495907 -0.08185120967582886 -0.030411068793415326 0.028659152299428385 -0.053475328186809716 0.02555138104434853 -0.025156540926680356
-0.02403655142551214 -0.04190178771473615 -0.04471932542998903 0.03421233304038926 0.04368746465731018 0.05185596194453435 -0.006551968714845885 0.09640198774063971
-0.02863326070829317 0.005685152976509572 0.012619574862388828 0.039507314405768615 -0.019021495113395986 -0.0009770995677932696 -0.01609551597388751 -0.08432077722130668
0.007455339455577987 -0.01886104776881716 0.007084675568008137 0.023834661532474273 0.03902238719866761 0.034279831275070595 0.051153216698440994 -0.03248624403720702
0.06049788837793591 -0.021838276532849317 -0.02006517093168879 -0.01776784717316837 -0.03781031737038167 -0.05003231549106489 0.0726768893457549 -0.02289370484437071
0.09616501872973862 0.08436132259804682 0.03494438281896913 -0.010040133120736105 -0.04916878780853184 0.017495064076620666 -0.05169716981530122 0.005953240375080665
0.017784616884908944 0.0024250104475215346 -0.06602899259643091 0.0432595969646808 0.03472018359591478 -0.022541703367243537 -0.022457224429413464 0.04665314352574891
0.0585888590361467 0.05566172579816805 0.01859453843092237 0.029139209837339385 0.09826887651994287 -0.11523630397130098 -0.08196902250495887 0.03441395258436374
-0.07977036443375726 -0.025856667633610234 0.03153790980871679 0.045790594110285826 -0.010345517208180777 0.02731306496225166 0.028098114809361658 -0.00011424371911789197
-0.061796981621730834 0.06494045785373673 0.08247814710166818 0.0985940273788387 -0.053860273106119495 0.0013033226088168732 0.02644053188226705 0.03350975246359343
0.059129062092582285 -0.039303649763581736 -0.0454062805711013 0.08595634928072403 -0.09029419728258962 -0.02007743894916221 -0.0033840679508425424 -0.04568791523998297
0.014389111770481388 0.04641702833224144 0.010124251468542447 -0.01709942982643945 -0.020422379931965613 0.05876017826337343 0.02321287687770226 0.005669259388424112
-0.018781997056537762 0.03744157973265171 -0.011958594910245982 -0.04797001548672532 -0.0817618340116588 -0.061737191997239906 -0.019789083171863973 0.009530071082136675

net.1.layer.weight f8 [50, 128]
00000000: 3f43 be8e 3d6d b8bf a23a 0777 0f88 9ebf
00000010: e587 ff40 f0d6 b53f c21e 6eaa f5b0 bb3f
00000020: 21b3 3112 9d00 b4bf 120d e0ac 8b06 c33f
00000030: 1210 70cf 90d6 c1bf 728c 9f50 9c25 be3f
00000040: 14cf b429 eb3a cf3f 28da d5e6 f497 bdbf
00000050: 0526 b5a4 6e48 b3bf 070a 1b9b cb84 b8bf
00000060: 5750 7c26 c5a9 d4bf 84cf ed66 1c17 9f3f
00000070: 6602 1d9b a80d b13f 5770 381c c163 b5bf
00000080: 7f44 6edf f14e 9fbf 5d29 48ec 6bcd b4bf
00000090: d149 5e1c d21a c93f 36e7 acd6 006f cebf
000000a0: 4160 0b25 a740 cdbf fd04 620e 7ec7 ccbf
000000b0: 4f09 08e1 8232 d53f 8fa0 65d3 6d8a 6cbf
000000c0: 2014 2c95 448e a93f b17a 3363 9bbc bbbf
000000d0: bee1 c6d9 83ba c7bf d8c5 dfb7 73c8 c3bf
000000e0: 3c7c 7250 030f bb3f 29b9 423a 7f1b cf3f
000000f0: 248c b0f0 b11c a7bf f179 e887 d68f c03f
00000100: 62cf ecae bf25 d13f 0738 dd87 ff4c ba3f
00000110: acce a405 7090 8b3f 1d9f caea 8f72 d8bf
00000120: 3913 ce74 b7e7 c03f 5988 3d95 d19f c3bf
00000130: 5a12 4d7b 9da1 c83f c1f3 9d12 564f cdbf
00000140: 3426 3da0 4083 d2bf c777 f129 be7d c9bf
00000150: bb9e 0765 4e46 cabf e7cd 45c9 8050 a2bf
00000160: bec4 248e 7cb8 95bf a24a 111f d887 c83f
00000170: 6ab5 bcf1 cca6 c23f e335 3659 4688 b93f
00000180: eb03 cb0b e314 a83f 9e8d 9378 fb94 b43f
00000190: b4f2 e4a0 7462 a13f 3977 5dc6 d3dc c4bf
000001a0: 314b 8c2f edae 75bf b4fa 4b21 8b27 ca3f
000001b0: 981b 6baf 51ed c93f 6b90 9750 3afa 91bf
000001c0: 38e4 5ad4 ddab 893f 7094 4547 cccf ca3f
000001d0: 79a9 acf6 05d8 c23f a80c 46c5 5051 a2bf
000001e0: d0f0 a245 c791 c9bf dd62 6ac1 cd4b c33f
000001f0: d908 1aae 071f b3bf 46bf e944 39d0 a3bf
00000200: 520f ec0c fed0 8a3f fcd6 3b46 6848 bd3f
00000210: ca43 53a1 1a8e 9ebf 3870 0e57 0e47 b23f
00000220: 6621 7a9d ae44 bd3f ad16 093e 45fa c1bf
00000230: f862 76d2 3995 aabf 7559 8942 0dde c4bf
00000240: 5e5b be62 e1d9 b93f 2408 944e bbe2 d23f
00000250: 51e6 fcfc f20e d5bf a200 1dea 9239 c83f
00000260: 9673 9e28 9f95 a8bf b0c4 7034 d8e9 bf3f
00000270: 6921 a928 b4b2 acbf 15aa 7d3d 20e2 923f
00000280: a05b 0c49 4b08 c7bf c95f 0fbd 608e c5bf
00000290: 5189 1f06 77dd bfbf ba6a bf79 ee0a bd3f
000002a0: 30da 4094 1c3f ac3f 1aa8 327d 7c0e adbf
000002b0: d4a3 72f9 5d25 94bf 1a2b 3a0a 05d8 cdbf
000002c0: ed3b ad51 203b b7bf 7dbb 30de b335 7dbf
000002d0: 9475 359a 0154 b63f 0802 fce8 a5a1 36bf
000002e0: c612 f116 ab28 af3f ee90 e67d 6da4 cbbf
000002f0: b3ff a5d5 7fa6 cb3f ddbd 9eb3 3ea6 c33f
00000300: 5d16 67e1 b144 c73f 99c4 ba23 fcba a0bf
00000310: fe97 4d13 b5df bdbf 0abb 3c07 f724 c73f
00000320: 169b a960 8377 c83f 2066 98ba 75e7 bb3f
00000330: b767 3c09 5a5f b3bf 6517 2270 4bff bfbf
00000340: a14a 0d6f 385d 82bf d854 8dcb 9127 c23f
00000350: d58e bedb a88f 8abf f146 af17 f404 bc3f
00000360: 157e fda3 4390 c2bf fc5f 38a7 1b53 c33f
00000370: f210 2b60 38a2 b83f 358c 706f 5f19 b6bf
00000380: faec 88fc 142a c2bf adb2 6dfc 303f c33f
00000390: 244c 8da5 f8e3 a53f 03ed bdbf a85f c63f
000003a0: 4786 9965 b72b b33f 4f79 1089 bba8 a3bf
000003b0: 42b6 a6d1 3347 ac3f 0038 501d a1d9 a93f
000003c0: 704c 0535 7752 c0bf 54fa 0ec3 4394 c8bf
000003d0: cf8a c345 4426 a13f 89fd 4da8 ace7 75bf
000003e0: 5dbe a75d d7fa bebf 8e28 2f0f 44fc c53f
000003f0: 8d3c 744a ddcb b23f 3314 d8ed 261c 9fbf
00000400: 9cba f1d8 7149 b33f 8edf a706 1997 98bf
00000410: 508b 5e54 3f95 c7bf 8ab6 7bfe 9f84 b63f
00000420: 25d8 528b 27ba bd3f c711 9eb7 7ef1 b63f
00000430: fd1d 97af e9fd c0bf 84f2 2f10 1016 8f3f
00000440: dc27 4e0a aa18 c23f bf04 5b68 5769 c8bf
00000450: 6ae9 3dd3 459a c33f 2ae2 b16a 152d c1bf
00000460: 5473 b227 a2ad a93f 70ca e835 3167 a7bf
00000470: 2df1 5183 b8a3 ac3f 5b76 40d0 930f d2bf
00000480: b4b2 f27b f11d d7bf f3c1 b389 f506 cdbf
00000490: 69b9 3ae6 2195 b03f bdb2 7a80 cc20 cb3f
000004a0: f7f5 5213 0fb4 c1bf 2601 2196 67fa d03f
000004b0: 3e65 8085 1f0b 9d3f 68d3 76a2 633e ad3f
000004c0: 2146 dd03 bc76 c5bf 2199 a2fe 8169 bebf
000004d0: 319b aea2 c804 8fbf f33e b115 41ea c03f
000004e0: d856 00e0 6c0e bcbf 1766 98d0 7952 d3bf
000004f0: 8af1 16ab 39aa b3bf 568b d0d9 7728 c3bf
00000500: 180d 2929 7e5e bdbf eada 85a2 2f51 90bf
00000510: b66d d493 640e c4bf 21c1 129f 60e2 8fbf
00000520: 61d0 938b 6943 a93f a3ec e7fb 0865 c33f
00000530: d0c0 e66d d61f c1bf ec72 09ba 3f3b d43f
00000540: c493 5aef 6a0a b53f 0b27 888b 5bb2 d33f
00000550: 2845 8262 fdc6 bbbf b7dd c7d9 1f72 c63f
00000560: 166e 4333 c2b8 c1bf f3b2 57ee df2a b73f
00000570: 6a8e b3c7 8f6d bb3f b9a1 0f2f 52d3 c5bf
00000580: 9d1d 70a3 7a5d c7bf 6a35 d175 74ce b33f
00000590: 15aa 5d92 56c4 c13f 2157 2063 a48a bfbf
000005a0: b53c 2330 6bc8 d03f d86e 47b0 3592 cabf
000005b0: 6991 9b85 cd64 b73f ca98 c82f f96d 9a3f
000005c0: b22a a7c9 4be6 bd3f 3f61 44a1 c37c b1bf
000005d0: 65b2 0f9a 000b b2bf cfb4 afbd 6256 c43f
000005e0: da50 f082 a8c0 643f e0bb 1486 3a64 cd3f
000005f0: 087e 596c b4de a33f e7ba 484a 1751 c3bf
00000600: ea5c 2ab4 671a bebf ffc5 1a25 9818 973f
00000610: 0723 56b5 c1c5 ba3f 0682 58fc 6bc4 acbf
00000620: 9c9d 73c2 cd0a cbbf 4b33 1323 5d3d aabf
00000630: 76e6 ca94 e647 cfbf 1cfb 38fe 87e7 c23f
00000640: 0b70 6170 4802 b6bf c2a4 7045 688b b2bf
00000650: b866 ac8d 3989 bd3f 3dfb 8dce ee8a d93f
00000660: 7663 79d5 aad5 a53f 579c 0213 ccb5 bebf
00000670: 1eb6 0527 e07f bfbf b9e9 1db5 ece9 d83f
00000680: b336 ae28 f296 8c3f f397 8647 4d6d bbbf
00000690: 0e75 7706 6b48 abbf 805c 071c 2d45 c0bf
000006a0: 2d6e 04e2 2707 aa3f 8c38 3100 7451 a73f
000006b0: 1fd4 67c2 cdc2 b63f 4973 c0f4 8594 cebf
000006c0: 3249 81dd 249e bdbf 3b89 819a 6900 823f
000006d0: 1e5a d000 967f c93f e26a 2c05 7ebe bbbf
000006e0: c889 ebe2 dec4 c0bf bf84 c586 f44d c93f
000006f0: b54b 5928 a994 aa3f f0b8 2df8 c49d b23f
00000700: 47d8 426f 73b9 b9bf 314f affb 4905 c2bf
00000710: 75ea 1cac cc27 9fbf 73f3 fb41 b84e d03f
00000720: caec 0167 4b04 d0bf a313 2b48 c9ce d8bf
00000730: efcc 8620 0277 b63f 7e6e 488a 13fe b23f
00000740: 9a91 5536 e47a ab3f 2805 232f 93f0 b5bf
00000750: 72f6 f2ef 346b d7bf 31d6 3440 7899 abbf
00000760: 26ce afdc fbea c8bf ecde d960 0ddd 993f
00000770: d119 29d7 6b0d a13f e49a f3a6 6398 c1bf
00000780: dcf9 62bb 9304 b0bf 509c 12da 4eee d03f
00000790: 2608 b1e5 8e4e cebf f0f3 9d02 9912 c0bf
000007a0: e1c4 3be5 70dc aebf 846a bf9a 9e4e a23f
000007b0: 40d4 20be f959 ca3f 2fa2 875b f95b c7bf
000007c0: 7c48 f2fa 2d8c bfbf e17a 59dd 9623 d43f
000007d0: 1627 a4fb 35e8 a33f 5eeb 256c bf15 a6bf
000007e0: 74cb 1258 669b c43f 7194 2d7e e859 d0bf
000007f0: f628 0610 3ece aabf 81b0 18e9 fff3 cd3f
-0.0954168771261381 -0.02981590427389825 0.08531095110768623 0.10816893969433308 -0.07813436216538296 0.14863725606128547 -0.13936052445217278 0.11776139229145757
0.24398555313529668 -0.11559992442730815 -0.07532397767240447 -0.09577629601248115 -0.3228619457088419 0.030361598760876088 0.0666146639532684 -0.08355338038421799
-0.030574588071946792 -0.08125948446846594 0.1961310041920812 -0.2377625511378995 -0.22853555020151542 -0.22483802511491283 0.3312079618045986 -0.0034839768442687723
0.04991354294728745 -0.10834666416074402 -0.1853794873584444 -0.15455481031635432 0.10569782938044708 0.24302664131887156 -0.045140801077899334 0.12938958774698464
0.26792900164149647 0.102737398786502 0.01345908658240743 -0.38199232033592684 0.13207143023842052 -0.15331477915885008 0.1924321033531154 -0.22898364933999285
-0.28926101349188404 -0.19914986656197994 -0.20527057583898575 -0.035770439690988635 -0.02121157281471108 0.191645636720371 0.14571534923144763 0.09973563840886572
0.04703435439069622 0.08039828962096471 0.03395428146402449 -0.16298911271854324 -0.005293776041770213 0.2043317711431506 0.20255490365363182 -0.01755610577483006
0.01253484062486808 0.20946649055545974 0.14721750778819478 -0.03577663810849546 -0.1997613039037618 0.1507508463298767 -0.07469223022966122 -0.038697995817413885
0.013093933839179481 0.11438609804812566 -0.02983895883227542 0.07139672875786196 0.11432925552992898 -0.14045014885976084 -0.051919753018585924 -0.1630264830479963
0.10098084126216864 0.29508860276848936 -0.32903742509697503 0.18925701552689583 -0.04801652308308417 0.12466193466458964 -0.05605090137811681 0.01844072699842954
-0.1799406153374692 -0.1684075282234956 -0.12447303676120682 0.11344805214268208 0.055169003579454645 -0.05675114658636478 -0.019673794126592828 -0.23315489768386827
-0.09074594492015793 -0.0071312929240282515 0.08721933379043484 -0.0003453283361381236 0.060857149649142836 -0.2159554352521193 0.21601865703632725 0.15351089258682196
0.18178390031805494 -0.0326765817275227 -0.11669475289599515 0.1808155808771164 0.1911472532258009 0.10900054746198196 -0.07567370152938123 -0.12498923766733368
-0.008966866387401242 0.14183256568018154 -0.01296932144743527 0.1094505842040936 -0.14502759463628992 0.15097375550317327 0.09622528407914269 -0.08632465811437913
-0.1419092400627518 0.15036594701395725 0.04275490780732863 0.17479428636929847 0.07488580923520614 -0.038396702271927034 0.0552307313367746 0.050488505199709266
-0.12751665200139284 -0.19202467941609547 0.033495076671689376 -0.005347895091176177 -0.12101503407006349 0.17176104298988942 0.073423224141367 -0.030380829111909157
0.07533942743769234 -0.024013892203555147 -0.1842421686133897 0.08796119654626913 0.11612174178557717 0.08962242110107531 -0.1327488047956961 0.015178800100323693
0.1413776922530009 -0.19071476550565156 0.15314553083937749 -0.13418834409437014 0.0501528428514805 -0.04570916922638879 0.055936590223583195 -0.282200768824486
-0.36120259384442055 -0.2267748758672635 0.06477558012804753 0.21193844102289985 -0.13830746120031254 0.2652834859946033 0.028362743876731537 0.05711661680417174
-0.16768598736466436 -0.11879742113760418 -0.015145842995321597 0.13214887198636624 -0.10959511250288345 -0.30190892573009037 -0.07681618144028426 -0.14967249045829573
-0.11472309594050889 -0.015934700293167937 -0.1566892358613196 -0.015568499426394102 0.04934243992639221 0.15152084636779248 -0.13378410688665676 0.3161162678496072
0.08219021171187452 0.30776108385235607 -0.10850509314538626 0.1753578008062797 -0.138450884848553 0.0904979664698649 0.10714052796861898 -0.17051150606063262
-0.18254025440567725 0.07736900211712841 0.13880426546832383 -0.12320926113201526 0.2622325868696394 -0.2075869665849186 0.09138187896639284 0.025810140172460895
0.11679528878372983 -0.06831000029740596 -0.07048038254988283 0.15888628255871715 0.0025332728614647472 0.22962123438762116 0.03880847761751843 -0.1509122002330152
-0.1175904097420816 0.02255475737064749 0.10458002736244164 -0.05618607955353032 -0.2112672042342013 -0.051249418765655884 -0.24438173547041558 0.14769077218257898
-0.08597233527819996 -0.0724396867305073 0.11537513455223347 0.39910478755330187 0.042645777281626815 -0.11996150459400333 -0.12304497673695677 0.38927762686912676
0.01395978151938535 -0.10713656421884803 -0.05328688100756028 -0.127111090360561 0.050835844364169304 0.04554331304881129 0.08890996929388038 -0.23890757036942947
-0.11569433601224402 0.008789849307679112 0.19920611419429773 -0.10837543131166741 -0.1310080154426727 0.19769150334017202 0.05191544168032839 0.0727198701767724
-0.10048600641570814 -0.14078640736863116 -0.0304252605485353 0.25480467265861434 -0.25026211795166076 -0.38762123153383693 0.08775342268090801 0.07418939710663072
0.05367196238765644 -0.08570213223267287 -0.3659183829548517 -0.05390525611657571 -0.19467113757819837 0.025257309948272175 0.03330552102538643 -0.1374630513375542
-0.0625698406683805 0.26454516693269614 -0.23677240577132003 -0.12556755664618846 -0.06027558134327094 0.03575606955538027 0.20587083610158352 -0.18249432534436624
-0.12323272110578104 0.31467219940343055 0.03888100334923032 -0.043134672118830805 0.1609924249692899 -0.2554875595290645 -0.05235475488287193 0.23400877839720027

net.1.layer.bias f8 [50]
00000000: 660c c45c edb7 373f 405c 0fc6 067d 9c3f
00000010: 36ee 7327 1bd6 953f c5bb 3fcc 21c9 81bf
00000020: 4203 5313 4cf8 8fbf 2144 1bbf ee8d b1bf
00000030: 1740 d954 be34 8e3f 6c06 ddca 52c6 b4bf
00000040: 6077 dd4f 5a6a 9abf c152 fa93 93b8 a1bf
00000050: eab2 8f01 32e2 a23f 575d 6d35 9dbd 5dbf
00000060: 8fe1 95aa 4a54 bdbf f31a 7ebb b97e 943f
00000070: c037 3ff2 0cef a13f 1ce8 7f68 a2ee b1bf
00000080: f48d 40a9 f8d7 b9bf 29ca 5941 5188 b53f
00000090: cb67 730e 1ce5 c23f 78be 6ad6 eb27 95bf
000000a0: a5e2 a4c6 e362 70bf 2eee fe4f 0fc7 afbf
000000b0: 17fe 5d4f 3217 813f be7a 8e7d 7bac b0bf
000000c0: 7e49 7803 6d31 8abf 97b3 ab37 62b6 b1bf
000000d0: 3a28 e164 bd20 b43f e22b cfb0 e8d4 af3f
000000e0: 9814 a463 d8cf c33f d626 a19c 80d9 b03f
000000f0: a482 f3e8 ae97 b93f 831a b74a 140e aabf
00000100: 88a4 3962 2d96 a1bf bbf3 eebf 4f9f 8fbf
00000110: a72d b9bd 8946 8bbf 22fa a9ce 4ce4 b2bf
00000120: bd2f d179 6843 853f 4d82 656b 3f28 a03f
00000130: 213f de4a 8e54 a73f 51c7 508c 89f8 b53f
00000140: 84dc f0b1 8870 c03f d64a 1924 2e45 4abf
00000150: 6d2f 30ae 51b7 913f a1e6 64c4 ad34 b6bf
00000160: a69e 5534 ae6d 97bf fee3 cff7 4e86 acbf
00000170: 001d e206 af76 acbf b6a7 c44c 5e73 a53f
00000180: e435 f5c0 3891 b6bf b838 16bf 4e62 60bf
0.00036191506366395896 0.02782068809377969 0.021324562342654306 -0.008684410138782081 -0.0156103080174731 -0.06857196965872038 0.01474903770863993 -0.08115117504805774
-0.025796328663424517 -0.03461133176202714 0.03688198346194389 -0.0018152270547114513 -0.11456743874248886 0.02001466948379522 0.0350269361220934 -0.070047522080046
-0.10095171100743255 0.08411128850438189 0.14761686997991172 -0.020660099946950145 -0.0040005586145574245 -0.06206558085929391 0.008345025107472854 -0.06513187232347215
-0.012789584797279426 -0.06918920382641001 0.07862457001570614 0.06217124136272624 0.154780434277346 0.06581882308924078 0.09997075259480909 -0.05088866626788493
-0.03434888671910935 -0.015440581364481667 -0.013318134405514949 -0.07379608197695878 0.010382477014125752 0.0315570658301608 0.04556698478620392 0.08582362819359203
0.12843426407355107 -0.0008017039583115514 0.017300869232755135 -0.08674131436137113 -0.022879335350266893 -0.05571219229745593 -0.05559298476242169 0.04189581572639105
-0.08815340720067116 -0.0020000017181650252

net.2.layer.weight f8 [50, 50]
00000000: 4dce 0c3f 896a cebf 67c6 b3ab b44b c03f
00000010: 5adb b62d 7f9f c53f 41a5 ca28 6b7c 9abf
00000020: 997d a088 3e2f bd3f e9b9 a4d3 548d cdbf
00000030: 8374 b582 0c97 c13f 7e21 636f 3ea4 cdbf
00000040: 9e1e 0c85 c566 babf 7814 ba9d f1fa 81bf
00000050: 0f66 9fdd bcb3 c83f d9a3 a9d5 360e 50bf
00000060: d1fc f780 d316 c13f b342 6fbb 95b7 883f
00000070: f7f8 fd6d 3f6d c2bf c552 cee9 e8ab a0bf
00000080: 8027 7c33 6120 c13f 3ff2 ad53 fd33 bebf
00000090: 1a3b 6cde a549 c83f 6f88 78eb 0c55 95bf
000000a0: 54ba 1874 ce70 c4bf e160 3479 cca1 b5bf
000000b0: 1fc7 2487 1e7a 9dbf 0426 5119 ac06 cb3f
000000c0: f76b 9e22 663b c5bf e20d bd7e 57c5 d0bf
000000d0: a5be 6d2d feca ccbf 21bb 3e86 febf a9bf
000000e0: 7cdc a9de 1e38 c63f 75bd 18e7 8a6d b9bf
000000f0: 7d07 8ef9 47b6 cdbf 563a d3db d4fa c03f
00000100: b796 48e6 8652 d03f 5290 c507 d91a c03f
00000110: 7f2f cfc9 47d3 cabf 5443 ac24 f2c7 d33f
00000120: 2a3c e7a1 1c8e 913f f78e 98dc b8be bd3f
00000130: 9fea 7a88 97d3 d0bf 1b5d 5f12 30c9 abbf
00000140: f093 0c32 2867 c2bf b2e9 8fc1 660e cf3f
00000150: ccfa a1af 533f c9bf 66cd 854c cad5 a8bf
00000160: 3796 57cf b9a4 c33f c945 ba62 b68f aebf
00000170: f39e 59b6 a16f bfbf b853 b04c c835 cfbf
00000180: 9e60 4542 05b5 c03f ab59 680f 306f b23f
00000190: da6e 30d8 66dc a9bf 45fc 9600 557f b9bf
000001a0: 4fc4 7ea8 a8f2 b23f 5920 115b a82e a4bf
000001b0: d3ae d54c 2d62 7abf fcb6 f3e0 7f5c a23f
000001c0: c559 f99f 7926 bbbf 3142 c582 d174 d5bf
000001d0: a0ca 0438 856c c13f 1262 e73f 01d1 dcbf
000001e0: 5a18 99c9 39d7 d13f 2507 dac9 c9f0 bb3f
000001f0: 3456 25bf daf7 d5bf a9f2 7c1d 5f2d c33f
00000200: a6c1 5145 6d30 bb3f 5b4c 79f0 dc31 b4bf
00000210: 8a6c 52e9 03c3 d0bf b673 2375 7023 c33f
00000220: 170d 1e55 6067 cc3f 2b91 dbd9 0c1c bbbf
00000230: a854 8a45 8cf6 c63f e57e b4c4 a50d d3bf
00000240: aa5a b1a3 4831 d03f f71b 5359 4ba2 bdbf
00000250: 9302 f48d 9beb c73f b02c 2ced 4a01 d5bf
00000260: dff8 af07 16de a43f 1df6 b04f b94a 953f
00000270: 0979 3b7c 83b3 ca3f 8ef5 9e1b 064e b03f
00000280: ec82 e3ea 0dcc b7bf 5e65 38e8 9fff d9bf
00000290: 60ff 2346 931c cc3f 8e04 fa27 e0bf cd3f
000002a0: fffb 505b e4b0 b63f 4f95 e13b c586 c03f
000002b0: 8c1c 9448 fd1f b63f f210 37b1 0a20 bd3f
000002c0: 646c 830d 6b20 c4bf 828f 72e5 fd59 bbbf
000002d0: c8f4 32a1 d1fc 943f ec1b f05b 4bfb a53f
000002e0: 5623 ddcb 3698 c73f b26e 534c b8c9 b13f
000002f0: 133d fdb3 8214 c8bf 59d3 9444 8f32 c7bf
00000300: 40ec 2bf1 3eb7 94bf e590 27a3 bdf2 abbf
00000310: 1dc1 0552 5883 d2bf d604 e153 1414 c0bf
00000320: 20e5 8e5f 99de bc3f dd20 c4c5 9bc2 9a3f
00000330: cc08 451d fa4c d73f 69d5 934f 9efa d9bf
00000340: 1b7d 8a5c 1f49 c9bf 8139 19f3 7408 a13f
00000350: 1fb9 834a 2f8e ad3f a7a2 6a17 f957 d8bf
00000360: dd43 2998 fb8d c13f 30bf 9388 764a b33f
00000370: dffa fddd f838 cb3f 7a6d 6325 237f c83f
00000380: 8600 7548 8671 d9bf b136 35b8 7b08 cbbf
00000390: c438 723a 5612 d13f f2a4 0527 c28f c7bf
000003a0: a9de fed4 4471 ba3f 55a1 cd2f aa8e 793f
000003b0: d6b1 d97d 4687 9bbf d538 506d 5673 cb3f
000003c0: 24e9 feed 1022 c2bf e79b 721c 3b74 b5bf
000003d0: 1f97 d0f2 6ed4 623f 7f5f 1173 945f c4bf
000003e0: c9e8 5142 3a3a a2bf e058 ae38 980e debf
000003f0: 1693 4859 2407 b73f 0301 afa1 eba3 b93f
00000400: 8575 9565 0eee da3f a1f6 f0c3 6e6b 94bf
00000410: 9bda 208f d600 af3f 8d70 49c9 62c4 babf
00000420: 7b58 24f2 64e7 a3bf 03f2 f7fe e31a cabf
00000430: a482 ea41 d386 983f bb11 445c dd31 cd3f
00000440: cd7b d2cf 778f 913f 0aab 7558 8c0c cb3f
00000450: 491a a10f 06fc a2bf dac7 cb5c 1bba 963f
00000460: 7762 5252 be76 cc3f d5f9 68fb 3947 c83f
00000470: d098 a7ea 2873 c13f 7178 6847 82cb b7bf
00000480: 7ac3 c967 b024 983f 0e9d 4320 7e5b c4bf
00000490: 641b fb16 e354 99bf 9682 a868 d01e c33f
000004a0: 7aa5 12ce 5658 d2bf 7a39 4354 815a cb3f
000004b0: 4525 dcbc 3ccf a63f 3525 2a9c a7e4 83bf
000004c0: 327f c3a9 aba6 c2bf 5444 a7a4 c299 a4bf
000004d0: f693 73e9 9087 ca3f 6d9b b308 58c0 9b3f
000004e0: cef4 7395 a2e2 c53f e2a2 ed06 5ed4 86bf
000004f0: 18ed 3a80 295a cd3f c048 2a8b 71b2 b13f
00000500: 0cdd b594 afd3 cfbf d40d 0e13 a61f bdbf
00000510: a98f 28f3 2285 b1bf e096 c476 3b21 c8bf
00000520: 669a cb62 8509 b73f 2f6e 5c5d 8acb c03f
00000530: a899 7220 7968 a8bf e2ea 75ba d311 d1bf
00000540: d390 92ca 79d8 b83f 5ae0 3e91 1cb3 cebf
00000550: 2ac0 4af0 b265 cbbf 5e1a 2a88 4de4 93bf
00000560: c1e0 064a e1fb d23f 1e45 6066 1d4f a63f
00000570: 375c 9a6d d25c 863f e909 7d36 0cb0 c93f
00000580: f139 04da 296a cbbf 4240 2f84 3500 c7bf
00000590: 78e2 b365 34fe c6bf e2c1 d005 5f56 6abf
000005a0: b6bb e701 0ca8 c43f 0a44 b67b 44ea d13f
000005b0: b5b0 4969 43e7 c53f 5120 b2e5 51fe c3bf
000005c0: 1635 9d47 64a4 6a3f aae6 0306 8bca ce3f
000005d0: d9b9 6a6a 33f5 d7bf cb7a b9ee 956c c6bf
000005e0: bee8 5eee 863d 8e3f 9785 b723 a9cd d0bf
000005f0: dff1 b15e 6f30 c4bf fda4 953d 7ce7 b2bf
00000600: 1536 89e4 b186 b6bf ec9d 828b 23b2 b0bf
00000610: 7060 2c9a 1fe6 a5bf 692c 7fb6 c497 c63f
00000620: 91f0 0452 c4df bbbf a288 4ddf 657c 6ebf
00000630: 49b6 cad1 fbc5 b4bf 7c55 e4df b6a3 be3f
00000640: 6902 4d00 5e6c d1bf a335 9a15 b80c b2bf
00000650: 7934 6a35 fcc9 b5bf d811 51c1 c73d b53f
00000660: 107a 040f 6858 7bbf 8469 0005 754f adbf
00000670: 22aa c4fe ccb5 b33f af5a 190a 7bc7 b3bf
00000680: 5880 cbcb 8149 a6bf 9285 2887 2173 c2bf
00000690: 54c5 663f 8c9c c3bf e3ba d93e 1ec8 6c3f
000006a0: 9578 4fe2 c2e8 c53f 93ed 48d8 a055 ae3f
000006b0: 737c 2973 75e9 b3bf bdf8 99ce 6797 c9bf
000006c0: 3f21 d8d2 f866 d3bf b631 a198 2aa7 81bf
000006d0: 4df1 e6db 8550 c53f 6ea2 266b 8686 b1bf
000006e0: a8d0 8619 5ff6 98bf 8295 841e 4d99 acbf
000006f0: 7c87 6154 8b06 b2bf 133b 6dbb 878d bcbf
00000700: 973b bdc1 b451 cc3f 533e f53c 7543 d5bf
00000710: 4959 2b94 4556 b1bf a199 2f4b 3f59 d73f
00000720: f58e d1cc fb6b b3bf d303 26b4 9854 d03f
00000730: cce5 ec70 cc79 bdbf 1cab 0fe8 b8c1 a73f
00000740: aaed f165 ceaf d4bf 04f1 b7fd ac66 bcbf
00000750: 967a e0db a066 d13f 34f9 2663 3a13 d0bf
00000760: 8d61 a553 203a cd3f 5187 0364 286d d33f
00000770: ed26 a706 4586 bc3f 87be 899a ce56 b4bf
00000780: 20f3 2625 74ed da3f b08c 79e9 43a3 c4bf
00000790: 0217 be8f 208a db3f 2efd bf3f a7e3 cc3f
000007a0: eb82 c88b 1bed 92bf 842e 9c9a 6bff babf
000007b0: 0639 0853 4eb7 c53f 7cb3 9fca ecd2 d83f
000007c0: 6eef fbf7 1d5b b93f fb3d 77e2 4774 cbbf
000007d0: d7e5 9aad d533 bf3f 7d66 b4df 69b6 953f
000007e0: 3fbf 9b51 30a3 d1bf 9bf1 9fb7 19bb b43f
000007f0: 1425 2b65 99d1 c53f 5cfc b95d 5951 d03f
-0.23762622431387329 0.1273103559865831 0.16892995578902054 -0.025865244259567936 0.11400214038484648 -0.23087559065011412 0.1374221456743819 -0.23157482565717297
-0.10313066957689407 -0.008779418588583207 0.19298516103189953 -0.0009799514288266668 0.13350909993457674 0.012068910391378784 -0.14395897741992034 -0.032561567822232663
0.13380064977564743 -0.11798079770046231 0.18974755630957746 -0.020832254287718784 -0.15969257992533648 -0.08450010260674247 -0.028786160467638596 0.21114112125569318
-0.1658752125775604 -0.2620447862320515 -0.22494485109517828 -0.05029292477353509 0.17358766433946815 -0.09932773725517115 -0.23212527928631835 0.13265476926467795
0.25503704537036803 0.1258193290660779 -0.20957276681872014 0.3090787275441944 0.01714367616824234 0.11619143853800638 -0.26291454628123206 -0.05426931595109804
-0.14377310222440043 0.24262699557568862 -0.1972450835782723 -0.04850609001268928 0.15346453308227279 -0.05969018893405182 -0.12279711439043321 -0.24382880920952998
0.1305243085469145 0.07200909019625239 -0.050509656801492844 -0.09959918274306385 0.07401517976428916 -0.039418469540181085 -0.006441285089163268 0.03586196537967898
-0.10605583339324827 -0.3352550293975894 0.13612427935875804 -0.45025664558991807 0.2787613362055531 0.10914288690585446 -0.34325283686243613 0.14982212962958855
0.10620768492095198 -0.07888584967558769 -0.2619027880225039 0.1495190212216621 0.221904794274544 -0.10589676207343206 0.179399045901538 -0.29770797929266585
0.25300804124473564 -0.11575766497399785 0.1868776744013486 -0.3282038990152598 0.04075688213196015 0.020792861451118683 0.20860332075148616 0.06369054960574358
-0.09295737251842312 -0.4062270896698318 0.21962204861483325 0.2324180789183043 0.08863665799525221 0.12911286758314097 0.08642561933457865 0.11377016855755409
-0.15723932418663644 -0.10684191562410031 0.020495677436646514 0.04293284890450608 0.1843327041081248 0.06948425162721142 -0.1881259325841503 -0.18123045777033545
-0.020230277509636574 -0.05458634010918376 -0.28926666269309625 -0.12561277480748484 0.11277159293139905 0.026132997461019925 0.3640733037792756 -0.40592153331029707
-0.19754402178384897 0.03326764552604101 0.05772540840722428 -0.3803694466283027 0.13714547090287868 0.07535496553805099 0.21267615165193995 0.19137992215733474
-0.39755398822672594 -0.21119638914608665 0.26674419124254833 -0.184074658445105 0.10329084587180638 0.0062395713729091655 -0.026883222037598596 0.21445732438627965
-0.14166461583028778 -0.08380479282878604 0.002298561760215714 -0.15916686647937792 -0.03560049113817027 -0.4696407845998589 0.08995272807858287 0.10015747735360851
0.42077979965491635 -0.01994107314043581 0.060553269359322225 -0.10455911077719034 -0.03887477355799348 -0.20394563626895498 0.023951817415425083 0.22808424954577142
0.01714884954401068 0.21132044143026746 -0.03707903805530017 0.022194316424197648 0.22237376231784697 0.18967366004831257 0.1363268991255553 -0.09294904940949934
0.023577457747197418 -0.15904213500400782 -0.024737880971567164 0.14937787161126853 -0.2866417896680883 0.21369949926743087 0.044549844793503136 -0.009713468030229858
-0.14571138180962745 -0.040235598182001425 0.20726214789388536 0.02710092118368428 0.17097885415561226 -0.011147245966371459 0.2293140293239524 0.06912908217990132
-0.24864763985872462 -0.1137641712685345 -0.06843775211797144 -0.18851416873183435 0.08998902952189666 0.13121156271596265 -0.047672066889663356 -0.2667130776314207
0.09705315776460859 -0.23984105197974054 -0.21404110653884462 -0.019425593791789424 0.2966235373419402 0.04357234835345934 0.010919231386010348 0.20068504963462822
-0.21417735238396987 -0.1796938796455852 -0.17963271108580492 -0.0032150131142076746 0.16137838452365622 0.2799235542416346 0.17112009659775188 -0.15619872775664814
0.0032522162045213283 0.24055612367356122 -0.3743408717372439 -0.17518877178641498 0.01476579108190312 -0.2625525330350568 -0.15772812007698087 -0.07384468558815978
-0.08799278096667991 -0.06521818309794697 -0.04277132756232127 0.17650660429930845 -0.1088831615679189 -0.0037214269345194487 -0.08114599105712118 0.11968558279143865
-0.27223920850159417 -0.07050657775308493 -0.08511329940866287 0.08297394246716949 -0.0066761078635679955 -0.05724683462195215 0.07699280948569556 -0.07726258274611085
-0.04352956402522129 -0.1441385183289126 -0.15321496101163723 0.0035133925182927335 0.17116581011118073 0.05924704208561162 -0.07778104840825666 -0.1999330290599967
-0.30315991010913373 -0.008619625838172645 0.16651986348541428 -0.06845893970479164 -0.024377332623502085 -0.05585709569485699 -0.07041235742647517 -0.11153457952353234
0.221243471717085 -0.33224230721404985 -0.06772265307822524 0.3648222192990947 -0.0758664488835697 0.2551633605253844 -0.11513974911658592 0.04639985878733041
-0.32323036151475526 -0.110941707556723 0.2718889376864494 -0.25117358858905736 0.22833637317922886 0.3035374619195084 0.11142379200387227 -0.07944957039739552
0.42074302318705925 -0.1612324609769522 0.43030561482770235 0.225697427871617 -0.01848261871976124 -0.10545990490589402 0.1696565537863039 0.3878738383053173
0.09904658607768876 -0.21448610837840917 0.12188468445210475 0.021203665045595777 -0.2755852505642799 0.08097992642428269 0.1704589599596963 0.2549651541994018

net.2.layer.bias f8 [50]
00000000: 0602 ca2e 43cd 983f 6c55 1470 2864 c33f
00000010: b287 98d5 9ec3 d13f c26e 0241 3571 51bf
00000020: 23e7 13df 80a2 af3f d089 4f0a ccfa ab3f
00000030: 67cf 07c2 d495 c2bf 2370 3a30 ee91 a6bf
00000040: 2400 2250 a98d 62bf 6fa0 9506 2842 c1bf
00000050: 390e c604 2a24 9e3f 2060 8838 ae23 c03f
00000060: 5b64 6fb9 9dc4 333f ed56 a760 96c1 a6bf
00000070: 2f2c 1847 cdbf a03f e8ee 1bb5 663f a13f
00000080: d76a 1c6e 6bf2 903f 81df f955 feff bebf
00000090: 47c5 29b8 757d bebf d6e2 b0ee 8b8d 813f
000000a0: 65a2 0a93 3420 b5bf 7954 4c25 d84a b43f
000000b0: c951 3ea6 092f c7bf 794a 5dba 19cf 61bf
000000c0: 82aa 5374 e6c7 9d3f 7c95 e8fa 3cd5 9cbf
000000d0: 78ed fd1d 2666 c7bf 35cd 3b62 3639 86bf
000000e0: c97c 254c 1e16 c63f 1ab1 ebf8 7f3e b23f
000000f0: 4f24 8a8f d040 c33f 1695 fa91 3803 94bf
00000100: 7ea6 ee29 5bc3 973f f8ce 6bd6 0ce9 573f
00000110: 7376 8bea a058 88bf 26f0 0ee7 55de c23f
00000120: 7c2a dc7b 906a c2bf 3d64 53c6 8e81 7cbf
00000130: efb4 9353 3fc7 843f 5ce8 5f04 7a1a a3bf
00000140: c6a7 732b a9a1 9a3f 5cd2 55ce 3a1a a6bf
00000150: 1425 f155 b849 b13f 4b35 f800 9c2c 97bf
00000160: dc70 32eb 8fc8 c2bf dab3 3ad5 915d b4bf
00000170: 2fce 105a 1e56 b3bf cdeb b1da e9b4 bebf
00000180: 0edc 0ab3 f6bd a63f 525f 895f 880d 933f
0.024220514040736794 0.15149407837513296 0.27756472453085757 -0.0010645885522881236 0.06178667758099567 0.05464780450690265 -0.1451974818625061 -0.04408211077426951
-0.0022648150343798235 -0.13483143159396913 0.029434830228195905 0.1260888839758545 0.000301636225626794 -0.04444570474485752 0.0327133321080385 0.03368683777622811
0.016549757571833048 -0.12109365080857339 -0.1191018652550798 0.008570759984750802 -0.08252266492730483 0.079267033678052 -0.1811229764686131 -0.002173948526356381
0.029082871294046082 -0.028157189192048446 -0.1828048368878219 -0.010851311562396585 0.17254999845588362 0.07126617266812155 0.15041548737306917 -0.019543537053910397
0.023206161913242422 0.0014593720786110747 -0.011887795598734407 0.1474101427282914 -0.1438770870957632 -0.006959493364058264 0.010145659196917537 -0.03731137565041884
0.02600731208523379 -0.04316886681309448 0.06753112886612583 -0.022631108817269745 -0.14674567207555966 -0.07955275970262168 -0.07553281496876062 -0.11994802083238128
0.0444180577809946 0.01860631068333813
