8_Inv_Lorenz/logs/models/2024-01-13-13-06-48_Lorenz_DNN_100X5/epoch_12000.pt (torch, 230843 bytes, 14 tensors)

alpha f8 [1]
000000 bb 52 ea a6 50 fe 16 40
       5.748354538013412

beta f8 [1]
000000 00 98 e9 01 1b 52 04 40
       2.5400905751621394

rho f8 [1]
000000 75 a9 28 68 4e 40 29 40
       12.625598196948639

net.0.layer.weight f8 [128, 128]
000000 4e c4 1e b3 b3 a2 b0 bf fe c2 6b 62 ff f2 c6 3f
       -0.06498263476420726 0.17929069810590897
000010 7d 58 23 ac a8 13 b5 bf f6 1a b7 96 b6 1e 9a bf
       -0.08233122065152716 -0.025507786702088496
000020 38 36 40 c8 20 61 a7 3f 25 b4 c5 8e 26 af c0 3f
       0.045662903256112164 0.13034517260840164
000030 2a 1c 20 0a 63 17 6f 3f 78 21 4c a0 83 fc d0 3f
       0.0037953314176806434 0.26541224149743625
000040 a6 e1 1b 8d 59 fc c3 3f 31 9c d9 ba bd 12 ac 3f
       0.15613860502322757 0.05483048349270126
000050 a0 b5 5b 0c 11 8f c5 3f 95 fb 27 3f 58 7e d9 3f
       0.16842854598455137 0.3983364693412395
000060 04 3b 11 e0 76 a7 bf 3f 03 cb 27 42 af 10 c0 3f
       0.12364905329125625 0.12550917368169942
000070 d5 67 25 42 99 5f d0 3f 99 6e af 7c 23 21 bf 3f
       0.2558348794897232 0.12159940523218395
000080 71 84 d0 d2 57 9a c2 bf 4d fe b4 63 1e b2 c1 3f
       -0.1453351764076021 0.13824825161462898
000090 c7 b3 47 96 ca 9e 95 3f 69 79 33 08 f4 7d b5 bf
       0.02111355344998225 -0.08395314407559841
0000a0 43 b8 16 c9 97 ad 8c 3f e9 82 2c de fb ba 86 3f
       0.014002977203599559 0.011098830907543671
0000b0 36 07 d7 bf 4e cd be bf 14 e3 0a 3d 55 a5 c9 3f
       -0.1203202455863249 0.20035806160537872
0000c0 ee 4a 52 e8 9b 3f 96 3f 4c 78 05 40 a7 28 b6 3f
       0.021727024130607946 0.08655782044431354
0000d0 18 af f3 27 31 5f cf 3f 68 01 69 6b a0 17 b6 3f
       0.24509252978111173 0.08629801389998237
0000e0 51 0a 5b 77 43 72 a2 3f 45 e2 5a a6 ad 0b bd 3f
       0.03602801162698611 0.11345944701577888
0000f0 43 40 7a 0f 3a fb c6 3f 76 a4 3d c6 7f 7d 91 bf
       0.17954183345546157 -0.01708030364480747
000100 62 8f 81 59 af 71 b9 3f b7 2f 3c 2a db 65 be 3f
       0.0993909448166597 0.11874170094614454
000110 f7 fb 12 c8 ec 42 a6 3f fb f4 49 64 b8 ff c5 3f
       0.04347934667884339 0.171866463631808
000120 0d d3 e9 dc 40 7e bc 3f 60 1a 70 e9 f1 21 9b 3f
       0.1113014735545443 0.026496677277487612
000130 1e b8 b1 e0 b0 99 c3 3f 02 a4 a7 e7 7a 51 c8 3f
       0.15312777491948365 0.18998657523414414
000140 4d 08 0a f2 06 f9 a5 3f 6c 40 a2 45 9d 10 cb 3f
       0.04291555122928568 0.21144452953422233
000150 51 13 04 43 2a ba 61 bf e4 bd 10 f2 b1 2c d1 3f
       -0.0021639657426270405 0.2683529724044702
000160 c8 27 55 52 d0 08 b7 3f 36 8e ae ca aa d3 a0 bf
       0.08997823724817444 -0.032864892236173324
000170 92 11 a9 17 8f ca c1 bf f6 bc 98 0f bf 9f 9a bf
       -0.13899410872739942 -0.026000008894865943
000180 fb b0 09 1c db 49 c0 bf be 17 79 07 22 f9 ba 3f
       -0.1272539030936811 0.10536396677443258
000190 76 88 c0 83 83 53 b0 3f 12 d6 80 eb 8a 66 91 3f
       0.06377431837657518 0.01699273168943278
0001a0 4d df b8 b0 bb 6c c6 3f 5d 1c 30 f3 3c 15 c5 3f
       0.17519327286731326 0.1647106349412039
0001b0 fe d9 fc 18 b9 0b bc 3f 2a 73 80 f3 90 dd aa bf
       0.10955387935687352 -0.052471666073165515
0001c0 cd 9f 57 e6 78 1f b1 bf f1 23 28 44 4d ec b3 3f
       -0.06688647864905235 0.07782442964538895
0001d0 97 e3 00 44 a1 65 a2 bf 2c 44 5d 4a d9 cf c1 3f
       -0.035931624938206834 0.13915554171629319
0001e0 3e 3f 96 00 bf b4 b7 3f df 1c f1 f0 14 73 ad 3f
       0.09260171665505099 0.05751862946686414
0001f0 e1 1a d4 0d 4b 36 bf 3f 67 5b d0 47 69 ca c1 3f
       0.12192219817743989 0.13898960119760348
000200 56 61 43 d7 f3 0c c9 bf d3 1f bf 34 4e 32 bf bf
       -0.19570777903460151 -0.1218613508964375
000210 91 bc 9a df 57 9f c7 bf 17 a6 6d 1a 70 58 c5 bf
       -0.1845502702539972 -0.16676141062207314
000220 00 c1 5f 52 4e 55 95 3f 57 24 9d f3 bd 86 c0 3f
       0.020833228852951358 0.12911199946600746
000230 b2 98 4d 0d 70 ab 47 3f 65 29 8f 1e c2 ef a6 3f
       0.0007223412636505804 0.04479796050107402
000240 59 cf bd 88 2f fa 7e 3f c2 76 cb d1 17 c8 c1 bf
       0.007562814407595508 -0.1389188551319674
000250 74 dc 67 88 af 7d b4 3f 53 c1 5c 89 26 21 93 3f
       0.08004281120507689 0.01868114674943062
000260 71 24 da fc 31 91 c2 bf ab dd 2d f4 a9 f6 b3 bf
       -0.145056007826756 -0.07798254214673388
000270 96 6b d1 0e db 0d 34 bf 6f 27 47 c9 f9 e9 9a 3f
       -0.0003060016450199763 0.02628317156794629
000280 f6 9c 67 cd a2 d4 c3 bf cc cf 6a 72 19 ae bd bf
       -0.1549266341164423 -0.11593779605283244
000290 71 ca 17 42 88 63 ab 3f f2 4e 79 89 a2 a7 cc 3f
       0.053493745868668514 0.22386581146803725
0002a0 d0 ed 4c 9b 23 c8 92 3f 69 62 66 dd 57 15 b6 3f
       0.018341595033445846 0.08626317172309829
0002b0 bf 8f 51 77 15 84 b2 3f dd 40 7a bf a6 6a a1 3f
       0.07232793963481664 0.034016810296749724
0002c0 b4 be 8c 2d 1b 89 c2 bf 96 12 35 69 8e bb b7 bf
       -0.14480914806471434 -0.09270563190973244
0002d0 11 05 43 f6 fb d1 af 3f a2 74 24 66 ba 0c 8d 3f
       0.0621489275085968 0.014184433214320006
0002e0 91 f4 81 72 a2 db 8c 3f 67 f1 27 0d 6a 7c ab bf
       0.014090794677253523 -0.05368358049961124
0002f0 8f ac f9 34 5d a7 b3 bf fc f6 16 19 94 0c b5 bf
       -0.07677252333967231 -0.0822231827978292
000300 d2 66 8d 6c bb 7a a2 3f 89 b6 11 a6 7d b4 bc bf
       0.03609262180425578 -0.11212907127784368
000310 0b ac 3d 55 b1 9a 8f bf 5a 7a db 80 26 50 c0 3f
       -0.015431771673055669 0.12744599620687574
000320 3e c3 ad 4b 20 8b 72 bf c9 e2 c8 5b 6e aa 4b bf
       -0.004527212290540926 -0.0008442915782956524
000330 54 0b 43 cb b3 8f 5f 3f 12 94 06 fd 28 af bc bf
       0.0019263511467648336 -0.11204773118386438
000340 74 39 de 6b 0b 19 7f bf 01 f4 5b eb f2 5a 8b bf
       -0.007592243780790365 -0.0133570650173116
000350 9a da fb 0e 39 63 c4 3f f2 15 5d 8c fe cf b6 3f
       0.15927804214125701 0.08911124159666153
000360 7e fd dc db c4 de ab bf e8 89 c2 98 9d f9 bb bf
       -0.05443396743657568 -0.10927758197298199
000370 cc 06 bb f5 20 9f 98 bf e3 b1 f6 ec 5d ee b3 3f
       -0.024044528005794416 0.07785594020123869
000380 fb 23 00 5e 6b 1b 80 3f 9a 88 31 7a 35 a3 b3 bf
       0.00786479836098585 -0.07670912011374967
000390 37 69 57 0f 8c d7 75 bf 1c ab e3 a9 15 4f c1 3f
       -0.005332514866916597 0.13522597117783952
0003a0 6c 8f 35 c5 48 05 ac bf 71 c0 3d be df 75 b1 3f
       -0.05472781569804294 0.06820486445008257
0003b0 b4 74 c0 57 cf 94 bb 3f 6c 04 63 d0 5a a1 c5 bf
       0.1077394093740221 -0.1689866559518437
0003c0 fc 94 12 63 f3 9d b6 bf b8 38 35 3e 38 94 a6 3f
       -0.08834763687862685 0.04409957656263103
0003d0 75 07 9a fd 7a 67 a8 3f 43 68 95 8a 59 d1 c2 bf
       0.04766449304317081 -0.1470138479879229
0003e0 83 e1 6b 28 92 ff b9 3f ae c6 69 d0 a1 47 ac bf
       0.10155595290041756 -0.05523400944811151
0003f0 45 03 81 7c 4f 0f bc 3f e2 18 15 1c 17 e6 b9 3f
       0.109608619591211 0.10116714892965065
000400 e2 42 dd 3e 6a a5 c4 3f 25 3a fd 6d df b6 ac 3f
       0.16129806584878909 0.0560827085270044
000410 19 e0 72 b3 4a 3b ba 3f 88 df 3b a8 d5 70 87 3f
       0.10246722107956464 0.011445683666792453
000420 ce 27 b9 c0 a3 30 92 bf 06 32 70 ab 27 72 c4 3f
       -0.017763670575994976 0.15973373290070486
000430 ef 86 31 33 2e c9 b0 bf 10 c6 e0 99 4a 5d c8 3f
       -0.06556977033462962 0.19034702790808966
000440 14 43 6f f7 87 1f bb 3f b3 f6 40 01 98 23 b8 3f
       0.10594987669834338 0.09429311781510812
000450 db 69 f6 38 ce d8 b2 3f 8f 5d 1e 8e 26 61 b1 3f
       0.07362069025695155 0.06788865060513259
000460 42 01 94 46 be f3 93 3f 13 9f 20 10 40 bf c4 3f
       0.01948449426436239 0.1620864943263248
000470 f7 09 c6 ee f4 ba c5 3f 51 9c dd 1c ec 57 c6 3f
       0.16976796778551748 0.17455817613083238
000480 c4 42 bd ee 84 61 c0 3f 5f 93 16 de 60 e7 93 bf
       0.12797605187599548 -0.01943732600706782
000490 86 6b dc 91 fc 58 ab bf 7a ed 84 1c a3 11 b2 3f
       -0.05341328888444878 0.0705816216113159
0004a0 0d 03 87 78 2f 30 ab 3f af eb ea 00 50 fc 61 bf
       0.05310200067788715 -0.002195507294655972
0004b0 3e 79 05 e1 62 6a ad 3f 94 ec ea 28 63 38 c4 3f
       0.05745228764384301 0.15797080514844153
0004c0 5c 48 ae 32 52 4f bf bf 54 f5 2f 0f be 00 95 3f
       -0.12230409371685041 0.020510644604646203
0004d0 a0 fa 6f 65 31 70 aa 3f 13 d6 0c a8 a8 be a7 bf
       0.05163721431016666 -0.04637648631470994
0004e0 c3 15 a8 70 22 72 c2 3f 28 23 e6 e4 9c 6a c0 bf
       0.14410810948190375 -0.1282535665198108
0004f0 34 3e 31 48 75 f3 a6 3f 56 f0 31 c6 9b d1 9c bf
       0.0448261881471094 -0.028143342944972304
000500 94 72 9c c2 e5 03 a7 3f ec e8 ce 77 be 52 c6 3f
       0.044951610571137085 0.17440014696132466
000510 e0 9a e2 86 55 a6 57 bf b4 18 55 da 84 19 c9 3f
       -0.0014434657310091123 0.19609127674829596
000520 62 ab 5c c4 32 b8 9b bf 90 fe 17 af 82 55 89 3f
       -0.027069848284706828 0.012370129555164838
000530 5c a6 03 76 66 d8 c7 3f 5f e8 98 bb 4e 9b b2 3f
       0.1862915111772051 0.07268230514537909
000540 49 9a e1 13 98 f0 72 bf 13 a2 04 c5 a0 69 c2 3f
       -0.004623979619373283 0.1438485109331543
000550 3b 0f a2 c4 de 87 c1 3f 4c ce 5f 28 5e e4 c5 3f
       0.1369589290735521 0.1710317322864391
000560 1c a6 7d f9 75 d5 bb 3f 5d 0d 0e 7f 60 51 bd bf
       0.10872590390285847 -0.11452296354223308
000570 84 b7 cd c1 af 8e b6 bf fe ea 0f d4 a1 0d 60 3f
       -0.08811472398312331 0.001959625311881096
000580 27 07 96 21 8a 3b 84 bf e5 ec 8a 0e a1 79 9a bf
       -0.00987918772694092 -0.02585460330258806
000590 c1 1c bd 79 5b 16 4f 3f 16 b1 66 5e 85 1f ac bf
       0.0009487101228637039 -0.05492798592908536
0005a0 e0 14 02 f9 61 ed b1 bf 1c 67 a7 51 dc 6d c8 3f
       -0.07002842263507914 0.1908526800823943
0005b0 66 bb 09 7d d1 7e b7 bf b7 b1 66 ac aa cb 81 bf
       -0.09177884390531474 -0.008689244638696232
0005c0 32 39 0c f9 3a ee a3 3f 41 43 a8 15 a2 b5 b9 3f
       0.03892692842610969 0.10042775181524367
0005d0 ba cb 2f ed 93 4e c3 3f d8 23 18 e7 18 ae a1 3f
       0.15083550530797912 0.034531381807091754
0005e0 a5 c0 50 aa 0a e5 be bf 22 31 14 55 22 af c6 3f
       -0.12068239839641366 0.17721966890565805
0005f0 95 7b 3c 5a d4 34 c6 3f a9 6d 5f 42 60 80 9b 3f
       0.1734872284514181 0.026856903124878127
000600 97 6e 61 32 90 55 b7 bf 96 1f 31 b3 ab 3e c1 bf
       -0.09114934186930622 -0.13472505807498852
000610 54 c5 e7 80 8e 79 af 3f 2c a6 aa 2b b3 bf c0 3f
       0.06147427867461866 0.13085021621854886
000620 4d 1e c6 90 c8 1b b6 bf bd 7a ff d7 8c 8a b8 3f
       -0.08636144194144287 0.09586410783183914
000630 53 17 6d c3 65 0a 8e bf be f4 57 61 c8 6e 9a 3f
       -0.014668269182617577 0.025813227597599513
000640 b6 3f 60 44 ca 5b c7 bf 72 3c 04 61 af a2 a1 3f
       -0.18248871172590747 0.034444313614692926
000650 51 ec 45 bf f9 d0 bb 3f 71 e5 eb 50 2c c6 8f bf
       0.10865746421579671 -0.015514703959967876
000660 40 30 fc cd f8 aa 57 3f c3 ae 9a 39 e9 8d c1 bf
       0.0014445714695652395 -0.13714328110414983
000670 02 1f c8 62 eb c2 c0 bf a0 46 ee f5 24 c0 b5 3f
       -0.1309484703381188 0.08496314052743026
000680 14 82 6b 5f fc 5e b0 bf b6 4b a8 0b 9c 17 98 bf
       -0.06394936875904761 -0.023527563296805908
000690 ba 9a 9e cc 6a 69 c2 bf e6 8c 1c e1 54 bd ad 3f
       -0.14384207717121972 0.05808511016791744
0006a0 f4 44 de b0 5c e0 79 3f b2 52 c5 43 b8 51 be 3f
       0.006317483972354088 0.11843444494781855
0006b0 0d 3d f2 48 0a 02 bb 3f 47 12 5a 5d 3d a5 ad 3f
       0.10549988060869371 0.05790130390690656
0006c0 39 29 0b 70 bd 72 a4 bf 21 c9 a4 b7 dc a5 c0 bf
       -0.039937896659085266 -0.13006171195008512
0006d0 dc c5 b6 93 5c af bc bf e2 08 39 51 15 8f ad 3f
       -0.11205080610559243 0.05773226372231634
0006e0 9a de 46 e8 b2 70 c4 bf be bb 9b 1f 5a ba a7 bf
       -0.15968929616586963 -0.046343628271521706
0006f0 4c 9a 57 5a 73 77 b6 bf 1d 3b b3 f0 97 1c c5 bf
       -0.08776017146701881 -0.16493510487495025
000700 ae ff cf 9c 53 44 b8 3f df 4d 73 61 b2 db 90 bf
       0.09479258135252053 -0.016463076780224625
000710 04 7f 4e de 15 a2 a6 bf 51 e6 5c fe e0 b6 9e 3f
       -0.044205363642730006 0.029994502568319984
000720 94 be 48 28 ce a0 b8 bf 40 7f be e9 e4 da 98 bf
       -0.09620369418621016 -0.02427251507435746
000730 95 78 92 59 04 48 c2 bf ba ee 39 88 a5 5f b0 bf
       -0.142822784172442 -0.0639594514449823
000740 f5 ad fc 45 39 61 b9 bf 00 29 3c 8a b0 45 be 3f
       -0.0991397662989398 0.11825087904813714
000750 d9 4e ec 35 a6 5f b6 bf 8e bc e0 e5 ea c3 c4 3f
       -0.0873969918869152 0.16222892975335806
000760 a6 52 69 d1 2c d0 bd 3f 1b af a2 d0 d7 3e bd bf
       0.11645774948676521 -0.11424015849723583
000770 55 1e cf a9 7d 1a b5 bf bc 06 a7 ac 29 e7 b2 3f
       -0.08243546863297387 0.07383976426265354
000780 aa b5 7a 18 51 5b c0 3f ef 25 b3 d3 43 c9 28 3f
       0.12778676696090702 0.0001891036316464113
000790 34 58 df c4 87 e6 88 bf d6 02 f9 81 8e 99 c2 bf
       -0.012158451743669564 -0.14531117769549579
0007a0 98 93 de 73 d5 fc b8 bf 22 5e 3d 0d 8c a9 c6 3f
       -0.09760793761104336 0.17704916616888605
0007b0 f8 15 49 07 75 2f c0 3f df fa 02 6d 91 4f c1 bf
       0.12644827705132378 -0.1352407247813607
0007c0 69 d4 d8 b1 cd bf c8 bf bf 09 b6 b4 6c 49 b5 bf
       -0.19335337814269174 -0.08315162097827676
0007d0 7e b7 75 12 6f 90 97 bf b5 7b ca 29 73 30 a4 bf
       -0.023011909009646107 -0.03943214306968149
0007e0 d6 52 5c 1a a2 b5 c1 bf 89 2e c8 3b 10 6b a1 bf
       -0.1383555058206613 -0.034019954011538074
0007f0 c6 e9 52 34 57 47 b0 3f b7 bd 7d 09 71 06 bb 3f
       0.06358857181013552 0.10556704026907125

net.0.layer.bias f8 [128]
000000 15 3e ca df 60 fc 99 3f 92 d8 0a aa 84 c3 91 3f
       0.025376809748705115 0.017347405317842908
000010 4a 18 71 e4 0b c2 af 3f 71 ce 7b 62 e0 9f a4 3f
       0.06202733195873174 0.04028226091568577
000020 fd 91 51 63 f0 c4 9b 3f 97 f4 e0 da ff e0 88 bf
       0.027118450223854385 -0.012147902362011727
000030 80 9f d8 95 1e 13 78 bf a5 ef 5f 26 63 96 c0 3f
       -0.005877608751269636 0.12958945630805122
000040 dc b7 95 bd ae 53 70 3f 1a c8 99 13 e5 c0 b0 bf
       0.003986055927596124 -0.06544334152729939
000050 d5 92 7f 8e 64 50 af 3f f8 85 f3 37 51 4e bb 3f
       0.06116022338372821 0.10666377655027037
000060 f3 43 08 69 2e 3a 8e 3f 81 b2 7e 49 e7 bf a7 3f
       0.014759409504252452 0.046385982247874054
000070 84 94 24 3d aa 35 74 3f 95 71 ca 46 b4 11 b4 bf
       0.004933991427866439 -0.07839514473238858
000080 a4 6c a1 f8 0e 82 b7 bf 60 3d a9 6b 12 af a6 bf
       -0.0918282849319661 -0.04430444301817249
000090 c4 84 b2 40 e1 1f 87 bf 9f 3d aa 3b 2f 68 6d 3f
       -0.011291274821191861 0.00358971810539517
0000a0 82 58 32 6c 55 aa b7 3f 92 bc 29 ca 85 c8 a1 3f
       0.0924428357269296 0.03473299115000218
0000b0 dc 21 d9 01 fd 41 61 3f e8 ea 38 91 8b e4 96 bf
       0.0021066609904531863 -0.022356205691020842
0000c0 39 0e 2e 4d 29 f5 b0 bf 1d 06 62 ab 18 e6 7e 3f
       -0.06624086508059514 0.007543655743690117
0000d0 55 02 4e 8a ec e0 b4 bf 1f 4c 45 db 11 b4 8c bf
       -0.08155706764774469 -0.014015330795393464
0000e0 6a 99 f3 af 8d da 96 3f d0 19 db e2 ed 54 a9 bf
       0.022318090309363305 -0.04947608370052914
0000f0 bf 0f be 0d e5 3f a2 3f c4 59 cc d6 4d 56 94 bf
       0.03564372818712468 -0.01986047385715907
000100 92 41 bc b4 8a 77 99 bf 8d 61 0f b2 3e fa aa bf
       -0.02487007835503758 -0.05269046710572232
000110 5b 25 16 5a db 4f 9c bf cf 15 27 bd 9a 6d 94 3f
       -0.02764837968201071 0.019949357790911833
000120 4f 65 3b 44 6c 36 a4 3f a9 75 a7 6e 5a 68 a0 3f
       0.03947771389875731 0.03204615212210211
000130 fa ee 35 02 bc bc 91 bf 8f 47 88 af 17 b4 b4 3f
       -0.017321527132920324 0.08087299380738798
000140 38 87 fd 43 0d 6d 91 bf b7 70 57 0c c1 7b 97 3f
       -0.017017562174607564 0.02293302190615584
000150 ef e0 18 88 9d d8 98 3f 08 f1 03 64 94 d3 a8 3f
       0.024263822013581068 0.04848922463313171
000160 a7 5c 55 03 20 0f 8d bf 1f e7 53 a4 33 a8 88 bf
       -0.014189004995087308 -0.012039569332489784
000170 13 d2 ce 01 7a 83 97 bf d2 fa 7d f3 8a 0f af bf
       -0.022962480888695746 -0.06066545698467042
000180 d0 98 c0 98 a3 23 6c bf 1e 62 3f ee 18 bb 92 bf
       -0.003434962773115925 -0.018291844884375512
000190 5e a1 0b f9 e5 be 74 bf ee 53 de 2c 16 32 8c 3f
       -0.0050648673356835355 0.013767407650258048
0001a0 d0 aa 86 7b 5f 1c a2 3f bf 10 8d bb dd 74 97 3f
       0.035372718647825985 0.022906746456343493
0001b0 f1 ba 19 c0 bf 54 a5 3f 21 e9 3e 5a 3a d6 a4 bf
       0.0416622087476436 -0.04069692947037341
0001c0 ed 6a 87 36 33 bc af 3f 56 a9 ae 94 72 b9 94 bf
       0.06198272743832498 -0.02023867638096396
0001d0 59 19 5c b0 ff 98 99 bf 29 7b cf 52 c9 36 97 bf
       -0.024997706545968643 -0.022669931105947647
0001e0 86 ee 23 75 c4 e3 a8 bf d2 c3 bb af 0d 1b a4 bf
       -0.04861272745071425 -0.03926890154060171
0001f0 34 d7 08 9e 0e fb b1 3f fd 1e 07 b5 49 74 8f bf
       0.07023707731499657 -0.015358520352392708
000200 12 b7 0f 04 03 03 b8 3f 82 c0 4a ba 1b 9f b5 3f
       0.09379595612673722 0.08445905016083269
000210 d0 d5 6c 0e ef 27 a4 3f 26 f4 e7 27 d8 c8 95 bf
       0.039367170821076436 -0.021273972926781813
000220 56 43 c3 e3 48 4b a7 bf cc 12 14 e4 76 58 73 3f
       -0.045496251872129065 0.004723038118076683
000230 e4 d1 1a 15 99 05 aa bf 04 1d b8 50 7e de 90 3f
       -0.0508239591848996 0.016473745037754575
000240 fc 20 14 d4 b8 ad 9f 3f fc ec e2 69 84 a7 92 3f
       0.030936134285213676 0.018217152560038294
000250 a4 7a 1e d6 4c 55 b1 bf fa 7b fa 59 13 81 aa 3f
       -0.06770782687679372 0.05176601861352732
000260 f1 1f 47 b5 0d e5 9d 3f 8f ac c0 e0 d8 c8 a0 bf
       0.02919408244068217 -0.03278234237253585
000270 f6 4a d2 00 f1 0d 98 bf 20 c3 33 a3 60 c5 a4 3f
       -0.023490682292115893 0.04056837074484165
000280 c0 1c 4f e7 fe 86 a8 3f 9a e0 de a8 9a 70 a4 3f
       0.04790493558498943 0.039921601404274656
000290 f9 11 a9 b1 1f 91 9b 3f cc 1e 5f 69 5e c1 9a 3f
       0.02692079088071073 0.026128268414850095
0002a0 39 1e 38 68 83 0b b7 3f 32 1b e4 11 9c 00 bc bf
       0.09001942915357909 -0.10938430249016731
0002b0 cd 92 17 4f b4 e1 b2 bf 71 23 05 00 7f 4d a3 3f
       -0.07375647479018284 0.03770062327618618
0002c0 89 5f 98 43 9e 28 b4 bf 25 8d 8b f0 b6 ce a9 bf
       -0.07874478483461024 -0.050405232299249904
0002d0 be 3b 3d 66 31 b8 99 3f ee ec c9 0c 40 71 ad 3f
       0.025116702904877768 0.057504655419473014
0002e0 16 63 42 8c 71 aa 9f bf 18 b0 2a eb ee 56 a6 3f
       -0.03092362803053835 0.043631998259428595
0002f0 40 15 ae be a9 28 a3 3f 5e e2 4c a4 39 3c 84 bf
       0.037419609571808454 -0.009880495382831696
000300 95 06 b4 cf 72 21 ae bf d0 b7 03 d4 42 df b3 3f
       -0.05884894166412128 0.07762544323097065
000310 94 42 55 c3 58 25 b4 3f d7 51 ee b4 ae 34 b9 3f
       0.07869486588357183 0.09846012036570727
000320 85 02 db d3 61 bc aa bf ba dc 46 0a 02 94 76 3f
       -0.05221849166037366 0.005512245148955925
000330 3e a7 6a 88 76 a3 a7 3f f8 ea 77 9e 7f a6 a2 3f
       0.04616899886361957 0.03642653283528391
000340 f9 01 41 1a 41 95 84 3f da 45 2f 8b e1 b0 a5 bf
       0.010050304998117975 -0.04236512016326417
000350 f9 af 6a e4 0c 98 a7 bf 35 fc 2c f9 be b2 b4 3f
       -0.04608192718782784 0.08085244735137638
000360 15 90 df 88 af 2b b6 bf 63 70 38 f3 55 5b a0 bf
       -0.08660409061081993 -0.0319468364143354
000370 0b 2c c6 19 9a aa 82 3f 59 eb 50 ed 4c ca ab bf
       0.009114459907115366 -0.05427780529904309
000380 4e 36 a9 c8 e1 c2 8d 3f e9 7b c0 d0 b0 41 b0 3f
       0.014531864105403216 0.06350236031038005
000390 1b f1 84 c9 9e d1 84 3f 47 d5 6d 1b 92 9b 95 bf
       0.010165443920975783 -0.02110126774228618
0003a0 78 29 21 2e 44 5b 9e bf 13 eb f4 71 d7 49 a6 3f
       -0.02964502841522562 0.0435321165664019
0003b0 de 94 96 ea 3d ff 89 3f 18 1f 10 3a 6b 49 80 bf
       0.012693866464199063 -0.007952535352174148
0003c0 20 68 84 78 2d d9 a1 bf b1 11 ca cd 32 da a4 3f
       -0.03486005874783893 0.04072722208096325
0003d0 36 09 56 9b 10 ee 8e bf b1 a4 d6 2d 0e 66 a8 bf
       -0.015102510204773805 -0.047653620810998894
0003e0 6e f7 95 a8 a6 0d 7b bf e9 96 ed a5 ee 19 aa bf
       -0.006604815492549194 -0.050979097132580815
0003f0 50 b0 04 47 e1 85 9c bf 82 f7 0a f5 fb d7 a4 3f
       -0.027854461631406757 0.040710328733879045

net.1.layer.weight f8 [50, 128]
000000 8a ae 19 15 c6 ed b6 bf bf bd cf 57 9d e9 a1 bf
       -0.089565639640279 -0.034985463112998876
000010 bb ba 1d 44 8f 20 b1 3f 28 c2 c3 bd 80 66 ba 3f
       0.0669030705737254 0.10312657006193915
000020 4a f0 46 3b 97 c9 b2 bf 9b fb 03 e7 53 6f c5 3f
       -0.07338853070444987 0.16745995311790982
000030 b5 dc c6 a5 85 27 c1 bf 80 b5 1d f3 af 9d be 3f
       -0.13401861757822578 0.11959361730051477
000040 07 b6 11 5a 68 b6 ce 3f b7 e8 ea 64 d9 c8 bd bf
       0.23994163892659534 -0.11634596551712915
000050 54 f1 7c 62 00 0a bf bf 25 f1 68 59 ce 2a b8 bf
       -0.12124636082166279 -0.09440316851482018
000060 66 75 f4 61 c0 11 d5 bf d9 07 91 ce 95 24 9d 3f
       -0.3292084652510624 0.028459873898334685
000070 5c 91 72 8b 71 fb b2 3f 3a 56 9b f1 5b b7 a7 bf
       0.0741492238472054 -0.0463207943372876
000080 4e 56 e6 61 e3 81 a0 bf 93 08 64 68 a1 24 b5 bf
       -0.03224096841874467 -0.08259018705942571
000090 c7 1e be a7 de 76 ca 3f d9 42 d5 ae 17 ff cf bf
       0.20675261679229193 -0.24997230564851838
0000a0 ad 1b 4e 52 74 06 cd bf c2 23 46 ce e2 74 cc bf
       -0.22675947207264127 -0.222317076415747
0000b0 01 e3 9c 29 d1 9d d3 3f 7a f2 b0 d5 17 5d 62 3f
       0.3065073877692584 0.002241655876359436
0000c0 91 c3 7d 79 4a cc a8 3f c5 0c f5 83 bb 71 bb bf
       0.048433615999676445 -0.10720416995632139
0000d0 90 c6 65 94 c5 f9 c7 bf 66 a5 46 1b 51 bf c2 bf
       -0.18730993028616583 -0.14646352607568786
0000e0 e6 a9 1e b0 46 00 bc 3f 89 3f 4a e1 8c d5 cc 3f
       0.109379213331216 0.22526703835000841
0000f0 85 e6 a9 00 7b f8 b0 bf f0 40 8c 65 09 a1 be 3f
       -0.06629151121333095 0.11964472512432045
000100 50 19 50 38 15 98 d1 3f 25 d1 10 9c 40 cd be 3f
       0.27490740298562333 0.12031940279195348
000110 6f 51 32 b1 a4 eb 9a 3f a7 d1 f5 e5 5d c5 d5 bf
       0.02628953296205466 -0.3401713128762602
000120 8c c2 0f 26 50 a0 c0 3f 63 9c 21 e0 53 37 c7 bf
       0.12989236696696016 -0.18137596553717392
000130 fd af 93 11 e5 9a c8 3f 7b ba 11 e8 e4 70 cb bf
       0.19222701414344093 -0.21438275653368408
000140 c4 fb 9f 2b 37 be d1 bf 2e 7c 09 79 b2 8e c9 bf
       -0.27723483333823773 -0.19966727170955906
000150 67 f2 c1 4e fc 70 ca bf 83 0b 7a 06 1b 49 a8 bf
       -0.20657304616533453 -0.047432751217477274
000160 43 59 5e d4 aa 70 a0 bf ba 4f 47 8c 43 b5 c6 3f
       -0.03210958330525895 0.17740673398531986
000170 8b 1f 22 de 92 02 c4 3f ff c6 8d be 33 76 b6 3f
       0.15632854315139996 0.08774112131302657
000180 6f 40 f9 39 9e ca a5 3f 9b 3f 94 1c a7 c0 b6 3f
       0.04256147821126965 0.0888771481297667
000190 10 9e 93 03 75 77 a6 3f 7e 91 eb 77 e9 b0 c3 bf
       0.04388013523731271 -0.15383642535665482
0001a0 d2 bc 7a 69 ec 5d 6a bf 4e bf ae 0c aa 95 c6 3f
       -0.0032186143324320704 0.17644239062564754
0001b0 c6 d3 64 4e aa 4e c7 3f d4 11 b8 4e da 49 95 bf
       0.18208817317795772 -0.020789538435581026
0001c0 92 4a 39 1f 70 ea 85 3f ee 95 57 f7 24 db c9 3f
       0.01070106120383699 0.20200025632145419
0001d0 2f c1 c0 76 65 f2 c3 3f 5a ff 4d f8 56 85 9d bf
       0.15583484934314515 -0.028828963189425273
0001e0 53 15 70 35 a2 aa ca bf de 48 10 23 25 ce bd 3f
       -0.20833232507008378 0.11642677408261501
0001f0 ef 21 0b 1e 9d c0 b2 bf da b4 45 45 e7 f0 96 bf
       -0.07325155242427404 -0.022403348544163794
000200 69 b0 cd 55 ed 75 8c 3f 8e 21 c1 4d ca 55 bd 3f
       0.013896803074850266 0.11459030531216838
000210 2a ef 54 86 2f a9 a4 bf 8d a1 1a 00 42 f3 b5 3f
       -0.040353284023210215 0.08574306967296348
000220 01 5b 41 26 b9 f1 ba 3f 78 a4 e4 5b 45 8a c3 bf
       0.10525090393035087 -0.15265719401330435
000230 ca 34 88 c8 27 45 ac bf 49 1d 97 49 26 71 c6 bf
       -0.05521511385823315 -0.1753280505492774
000240 f1 2d c2 2e 3c 48 b9 3f a8 ee 4d e6 4d 74 d3 3f
       0.09875846997800132 0.30397365084329886
000250 05 4e fa 52 3e 1e d5 bf 97 78 cf c8 b7 26 c9 3f
       -0.32997091391845884 0.1964940767783829
000260 24 aa 9b 45 a7 11 a8 bf 73 e2 33 f6 42 72 c0 3f
       -0.04700968479831527 0.1284869863664145
000270 a2 c7 ad 6b 1b 76 a9 bf 48 ee 31 5a 9c ee 99 bf
       -0.049729210752857314 -0.02532429028040742
000280 06 f1 71 ac 5c bf c6 bf df 0c 67 e9 d9 5e c5 bf
       -0.17771490497751347 -0.16695712944610983
000290 5a 3f 1a 22 4f d4 be bf 72 be 84 f5 d7 54 bc 3f
       -0.12042707998830107 0.1106696104441143
0002a0 a0 3b 53 18 2d 23 ad 3f 88 73 90 2c 4a fc ad bf
       0.056908997744918866 -0.05856544298169469
0002b0 07 39 e5 9b 26 c9 97 bf 1d 82 77 b8 2a 3c ce bf
       -0.023228266968822655 -0.23621114737672225
0002c0 25 91 55 c2 7e a2 b7 bf 2e 2d f5 4e f7 ea 47 bf
       -0.09232322926033427 -0.000729914432591105
0002d0 60 51 aa fe 5e fb b7 3f 80 8f 20 5c 9d 80 76 3f
       0.09367936818518308 0.005493750273703912
0002e0 d5 30 02 48 86 36 af 3f e3 0c 6b c6 0c cf ca bf
       0.06096286419878686 -0.20944366157900793
0002f0 cf 7c 9e 7b 54 a7 cb 3f a9 9f c3 67 fd 67 c1 3f
       0.21604400669182275 0.13598601881608133
000300 69 fb 2f a3 b6 9f c6 3f 01 be 52 1b a4 c2 9b bf
       0.17674906700264195 -0.027109684150387284
000310 42 9f 5d 58 1a 62 bd bf 71 3d b3 75 d7 57 c7 3f
       -0.1147781816231346 0.1823682141025347
000320 b7 09 40 d8 5d ed c6 3f 04 e7 5d b4 7c 70 ba 3f
       0.17911885317887563 0.10327891734587175
000330 81 0c 5e f2 92 22 b4 bf 82 00 a2 a5 d2 46 be bf
       -0.0786525575368149 -0.11826817077417398
000340 54 2a 11 12 f7 65 5d 3f 31 f6 f2 06 2e f9 c3 3f
       0.0017943299101427406 0.1560418638163568
000350 24 8f 7c d2 e4 ed 91 bf 6c 68 ac b5 b3 ab bc 3f
       -0.017509055468635584 0.11199496446025287
000360 39 43 77 d3 e6 85 b7 bf a4 d5 ed 00 57 db c5 3f
       -0.09188692724934534 0.17075622125018441
000370 66 eb b9 28 98 ab b2 3f 8a 66 e9 ff 8c f7 b2 bf
       0.07293082231801193 -0.07408982513279674
000380 ae 2c 66 be 94 b1 c2 bf a5 1e 95 2e d4 41 c3 3f
       -0.1460443429644775 0.15044643663917615
000390 35 52 90 c2 c8 b1 9b 3f f6 3b 8e ec 50 1e c8 3f
       0.027045380473355436 0.1884251742417004
0003a0 3a bf 26 42 fa 54 b4 3f 5b 9f 4c 9f 2d 87 9c bf
       0.0794216548445065 -0.02785941395555312
0003b0 3e 2d 96 70 83 49 b0 3f 0e 28 6a 1f cb 1b b5 3f
       0.0636217260236451 0.0824553443618756
0003c0 ea 3d 06 b6 c3 c1 be bf 72 ba c6 e4 4c 3e c7 bf
       -0.12014411157564778 -0.18158875628201404
0003d0 63 6a 5b d0 b0 f7 a4 3f 63 e1 5e 42 c3 af 55 3f
       0.040952229913916914 0.0013236433819497565
0003e0 1f 06 c5 d6 27 9d bf bf a3 14 14 b5 94 14 ca 3f
       -0.12349175446890868 0.20375307885857294
0003f0 af 72 a7 24 6c 15 b6 3f 19 89 95 90 e7 d3 a2 bf
       0.08626438040614447 -0.03677295341437254
000400 9a 7f 10 91 12 c6 b1 3f d1 f6 32 52 26 01 9b bf
       0.06942859689342953 -0.026371573226007087
000410 43 00 eb 03 a6 25 c7 bf e7 f8 46 83 91 a8 b7 3f
       -0.18083644095713866 0.09241589980135566
000420 01 48 19 75 84 04 ba 3f cd 1b ed 4b 89 f3 b8 3f
       0.10163143023353884 0.09746606925646902
000430 d3 31 29 b0 80 31 c1 bf 32 a9 15 8b 17 64 90 3f
       -0.13432320214850665 0.01600682054905995
000440 4e 1e 6a 6c 73 f2 c2 3f 81 d6 90 db 98 fd c8 bf
       0.14802401345899557 -0.19523916932091726
000450 b2 e0 b1 f7 c1 43 c4 3f 00 27 51 8e dd c2 c0 bf
       0.15831780046915395 -0.13094682168075877
000460 5d d3 2d ab 6c 55 a6 3f 9c 81 97 9e 40 43 a7 bf
       0.04362048711383324 -0.045434970244744494
000470 0b 34 64 89 36 da b5 3f c9 16 55 56 c9 3e d2 bf
       0.08536091665537542 -0.2850821822251928
000480 c5 9c dd 55 19 55 d7 bf bf 5e 90 d2 0b 51 ce bf
       -0.3645690287143675 -0.23684833318178808
000490 78 27 90 41 cd ba b2 3f fc 7b f4 97 3e 96 ca 3f
       0.07316286898290325 0.2077100984542709
0004a0 2b b6 64 d3 e5 45 c1 bf b3 8a 96 fb b8 4f d0 3f
       -0.13494561025565707 0.25486588067193877
0004b0 01 6c c4 52 e2 bb a1 3f 17 20 26 87 5d 48 ad 3f
       0.03463656673758209 0.057192728755637905
0004c0 92 f5 3a dd 38 ee c5 bf 5e e8 13 08 91 4c be bf
       -0.1713324623323556 -0.11835581252299351
0004d0 5f d2 f3 ab d5 f4 92 bf 53 2f 91 ca 14 7b c1 3f
       -0.018512095089095456 0.13656864062283577
0004e0 6e 98 13 87 10 8f ba bf 88 01 3c 36 eb ea d2 bf
       -0.10374549196021274 -0.2955883054383084
0004f0 37 2e a7 73 5e ec b1 bf bb ea 5a c8 92 53 c3 bf
       -0.07001295398293271 -0.15098795683828378
000500 ad dc 08 62 01 9f bb bf 0c 6d f4 1e a2 75 95 bf
       -0.10789497989104531 -0.020956547869997386
000510 21 42 90 4a af 01 c4 bf 65 49 99 38 4f 2e 99 bf
       -0.156301413925136 -0.024590719060435435
000520 e9 e1 0f fd d0 78 a9 3f 04 dd b7 63 80 4b c1 3f
       0.04974988068710557 0.13511662358335041
000530 d2 84 c4 96 63 88 bf bf 32 33 f9 84 ea 91 d3 3f
       -0.12317488127566215 0.30578101144492387
000540 2f a4 51 bc 96 07 b0 3f ea 6a 5b 26 3e ae d3 3f
       0.06261579606656718 0.30750993486223754
000550 0d eb b2 b3 78 b6 b9 bf 3a 3e 44 da d3 0b c6 3f
       -0.10044054400615839 0.17223594815776427
000560 39 73 13 b1 55 de c0 bf 21 ad ed 93 70 e2 b7 3f
       -0.13178511759078917 0.09329894649060978
000570 6b e4 f8 74 fb 66 bb 3f bf 99 14 48 09 cc c5 bf
       0.10704013448493448 -0.17028919238619086
000580 d2 4c 10 43 7b b9 c7 bf a8 75 58 9b 23 09 b6 3f
       -0.18534794592469567 0.08607695143333294
000590 8e 66 9b 4e b8 2a c2 3f 56 c6 2a fe 69 8d bf bf
       0.1419287093947798 -0.12325155692340081
0005a0 1a 03 f6 56 1f 70 d0 3f a5 7b 02 d1 59 8f c9 bf
       0.25684340946468043 -0.1996872206263706
0005b0 8d 4f e5 8a e2 3a b8 3f 04 f7 27 ef 60 e0 97 3f
       0.09464851275452997 0.023316874119692535
0005c0 2c 71 dd 25 56 fe bd 3f 49 be 46 28 bb 18 af bf
       0.1171621172374599 -0.0607355581918197
0005d0 50 e8 42 18 7f 73 b3 bf 8f 46 f4 8b b1 54 c4 3f
       -0.07598108618086141 0.1588346417780042
0005e0 19 bd 51 da c7 87 5b 3f 70 60 56 f8 cd c5 cd 3f
       0.0016803218543620156 0.23259901643610048
0005f0 eb 68 4f ee 1d a3 aa 3f db e0 6d 3b 5e 3a c2 bf
       0.052025733318901 -0.14240625287835126
000600 82 23 7b 3b e9 b9 bc bf ef 2b c7 8e 87 f8 9d 3f
       -0.11221177770779714 0.0292683773894104
000610 27 0f a5 0a 49 e1 bb 3f a8 dc 5f 37 98 80 aa bf
       0.108906331156558 -0.05176234889943859
000620 53 30 f8 65 97 38 cb bf 00 cf 28 b0 47 6e ae bf
       -0.21266453246096492 -0.05943511987098127
000630 26 95 5c 18 0f 12 ce bf 88 28 66 75 33 e0 c1 3f
       -0.23492611588987095 0.13965457184196262
000640 fd ca ef 63 a8 4f b6 bf fb 66 65 b1 c4 97 b0 bf
       -0.08715298118458388 -0.06481580096206223
000650 ed db 76 b6 d4 28 bc 3f c7 ff a6 10 72 34 d9 3f
       0.10999803023047124 0.39382602335171807
000660 13 c5 2b b2 0c bc a8 3f cb ed a0 90 75 ce be bf
       0.04830970454157515 -0.12033781796429037
000670 3d b9 37 de ff 73 bf bf 9c 86 ec af b7 a9 d8 3f
       -0.12286376166568842 0.38535873584815206
000680 57 6e d1 99 76 1c 8d 3f ed 43 8e 1e 89 3b bb bf
       0.014214445656924797 -0.1063771915053306
000690 88 57 bb b7 ca ab a9 bf ab db 9c e1 92 78 bf bf
       -0.0501387929231632 -0.12293355949519362
0006a0 05 c3 6b 82 1a be ab 3f 30 84 c9 3f 2a a6 a5 3f
       0.05418475000431581 0.04228336361553209
0006b0 7b 64 9a 8f f9 b8 b4 3f e2 d2 d1 d5 a6 8a ce bf
       0.08094749217925028 -0.23860631409083682
0006c0 2b 08 a2 e9 f0 e3 be bf c6 94 19 8e a2 10 78 3f
       -0.12066560462884073 0.005875239353916933
0006d0 59 8b b9 65 d1 a0 c9 3f 15 1a 4f a1 f6 09 bb bf
       0.2002202746108093 -0.10562077940185362
0006e0 a4 86 d7 cc 0a fa bd bf 51 e3 76 a5 2b 56 c9 3f
       -0.11709659100554376 0.19794221476856902
0006f0 5b d1 c6 e0 2a 48 ad 3f 0d e2 3a 9d 38 80 b3 3f
       0.05719121927123424 0.07617524946807226
000700 99 db fd 57 f6 31 bf bf a3 c2 bd 7a 93 97 c1 bf
       -0.12185611389382557 -0.137438235218288
000710 c6 a5 d3 64 8d 04 9c bf ad 85 bc 5b 4d 87 d0 3f
       -0.027361115721680006 0.2582581897605348
000720 8f b3 5c b1 12 6b d0 bf 47 f0 8e 30 ab e8 d8 bf
       -0.25653521843451527 -0.3892009710505175
000730 00 c3 bf 0b e8 94 b6 3f 9b 23 48 57 54 9a b0 3f
       0.08820963179438124 0.06485488062766225
000740 05 13 a2 94 06 e8 ae 3f ab 88 86 25 8b ce b6 bf
       0.06036396564835481 -0.08908910432959043
000750 09 9a 9c ce ff f0 d5 bf 88 95 6b c3 84 f8 a9 bf
       -0.34283442665983493 -0.05072417150021652
000760 57 58 f1 53 f5 ea c8 bf 98 f9 06 e2 05 0f 9f 3f
       -0.19467035864608093 0.030330745621307637
000770 d8 68 0b 56 eb 60 96 3f 3b b1 74 34 f6 27 c2 bf
       0.021854092718833623 -0.1418445354587535
000780 84 0f 6a 3e 72 26 b0 bf c6 10 6e d2 66 24 d1 3f
       -0.06308664344584086 0.26784678029822506
000790 99 49 38 60 05 95 ce bf 75 ff 0c 91 fe dd be bf
       -0.23892275999294268 -0.12057486573485028
0007a0 de ac 6f 96 74 fd b0 bf 2f 29 2b 12 da 9e a6 3f
       -0.06636742279777105 0.0441806933573211
0007b0 e1 11 d4 2a 0e 68 ca 3f 3f 4c 74 f5 1a 64 c6 bf
       0.20630051699858057 -0.17492997155258824
0007c0 be 79 a5 de 60 ab bf bf d8 32 68 58 da 5e d4 3f
       -0.12370877681448797 0.31828936227320304
0007d0 dc 46 93 68 fe 81 a1 3f 4e 96 14 9b 76 e3 a8 bf
       0.03419489885858493 -0.04861040728637232
0007e0 6e ca 12 fb b5 d1 c3 3f a1 e4 1a 0f fb a5 d0 bf
       0.15483736762469696 -0.2601306579122796
0007f0 07 39 8a ab 91 a7 ac bf 99 ea c8 ec 7a 26 ce 3f
       -0.055965950193341434 0.2355493217636038

net.1.layer.bias f8 [50]
000000 54 70 2e 6f 41 e4 61 3f ea d3 9c c8 17 d8 9f 3f
       0.0021840360654561772 0.031097766513273152
000010 53 fe 2d 17 d6 22 92 3f 77 3c bf 88 9f 64 5a bf
       0.017711014904760635 -0.0016109044981822676
000020 2c 27 cd b9 7e 5c 8f bf 8b a1 b3 13 27 20 b2 bf
       -0.015313139004905794 -0.07080311041830194
000030 e2 98 eb 67 36 bd 95 3f 79 58 30 9c 18 c9 b5 bf
       0.021229600994865268 -0.08509973347858758
000040 96 54 39 d1 2c 2d a5 bf 41 b8 b6 75 f6 f6 aa bf
       -0.041360283412964424 -0.052665426129678845
000050 cc bb 0d f8 47 17 89 3f 1b 3c ec 72 3e 3f 68 bf
       0.01225143647908835 -0.0029598445611394137
000060 59 8f a4 f0 39 94 bd bf 7b 34 8d 3a 21 b6 9c 3f
       -0.11554300427502308 0.02803852004881378
000070 85 ad c3 60 40 32 aa 3f 1b c7 0c 41 2f cc b0 bf
       0.051164638340050174 -0.06561560953266758
000080 38 ff 57 96 62 8d bb bf c6 5f 9f da a6 b3 ad 3f
       -0.1076261155176298 0.05801125925762522
000090 86 4c df 26 48 28 c4 3f 5f 7d 67 7a 27 c9 93 bf
       0.15747930429515494 -0.019322029920542657
0000a0 39 b4 7d a1 83 ea 82 bf 70 9f bb 4b 0c 57 b0 bf
       -0.009236362806143915 -0.06382824753711502
0000b0 f7 04 e0 b2 7f 28 88 3f 91 b3 1c dc d7 93 b0 bf
       0.011795995374998187 -0.06475590823965961
0000c0 56 ed a8 84 f4 2b 48 3f 3c a3 d1 3f 3d cd b2 bf
       0.0007376617371116871 -0.07344420250013867
0000d0 ef 48 17 10 b4 d0 b6 3f 25 84 39 d1 ee 17 b0 3f
       0.08912206070752736 0.06286518676780924
0000e0 c0 f0 92 ec 5e 6e c2 3f 7d 54 a1 7c 9d 19 aa 3f
       0.14399324943031466 0.05097667833676043
0000f0 ed 22 85 ec b1 b8 b8 3f 37 ba 04 fc 94 6d a7 bf
       0.09656822227874402 -0.0457579190864305
000100 66 ac b8 a1 4e 9e a7 bf 2e 90 f1 3c ac ea 92 bf
       -0.04612966274393031 -0.01847333070726636
000110 dd 4f 52 87 5b fd 94 bf dc a9 07 aa 63 c6 b3 bf
       -0.020497732290621563 -0.07724593068238711
000120 1c 8b c0 3d 7b a7 91 3f 5d de af 8b 13 4f a0 3f
       0.017240453380632834 0.03185330467379963
000130 b9 78 4c 92 8c 8d aa 3f 35 a3 6f 10 d5 67 b6 3f
       0.05186118398545276 0.0875218548895987
000140 8a 57 93 85 e1 36 be 3f 9e ec 06 94 31 c1 91 3f
       0.11802491675493179 0.01733853784547234
000150 ff c8 5d 82 47 c6 91 3f da fc 6e 63 cd 71 b7 bf
       0.017357938129358704 -0.0915802352674179
000160 9b 9b 5e d4 a2 ab 9a bf ae 6a 56 a4 f4 d5 a9 bf
       -0.026045364582070723 -0.0504604769332294
000170 e1 9b 63 2b 0e 00 b2 bf 82 ee 74 25 c5 21 a4 3f
       -0.0703133445673383 0.0393201454375829
000180 2f 2c a1 4d 3a 4b ad bf b4 ea 95 9f ad bf 8a 3f
       -0.057214567161814826 0.013060909683863066

net.2.layer.weight f8 [50, 50]
000000 59 a1 4e 18 5c 8b ca bf cf e2 c4 85 c0 04 c5 3f
       -0.20737792193291218 0.16420752078717846
000010 69 e1 13 5e 9e 60 c5 3f 21 ea 84 a1 57 c2 a4 bf
       0.16701106637607246 -0.04054521414441959
000020 59 68 dd f2 c3 81 bc 3f b1 4f 26 42 17 9c ce bf
       0.11135506324117851 -0.23913851480449247
000030 2f 08 d4 43 53 c4 bd 3f 10 51 84 b6 35 62 ce bf
       0.11627693563426143 -0.23737212573963307
000040 4e 99 6a 83 6c 15 c1 bf be 7f ca e8 d8 d7 53 3f
       -0.1334663049394273 0.00121112997582172
000050 78 f6 80 26 cb e3 c5 3f 2c 1c 81 ab 96 3e 85 3f
       0.17101420764986464 0.010373284443757035
000060 d0 e0 ba 10 8e 1a c1 3f 37 a4 99 1f e9 76 97 3f
       0.13362289254087623 0.02291454558727343
000070 c5 df 76 d8 53 c5 c0 bf 41 24 08 c5 50 2e a0 bf
       -0.1310219580607265 -0.031603359271749294
000080 6a 6a 5d c2 51 81 c4 3f e0 04 d1 16 39 f1 b9 bf
       0.16019651403879048 -0.10133702094119057
000090 21 cb 81 59 5f a0 c9 3f 47 2f 4a df ce d1 92 bf
       0.20020667906245485 -0.018378479364897584
0000a0 5c 35 c5 53 4d 57 c1 bf 58 57 e7 a6 5d 7d c0 bf
       -0.1354767474207773 -0.12882586145013408
0000b0 5c 15 1e ce 4d d1 a8 bf c3 8d cd fc 3b 24 c9 3f
       -0.04847186223109176 0.196418283881128
0000c0 6c 24 a6 2f 08 67 c0 bf 7d dc e5 5b 38 26 d2 bf
       -0.12814428640948294 -0.28358277296451445
0000d0 85 c7 9f 0e 36 07 c9 bf b7 a9 ad 38 3f 2d ab bf
       -0.19553256715840575 -0.05307958189844746
0000e0 6b 46 f7 7d 4d 5d c6 3f 46 77 c1 b8 93 ce b4 bf
       0.17472237253837206 -0.08127711544645164
0000f0 f8 ac 76 67 6d ac cc bf 34 28 f0 cb d4 8b c2 3f
       -0.2240120654290434 0.1448923106948442
000100 c8 3d 22 95 50 d6 d3 3f 7d 5d a6 fb 0c 1e b6 3f
       0.309955735815461 0.08639603751941212
000110 0f b4 ac 87 b6 ff c9 bf e0 55 b6 77 08 04 d4 3f
       -0.2031162416909926 0.3127461594643517
000120 1c 06 65 3c fc 7d 8c 3f 63 ac b7 2d 24 c2 be 3f
       0.013912172883126898 0.12014986148976585
000130 9d 19 1b a0 d2 c1 d2 bf b5 01 73 60 d5 5f 88 3f
       -0.2930800021680627 0.0119015379008268
000140 1f c4 c5 8b 7b ff bd bf f1 9a b2 58 85 4a cc 3f
       -0.11717960512557156 0.22102419691983458
000150 d1 9b c0 96 7a ff c3 bf 40 fa aa ef 01 48 9c bf
       -0.1562340961547464 -0.027618437054792944
000160 c3 bb f1 e2 0e 16 c3 3f dd dd 7f 45 1e 67 b1 bf
       0.14911066132796522 -0.06797970959438922
000170 4d 00 db 06 b9 32 c2 bf e7 35 61 a3 7f 5d cc bf
       -0.14217293581714543 -0.22160335042501275
000180 1c d6 57 ca d8 16 c1 3f 68 fd d1 9c a6 68 b1 3f
       0.13350973014864642 0.0680030949460978
000190 66 60 33 cd 28 c7 a7 bf 7b fd 7d 34 02 dd b0 bf
       -0.046441340493118585 -0.0658723238138829
0001a0 d0 45 1f 64 9d 7d b5 3f 45 62 4a e9 1f 7f a7 bf
       0.08394797987354896 -0.04589175913605862
0001b0 bb ac 1b c2 47 12 74 3f 4a 58 32 2b cc f2 ab 3f
       0.004900245957951184 0.05458677317908263
0001c0 1d 50 e0 e6 86 73 b7 bf 09 d6 88 93 85 b4 d7 bf
       -0.09160655151964688 -0.3703931751982457
0001d0 5c 40 87 a7 b9 f6 c5 3f aa 38 80 a5 7f b5 de bf
       0.17159195594877275 -0.47982779657548724
0001e0 f8 2e 3b ca 0c e1 d0 3f 45 28 46 52 80 0d ba 3f
       0.2637359595216675 0.10176851280826422
0001f0 df 1b b1 10 fa 58 d7 bf c4 f4 51 99 47 3a c4 3f
       -0.3648057139402549 0.15802855478606237
000200 16 22 da 44 aa 66 b2 3f 64 5e 24 3d 27 c4 b6 bf
       0.07187904530486153 -0.08893056147314266
000210 11 f2 27 9f 80 c0 d3 bf b6 53 98 54 b0 58 c3 3f
       -0.3086244158037355 0.15114406710259026
000220 ad 70 4e 11 c8 52 cd 3f 70 ed 55 13 ef 86 b9 bf
       0.22908879132308382 -0.09971517774640914
000230 18 9d 6c c6 61 e7 c6 3f 16 82 78 8a df 59 d1 bf
       0.1789362162464634 -0.27111042521031103
000240 8e 0a 2c f0 5c b3 cf 3f 14 cc cd f6 72 ef bc bf
       0.24766122557783316 -0.11302870297895168
000250 94 b5 a5 d3 43 f7 c6 3f d9 ed 07 79 a5 4a d4 bf
       0.17942092737522997 -0.31705605334692916
000260 63 e9 8c 85 5c b3 ad 3f 28 3d 8a 17 f5 7e a0 3f
       0.05800904398207043 0.03221860802033866
000270 9a 08 0d 6e 71 d5 cb 3f df d9 5d bb 00 2d a3 3f
       0.21745126603679382 0.03745271956624995
000280 d7 2c 41 98 25 3a b4 bf 09 ff d4 dc 5a 8a d9 bf
       -0.07901225058701598 -0.39906951490046133
000290 22 7b 09 a5 d3 f2 ca 3f 0e 48 78 d5 82 22 cf 3f
       0.21053548391770344 0.2432406942685365
0002a0 8b 6b 2c 54 4f 60 b3 3f 67 5d 1c 15 a7 3f ce 3f
       0.07568832211511116 0.23631752520371238
0002b0 42 af 16 35 e3 d0 b3 3f 37 31 6a fd 4a ae bf 3f
       0.07740612074001965 0.12375324904332251
0002c0 30 e8 fb 5b 47 4b c7 bf 72 6b e5 5e 00 1e b1 bf
       -0.18198482505232638 -0.06686403576661151
0002d0 39 44 41 e9 88 16 a0 3f 13 31 d2 39 8b e6 a3 3f
       0.03142192694998198 0.03886828499625685
0002e0 e6 00 38 92 fa 5f c1 3f e1 50 2d 96 06 22 a5 3f
       0.13574154033268043 0.0412752207109024
0002f0 4f ec b9 8c 93 95 c9 bf dc 6d 54 6b 37 2d d0 bf
       -0.1998772084369613 -0.2527597950117675
000300 2d bb a8 6c a6 a3 9c bf 04 29 bc 19 5d e1 b0 bf
       -0.027968025571847455 -0.06593877676292342
000310 68 00 c1 32 c1 67 d3 bf 86 f3 86 3a 3a b1 bd bf
       -0.303207683147781 -0.11598552636037426
000320 57 f8 3b 4c b5 55 bc 3f b5 ba 5c c8 d9 30 9a 3f
       0.11068280326068823 0.025576975683345455
000330 5e 4c a2 49 42 57 d6 3f 80 04 72 f3 79 db d8 bf
       0.34907586279695646 -0.38839577459300045
000340 f2 5b 24 56 ba b3 c8 bf 4d b1 0a 14 04 8e 86 3f
       -0.19298485952523908 0.011013061391473978
000350 48 02 7d d3 84 00 a8 3f 55 e2 13 8b 96 d6 d0 bf
       0.04687895852703555 -0.2630974157505411
000360 1e 8f 72 19 1b 84 c3 3f ce 42 77 32 35 20 ad 3f
       0.15246905081323175 0.05688635102308624
000370 d8 e3 83 40 a4 2c cb 3f c0 af 36 71 9d 54 cb 3f
       0.21229985380321525 0.21351974514015915
000380 34 aa f8 f6 56 3e d8 bf db 1e 66 76 97 95 c9 bf
       -0.37880491369529357 -0.19987767487713523
000390 d4 33 39 89 ef 08 d1 3f 2b 87 4a 5e 6d 72 c8 bf
       0.2661703910896993 -0.19099204162653768
0003a0 19 f0 31 9b e5 11 ba 3f 56 81 fd 14 a6 a3 2b bf
       0.10183558501188407 -0.00021087076538163035
0003b0 10 12 2a fe 6b 4f 93 bf 38 80 de 48 b1 52 d1 3f
       -0.018857657802543726 0.27067215076567974
0003c0 83 ec 4d cc e9 ab c3 bf 9a 44 47 3d 58 2a b9 bf
       -0.15368387676048564 -0.09830237861685234
0003d0 d8 dd b8 ad 8a 68 73 bf 20 1d ca f5 3a ea c4 bf
       -0.0047383706219572205 -0.16339814187470214
0003e0 7d ab 18 9d aa fb 9f bf 76 9c df 95 59 2e dc bf
       -0.031233468855286873 -0.4403289760215964
0003f0 24 b6 e6 83 bf 57 c5 3f fb c2 ff 44 58 c4 95 3f
       0.1667403596924696 0.021256808482521965
000400 f0 55 f5 c1 2e 78 d8 3f fe c1 25 cb 4f e6 91 3f
       0.3823353666424216 0.017480131887568355
000410 92 d8 e2 e4 2a 30 96 3f 71 9b 17 a7 d1 ed bb bf
       0.021668119640445634 -0.10909757928275866
000420 aa 1e 9f 54 f4 af 81 bf cb 4c 1b 98 59 dc cd bf
       -0.00863638766521942 -0.23328704764444405
000430 af b6 38 0c 29 33 97 3f 97 82 85 4e 0b 1f b5 3f
       0.022656098719542935 0.08250494639424698
000440 37 8d 29 b1 36 c9 94 3f 50 9b 8d ea ff f3 ca 3f
       0.02029881912529882 0.21057127907553275
000450 e1 86 3e ec 4c 19 ae 3f 58 61 23 81 53 70 92 3f
       0.058786777342232595 0.018006615406961884
000460 b9 a5 86 1e b0 eb cc 3f f5 3d c2 12 75 db c6 3f
       0.22594262590909667 0.1785723058314798
000470 7e b1 dd 14 4b b9 c2 3f e2 5b 05 93 be 4e 9d bf
       0.14627970236632487 -0.028620698665090212
000480 3b 89 e9 2a f6 93 aa 3f 3b 82 7f d6 dd ef c6 bf
       0.05191010736304454 -0.1791951463083182
000490 c3 65 3c c4 40 c7 95 bf ef fa 1b 35 20 df c2 3f
       -0.021267902352610123 0.14743425935008456
0004a0 5d ff 22 a4 78 84 d3 bf e8 c1 15 97 2d 83 c7 3f
       -0.30496040371871463 0.18369073750683573
0004b0 cd a9 c5 4a 28 52 b2 3f 83 75 06 ef 0b 9f 96 bf
       0.07156612229815736 -0.02209108969110708
0004c0 8d 45 db bd 85 e2 c0 bf 81 ed d6 c3 74 1e ab bf
       -0.13191291590059642 -0.052966736704060054
0004d0 53 94 99 d9 55 8a cd 3f 89 fb 01 7c 03 b2 99 3f
       0.23078415989872045 0.025093130534965567
0004e0 48 31 8a 0e 0b 88 c3 3f 71 d3 94 26 b1 df 78 3f
       0.15258920869781378 0.006072704310373976
0004f0 48 51 ea fe 89 3f ca 3f 2c 92 dd c4 36 ee b6 3f
       0.2050640577987315 0.08957235628401666
000500 a1 5f af 05 64 f0 d5 bf 61 1d 08 1f 30 e8 bb bf
       -0.3427972846525283 -0.1090116573105795
000510 82 1c b5 66 f6 40 b1 bf 9f 61 31 88 bd d6 c5 bf
       -0.06739749915606022 -0.1706158556942343
000520 6c f3 98 1b 49 c8 c2 3f 2b 24 7e 0a b0 1e c0 3f
       0.14673723075420797 0.12593651306477346
000530 da 15 e9 ce 8d b5 a9 bf ba 79 bb 4c 30 03 d0 bf
       -0.05021327162516416 -0.2501946210230944
000540 ac d5 80 22 d7 62 b8 3f d7 f9 cc a9 0e 3d cf bf
       0.09525818436016803 -0.24405082026528532
000550 4e 65 ae 49 69 c4 c7 bf 7f 0b 26 4e 22 14 b0 bf
       -0.18568149659840077 -0.06280722053456421
000560 70 b4 8a bc 64 38 d0 3f 7c 6e d0 0e 32 3c 42 3f
       0.25344198620115943 0.0005564922736342594
000570 9b 98 aa 38 9d 5c a2 3f 34 0d e5 9b 2d d1 c6 3f
       0.03586283985832602 0.1782586108402967
000580 f4 15 82 23 a0 69 c9 bf 66 e4 a5 51 3e d5 c5 bf
       -0.1985359357242228 -0.17057017313689754
000590 71 85 82 ed d9 a8 c5 bf a0 0b 01 d1 e4 ac 73 3f
       -0.1692154321399744 0.004803556265019632
0005a0 4f 6a e2 55 f6 c9 c4 3f 57 be 89 8f 18 10 d3 3f
       0.1624133986814109 0.2978574182261346
0005b0 b2 2b b5 88 71 33 c3 3f 52 78 8d 21 a7 cf c0 bf
       0.15000743079357687 -0.1313370622473849
0005c0 0d 2b 1a 11 19 af 81 3f 61 5b 9d 94 96 0c d0 3f
       0.008634754022997205 0.2507683230700675
0005d0 28 72 b8 bf df 53 d8 bf e0 d4 84 7e ca 43 c6 bf
       -0.38011926386551176 -0.17394381692580563
0005e0 84 7a 04 a4 60 2e 79 3f b6 1f be 75 51 30 d1 bf
       0.006147744658192015 -0.26857410906131507
0005f0 98 22 fc d1 cc 85 c2 bf 1d 98 41 6c aa f5 be bf
       -0.14470825436753354 -0.1209360613152914
000600 83 1d 1c 10 56 31 b2 bf 0a 4b 04 a3 7e 89 b1 bf
       -0.07106531041437418 -0.06850425224210369
000610 db 32 1c 09 22 b9 a8 bf 2d bb 7b fa 94 00 c7 3f
       -0.04828745232780359 0.179705259615241
000620 45 aa 94 9a 4f 05 be bf 5a 47 0d b7 ff 9d 9e 3f
       -0.11726853870337901 0.029899592921828734
000630 f1 e1 33 b7 ee e8 b6 bf 90 16 3a 5d f9 af ae 3f
       -0.08949176762315127 0.05993632567428364
000640 14 5f c9 68 d6 52 d2 bf 07 0b b3 b5 64 25 bb bf
       -0.2863060019785604 -0.10603932796497527
000650 7b 89 09 85 8b de c0 bf fd df e7 2b ab ee a6 3f
       -0.13179153438529653 0.044789647206869156
000660 1a 31 69 04 94 d8 8b 3f 33 ec 78 48 99 4c b6 bf
       0.01359668386899009 -0.08710630435318549
000670 d8 52 87 dc 64 67 ae 3f 40 f7 ce bf 2a e9 a7 bf
       0.059382583541866374 -0.04670079795276516
000680 6c f4 9e 78 e1 29 98 3f cc 53 41 a8 c2 88 bd bf
       0.02359726237022068 -0.11536804778854942
000690 81 70 fe e2 ef 84 ca bf c2 2b 83 02 20 28 9b bf
       -0.20718191703497627 -0.02652025237402334
0006a0 91 f0 d0 c6 d2 3e c3 3f 30 70 54 ae c8 60 93 3f
       0.15035471637554967 0.0189238888170708
0006b0 3a 4c 3f 0f 1a dc ad bf 5c 24 fb 43 87 26 cd bf
       -0.058319868432271396 -0.2277382928789703
0006c0 98 b7 c4 54 f4 8c d3 bf 16 a4 3b b2 d5 f9 a5 bf
       -0.3054781749550499 -0.04292171288199868
0006d0 0f 5d f0 01 52 40 c7 3f ff 03 27 76 9b 91 b8 bf
       0.18165040106462313 -0.09597179064350313
0006e0 5c 96 07 8e 2c 94 b6 bf aa 1d 4a 9c d9 d9 b6 bf
       -0.08819845645447216 -0.08926162782346717
0006f0 f4 4d 71 d3 11 a8 af bf ed 6e d2 c6 8d d0 bb bf
       -0.06182914453588842 -0.10865102867176875
000700 17 c5 36 5c cc 2e c8 3f 0c 84 b0 4b 3c 47 d3 bf
       0.18892817022928263 -0.30122287169984996
000710 13 2b 68 2f b7 46 a5 bf c5 8b 57 6d e5 3e d8 3f
       -0.041555141961074814 0.3788388793747653
000720 81 e1 7e 29 36 dd ad bf 4d b4 7f 48 ea 0a d4 3f
       -0.05832833534754212 0.3131662090298207
000730 8b f4 21 66 91 b1 ba bf 04 ed 17 5b a6 f5 b7 3f
       -0.1042719721171627 0.09359206890069421
000740 e7 93 82 c2 72 72 d6 bf d2 a7 20 a4 0c 13 ba bf
       -0.3507353686821361 -0.10185317046185041
000750 e0 b1 38 d3 9f 20 d1 3f 01 13 af 88 71 d4 d1 bf
       0.26761623026939496 -0.278591521721225
000760 3f 82 86 f7 f2 d0 cc 3f 5a b6 e2 fa c2 92 d1 3f
       0.2251266201610793 0.27458261967226394
000770 d1 cf 67 bc 42 6e bc 3f fd 5a e1 a0 02 ca b5 bf
       0.11105744457000745 -0.0851136820577771
000780 b5 d6 44 33 24 07 db 3f e1 ba 44 9f f7 ed c0 bf
       0.4223108769104827 -0.13226218487530786
000790 b2 d1 7f a8 15 e8 dc 3f b5 1e fb e1 ea 48 d0 3f
       0.4516653199673569 0.2544505316586581
0007a0 f5 db d6 9e be 69 ae bf 87 94 de fa 16 6c b6 bf
       -0.059400517358362416 -0.08758681893103147
0007b0 38 06 6b dd e7 a6 c4 3f da 6c b3 1a 3e 33 d4 3f
       0.16134355842045678 0.3156275997877863
0007c0 27 34 ca b5 47 86 b6 3f aa 49 15 89 f7 2e c9 bf
       0.08798645199040377 -0.1967458171225876
0007d0 64 d2 e9 b4 e6 19 c3 3f ac e3 6a 8a 6a 8c 9b 3f
       0.14922794183407284 0.026902832697235077
0007e0 b4 26 0e cf 6c ab cd bf eb f9 ae 16 d9 84 c1 3f
       -0.2317939768802738 0.13686669929116077
0007f0 1e d1 6b 73 c5 39 c8 3f 0f d9 87 c4 35 9c cc 3f
       0.18926303993033228 0.22351715179656437
