Ablation study/Surjectivity/1_Wave_1D/logs/models/2024-05-21-08-25-30_1d_wave_DNN_100X5/epoch_34000.pt (torch, 435387 bytes, 14 tensors)

rbf_layers.0.centres f8 [128, 2]
-0.06380742751972868 0.27440817301648923 0.5012081849043977 1.1282840570738104 -0.050088961407275215 -0.726600010112166 -0.2450707525953315 -0.5922325773383453
0.6248684934034563 -0.35093139168142784 -1.160088724922315 0.06528454822642886 -1.0610912618772719 -0.5819397051329134 0.5437280678811838 0.7721110101183356
0.8711163090974179 0.6848955994196373 -1.6837048411855595 -0.6917528618590161 0.7426316887542169 -0.994414566228485 1.186278912285765 -0.5412748114262649
0.25589703556917964 -0.20406163488534712 0.22767874193697138 1.4095331093869006 -0.7464076751538324 -0.1905928831458837 -0.3013808798333689 1.109615498166709
-1.8218288140956558 -0.9695147861993161 0.6884631161124389 1.6537483641661197 0.09212439296212845 0.06698683844499062 -0.31300307571531866 0.08977444874803052
0.2096772354241956 0.6028637569808045 0.16856656617924917 2.442512478740565 -0.4824148005944291 0.48166542674064505 -1.2198969767791763 -0.7787665506923488
0.5767300910172266 -0.25088921531135566 -0.43776781575600643 1.3333169461536607 0.18440096164126227 1.0842615267247562 0.9823005989739969 -0.22407388664361824
0.06573983894475523 -0.5142360767281788 -0.44733889047676084 -0.5005006333586743 0.2555794386183825 -1.6345964071991212 0.875849132633161 -0.31764833167457956
2.4148308020369327 -0.7475141602641451 -2.6499562069658915 0.47402945991054984 -1.9806400186477668 -1.109332439666597 -0.3483543339886106 -0.5511343892615534
-1.7740556631293254 0.6568004089603989 0.9922950497166008 0.35290872231073106 -0.10640164680475298 0.5904099714067024 -1.1738538437308612 -1.8207741653216294
1.2002844958071692 -0.9026429607216286 -1.256286031460878 1.127970372849842 1.2996380594999821 -1.9171698915363835 0.3937395987420964 0.06318270882175525
-1.3128688836980065 -1.353063585500223 0.20814671772386592 0.7672285980175767 -1.9716138482968397 -0.4101551129145915 -2.3182372141090934 2.213974182398998
1.449415557915677 -1.326363887530115 -0.5823863880950191 -0.8253829738281613 -0.45088111551713506 -0.3600443617186745 2.682947289498555 -0.7924343825113033
0.28878677771016265 1.1826376097104414 -2.6345953172413523 2.6596292081280724 -0.16063283407839302 0.7897370248140866 0.827585367835129 -0.3574074577383139
0.2743329731236139 -2.074581828628876 -0.09414163403322887 0.9074772115324282 0.6174710949751866 2.240275169717652 -1.9099117127708976 -1.3152237413031413
1.3748844988306288 2.0468516947113535 -1.0400376937575952 0.33638713302811124 1.7206347177866312 1.1521671003223801 1.5399815616261088 -2.290399498373772
0.36012655725618603 -1.1351507103148382 -1.1050511706786097 0.7060831673453171 1.754017487479495 -2.274490081806263 -0.8689768428943669 -1.3776582634924817
-0.07461780301551636 -1.0945342421203528 1.881062027403021 -0.6855262644157267 1.3174429703413568 -0.31405142321619006 0.7022269864920206 -0.2956959452441831
-1.2922075601674934 1.464818613505655 -1.42645191067353 -1.6285543382731928 0.08469580082196408 -0.49359024866677087 1.0792041258887912 1.5347779619548152
-0.6741642485489097 -2.8544111491727486 -1.3249930226299151 -0.21600767437753035 -1.212703315672409 -0.7432531822165106 -1.485437904622532 -0.08164376475558288
0.17839087984788424 -0.23345184000140107 -0.16831626302242972 -0.2957566340066087 -0.7429366686536814 -0.9657634214346497 -0.6917998130620523 0.2668700105117866
-0.6009409289977816 0.2843218752614164 0.38690437028245317 -1.3119006289029356 -1.786375836344304 -1.3896111633831822 -0.7829500721952444 0.6112009784917296
1.6019088265950097 -1.6039164673497914 0.2224841395834998 -1.0767219440643547 0.9904162114835825 -0.2881623514340515 -1.174519303448844 -1.1356637817246202
1.2382799531302988 -0.47813254217412754 -0.18008736853808144 -0.22451423369302953 -0.357081299695664 0.22509839384612323 -0.21562208504984384 0.09440845905500578
0.5125687929079963 -0.2958871230698646 -0.6030938482457028 -0.2949600802274901 -1.0832967640293585 -0.1516421839476441 0.47946641002424867 1.3003677558127598
0.3417636101639032 -1.3194608344304795 -0.08016943240844557 -0.38460143229332455 1.192083924831619 -0.615149034302936 0.4921820619676469 0.46372587831256934
1.4889473286673023 0.03352287270377519 0.29045317389309666 0.3215532896789463 0.31862970975421584 -1.5555810446678668 1.9480699573107212 -1.4954544829805603
-0.874568096310335 0.1370749125485083 -0.22920341844461045 -0.6323743715548215 -3.028524108140411 1.0382712228003725 0.7580616403312972 0.12637644580791513
-0.4286378594714028 1.1425632355154718 1.5322061857481952 1.7682910341845008 -0.25415426974265665 0.6356858775486821 -0.8565858880363539 1.7542971384325552
-0.8442592181584692 -0.48902449905282974 -1.4426273240326342 1.3674339027709108 -1.0465347896557873 0.4821068137950764 -0.19762180885395852 1.6171298571320414
-1.0133625728851998 1.5063290361151007 -0.6374965384219248 0.6533972153314164 -0.28131769277358065 0.8729264797447748 0.36356645663424675 -0.848506122860703
0.416861383721307 2.158909016159627 0.5997686526097529 -0.12977239605265037 0.0043334309191210875 1.2235002319701636 1.1766432555357624 1.1233379318272738
00000000: 806a 70fe ae55 b0bf 7e19 374c e78f d13f
00000010: 70dc 54bf e509 e03f f4ae 5b95 730d f23f
00000020: 7a0b 45a6 42a5 a9bf 8b8f 16aa 4e40 e7bf
00000030: f030 cd79 7a5e cfbf 5168 e9bb 91f3 e2bf
00000040: 12ff ee35 ecfe e33f 0056 9af0 a875 d6bf
00000050: b4fe df31 b98f f2bf c30f 91f7 7cb6 b03f
00000060: 1b59 bdd4 3afa f0bf 9a45 3904 409f e2bf
00000070: 46f1 ae67 3866 e13f 73df 2a26 22b5 e83f
00000080: 8abd 524f 2fe0 eb3f 26d0 152d aaea e53f
00000090: 4224 d07c 74f0 fabf 062a d3e5 d622 e6bf
000000a0: 0b86 0588 a3c3 e73f 7dc1 137f 3ed2 efbf
000000b0: a13a c398 fffa f23f 142e a78d 1f52 e1bf
000000c0: 306e baf5 9d60 d03f bcb5 1910 b11e cabf
000000d0: 3d8e 4eb7 9324 cd3f 8622 f796 728d f63f
000000e0: 7c9c 4859 92e2 e7bf 3320 fbfb 5865 c8bf
000000f0: a289 a107 d349 d3bf 162c 3c2e fcc0 f13f
00000100: 8c38 77f8 3526 fdbf 24dd 76df 4306 efbf
00000110: cd90 06cd e307 e63f 0083 3ed8 c075 fa3f
00000120: 6daa efd6 7695 b73f 3638 62a8 0c26 b13f
00000130: 41a9 6f0d 3e08 d4bf dfa3 6351 75fb b63f
00000140: 196a 6e22 b4d6 ca3f d1a3 05ef a84a e33f
00000150: b52d 78d8 9693 c53f da19 82fb 438a 0340
00000160: 2c34 ea53 e2df debf d0c1 dd39 9bd3 de3f
00000170: e517 3cb1 b284 f3bf d927 4ed4 a7eb e8bf
00000180: 0c38 f1a9 9274 e23f a69b aba3 910e d0bf
00000190: 2a75 fa4c 6304 dcbf caeb 6e26 4455 f53f
000001a0: 6fd2 cc61 739a c73f 7180 599d 2259 f13f
000001b0: a7e7 6daa 016f ef3f 4fcf 82ff 73ae ccbf
000001c0: 41e1 4f7a 53d4 b03f 6811 7f37 9f74 e0bf
000001d0: 3de7 344c 33a1 dcbf aee3 7ce7 1904 e0bf
000001e0: f057 99dc 695b d03f ea44 f18f 4e27 fabf
000001f0: e875 9cc2 f406 ec3f 41f6 0aab 5954 d4bf
00000200: 03fa c0cf 9251 0340 7a34 f4d0 a2eb e7bf
00000210: 7501 663d 1c33 05c0 b701 eaa8 7f56 de3f
00000220: 17db 9396 b3b0 ffbf a928 4c5f d3bf f1bf
00000230: 10a9 f9f9 6f4b d6bf ac89 3296 e4a2 e1bf
00000240: e4c8 e630 8862 fcbf b47f 8f4a 8204 e53f
00000250: ee7e 508c e1c0 ef3f 190e 3377 0e96 d63f
00000260: 4a57 4469 233d bbbf 1492 cd73 a3e4 e23f
00000270: 23ba d1f7 1ac8 f2bf 5c54 5717 e421 fdbf
00000280: c733 f683 5d34 f33f c072 887d 73e2 ecbf
00000290: d1bc b861 bf19 f4bf b4f3 63a9 2a0c f23f
000002a0: 7a07 2347 51cb f43f e764 1056 baac febf
000002b0: a832 ef92 0733 d93f b8e7 0ff4 bd2c b03f
000002c0: 15b4 76cd 8201 f5bf 801c 9200 26a6 f5bf
000002d0: 5366 b238 8da4 ca3f 5553 21fd 228d e83f
000002e0: fd68 6cf6 ba8b ffbf c857 103b fb3f dabf
000002f0: e9bf d7f3 bf8b 02c0 7dbc 9c18 38b6 0140
00000300: 9bfb 385e ce30 f73f a498 f856 c938 f5bf
00000310: 121e 50c7 e8a2 e2bf b68c e88d 8969 eabf
00000320: 0ced 6177 3cdb dcbf ba37 ac81 f70a d7bf
00000330: 1b4e 8a11 ad76 0540 8595 a359 9f5b e9bf
00000340: 5b12 7289 7b7b d23f 869d 0b6a 15ec f23f
00000350: 88f8 adb5 a613 05c0 ed2b a3ad eb46 0540
00000360: 2ce7 83e0 9d8f c4bf f989 c094 8645 e93f
00000370: 1400 304f 947b ea3f ab48 9587 c3df d6bf
00000380: 8ff1 f1e2 ab8e d13f f8b1 965b be98 00c0
00000390: 325e 5d87 aa19 b8bf a9b4 2ca6 0d0a ed3f
000003a0: 7d99 e4bd 52c2 e33f 48d3 5f63 15ec 0140
000003b0: d892 8995 ff8e febf b91d bd0c 280b f5bf
000003c0: 1314 64e3 86ff f53f 2861 04c8 f35f 0040
000003d0: f8bc 9490 fea3 f0bf fda8 c9e5 5d87 d53f
000003e0: a317 1445 b887 fb3f a096 f6c4 466f f23f
000003f0: ca08 bab4 c3a3 f83f 3d52 e2f8 bc52 02c0
00000400: 6c87 7542 500c d73f 9b55 8dca 9329 f2bf
00000410: cd89 e722 4aae f1bf ab22 00ba 3b98 e63f
00000420: 6362 15a4 7410 fc3f 6079 23db 2732 02c0
00000430: eacd 2686 a8ce ebbf d13a 2c64 e30a f6bf
00000440: c9a8 a6ff 261a b3bf 1d25 6456 3683 f1bf
00000450: 4b18 177f d418 fe3f f6dd c6c6 d4ef e5bf
00000460: 2e61 7f14 3f14 f53f 5e73 fe23 6b19 d4bf
00000470: 7542 abba a478 e63f 768c 98af aeec d2bf
00000480: 6d03 a9d5 e1ac f4bf fa42 79a4 e56f f73f
00000490: 6a8d 1a3d bfd2 f6bf cc46 6afe 8e0e fabf
000004a0: b38c a3be 9fae b53f 8f7d e98d fb96 dfbf
000004b0: f668 a68b 6b44 f13f bb7a 1356 738e f83f
000004c0: a8cc f4e6 c092 e5bf 2247 3883 d5d5 06c0
000004d0: 91fa 39e2 2b33 f5bf 2979 91b4 23a6 cbbf
000004e0: 2a05 8997 3b67 f3bf 2992 c8e5 bac8 e7bf
000004f0: 0d7b 4989 5ac4 f7bf f82b 8c13 9be6 b4bf
00000500: 53f8 6c29 83d5 c63f 149f fff8 bfe1 cdbf
00000510: 877b 8826 638b c5bf 0c8a a83b aded d2bf
00000520: 6abc db1e 23c6 e7bf 2f84 d7b0 88e7 eebf
00000530: ab5f 8f5c 3923 e6bf 6a9a dbf3 6514 d13f
00000540: 52f2 9b78 e83a e3bf 4e40 f260 5432 d23f
00000550: 22ba 428c 0ac3 d83f ccd6 8b83 8bfd f4bf
00000560: 3a6a 37d4 fe94 fcbf 4d32 4eea d83b f6bf
00000570: 5b57 4f4f ed0d e9bf 38f7 bc5a f58e e33f
00000580: 8a63 5626 6ba1 f93f 0388 4c50 a4a9 f9bf
00000590: f9e5 b13b 5c7a cc3f 6845 0aca 403a f1bf
000005a0: b101 b856 7db1 ef3f e140 d680 4071 d2bf
000005b0: f455 cdc0 d4ca f2bf 9024 1cc9 ad2b f2bf
000005c0: f1ca dfa3 fecf f33f 53a3 f23b b999 debf
000005d0: e699 2557 1a0d c7bf 225a 99e5 e1bc ccbf
000005e0: f32f 0d86 6bda d6bf cec1 f92f 06d0 cc3f
000005f0: f1cd ca25 8199 cbbf ac64 1b1c 272b b83f
00000600: 6aae 4fab f666 e03f 4920 398b d0ef d2bf
00000610: 634a 5478 8b4c e3bf 80f7 8c3e a0e0 d2bf
00000620: 4be6 d5fc 2e55 f1bf 11e4 5fd6 0269 c3bf
00000630: 4f6b a5e1 93af de3f c9d1 7f6b 4ece f43f
00000640: 987a 277a 74df d53f 5fb5 c3f6 821c f5bf
00000650: ba49 55e2 fb85 b4bf 1e74 6c53 4f9d d8bf
00000660: 76d3 f397 c612 f33f 2ee8 0f07 4daf e3bf
00000670: 840c f530 e97f df3f bd53 6a4e afad dd3f
00000680: 667b 216f bad2 f73f d182 dcf3 e829 a13f
00000690: e0f9 b8e8 c896 d23f 0fe8 c53f 5494 d43f
000006a0: bf69 bbdd 6d64 d43f 1c04 12f3 a8e3 f8bf
000006b0: be83 4f67 4b2b ff3f f5ed 10ae 61ed f7bf
000006c0: 4ae4 783b 76fc ebbf 4abb 3fb5 ab8b c13f
000006d0: bced 2ca1 8956 cdbf 2302 952d 693c e4bf
000006e0: 93e2 fcd8 6a3a 08c0 73e3 2449 c29c f03f
000006f0: b266 327c 0a42 e83f 3267 dd76 1a2d c03f
00000700: a374 107d cd6e dbbf 136a 2263 f047 f23f
00000710: 4547 28a2 ea83 f83f 831e 1a8a eb4a fc3f
00000720: 04be 2b45 1044 d0bf 8738 d3e8 8957 e43f
00000730: aa99 eace 2669 ebbf 1f8c 50e0 9911 fc3f
00000740: f8c9 6ae8 2b04 ebbf defa 9769 2d4c dfbf
00000750: 1b94 9063 0015 f7bf b97b 3d5f 02e1 f53f
00000760: 602a 7b43 9bbe f0bf 6d6e 9b89 d6da de3f
00000770: d886 00e3 ab4b c9bf bd46 9c8e c3df f93f
00000780: 8184 58ac bb36 f0bf ae12 b279 ec19 f83f
00000790: 63bb fa23 5f66 e4bf 3dab e446 a1e8 e43f
000007a0: c6ea 8fec 1b01 d2bf 6d1e 4a83 03ef eb3f
000007b0: 15ab 4a3e ac44 d73f 2d8f 0450 f626 ebbf
000007c0: ae17 835e dbad da3f a28f 1b17 7245 0140
000007d0: f7fe 8307 4e31 e33f e51e 7cc2 619c c0bf
000007e0: 84cd 3b81 eebf 713f 405d affa 7493 f33f
000007f0: 735c d9e0 87d3 f23f e6de f831 31f9 f13f

rbf_layers.0.log_sigmas f8 [128]
0.15104823396761882 0.3769100061410133 0.014810488862982113 -0.1260012289364607 0.15906953886995692 -0.0717334205939823 -0.04220748735579109 0.508309857060492
0.13150329710612235 -0.06263542910034363 0.09025959574778275 -0.1835697859887879 0.04222172143927692 0.13945414544707746 -0.10543154747767763 -0.11528144135393795
-0.027391440202315872 0.07277407070105549 0.1509491531700043 0.12375773916833938 0.2702175638108025 0.07637906289464053 -0.026027301025083 -0.00520752287923461
0.6604711392671005 -0.04255684496400378 0.14979482908990996 -0.13168341433008227 0.1476427487323869 0.06742301440964793 0.07162338774685376 0.024785009507079327
-0.030289694694622806 -0.11062044695086434 -0.07169649853941833 -0.01077766245594946 -0.09950240923493656 0.03823652303719246 0.12080113212137834 0.07447746422407306
0.12035098263127021 -0.14572660098848916 0.03113602542234307 0.13389895683955833 0.002079553686158283 0.10682663200277849 -0.03455319003445584 -0.015477319280479447
-0.03756983427055042 0.13972430494055865 -0.11584284822520538 0.03641619693494665 0.1644413150113875 -0.020595501902898303 0.16049075031541682 0.05178513598721006
0.0197960886451402 0.06461898469901309 0.029114909596155595 0.01603377710467755 0.0342214973717175 -0.10982937037870816 -0.1155541972945607 0.07771943475663802
0.11406955995901234 0.06225205148166852 0.07735199175360354 -0.0613952113065007 0.17853436316231133 0.0034782635896658965 0.17234530365646902 0.07151335246231463
-0.05746813251010724 0.02711598313162377 -0.06206515000489463 0.03725864009773562 0.09453489141001847 -0.08075911373634324 -0.07543630668178385 -0.16121192997495354
0.0066571586969398295 0.09026508431745642 -0.16225873924332393 0.13251691665980994 0.04207872779255458 -0.16502810314969826 0.027137035757725855 -0.0013965814358863201
0.25202224177706994 0.14510350914248615 0.13911751940995945 -0.02827449445893814 0.1582465071647924 0.029721572586331516 0.10859886260727131 0.045205842449443374
0.05041039038803886 0.02676851326541146 -0.06529171629408521 0.11953628310967132 -0.010764689566428433 -0.0366583053340482 0.21221710698815838 0.2504945405623619
-0.07774242529945197 0.23291684927314973 -0.007272564797627189 0.05355551579712921 -0.1332672102344658 0.11180440665438718 -0.030087983295172857 0.16270498008936246
0.19339033477238105 -0.1923714217142987 0.003793462248827765 -0.0296526598540081 -0.041102550621436494 -0.140650401931824 -0.026816300579440153 0.023446972021485744
0.07413845723640813 0.14664413591423536 -0.032583393608572576 0.0645941382626103 0.12299225577346842 0.34757010904014435 0.2177745711496139 0.05814041539514085
00000000: 9d36 816c 8c55 c33f bb4a 7a25 4b1f d83f
00000010: 902a 6f2a f654 8e3f 28da c4ea ce20 c0bf
00000020: f53d 9e01 645c c43f dc3a 7b17 1f5d b2bf
00000030: 36cd ad43 389c a5bf 5ce5 8908 1344 e03f
00000040: 2288 319c 19d5 c03f 2b91 8e1f e008 b0bf
00000050: 600c e3bb 401b b73f 1783 adf9 367f c7bf
00000060: 8d68 86e1 159e a53f 4850 fe28 a2d9 c13f
00000070: bc1f 62d8 8ffd babf 8a6e 73a4 1583 bdbf
00000080: bfe8 6f6f 800c 9cbf 3a67 a84d 52a1 b23f
00000090: 1aae 1c46 4d52 c33f c4db 5a52 96ae bf3f
000000a0: f5d1 d79b 3e4b d13f ac4a 3b09 948d b33f
000000b0: e2d1 d29a e6a6 9abf 520c 5ac7 7b54 75bf
000000c0: 7254 e35e 9422 e53f edc3 aec2 02ca a5bf
000000d0: 8d89 061a 7a2c c33f c995 fc8a 00db c0bf
000000e0: eb08 a624 f5e5 c23f e01d e379 a242 b13f
000000f0: f25f 000c e955 b23f 2a4a 0ed5 3d61 993f
00000100: 5717 7a00 4304 9fbf e640 ec21 9f51 bcbf
00000110: 5bea 76a4 b35a b2bf 7d7d 345e 9912 86bf
00000120: ee89 8969 fd78 b9bf 6b3c eacf bc93 a33f
00000130: d9f5 c7af d2ec be3f aea3 2181 f410 b33f
00000140: 5959 716e 52cf be3f 068f b354 2ba7 c2bf
00000150: a361 aa4b 1fe2 9f3f e815 4cdc 9923 c13f
00000160: c57e 50e2 2309 613f e533 cb7a fd58 bb3f
00000170: a846 57aa f4b0 a1bf b782 1da1 92b2 8fbf
00000180: c52c 0473 5a3c a3bf 2c88 166c 7ce2 c13f
00000190: be4d 9a7c e0a7 bdbf 8bb5 c2cd 24a5 a23f
000001a0: f9e5 0abb 690c c53f 497a 78bc fc16 95bf
000001b0: d425 f5fd f58a c43f 36cc f7d2 9483 aa3f
000001c0: ae43 4705 6d45 943f f2a4 fba9 de8a b03f
000001d0: 017b 2a82 4cd0 9d3f da0b 2f91 286b 903f
000001e0: eb37 10e8 7a85 a13f e4b4 ea11 c71d bcbf
000001f0: 06b1 4bba f594 bdbf 091a 8bbe 6be5 b33f
00000200: c739 7ea5 a933 bd3f 6902 723a 80df af3f
00000210: 69b8 dc12 57cd b33f 2d86 6271 316f afbf
00000220: b145 7fc9 36da c63f 64d7 a98b 727e 6c3f
00000230: c76f 6931 690f c63f f28e 0df6 b24e b23f
00000240: a8de 628b 766c adbf 5e31 ffd2 4ac4 9b3f
00000250: 2d16 fcda 00c7 afbf b229 6d81 9013 a33f
00000260: 58db ef4a 7033 b83f 6ffe 5918 a1ac b4bf
00000270: 0319 2136 cb4f b3bf fad5 7baf 97a2 c4bf
00000280: 79c4 336e 8944 7b3f 7239 1dd1 9c1b b73f
00000290: 8127 45f5 e4c4 c4bf f93d 9c77 50f6 c03f
000002a0: abde 73cf 578b a53f 8774 f910 a41f c5bf
000002b0: 7ff8 5ba4 cfc9 9b3f bc28 f9e5 afe1 56bf
000002c0: 0504 93e5 2121 d03f e0a1 2675 c092 c23f
000002d0: 494d 1556 9ace c13f be5c 0c34 fdf3 9cbf
000002e0: 4d50 7dea 6b41 c43f f1d6 f9f8 546f 9e3f
000002f0: 6cf1 4793 22cd bb3f 5125 d15d 3825 a73f
00000300: a1c0 3004 64cf a93f 4f62 2684 3469 9b3f
00000310: 65cc 2e3a f5b6 b0bf 1e35 a40a ee99 be3f
00000320: 147f 1d2d cc0b 86bf abb2 129d e0c4 a2bf
00000330: 563b 151f ee29 cb3f 53ae e240 1a08 d03f
00000340: 2841 2c76 ede6 b3bf 9963 2825 38d0 cd3f
00000350: 98ed 6b3f d6c9 7dbf 3af8 bce9 a06b ab3f
00000360: 2e08 cb62 e60e c1bf 5818 21ae 369f bc3f
00000370: 8c7d 0561 62cf 9ebf 86a8 304c 84d3 c43f
00000380: f6dc 9ab5 03c1 c83f 0156 7972 a09f c8bf
00000390: 88b1 8389 7713 6f3f bddf 3f51 445d 9ebf
000003a0: cb0a 67bd 640b a5bf 48b4 3b16 d500 c2bf
000003b0: 791f f477 bb75 9bbf 690c 17a8 7b02 983f
000003c0: f2cd 34e9 bcfa b23f d66e f32b 3cc5 c23f
000003d0: 350e e243 c5ae a0bf 21e9 59cf 3d89 b03f
000003e0: 1254 35a4 6b7c bf3f b340 d9b2 963e d63f
000003f0: 5677 7e82 09e0 cb3f 465e 659d 94c4 ad3f

linear_layers.0.layer.weight f8 [100, 128]
0.09441587692176197 0.11934021604120235 -0.021298825779912864 -0.029525373233600483 0.02765113115794805 -0.06439135107842443 -0.07998080888713392 -0.09104850018375323
-0.06555371269184346 0.11741114428008718 -0.1487832206263683 0.06623063776086671 0.05108938448533762 -0.10940956684292169 0.09010836027638641 -0.014594358553144568
-0.12916068159375502 -0.01892163990966491 -0.07133022335075427 -0.03376173989854593 -0.059470386493528385 0.03859624772223773 0.09578188884234315 0.05729254021652928
0.23801051753933228 -0.07879703436898582 0.017642905972787518 -0.024837785988889114 -0.14709853977859066 0.08134549048178735 -0.20036602238388848 -0.09515737685124181
-0.02385931700877046 0.03164169555371091 0.11538804753831139 0.08115076833792198 -0.03354576756005748 0.00047005471499432446 0.055006264113962304 0.3431853101040013
-0.008765927270599678 0.0763501824624166 -0.47046369992262504 0.07894190838712863 -0.21324665073920343 0.07169350434040951 0.016536903549673677 -0.031032419750701257
-0.16461616814683677 -0.03197999944099819 -0.052438072407843546 -0.10146763153427885 0.030636440595745405 0.015274180500423373 0.007048196394991943 -0.005227142447154365
-0.23382425256237815 0.0970154173844376 0.4211081273507139 0.20146191934965121 -0.21290737792772846 -0.07236835181425987 0.019617622222792362 0.46831687524939436
-0.2605452446123022 0.16659755360929165 1.2693733242538656 0.017299671595061936 -0.24552143257374587 -0.04118365071663301 0.20266214816606362 -0.06999827257494629
-0.1076884482656214 0.18771176375682955 0.05858291636310135 0.08042125665578373 0.41501756149120456 -0.146166022969522 0.006793913371854032 0.037628722089026
-0.0037010239129127566 -0.014771943577168498 0.02278800924963943 -0.03244427581165987 -0.0676242592583355 -0.12566849985557074 0.30064885041279327 -0.057632555467294115
-0.49343515821885064 -0.1356324413745354 -0.007887801294263815 -0.19520754064189044 -0.022476607924340412 0.038444271096891657 -0.1153676184268474 -0.022156415541059384
-0.027087014933998982 0.020671635323039606 0.006737083808626973 -0.004349239641344211 0.11651169615060722 0.08824997737761921 -0.031132295309994503 -0.0843694421557695
0.009243610860764744 -0.0025873260111809607 -0.19598933950678377 -0.09741644332115919 0.14346446230496226 0.05775044904049397 -0.05472469345276708 -0.008524844973079844
0.02616687704210824 0.09382556996504732 0.0793791624957021 0.09554895445183047 0.01686351299224827 -0.00769826707895684 0.013878039424060887 -0.13082816576363263
-0.04328248924806634 -0.1116043734968674 -0.013027203316857774 0.02661703979222844 -0.2561530915855583 -0.060967102534027456 -0.03739198440729529 -0.0802841560753812
-0.038772415393178876 0.13100755839477662 0.05463942232729223 -0.13735218367895147 0.048728449166310556 -0.04734356964934486 0.049525234998848096 -0.053689993391013005
0.021932768147882333 0.2385957703349532 -0.04027939937467903 -0.0049237991702874686 -0.0019463611607952673 -0.07689808975500208 0.05567065303529884 0.04477136662183719
-0.1607881442084694 0.04492910227789749 -0.09230965597627797 0.003244614868698174 0.05025999480008782 0.07524415913586459 0.046461558573956556 0.0035385913415716883
0.09562084868275342 0.04993873471070149 0.10123709527450336 0.05245373677242167 -0.1233525770203659 -0.07341529103828186 -0.6099705214432911 0.1070584720435801
-0.04311547669661424 0.0572595296707065 0.0567224577734498 0.016001213217572873 0.061063493762191105 0.07249292739493697 0.0795672739316881 0.5092444013947457
0.036126694959006736 -0.01899375976239366 -0.1608173515130703 0.047761581516894754 -0.35487605898792207 -0.0930124216846916 -0.09226598042599848 0.2210779660049366
-0.10788254537169628 0.07242125234943377 0.023818700033281837 -0.047144856539215414 -0.16657856386012712 -0.31294156268957607 0.001104993539410069 0.053799392423684714
-0.6891262013300583 0.015272995705086638 0.13744295421844335 0.2311025577785646 -0.4380460503310058 0.015670085188130185 0.052858380479475414 0.7607613842950257
-0.33816125811776354 0.07891220314424073 0.6523657956036484 0.09225032621778805 -0.6646457363148687 -0.1505791956929917 0.13482247860284424 -0.07420661968539169
0.1726695133182308 0.23206578992910498 0.03905690715384654 -0.028503626531941273 1.1126400687280842 -0.03615604259101287 -0.01338928423152971 0.03292954111244207
-0.039199034486275625 0.04722795243364913 -0.051780779970592786 0.029735478574157894 0.07745508842241208 -0.1426858004160955 0.3321313959634295 -0.061350268217853866
-0.6890981110693741 -0.6405481350332549 0.055480759634271765 -0.17322127350979252 0.02071055268053766 0.04942367926445884 0.0016786352377802232 0.05303385932288777
0.03743356840305236 0.09855824680348665 0.0785854284812299 -0.04520379775360468 0.6052112711592041 0.05431552109111124 -0.015211590829463564 0.015255353350493602
0.04973989076591281 0.024738051199084798 -0.6028330795979782 -0.2973653931006723 0.006317255048939147 0.15208429961750794 -0.05943042052951932 0.04868464635099372
-0.08008623869370322 0.1616339023393526 0.053586794602298586 -0.26093983351027955 -0.04802658783356857 0.026570379816477037 -0.025507585493550165 0.005678045436310594
0.10878050124838538 0.03805205585287828 0.030694717655896295 0.11907668462960963 -0.0309418516983137 -0.0970354300154053 -0.10237683623520802 -0.0591393354991783
00000000: 1d25 9a8f a32b b83f 169a fe94 148d be3f
00000010: 2cf5 ab00 5ccf 95bf 7d14 c341 e63b 9ebf
00000020: e34a 1500 9450 9c3f 31ef 069b f37b b0bf
00000030: 7355 7a4e 9f79 b4bf 199a a35a f44e b7bf
00000040: ac91 24cc 20c8 b0bf 0371 de20 a80e be3f
00000050: b553 641d 540b c3bf da17 2db7 7df4 b03f
00000060: 5018 1347 6328 aa3f 58ba 75ef 4302 bcbf
00000070: 44b7 7b6c 5711 b73f a5ea 88a5 a5e3 8dbf
00000080: 53e7 af53 5688 c0bf 6611 65c2 3160 93bf
00000090: 7303 8290 b242 b2bf e2cc 7001 3849 a1bf
000000a0: 3aef 230a e772 aebf 263f 6e2b e3c2 a33f
000000b0: 2e81 2070 2985 b83f cdcb 11a5 7255 ad3f
000000c0: 5ebd 77ee 2077 ce3f 0bf7 a2dd 0a2c b4bf
000000d0: a45a a360 fb10 923f 49fb 1b9a 136f 99bf
000000e0: 28b7 d1fc 1fd4 c2bf fcdd 4bdd 0ed3 b43f
000000f0: e527 af04 98a5 c9bf 689a 8cdd 3b5c b8bf
00000100: 4cbf 07a9 936e 98bf e4b4 2f1f 5733 a03f
00000110: 44be 8632 128a bd3f 6e80 0ef8 4bc6 b43f
00000120: 84e8 2d2d e92c a1bf f3c2 d3a0 35ce 3e3f
00000130: 77a3 e3f2 c729 ac3f c150 d784 bff6 d53f
00000140: ca1a 92d7 def3 81bf 0c3f b880 af8b b33f
00000150: 7cdc 47c7 131c debf c579 ce72 8935 b43f
00000160: 5705 748f aa4b cbbf 154a 7a68 815a b23f
00000170: 0d1b b1cf 0cef 903f c0af c76f f6c6 9fbf
00000180: 28b0 4a81 2412 c5bf 844b 73b7 ae5f a0bf
00000190: e92a 1dbc 29d9 aabf 90d4 0a5f c8f9 b9bf
000001a0: 56c3 b2b9 285f 9f3f 33b8 c7cd 1148 8f3f
000001b0: ca47 32d0 91de 7c3f e700 cb5d 0e69 75bf
000001c0: f82e e2fe f3ed cdbf 25bb df9c 00d6 b83f
000001d0: 8a45 c380 6ff3 da3f 9181 7f11 81c9 c93f
000001e0: 1a6b a388 8c40 cbbf 5bc3 4e78 bb86 b2bf
000001f0: b61b 7d57 a416 943f 9e1b d757 e7f8 dd3f
00000200: fc3d 2ff6 c5ac d0bf d139 2c92 1153 c53f
00000210: cd5c 2167 5a4f f43f 39e8 ed4e 01b7 913f
00000220: 0287 af0d 3f6d cfbf 2368 ea01 0616 a5bf
00000230: 2353 4151 d5f0 c93f 2863 7c23 68eb b1bf
00000240: 7834 755b 7891 bbbf e17c 3467 f006 c83f
00000250: 8684 c47b 94fe ad3f 6a64 3dcb 7c96 b43f
00000260: 83b4 77d1 a58f da3f b561 3878 91b5 c2bf
00000270: 404d e73b efd3 7b3f ae78 8665 1244 a33f
00000280: 5f96 5d15 9c51 6ebf 0595 7fb4 c040 8ebf
00000290: e361 df69 bd55 973f 2062 1b3f 899c a0bf
000002a0: 5947 eecd d24f b1bf ed2e 82c8 e715 c0bf
000002b0: 9f96 06ad d43d d33f 6778 d5a9 0382 adbf
000002c0: 76c7 cf0e 7194 dfbf 6279 fd61 675c c1bf
000002d0: 8409 c5c4 7a27 80bf 46a8 7e89 8ffc c8bf
000002e0: 0e19 d79f 1b04 97bf 73cf 28ae f7ae a33f
000002f0: b824 2974 bb88 bdbf 3aed 94e0 2bb0 96bf
00000300: 38b2 26cd b2bc 9bbf fd4e abf6 f12a 953f
00000310: 3d30 0e2a 5898 7b3f c746 5a20 82d0 71bf
00000320: 327f 91e4 b5d3 bd3f 49a9 b5ee 8c97 b63f
00000330: dfc7 d2f8 24e1 9fbf 423e d75a 3c99 b5bf
00000340: fc60 c072 50ee 823f 2281 4413 0432 65bf
00000350: 68ec c5bd 2d16 c9bf 3932 28b6 48f0 b8bf
00000360: 0578 de22 0b5d c23f ef9d ea83 7791 ad3f
00000370: ce96 5301 e004 acbf d11c e752 7975 81bf
00000380: 1088 8964 7dcb 9a3f b847 87da f304 b83f
00000390: 2025 e75a 3152 b43f 83a0 8972 e575 b83f
000003a0: b583 3033 ab44 913f 959c 70d5 3788 7fbf
000003b0: d5e8 abeb 166c 8c3f 2bdc ac32 fabe c0bf
000003c0: 62ad 9e57 1f29 a6bf 1b76 42ae 1a92 bcbf
000003d0: 2e4c a2a1 01ae 8abf 6b20 b24d 7f41 9b3f
000003e0: e445 c8ef cf64 d0bf 1cf3 077f 1437 afbf
000003f0: 4fe1 52cc 0a25 a3bf 9810 bba0 808d b4bf
00000400: cf85 3360 fad9 a3bf d4cc 6a0d dbc4 c03f
00000410: 8ea4 efc7 b2f9 ab3f 4eb7 77a0 c194 c1bf
00000420: 4cb3 1b6f eff2 a83f 54c1 a396 6a3d a8bf
00000430: 1125 4b21 5f5b a93f 5245 793b 417d abbf
00000440: 97a5 9f27 8b75 963f fdb9 4663 4e8a ce3f
00000450: fc95 085e 809f a4bf cd09 8946 fa2a 74bf
00000460: e357 0962 a1e3 5fbf 2563 9fdc 97af b3bf
00000470: 8163 4424 dd80 ac3f bb43 e0c6 45ec a63f
00000480: 43de 7ab6 b494 c4bf c12b d881 f200 a73f
00000490: 82eb 8509 9ba1 b7bf bc3b f957 7394 6a3f
000004a0: d250 ed93 adbb a93f 611c b482 3343 b33f
000004b0: 6752 3135 cfc9 a73f 702d c0c2 f6fc 6c3f
000004c0: 2e7f e8a1 9b7a b83f a9ac c5e0 9191 a93f
000004d0: 4c95 589d acea b93f 8a28 fb57 37db aa3f
000004e0: e406 2ed4 0894 bfbf 6b26 0932 58cb b2bf
000004f0: a2ef 23e6 e084 e3bf 20d9 2f1c 2f68 bb3f
00000500: a610 ba54 3b13 a6bf 75da a3fe 1e51 ad3f
00000510: e7e1 2bda b90a ad3f 43fa dc3d 9f62 903f
00000520: 0f50 60d9 b643 af3f 2941 5a80 e58e b23f
00000530: 4b54 5e57 855e b43f 402b 35ea ba4b e03f
00000540: ca16 b9ba 327f a23f 34be 07a4 1973 93bf
00000550: 6c61 b0b8 a995 c4bf 1998 3dbd 3474 a83f
00000560: b022 df12 4ab6 d6bf 49ec 417d a9cf b7bf
00000570: c489 7648 be9e b7bf 5dbf ed64 484c cc3f
00000580: 8040 2ec4 309e bbbf 694d 60fe 328a b23f
00000590: 6d68 b4e6 ed63 983f c165 05e2 5e23 a8bf
000005a0: e737 ff45 7252 c5bf 2ee5 530c 3c07 d4bf
000005b0: f8b7 4cc7 ad1a 523f 3240 020e 988b ab3f
000005c0: 20f0 3064 520d e6bf afb9 85c8 7247 8f3f
000005d0: 0d88 b710 bb97 c13f 4027 d7c3 c494 cd3f
000005e0: ad12 144d f208 dcbf c25b a29d d10b 903f
000005f0: ac2e f5ee 4010 ab3f 196b 3342 2858 e83f
00000600: e8f5 181e 6fa4 d5bf b783 c213 9733 b43f
00000610: b0b1 a43b 2ee0 e43f 4f96 26a6 b79d b73f
00000620: 0fbe 9c22 c744 e5bf 13cd 7ad8 2d46 c3bf
00000630: 40b4 2eec dc41 c13f 220a b27c 34ff b2bf
00000640: a9e8 5bdc 081a c63f 6809 22f1 54b4 cd3f
00000650: 6b3e d155 44ff a33f a09d 16ff 0d30 9dbf
00000660: 4380 36ac 5fcd f13f ab5d f678 0b83 a2bf
00000670: 6e51 214f d76b 8bbf 71ea 4c0c 24dc a03f
00000680: 4481 4e56 e511 a4bf b7b2 511e 432e a83f
00000690: 6af4 11a9 0283 aabf 3715 0730 fa72 9e3f
000006a0: 3edc aebf 18d4 b33f e502 323f 8743 c2bf
000006b0: ffd0 e80a a441 d53f d569 3167 4d69 afbf
000006c0: 24e8 587b 170d e6bf 7269 6fcd 5e7f e4bf
000006d0: 4c74 5f60 f967 ac3f 8317 595c 1d2c c6bf
000006e0: 9cac c7a9 2535 953f f87c 2d7c 0f4e a93f
000006f0: fdf7 aedc b480 5b3f 15b4 be06 4127 ab3f
00000700: d39b 2020 7e2a a33f 7ea6 c5fe 1c3b b93f
00000710: 1cdf 44b5 2c1e b43f 2a72 03c2 f324 a7bf
00000720: 7094 1907 e45d e33f 5dc7 8075 3ecf ab3f
00000730: 48ba 0f29 4127 8fbf 1e98 d5dd 323e 8f3f
00000740: c3db 4ac8 8177 a93f a3a5 7783 ee54 993f
00000750: be3f 3a99 684a e3bf b317 95db 0808 d3bf
00000760: baf6 5e3d 1fe0 793f 3dcf 8b92 7f77 c33f
00000770: e3a5 1f01 aa6d aebf f628 caa7 31ed a83f
00000780: 2792 0c20 8880 b4bf dc76 3c72 6bb0 c43f
00000790: 67f1 a074 ba6f ab3f 199f c9fc 3cb3 d0bf
000007a0: fad3 2ae0 f096 a8bf a290 6a01 4435 9b3f
000007b0: 6698 fa15 a91e 9abf 2339 44b7 dc41 773f
000007c0: c3e6 4df7 09d9 bb3f fe0a de1e 8f7b a33f
000007d0: 49d6 f7a1 6f6e 9f3f 8045 3342 cf7b be3f
000007e0: afdd 7c84 38af 9fbf b22e 785e 50d7 b8bf
000007f0: d287 7f4b 5e35 babf c495 c0cf 8247 aebf

linear_layers.0.layer.bias f8 [100]
0.3550942504559799 0.03187807637626326 -0.5217085797991764 0.32686469144432423 0.603131608145844 0.9678098453635773 0.10555934014316244 0.14625892216173803
-0.4542055689941849 0.5684038903641162 -0.12787633608620008 0.061618708652881514 0.7533371132954854 -0.06121661169866017 -0.3513261086962733 -0.7546562330534327
-0.08647646525807091 -0.8797379494620635 0.19473967320576152 -0.12522376995100046 -0.44164652284023154 0.05045855036213633 0.34891127697143204 -0.7872824462115933
0.48072362723050727 0.8463764531515434 0.22910888537369586 -0.017789629892795682 -0.5947878217416682 -0.46562002334239516 -0.4094255234207375 -0.10398053169113972
-0.6628770039630396 -0.3227973064169843 -0.4709549447054381 -0.5888385780397927 -0.18068606048077893 -0.19313535100597282 -0.15475155563582907 0.8905017838008279
0.6749978684995943 0.1250037065382868 -0.16404332434171004 0.04002672849412442 0.005439889872250417 -0.5454673134302627 1.1855273490193394 -0.41913328944485734
0.3434785643964016 0.4424669583066804 -0.03786644437224495 0.6922355356077686 0.6689343590783096 0.5075299221321694 0.4970616666244769 -0.02754546823479501
0.15177458484808182 0.9718969863565035 0.5876151592310594 -0.30380965925197084 -0.38156934767189293 0.35329182402824316 -0.04466179256649185 -0.35296670794036056
-0.17217291260450282 -0.08987131664575006 0.00078975092693928 0.3368988860270366 -0.2064621852436145 -0.7041706685649433 0.2563188670245985 0.06733239942368038
-0.5945925783584914 0.23411893913119827 -0.3577590701389502 0.6292693932348378 -0.2800910807269859 0.5160478892037526 0.3622906226916316 0.25357345686372107
-0.023129995918518186 0.17020651084215443 0.03984807598856465 -1.0577926432320395 0.16110575757625495 -0.43653414625036385 -1.3240528355212613 -0.01752098843371437
-0.785135647439712 -0.4841970044154147 -0.3587702755395137 0.8410021899505219 0.9297438235212582 0.522580794954814 0.9596397887521924 -0.28980401405648804
1.1458043692280455 0.5089098019961418 0.29545511548841547 0.4824137423357491
00000000: 3330 2d3c ddb9 d63f 6eaa fdbe 5252 a03f
00000010: 53f6 0831 d6b1 e0bf bb1c fee1 59eb d43f
00000020: fe72 85a8 da4c e33f 10ab 525a 4cf8 ee3f
00000030: ddc4 b3d9 ef05 bb3f 6e68 b7c3 9cb8 c23f
00000040: 1d6e 1f3c b411 ddbf bc0e 015b 5d30 e23f
00000050: 9815 b674 405e c0bf 0bc5 f8c4 7c8c af3f
00000060: f2f2 0e6f 561b e83f 4973 6fa2 c857 afbf
00000070: 3b36 c580 207c d6bf 4bfc 15d4 2426 e8bf
00000080: 5d37 2856 5223 b6bf 53ab 3f33 d026 ecbf
00000090: 3e84 d3c7 3aed c83f 3389 4f1e 5507 c0bf
000000a0: 186b ffc6 ef43 dcbf 93c7 37ff b3d5 a93f
000000b0: c510 f3f6 8f54 d63f 9032 e6f4 6a31 e9bf
000000c0: 47a6 5708 2dc4 de3f ca7d 4c12 8415 eb3f
000000d0: b396 f3a0 7053 cd3f 6bd7 63da 7137 92bf
000000e0: bc10 4e78 8008 e3bf f292 27ed b7cc ddbf
000000f0: 0f58 4f1c 0734 dabf 2ebd 08d7 779e babf
00000100: c055 a9d5 4936 e5bf c90f 9308 b6a8 d4bf
00000110: de8e 5935 2024 debf ceba 6900 c4d7 e2bf
00000120: b7d3 4d88 b820 c7bf 49d5 22c0 a8b8 c8bf
00000130: 6302 3b23 e6ce c3bf f588 ce98 fd7e ec3f
00000140: 386a 4221 9599 e53f faf8 ba17 1f00 c03f
00000150: b65e 9624 5fff c4bf d83e b223 627e a43f
00000160: 83c3 8551 2348 763f e909 07de 7774 e1bf
00000170: 85d3 8886 ebf7 f23f f727 b56e 14d3 dabf
00000180: ad69 3d84 8dfb d53f eb37 dfee 6051 dc3f
00000190: ffa1 6308 3b63 a3bf a50f 5223 cb26 e63f
000001a0: 992f 6d07 e967 e53f 2e92 2964 af3d e03f
000001b0: 20d5 8fbc dbcf df3f 29c4 e214 e134 9cbf
000001c0: a8ab 247f 596d c33f b26d 6fb5 c719 ef3f
000001d0: dcff 704e becd e23f 358d ac11 9e71 d3bf
000001e0: 9109 5ad7 a16b d8bf bb4f 894f 559c d63f
000001f0: e35a e814 e9dd a6bf 7a8f cbac 0197 d6bf
00000200: 1f5b 7212 c309 c6bf 7d8a d77d ce01 b7bf
00000210: f6b9 9b33 e9e0 493f 85e0 6258 c08f d53f
00000220: c5b2 bd56 5a6d cabf 8f3e 09ed 9088 e6bf
00000230: a6fa cd3f 8767 d03f 0665 7c35 b23c b13f
00000240: 29cf cf03 e706 e3bf c3aa 7801 9cf7 cd3f
00000250: bd06 864c 86e5 d6bf 1328 0a91 f922 e43f
00000260: b5ea e723 03ed d1bf 2e99 e9dc 7683 e03f
00000270: 04ea 0602 c52f d73f 1b41 172a 8c3a d03f
00000280: e649 1bc0 63af 97bf b810 d1b2 53c9 c53f
00000290: 5fdb 5b8e f766 a43f 9918 8afa b7ec f0bf
000002a0: 7a60 fe0b 1d9f c43f d1e2 6eea 2cf0 dbbf
000002b0: 91d6 ab06 522f f5bf b4fd 43a1 05f1 91bf
000002c0: d8ac 15cb d41f e9bf 9043 b26e 15fd debf
000002d0: 1006 0e9a 17f6 d6bf bb75 b66c 7de9 ea3f
000002e0: 4dd1 751e 76c0 ed3f cc27 fb5b fbb8 e03f
000002f0: 4631 9480 5eb5 ee3f 26d1 a722 268c d2bf
00000300: 802c 57f6 3655 f23f 12fe 8535 fd48 e03f
00000310: 7b5a 9d92 bce8 d23f d845 9ee3 dddf de3f

linear_layers.1.layer.weight f8 [100, 100]
-0.010520375213147345 -0.005367838260835574 0.038593698519346756 -0.05070057211432858 -0.03709593426475522 -0.0786614243035366 -0.04388938302667635 0.02710876985919834
0.06815691064185958 -0.08372537827152836 0.03772165348457066 0.03576174608963519 -0.09779610763888212 0.0730380011632602 0.12308629786942953 0.11052257533159965
0.12401495445934851 0.20126555330839133 -0.01440740098252578 -0.05080882067070511 0.016138253183348366 -0.010604157321623262 0.06473695000457874 0.11757882849409973
0.030911845219222214 -0.17443977992675105 0.03555546063616311 -0.0362899821411669 0.017939997483336103 -0.0034550562935182333 0.049358680503953166 0.06505223929331955
0.03399361994975268 0.04545607509262418 0.07766232887918663 -0.011740608213436803 0.08030186768379136 -0.07108520709026069 -0.011190316329908145 -0.15092332503581982
0.08421248220054353 0.0045502962719012946 0.07605443960917135 -0.046964296892866006 0.010815196866670164 0.045869613717784426 -0.28575683653755096 -0.06505205366008326
-0.07294270966008826 -0.008880747980881962 -0.0032969871636415217 0.03483693996757756 -0.04728637804870346 0.04711621183267919 0.03414526082889498 -0.05065624391386124
0.010583660929521215 -0.10866316268994218 -0.030520077316979123 0.08036347481323147 0.008811276576361667 -0.08457026857720755 0.074773497312026 0.0382724896566117
-0.10499611255595764 0.0005607489567451192 0.052354045612966506 0.014485007445945483 0.008213897887907027 0.13586521894925302 -0.06043934687948199 -0.03710840566431328
0.07784533622639223 0.05587754019987254 -0.032251153072346904 -0.03164534349401582 0.08740540498034022 -0.03324424907613146 -0.05155645571595559 0.07929071882203853
-0.04554771942608023 0.1039590989644492 -0.05956274546588536 0.05698901545315709 -0.020021120490529194 0.06399040296966405 0.0848676876095841 0.0064175840923923625
0.13387135052482202 0.0011992898484455422 0.023230284702184637 -0.11332549390047049 -0.07322635262074453 -0.09596247889512009 -0.1281588641751359 0.026472949122544717
-0.07882199889452333 -0.010303260693217256 0.011748015682294166 -0.03430544889360073 -0.04556062569194268 0.043776892012185833 -0.14566025352297288 0.005514135323495685
0.10966061241874733 0.1345532070356466 -0.03346245086006619 0.11465320020116326 -0.042404120327231294 0.12475125085931826 -0.028151183567486388 0.08168125130741095
0.08960435254814858 -0.03345092881648092 -0.017309773847209733 -0.041104169131373575 -0.011973392282708942 -0.11994580828465354 0.08936876451380328 0.060427558927337435
-0.05905649469476203 0.012880140784343415 -0.0016073190852925203 0.016001300477673966 0.0525436909842078 0.139000933147336 0.0167214825355852 0.052321910178124376
-0.0004655137137322398 -0.04232210788996743 -0.039386948841678926 -0.05354049872577255 -0.08677464388863144 0.024575864836288566 -0.1150680713539315 -0.06205493849450415
0.0032037725932430087 0.04417680574026311 -0.025796401589415565 0.15153850277308575 0.13567081041208814 0.071682722489754 0.047408820842782966 0.06508412522147836
-0.058670689050813817 -0.02732350521292061 -0.04373333540233731 -0.03302109987628697 0.057116958928853885 -0.04379857892136073 0.05669035000496699 0.002075832095201623
0.057984610860163634 0.05553246175603121 -0.0027196987632810534 -0.04238503524103744 0.041634907513827535 0.10599765775069421 0.10074768999612305 -0.08585095860413912
-0.0210736877501783 0.024773760725289216 0.010935359180915568 -0.05676840348686408 -0.0422668840139599 -0.034967259665528556 0.07085395448095427 -0.010982103787343453
-0.052213081382942624 -0.007839895647157737 0.1064790706555512 -0.042254645761220046 -0.061128601729827065 0.0020540347794832966 -0.038193465434757684 0.025023468114233186
-0.11199555456788657 0.1242531435312928 0.057495675635356305 0.014787292500741013 -0.011858047741228844 -0.11350100216130285 0.007872112915142936 -0.163007385735497
0.10398850653794167 -0.14484379858342047 -0.051820997945037445 -0.059379451995903894 -0.04000176014186918 -0.08813717807255278 -0.024037936258551683 -0.01707151615957221
0.07944471667867876 0.06507276161643825 0.036874557010810174 0.011800800159310133 0.07901678137326604 0.06855117123671076 0.02998600157656798 0.07096905921660686
0.058618702395021774 -0.03980319614485372 -0.07836466741403349 0.09085339132619613 0.06592815340562584 0.18633492597984863 0.008516430238922543 0.0648694904929013
-0.023445972844433338 0.06823629547152782 0.01753578933534625 -0.00833360326513547 0.1253806338321109 -0.08714510714022866 -0.08782657515278805 -0.15740265572308373
-0.021648409513903705 -0.05760330416221302 -0.0852355484101146 -0.05381314243687016 0.036526735899228537 0.037664151306959034 -0.04238503484194489 -0.15767386980410758
0.04961578988348594 0.023199230756176293 -0.026161888951622643 0.013057212146842483 -0.10508725058406763 -0.029733416138637902 0.023023397981831117 -0.06101394876736363
-0.06291199765930013 -0.009224249172024813 -0.049930668779589314 0.07350456365658999 0.017177264469362057 -0.1045084130120704 -0.06341950029796396 0.09411380365597365
0.19655903942128997 0.09343837348055231 -0.051493170429770606 -0.08535969198962584 0.0033604205548547414 -0.19791499300909624 0.1323927956314349 -0.002770924585512467
0.057583872181903105 0.07256708591902207 0.10295388694970178 0.10765508991357138 0.19065315672509892 0.06940139525159898 0.03035356664130772 0.05473035810573809
00000000: 1860 dbdb b48b 85bf 2ff4 7c1c 96fc 75bf
00000010: 6ace f1a1 8dc2 a33f 2533 3de6 6cf5 a9bf
00000020: 01a0 f600 3dfe a2bf ff28 d7b4 2723 b4bf
00000030: 937d 7b51 ab78 a6bf 8b91 ebbf 66c2 9b3f
00000040: b003 3436 bb72 b13f 4f7d 85c1 066f b5bf
00000050: ed71 22a8 4050 a33f eb40 ce13 5d4f a23f
00000060: 272f fc6b 2a09 b9bf 8885 5c52 9eb2 b23f
00000070: 8b56 ef67 9582 bf3f bcd7 841e 354b bc3f
00000080: 302a 9ead 71bf bf3f 5fac a2d4 11c3 c93f
00000090: 368c 52a0 a081 8dbf 3c0d 421e 9d03 aabf
000000a0: 9b56 8cd6 8b86 903f 5220 2fe7 a1b7 85bf
000000b0: b4c9 1ccb 9992 b03f f08a 1567 a519 be3f
000000c0: e72f 1ad1 5aa7 9f3f 1b13 f4ee 0a54 c6bf
000000d0: 51c9 4049 5334 a23f 27fe efbc 9994 a2bf
000000e0: 07cd ecd9 dc5e 923f 9b01 2b39 c74d 6cbf
000000f0: db8d 137d 8a45 a93f 24df 4b78 43a7 b03f
00000100: 0ee7 e99b 9c67 a13f 71cc dac7 0446 a73f
00000110: 5dd4 aaaa ade1 b33f 7cb0 7ec2 750b 88bf
00000120: 5a75 82c7 a98e b43f 499b aedf a332 b2bf
00000130: 26ce 59d5 f2ea 86bf 13c0 9d9c 7451 c3bf
00000140: 8660 f700 f38e b53f 0780 ccda 54a3 723f
00000150: 8045 d6c2 4d78 b33f 960f 784e b40b a8bf
00000160: 27b9 bc26 4726 863f 5198 98d5 387c a73f
00000170: 7961 e20a d749 d2bf 48f8 015b 40a7 b0bf
00000180: 7cc1 7898 5fac b2bf a59f 22d1 1130 82bf
00000190: 88aa 6181 4802 6bbf d4f8 b4bb 25d6 a13f
000001a0: 2aec 878e eb35 a8bf 6b93 ddb9 9d1f a83f
000001b0: faa0 25d5 7c7b a13f ce7e e57d 9def a9bf
000001c0: b693 83ec e2ac 853f b381 085a 59d1 bbbf
000001d0: 7a90 cab7 a740 9fbf b8a1 1d60 b392 b43f
000001e0: 6414 da85 a50b 823f 6bc7 c0a9 65a6 b5bf
000001f0: d10c 901d 5b24 b33f 34c3 d2a6 7398 a33f
00000200: 988d a275 06e1 babf b52d 1a37 e75f 423f
00000210: bd24 7143 26ce aa3f 78e9 19ca 50aa 8d3f
00000220: b2f2 68b6 72d2 803f 9684 0610 0864 c13f
00000230: e85a 7af4 e7f1 aebf 5048 7879 dfff a2bf
00000240: f00c 3d05 aced b33f bc8f 7a1f fb9b ac3f
00000250: 4b75 681f 3983 a0bf a045 c186 d133 a0bf
00000260: b85a e25b 3360 b63f b3c6 1fe5 6305 a1bf
00000270: 2239 6596 9b65 aabf 788c 3784 654c b43f
00000280: da4e afda 0752 a7bf 1f87 2c42 109d ba3f
00000290: a001 ac17 027f aebf 3781 340b aa2d ad3f
000002a0: c5c3 f1a6 6a80 94bf ae37 03d0 ac61 b03f
000002b0: ea32 c586 e3b9 b53f 110d bd1c 5349 7a3f
000002c0: 2c0f 3048 b222 c13f 4022 5cab 2fa6 533f
000002d0: 5165 4a04 aec9 973f 8506 1b4a e602 bdbf
000002e0: 5a22 b655 f6be b2bf bf64 7f3c ff90 b8bf
000002f0: 4090 2979 8267 c0bf 9f0a d78a b91b 9b3f
00000300: 4f13 75b3 ad2d b4bf 2899 c13d e019 85bf
00000310: 60d1 2ff9 570f 883f bb2d 25da 7b90 a1bf
00000320: f614 aaea b853 a7bf d295 06bf ec69 a63f
00000330: 85a7 9ac4 fea4 c2bf a805 156e fd95 763f
00000340: 2e73 ffc7 b712 bc3f 5a1f e51b 0a39 c13f
00000350: 340d 2d88 fd21 a1bf 9ce8 3e81 e959 bd3f
00000360: 91ce 0a2c feb5 a5bf d06b 93ae b2ef bf3f
00000370: 886e 10f3 a9d3 9cbf bdca 0fff 0fe9 b43f
00000380: 8807 c693 4ff0 b63f 8f41 93ea 7a20 a1bf
00000390: 54b8 4c42 a7b9 91bf 7c08 4c0c 9b0b a5bf
000003a0: 6218 3682 8185 88bf aaf7 dfbb c4b4 bebf
000003b0: e1e6 de10 dfe0 b63f 3274 bd6a 5cf0 ae3f
000003c0: 3e2a a922 a73c aebf 4438 7e3b e760 8a3f
000003d0: 86d3 f4b9 9555 5abf f4f5 fa18 a562 903f
000003e0: 98cf c6b4 01e7 aa3f ed9a fd56 c8ca c13f
000003f0: f11d 86b2 6f1f 913f 3099 28fa efc9 aa3f
00000400: ef45 232d 0682 3ebf e804 924a 3eab a5bf
00000410: c016 54b2 862a a4bf 79d3 1306 a969 abbf
00000420: 01ac 9ff1 dc36 b6bf 379a f85e 6a2a 993f
00000430: f967 47e3 1975 bdbf 7e43 c736 aac5 afbf
00000440: 0baa 6050 cc3e 6a3f 77d7 ca9f 579e a63f
00000450: e75d b934 5f6a 9abf ff62 bf18 9d65 c33f
00000460: 2bf1 de3e a95d c13f ed1f c884 cc59 b23f
00000470: ff93 1f0e f845 a83f 0aa5 506d 5aa9 b03f
00000480: ebff 69a5 150a aebf 44d1 3465 b1fa 9bbf
00000490: 6798 983a 3764 a6bf 3edc 1740 24e8 a0bf
000004a0: 49f5 4a1d 6f3e ad3f ae33 2870 c46c a6bf
000004b0: 0b4e 8a7e 8406 ad3f 7e83 bfde 5501 613f
000004c0: 05a2 a1ae 28b0 ad3f 8f90 3736 c06e ac3f
000004d0: 1ad1 c827 9f47 66bf b26e 66c8 7db3 a5bf
000004e0: d8a9 49ac 2b51 a53f bde8 7d99 a922 bb3f
000004f0: 204f aec1 99ca b93f 8df7 8813 54fa b5bf
00000500: 4bc4 c53e 5794 95bf 96c8 74f0 4a5e 993f
00000510: f196 6a10 4765 863f 612c d888 bf10 adbf
00000520: b96a 1649 01a4 a5bf 396c 6389 3ae7 a1bf
00000530: 7cb8 4919 7c23 b23f 0b04 dd04 c97d 86bf
00000540: b91e ed49 acbb aabf 94cd 44fb 5c0e 80bf
00000550: 928f 2c5e 3642 bb3f dd08 4ca3 66a2 a5bf
00000560: 1444 8f82 3f4c afbf 07be 7c86 9fd3 603f
00000570: 5427 ed09 188e a3bf 8486 bb84 c09f 993f
00000580: e09c 2a9c bdab bcbf 7060 e4d3 0dcf bf3f
00000590: b2d2 07bd 1270 ad3f e11d 7fcd cc48 8e3f
000005a0: e3a1 f139 0849 88bf d694 58d4 660e bdbf
000005b0: 19ec 2a1c 411f 803f f8c5 5e0f 6ddd c4bf
000005c0: 0887 bda2 fd9e ba3f 9ddb f8d8 3d8a c2bf
000005d0: bc0c d726 4888 aabf 21ed c0c8 fb66 aebf
000005e0: c0fb 2e57 1c7b a4bf bc22 6279 2890 b6bf
000005f0: 4610 6098 669d 98bf b4dc 640e 327b 91bf
00000600: c593 f92b 7d56 b43f 07c5 00c7 9ba8 b03f
00000610: 1af3 d4d0 38e1 a23f 67c7 0196 042b 883f
00000620: 0e57 d59b 713a b43f 5a6d 90ce 918c b13f
00000630: aac8 6f80 a6b4 9e3f 95fb 5c3c 072b b23f
00000640: 42ef 7043 4503 ae3f bfd4 6fa3 1561 a4bf
00000650: 6187 b4f3 b40f b4bf 2c09 7af8 2a42 b73f
00000660: 1749 c3de aae0 b03f dacf 97a6 d2d9 c73f
00000670: 32b5 d6ea 0f71 813f 84d9 2c74 499b b03f
00000680: 30e6 5b9a 3802 98bf bc4d 7311 ef77 b13f
00000690: 39c6 d1e6 e6f4 913f d34e da4b 3511 81bf
000006a0: 5a2a eefc 780c c03f 7c77 2c49 244f b6bf
000006b0: b23b 006c cd7b b6bf 332d 512d c525 c4bf
000006c0: 2893 7d2b 002b 96bf 7d57 0927 2e7e adbf
000006d0: 00c9 e034 ffd1 b5bf 7c02 b96d 658d abbf
000006e0: 45cf 3be0 a1b3 a23f d6a1 3034 b748 a33f
000006f0: 90d1 f8c4 7db3 a5bf 1807 1f49 a82e c4bf
00000700: 035e d4a5 3d67 a93f 6d7f 8f05 8ac1 973f
00000710: 0293 cba5 2eca 9abf a954 2e59 bdbd 8a3f
00000720: 4f31 7c80 ffe6 babf 63bd a7c7 6f72 9ebf
00000730: 50c0 7f15 7293 973f ac7d 1c65 383d afbf
00000740: 5904 792c 001b b0bf c727 31c4 29e4 82bf
00000750: c394 f33a 8390 a9bf 9905 03f1 31d1 b23f
00000760: dbc9 85b4 ea96 913f 2230 0b38 10c1 babf
00000770: d95a b5a7 423c b0bf 6ff8 cd9c d717 b83f
00000780: 4118 06bb d828 c93f 0a58 4ac6 93eb b73f
00000790: 0b2b ed15 505d aabf b4f8 7dfd 21da b5bf
000007a0: f0f7 480c 5087 6b3f 815a 2e4b 4755 c9bf
000007b0: 6444 bb43 3ff2 c03f 63c3 2ecf 0cb3 66bf
000007c0: 23bd 981f a27b ad3f e9c8 c9ac c193 b23f
000007d0: d2ee 7199 2f5b ba3f 153e 6db2 488f bb3f
000007e0: 22b9 8198 5267 c83f db02 e732 4ac4 b13f
000007f0: be5d 2a60 0115 9f3f fc34 5314 9e05 ac3f

linear_layers.1.layer.bias f8 [100]
-0.11688594375260451 -0.05473363829112195 0.655935594982445 -0.1528802138347493 -0.0796523001515678 -0.21712049674737413 -0.4786957087679196 0.3474012600894675
-0.6714098865097551 0.2688722051541917 -0.515171035642679 -0.6462457537095615 0.39527810068172264 0.5505222072293632 -0.569204008311676 0.5062441201986447
0.07133060353567316 -0.1253698248593798 -0.8170064433836894 0.13700353222727152 0.2767151671053607 0.2438686697883068 0.4639910180228975 -0.4081569616811327
0.4282465239935023 -0.5046731215938506 0.760750213268845 0.28747932198183035 0.6791510509909539 0.02734088680708489 -0.29998154432326796 0.26130612578672024
0.1245286384503217 0.23365733637839214 0.31069298465281325 -0.5432443535396572 -0.2773164556430575 0.46325540712466395 0.9284387144467396 0.3516574448405698
0.5545221034609153 0.3964429097174422 0.2559186208615327 0.33115789710763976 0.6428581367428597 -0.48564368992652435 -0.44764433817474175 -0.47582240760964734
-0.6302472557134126 0.16086442677189847 -0.47422395640650616 0.43933032692145935 -0.27180976887683467 -0.05791339097527095 0.3933232686613116 -0.42096881548482984
0.41851422284774825 0.36081083200869146 0.5555577414450441 0.2834666090518815 0.6161164401147752 0.42243615035797527 -0.4095436978618194 -0.2813012370886224
-0.6729630139917451 0.13477331951292992 -0.09964276678142925 0.2930399015361759 0.3060168118694644 -0.29853594441202175 0.30809330423012476 -0.3197424898598716
0.14876696259660022 -0.20348068024749383 0.7333593838121066 0.1691864717685374 0.8097035591888684 -0.40993705896677396 -0.22188337662487745 -0.3350637091374116
0.07255699405878133 0.7298092293283349 -0.46237148546408957 -0.4415193134230581 -0.583162640786044 -0.46283635198930567 -0.12498017926510922 -0.24659478478712168
0.21427713394455467 0.15728975524854424 -0.3873626432068298 -0.530249608690289 -0.3313377798837585 -0.46542103097803356 0.115257209806369 -0.22476695334175667
0.30712281833799404 -0.06485513158482813 -0.006700711270329907 0.37849772864618214
00000000: 678f c7b9 3cec bdbf 0a26 e724 0c06 acbf
00000010: c06b 17a5 6cfd e43f 1618 502f 9491 c3bf
00000020: bac0 33d8 1764 b4bf 991e 69bc 9aca cbbf
00000030: 4933 7953 f3a2 debf da19 ab7e d23b d63f
00000040: b0a7 1896 307c e5bf b533 fcc3 3335 d13f
00000050: f3d0 bdf7 477c e0bf e590 2b93 0bae e4bf
00000060: 0e31 d084 3c4c d93f feb2 78bf e09d e13f
00000070: a16c 0e53 eb36 e2bf 8274 81de 2633 e03f
00000080: a4c0 63f1 b842 b23f 7a90 d650 1e0c c0bf
00000090: fc88 5eb2 ea24 eabf 6e22 2ded 5489 c13f
000000a0: ac94 4188 b3b5 d13f 2841 a1ac 1637 cf3f
000000b0: 29f3 0262 07b2 dd3f 3c88 8360 3e1f dabf
000000c0: 9d60 cb1b 6468 db3f 654e 0d3f 4826 e0bf
000000d0: 5745 cdd4 1058 e83f b80b 8cab 0f66 d23f
000000e0: 099b 21fc 9abb e53f 9b63 b8da 3fff 9b3f
000000f0: 9e68 91ca e532 d3bf 35e6 1f54 3db9 d03f
00000100: 003e 8fdd 1be1 bf3f ec9a 1bcd 7be8 cd3f
00000110: b48c 0bd4 64e2 d33f 4c10 86fb 4162 e1bf
00000120: d24a e884 8dbf d1bf 10eb d201 faa5 dd3f
00000130: ee72 5c1b c5b5 ed3f 0c0d 3f3a 8e81 d63f
00000140: a4c2 6823 a5be e13f 70eb fd14 525f d93f
00000150: c869 c27e f860 d03f aeec 78e4 b031 d53f
00000160: 05e6 283a 4b92 e43f 5f90 6f45 c914 dfbf
00000170: 1dce 2c70 34a6 dcbf 70cb d8d3 df73 debf
00000180: f5d9 f54a fc2a e4bf 939c 099e 3497 c43f
00000190: 1eb9 ef6f af59 debf aa31 91f2 fc1d dc3f
000001a0: f5cb 03cd 5465 d1bf 037f 7af0 d2a6 adbf
000001b0: 72fe e95b 352c d93f 3b2a c92f 27f1 dabf
000001c0: 0faf 02e1 efc8 da3f b645 e150 8617 d73f
000001d0: 8e79 5107 21c7 e13f beb1 d821 5124 d23f
000001e0: d444 1ad3 39b7 e33f 91e1 9ba2 3109 db3f
000001f0: e35c 26c5 f635 dabf aead 67e7 d600 d2bf
00000200: 6a63 10bb e988 e5bf e037 d78b 4040 c13f
00000210: 20f4 9b38 3082 b9bf 0257 616e 2ac1 d23f
00000220: ac5a c089 c795 d33f e186 7b81 361b d3bf
00000230: db3c 72fa ccb7 d33f a1be 4534 a976 d4bf
00000240: 8af0 89bb cb0a c33f e2f1 83a9 a70b cabf
00000250: b801 3619 ae77 e73f 90f3 95fd e6a7 c53f
00000260: c078 4570 17e9 e93f e190 6ba5 683c dabf
00000270: 8ca0 10ab ac66 ccbf bd95 340e af71 d5bf
00000280: ae1a 945c 1893 b23f dc17 89e2 985a e73f
00000290: 02f5 2a92 7e97 ddbf 0715 ed38 da41 dcbf
000002a0: 0c9a cdb2 44a9 e2bf b36a cc5c 1c9f ddbf
000002b0: 3b84 9776 b3fe bfbf 272e 03fc 6a90 cfbf
000002c0: d246 49e1 6e6d cb3f 63e8 6419 1222 c43f
000002d0: 24fd 10af 8cca d8bf b254 0107 cef7 e0bf
000002e0: 59eb 2160 a334 d5bf e0f5 ba4a 75c9 ddbf
000002f0: e81e bf1a 7f81 bd3f 0886 e9dc 29c5 ccbf
00000300: 7a7d 2777 e6a7 d33f 0776 228d 589a b0bf
00000310: 0d8f 417c 3472 7bbf 1452 8989 4e39 d83f
