8_Inv_Lorenz/logs/models/2024-01-12-12-35-52_Lorenz_DNN_100X5/epoch_28000.pt (torch, 100218 bytes, 13 tensors)

alpha f8 [1]
9.923393733631924
00000000: 978f 3e10 c7d8 2340

beta f8 [1]
2.6462084395641563
00000000: 329e 9254 6f2b 0540

rho f8 [1]
15.079920055926378
00000000: 1fff 1448 eb28 2e40

rbf_layers.0.centres f8 [128, 1]
-0.2142865369087883 0.4727437445920172 0.6071968015700651 1.1174515231204036 0.0007868619365925465 -0.4902659447943319 -0.09945628846249194 -0.33979965527770273
1.0018346562362934 -0.38824480072354567 -0.7732964292907728 0.3127949900257622 -0.7174955413117189 -0.44669706141521787 0.6567464638506936 0.6198908459834223
0.8707057643845924 0.5985744376610859 -1.285348623732724 -0.529628354544803 0.6573882849159925 -0.6706505105716772 0.9405306053670792 -0.2526378532486673
0.37941232327476676 0.17343480904469397 0.424292944700811 1.3104103716118167 -0.559018876368091 0.2997135800153803 -0.307997778891467 0.9394016007610552
-1.3820870797736853 -0.7262897066626836 0.8460630108817655 1.3675649668974539 -0.03829013082332573 0.2050493478516143 -0.11980975961334023 0.2800425423188699
0.25178819984207307 0.5558353870232003 0.12057824760498563 1.7690734582611085 -0.42824992060595346 0.4138095442715096 -0.8829339503575105 -0.5362755740241474
0.663599084009712 0.22219822269499934 -0.36986329582518795 1.1504384838211685 0.21181395717221385 1.0291924018707173 1.0092108482533644 0.05915200866848357
0.010031660228748799 -0.40202680337846136 -0.3831168847714425 -0.42042375442064234 0.3055249034869525 -1.347048676878318 0.8333257967018934 -0.2549614435672452
1.6669991977029668 -0.5492451694778194 -1.6914035763233974 0.5264871775987611 -1.4411286364169384 -0.7643245229667487 -0.31705583231152024 -0.42383096699526884
-1.2856935640285985 0.7828158657348239 1.142848365800962 0.4491073447182063 -0.1877090092842165 0.5003374896265734 -0.8265080441240027 -1.3459896429174678
1.1689304752745058 -0.5815207607637438 -0.8418346425449893 0.9567746230647075 0.7342071388345509 -1.4532299296510343 0.4985042497092074 0.035170633301807114
-0.9528526481314625 -1.0103908267797126 0.27862294411056837 0.8298204069204458 -1.4329761458660235 -0.352653876862359 -1.642280690938258 1.5888180906885823
1.145627243244187 -0.9075856397701363 -0.4467101720752802 -0.5989388491015701 -0.31998353739806085 -0.18832768809951622 1.933832106926976 -0.6941042820846993
0.4184260459252256 1.1311508516734483 -1.5367200650875446 1.8758353644343304 -0.17694046424457335 0.7080266906395837 0.9784761233724057 -0.18338038917731325
0.5808719387452029 -1.4845678284663606 0.003388781190688302 0.9832537433152139 0.39312529725648837 1.5349039542384226 -1.48436296794677 -1.0644134308822335
1.2179001121867823 1.410551852726949 -0.6553378426436768 0.3298801769941716 1.402568270428257 0.9038420969471984 0.8686688344659839 -1.547578253560328
00000000: 2888 ffc1 bd6d cbbf 9652 9afa 6e41 de3f
00000010: dc55 9ffc 276e e33f 2bae 2ad9 14e1 f13f
00000020: c171 5e24 adc8 493f 15fd ce69 8460 dfbf
00000030: 34f4 53a2 f775 b9bf 1407 a70d 47bf d5bf
00000040: 6c8c c8c6 8307 f03f 53c7 7cb8 00d9 d8bf
00000050: b75b 3d27 d8be e8bf d3d9 2047 d504 d43f
00000060: 73b5 9e35 b9f5 e6bf bbd9 7f45 af96 dcbf
00000070: 7513 0029 1104 e53f 94d5 d253 25d6 e33f
00000080: 620e cf55 d2dc eb3f 053b 3f94 8527 e33f
00000090: 2440 eeb7 c990 f4bf 2fbc b929 b7f2 e0bf
000000a0: 639b 0f28 5309 e53f 0d6f 3e0f f875 e5bf
000000b0: ba09 dea3 d318 ee3f b0d1 5bf5 372b d0bf
000000c0: 3787 0aa0 4a48 d83f 27e0 6aa0 1c33 c63f
000000d0: 1c77 5a98 9d27 db3f 6397 a6dd 70f7 f43f
000000e0: b01f fb8d 7be3 e1bf 2052 15de 812e d33f
000000f0: 5d16 e550 3cb6 d3bf 5f85 22f2 930f ee3f
00000100: 4aa2 7d57 071d f6bf 8134 31e9 c33d e7bf
00000110: 8ef5 42bc f212 eb3f 9ead 7fcd 8be1 f53f
00000120: 2a9f 4a97 c39a a3bf 2b5e 8b99 0e3f ca3f
00000130: 3cea 4737 daab bebf 33e3 2f8e 37ec d13f
00000140: 61c9 f540 4c1d d03f 392c 274b 67c9 e13f
00000150: 0b89 124e 37de be3f d33f 77f8 1f4e fc3f
00000160: 4219 e15a 7268 dbbf 96cd da06 db7b da3f
00000170: f908 2ab3 fe40 ecbf 9279 8264 2b29 e1bf
00000180: cb45 6f25 343c e53f 0c28 dac9 fd70 cc3f
00000190: 50d6 e319 d7ab d7bf dd25 012f 3268 f23f
000001a0: 640c 7241 b81c cb3f 0439 b573 9277 f03f
000001b0: 1244 4046 ba25 f03f df9b 720d 2c49 ae3f
000001c0: 4242 dba4 7a8b 843f f90e 28a1 ceba d9bf
000001d0: 37e1 a8ae fc84 d8bf 37af ec08 39e8 dabf
000001e0: d8c2 2553 b88d d33f c9ff d4e9 828d f5bf
000001f0: caed 77dc 9aaa ea3f 652f 77cd 4951 d0bf
00000200: cd7a c959 07ac fa3f 3195 0c9b 6a93 e1bf
00000210: c957 4a32 fd0f fbbf c999 31a3 fbd8 e03f
00000220: 53d6 abe6 dc0e f7bf 1b89 b5b3 5875 e8bf
00000230: b42d b28b a44a d4bf 07b6 91eb 0b20 dbbf
00000240: 61e3 226a 3392 f4bf 32df c3db d30c e93f
00000250: 516f 365e 1b49 f23f 6b51 7dbb 2cbe dc3f
00000260: 9327 054c d906 c8bf 7b15 5dc4 c302 e03f
00000270: b097 6cff c072 eabf 275d 916f 2c89 f5bf
00000280: b9a0 2971 f0b3 f23f 389c 2d6d d19b e2bf
00000290: c9db 4b34 4ff0 eabf a794 76d0 e59d ee3f
000002a0: 9317 39f8 9f7e e73f 92b6 d606 6e40 f7bf
000002b0: 8dc1 5a5e 7ee7 df3f 5c2a 9f9f e201 a23f
000002c0: 4a36 34d6 c47d eebf 0128 5392 8f2a f0bf
000002d0: 29b0 3754 f5d4 d13f f2da a886 e38d ea3f
000002e0: 4915 2765 78ed f6bf c39c fb90 e191 d6bf
000002f0: e3e9 261e c846 fabf 5acf ac84 cc6b f93f
00000300: 293f 723b 7d54 f23f 1e39 240a f10a edbf
00000310: a8a5 f642 e696 dcbf 723e 26ce 812a e3bf
00000320: 2084 183b 9c7a d4bf 82cb a826 1f1b c8bf
00000330: 564c 73ef f9f0 fe3f ab27 f22e 1a36 e6bf
00000340: b0c7 c209 7ec7 da3f e97a aca2 3119 f23f
00000350: 2687 6ac7 6796 f8bf a1cf 6ef1 6b03 fe3f
00000360: f97e a231 fca5 c6bf 75bf 1f97 27a8 e63f
00000370: 9ca4 b928 ad4f ef3f a445 1f33 0279 c7bf
00000380: 7364 82bf 8096 e23f e04e ff31 cac0 f7bf
00000390: f7cf 640c cac2 6b3f 65ab e68d d076 ef3f
000003a0: f299 bc01 f728 d93f 1d48 df72 f78e f83f
000003b0: 1599 2b62 f3bf f7bf 62ff b060 d607 f1bf
000003c0: fe30 fad3 847c f33f 2a64 ccd1 9e91 f63f
000003d0: 8f8b 3f11 87f8 e4bf 6279 f2be c11c d53f
000003e0: ab58 3e6d eb70 f63f 655c e442 46ec ec3f
000003f0: 30bf 6295 22cc eb3f b0ad 306a e1c2 f8bf

rbf_layers.0.log_sigmas f8 [128]
-0.46959743643879037 -0.5766091472021283 -0.5265825487102059 -0.3598560190080848 -0.4951712828535127 -0.19364018477381484 -0.38760114249344096 -0.2075101142049403
-0.2890803732058813 -0.28845284483853795 -0.07337324065235704 -0.6766555442518957 -0.03919886228585128 -0.15590305486590506 -0.41777555114112047 -0.49134333692312754
-0.3747247566737902 -0.4710127534240122 0.2638965032751991 -0.14886668248992269 -0.5926108095494063 -0.029006747407615836 -0.2570414867082823 -0.23618309465389595
-0.6673113905621314 -0.5843491935365224 -0.45247687332624775 -0.2601400901683103 -0.16177002394775206 -0.30450254003336213 -0.3491580397739848 -0.2675620039155314
0.30986187973828716 -0.0024317625153565197 -0.26471377640835647 -0.02164909735873596 -0.4402317998674119 -0.29715007295483253 -0.26112896598832624 -0.76647335428106
-0.25289553540997994 -0.5528910172116525 -0.6355446685377767 0.1851010224022464 -0.19943023136248975 -0.5986153803734996 0.06673397547362211 -0.21310947702025718
-0.49928171110503405 -0.8205122822155148 -0.2192551392911957 -0.09254010047058678 -0.8314400070248006 -0.32473732287503115 -0.5169133988737303 -0.5362642518805932
-0.3122352241019546 -0.21621902780665092 -0.15164072941152346 -0.1346463247171873 -0.5504013864080145 0.2705572686382841 -0.4242399126372556 -0.1585298126886903
0.18038500538113542 -0.10094726091797698 0.6021101772628888 -0.5402607533527805 0.33469842476616585 -0.016486116181457913 -0.2166265837028235 -0.1941935777153057
0.25682226601447705 -0.47900246239479993 -0.3021478034697741 -0.5292090725520607 -0.25750065065188205 -0.4880653536205976 0.008318764770012572 0.2614750037556837
-0.28561078599800377 -0.10812507709418391 0.030077173780643802 -0.2903764252866338 -0.4669231561718179 0.3646873874633665 -0.5854438898945478 -0.5588624121115163
0.12783729809277575 0.10928983706943814 -0.36407770359284547 -0.3882703724850367 0.3716544646214454 -0.17430000035664314 0.5210790592872651 0.07037214349842079
-0.13873024484260207 0.03241538805077311 -0.10953979105562632 -0.045805552190850085 -0.23366370018788443 -0.32930089538977647 0.42106610472240824 -0.11217088286230281
-0.4280858301400226 -0.32854880691973487 0.6414110148770519 0.34004712898526535 -0.2392451686946238 -0.36087424517442285 -0.3310044320036764 -0.29202157742530405
-0.4367371226794833 0.472064919267496 -0.370466274225245 -0.2869061556707116 -0.6291755307041784 -0.01688532334380861 0.3306035567081723 0.1400349677747712
-0.2810044046100853 -0.1517082726617352 -0.05909367198032616 -0.5957166272853583 -0.12710752020560978 -0.26318177824720407 -0.3932323747375821 0.502629116850916
00000000: 1290 f267 e20d debf c9d7 b906 9573 e2bf
00000010: 6359 2ba5 c3d9 e0bf 8324 3a8a e107 d7bf
00000020: 898c 71e4 e2b0 dfbf 54c0 659a 33c9 c8bf
00000030: 3db3 b905 75ce d8bf 92ba 0c01 b18f cabf
00000040: 4c6c 35f7 4a80 d2bf 7c42 c1eb 0276 d2bf
00000050: 8edf 00b5 96c8 b2bf d301 2787 29a7 e5bf
00000060: 67c4 1d8f df11 a4bf 606e ff9c a1f4 c3bf
00000070: 170c 4eaa d5bc dabf 554f cc52 2b72 dfbf
00000080: 5597 ba8b 7dfb d7bf 731f fdac 1225 debf
00000090: 8e20 c628 aee3 d03f ce0d 613e 100e c3bf
000000a0: 44aa c8f1 aaf6 e2bf 328a eadd f1b3 9dbf
000000b0: 8a25 c822 5e73 d0bf 030a b465 3f3b cebf
000000c0: edcd d66a 9d5a e5bf e8dd 7514 fdb2 e2bf
000000d0: 027c 488f 61f5 dcbf 46b0 e99e 22a6 d0bf
000000e0: e313 2a51 e1b4 c4bf 8d80 bf38 f87c d3bf
000000f0: 2bbe 7df6 9a58 d6bf 2a0b 1e62 bc1f d1bf
00000100: 9e31 f0eb c6d4 d33f 53fa 338f c6eb 63bf
00000110: fc5e 1e0d 12f1 d0bf b723 9354 2e2b 96bf
00000120: 7cbe c5ff c12c dcbf ce14 56bd 8104 d3bf
00000130: 7452 3d44 56b6 d0bf f88f bc20 f386 e8bf
00000140: 3ffa 78c1 702f d0bf 99a3 a580 48b1 e1bf
00000150: 898a d0c5 6156 e4bf 763f d6ea 63b1 c73f
00000160: c58e c408 ee86 c9bf e9c6 3271 db27 e3bf
00000170: 46f7 3052 7a15 b13f 7c84 22dd 2b47 cbbf
00000180: 7cf8 2b47 3bf4 dfbf 679f 42f9 a241 eabf
00000190: 7928 5e6a 8d10 ccbf 2ef8 1641 b5b0 b7bf
000001a0: ad3d d812 289b eabf 8b7c 620d 7fc8 d4bf
000001b0: 29dc e0f7 8d8a e0bf ebe9 faa5 1329 e1bf
000001c0: 0856 0b73 a9fb d3bf e0ea 99aa 10ad cbbf
000001d0: ba33 c8a2 f668 c3bf dcec 973c 173c c1bf
000001e0: 9574 495e e39c e1bf eec6 1f6f cf50 d13f
000001f0: 90d5 9b29 bf26 dbbf e12e 7874 b44a c4bf
00000200: 537f 6619 db16 c73f 1674 4300 aed7 b9bf
00000210: 13da fd8f 7c44 e33f ebcc 5eeb d049 e1bf
00000220: 722d 19f1 b26b d53f 2484 5987 bce1 90bf
00000230: 9c52 397e 6bba cbbf 52b3 b0cc 55db c8bf
00000240: b5ac 5aa8 c66f d03f cc1a acf1 f9a7 debf
00000250: a27f 9dbd 6356 d3bf 6571 6bdd 47ef e0bf
00000260: 51e8 4f02 e47a d0bf f31c 0777 763c dfbf
00000270: b7e5 0ab5 6d09 813f 7189 76a7 01bc d03f
00000280: 11c3 4f76 7247 d2bf 4d3b ffc5 15ae bbbf
00000290: 45d4 f9f6 8ccc 9e3f b3ab 8800 8795 d2bf
000002a0: 1c32 60a9 11e2 ddbf 44ce 9ac4 0957 d73f
000002b0: f6ae 17d3 f4bb e2bf c371 df6c 33e2 e1bf
000002c0: 9f3c 42fb f85c c03f 7d97 ff33 6bfa bb3f
000002d0: 5394 8891 0c4d d7bf dc0d f5f9 6bd9 d8bf
000002e0: 2b89 bdce 2fc9 d73f bbbe 9c60 764f c6bf
000002f0: af9d c8fd adac e03f ef08 e0a6 e803 b23f
00000300: 8353 48a4 e9c1 c1bf 7a64 21ef bf98 a03f
00000310: 8bd0 31bc cc0a bcbf 8814 4549 d373 a7bf
00000320: 3ddf 482f b1e8 cdbf e086 0f10 4413 d5bf
00000330: a028 4f3f bff2 da3f 6800 7521 3bb7 bcbf
00000340: 2d46 151c c265 dbbf 8c0b 3793 f106 d5bf
00000350: 8d1d 8664 7086 e43f 40c9 8508 55c3 d53f
00000360: 1a7c a2ef 959f cebf 8f8a 3f4a 9018 d7bf
00000370: af5b 9236 2d2f d5bf 1f27 3145 7bb0 d2bf
00000380: 9ee1 b642 80f3 dbbf 09f0 75c7 4f36 de3f
00000390: 9560 042d b8b5 d7bf 591d e8a2 ab5c d2bf
000003a0: 282c fab8 3422 e4bf b319 2dde 624a 91bf
000003b0: 362f 00d2 9b28 d53f 98cc 7173 aaec c13f
000003c0: e143 f5e5 f9fb d1bf e2b1 ce3a 2d6b c3bf
000003d0: e7b2 1c99 8641 aebf 19f8 fb50 1c10 e3bf
000003e0: a0eb 2d29 0f45 c0bf 3364 9e62 f8d7 d0bf
000003f0: 387c 4e1f b82a d9bf a68b 5ca8 8915 e03f

linear_layers.0.layer.weight f8 [50, 128]
-0.05585807892350599 0.10508882538581413 0.15353022170705283 0.05157479531162476 0.05290623779961778 -0.031123062055534605 -0.007212275929495429 -0.054781626521680955
0.00677976629071165 -0.021992687073819756 -0.1815079673466557 0.1162224701755069 -0.20654904519030368 -0.0686047385409274 0.06067193555213318 0.08400179502575761
0.10575423669448274 0.165510289013897 -0.152132752236007 -0.06641727260999411 0.07800220379196646 -0.1878117414698673 0.1264977972425603 -0.0025544205404694825
0.09369695110522114 0.08881286186498566 0.08709233245662418 0.08802407624192787 -0.04888007541800325 0.08534465794333675 0.028811423195496528 -0.003698324147629814
-0.2824967626008681 -0.20856366946806934 0.007447861382555058 0.105873039461232 0.07393908528313746 0.0735230879871423 -0.02232124157441819 -0.007237274720483362
0.1072357913108643 0.03627208732651375 -0.025150475356507315 0.12771462373796275 -0.0371854477427264 0.09944925009352977 -0.1438789994115325 -0.18370393387979175
0.13517669848227695 0.04865558127429878 -0.14990068359877565 0.05569786377743288 0.01831286413079601 0.008273168437770158 0.07534994083782817 -0.010639871524109806
-0.052806696414865545 -0.039549756544238056 0.022011660335597937 -0.056522346949322615 0.1387926179313866 -0.24418846520517756 0.08653934008492316 -0.02599313358759544
0.045060461895851375 -0.10068099071410685 -0.41072600157472333 -0.0009169743288699704 -0.20704369439281659 -0.2170832595564088 -0.07633327440529292 -0.052873827539732784
-0.28493744495803197 0.134666624991515 0.0838678324398385 0.10022533783601788 -0.02898155870390788 0.1205828382205553 -0.23025672941560157 -0.29937141258452665
0.11578131619270612 -0.20417733812002634 -0.2461398489949305 0.0348665660977435 0.16838190072830742 -0.19250923681616608 0.1472081593040023 0.04436307867151622
-0.09772406571617265 -0.2394801188013052 0.10868500762800873 0.14585047935897028 -0.21419151161214917 -0.04985262282032113 -0.40801150137346115 0.0803861446756909
0.06022644674102098 -0.16557455008061128 -0.02262362391570107 -0.04831641715910127 -0.05380258096197253 -0.05013783330232597 0.16174858161423508 -0.06803065279248954
0.08759612828340523 0.1634084658958726 -0.04020483042525326 0.08516071290943991 0.030660925352346872 0.014730939177214483 0.09094553188294202 -0.08821315172680043
0.07643665141891352 -0.18366049959712705 -0.009558219311270365 0.02745495582368441 -0.011953328430941913 0.10993536002830272 -0.2279881760892246 -0.18636878105270963
0.07419620998050153 0.02755035252105335 -0.16475205706056997 0.14209722844160105 0.09908010626479939 0.02239198227756021 0.02463325188730932 -0.30726735240920705
0.10353279444956472 0.07462665843350265 0.05039324476293119 0.02464360395698032 0.08390561766399535 0.08770171312362131 0.0991791545212152 0.1536934627176776
-0.07487623820129738 0.12433771695144316 0.2190795438065379 0.1274022726789356 0.20398055150774755 0.10248006444876166 0.13846845024820592 0.04226949347924267
0.0069723538886728885 0.10810528126809223 0.23211996354436124 0.09056841381378095 0.12925463755484703 0.16627795567140438 0.08619749013481857 0.17795850344366104
0.21129225551011097 0.17658183276362743 0.20699644630143277 -0.2802622127405153 0.09814649166897048 0.1457221888292051 0.11783699193196695 -0.035424460786400144
0.30841928835505694 0.13374519644516536 0.052922963049430276 -0.19737670204501215 0.12092838859313217 0.1386196469848984 0.13897567718968049 0.2088579106809657
0.11125489651972494 0.1673559497463898 0.06940746018485378 -0.5243700074954731 0.11307416450019847 0.20367518354056582 0.12056721083892973 0.04492111342836672
0.15081141488388564 0.2178079799957567 0.09365766308537374 -0.17582718579970263 0.2586584188173248 0.04391285459259673 -0.031634724473180185 0.10624878265012484
0.17735764395257775 0.17743134989411324 0.18930535661118378 0.18448614681203593 0.0823532649708625 0.2760833669194529 0.10764754587633366 0.10194010439013222
-0.5798938608053031 0.14221164185262883 1.2121716202399864 0.06786391739328103 0.2800804272173442 0.06281563155829611 0.19796095093880237 0.09121025459523442
0.180620173905921 0.14352318348851115 -0.08265443122847933 0.17730770480684224 0.11043671973183208 0.08942295833039693 0.12491301504867702 0.26055656008593375
-0.09008326491441437 0.1297612059576222 0.05852230320569548 0.009313394334527755 0.02967846499705137 0.37855300683531834 0.22513784176237894 0.07969727587451722
0.15441975999199561 0.11341453430959043 0.12911565818581844 -0.0010514519139316668 0.30977875968322854 0.20801529496166987 0.8407795615848335 -0.49750374832057426
-0.08099581450068973 0.2191919272306851 0.07531833982678555 0.0409607028152089 0.19673315749886947 0.15528657067369717 -0.56613107425278 0.0695524358758532
0.1815737376686314 -0.03434984464050583 1.330799250435808 -0.5008734972339302 0.2062814385475498 0.1590979480910746 -0.0669908933382602 0.12008380900291503
0.11244499451979426 0.7032802653357888 0.20729188514301267 -0.006061051650784913 0.13515093444683549 -0.433777317789646 0.2622100674535813 0.10094529045735808
-0.17924196201798673 -0.48466395182049316 0.057055782523146054 0.12167491665211522 -0.36904399890930323 -0.013533308824064482 -0.02925645295741296 0.7557062506030245
00000000: ab3f 631c 6e99 acbf 3a06 35ec 19e7 ba3f
00000010: 46f7 96d8 e0a6 c33f dc98 52f6 0268 aa3f
00000020: af1f 35c2 8616 ab3f 9e37 b856 b9de 9fbf
00000030: d058 f393 9e8a 7dbf 0124 aa5c 560c acbf
00000040: 09dc e3a7 19c5 7b3f a5d0 ee3e 4085 96bf
00000050: 36d1 db2f a73b c7bf b7d1 767c c1c0 bd3f
00000060: 7b62 0ef9 3270 cabf 2f48 6284 1490 b1bf
00000070: 387e f655 6410 af3f 6ce0 7042 2481 b53f
00000080: bb28 04ac b512 bb3f 4dac 3bef 702f c53f
00000090: 0987 c005 1679 c3bf 62db bfed b800 b1bf
000000a0: 9a6b 4dd2 f3f7 b33f 527d b513 370a c8bf
000000b0: 791f 166f 1431 c03f ce3b cf15 02ed 64bf
000000c0: 9859 bbfc 85fc b73f 8c9d 2c91 70bc b63f
000000d0: 0031 a2df ae4b b63f a83d b8f0 be88 b63f
000000e0: 2653 b12a cf06 a9bf 9d43 c1c2 25d9 b53f
000000f0: f5e4 80e1 bd80 9d3f e051 73a8 f24b 6ebf
00000100: c42e 264d 6d14 d2bf e3e2 bfdd 36b2 cabf
00000110: 11ee 0211 a681 7e3f a49c 03da 7e1a bb3f
00000120: 53ee 2f01 aced b23f 64dc 67ba 68d2 b23f
00000130: 25e1 452a 61db 96bf c84a c923 d5a4 7dbf
00000140: 4c0e a408 ce73 bb3f ad6a a649 4192 a23f
00000150: 4c4b 8ad4 0bc1 99bf a176 16ea f358 c03f
00000160: 755e e293 f809 a3bf 7f70 c38c 8175 b93f
00000170: cde0 8686 a06a c2bf 2383 144a 9c83 c7bf
00000180: 23d1 9455 784d c13f 5c95 ae64 62e9 a83f
00000190: 6536 da12 f22f c3bf 6c24 c32e 6e84 ac3f
000001a0: dcc4 2682 9bc0 923f 8405 ffde 85f1 803f
000001b0: fe6c a73b 224a b33f 7069 d661 5bca 85bf
000001c0: ec29 39b4 7a09 abbf 0b33 d89d dd3f a4bf
000001d0: 3395 1685 398a 963f 67f0 473f 7ff0 acbf
000001e0: 0384 78dd f4c3 c13f 18ef 0e50 9141 cfbf
000001f0: 496f 7b33 7127 b63f 9695 b7aa f19d 9abf
00000200: 56e4 5e34 2a12 a73f 002b 72ba 3ac6 b9bf
00000210: 8756 18b6 5549 dabf e078 7b60 230c 4ebf
00000220: 1d4d 2164 6880 cabf bbe4 265e 62c9 cbbf
00000230: f0d5 2ad5 938a b3bf 0eeb 3140 4712 abbf
00000240: f808 e043 6a3c d2bf aac2 1987 c13c c13f
00000250: bef8 83bd 5c78 b53f c37a 3c24 5ea8 b93f
00000260: ec13 487b 57ad 9dbf 9abb 9d52 84de be3f
00000270: 2310 4371 0d79 cdbf 751a 9ab6 e628 d3bf
00000280: 0e17 8926 d8a3 bd3f 13a9 e7a6 7b22 cabf
00000290: 397a d6b4 8281 cfbf cd2d 3ad2 07da a13f
000002a0: 29e6 6ec2 898d c53f 41d4 2686 24a4 c8bf
000002b0: 4b20 f58a b7d7 c23f 0e8c 16e8 c1b6 a63f
000002c0: 507a 48c2 7104 b9bf 429b 25d7 48a7 cebf
000002d0: 3aeb 53d9 c7d2 bb3f 16f2 797f 3aab c23f
000002e0: f23c baa0 a06a cbbf 0426 4471 4886 a9bf
000002f0: b19d b245 dc1c dabf 8501 6fb6 2f94 b43f
00000300: e3c4 3636 00d6 ae3f b4b4 d2fe 8b31 c5bf
00000310: 65fa 56b3 a52a 97bf bdd0 1def edbc a8bf
00000320: ce18 580b 038c abbf e9cd a684 aaab a9bf
00000330: 3b90 1a72 2db4 c43f b888 def4 746a b1bf
00000340: 1fc3 3b2a b36c b63f 62c6 7490 91ea c43f
00000350: 12a8 a23f ba95 a4bf 769f d9ac 17cd b53f
00000360: fe1b 9dde 9365 9f3f 4b44 0b30 412b 8e3f
00000370: 5491 27d5 3448 b73f b762 be19 2395 b6bf
00000380: 375b 0f36 5a91 b33f 6418 abef 2f82 c7bf
00000390: 5999 cc7a 4293 83bf a2de 80e5 261d 9c3f
000003a0: 9491 8395 fc7a 88bf 17dc fe47 b924 bc3f
000003b0: b7c5 1670 b72e cdbf 65f2 cea5 eeda c7bf
000003c0: 9c78 5ad7 85fe b23f 6be7 48dc 2836 9c3f
000003d0: 4d0e 836c 9816 c5bf 3624 81f2 3d30 c23f
000003e0: bb6d 1758 505d b93f ba86 4c7e eced 963f
000003f0: 7520 008d 7539 993f 9f77 6eaf 44aa d3bf
00000400: 5d70 390e 2081 ba3f 3db4 6191 bb1a b33f
00000410: e368 64b4 24cd a93f aa06 3444 2c3c 993f
00000420: 4c4a d1ab d67a b53f f14b ab95 9e73 b63f
00000430: 9a11 1d19 ce63 b93f 309f fd35 3aac c33f
00000440: b673 52d2 162b b3bf 9a3b f7bb 98d4 bf3f
00000450: 3393 ef69 cc0a cc3f 06ca 4bb9 b74e c03f
00000460: 0177 dfe2 081c ca3f b7a5 4c2d 223c ba3f
00000470: 3203 ac8c 55b9 c13f 1d42 39d8 58a4 a53f
00000480: 730a d9fe 0a8f 7c3f 2d43 92a7 c9ac bb3f
00000490: b3fb 1562 1bb6 cd3f 0c7b 61d7 7d2f b73f
000004a0: 6dc3 937c 6a8b c03f 05c4 d396 9848 c53f
000004b0: 0f57 20e9 0911 b63f d8f5 2a20 58c7 c63f
000004c0: 3b31 a8e7 9f0b cb3f 7ecd 64c6 3b9a c63f
000004d0: 2c5e a00b dc7e ca3f 5e9b 81eb d0ef d1bf
000004e0: 0f74 efe3 2020 b93f 2957 a951 06a7 c23f
000004f0: 2858 9baa 902a be3f 0eaf 1ca9 2723 a2bf
00000500: 3032 3c41 24bd d33f 8452 5d06 901e c13f
00000510: 976a 02f7 b718 ab3f f148 23c8 a343 c9bf
00000520: 095d 2ab2 29f5 be3f d10c 31e1 49be c13f
00000530: 7b0c 3c7a f4c9 c13f 8c5c f123 dbbb ca3f
00000540: 0574 126e 337b bc3f 64d3 7975 eb6b c53f
00000550: 80a5 97f3 afc4 b13f 5a48 269c a3c7 e0bf
00000560: 4006 8dae 6df2 bc3f ad21 2846 0712 ca3f
00000570: 7fec 8523 7edd be3f 8544 2672 e6ff a63f
00000580: 6517 65d7 c94d c33f 53de 71c3 21e1 cb3f
00000590: 0ab2 f8d7 f2f9 b73f bef3 6056 8181 c6bf
000005a0: 67f3 690a dc8d d03f 2dcb b2e4 be7b a63f
000005b0: d380 0f36 6d32 a0bf 71db b8c6 1e33 bb3f
000005c0: 5268 3cc0 a7b3 c63f e448 8a0a 12b6 c63f
000005d0: b123 cd6d 283b c83f 3db6 8ff7 3d9d c73f
000005e0: 01c8 c483 1a15 b53f 20df f891 59ab d13f
000005f0: 4a94 0821 ca8e bb3f 4fa6 8126 bf18 ba3f
00000600: 23eb e991 7d8e e2bf 6d0a 6fb7 fd33 c23f
00000610: 051f a111 0e65 f33f a957 c899 875f b13f
00000620: 237c c974 d6ec d13f 8c70 386b af14 b03f
00000630: 5b67 15d1 c856 c93f 9dde 8b24 8e59 b73f
00000640: e03d f6d5 8f1e c73f f185 a6b9 f75e c23f
00000650: bdec fe3e d728 b5bf e5b2 bcd4 04b2 c63f
00000660: ae96 86b3 9445 bc3f 7066 8a49 6ce4 b63f
00000670: 3094 7aa2 4cfa bf3f 36f3 146c f5ac d03f
00000680: a46c b964 b20f b7bf 2c52 f0e3 039c c03f
00000690: 2bca b5a4 a2f6 ad3f d802 a7a0 e612 833f
000006a0: 3734 3b12 0864 9e3f 0240 0a64 363a d83f
000006b0: 7c10 bb19 51d1 cc3f 761a 7669 0a67 b43f
000006c0: 07ca 82d5 06c4 c33f dd31 c023 bc08 bd3f
000006d0: 22a1 a7a4 dc86 c03f 9992 5ae5 1b3a 51bf
000006e0: 2a6f 754a 6ad3 d33f 22ce 76c4 3ea0 ca3f
000006f0: d2dd 048a aae7 ea3f 6d27 2bf6 19d7 dfbf
00000700: 41b2 6446 24bc b4bf 7262 8027 7b0e cc3f
00000710: bd55 580e 1048 b33f 0e66 061e cdf8 a43f
00000720: 0d8c bf56 8d2e c93f 4698 462b 6ee0 c33f
00000730: fd47 25ea be1d e2bf 2da5 713d 30ce b13f
00000740: 65b4 8ce8 ce3d c73f 1012 b586 4d96 a1bf
00000750: 189c a227 f44a f53f 2ab1 41db 2707 e0bf
00000760: 19b2 2a20 6e67 ca3f 31b8 f451 525d c43f
00000770: d484 04b0 5026 b1bf 5f56 7200 d0bd be3f
00000780: eeb8 0ff6 31c9 bc3f e442 719d 4581 e63f
00000790: bc2c b55d 8a88 ca3f 446c e929 79d3 78bf
000007a0: 358b bc35 a04c c13f dccc 69f0 01c3 dbbf
000007b0: 1549 19bc 0cc8 d03f 4517 33f1 8cd7 b93f
000007c0: 8d14 788e 66f1 c6bf f49f a7f3 bb04 dfbf
000007d0: 941d f85f 6a36 ad3f 24ad c35b 1626 bf3f
000007e0: df6e 86b8 6a9e d7bf 53bd 72f6 59b7 8bbf
000007f0: dda0 9852 67f5 9dbf f020 f7df be2e e83f

linear_layers.0.layer.bias f8 [50]
0.1250669749382328 -0.048049432568506086 0.01739725485374549 -0.05058018196332376 0.06133193884362665 0.07010912471148852 -0.04700376573013866 0.05409532962849568
-0.08908592589217638 -0.04511948615493682 0.04704769842957633 0.012894906910871693 -0.07271072954321227 0.04117775151158618 0.0608844250489942 0.09678192204256258
-0.08451547314921151 0.04326351509821832 -0.04321524665241907 0.0637828375335173 -0.06984257740607076 -0.03986205000889062 0.026739501922392703 -0.0991629845030859
0.09641209959586852 -0.10575771167951395 -0.05014182754553584 -0.030951599084646356 -0.013594638510737238 -0.0037240298004471884 -0.00757821292776794 -0.006949929054162916
-0.034189450210635804 -0.06319671796660886 -0.015183196396792803 -0.07077379765714112 0.03152792175854358 -0.02365647730254205 0.019813118392017458 0.029579723334640422
0.03717918390136189 0.05337618975655747 0.01957712783043805 -0.09598850761484486 0.03903090622916116 -0.08364180583517271 0.032240887615171 -0.0061895888214261105
-0.1426099492392615 -0.0491568758624861
00000000: a3ad 95d3 3102 c03f f938 f26a ef99 a8bf
00000010: 6f4d 8c02 96d0 913f 9966 b746 a5e5 a9bf
00000020: 613a 115f e666 af3f b57a c9ed abf2 b13f
00000030: d217 33a9 e010 a8bf 29d0 3d0f 62b2 ab3f
00000040: 93a3 3dd2 55ce b6bf 3743 e5ba e619 a7bf
00000050: eed5 36cc a216 a83f 7fbd bc1b a568 8a3f
00000060: 7bd6 749d 2b9d b2bf cd51 2110 4015 a53f
00000070: a5a6 d74c 3e2c af3f d44e 0436 b3c6 b83f
00000080: 628c 2e59 cea2 b5bf 3be8 e9ac a226 a63f
00000090: d315 1f0e 4f20 a6bf 56a6 4071 1254 b03f
000000a0: f5d1 d301 34e1 b1bf fc86 4772 cc68 a4bf
000000b0: 1c70 1299 9961 9b3f 3f1d 6acf be62 b9bf
000000c0: 8af4 b39e 76ae b83f 769b f6f8 ef12 bbbf
000000d0: dc82 f08a 30ac a9bf 9451 4fa7 c6b1 9fbf
000000e0: 69bc 6f7e 81d7 8bbf 29d5 7846 db81 6ebf
000000f0: f87d fd0a 550a 7fbf 7e53 f45f 8777 7cbf
00000100: b1b9 0b95 4781 a1bf 2091 e1fc a82d b0bf
00000110: 90a4 c81f 5e18 8fbf 7ae4 594a 3b1e b2bf
00000120: e142 ba81 6d24 a03f be74 6951 6739 98bf
00000130: 561a 1ade e349 943f 3e56 63a1 254a 9e3f
00000140: 128a e565 2609 a33f 236d c7ba 1f54 ab3f
00000150: 5818 20cf 060c 943f 1563 ffec b392 b8bf
00000160: df31 93e3 dbfb a33f 73f4 a3a4 8c69 b5bf
00000170: 4566 cdab e081 a03f 38f7 0419 415a 79bf
00000180: 7c8e 08f6 0a41 c2bf c4e3 670c 172b a9bf

linear_layers.1.layer.weight f8 [50, 50]
-0.1858567094482015 -0.741013993621447 -0.4487070200464418 0.5479797301540661 0.9140269439192705 -0.36405080579031984 0.7556822819290056 0.0313577586247092
-0.015301625422805639 0.8594083362959423 0.04322483431011164 0.12041528159877966 0.1561699685624299 0.07197027965814208 0.15038922522277018 0.041731043277807474
0.11497060967594173 -0.13577064294124777 0.08321450940317189 -0.08277010982322335 0.16195638510633137 -0.10257211631577305 -0.014685378356582015 0.025031520009831467
-0.20274831671468052 0.05684725479566672 0.4061275301493336 -0.6609144359847698 -0.3531926039114718 0.07886522894227493 -0.10380351999334199 0.07043510305218088
0.1613361291406219 0.4725653740766392 0.05018985502648237 -0.2869760002836855 -0.4819483398035296 -0.31182041905418145 -0.024236820569994464 -0.07857826177775046
-0.035562919043988256 0.1929204116806568 0.2958299109920517 0.0441642292489426 0.2148018317595794 -0.0660652499795806 0.3057914759555031 -0.12283912231538117
0.0331925228659167 0.08745929817796443 0.1251290572851181 0.11060100046926366 0.11939789334499892 -0.044663454548671426 -0.021071168399992457 0.12644342500818545
-0.15702220544548773 0.0911567798079317 -0.21404527991713043 -0.22551274233530952 0.013886113350708145 0.0330217591371395 -0.15308978564768624 -0.15113243805496537
0.06760890512610757 0.08509927661145975 -0.21468016681046626 0.17609389163934677 -0.023238546061543467 0.19467649817164062 -0.08114947540447295 -0.06845067691155815
0.14582293181238015 0.06079904961913399 0.16996440682661024 -0.0564155462244294 -0.00898236779557022 0.032489339879048375 0.12615673154681128 -0.14318959697035075
0.1382451154415513 0.10498327156789058 -0.07720901787066288 -0.051608354786279904 -0.07019604631281093 0.04668573220145129 0.06420725423929144 0.06734726061080908
0.032424549787539565 0.036728525891796864 0.1826312727755875 -0.17162852722091007 0.01398395389408228 -0.08962774008128725 -0.09245857715708919 -0.06896026791202722
-0.038625455024193386 0.08960949724376881 -0.2732644944800576 -0.05937543121015795 0.17879753537242135 0.017804773237676166 -0.110566660061873 0.06499538402294996
0.07127113349178132 0.08215581982065863 0.16140166984033896 0.19976621945892267 -0.027938665644492933 0.06002737686727593 0.2553442167650819 -0.0966517933490281
-0.0048731616961065535 -0.1327449996820885 -0.19924627897267744 -0.012161452747449493 -0.02902954931064157 -0.04333524956731339 0.12099946242835953 0.28392157474888974
-0.31732132376011724 -0.17323816906322728 -0.001382344486889885 -0.18959735285130722 0.05224842169182207 -0.09171022174664097 -0.004077419543984305 -0.03937179976560059
-0.0351148077299996 0.026108552773334105 0.04073658659264818 0.44264605031803156 -0.13898619867954887 -0.021699861824879978 0.2379623967992297 -0.06840600019517278
-0.13444926910365174 0.019184480467824092 -0.1779731857808351 -0.05781158793325418 0.31877380032113967 0.0897446344463936 -0.0691300657653155 -0.4070540016992792
-0.3182925260479698 -0.2056279077444076 -0.07275307795986617 0.12558685122482446 -0.15906617223880679 -0.24963669703065777 0.18338761833704872 0.6145677060303285
0.21933493615210933 -0.049681245320451345 -0.8352834304687163 -0.02165024434755332 -0.43138268339757024 -0.011613994825552105 -0.2217216518700945 -0.6376602710954316
0.07408874115306599 -0.10009197952063538 -0.16734232212180236 -0.05224491351999088 -0.21897933681096093 0.01802745406534866 -0.18488847688847512 0.26834132443991987
0.03690655309002397 0.22719286293959304 -0.037342607770813226 0.321860681663173 0.05778485214929147 -0.2036593820471633 0.2909531974068735 -0.33159927256932253
-0.11324480826194429 0.32940213913434135 0.24409102779518396 -0.31416260363122717 0.036663061136288276 0.051308480758082003 -0.057053151922318204 -0.08096284206763224
-0.0011929573794389563 0.07712939428857085 0.4970015882035342 0.5290905423002744 -0.09848884423757855 0.24574261919008158 0.19878385697184547 -0.1433591042538176
-0.19502720368790233 -0.012016822274442127 -0.07900752458083475 -0.19546643497307806 -0.3726912634885963 0.09829328949596008 -0.032180027036622566 -0.17378879600905411
0.22895102755950783 -0.12287355881468594 0.025958096833101206 0.0687289132868989 0.13898485038423639 0.03770579918588392 0.17539886058742873 0.17191268623550493
-0.07658654148386843 0.11055868167164842 0.28467155191159704 -0.12903070354235194 0.02290862790158966 -0.4573156703630062 -0.16134898086165705 0.366333568939596
-0.06007383197916466 -0.08420124719268722 0.1447387992413807 0.1401191585542557 -0.4684900936691283 -0.03572676369092329 -0.07565110110330198 -0.3493225941774562
-0.07286952334169462 0.003564706208954286 0.02356730214235429 -0.12449946916261984 -0.035827495055426144 -0.063445252192659 0.0965504079901213 0.2015500394703242
0.07066995056920237 -0.07923850697767319 0.06337636886335603 -0.020178841179591643 -0.005458078047529281 -0.06643609958545968 -0.1546078912214559 0.01984615237887953
0.23578231979959613 -0.08500101765751303 0.051834594078252055 -0.39038505846628974 -0.35266639046143944 -0.17153252118321882 0.0527153357197729 -0.09989300566277613
-0.10934857342306604 -0.22063861660534553 0.1820844543014363 -0.07783310452976334 0.07159830081842615 -0.1083861849107876 0.08734236363135495 -0.029938711291613945
00000000: d73d 6914 27ca c7bf 6070 8ffa 62b6 e7bf
00000010: 0472 25a6 9db7 dcbf 6a3e 7cc9 0c89 e13f
00000020: 9879 f96e b53f ed3f 75eb 3cc0 9b4c d7bf
00000030: c7a7 e19b 8c2e e83f cab8 89c7 1f0e a03f
00000040: 31fb 2166 7556 8fbf 7fa0 49e9 4580 eb3f
00000050: 4751 79c3 9021 a63f 97c7 6730 89d3 be3f
00000060: ebe6 cba5 60fd c33f f16a 6aed a46c b23f
00000070: 6b54 0042 f43f c33f 7958 3674 c55d a53f
00000080: 9f31 8fc0 b66e bd3f 4143 98b3 ee60 c1bf
00000090: 7976 70cc 8b4d b53f 3bee c602 6c30 b5bf
000000a0: 547d b4a0 fcba c43f ebc8 0e8d 2a42 babf
000000b0: c1d0 2a1e 5e13 8ebf 87de 3edf dca1 993f
000000c0: b4e6 cd26 a8f3 c9bf 09f6 6d58 151b ad3f
000000d0: fbc8 ff52 fefd d93f ae48 0008 3626 e5bf
000000e0: 5e49 bf26 b59a d6bf 643f 19fb 8230 b43f
000000f0: 0dc2 9413 de92 babf 4579 19f0 0808 b23f
00000100: f83d 298b a9a6 c43f 1d65 b8d6 823e de3f
00000110: a704 dc13 7cb2 a93f e523 fd95 d05d d2bf
00000120: 7454 74d9 3dd8 debf ae03 84a1 ddf4 d3bf
00000130: 291e d47e 89d1 98bf 2410 8378 b41d b4bf
00000140: 140b 7d8c 4d35 a2bf 851b 73b5 9db1 c83f
00000150: ccec 3894 e0ee d23f 62f4 8da0 b19c a63f
00000160: ee9e 435d a07e cb3f 1e7a 10f8 a6e9 b0bf
00000170: 17f7 2769 1692 d33f 578f 037d 6272 bfbf
00000180: a497 5c40 9cfe a03f dbcc 6789 bb63 b63f
00000190: 7bd1 689c 3a04 c03f 3e9d ebdf 5850 bc3f
000001a0: f6c8 203f dc90 be3f 77d1 39d9 20de a6bf
000001b0: c078 aa2c ae93 95bf 4a29 9a53 4c2f c03f
000001c0: 402c 91ba 4d19 c4bf f96f 15fc 0c56 b73f
000001d0: 11ba 8df2 d565 cbbf b5a9 94fe 99dd ccbf
000001e0: d6c0 ad95 5270 8c3f 77ce 195f 3ae8 a03f
000001f0: e7ae 5a33 7298 c3bf 05c9 67c7 4e58 c3bf
00000200: 145c 6f34 d14e b13f 4ea0 f5f1 10c9 b53f
00000210: de7f c6c3 a37a cbbf f5e4 cea0 3e8a c63f
00000220: d119 5d6d d8cb 97bf 4e37 79d4 28eb c83f
00000230: fa23 f346 36c6 b4bf 7865 b9ca fb85 b1bf
00000240: a40c 9269 53aa c23f 84ef 7b93 0d21 af3f
00000250: 4af4 66c8 64c1 c53f 6830 0a9c 7fe2 acbf
00000260: 6585 61ff 5865 82bf 758f 7f58 71a2 a03f
00000270: 98f7 145e e725 c03f d9ba 0e66 0954 c2bf
00000280: 4d9c d314 04b2 c13f 7adc 0206 2fe0 ba3f
00000290: 75f5 b55e f8c3 b3bf d1ce 0308 696c aabf
000002a0: 96d6 383b 5ef8 b1bf d976 fd39 31e7 a73f
000002b0: baab 1ff9 e26f b03f f771 cc89 ab3d b13f
000002c0: 699a d959 f399 a03f 7f34 12d3 14ce a23f
000002d0: fa24 e627 7660 c73f edba bc6f ecf7 c5bf
000002e0: 949d 2685 9ea3 8c3f 0fa9 76f4 d7f1 b6bf
000002f0: 12d8 1f85 5dab b7bf 76d2 674f 61a7 b1bf
00000300: a67a 3e34 b7c6 a3bf 6baf 12e4 a5f0 b63f
00000310: d9c9 bc5c 2a7d d1bf bc90 77de 7466 aebf
00000320: 7fd5 836f d6e2 c63f a4f5 121b 6a3b 923f
00000330: b962 febc 184e bcbf fcff c498 89a3 b03f
00000340: 34fd 7e33 d33e b23f bd48 4eef 2908 b53f
00000350: 33f5 bd56 cfa8 c43f 07f8 b581 f091 c93f
00000360: d0a9 f21c f49b 9cbf 87ec 0489 e8bb ae3f
00000370: 08a4 0e45 8f57 d03f d2a8 8803 2cbe b8bf
00000380: a66d ce61 e1f5 73bf f3c9 2bc4 c9fd c0bf
00000390: a0c7 04ee e680 c9bf b7c0 938e 1ae8 88bf
000003a0: b496 a013 ecb9 9dbf 01ac 4faf 0930 a6bf
000003b0: 65a0 f61d d2f9 be3f 2138 8b65 c52b d23f
000003c0: 62e1 f718 fe4e d4bf 4bd2 4517 ab2c c6bf
000003d0: c85b 3b17 f9a5 56bf ddc7 f3de b944 c8bf
000003e0: 4d34 de1c 4ec0 aa3f dd58 1c33 527a b7bf
000003f0: e5e8 7ef9 7bb3 70bf 137e c160 8a28 a4bf
00000400: 9a81 9c6d 91fa a1bf 9abc 3a51 33bc 9a3f
00000410: 890a 5506 6ddb a43f f372 7419 5054 dc3f
00000420: 5046 f6bc 4cca c1bf 2e5a 7613 7d38 96bf
00000430: 8819 f743 8d75 ce3f 633d b03d 0e83 b1bf
00000440: 8cb9 e236 a235 c1bf 49db ccb0 18a5 933f
00000450: e82e 3f4a d3c7 c6bf 869d 01ff 7a99 adbf
00000460: 06dc cc39 ca66 d43f fa50 f01d 81f9 b63f
00000470: 4ce2 a10b 82b2 b1bf fc46 403a 2c0d dabf
00000480: 0bfc 7b9d e75e d4bf 061d 74e9 0352 cabf
00000490: df5d 851a f29f b2bf 0bbc 68dd 3a13 c03f
000004a0: ab31 d5c3 475c c4bf be66 d064 18f4 cfbf
000004b0: bbdd 9fd7 3e79 c73f 007f d2e4 89aa e33f
000004c0: 1960 d2cc 2a13 cc3f dc74 c0f7 d16f a9bf
000004d0: 591f 1851 a4ba eabf 544e b14d 7b2b 96bf
000004e0: d835 501d c69b dbbf aaff 9cff 13c9 87bf
000004f0: 836f cc05 6061 ccbf 2607 4a83 b667 e4bf
00000500: 1215 41d0 7af7 b23f 4d0e a2c2 a09f b9bf
00000510: b5fa 5f24 796b c5bf 57c3 e665 d8bf aabf
00000520: 102a 0dd1 8307 ccbf bd31 90f6 c975 923f
00000530: 1956 d2f4 6caa c7bf 42a0 2817 812c d13f
00000540: 2c3a 0f6d 6ae5 a23f 9be6 1ade a714 cd3f
00000550: a1f9 3efe 911e a3bf 5f24 678b 5d99 d43f
00000560: 09ed 5ee4 f995 ad3f f143 b5b8 8211 cabf
00000570: a7dd e128 fa9e d23f 2202 c427 ec38 d5bf
00000580: 7945 ed9b 9cfd bcbf c01f b4b5 ec14 d53f
00000590: bf4c d0f2 5f3e cf3f ae3a 0e77 3d1b d4bf
000005a0: 336c 1a31 80c5 a23f 8c10 baed 1a45 aa3f
000005b0: 12b8 471b 1236 adbf 4e27 df16 fbb9 b4bf
000005c0: ab98 883b a08b 53bf 7c9a 0782 c0be b33f
000005d0: 353b d9bf dfce df3f c3ae f949 4fee e03f
000005e0: d96f 059d 9036 b9bf e9cf 5380 7e74 cf3f
000005f0: 4a5a 55da bf71 c93f e84f 2d54 9759 c2bf
00000600: 56be d5c2 a6f6 c8bf 8555 5d95 469c 88bf
00000610: 0b6d 364e d639 b4bf 0d69 d64c 0b05 c9bf
00000620: 670f 0c75 2cda d7bf 2229 cdbf bf29 b93f
00000630: 3cd3 6987 e679 a0bf ba92 a215 b63e c6bf
00000640: 9d78 e06b 444e cd3f 25f7 a63c a474 bfbf
00000650: 76b8 db63 c294 9a3f 905a dbd2 3798 b13f
00000660: 7916 856d 41ca c13f b2ee beac 2c4e a33f
00000670: 0d45 fd48 7873 c63f 8812 9322 3c01 c63f
00000680: 8ea9 fcf2 2c9b b3bf 1290 11e2 924d bc3f
00000690: c5f5 6307 0f38 d23f 8977 f2fd 1384 c0bf
000006a0: 23c4 88fe 5b75 973f 4d13 0af2 a844 ddbf
000006b0: 8099 055a 15a7 c4bf 1271 815a 0272 d73f
000006c0: 784e 644f ffc1 aebf d399 f982 368e b5bf
000006d0: f91d 9a0c cd86 c23f eb4b c4b1 6cef c13f
000006e0: bcc4 b3df bdfb ddbf 7df3 4943 c74a a2bf
000006f0: 6823 25dd de5d b3bf 5bbf 6f27 4d5b d6bf
00000700: 19b0 a0bb 93a7 b2bf a237 cb12 bb33 6d3f
00000710: ab50 d3df 0622 983f 743d 6c7c 32df bfbf
00000720: 6f0e 1f3f fb57 a2bf 6302 41b3 f23d b0bf
00000730: baa7 bb0c 87b7 b83f a72a 0446 64cc c93f
00000740: 7331 8106 6d17 b23f b78f 0d8c f948 b4bf
00000750: 157b 9b07 6f39 b03f 5606 c01b c3a9 94bf
00000760: f413 69ab 355b 76bf 164c feca f401 b1bf
00000770: 78f5 3ffe 30ca c3bf fcc4 acbd 8c52 943f
00000780: e2d3 4174 1d2e ce3f 8a3a f76e a0c2 b5bf
00000790: 9c2c bc5c 108a aa3f bf6c bd9c 11fc d8bf
000007a0: 3289 5b0d 1692 d6bf 5057 5714 c7f4 c5bf
000007b0: fb02 d425 81fd aa3f 57b7 6b88 9692 b9bf
000007c0: f960 b7a2 44fe bbbf 7ffe 46dd e23d ccbf
000007d0: a5d6 2a1c 8b4e c73f 3161 80ce deec b3bf
000007e0: 0bdd 7628 4454 b23f cbb0 876f 32bf bbbf
000007f0: 481d 5ab3 115c b63f 5b08 87e7 40a8 9ebf

linear_layers.1.layer.bias f8 [50]
-0.18025415143084697 0.0704453818197974 -0.011715730728248518 0.07808023968048586 0.08793179764204434 -0.0832193755556023 0.09280829015269092 0.06009730436744423
0.047557425739780966 0.10535388027203146 0.1441227636796364 0.07811063677236893 -0.002361532063248597 0.01014480773734297 -0.07695038063533681 0.06843936016575246
-0.11189381312696664 -0.042214891629842745 0.01686360377768954 -0.01288403557448245 0.1105938941789441 -0.06879387435097667 0.03389039688008883 -0.06275346080427588
0.18404744222863167 0.1519701712182164 -0.0082296747414697 0.22702818989386755 0.04343587460472215 0.14561518892545228 0.05147031380989302 0.08796556223900209
-0.13600371938154215 0.1006823668010798 0.02689172105396203 0.14810478916629266 0.133436461689454 0.015274598256964336 0.0061638103341269046 -0.1364297052717566
0.02108917317617135 0.030769095858522732 -0.02238101231699474 0.1529418769579755 -0.016371873265198473 -0.14334960701821126 0.01007227398482283 0.05950648165163649
0.0529619492127498 0.1538869880956309
00000000: 5b8e ae6a 9112 c7bf befc 1163 b508 b23f
00000010: 8cd0 9cc2 6afe 87bf 323b e40b 11fd b33f
00000020: 8cac 26c3 b282 b63f 7ea4 6770 dd4d b5bf
00000030: 7be4 00bb 48c2 b73f 24ff abe9 12c5 ae3f
00000040: 33f7 7768 7259 a83f 4c6b 46ce 78f8 ba3f
00000050: 847c 4e5e 9d72 c23f 0e35 6806 0fff b33f
00000060: b80b 5ddf 7d58 63bf 9015 a60b cdc6 843f
00000070: 8b57 3e28 05b3 b3bf 5fcb abed 3d85 b13f
00000080: 6e4b 01ac 12a5 bcbf b5a1 e8b5 309d a5bf
00000090: 931b df4a b144 913f b095 76fb f162 8abf
000000a0: 0bc7 a2a6 e14f bc3f f4a8 80b0 799c b1bf
000000b0: c933 7f04 155a a13f 9e7c dd5d 9c10 b0bf
000000c0: f467 a4d8 dd8e c73f efc4 ac31 c273 c33f
000000d0: a97b f83e b8da 80bf 619f 6e7d 420f cd3f
000000e0: 4806 cd19 3a3d a63f ba2a 1ebd 84a3 c23f
000000f0: 9683 0e25 515a aa3f e0a2 fd3c e984 b63f
00000100: 1665 70e3 9168 c1bf a9cb b1d0 51c6 b93f
00000110: aef5 d6d9 8089 9b3f 6cd3 ec04 19f5 c23f
00000120: b46b 862b 7214 c13f 4e1d c9df 4948 8f3f
00000130: 5774 dc3c 393f 793f ad2c 2c51 8776 c1bf
00000140: 4a87 5d74 6698 953f 8366 c211 ef81 9f3f
00000150: 00bc cf4f 0ceb 96bf 1697 dc73 9993 c33f
00000160: 353e fed0 c9c3 90bf 5ad2 04a9 4759 c2bf
00000170: d2aa e3ba c5a0 843f eb06 3031 a277 ae3f
00000180: 6433 9a1f d41d ab3f 5a49 939e 91b2 c33f
