8_Inv_Lorenz/logs/models/2024-01-12-12-35-52_Lorenz_DNN_100X5/epoch_42000.pt (torch, 100218 bytes, 13 tensors)

alpha f8 [1]
00000000: f49e 2fbd cad9 2340
9.925374900878047

beta f8 [1]
00000000: 68c8 f352 542c 0540
2.6466452103277796

rho f8 [1]
00000000: e395 0552 6f29 2e40
15.080927432233642

rbf_layers.0.centres f8 [128, 1]
00000000: 5b8a 64c3 3a28 d0bf 2ae6 4598 0c45 dd3f
00000010: 6ef7 e3ea c08e e33f a628 9b4a 07ed f23f
00000020: 17e3 13aa a907 a2bf 3a35 24fa a8cf dfbf
00000030: 786b 619c 067e bbbf 594f 55d9 79a9 d6bf
00000040: 20d0 9f64 088d f03f 2cd8 21f9 3092 dabf
00000050: 476f ad9b 962e e9bf c278 430a 7b8e d33f
00000060: e247 1a1c 5b38 e7bf 8039 5f70 b5f2 ddbf
00000070: 7181 7934 d865 e53f b6f2 d21f 2e27 e43f
00000080: 0692 a346 9a60 ec3f 1fb7 4b32 a263 e33f
00000090: 5a2e 3696 1eaa f4bf ee16 7782 c34d e1bf
000000a0: 1673 42e7 af6a e53f 900a 229e 16da e5bf
000000b0: 046e c37e fb57 f03f dc57 40d3 6348 d1bf
000000c0: f5d1 8de1 4ba8 d63f 634d 395e 7cf5 c33f
000000d0: e45c 174b cdaf da3f b14b db32 cd48 f53f
000000e0: 8fdc afdc abb7 e2bf 0480 ca4e e41e d23f
000000f0: 4e4d 08c6 0dfc d4bf 5f0b c5f7 7cd4 ee3f
00000100: e72d ccb2 1525 f6bf a157 cfbe ffd0 e7bf
00000110: 68ad 7ce8 3f23 ec3f 3909 56d3 d909 f63f
00000120: a533 e9f0 6aa4 b4bf 5ce8 808a 6286 c93f
00000130: 7a59 5dbf 7fd6 c0bf 763e aeed a27e d13f
00000140: 6526 f7d8 f56c cf3f 8162 28ab a57e e23f
00000150: d8db a5eb 51ac c33f a4ec c876 ec5e fc3f
00000160: c018 b56e 2a0e dcbf a888 022b 6602 d93f
00000170: 70b9 4c83 3c90 ecbf 0477 2e30 d491 e1bf
00000180: d909 b00a 8586 e53f 8a98 18ae 720d cd3f
00000190: a800 7fe8 4a22 d8bf 6991 fff9 e9cf f23f
000001a0: 9329 386b 7bab ca3f dd48 91c3 6cfc f03f
000001b0: 2d97 a6a4 3d78 f03f b897 47d8 87e1 a93f
000001c0: 8fbe ad58 4888 25bf b857 2ace 8a70 dcbf
000001d0: e9c7 2560 aeff d8bf 262c 0a72 769b dbbf
000001e0: cc0a 4110 2409 d23f 087c 51c6 0bb6 f5bf
000001f0: 2459 999e 5a69 eb3f 640a a5be aef9 d0bf
00000200: 6874 2797 1dc4 fa3f 9a34 18ed 0e06 e2bf
00000210: f275 c17e 0cdb fabf fbae 8b69 19aa e03f
00000220: f235 98f9 743a f7bf df16 7d43 96eb e8bf
00000230: 252c 6602 a49c d5bf b1d3 5f75 f41f ddbf
00000240: da5d 0445 99b9 f4bf d4a8 8a6a ca6c ea3f
00000250: 4225 cde4 76b8 f23f 7e2c 3c5d 7b73 db3f
00000260: b2a5 33ed e9fc c9bf 4e1c ee11 08eb df3f
00000270: a2df f16f efdf eabf 366c d6d1 47af f5bf
00000280: d323 9b65 a682 f33f 16c7 b563 4f0c e3bf
00000290: 577e f6df 6a8c ebbf 415f 9f2b 3f63 ef3f
000002a0: d063 97ba 170d e83f d6c2 85a5 d76c f7bf
000002b0: e2e2 7e5a 2c4a df3f 4a40 59ea 09c7 a13f
000002c0: 9fee af62 5fbc eebf d31b 49f8 d65d f0bf
000002d0: 0b3c c1bd 6c7e d03f 99e4 61cf a820 eb3f
000002e0: 8576 9b47 33fd f6bf 7516 ecc7 b59a d8bf
000002f0: 17d2 13bd d733 fabf eb74 bd1d cc82 f93f
00000300: a85f 488f 8f8d f23f fb08 74d1 646b edbf
00000310: 0868 70dd 5319 ddbf 0a8c cc3b ba7e e3bf
00000320: d3d2 cca4 2974 d6bf 04ab f73b b8df c9bf
00000330: c426 fe96 0101 ff3f fef1 583a 797b e6bf
00000340: 93b7 3562 3845 da3f 76b5 bb03 89ba f23f
00000350: c51d 4cb4 7653 f8bf 881e 7a7b 2a14 fe3f
00000360: 2a52 9e70 02fd c8bf 7893 f528 484d e73f
00000370: c14e 4716 8943 f03f 2376 51ed ffe0 c9bf
00000380: 00e3 f4d1 a763 e33f 41ea 349a aab7 f7bf
00000390: f61f e785 1c7b 92bf adb6 6ff5 553a f03f
000003a0: 64a4 e38f acbf d73f e604 4d72 3a9c f83f
000003b0: 4f5d 5b6b 43cf f7bf 63c5 7376 b73a f1bf
000003c0: a10b 56ae 91d5 f33f 55fa 57d3 02a3 f63f
000003d0: a817 864d 5262 e5bf 4dca a66b a793 d43f
000003e0: 415b 1a2d f99f f63f ae45 68ce 8ef1 ed3f
000003f0: b2cd c43f 6d11 ed3f a4be 678c 5d99 f8bf
-0.25245541650125397 0.4573394286195219 0.6111759746270147 1.1828682817745544 -0.03521471215385057 -0.49704956462740635 -0.10739175145992685 -0.3540939924616758
1.0344318323741462 -0.41517280892674324 -0.786937049920632 0.3055713272314159 -0.7256293820266786 -0.46793876622987085 0.6686821961302895 0.6297827359736263
0.886792314497655 0.6059123022402878 -1.2915330760614752 -0.5407426403187097 0.6692733303821992 -0.6828721130880968 1.0214800788588727 -0.2700433314324735
0.3540219977069506 0.15592913246892257 0.4169800980866525 1.3302738176905502 -0.5849208174030468 0.2831354875033869 -0.3278841432486005 0.9634384955646559
-1.3840538963585176 -0.7442625738865339 0.8793029347192887 1.377405000239902 -0.08063381559004641 0.19941360247486528 -0.1315459904096306 0.2733542748546606
0.2455127057458412 0.577959856312262 0.15369628912205147 1.7731747283967616 -0.43836460887213136 0.390771429063657 -0.89260697979425 -0.5490513745350829
0.6726708611243409 0.22697289944443738 -0.37709305481622346 1.175760246807011 0.2083582185299063 1.0616271628719496 1.029355662505121 0.05054878726131967
-0.00016427882323054698 -0.44436903127040805 -0.39060553922092695 -0.43136368881886467 0.2818079146128809 -1.356944822960715 0.8566105935704269 -0.265239416290717
1.6728797821481525 -0.5632395392182332 -1.6784787131685985 0.5207640706480271 -1.451771712282945 -0.7787581747186002 -0.337685587256319 -0.4550753732904083
-1.2953121849039833 0.8257801133052234 1.1700352609207845 0.42892345528588993 -0.20303081590763622 0.49872018576610777 -0.8398358522817839 -1.3552931019573982
1.2193969696984268 -0.5952526996099745 -0.8608908056521142 0.9808650829317928 0.7515982288706429 -1.4640728440974065 0.4889021762606217 0.03472167001439226
-0.9604947020993285 -1.0229100893645764 0.25771635561699274 0.847736744922389 -1.4368164822730318 -0.38444275401739186 -1.6376569162213224 1.5944329416009235
1.159560737321934 -0.9193595972904228 -0.4546708738795364 -0.6092196624707651 -0.35084000676878907 -0.20213988235567382 1.9377456567912512 -0.7025724544142233
0.4104748686867136 1.1705408235387416 -1.5203768771042274 1.879923326809065 -0.19522123812625242 0.7281838226304975 1.0164881582503968 -0.2021789463787381
0.6059149838175415 -1.4823404334735104 -0.01804775779035591 1.0142421328886642 0.37107385684664096 1.5381416764142215 -1.4881014054897894 -1.076835119918848
1.2396408853535166 1.4147976165401321 -0.6682521356712998 0.3215120841297548 1.4140559923013856 0.9357370406525456 0.9083772893413224 -1.5374427303867515

rbf_layers.0.log_sigmas f8 [128]
00000000: 0a0b d27b d0d4 e0bf 2224 ac55 bbf5 e2bf
00000010: 1206 7049 8e51 e1bf 56a6 071e 80f3 dabf
00000020: 2353 4e69 17a5 e1bf 6e7f 666a 4100 cebf
00000030: 798d 5cb7 1203 ddbf efe4 609a 80eb ccbf
00000040: b2eb fdaa d471 d5bf a6f0 e120 7480 d4bf
00000050: 6992 da09 4fbb bbbf ecdf 4444 8be9 e6bf
00000060: 24df b4ad 6b86 b2bf 6823 9462 6ea5 c8bf
00000070: cb7a f7ac 2f05 dcbf 9550 42bf b887 e0bf
00000080: f8dc a99c e85e d9bf 7757 948f 43bc dfbf
00000090: ea97 2da6 514d cf3f b7b9 9f05 a1da c4bf
000000a0: 10c1 0020 bb63 e3bf 4486 5210 1286 a7bf
000000b0: 9e57 6dce 65de d4bf 9ca0 4194 e0fb d0bf
000000c0: 7596 f941 610b e6bf 24a0 fcf2 1919 e4bf
000000d0: 72cf f935 9dbf ddbf 07fe d1cf 7731 d3bf
000000e0: 9991 be05 c980 c8bf 3657 69ad 528e d5bf
000000f0: bc00 b685 0aaf d7bf c682 e64f 22ea d2bf
00000100: 606f 7ce7 1500 d33f 344b bd5a 40f5 9cbf
00000110: 76a3 c016 210f d4bf 01ed 9df1 4856 a4bf
00000120: cb2e 1eb9 822c e0bf a229 cf53 2a82 d3bf
00000130: d80c e991 9c9d d1bf 82aa bbac 947e eabf
00000140: 9c7e 8b89 13d7 d0bf ebbe 2f51 6430 e2bf
00000150: e05d 33af 13d8 e5bf cd83 92ca 5889 c63f
00000160: 710d 9793 cc1c cbbf 29c5 36f7 67e4 e3bf
00000170: 8e0e 79c2 7c19 a83f 0999 b74b 0f13 cdbf
00000180: c8ae dc28 8cac e0bf 9607 a17d 0a36 ecbf
00000190: 4d6a b6a2 708e cdbf 0092 9f82 696a bebf
000001a0: a679 f238 c2cf ebbf f414 e06b 1ff8 d6bf
000001b0: 682f 2bb1 85b5 e1bf 4a79 de92 cd08 e2bf
000001c0: d17f b847 b2c8 d4bf 1b11 b627 bdf7 d0bf
000001d0: 448d 8d41 a068 c5bf 8d28 b141 4f76 c3bf
000001e0: 0dcf 3561 0e93 e2bf f253 7cc7 63ce cf3f
000001f0: 0147 5a6d 2298 ddbf 5de0 17cb 6727 c6bf
00000200: 120e 2994 8087 c53f ce88 acc1 8e1d bebf
00000210: e778 8de2 9a4d e33f cc7b 3710 64dc e1bf
00000220: 7601 e998 8439 d43f 145f 7ae5 a6ba a1bf
00000230: a992 75ef 790f d0bf bc33 42b2 909f d0bf
00000240: 8c86 67ee ea28 cf3f 473b aa0d 8381 e0bf
00000250: 9717 4ee6 c0a0 d5bf 894b 3ea4 c647 e1bf
00000260: 63c9 3052 8921 d2bf 1803 ae43 43c1 dfbf
00000270: e5e0 d9cf ce97 9ebf ecef 0720 88f3 ce3f
00000280: a659 bbb0 277b d5bf 8aa7 4359 46d1 bfbf
00000290: ef36 b4d0 634c 753f 8d6d 3525 efad d4bf
000002a0: 5c80 bf0b cba5 dfbf f90c 094b 1153 d63f
000002b0: 57c2 005d 5229 e3bf 5acf 3de9 839d e4bf
000002c0: 1e7d eeb4 97b1 bb3f e2e1 0bf2 d195 b63f
000002d0: 7b0b 1000 096b d9bf b5a0 0738 2a67 dabf
000002e0: e19d 6602 aa04 d73f b3e0 7fe1 78bc cbbf
000002f0: fb9d 645c 6395 e03f ca41 1166 8caa ac3f
00000300: 5c39 bfd2 e968 c4bf 4572 a2aa 4a73 7d3f
00000310: 77ba 7a9c 48cd bebf ea18 ef74 a822 b0bf
00000320: 7457 0832 3181 d0bf b97e e0fb 61df d6bf
00000330: c143 05cc 5e46 da3f a3f8 140f 7278 c1bf
00000340: 6462 6aea 7f7a dcbf d41c 2147 9f64 d8bf
00000350: 1fb6 3248 a39a e43f 66a0 faa2 792f d53f
00000360: 97c2 baec a96d d2bf f18e fad7 633c d8bf
00000370: d621 2a17 8b0b d8bf 3252 9a6e b0ed d4bf
00000380: 6e99 c1c7 c4db dcbf 8af7 78e4 44d3 dd3f
00000390: 16d5 a771 8f7e dabf 3fdd 91df a189 d4bf
000003a0: b63e b9fd b1f1 e4bf 883c 9c5a 5556 9bbf
000003b0: 2895 d870 e356 d43f babb 4c78 8ade bd3f
000003c0: dcf7 1fa6 ec42 d6bf 1dfb 8130 61eb c4bf
000003d0: 364f 8382 eb83 b2bf 7192 181d 89f1 e3bf
000003e0: c418 6ef3 90ba c2bf 5ee2 3699 0288 d2bf
000003f0: b68b ba17 c3a5 dbbf 36c2 f808 36e6 df3f
-0.5259783190125245 -0.5924965546884133 -0.5412055429771405 -0.42111208851438187 -0.5514027649647669 -0.23438279815035962 -0.4533125677719095 -0.2259369615365254
-0.3350726766436153 -0.3203401871794632 -0.10832685461589055 -0.7160087903384897 -0.07236359587556912 -0.19254855931674375 -0.43781654254227637 -0.5165675864723364
-0.3964177637021318 -0.4958657171385918 0.24454708685078624 -0.162922027345713 -0.6059241890962159 -0.045944752209163414 -0.32607407721422443 -0.2653733680549608
-0.6888891495297701 -0.628064131339674 -0.4648201968295701 -0.29989428801488355 -0.19143021374214866 -0.33681170401301885 -0.370058661057566 -0.2955404072072664
0.296880222378368 -0.028279309786124432 -0.31342341634677184 -0.03972080182480831 -0.5054334273895277 -0.3048196619462492 -0.27524484871919475 -0.8279517530148299
-0.26312721664542393 -0.5684072099374736 -0.6826265737426489 0.17606649295069446 -0.2118163796095405 -0.6216316059491521 0.04706945299088004 -0.22714415738227725
-0.5210629270636327 -0.8815967992488705 -0.23090942330311962 -0.11881122054143844 -0.869111167168559 -0.35889421019267265 -0.553408475906946 -0.5635745876823333
-0.32474953655218736 -0.26512078168913583 -0.16725543213679306 -0.15204802234285744 -0.5804511927258048 0.24848601570616285 -0.4624105518242772 -0.173077558676371
0.16819770082848656 -0.11763851383560395 0.6032232689720133 -0.5581531826718389 0.31601061756739257 -0.034627166283085625 -0.2509445990056443 -0.2597390881354007
0.24343620911445318 -0.5158095614332091 -0.33793661585547724 -0.5400117118718849 -0.2832969000475229 -0.4961708222327146 -0.02987597602484095 0.24180699886335277
-0.3356417871376841 -0.12428703002265543 0.005199804213828803 -0.3231160987249602 -0.494494210694034 0.348820040966714 -0.598794156690995 -0.6442279391762711
0.10817859809184369 0.08822357329689326 -0.3971579075443327 -0.4125466868558861 0.35965967401940985 -0.21668921480864398 0.5182358555366017 0.055988681277657174
-0.1594517020261702 0.0071900288259284005 -0.12031987972543755 -0.06302883963425968 -0.2578852642631013 -0.35738420102459717 0.4105450622928935 -0.13648820625707456
-0.4449767865385523 -0.3811414904234429 0.6438766870612119 0.3310226527778525 -0.2879433452426751 -0.3786859139602106 -0.3757045484749403 -0.3270073967080719
-0.45091361529775653 0.4660198432137511 -0.41397462939433305 -0.3209004100130705 -0.6545038180865592 -0.026696523337758765 0.31780324955100747 0.11667695462231978
-0.347834741813015 -0.16343321674863712 -0.07232543884611861 -0.6232343261986683 -0.14631854902490293 -0.28955140077917985 -0.4319923145032435 0.49842596889633073

linear_layers.0.layer.weight f8 [50, 128]
00000000: f8b8 59a1 fa8c afbf 65bd 5c9c c6e9 bb3f
00000010: 7040 6239 a933 c43f 903f ac60 b45f ad3f
00000020: fb19 af42 92fc a73f bd2e 5652 c6fb a2bf
00000030: 93e5 07bf 66c5 86bf 47c4 473f 2624 afbf
00000040: 4a38 ef64 0f99 883f c3e6 77df 9543 9bbf
00000050: 98e5 7aee a7cc c7bf 884f de8e b10c be3f
00000060: 61ad 0d36 391d cbbf 6741 b8ce d011 b3bf
00000070: b7fa 98b9 09c2 b03f 5cac 6e62 9db3 b63f
00000080: 4901 8691 0580 bc3f db76 1227 f8b8 c53f
00000090: 5a32 7a45 742f c4bf e593 2de7 7f5a b2bf
000000a0: bfa5 2d81 c538 b53f 7a04 ccf0 9694 c8bf
000000b0: 4057 a826 b7cc c03f 583c fdf9 abe2 79bf
000000c0: 99be 7ffa eda4 b83f 90be 2027 d321 b63f
000000d0: e4bb 5ced 5d09 b73f 965c f4f9 54b7 b73f
000000e0: e8ed a3dc 6659 abbf 102c bb68 173d b63f
000000f0: 0fa1 2829 3c92 983f 7e2d 080f ba60 563f
00000100: 99d7 6278 d66b d2bf 9c87 446f b44b cbbf
00000110: ef77 35fd 91e7 883f 2c08 e987 6655 bc3f
00000120: c356 9c69 9d7e b13f 1a96 4e62 6af2 b23f
00000130: 8ccb 9c1f a93e 9cbf 20ed 83be e274 7cbf
00000140: 8405 5c87 b5c5 bb3f 2131 e886 b0dd a43f
00000150: e20e f1a2 2106 9bbf b253 feec 5cef c03f
00000160: cabc fe3d 0e4a a5bf aa13 96b9 5d25 ba3f
00000170: 8662 97b5 130d c3bf 9ff3 969b 881a c8bf
00000180: 5c60 ea21 36e7 c13f e11c fb41 96f8 a83f
00000190: b93e 1c00 c2dd c3bf 6486 d679 392f af3f
000001a0: e0b1 f197 269f 923f c04c f7b8 49e1 8c3f
000001b0: f670 b173 0b30 b53f 5bd5 5547 261c 89bf
000001c0: f17e fb20 0620 adbf f766 920d dfa0 a6bf
000001d0: 5439 b3eb 8b8d 923f e2f3 0a9e 111b afbf
000001e0: 5302 9bb2 27fc c13f 3451 0564 8eec cfbf
000001f0: fb40 232d c256 b73f 58c1 02c6 21c7 9dbf
00000200: b6b0 06f9 a16f a93f 919a 1b3a 8de0 babf
00000210: 0104 b90d 1080 dabf 9d0d 8611 d21e 6e3f
00000220: c153 004c 3105 cbbf a0d4 087e fe6a ccbf
00000230: 9689 f45b 7a9f b4bf 837c bcc1 12ce adbf
00000240: f2e7 ef98 3183 d2bf 8711 1e23 b3ea c13f
00000250: 46e2 49fe 199a b63f 1337 e3f8 5c9f ba3f
00000260: 291a 28cc de06 a2bf 3178 dcbf bad3 bf3f
00000270: c649 38e1 271d cebf 2903 21d2 4d72 d3bf
00000280: 0661 c37a 03f9 be3f c708 a58c 79c3 cabf
00000290: 84bb dfce a80d d0bf bfe8 86eb a162 a43f
000002a0: 1e42 9c7e 2232 c63f 9ae1 c878 7a3a c9bf
000002b0: 09da fdd8 d354 c33f 0a2e aa06 3fee a43f
000002c0: 6a00 8983 0368 babf 03a3 8e0e 0151 cfbf
000002d0: 627f da03 f41f bc3f f504 63a9 1354 c33f
000002e0: 4fdf 293d dae6 cbbf d762 46a6 fd7f acbf
000002f0: 8706 a08a 5361 dabf b733 c55e 8fc7 b53f
00000300: b9fc 2f72 34b3 b03f 0c06 bef6 fbcf c5bf
00000310: d740 1bbd ecb2 9cbf d89c 1591 9be3 aabf
00000320: 7fd0 c109 c6b0 adbf 01dd ad6a 7452 acbf
00000330: 43db ca8a 7944 c53f d015 dc68 55b4 b2bf
00000340: c220 d89b 1f28 b73f 62f6 fd72 4f91 c53f
00000350: 714b 4c32 f0d2 a5bf 68eb 6235 a1ee b63f
00000360: 6f55 3ddc dd8a 9b3f 4a3f cbcc 0e12 943f
00000370: 20e4 8cd0 a27f b83f 7ed1 bf85 1d92 b7bf
00000380: b8c0 e05d 95c3 b43f 2fa4 2ae0 230a c8bf
00000390: 22f2 45b8 1162 86bf 70c6 199e 2fb7 a03f
000003a0: a30f 6a0f 7256 82bf 50aa b18a 4956 bd3f
000003b0: e490 9210 edd2 cdbf 9481 d0bb 7075 c8bf
000003c0: 2917 d4b3 0236 b43f 5c49 8179 8b7a a03f
000003d0: 9c5b ccdf 44ab c5bf 8695 bf4b 1066 c23f
000003e0: 2674 79ed 1293 ba3f 4f96 f19f 8111 9c3f
000003f0: c84b f638 8e66 9e3f 1619 a770 35e8 d3bf
00000400: 54ad 5e5c 6590 b83f dfef f41e e408 b33f
00000410: a987 93d0 ece6 a93f 2959 909e 438d 9a3f
00000420: 882b e628 8696 b33f 8b41 291d a75c b53f
00000430: 049a 6b95 2ca4 b83f a633 48a8 f50d c33f
00000440: 9896 d368 eaec b2bf b417 656a 6c5b be3f
00000450: 6cd5 7296 2494 cb3f 5b0d 9958 8566 bf3f
00000460: 7f4f 63d2 1674 c93f 1744 6ee0 6b23 b93f
00000470: 2abe a553 46bc c13f 97c7 9d99 8d82 a53f
00000480: 95fe 6b67 a4ed 7f3f f880 b9a2 8bbb bb3f
00000490: 7284 2ee2 ddab cd3f 7472 6b34 3c39 b73f
000004a0: 5bc8 157a 23a6 c03f 4e81 db58 8f1f c53f
000004b0: b913 23ab 4750 b63f 8350 cb30 0573 c63f
000004c0: 5587 cc10 1ad3 ca3f 5bd7 fd7f 0bce c53f
000004d0: 8e52 0a0e 4357 ca3f abd0 e96e 70e0 d1bf
000004e0: f650 e6cb 8f28 b83f 8ba6 cf7b 0687 c23f
000004f0: 32ac 66ac cee4 bc3f 40a7 13b9 769a a1bf
00000500: e6ca 1ba6 39a2 d33f 8c26 c991 57a2 c03f
00000510: 7d67 42b9 cd8d ab3f 8efb dab0 0230 c9bf
00000520: 2c87 5e29 76db bd3f 24af 8c9c 6e77 c13f
00000530: d2f1 2805 6042 c13f 1a98 5bc2 c4aa c93f
00000540: 468a 3ea7 3112 bc3f 009b f9fe 8362 c53f
00000550: fd63 1a02 89b0 b03f a593 1941 8fc4 e0bf
00000560: 3d82 043f 77be bc3f a6cd f90a 82cf c93f
00000570: d5c5 8775 bec6 bd3f 8b52 7dfe 95b8 a53f
00000580: 2f42 215d 0755 c33f fd27 c2a9 27a3 ca3f
00000590: 318a 33d0 6db4 b63f 6143 39d1 2b60 c6bf
000005a0: 8649 d13b e618 d03f f85d 6296 7a0d a73f
000005b0: dbba 9b26 cb0c 9fbf 9c42 7145 57a3 ba3f
000005c0: 6a1c 7d47 9636 c63f cf8a 7323 9b30 c63f
000005d0: 4bdb 86c7 c70a c83f b3d9 2c22 3654 c73f
000005e0: 5a7b c823 eabe b43f 0ea6 0878 37ba d13f
000005f0: 2345 888d 0ecf bb3f 694f d26b c446 ba3f
00000600: 4bdf f08e dc8a e2bf 3e35 dc27 741c c23f
00000610: 2091 d4f7 3767 f33f f1ef ebbb 0386 b13f
00000620: f7c8 ff82 abd9 d13f 240f abed b67d af3f
00000630: c048 407a 8eea c83f 8cd5 58dd c0b1 b63f
00000640: 7843 81f2 8fb7 c63f 970e 8514 5f7e c23f
00000650: 98b1 e6af 1df0 b4bf 7613 e6d1 bdbe c63f
00000660: 48a6 688e bdfd ba3f 4498 f12a aaba b63f
00000670: b4ad 1287 e1b8 be3f 7aa9 6371 059e d03f
00000680: 12c4 4ca5 c3c3 b6bf 71fb 589a 139a c03f
00000690: a424 9233 a6bb ad3f 8c74 77ca 3b2b 853f
000006a0: d846 8da0 21e1 9e3f 367d 51bf b942 d83f
000006b0: 7874 75c6 13a0 cc3f c1d1 ba91 f48f b23f
000006c0: fe18 8765 27d0 c33f 9f7a 3f11 a60e bd3f
000006d0: 09d7 2778 6e58 c03f cdfe d057 148f 2dbf
000006e0: 73ef 2574 e7c3 d33f aa91 c807 f76d ca3f
000006f0: 4d5d 3056 c4f4 ea3f df4b ad88 9ecf dfbf
00000700: 72b3 1e4d 1d87 b4bf 6f4f 14be 098e cb3f
00000710: 459f 4684 8943 b23f 2076 31c1 8412 a43f
00000720: bb0c 521a 0b1b c93f 1440 73cd 153e c33f
00000730: f829 51fe 561a e2bf 28bc 6e12 6916 b13f
00000740: 489b 9824 fd18 c73f 474a 7606 2213 a1bf
00000750: 91d8 c400 e84a f53f c6c3 befd 1504 e0bf
00000760: c2e7 aa0e aefe c93f 03ac b139 8e6c c43f
00000770: 30ab 3cb1 08e5 b0bf 6ffd 7cf0 96fd bd3f
00000780: 920f cb49 9308 bd3f 3f5d 78b1 3087 e63f
00000790: c5b5 dcf0 d37f ca3f eb7f 31d8 cba4 74bf
000007a0: 08b9 6401 6926 c13f 6167 c4ab 52bb dbbf
000007b0: a077 733f 1cd9 d03f a19e fed4 cfe6 b83f
000007c0: b0f4 9a3c 29d6 c6bf 9f31 c5da a4fc debf
000007d0: e941 b20c 0030 ad3f 1f0e d3c7 473a be3f
000007e0: 3954 98c7 fe94 d7bf 0127 eaed aef0 89bf
000007f0: eb10 a547 1dd1 9cbf aa9f ad23 5a32 e83f
-0.06162245959863982 0.10903588597715481 0.15782656957572128 0.057370793152698885 0.04684884132398178 -0.0370771384724242 -0.011118700699614325 -0.06082267305817673
0.012010689037108464 -0.026625005497385567 -0.18593310493978943 0.11738118875501702 -0.2118293298657177 -0.07449059531086775 0.06546078473273097 0.08867820408947708
0.11132845690554406 0.16970731647318513 -0.1576981868023662 -0.07169341463084285 0.0828975143791899 -0.19203459508574722 0.13124741923882688 -0.006319686682970525
0.09626662603090565 0.08645362572928605 0.08998667759873019 0.09264117338567454 -0.05341645663608202 0.08686968142426132 0.023995342266204974 0.0013658349017785227
-0.28783189541297244 -0.21324782784455187 0.01216043523771401 0.11067810838815778 0.06833823994051173 0.07401146793434812 -0.027582781366799078 -0.006947408408673611
0.10848555140184685 0.040753857105388265 -0.02639057690636449 0.13230477878519548 -0.04158062464500174 0.10213266163743975 -0.14883657805218692 -0.18830974194670788
0.13986851364166142 0.04877156787329696 -0.15520501141917523 0.06090716945915345 0.01818523695367158 0.014101577717985925 0.08276435446299843 -0.012260722209911526
-0.0568849482785917 -0.044196100622867655 0.01811808229541019 -0.060753393690425886 0.1405076620194615 -0.24940662273241687 0.09116757966990356 -0.029079940519922104
0.04967981495733069 -0.10498888653419615 -0.4140663274775421 0.003676805772728732 -0.21109596453666593 -0.2220152011301808 -0.08055844063759418 -0.05821283926911127
-0.2892574304129304 0.13997496809691887 0.08828890283792487 0.10399418903690742 -0.035208666249719585 0.1243244856272845 -0.23526476380409472 -0.3038515617409297
0.12098714587353152 -0.20909041755118649 -0.25083370401892346 0.03981500625691713 0.17340499097964907 -0.19709711930933055 0.15102623076718683 0.04088017422062869
-0.10314962350185089 -0.24465954981612734 0.10986256689147703 0.1510033204158742 -0.21798255907537586 -0.05566399244998415 -0.4121903280030001 0.08507629455307507
0.0652344492700533 -0.17040967510187988 -0.02802629379476759 -0.05251775880861381 -0.05798930043320726 -0.05531657984004746 0.1661521842667871 -0.07306417284060918
0.09045598559180504 0.16849701990934124 -0.04262495626439645 0.08957870057467476 0.026896921698911166 0.01960013508761386 0.09569757072030471 -0.09207329287875685
0.08110936681692038 -0.18780945249207678 -0.010929239688942497 0.032647598313713 -0.00895394429722513 0.11459788929065806 -0.2329994517250561 -0.19108399553898592
0.07894913568824492 0.03218494280067105 -0.16928921630525628 0.14373973559046876 0.1038066701671175 0.027410531413258273 0.02968809340161352 -0.3110478973507197
0.09595330720064982 0.074354417379197 0.05058994337174678 0.025929504921884537 0.07651556490433908 0.0834450193590383 0.09625509880024913 0.14886351315399543
-0.07392754611245278 0.11858251187831464 0.21545846315499817 0.1226580945304269 0.19885525963638526 0.09819673756852897 0.13855818828913985 0.04201166629981328
0.007794992640583272 0.10833046648759026 0.23180745643643125 0.09071708946016505 0.13007014714418372 0.1650256332277515 0.0871624749007215 0.17538514025239146
0.20956731624851935 0.17035049199665306 0.2057880228573094 -0.279323681176957 0.09436892250079496 0.1447456459566648 0.11286632260332466 -0.03438158997762608
0.30677643987216496 0.12995428675121834 0.05381625067202742 -0.19677766452329276 0.11662996778480011 0.13645727771778937 0.13483810665083112 0.20052394380690047
0.1096526177703164 0.16706895780517783 0.06519371320099761 -0.523994090221653 0.1122812775470345 0.20164514099051906 0.11631384248155226 0.042423903766267555
0.1510323719726485 0.2081040934465931 0.08869062741317958 -0.17480991092682088 0.25151973573260766 0.045024710519267985 -0.030322241050209846 0.10405488438960692
0.17354086390170959 0.1733583376981955 0.18782899134176953 0.1822574297782019 0.08103812574016214 0.27699076387452315 0.10862818675402201 0.10264232284890586
-0.5794508735479921 0.14149333902643407 1.2126998597023615 0.06845115030222339 0.27891052048575155 0.061506001007300776 0.1946580979279755 0.08864980129222583
0.17747687665044132 0.14448154928151233 -0.08178887886487585 0.17769596814118999 0.10543427206780465 0.08878577755385303 0.12000855968169938 0.25964485238241475
-0.08892462525979308 0.12970204388144738 0.05807227496649972 0.0103363677180204 0.030155682968433378 0.3790726059287012 0.22363516989108567 0.07250908429961724
0.15478985268982365 0.11350477143376246 0.12769871584867357 -0.00022551654174839675 0.3088320383319491 0.20648086433460594 0.8423787768723884 -0.4970470747695667
-0.0801866830140179 0.21527215748994474 0.07134303550139716 0.03920378549876724 0.19613779816800112 0.15033218890903355 -0.5657153098230188 0.06674820613874088
0.18045009886665242 -0.03334909752733899 1.330787661555892 -0.5004987674675412 0.2030847140902648 0.15956285302249293 -0.06599478079867249 0.117150720322561
0.11341209937660171 0.7040027109350503 0.2070259977421484 -0.005039974467848633 0.13398468559302779 -0.43330828451290954 0.2632513637198546 0.09727190923751518
-0.1784106775211618 -0.4841701637676809 0.05700683741554597 0.11807678822065569 -0.3684689473314538 -0.012666098247126724 -0.028141458032465854 0.7561464974250971

linear_layers.0.layer.bias f8 [50]
00000000: c791 5d3f 2161 c03f 85ac e631 ad49 a8bf
00000010: 5096 9403 fde6 933f 793a d319 29c2 abbf
00000020: dcdf 72a8 bf99 ac3f ffbe ea65 3db4 b23f
00000030: 6984 02ba a55c a9bf 78e1 7480 79d1 aa3f
00000040: 56eb 37f5 db09 b1bf 9373 e03b 62b5 a7bf
00000050: 632a 8146 7984 a83f 54a9 23d4 3e46 823f
00000060: a4df a8d1 c6b5 b1bf 16dc 2608 00c9 a43f
00000070: 70e8 90b2 e039 ae3f d249 94e8 6194 b83f
00000080: 6c43 6ee9 63ae b9bf 9e87 1dab 8d58 af3f
00000090: c0bc 48a7 f88d a6bf 7407 1598 b680 b03f
000000a0: 2dd2 cc6b 1a91 b2bf 3041 dc02 01fe a4bf
000000b0: 59bf d845 ef89 a13f 2216 1031 92d0 b9bf
000000c0: fb84 54da 755f bc3f 44a2 f6b3 d372 bfbf
000000d0: 7d26 58f7 68a6 a9bf 5949 111a 20a2 9ebf
000000e0: 36af 083b 4cf5 8abf 3508 47af 4516 4abf
000000f0: 7b0b e66b 7c0e 803f b941 e5be 1748 76bf
00000100: ad18 fe33 314c a5bf 7d09 3f34 19ef afbf
00000110: 74af aedf 0783 8ebf 083d 1dda cfda b1bf
00000120: 3683 10df f2b7 a03f 4cbd eca0 ff10 98bf
00000130: 53eb f09c 3e63 933f b5cf f023 e852 a23f
00000140: d748 8595 0f90 a23f 7e01 ab46 a4c6 ab3f
00000150: 02a5 4815 f61d 913f 4653 e3b1 2351 b9bf
00000160: 1ebb 054b 6565 a23f f770 378e 2a2c b5bf
00000170: 1d6d 2ef1 2505 9f3f 580a 727c 5ae1 86bf
00000180: 413c 9a4e 7c6d c2bf abb5 5cf5 5774 a9bf
0.1279641684915431 -0.04743710741180344 0.019435838073283584 -0.054215702440719 0.05586050921687022 0.07306274164397662 -0.04953496833446353 0.05237941449235256
-0.0665566896131343 -0.04630572300832294 0.04788569436694414 0.008923045014360177 -0.06917994135517219 0.040596009249775175 0.05903532199631989 0.09601413658337002
-0.10031723450653168 0.061222483766655275 -0.04405190507929424 0.06446400845473282 -0.07252659923398914 -0.041000396346250745 0.034255482937054445 -0.10083879182646929
0.11083160953832653 -0.12284587043417 -0.05009773272838645 -0.029915334311519135 -0.01316318087727773 -0.0007961120850768002 0.007840129893116323 -0.005439846760353744
-0.04159692535090307 -0.062371051433291115 -0.014898358834976234 -0.069745054960766 0.032653417329362375 -0.023502344319408494 0.018933275536464688 0.035788778674401035
0.036255347253829555 0.05424989092489606 0.01671585564523515 -0.09889433949440471 0.03592983761597267 -0.0827051732262055 0.03029307636789468 -0.011172015116476405
-0.1439662345696622 -0.04971575613158604

linear_layers.1.layer.weight f8 [50, 50]
00000000: c452 33e4 11e0 c7bf edc4 4724 7104 e7bf
00000010: 4b1c c9fc b0c1 ddbf a231 6a14 480b e23f
00000020: 87dc d180 fe55 ec3f c822 e0f5 146c d8bf
00000030: 4d11 cd9a c35c e83f 7b83 85ed 3d6e 9f3f
00000040: c48b 55ac f466 8dbf 0f78 fe83 5475 ea3f
00000050: ba13 75a4 90ca a53f cd6b 6933 06ff be3f
00000060: eb59 1967 aff3 c33f 8128 dd54 f497 b23f
00000070: af5d 460d cb55 c33f 0158 4e34 d506 a53f
00000080: 1084 ebba 50a4 bd3f b4ed 73f6 7077 c1bf
00000090: 74b6 68aa eb21 b53f 5caf ded6 f35b b5bf
000000a0: 9535 7645 bcd0 c43f 1759 3ab0 6e17 babf
000000b0: a575 68af 0a9a 91bf 6a1e 52a7 d74d 9a3f
000000c0: a584 1693 8515 cabf 26ef eba2 b388 ad3f
000000d0: c563 03ad 03d9 da3f c08f 2811 8ca1 e6bf
000000e0: 3d25 27e8 e822 d9bf ea4a 52db 4542 b43f
000000f0: bffe 9a48 cbfc babf 4b02 36b7 8cdc b13f
00000100: bb30 5662 d2bc c43f c60f 3cd7 adb0 de3f
00000110: 79e7 ee96 015c a93f b920 2924 7853 d2bf
00000120: b968 ba70 72da debf fab1 daf1 b9ff d3bf
00000130: 4f01 c046 9d23 98bf 33fd dbf4 557e b4bf
00000140: df37 bc1d 3e8c a2bf 0e0f 5c76 5e5d c93f
00000150: 03de eddd 76ee d23f 130d 1d28 acf3 a63f
00000160: da30 02fc 5894 cb3f 2da4 ceb4 28be b0bf
00000170: fc91 97dc 3bad d33f fdea 2a0d 4963 c0bf
00000180: f8ba 6d93 9955 a13f 2127 cad1 3e8f b63f
00000190: b763 a68e c2d6 c03f 8826 9964 fd83 bd3f
000001a0: a29a 377b ff2e c13f 7369 263f b62c acbf
000001b0: 31fa 73a6 a18d 9bbf dca8 d347 9e54 c23f
000001c0: cfd6 7eb6 2df0 c4bf 49b9 5e70 c419 b93f
000001d0: abb6 9177 d494 cdbf 24ab ec5d 319c cdbf
000001e0: 6f9e 1bc1 0431 8f3f e4a5 bf77 5cc2 873f
000001f0: 0e4b aaea fdaa c2bf c41e 5b65 9a30 c4bf
00000200: 6ec5 8e90 050f af3f ee6c a49f 8680 b73f
00000210: ea5f af60 8328 cebf 022b 9fb4 943a c93f
00000220: 53c2 fafc 2ff3 90bf 9700 798a aee3 c93f
00000230: 1d0b fa8c ae8f b5bf aace 7be1 0e48 b3bf
00000240: 9e69 6e40 d237 c53f 938d d80b dc93 ab3f
00000250: d2bc 6068 016a c83f b559 d313 edc8 b3bf
00000260: b955 c3fa 8018 90bf fd7f 81da b6d8 a63f
00000270: 6a7c 1d55 26a9 c13f 3385 fd44 6364 c1bf
00000280: 89fe 943b ff58 c43f 2e87 8a5f c1f2 bc3f
00000290: def8 96c5 4911 b9bf 52df a89f 5ed9 b0bf
000002a0: 2307 bd5a 8a2c b0bf de66 9dd2 d77a a43f
000002b0: 4f25 8736 7ae7 ac3f 7721 e01d ae58 b93f
000002c0: 95bb 1794 a537 9a3f 198f 37ca aed7 9c3f
000002d0: 57f2 7494 8640 c83f 9062 cf51 bf9d c5bf
000002e0: abfc 9b83 89c4 953f 4afa 99d8 00af b8bf
000002f0: e230 d99a 7c56 b9bf 8041 e1b4 4d63 b3bf
00000300: bb1c af38 59c9 9dbf c635 20d4 58eb bb3f
00000310: bdcd 7c82 a6a1 d1bf 78fc 9b61 95ca afbf
00000320: 857f aa1d 1f1f c83f 0415 4340 b652 8e3f
00000330: 85c2 4ad0 7b12 bdbf 2ef3 cd85 316b b13f
00000340: 8055 475c 4103 b33f 2e0b e31a b843 b43f
00000350: 2d53 6cee 0c0b c53f 9524 d8d2 eafe c93f
00000360: 3013 1beb ae57 9bbf be07 7c64 7c22 b03f
00000370: a347 95b0 cbbe d13f 891a 225f e31d b8bf
00000380: 0c34 a615 b101 5fbf 585e 8c08 172d c0bf
00000390: 7028 e9ed b8d1 cbbf d09b 1724 6d2f 82bf
000003a0: 3e67 ea77 50a9 9abf 18d4 e6b8 a2b8 a7bf
000003b0: b97d 5bab 37ca bf3f f25b 2f1e 8fb0 d23f
000003c0: b0b6 ec44 d912 d4bf 28ca 55f9 0f90 c6bf
000003d0: 43bc 4b55 543d 72bf 873c fdf0 bf93 c8bf
000003e0: 69c2 786a ab38 a93f 8ec4 c176 f4b5 b6bf
000003f0: f283 fa54 1db8 51bf 7d1b a469 89b1 a5bf
00000400: ab1b e99a 7883 a3bf 0690 3b48 3fca 9d3f
00000410: 7202 0530 9e4d a33f d99e 8e1f 6de7 da3f
00000420: e426 6df5 4878 c1bf 95b3 0525 5726 93bf
00000430: 26a3 e92d ac1a d13f 4dc3 0510 5047 b2bf
00000440: 6832 73fc e397 c1bf 7d2a 34dd f3a2 903f
00000450: 51e9 004e 4438 c7bf c97c d94c f420 afbf
00000460: 7b0c af84 5a91 d43f 316b 0cd8 25be b73f
00000470: 92f3 641b 3cee b0bf 8f5b ea7b 46c1 d9bf
00000480: ca4f 9f0e ea2c d5bf c3df 7901 53ba cabf
00000490: 859c ec14 83db b1bf f3aa d7fe 3251 bf3f
000004a0: 3b7f 2ed6 078f c6bf 5d51 9c1d e646 d1bf
000004b0: a0bb 5b5a d3ab c73f b933 139e 9fdd e33f
000004c0: 98bb 0c22 6f83 c93f baf1 33be b832 a4bf
000004d0: 7bfd 1ff5 9ee7 eabf f5fd 10be 967f 58bf
000004e0: 6906 6f3d 2f4b dcbf 535e 0495 d3ba 84bf
000004f0: afe3 24a2 619d ccbf 3411 846c caa2 e4bf
00000500: 3697 f37f 8059 b33f d993 8d2b c701 babf
00000510: 1851 3598 7135 c5bf 7af1 4f0f 7384 abbf
00000520: 352e d962 7839 ccbf a786 1697 39f9 933f
00000530: 1f63 e22c 64d2 c7bf 117f 72a1 7344 d13f
00000540: 5400 4d3b 4aa9 a33f c613 5f8f c545 cd3f
00000550: 621f a974 abe2 a3bf 760e ab63 af80 d43f
00000560: 592a 8b7f 5982 ac3f 0f88 0108 db42 cabf
00000570: 1571 c976 41ae d23f 8f76 ace0 a54b d5bf
00000580: 0ff7 cf0b 4a15 b9bf 6676 453e 7b08 d63f
00000590: 9e6f 998d 1035 d03f f2e3 621a 2ff6 d3bf
000005a0: e8dd a852 8b1b a33f b121 c32b 3f09 ab3f
000005b0: 57f7 4251 e4f6 adbf 4c39 8e35 dee9 adbf
000005c0: 5f15 c527 27b2 333f 0a72 3949 295c b33f
000005d0: fd11 8909 62b2 df3f 0a75 c165 a5fa e03f
000005e0: ce08 5084 9d98 b9bf aa99 a68a 9a12 cf3f
000005f0: 425e 5cc3 cda2 c93f afe2 5729 ab5d c1bf
00000600: f3a4 8936 d9b3 c8bf aac1 0a35 8eac 8bbf
00000610: 32e6 166c 109c b4bf 3dab 68c2 0f36 c9bf
00000620: 911a 5c0c a2b4 d7bf 3da8 84af 0e04 b63f
00000630: 579b 4871 f33d a1bf 953b a089 b96f c6bf
00000640: a558 6316 253d cd3f bb45 48c4 4109 c0bf
00000650: b0d5 0512 541e 983f 199f dd9b cb39 b23f
00000660: 3e4c 5eb9 1919 c23f 96e5 03d0 a812 a23f
00000670: fbe1 e810 65c2 c63f 8f1f 08f0 1f60 c63f
00000680: 9cc5 4a77 2b36 b3bf 7d18 d645 71eb bc3f
00000690: 8bed edec 9671 d23f def2 7ec3 ad30 c0bf
000006a0: f3ed cf7b b1e2 993f a071 681e 98a3 dcbf
000006b0: c9a7 b539 3b1f c5bf 092a c2b0 89a1 d73f
000006c0: 6b12 c10f e685 adbf 1df5 fe7d bb2b b6bf
000006d0: 8209 88e3 81dd c23f 6c63 7881 503f c13f
000006e0: 48a2 7f3a e8ab ddbf 0667 5d78 5585 a3bf
000006f0: 8e12 11f7 0301 b4bf 9f89 bbbb 5c98 d6bf
00000700: e31b 04c1 c946 b3bf 8e11 1914 c772 783f
00000710: 2fb8 c0e4 f496 9a3f 7b5a c198 883e c0bf
00000720: 4b4b 952b 8993 a3bf 24ce 4cf3 2a44 afbf
00000730: 70c8 e8b1 7417 b83f 89c0 54bf 887d c83f
00000740: fcfe 8ba6 09ad b23f 89c2 91f8 0eab b3bf
00000750: 81a1 9c78 ae0d b33f 9542 125a 641c 97bf
00000760: f701 6142 751a 80bf 49ad e518 b9a0 b1bf
00000770: 0f81 90cc 9b6b c4bf cfe9 1d5c 6ce2 913f
00000780: c0bf 0170 f0a6 ce3f d202 1aba 9e24 b5bf
00000790: 45b9 771b b9c2 ab3f 72f2 70ad 7e03 d9bf
000007a0: 23f4 4319 fcad d6bf 3dca 7e2d a34b c6bf
000007b0: 4ce1 50f1 6d38 ac3f b437 68ff 8e3e babf
000007c0: 77df 9a07 bbb6 bcbf 3899 af8d 6ae1 ccbf
000007d0: dd05 faf5 f391 c83f 46a5 4563 fb87 b3bf
000007e0: 8a5d b41a 36bb b23f 4832 d5f8 2ff9 bbbf
000007f0: aebc ff72 5b16 b63f c9c8 fd81 dc47 9cbf
-0.18652557032205241 -0.7192922314262923 -0.4649469822510965 0.5638771437384558 0.8854973331462056 -0.38159679423601434 0.7613237403352656 0.030693976995624688
-0.014356528767796813 0.8268225267418091 0.04256107337508959 0.12107886080904891 0.15587418111927262 0.07263114044067899 0.15105569980799546 0.041067755351079434
0.11578850329853219 -0.13645755800085413 0.08254883680702979 -0.08343433376165649 0.16262009994208584 -0.10192004969062328 -0.0171891851006102 0.02568757017846083
-0.20378179246930475 0.057683576238529974 0.41949550529312446 -0.7072201094747399 -0.39275572463209923 0.07913624386337018 -0.10541983149141297 0.0697715709011472
0.16201238442989116 0.479533634367041 0.04953007667013671 -0.286344561875477 -0.4820829487667982 -0.31248329752523285 -0.02357335800479748 -0.08005273082743684
-0.03622621643999912 0.19816189555432867 0.29580470726747893 0.044827823540368204 0.21546470933060996 -0.06540159620512105 0.30744835416979277 -0.1280299486441762
0.03385620045343346 0.08812325116937504 0.1315539547474864 0.11529525476466962 0.13424676434006694 -0.05502862473368255 -0.026907468590247233 0.143207345077207
-0.16357966814910305 0.09804942840012133 -0.23110442961062935 -0.23132912717968523 0.015230214255509382 0.011601183323324223 -0.14584325750600907 -0.15773324917812748
0.06066148175831186 0.09180489919201637 -0.2356113645644194 0.19710024661466014 -0.01655268651546955 0.2022607971321164 -0.08422366086783169 -0.07531826977702374
0.16576603075084234 0.0538624538860645 0.19073503109527806 -0.07728463872931608 -0.015718474679337045 0.04462214867885448 0.13797454029097206 -0.13587609165828382
0.1589659729888704 0.11307915289446832 -0.09792004655807626 -0.06581679723683223 -0.06317963328640679 0.0399997181509215 0.05645353236793459 0.09900940160162529
0.025602900661336376 0.028166514484737257 0.18946916817539503 -0.1688765668357246 0.02125754228381697 -0.09642033851739842 -0.09897593288878029 -0.07573400178922007
-0.0290883961531818 0.10905986002781906 -0.27549135916634865 -0.0620924646045688 0.18844975422416269 0.014806197963830765 -0.11356328807119993 0.06804189221106746
0.074268422154395 0.07915831238191792 0.16439973489527784 0.20309195799953686 -0.02670167264911355 0.06302621319994636 0.2772702431149076 -0.09420605728710475
-0.0018924931851842545 -0.12637603680990384 -0.2173377191232393 -0.00887952104944914 -0.02603650791079492 -0.04633053309536467 0.12417934354333839 0.2920263094687804
-0.31365043383525926 -0.1762714354950543 -0.004453019548903705 -0.19200896517802254 0.049260479685817433 -0.08871391200388443 -0.0010814939923096093 -0.04237012304843455
-0.038112419996245116 0.029091824325306014 0.037701552736057034 0.42037513810872223 -0.13648330672940923 -0.018700944552097438 0.26725296481758887 -0.07140064612555115
-0.13744783236178937 0.016246614814955585 -0.18140462692992768 -0.060798296338128895 0.32137167889977264 0.09274517559644548 -0.06613517445380371 -0.40242158986205195
-0.3308663504405983 -0.20881116458963164 -0.06975573788496277 0.12233275148143345 -0.17623994787299488 -0.26995232478772896 0.18493120109584726 0.6208036506083011
0.1993235508211597 -0.03944947549641449 -0.8407740390393167 -0.0014952632993895352 -0.44208889960655157 -0.01012196825517645 -0.22355289857094138 -0.6448719138575485
0.07558444141212992 -0.1015896302538545 -0.16569347316784255 -0.0537448841277834 -0.22050385309772627 0.01950540527980729 -0.18610813323609762 0.2698029591210665
0.038400954951158056 0.22869176388317508 -0.03883872794227618 0.32035431607457754 0.05568198854378598 -0.20516527071873766 0.29188572502404614 -0.33274218502797565
-0.09798109806430609 0.3442676647299322 0.2532388098531956 -0.31190087868486593 0.03731952079800377 0.052804922191686095 -0.05852426044428565 -0.05842489627603928
0.0003005357355230966 0.07562501943306912 0.49526263171381385 0.5305964457908499 -0.09998497467316556 0.24275523920114256 0.2002808765325757 -0.13567103880611373
-0.19298854029629062 -0.0135127172410144 -0.08050634993460262 -0.19696232788677462 -0.37039996344575693 0.0859994104872905 -0.033675773218695575 -0.17528456897749992
0.2284284934345965 -0.12528249820802081 0.02355319366457359 0.07119438700976523 0.14139100600422866 0.03529861010788264 0.17780745816868646 0.17480849476146118
-0.0750453153839516 0.1129675670145804 0.2881829561008195 -0.12648555799196165 0.025278828794382546 -0.4474849984124152 -0.16501560514308114 0.3692344881207253
-0.0576621908408342 -0.08660480333397343 0.14738486871653939 0.1347447044543303 -0.46361737931014035 -0.03812663168237233 -0.07814049512769314 -0.35304945309885655
-0.07529889070802613 0.005968835497302994 0.02596647878834107 -0.12690837343935243 -0.038234983988010805 -0.061066953849515465 0.09410790770997024 0.19133099882447294
0.07295284572682798 -0.07682889526928184 0.07442751354813561 -0.02256924438239823 -0.007862964714264271 -0.06885868890610881 -0.15953395355700947 0.01746529876934649
0.23946958035548782 -0.08259002727028111 0.05421999416636195 -0.3908383077394212 -0.35436918704346193 -0.17418327065895936 0.055118022639762815 -0.10251706824803258
-0.1121632474486186 -0.22562915724047072 0.19195413122729024 -0.07629367040285215 0.07316911842314347 -0.10927104783076758 0.08627864415733441 -0.027617879327814152

linear_layers.1.layer.bias f8 [50]
00000000: 0cc3 b307 5028 c7bf 2bf2 3474 cf6a b73f
00000010: 551a 8c67 5821 8ebf 0362 4bce 5f5f b43f
00000020: fc0b d120 24e5 b53f 9f8c 43cf 0b71 b4bf
00000030: b8d9 6b57 7386 b83f 03c2 c927 4b03 ae3f
00000040: 7ac3 2500 00b2 a83f eaf2 5df7 1b01 bb3f
00000050: 1906 5510 f2c1 c23f 06d9 c40b a81f b33f
00000060: 1c78 db75 e072 78bf 373c 2169 aa13 a53f
00000070: b7d3 6b83 7739 b4bf 57ae fa8c 5d59 b23f
00000080: 9f6c bfe7 816d bdbf 9b74 0899 3081 a7bf
00000090: d6ad b764 1b85 963f 356e 505a 3bf3 8bbf
000000a0: 835b edb6 091b bc3f ae02 e230 c32b b1bf
000000b0: 1800 f07c 5646 9e3f 487c e756 2fdb acbf
000000c0: d3e1 2404 3573 c73f a5d8 6583 544b c33f
000000d0: 699d a0f8 0ae5 70bf 47d7 103e 59af d13f
000000e0: dddb 6175 b735 a53f 26d1 7b27 5822 c33f
000000f0: d50c b40f b313 ac3f ab5e e3c4 7d82 b63f
00000100: 9e91 efe4 ad67 c1bf e068 e4f9 c188 ba3f
00000110: 39b0 e730 9c5e 953f 225b 3182 52cf c33f
00000120: a785 60ab 581d c13f cd42 4329 5786 933f
00000130: e8d1 4b05 851f 7a3f 8fa7 6b49 a569 c1bf
00000140: 13e0 92f1 aae9 943f d724 37ad fbbd a03f
00000150: 0bc6 be9e 9431 97bf 9bf2 d42f d68b c33f
00000160: 0e91 28d8 947b 8ebf d355 a0e6 3083 c2bf
00000170: 4047 22b1 6af5 823f d034 b7f3 9604 af3f
00000180: 0e51 e14a 3230 aa3f ae95 73b6 da24 c33f
-0.18091774345477807 0.09147354685860225 -0.01471203866959773 0.07958029543386407 0.08552766610323198 -0.079849947072534 0.0958015526228796 0.05861887798971923
0.04823303224373539 0.10548567570908643 0.1465437488314343 0.07470178878142883 -0.005968930052146628 0.041165662129622076 -0.07900187452817319 0.07167610828280978
-0.1149522009649666 -0.04590751522139521 0.02199213793021023 -0.013647521680517286 0.10978756633754298 -0.06707401221684492 0.02956519258077614 -0.056359748228481055
0.18320334150645454 0.15073639312658318 -0.004124682289364892 0.2763274294005566 0.0414254504002469 0.14948560645974246 0.05483779493990829 0.0879286390003197
-0.13597654036051393 0.1036492571915093 0.02086872147076255 0.15476447445936353 0.13370807998675824 0.01906715573642508 0.00637771569448773 -0.1360365494249973
0.020422621721735434 0.03269945611425278 -0.022650072278059635 0.15270497642076894 -0.014884150358803552 -0.14462863217401764 0.009257157831857321 0.06058189129871894
0.051148959770815336 0.14956220539822368
