3_Heat2d_MS/logs/models/2023-12-21-15-53-51_2d_heat_rbf128_50X5/epoch_22000.pt (torch, 441211 bytes, 14 tensors)

rbf_layers.0.centres f8 [128, 3]
000000 9c 0c 08 dc 78 1e e2 bf 27 54 f8 93 44 9a c8 3f
       -0.5662197396744832 0.192207882166856
000010 67 50 5a 09 f0 e5 e3 3f df 1f 9a 91 48 f5 fa 3f
       0.6218185599013965 1.6848836600856811
000020 32 54 52 9f 49 c2 a3 3f f8 da 4c 99 83 a3 e9 bf
       0.038591671656071816 -0.8012102121491287
000030 8b 6c ae 98 47 47 db bf 5f bf 2a e7 d2 cb e7 bf
       -0.42622556600844835 -0.7436308398227814
000040 7e 68 15 33 7d e0 ec 3f 33 4a a1 dc ca aa b9 bf
       0.902403449795443 -0.10026233564830349
000050 56 35 bc 92 67 2e f4 bf 1d 5b 00 40 19 7b d2 bf
       -1.2613292438357653 -0.2887633442891671
000060 94 53 2f 08 81 8c f1 bf d8 c4 bb 60 61 dc e0 bf
       -1.0968027419778297 -0.5269019021344787
000070 65 50 52 0b 4a 96 e3 3f 7e 01 2f 14 39 da e6 3f
       0.6120958539127171 0.714138545437933
000080 2b 53 30 23 70 39 f4 3f 95 be f5 5a 06 24 f2 3f
       1.2640229582368174 1.1337951233980779
000090 ab b5 98 d4 ff 91 f8 bf 56 f3 a7 25 22 12 d8 bf
       -1.5356443695594446 -0.3761067741141252
0000a0 45 41 0a 2c 28 4f e0 3f 62 a7 4c 35 9c 63 ef bf
       0.5096627102048293 -0.9809094468121027
0000b0 56 39 dc 2b 50 7c e0 3f 43 5a b6 0d ff 15 a3 bf
       0.5151749474187379 -0.03727719347368865
0000c0 e1 a5 16 b2 2b 1d e0 3f cd 94 20 fe 4d 8d 87 3f
       0.5035608747759249 0.011499985998009521
0000d0 21 77 c8 28 17 6d 6e bf bf e6 f8 aa 29 d9 f9 3f
       -0.0037141277628184454 1.6155182531933148
0000e0 08 b1 79 c8 58 53 ea bf de 35 9a fb cf 60 d1 3f
       -0.8226741710218741 0.2715339619688545
0000f0 ec 3f 91 87 5c f5 e1 bf 33 4f f0 21 ee 4a ed 3f
       -0.5612013480949805 0.9153967535844231
000100 34 c9 9d 90 b2 a4 ff bf 56 2d 05 c7 53 df f0 bf
       -1.977709355266211 -1.0545232557513677
000110 03 13 3b 77 d5 78 eb 3f 2b 8d 24 b8 71 8a f8 3f
       0.8585002258992919 1.5337998574330622
000120 c5 04 1f 7d 23 61 aa bf c3 c1 7c 4e 1f 37 d1 bf
       -0.05152235891683569 -0.26898939766672586
000130 6f 2e 98 76 14 34 e8 bf a8 8d 29 15 8d 5e c8 3f
       -0.756357413892557 0.1903854707080488
000140 52 21 b0 a3 af d7 cb bf 21 97 11 a1 71 0d f2 3f
       -0.2175197171457151 1.1282821933504652
000150 3a 24 de 46 eb 81 d1 3f 8e c5 9c cc 4d a8 02 40
       0.2735546295230652 2.3321796403258253
000160 8b 47 e7 98 79 bf 95 3f 15 ec 57 56 ca 0e e3 3f
       0.02123823161839015 0.595555466308158
000170 5a 63 ff 72 f6 bc f4 bf 9d b9 89 32 e3 aa e8 bf
       -1.2961334697813158 -0.7708602892942512
000180 31 e8 80 4b 55 67 f7 3f 52 39 32 ba a4 e2 79 3f
       1.4627278279645106 0.006319659677627891
000190 76 40 99 70 37 8d ed bf 46 d9 6e 20 fa 23 fb 3f
       -0.9234883498375115 1.6962834612764524
0001a0 2a f3 e2 cd 42 1c c8 3f 3f a1 2c 7d d8 e8 f1 3f
       0.18836245587399364 1.119347084963081
0001b0 ad 59 1e 71 63 4e f7 3f ed cf d2 b7 cb 3b db 3f
       1.4566378039067829 0.4255246443892691
0001c0 d1 01 81 9a 6f 20 c1 bf c1 d6 33 30 80 ec ea bf
       -0.13380236667764092 -0.8413697186903947
0001d0 f5 51 69 d6 57 bc df bf 4f ac 86 28 45 67 e6 bf
       -0.49587055147756526 -0.7001062194370976
0001e0 11 f7 8e 7c 55 77 c8 3f cd 85 14 7e bd 75 fc bf
       0.19114178258853845 -1.7787451672560224
0001f0 aa ff 7d b1 fe f8 db 3f 81 5b 0f b2 8f 00 c6 3f
       0.43707244237156806 0.17189212984404992
000200 9f 71 6a d5 e3 ff 02 40 61 1b 10 ab c9 3c dd bf
       2.374946276961239 -0.4568351908241564
000210 b4 c9 25 30 2a cd 01 c0 ed 64 1f 02 7d 9a e0 3f
       -2.2251781236202195 0.5188584367234889
000220 2a 11 a1 2e 3b f8 f6 bf 8a 13 25 a2 05 d4 f0 bf
       -1.4356033154918557 -1.051763184908142
000230 f1 02 8a f1 1f bc d6 3f 91 e5 d6 6f fd 65 c5 bf
       0.3552322253017755 -0.16717498742017914
000240 2d 65 78 b9 eb cf f7 bf b8 6c 0d ad 7d a3 e1 3f
       -1.4882619137700417 0.5512073879175636
000250 87 6b ce ef 68 38 e5 3f 9d 84 c8 72 5a 0c cc 3f
       0.6631359752385472 0.21912699322368648
000260 b5 d4 a3 ac a7 d5 e4 bf 27 d2 2e 8c 7f ca ee 3f
       -0.6510809299349122 0.9622190225550796
000270 5a a6 76 d9 c3 65 f2 bf 2b cd 27 65 1e e8 fb bf
       -1.149844979731276 -1.7441696120629995
000280 ce 7e 6f 33 4b 53 e4 3f b9 f3 a9 89 cf ba ee bf
       0.6351676945305031 -0.9603040398356973
000290 42 78 1d bb 71 a5 f3 bf 69 63 20 e9 ce d4 e0 3f
       -1.2278916653808811 0.5259775689365657
0002a0 ec 9b 41 1b 9a b2 e3 3f 92 fa 1e 68 92 56 fe bf
       0.6155519993161511 -1.896135718081187
0002b0 27 fd ba 81 ee 72 d6 bf 37 8c 02 eb 2c d2 d3 3f
       -0.35076487225519987 0.30970309210005403
0002c0 20 4b 57 ca 0c e2 f6 bf c9 fc 07 f2 d7 8d f4 bf
       -1.4301879791207242 -1.2846297697395122
0002d0 1b a8 bb a2 25 20 cf 3f 61 98 39 d5 26 75 ec 3f
       0.2431685490221874 0.889300743536989
0002e0 b8 ec 23 ef a2 89 00 c0 07 8a 3f c2 44 75 e0 bf
       -2.067205303462824 -0.5143150133047251
0002f0 c5 03 f6 a3 16 82 00 c0 c1 ec 3f d1 df 9f ff 3f
       -2.06351974577453 1.9765318082634595
000300 76 47 9f bc 39 3a e9 3f 26 af 2b 97 0e 98 f4 bf
       0.7883576091792139 -1.2871232895949531
000310 a8 8b 8d f3 44 87 e3 bf e5 ca a3 09 fd a0 ed bf
       -0.6102623707669084 -0.9259019077565794
000320 3f ab 52 ba 33 da c2 3f 17 27 32 f5 3c 39 b0 bf
       0.14728399846839044 -0.06337338434437033
000330 92 cc ef a1 9c 04 04 40 e5 12 e7 0e d7 0c c6 bf
       2.5022518779092673 -0.17226684787433225
000340 c6 50 5c 9b 51 bd 8a 3f 1b 70 3e 1a 73 f1 ea 3f
       0.013056409410218694 0.8419738304687628
000350 37 5c 09 4d 88 dd 01 c0 6a 6c e0 03 80 09 02 40
       -2.2331701296311866 2.254638700758325
000360 f5 d2 d7 ed 49 cd d5 bf 9c c4 33 fb 3b 53 f4 3f
       -0.3406548330961379 1.2703208744608565
000370 d8 da 10 77 f0 94 f2 3f 22 31 94 e4 65 81 e9 bf
       1.1613621378907535 -0.7970456566268107
000380 58 70 ba 3f 49 77 dc 3f 6a b3 b8 75 8e 96 02 c0
       0.4447806475016072 -2.323513908099291
000390 8a a3 cb 74 bf c2 d1 3f 3c 56 c3 c5 4f d3 ec 3f
       0.2775114670353608 0.9007948744353551
0003a0 46 48 8d 34 d1 fa e0 bf 27 12 03 d8 a9 0d 02 40
       -0.5306173349765764 2.2566716075837294
0003b0 13 33 ef 77 6e ec fd bf 63 31 48 c2 91 fd f4 bf
       -1.8702225384651612 -1.311906584657742
0003c0 50 2f bf 59 53 2f eb 3f d0 1c 3c d3 78 d3 00 40
       0.8495270493381017 2.103257799407949
0003d0 a1 e9 88 e0 53 4d e5 bf 9d 9a 75 d6 e4 a7 e0 3f
       -0.6656894097753147 0.5204948605213137
0003e0 5b 1e fe 70 54 d7 fc 3f ae d9 af 34 4e 76 e5 3f
       1.8025707639480035 0.670691588310367
0003f0 1d ca 40 9c 8c 8d e3 3f 48 2c 8c 1c 89 5d 01 c0
       0.6110289623086974 -2.1706716757085225
000400 4a 39 e7 8a 8a 8c d5 bf eb 47 9b 66 08 77 f2 bf
       -0.33670295300261854 -1.1540607460087766
000410 d6 a8 f1 49 f7 75 f2 bf 14 7e 59 b5 da c5 a8 bf
       -1.153800286143953 -0.04838450874080649
000420 1b 49 73 4d a9 42 e9 3f 92 7c 10 9c b5 5c 00 c0
       0.7893873703672257 -2.0452682678729355
000430 5a c7 dc f1 29 04 e6 bf 2e cb e8 33 ce 3a f1 bf
       -0.6880082820773439 -1.0768568065365787
000440 8e 5c 95 c8 52 a6 e0 3f 14 b7 69 ea 97 22 e2 bf
       0.5203031461377507 -0.5667228296640325
000450 15 ff 6c 7e e5 d4 fe 3f fe 90 15 fa 96 4c eb bf
       1.9269766748911412 -0.8530993351419338
000460 d2 c5 c8 d8 30 4d f7 3f 64 c1 0c cc 19 a8 eb bf
       1.4563454120765198 -0.8642701135013735
000470 c5 08 c9 38 28 70 df 3f ef 19 ff fb 51 72 c3 bf
       0.4912205271285866 -0.1519262772037133
000480 6f 4d e2 05 da 39 f4 bf 05 19 ad 93 71 1c e2 3f
       -1.2641239385455625 0.5659721264171657
000490 c2 c3 e4 4c 52 d9 f0 bf c2 98 ca 3d 09 7e f4 bf
       -1.0530570033699722 -1.280770532009726
0004a0 1c 9d f5 b4 57 35 e1 3f 85 41 7d 89 dd d3 63 3f
       0.5377615484584655 0.0024203612228250204
0004b0 8d 20 21 37 ae 80 f2 3f ff 23 23 62 13 a7 fc 3f
       1.1564161447040846 1.7907899697768241
0004c0 15 dc ed ca c2 e8 e8 bf 79 bd a5 ed 25 bf 03 c0
       -0.7784131968936686 -2.468334061260688
0004d0 67 d4 ce dc e2 9e e7 bf 80 c1 6f a5 c0 8c 69 bf
       -0.7381452858595708 -0.0031188738462263887
0004e0 d9 65 89 1f f0 8e f3 bf 37 cb 0f e8 40 a1 c6 bf
       -1.2223969680693385 -0.17679606753480367
0004f0 d0 f1 db f2 ab 4f f2 bf d9 6e 84 84 bc 7e d8 3f
       -1.1444510924039726 0.3827353757967394
000500 50 8b 4a bd 42 21 db 3f 54 49 ff 07 29 7d de bf
       0.4239050720736275 -0.47638917714097784
000510 88 75 a0 1c 70 63 e5 bf 66 04 24 54 66 32 e4 bf
       -0.6683884200207766 -0.6311523097393887
000520 de d6 85 ea 91 13 ef bf 9c 64 e6 6e e8 27 ea bf
       -0.9711389141582136 -0.8173715749754993
000530 8f 8a 37 26 fb 45 ed bf 03 0d e4 05 67 a8 c0 bf
       -0.9147926088738404 -0.1301392344249522
000540 a3 de 38 59 9a 46 eb bf 9b e3 0a 5e e7 42 d0 3f
       -0.8523685209865629 0.25408348258820873
000550 5c b1 6e 67 16 7f e3 3f b1 2c 1c a4 bc 84 f5 bf
       0.609263612762827 -1.3449064646290874
000560 c2 3c c2 38 df 24 fd bf 0f 1a 3d b1 81 c6 f3 bf
       -1.8215019433153405 -1.2359635280023473
000570 f1 41 f5 a4 c5 a0 ed bf d2 96 fe 3b e6 19 e5 3f
       -0.9258754941784543 0.6594115421073303
000580 48 53 ad 2a b5 a8 f3 3f 92 f4 af 31 89 82 f3 bf
       1.2286883990356774 -1.2193691197310597
000590 8f d9 8b 14 73 ad e0 3f 77 1c a7 05 f4 88 e0 bf
       0.5211730386061378 -0.5167179212957212
0005a0 56 80 8a 47 e8 68 fc 3f dc bc d9 ac f3 f1 c5 bf
       1.7756121439524768 -0.17144628467528988
0005b0 44 77 34 3b 38 fc f3 bf a8 a1 11 b8 66 d2 f0 bf
       -1.2490770638173254 -1.05136749174026
0005c0 96 6e 95 d6 a3 ef ed 3f 1f 6c 97 da 80 e8 d0 bf
       0.9355029288376098 -0.26419087740731756
0005d0 fc 67 d8 97 98 75 e1 bf 66 98 bb 4e 6e 45 e2 bf
       -0.5456049886445267 -0.5709754503011595
0005e0 b2 c1 71 48 e7 9b e7 bf d0 bd 13 b7 12 0b d5 3f
       -0.737781182759184 0.328800848757024
0005f0 31 9a 4b a8 d1 92 de bf cb 33 d2 b8 da 97 c1 bf
       -0.47771111903276436 -0.13744672798602972
000600 b2 c0 8c 67 d9 14 fa 3f 9f fc 01 46 6f a8 e1 3f
       1.6300901455797825 0.5518108718241769
000610 29 aa ae 23 60 e9 e4 bf ba 2b 00 af f5 ae c9 bf
       -0.6534882256431206 -0.20065184636072592
000620 b9 ca 6b 96 3c e9 f3 bf 8a d7 52 7c 3c 38 d7 bf
       -1.2444425464461075 -0.3628073896501226
000630 52 87 c8 80 94 d5 e1 3f 2b 60 45 6d 7c 38 fa 3f
       0.5573217883395307 1.6387905376814256
000640 20 1c 44 c0 87 2f dd bf fc 20 4d 00 46 a4 f1 bf
       -0.4560260179136453 -1.1026058208245209
000650 2c bb 26 62 1c 10 e1 3f 97 6f c7 07 1a 6c 87 bf
       0.5332166592614604 -0.01143665634383932
000660 68 38 4e 92 61 2c f5 3f 82 10 32 a0 10 ee f0 bf
       1.3233352389393307 -1.0581213243140444
000670 18 1a 63 f4 f0 b1 e7 3f 5b 28 76 aa df d6 d9 3f
       0.7404713414369466 0.4037398495353323
000680 bd e4 08 90 95 7c f8 3f 72 ab f3 fe dd 9b a1 3f
       1.530416071544365 0.03439229714589133
000690 4a c0 c9 c2 a0 4c da 3f 79 1e bc 21 d8 96 e1 3f
       0.41092700025820206 0.5496636065372079
0006a0 87 78 ee 38 18 40 cc 3f 9f 5e 2a 66 ad 4d f9 bf
       0.22070601253375718 -1.5814641943779078
0006b0 0f 6d 64 a3 a3 4a f6 3f 32 5f da eb 76 04 f2 bf
       1.3932224638472837 -1.1260899746902848
0006c0 a0 b8 64 70 10 1e ee bf 0e e2 69 26 c0 29 e0 3f
       -0.9411699481186311 0.5050965070977911
0006d0 2c 0c 51 52 f2 03 b8 bf 2d 63 29 77 82 1a d4 bf
       -0.09381021985704824 -0.3141180194557361
0006e0 8a b9 d0 fe b3 b0 05 c0 73 7f d3 91 e2 58 c2 3f
       -2.711280813927435 0.14333755608003748
0006f0 53 b5 db 53 21 e3 f8 3f 0b 0b 77 da cf 46 e0 3f
       1.5554517055237127 0.5086440340895434
000700 04 f5 93 4e a2 cc ea bf 7d 00 78 e4 d6 45 e3 3f
       -0.8374797377324801 0.6022753202705783
000710 af 55 15 de 25 fb fa 3f bb 3f 03 84 1c 35 f9 3f
       1.686315410149614 1.5754666477914572
000720 79 40 20 e8 4f 3a e2 bf d3 2f 5d b2 89 e4 e3 3f
       -0.5696181806288357 0.6216476901695337
000730 8e 54 01 de e5 86 f1 bf 73 7f 95 9f c5 6f 00 40
       -1.0954340622022616 2.054576155423939
000740 f7 c6 5b df a3 a5 e7 bf 37 4b 6e 09 7d ba e1 bf
       -0.7389697420569225 -0.5540147003360748
000750 cb 5d 7e ce 7a 67 f3 bf 84 89 4e 83 33 8b e0 3f
       -1.2127636018902759 0.516992336710516
000760 24 be a2 4a f1 c5 e0 bf 55 cb 4a 66 67 64 c6 3f
       -0.5241629083374773 0.174939084002825
000770 a9 c0 f5 2d d9 99 d6 bf 1a 6a 93 52 ab 95 fb 3f
       -0.35314015854147357 1.7240403390520727
000780 01 53 8a 74 3f 1e f2 bf 35 3c dd 4b 06 ba eb 3f
       -1.1323847343784907 0.8664580804560332
000790 da 6f 21 5a 30 63 d8 bf 57 93 67 b5 50 c9 e3 3f
       -0.3810540085012214 0.6183246176775395
0007a0 54 1f a6 5e bb ca e0 bf 11 5d 0f a1 6d 99 f1 3f
       -0.5247475479709274 1.0999580661207953
0007b0 1d e9 c9 4b 18 12 d8 3f 45 f9 b0 f3 2b 08 f1 bf
       0.376104425442138 -1.0644950408164544
0007c0 84 e6 19 7f 0c 87 d9 bf 7a d3 61 3b 7c 60 fd 3f
       -0.3988677254888915 1.8360559768309188
0007d0 7c 82 1f 64 04 17 e1 3f 64 74 35 33 22 26 be 3f
       0.534059711029911 0.11776937246527691
0007e0 d1 55 cb e9 46 6c d4 3f 45 e3 3b 4e 56 8d f9 3f
       0.3191087039134262 1.597006135560336
0007f0 3f 66 83 44 96 ef f6 3f d0 86 a1 ea 20 76 f8 3f
       1.4334929157543141 1.5288399853965764

rbf_layers.0.log_sigmas f8 [128]
000000 08 11 63 7f 6e 35 de bf 31 e6 65 bc bf d2 d6 bf
       -0.4720112079633201 -0.3566130962204595
000010 01 21 86 42 d1 53 df bf 4f 14 5e 0b c4 22 df bf
       -0.4894908094070303 -0.48649693594081084
000020 f8 d7 bd 49 9e 3e c2 bf d1 5d 64 fa 5f 1d df bf
       -0.14253595925009654 -0.4861679024920394
000030 12 9d 82 a8 2c 62 a8 3f 09 d1 9a d9 4d 3e bc bf
       0.047624011583417794 -0.1103256851445772
000040 ed b8 03 25 a2 6e d4 bf 30 39 d9 e1 09 a3 da bf
       -0.3192525254697916 -0.4162010865737953
000050 d9 04 04 ce 6b 50 d2 bf 1d ab e0 88 df ac b6 bf
       -0.28615851515503504 -0.08857533542383718
000060 17 f7 8c 30 e9 43 da bf 6c 7c 3d ce 27 17 d6 bf
       -0.41039495221399264 -0.3451632989944702
000070 a0 9c 94 f5 05 7c 9e bf 03 4c f6 fb 61 d9 d3 bf
       -0.029769986261410808 -0.31014299016641206
000080 04 0e 4a e3 c8 a3 e6 bf f4 a7 fd d9 5c d0 d4 bf
       -0.7074932517284087 -0.32521745002907143
000090 b2 c3 8a 8b e3 1a d7 bf 55 be ba a6 ba 07 d5 bf
       -0.361016165038616 -0.3285967472283791
0000a0 0f ac b0 0d 10 12 d4 bf e4 3d 12 26 a0 5c b2 bf
       -0.31360246025968846 -0.0717258542010693
0000b0 03 ef 71 ed 39 22 d0 3f 96 73 33 02 fb da b7 bf
       0.25208900630944714 -0.09318512729391978
0000c0 db 9e 75 65 cf a2 bc 3f e8 68 ce 79 d5 94 d5 bf
       0.11185928561246376 -0.3372090997232946
0000d0 50 3f 4f 80 f5 da b5 bf af 28 8b 95 10 64 cc bf
       -0.08537229902799237 -0.22180373479779322
0000e0 25 db de 4c 93 93 c4 bf fd 4f 18 32 dc 96 d1 bf
       -0.16075364354556956 -0.27483277217947927
0000f0 5f 85 9d d7 76 88 c8 bf 89 6c c8 12 3e 38 99 3f
       -0.19166455772487276 0.02462861051217805
000100 1b 70 6f fe 29 60 d6 bf c6 cf bd d1 b9 f4 c4 bf
       -0.3496193871230859 -0.16371844044954126
000110 e1 d0 b0 81 42 29 c7 3f 34 4c bc 11 2d 91 b2 3f
       0.18094664890816772 0.07252771075245407
000120 06 26 f6 0a 87 a4 d2 bf fd 7f 58 04 fb 09 d4 bf
       -0.2912919623418876 -0.31310916351685575
000130 92 ee 18 2c 7c 21 d3 bf f6 4e f6 1a 47 c8 c2 bf
       -0.29891876512895366 -0.14673699203978402
000140 1d 3b 25 37 81 43 c9 bf 14 7a 6a e5 14 a2 db bf
       -0.19737258141182049 -0.4317676773443122
000150 f8 a5 20 3b 14 0d b4 bf 00 4b 62 42 51 d7 c5 bf
       -0.07832457011740945 -0.17063346616176744
000160 14 a7 20 7c ec 8d b6 bf 0a 89 94 13 84 51 c2 bf
       -0.08810308485467672 -0.14311266857209431
000170 b8 cb ba f3 1f 48 c5 bf f5 6c 00 54 e6 b6 da bf
       -0.16626357460844843 -0.417413312943338
000180 ef 7e a6 00 10 96 af bf b3 65 ca 23 46 53 bc 3f
       -0.06169176109255924 0.11064566015047354
000190 4c 76 0e 2c ba 37 db bf 73 36 aa 9a bb 91 ce 3f
       -0.425276320480269 0.23882241298672433
0001a0 5f de 56 e9 95 f7 b4 bf 97 71 e3 1a f6 34 da bf
       -0.08190285631905557 -0.4094825041372813
0001b0 1a 84 ca 4f 61 67 e0 bf 89 10 e0 8a 46 2b d2 bf
       -0.5126196440143105 -0.28389133035694464
0001c0 7a a8 a0 c0 f3 09 d1 bf 91 2f 63 ba 9d 66 b3 bf
       -0.2662324315193768 -0.07578454781031342
0001d0 31 4b 93 0c fd 20 c2 bf 88 2d 0e 4e 15 1d 96 bf
       -0.1416317283061175 -0.02159531868850942
0001e0 5f 5f a7 f3 d2 1e d4 bf 62 b2 bf b3 06 4c bc bf
       -0.3143813495093947 -0.1105350674476511
0001f0 f7 06 ab 95 86 cc e3 bf 1b fe 8b d4 25 e6 ce bf
       -0.6187165187077132 -0.24139855268730134
000200 19 09 fc b3 b2 ea de bf 87 64 8a a1 62 b9 db bf
       -0.4830748326932209 -0.4331900193734061
000210 c5 25 f3 88 bf b3 e3 bf e9 c4 bf 1d 20 d7 60 bf
       -0.6156919169235883 -0.002055704810111626
000220 b0 06 a8 4c 84 4e e2 bf b5 fe 44 ca c5 92 c5 bf
       -0.5720845696634651 -0.16854164482537262
000230 a0 f3 fe ab c5 48 cf bf 9b df d9 e4 e2 8c ab 3f
       -0.244408329946876 0.053809252201005374
000240 ff 10 05 97 6a a8 d0 bf b2 2c c9 d7 cc ed b2 3f
       -0.26027931926752496 0.07394104259690229
000250 56 ca cd aa f6 82 db bf 62 bd 20 c6 60 ff d3 bf
       -0.4298683803564577 -0.31246203754832014
000260 fc b8 36 0f 5d 46 e2 bf 0b 2d a5 54 c6 10 d0 bf
       -0.5710892960685494 -0.251023848210665
000270 69 84 3f 8c bc 83 a3 bf 47 18 37 83 e2 5a d2 bf
       -0.03811444484723198 -0.28679716886506806
000280 46 9e 8f 3b 83 75 b2 bf f6 e5 ce b3 13 d0 db bf
       -0.0721056003964061 -0.43457500991243536
000290 69 64 22 a9 91 a9 de bf e5 b9 c0 75 02 33 1e bf
       -0.47909966961885303 -0.00011520102037885329
0002a0 b4 48 b8 42 1d 8f d3 bf 0c 93 74 60 fc 7f e0 bf
       -0.30561000362025514 -0.5156232723134919
0002b0 b2 49 7a 50 c4 f0 c6 bf c0 7b 26 b9 98 2c d1 bf
       -0.17922262124609528 -0.26834695893370153
0002c0 43 f3 cb 22 b9 c3 e3 bf 1e 55 f0 6d 59 f7 98 3f
       -0.617641990625636 0.02438106282723595
0002d0 fd 8c 0e 29 8d 0e c0 bf c0 78 b3 7b df 52 cf bf
       -0.12544407372215707 -0.24471658268061525
0002e0 61 a4 96 91 74 45 a0 bf 91 51 45 54 df ed d7 bf
       -0.031779902240778986 -0.3738935778576656
0002f0 ad 09 01 2f 73 6e d0 bf 9c c7 99 8a e7 db a3 3f
       -0.25674132910003317 0.03878711287406064
000300 5c 43 c6 ac 7a ba 97 bf 7e 18 3d 85 05 62 d1 3f
       -0.02317229918986939 0.2716077614935627
000310 0f 0e 0e b5 6d 2c cc bf 8b c5 20 2e a0 d0 8d 3f
       -0.22010585156031978 0.014558078201022414
000320 ac b5 ae 07 d8 77 db bf 8f 89 7f 4c 13 02 c6 bf
       -0.429189689161684 -0.17193833575499837
000330 04 94 62 36 7f 52 d4 bf 1e 7b 14 72 d2 80 c3 3f
       -0.3175352126220903 0.152368837073447
000340 c4 5a 66 7c 5f 12 aa bf 62 56 f6 3b b2 28 c4 bf
       -0.0509214248042347 -0.15749195030064117
000350 64 ba 51 56 76 13 e4 bf 73 22 1d 25 ac 2d bc 3f
       -0.6273757635043009 0.11007190614794542
000360 da 32 6e 2c 3d e1 cf bf de 51 7e ab 1c 9d c8 bf
       -0.2490612475343344 -0.19229467748358692
000370 ac 97 f9 6f 2f 8b dc bf a5 df b2 7a 4b aa cc bf
       -0.44599519667678567 -0.22394698611401256
000380 50 30 d8 2a 09 7d 74 bf c4 5d ec f7 22 dc d1 bf
       -0.005002055940632813 -0.27906107150326087
000390 5c 80 08 a5 9e d2 cb bf 1d 92 d1 12 e7 d7 d2 bf
       -0.2173651033235754 -0.29442765081174277
0003a0 d2 b8 fa 96 9d 98 9d bf ec ff 0b be 8b 87 cc bf
       -0.028902494754839143 -0.22288653163559446
0003b0 d6 57 8b ee 17 4e c1 bf da 29 55 2b 28 66 d2 bf
       -0.1351957239882597 -0.2874851630373577
0003c0 fb 1b 44 f2 9b 06 97 bf d8 ee 06 61 ef 39 e4 bf
       -0.022486149465319 -0.6320721526203341
0003d0 13 f6 a9 47 cb 49 d1 bf d2 7f e9 d8 3a ba d1 bf
       -0.27012903212002576 -0.2769915693552295
0003e0 97 b6 1e 7e f0 b2 db bf e0 f3 e4 ec 90 52 d1 bf
       -0.4327965957298629 -0.2706644357129431
0003f0 c2 93 07 1b a3 6e b5 bf c0 ec 84 8f f9 ad 62 bf
       -0.08371943864729217 -0.002280223296251188

linear_layers.0.layer.weight f8 [100, 134]
000000 bc dc e9 5f 61 ff a6 bf 78 63 6e dc 9a 73 c6 bf
       -0.044917147596544166 -0.17540298236124463
000010 4a cc 9f d4 86 22 c6 bf ff 8d 75 92 1c 99 89 3f
       -0.1729286707119136 0.012499068469600692
000020 fa e6 2b 66 14 2a c9 bf d9 0e b2 3a e2 42 b3 3f
       -0.19659667004435005 0.07523931439396438
000030 4f fd 87 4a d7 0e d2 bf 87 f0 20 28 ff 98 e0 bf
       -0.28215582159460423 -0.5186763557208146
000040 74 26 90 8b 47 98 d1 3f f3 7a 9b 36 de e7 ae 3f
       0.2749194014473695 0.06036276260942044
000050 5d a6 e9 f6 4b fd b7 bf 1a e6 cc e2 ff 28 b3 bf
       -0.0937087514700123 -0.0748443535529976
000060 cb 1b 72 47 b9 12 b8 3f 30 fb 9e 4c de 5f ac 3f
       0.09403570169716528 0.05541891751589956
000070 9a 63 c1 55 f0 f2 d2 3f 28 3a 0c f5 eb 2d d0 3f
       0.29607780813744855 0.25280283861585184
000080 35 09 15 2d 5b a6 c5 bf fb bb 4d 81 47 70 b1 3f
       -0.16913928700712125 0.06811949641063102
000090 2d 52 66 24 6a b5 cf bf 16 79 e0 0e 81 47 c8 bf
       -0.24772383477524454 -0.18968213297279907
0000a0 21 f0 5c 6e 43 5f c3 3f 9f 45 09 a5 9b 14 c4 3f
       0.15134470833606975 0.15687890585335837
0000b0 da ad 1f ab 10 a5 ae 3f f4 e1 95 d5 5d 04 d5 bf
       0.059853096856240476 -0.32839151246983467
0000c0 4e f8 dd 21 80 aa d8 bf 7a 28 ab b3 a9 58 be 3f
       -0.3854065256817919 0.11854038845481965
0000d0 32 21 6d 6b 8c bd cd bf ec 21 b5 7c 82 b0 c1 bf
       -0.23234706159042556 -0.13819914902911934
0000e0 a5 96 c4 36 43 6b cc 3f 69 1b b0 65 bb ae b5 bf
       0.22202339338507673 -0.08469744904151146
0000f0 d0 48 04 82 ca 59 b7 bf 3d 4d 76 f4 f9 99 c3 3f
       -0.09121385263668746 0.1531364864027668
000100 40 37 82 2f 5c 01 c1 3f 6d 63 3d 3d f8 a3 d4 bf
       0.13285400695570537 -0.32250791531037387
000110 71 7b 62 03 18 f7 d6 bf 3a d6 de e1 bf 5d bd 3f
       -0.3588314087918923 0.11471175445952833
000120 c5 01 1a 63 3c 4e 97 3f bc fc 49 cb 40 8d 9e bf
       0.0227593837248621 -0.029835712821747448
000130 7b 9e 7e a0 8f 6b d6 3f 33 a6 b6 49 b8 b1 c0 3f
       0.35031500504781093 0.1304235801629133
000140 14 14 21 e1 02 b5 bf 3f fc 56 62 3e 18 9e cb 3f
       0.12385576244658153 0.21576216741657805
000150 7e 23 39 6d 4c a7 d9 3f c4 23 2d 83 b2 14 d4 bf
       0.4008360926277915 -0.31376326379955466
000160 9f eb 83 d1 d9 bd d1 3f a6 0a 40 b4 26 b2 db bf
       0.27721257648925673 -0.43274848558955126
000170 df ec d2 09 7e 79 b9 3f d5 38 c3 9c 86 58 d5 bf
       0.09951007594911541 -0.33352818783613475
000180 4f 96 b0 a8 ae 2c cf bf 07 a9 42 2f 54 3f d7 bf
       -0.24355109440618825 -0.36324028601906416
000190 d4 b6 3f 1b 97 b7 71 3f 32 d7 3f 15 9c dd d5 bf
       0.004325475940260854 -0.3416509826196147
0001a0 5a 3d 29 c5 9d 6a cb bf 4a 39 09 a3 b0 df cd 3f
       -0.21419117094999757 0.23338897667640374
0001b0 45 a9 1c 63 0c ca a2 bf a9 4b e0 33 2d f2 ac bf
       -0.03669775686133162 -0.056535160620249165
0001c0 b7 a8 99 60 54 75 c9 bf 5b 6a cb 96 ff c1 b6 bf
       -0.19889311520393502 -0.08889768058308205
0001d0 db 24 5a 7f f1 21 bd bf 1f 5e 10 8c 02 72 d0 bf
       -0.11379918440993057 -0.25695861509436385
0001e0 c5 8e 87 0b da 29 cc bf 1f fb c7 a8 b1 37 d7 bf
       -0.22002721369709924 -0.36277429087196994
0001f0 1f d2 62 6c 7b fe 85 3f 8e 94 5e 05 38 f7 9d 3f
       0.010739292378596109 0.029263377502179604
000200 88 53 34 58 ab ad d3 bf a4 0f d3 b6 81 1d ab 3f
       -0.3074749337550249 0.05295949322456231
000210 b9 82 3d 9d b6 03 be 3f 50 68 1b ad 21 8a d9 bf
       0.11724416102289127 -0.39905588059412356
000220 51 44 a8 2a ed 11 8a 3f 8f c3 e9 22 25 75 cf 3f
       0.01272950445584989 0.2457624836420362
000230 0e fb 56 6a 63 29 d5 3f 24 1f 73 53 d0 35 d8 bf
       0.33065114388220784 -0.3782845320642869
000240 3b cd 93 e1 aa af d6 bf 1b aa 5e 34 98 54 ac 3f
       -0.35447189358747594 0.055332905190273084
000250 c8 bd d8 8b 1d 98 cb bf ea ca 83 c2 01 20 d8 3f
       -0.2155796940655661 0.3769535445746174
000260 6a b0 17 09 f3 2d c3 bf 73 b9 b2 2f 31 38 b8 bf
       -0.14983976310702768 -0.09460742392068315
000270 6c bf 01 a2 99 b3 d6 bf 64 08 ee ea 9c 13 cc 3f
       -0.3547119218919679 0.21934854003126525
000280 fa d9 0b e3 56 75 e0 bf 55 86 f3 bb 50 e7 7a 3f
       -0.5143236574647851 0.006568255775364647
000290 b1 b3 65 8f 40 6a 90 3f a6 1f a7 74 f6 0a e9 bf
       0.016030319931292506 -0.7825882223487397
0002a0 4f 4b a3 74 ea 9f c8 3f 6b 54 e2 5c e9 18 c0 bf
       0.19238024420936958 -0.1257602408919952
0002b0 0f 2d 75 13 e7 7d 83 3f 6d 63 c3 1c 90 ae c1 bf
       0.0095174839795136 -0.13813973812537075
0002c0 fa 9c 47 74 e7 93 b4 3f 8c 4d 8a 45 f9 7d d1 bf
       0.0803818377386171 -0.273313825521847
0002d0 bd 31 a4 fa de c3 c9 bf 4e 63 e1 e9 c7 56 6d 3f
       -0.20129000891064477 0.0035814194261941995
0002e0 4f ac 54 c2 89 3e b9 3f 66 20 d8 39 e0 71 9c bf
       0.09861050600436382 -0.02777815201810121
0002f0 60 0b f9 e3 88 ec aa bf 36 13 fd 0b fc 4c c4 bf
       -0.05258586676475008 -0.15859938226108178
000300 68 34 21 31 ec e7 c5 bf 23 69 fd 9c 0b 3a ce bf
       -0.17114021681701108 -0.23614640393754724
000310 83 b1 50 6d 29 25 b7 3f 07 90 76 44 17 64 e0 bf
       0.09041079443767867 -0.5122181260271653
000320 b3 7f 77 74 25 c7 b3 3f 65 d5 37 49 20 aa b9 3f
       0.0772574815123324 0.10025216853667514
000330 34 82 95 aa 5c eb c6 3f bf bf e6 0d 00 6d d9 bf
       0.17905767754838708 -0.39727784497790347
000340 b3 32 67 aa 68 78 cc bf 61 41 e3 55 cc 65 c5 3f
       -0.22242458649124827 0.16716913408027792
000350 1d ec 14 99 01 db b9 bf f1 68 77 dc 63 55 bb 3f
       -0.10099802005144949 0.10677169926148956
000360 3a 8a 26 b0 00 31 b0 bf a8 a6 35 c7 1e 77 c7 bf
       -0.06324772167730766 -0.1833227608397483
000370 5c 80 ec 0f 7e 33 be bf bc 24 c3 57 96 d0 da 3f
       -0.11797321213498563 0.4189811570218571
000380 1a 5d 88 4f 5c 6e de bf 13 87 b5 2a 0b 87 ca 3f
       -0.4754858757673489 0.20724620423703097
000390 97 f5 f1 bd 6b fa c1 bf ed 39 3c fd b3 a2 b4 3f
       -0.1404547383753367 0.08060765202046812
0003a0 88 6d 78 e5 c0 c7 c8 3f 83 6b 9d 63 cd f6 d3 3f
       0.19359599308596054 0.3119386170198412
0003b0 63 32 8d 9d 3a d2 b0 bf e1 cc 98 fa 02 5c e0 bf
       -0.06570783945535079 -0.5112318891973723
0003c0 1b 90 aa a8 3e f4 d5 bf 88 fc 36 7d 27 4d b2 3f
       -0.3430325171596011 0.07148978049279908
0003d0 c4 04 e8 fa bd ee d1 bf ff 79 a8 76 36 3f b9 3f
       -0.28019666197367266 0.09862079998899985
0003e0 5c 4c 82 b5 7d fd 84 bf 75 fa 4a b1 4e 49 b5 3f
       -0.01024912080928269 0.08314983204307132
0003f0 2f 15 08 0b 43 cd d8 bf 6c a0 ab 10 ad 6d e5 bf
       -0.387528191350003 -0.6696381879419397
000400 c7 44 c9 10 dc 2c b0 3f 27 aa da f8 c2 ae b2 3f
       0.06318450364894367 0.0729791505388354
000410 2f 02 18 f0 d4 b9 3f bf 81 dd 56 7d 49 f7 c5 bf
       -0.00048409889868142574 -0.1716091024406801
000420 f9 40 b2 89 94 96 a0 bf 7f b7 1b df 98 1d b2 3f
       -0.03239883595336041 0.07076411673526016
000430 63 c3 64 b8 1b c1 c4 bf c6 fc 47 fa 2a 18 bb 3f
       -0.16214319709390698 0.10583752260571364
000440 e1 40 4f bf ed cd c5 bf 3a 0b 6b 61 18 5f 9e bf
       -0.17034694520271557 -0.02965963453858509
000450 92 85 41 3f 30 22 d0 bf 2c 88 82 a9 be c8 5e bf
       -0.25208669831598585 -0.001878915971282878
000460 38 63 f8 53 9d 7d da bf d0 bf f4 8f ea 25 e1 bf
       -0.41391690445157137 -0.5358784495965612
000470 60 1b fc 14 19 b4 91 3f c2 14 e4 27 f9 bb bd 3f
       0.017288581758318045 0.11614949439907021
000480 e5 c4 62 f2 6a 05 50 bf 85 dc ff 98 78 19 d3 bf
       -0.000977854194882882 -0.2984296316275919
000490 9d 55 c6 19 01 c4 a6 3f 0b 7f 44 7b b6 52 a7 bf
       0.04446414413102249 -0.04555292372447014
0004a0 08 29 0d 42 26 15 ce bf 28 25 24 7b 50 5a c1 bf
       -0.2350204298512113 -0.13556867611650003
0004b0 59 56 91 28 d2 80 99 3f 7a 89 34 38 f4 94 c7 3f
       0.02490547535520302 0.18423321480174676
0004c0 2f 19 db 5c 0c e6 d0 3f fe 48 10 cc f2 7e d0 bf
       0.2640410334392013 -0.25774831703269274
0004d0 c9 f9 ed e5 a8 13 d0 bf ab 8c cc ee ac 9b cd bf
       -0.2511999364286593 -0.23131333980663746
0004e0 83 42 7e b7 a6 78 e0 bf 48 d4 04 2d 17 4f e0 bf
       -0.5147279342509851 -0.5096546057963076
0004f0 98 38 6a b5 47 58 de bf 6d 9d f7 fa ac 42 a3 3f
       -0.4741381904249322 0.03761807025494588
000500 b0 7c c2 b1 6a 6d c8 bf 87 1f f0 d0 29 41 d1 bf
       -0.19083913497613514 -0.26960225490665163
000510 fb cd 0f 53 da 7e c9 bf e9 91 c1 05 ca 67 b3 bf
       -0.19918374114750734 -0.0758024467518862
000520 ff 67 2b 05 a9 e1 a8 3f c3 bd c8 f3 07 d4 c7 bf
       0.04859665096383025 -0.1861581745483659
000530 c7 3c 31 2b 20 63 a7 bf df 86 ad 3f d6 2c d7 bf
       -0.04567814376115958 -0.3621116277555369
000540 1b fe ab 93 56 fa de 3f f2 30 63 74 e2 cf d0 3f
       0.48402943059042663 0.26268826833690107
000550 70 eb d4 c5 b0 16 ac bf 34 4c 99 88 20 be bd 3f
       -0.054860614919070794 0.11618235907489877
000560 b8 17 a9 0f 74 7d c7 3f ff 95 b7 aa 52 f2 8d bf
       0.18351603283570994 -0.014622350535272053
000570 4c 60 64 7f 21 11 cb bf 33 96 d5 bd 9e bb 97 3f
       -0.21146029205624683 0.023176651321952412
000580 90 b0 30 a2 65 e7 ba bf 98 80 d2 7e 68 ce c5 bf
       -0.10509333810540711 -0.17036157791608697
000590 12 ed ac 4a 24 12 c5 bf a5 15 f1 3a e2 d1 df bf
       -0.16461614271415975 -0.49718528514889676
0005a0 85 0e 6e ae e0 d4 d3 3f ab 2e 00 19 aa 59 d1 bf
       0.30986802133723074 -0.2710976833484248
0005b0 47 f3 78 3f 47 85 d7 bf 33 11 7c 6a 80 7b df bf
       -0.36750966261370305 -0.4919129409684217
0005c0 9b b9 40 04 8e dc ca bf 34 ee ae f7 1f 07 e0 bf
       -0.2098557968869955 -0.5008697354855429
0005d0 16 d3 74 19 03 fb d2 bf f9 47 a0 c0 25 40 cd 3f
       -0.2965705631825569 0.22852012544223024
0005e0 ed ec df a5 77 ca 92 3f 2e 58 8d ee d6 c5 cf bf
       0.01835047674101713 -0.2482250847630793
0005f0 d5 fc 18 4d 58 6a db bf b0 dd 3a 43 0b fc b2 bf
       -0.42836577920020363 -0.07415838614803394
000600 29 3d 9f 28 dd d2 d0 bf 10 f2 e1 ad 6d e5 e0 bf
       -0.2628701111506922 -0.5280064006943253
000610 78 1c 87 37 bc 54 9b 3f 64 3e c3 8d cd a4 e0 bf
       0.026690426720759025 -0.5201175469209827
000620 2a 9e af b2 47 8c b3 bf 47 78 64 c9 3c 89 b4 3f
       -0.07635925400210711 0.08021907727058518
000630 a7 c6 f3 a9 6d f5 bf 3f 34 e2 be c9 f0 5b ad bf
       0.12483868979668476 -0.0573420759460003
000640 f4 02 9d ed 27 21 b9 bf bf fa 3d c5 7d 80 de bf
       -0.09816216994387245 -0.4765924860184149
000650 ff b4 a3 9d d1 bd c8 bf 8f 9f c8 83 fb 6e 70 bf
       -0.19329281041374455 -0.004012091140374609
000660 8a af a1 29 66 ac ae 3f d0 a0 c6 5e 06 70 d8 bf
       0.05990905054281288 -0.3818374562784017
000670 67 71 5a e0 40 73 de bf a9 0b 24 f5 ba f7 d3 bf
       -0.47578451070309885 -0.3119952577546266
000680 27 f4 85 ff d2 a0 73 3f cd a6 54 01 6d fc 9e bf
       0.004792045794940448 -0.030259803014962828
000690 7e e0 a4 d4 9e 00 49 3f e4 67 5a 81 b2 8b b9 3f
       0.0007630134144056692 0.09978786142383417
0006a0 12 f5 5d b0 4e 6b e2 bf e0 5f b6 1c db dd c9 bf
       -0.5755990452450155 -0.20208300497028997
0006b0 ae 4b d0 a9 88 df da bf 37 a5 fb d8 98 15 bf 3f
       -0.419893422921798 0.12142329499660752
0006c0 43 06 57 f9 19 d5 94 bf df 8f ad 99 f9 55 d3 3f
       -0.02034416756010261 0.30212249763121507
0006d0 f7 09 38 62 fd 12 b8 bf 41 60 3c 64 fe 3f b2 bf
       -0.09403976104662336 -0.07128896662868646
0006e0 84 5f 4f 8d fd 17 c0 bf 0d 8d 64 0f 05 89 d5 bf
       -0.1257321300497517 -0.33648802283478646
0006f0 0d be 84 54 41 8e b1 3f 8c e4 92 b3 35 2b d1 3f
       0.06857689202728796 0.268262315144576
000700 e4 75 0c c8 11 ed d6 bf 47 57 78 46 72 af b0 bf
       -0.3582195714569407 -0.06517709942303639
000710 0e fd b3 8f b4 41 ca bf 5e 5a 73 1f 5e 85 97 bf
       -0.2051301671672054 -0.02296969477614607
000720 c3 50 7b 9b b1 8d c6 bf 6d d7 fd 3f 4f 06 d8 bf
       -0.17619915096168456 -0.37538510560204125
000730 56 12 51 6a 1c ea d5 bf 25 9c b0 c1 11 80 d7 bf
       -0.3424140012978446 -0.36719173350360484
000740 e9 de 4c ce 9d 04 d9 bf 0c 59 23 2d d7 85 e0 bf
       -0.39090676447402345 -0.5163379556277348
000750 43 9b fc 79 41 ea c1 bf fe d0 56 ae ab 08 9c 3f
       -0.1399614186895751 0.027376825824561905
000760 4d e2 3e b9 8e ad ab bf 1f 3e 89 94 7e e5 e5 bf
       -0.05405851374911617 -0.6842644597144875
000770 fd 68 6c 99 3b d2 d2 bf 66 b1 db 49 97 20 bf bf
       -0.2940815923954146 -0.12159104874780766
000780 46 95 4e 48 be 55 c8 bf 9b 13 07 58 d3 bc ca bf
       -0.19011667757619416 -0.20888749883866073
000790 c2 16 5c b2 bd 4d c3 bf 11 e8 ea aa bb a8 d7 bf
       -0.15080996712656797 -0.3696736497037146
0007a0 0c 6a 4d 8c 75 ea c8 3f b6 dd 99 8a 77 3c ca bf
       0.19465512610152336 -0.20497030513409492
0007b0 ff 60 97 0c 0c b6 e3 bf d0 be 87 6e de e6 a5 bf
       -0.6159725423740666 -0.04277701472517281
0007c0 28 ff fc f8 7f 24 d6 bf fe ec a6 78 0a 65 c8 bf
       -0.34597777667294105 -0.19058352366651116
0007d0 bc 03 7b 35 b1 16 d0 bf 7a a0 bf f7 d3 57 ca 3f
       -0.2513850233336219 0.2058052978238754
0007e0 1a 89 46 d1 20 db d0 bf 6c c2 17 67 16 02 a7 3f
       -0.2633745235163062 0.04493780144173773
0007f0 3f be 23 3b 1b ec a8 bf 77 cd 0e d0 0c f3 a6 3f
       -0.04867634865683756 0.044823074720080784

linear_layers.0.layer.bias f8 [100]
000000 7a fa 6a ed b9 9c 7e 3f 24 2a 6b 92 cd 6b b3 bf
       0.007473684576949519 -0.07586369347260608
000010 5c c4 15 3c 44 ab 8c 3f ba 4a f4 ca 82 2e 87 bf
       0.01399854000439598 -0.011319181269333501
000020 86 db df 69 35 0e ae 3f 6d bc 49 12 b4 38 98 3f
       0.05870215337193145 0.023653806320393423
000030 62 31 09 8c c1 6e 71 3f 1f 2b e7 7a 6d d5 b2 bf
       0.004256015818622979 -0.07356914759217802
000040 51 8f 1c 72 e4 18 9d 3f 65 37 79 57 ae bf 93 bf
       0.028415269341294295 -0.01928589257141002
000050 d8 a5 e2 23 3b cd bd bf 1f c1 1a b6 22 6d a0 bf
       -0.11641282678706177 -0.03208263848262249
000060 e2 47 46 e5 32 21 60 3f 42 92 46 55 62 36 c0 bf
       0.0019689554266699586 -0.12665967143870388
000070 7d a2 d0 e5 2e 5e a8 3f bc 20 44 0c 7f e4 a5 bf
       0.04759356074675212 -0.04275891327603307
000080 ac 6c 24 cd b2 5f 92 3f 4a 87 6e ce f4 39 bc 3f
       0.01794318558777934 0.11025934257352535
000090 d1 db 9e 02 dd 00 b7 3f 59 02 d5 d7 db 8c ad 3f
       0.08985692323663776 0.057715292069137454
0000a0 fd ae 66 1f a7 ee 8e bf 6f 9b 25 b6 01 fb 92 3f
       -0.015103631635461573 0.018535639517178234
0000b0 05 1e ca 8c f9 de 9d bf 21 a5 70 a6 ea fe a4 bf
       -0.02917089387713469 -0.041007359330544675
0000c0 f9 1d 0f 15 47 79 a6 3f 68 38 b3 42 0a 7f 94 bf
       0.04389402515476699 -0.02001586944680192
0000d0 84 b3 f9 37 04 38 b8 3f c9 1c 54 18 9f ad 93 bf
       0.09460474363886645 -0.019217000827691764
0000e0 1f da 3d 58 cf 9a 93 3f 68 41 f8 a1 3f 8e b6 3f
       0.01914524055561106 0.08810804085101653
0000f0 3f e5 24 3c 6b 62 ad bf 0b b1 c1 bb f1 34 96 bf
       -0.05739150151425542 -0.021686341366533173
000100 da 8a 5b 39 7e ff a4 3f 83 89 60 6e a5 8a 92 3f
       0.0410117573753916 0.018107018339045943
000110 55 4e 1e db b9 fc ad 3f 5b d3 ba 2b 19 98 bd 3f
       0.05856877136025377 0.11560208623525396
000120 64 35 26 ba 7e f5 b2 3f aa 8d e5 f6 c7 24 71 bf
       0.0740584568468044 -0.004185467825979764
000130 ac d2 5a 28 c5 70 ba 3f 2e 37 47 f1 fa de b6 bf
       0.10328323588584948 -0.08933990851002413
000140 1b 0d c0 5a 93 0f ae bf ea 9c 80 db 4d b1 b3 3f
       -0.05871258242407348 0.07692419632859396
000150 68 4c 12 02 d2 56 9e bf 5f 03 02 48 05 4f ac 3f
       -0.02962806832927037 0.05529037956239934
000160 50 35 8b 01 56 9b 97 bf b8 09 f9 8a 88 ff 95 3f
       -0.0230534971658945 0.02148259494993862
000170 fa f5 2f 41 0b 98 82 bf a5 63 19 cf a5 de bb bf
       -0.009079063345775563 -0.10886608415729755
000180 93 e9 68 87 31 c5 b2 bf 50 6c ac 2b e3 a5 b4 bf
       -0.07332143360046066 -0.08065624061821208
000190 c6 33 df d4 84 28 99 3f cb 98 59 e1 81 99 b1 3f
       0.024568629734677015 0.0687485861941212
0001a0 b8 b8 22 8b c2 d4 c1 bf 0f b3 53 42 74 77 99 bf
       -0.13930541795474993 -0.024869743870044533
0001b0 98 b1 63 46 ab 5d 77 bf 61 91 a5 b1 76 57 a9 3f
       -0.005704564135367816 0.04949541967906402
0001c0 b4 a4 32 e5 2e c5 ab 3f 8c c4 db ca f2 0d c0 3f
       0.05423876331162472 0.12542567162703155
0001d0 35 ae 84 1d e4 0b a3 3f ba 72 a8 54 57 20 80 3f
       0.03720009670572858 0.007874185820634028
0001e0 d6 84 5c 2c 18 19 b3 bf dc 4b 09 7d 86 94 90 3f
       -0.07460166056673087 0.01619157922898383
0001f0 6e 1b 3f 08 fd 88 98 bf 6b 21 87 21 0a 8d a1 3f
       -0.023960069301917235 0.034279171555286
000200 0a db 90 0a 04 a5 7c bf 24 26 26 2c 4c a8 b1 bf
       -0.006993308817121466 -0.06897426679474755
000210 79 71 82 56 89 f8 8d bf 65 6f 13 a6 7e a7 90 bf
       -0.014634201958238379 -0.01626394165656055
000220 ad a8 64 63 02 5f b6 bf 7c d1 9d 22 53 9c b8 bf
       -0.0873872273120095 -0.09613532633904315
000230 d3 a5 3a 7b d7 30 c3 bf 9c 2e 36 ae 48 be b2 3f
       -0.1499280311302714 0.07321600201810913
000240 86 8e b9 14 a3 5b a4 3f 03 e8 6d 5e d3 4e 77 bf
       0.03976163509358081 -0.005690408382060144
000250 9a 05 6f bf c1 40 ab bf 1b 09 2d b6 4b b9 a8 3f
       -0.0532284303840342 0.048288694370528705
000260 81 a4 de 06 e7 33 36 3f e2 2e e0 ab 3b 1c 96 3f
       0.00033878698638518256 0.021592075696431297
000270 17 fc 6e 74 e8 95 b5 3f 8f a2 eb 26 57 2f a4 3f
       0.08431866495719507 0.0394236788759531
000280 27 a3 cf f1 21 1e 87 bf 16 e8 77 45 ab 77 96 bf
       -0.011287942115772843 -0.021940876116765727
000290 09 6b 80 85 c6 5d 8d bf e6 83 08 e3 9a 28 a9 3f
       -0.014339018773218653 0.04913791676904804
0002a0 e9 b8 c0 9f 92 87 b2 bf aa 7b 78 77 f8 20 99 3f
       -0.07238117599692696 0.0245398352545824
0002b0 ca be fe a5 1b 05 b6 bf 73 4b e5 7d d3 2b c2 bf
       -0.08601544191946711 -0.1419624676442158
0002c0 44 4e 78 0f b8 e4 a2 bf c4 89 55 6f 29 80 b8 bf
       -0.03690123738138287 -0.09570559471243373
0002d0 54 bc 86 3c 52 d5 a8 3f 05 c4 c4 89 ed 89 c9 bf
       0.048502511871782034 -0.19952172495825962
0002e0 8f 87 d2 33 64 72 bc 3f d5 23 f3 1a cc 0b a5 3f
       0.11112047448344085 0.041105631150976464
0002f0 c8 55 18 32 c4 a9 a5 3f 68 1a 70 55 76 9f 9b bf
       0.042310839762801644 -0.026975487675395732
000300 e4 cd 8c 64 7f 7e b9 3f 86 56 ea 2a d0 d9 a7 3f
       0.09958645062288657 0.046583657492345984
000310 da a4 2b 8c b2 67 bd 3f f1 58 0d 03 bf b8 92 bf
       0.11486354753619157 -0.01828287559632086
