8_Inv_Lorenz/logs/models/2024-01-12-11-11-21_Lorenz_DNN_100X5/epoch_16000.pt (torch, 31864 bytes, 11 tensors)

alpha f8 [1]
0	0x40218bc7674919ed	8.773005702661033

beta f8 [1]
0	0x40050d7965ea8925	2.6315792047690985

rho f8 [1]
0	0x402e0018513b2424	15.000185526341802

rbf_layers.0.centres f8 [40, 1]
0	0x3fd4beb733e25cfd	0.32414035860843154
1	0x3fdf9a667a786400	0.493798846816901
2	0x3fdf0fcd13f1bc74	0.4853394217270257
3	0x3ff01fc5e2352626	1.0077570759043595
4	0x3fc1506b047b6a21	0.13526666373111687
5	0x3f7b8dc5b042b19d	0.006727001400730262
6	0x3fd11cc3b2c9e318	0.267380642507804
7	0x3f6c6ea010d16e88	0.0034707189829939512
8	0x3fea5c3da946b333	0.8237598711180908
9	0x3fbbb967b8fc1a60	0.10829780832509917
10	0xbfd8c525b6f57f27	-0.3870329176624971
11	0x3fdb4469ef0bf9b1	0.4260506472054671
12	0xbfd3b50fc8f8ba91	-0.30792612672932146
13	0xbfa4814dd5266da6	-0.040049011487293826
14	0x3fe47d23ff7079d5	0.6402759541559201
15	0x3fe360d0e79b4004	0.6055683635295286
16	0x3fea6898cb79e74d	0.825268170751977
17	0x3fe8d4d7a3ace205	0.7759817311080616
18	0xbfe98ebad6fafd9e	-0.7986730765186854
19	0xbfc7e40bc05a2afb	-0.18664690868566666
20	0x3fdfac96af3d9321	0.4949089728673233
21	0xbfbe7f19f28c3ef6	-0.11912691279962559
22	0x3feb845cb1e5db27	0.8599074816291691
23	0x3fbe2c7d5e2630d6	0.11786635922016173
24	0x3fe71050199cf480	0.7207413196807835
25	0x3fe8450351b3cf09	0.7584244342565124
26	0x3fef58d6ba7a37b1	0.9795945779931029
27	0xbfc372e22cb7f234	-0.15194346602938114
28	0x3ff0ac73c158df32	1.04210258032067
29	0x3fe6ed6536f85b4b	0.7164789270053488
30	0xbfeb6d5061511a1d	-0.8570939923018305
31	0x3ff1c07c10394b46	1.1094933160536171
32	0x3fec9f392dbdf5d1	0.8944364446066918
33	0x3fde290d407ba524	0.4712556009022413
34	0x3ff5764868d56fad	1.3413776488368783
35	0x3fb0207ccde1d083	0.06299572016161119
36	0x3fe72e4bfb6d491c	0.724401465480955
37	0x3fc41fcd3ac62a24	0.1572205101950469
38	0x3fa62ee03b197d1b	0.04332638474874725
39	0x3fdec63023f8b5d2	0.48084643853038955

rbf_layers.0.log_sigmas f8 [40]
0	0xbff20a750353eb13	-1.1275529985420618
1	0xbfec44af366ae66f	-0.8833843291133244
2	0xbfe8ea8808cdf711	-0.7786293193782702
3	0xbfd0f8b2182e2aa3	-0.2651791797767748
4	0xbfe6d17b5cb29631	-0.7130715189457019
5	0xbfe30f14ebe38358	-0.5955910308076495
6	0xbfed1b0f183a62fc	-0.9095530961231755
7	0xbfe0f58ed81255f9	-0.5299753399037278
8	0xbfec3f0da76892ba	-0.8826969403931664
9	0xbfe5e51594df87d1	-0.684214392440703
10	0xbfa89ba129baafd8	-0.04806235918417173
11	0xbff43886921cd744	-1.263800211670472
12	0xbfc0de7c7c399016	-0.1317897421423601
13	0xbfdcb4ea2752dc0c	-0.4485421546955315
14	0xbfeb78fb45d4e424	-0.8585182536982114
15	0xbfec83f0db071393	-0.8911060598262445
16	0xbfeaa6c4da965258	-0.8328575391083843
17	0xbfd9ad7a5594125e	-0.4012132487990011
18	0x3fd494661e282c3c	0.32155754990589336
19	0xbfd4ba1711a9fd06	-0.3238580391407172
20	0xbfe3676101c5eadc	-0.6063694986945296
21	0xbfd125a061648c33	-0.2679215384579862
22	0xbfc81b71b0e6f75b	-0.18833752763560593
23	0xbfe367f431495209	-0.6064396822571904
24	0xbfe6c314d0008922	-0.7113136351147527
25	0xbfe38aa646d205a2	-0.6106749900065334
26	0xbfe683ba404be92c	-0.7035800224105393
27	0xbfd79bb75abf8cc9	-0.36887916433461193
28	0xbfe2e92a3f600f99	-0.5909625280187242
29	0xbff511a1b6522bb3	-1.3168046113885168
30	0x3fd3fb48e765c095	0.31221220586213266
31	0xbfdf2a958b25a32a	-0.4869741305215479
32	0xbfe11bbecde1b8fa	-0.534636880982162
33	0xbfe9f9743381d559	-0.8117009168624164
34	0xbfaeff4f1800b9c0	-0.06054160278323506
35	0xbfe12c228edc67c2	-0.5366375723126497
36	0xbff1d795e8a0be73	-1.115133198454626
37	0xbfe93f7770b148b9	-0.7889973832154943
38	0xbfe47323c54d7ac1	-0.6390551427428691
39	0xbfec26c28c1d898a	-0.8797314392689242

linear_layers.0.layer.weight f8 [40, 40]
0	0xbfe1cb530349e3c0	-0.5560698570471843
1	0xbfba686462c2cd44	-0.10315539752155184
2	0x3fac7b3431751d4c	0.05562747100571616
3	0x3fe53c7b229d8f05	0.6636329341967843
4	0xbfe9010e6bb6001b	-0.7813789466599731
5	0xbfe44121a72e3291	-0.6329506173365919
6	0xbfe9d880b488d1a3	-0.8076785589278653
7	0xbfe4bdd285109147	-0.6481716727180719
8	0x3feb554ab40d33a1	0.8541615978843887
9	0xbfe7ffff358ed57e	-0.7499996229222885
10	0xbfe1e5021353de72	-0.559205091237301
11	0xbfe4a384aa9a94b6	-0.6449607212167823
12	0xbfe3163093ed4db9	-0.5964587105940417
13	0xbfe3c31cc78634e7	-0.6175674340207963
14	0x3fc8a3786a78f234	0.19248871992921723
15	0x3fc1c405533ffb0c	0.13879458012521473
16	0x3fe3cdcb5d9c0258	0.6188713863667301
17	0x3fcf491dd7d807a8	0.24441884078265486
18	0xbfed039332d8b40a	-0.9066864007087372
19	0xbfe81a64ac2d6704	-0.753221832546132
20	0xbf912e48f6ba475d	-0.01677812581926418
21	0xbfe878cb32adda0c	-0.7647453298403106
22	0x3fdb6409923d5470	0.42798079758842444
23	0xbfe510963f105ce5	-0.6582747680394304
24	0x3fd13287253e8c3a	0.2687089790071614
25	0x3fdb18b3abc95d3d	0.4233826806643782
26	0x3ff24827e1d40aad	1.1426161595742699
27	0xbfe4d5810bf1802a	-0.6510625108021533
28	0x3ff257c951983316	1.1464322268759068
29	0x3fd90332b02f00a5	0.3908201904814724
30	0xbfe6782f4088b033	-0.7021709690502632
31	0x3ff439a83081c2f7	1.26407641361237
32	0x3fe6d1aac1f5f94c	0.7130941189096034
33	0x3fb0d19b99ea4e98	0.06569836147019215
34	0x3ff6282d8f37667a	1.3848090738669314
35	0xbfe94a13cd814518	-0.7902926458138237
36	0x3fd10b1427ebfe68	0.2663011922704528
37	0xbfe966864bc50b31	-0.7937652091862671
38	0xbfe3ceeade60ce45	-0.6190084784815971
39	0xbfd5faaa22a67d4e	-0.34342435249159997
40	0x3fc0d0260119a6cb	0.1313521867153241
41	0x3fdf074e3f9c934e	0.48482090198586014
42	0x3fe22e7b043922d9	0.5681738932117596
43	0x3fdcd534df690ec6	0.45051309411449514
44	0xbfcdbbe4e2571bc4	-0.23229657222529287
45	0xbfc82353502c925e	-0.18857804693938623
46	0x3fcc2e130fca6395	0.2201560809233142
47	0xbfc3e7a02b85574c	-0.15550615429918435
48	0x3fc167cbe1dca85b	0.13598011520781736
49	0xbfb9ad0616c08298	-0.10029638343304226
50	0xbfb4ee7930ef3dfd	-0.08176381535235318
51	0x3fc7eb62f77a560a	0.186870928610617
52	0xbfba6a454245413a	-0.10318405979092385
53	0xbfc615e850e75f23	-0.1725435633695663
54	0x3fcdb292d318ce23	0.23201213176217647
55	0x3fda3016ddab6754	0.409185139154592
56	0x3fd71566aac58b84	0.3606812160198205
57	0x3fe07c05b2228cc2	0.5151394347380107
58	0xbfc951ef5c781bb6	-0.1978129579076417
59	0xbfc45af81cf68053	-0.15902615942195783
60	0x3fddc2ca572824ee	0.46501406203658646
61	0x3f871b3f42c4f622	0.011282438492908279
62	0x3fdc28642555b131	0.43996528287859166
63	0x3fbff0cd6795d07f	0.12476810244499069
64	0x3fd24add798875d6	0.28581940525495264
65	0x3fd34be1cac58307	0.30150646974475176
66	0x3fd1394d7e3484ba	0.2691224796745463
67	0xbfd0254ba0d9efe4	-0.252276331979145
68	0x3fc495bd333b7bae	0.16081967355327492
69	0x3fc8dd7ee19f6c63	0.1942595101998875
70	0xbfc92d7c27fb95d4	-0.19670059158595044
71	0x3fd407af4216efdf	0.312969030895827
72	0x3fca194ac821d70c	0.20389685413436387
73	0x3fdd7b462b43879f	0.4606490538118297
74	0x3fe50d062c34b0a7	0.6578398574252063
75	0xbfbdf3eb1aabed40	-0.11700314904367293
76	0x3fdc9e7ccfa8bd3d	0.4471733119889512
77	0x3fb1d3d09717e999	0.06963828743747626
78	0xbfb843bbc2a0ae69	-0.09478353025104415
79	0x3fdb46f2a3802855	0.4262053105054567
80	0xbff9aa579914e503	-1.6040874461889991
81	0xbfe98b516d73e603	-0.7982566011189082
82	0xbfe27fad204f12f9	-0.5780854826958538
83	0x3fd9ad899e891ea3	0.4012168930243922
84	0xbff1e84ef1a21f2a	-1.1192159117508234
85	0xbfeb18464a362a88	-0.8467132043309258
86	0xbff1bf33da3349a7	-1.1091803096247561
87	0xbfea4c422c3886bd	-0.8218088973701111
88	0x3fc487cd72fd3e8f	0.1603943644972685
89	0xbfe89a7def396538	-0.7688588783595725
90	0xbfe0dc840b47b39f	-0.5269184322656776
91	0xbffe73ba64dd40ec	-1.903253931046545
92	0xbfe4f2c6fef09e96	-0.6546359042449292
93	0xbfe8d601d4ec55cc	-0.7761239203124943
94	0xbfd47578ba2854ba	-0.31966989688346426
95	0xbfd8332a80475a70	-0.3781229260179435
96	0x3fb208f98d63e5cf	0.07044944478902625
97	0x3fb8e065d9fc5ea7	0.09717403957290092
98	0xbfe9b6a86e9a6323	-0.8035471115318596
99	0xbfe459eb5d58f254	-0.6359764884178483
100	0xbfd0ee0f0328f17e	-0.2645299464091052
101	0xbfe499abd267d2b9	-0.6437586888774468
102	0x3fd1fd90a71e275b	0.2811013824472092
103	0xbff0a7c1a3f73bee	-1.0409561543381147
104	0xbfd5df54393587a4	-0.34175592028452173
105	0xbfb76b5776fbd1ce	-0.09148165373682746
106	0x3fe1bcd816c571d4	0.554302257990964
107	0xbfe4a70171391099	-0.6453864299187614
108	0x3feb635c2b1a1ad1	0.8558789102397332
109	0xbfe0a0c7e6f2f308	-0.5196265707705559
110	0xbfeaff3ff86d5c97	-0.8436584331601747
111	0x3fe8e1b518230365	0.7775521727963733
112	0x3fd4d2dbd99c14da	0.32536979914614295
113	0xbfe30285e04701c3	-0.5940579777161975
114	0x3ff2976ac023a422	1.1619670396269233
115	0xbfe7bb76f2fdb1d3	-0.7416338678281654
116	0xbfd84ae7b921285f	-0.3795718486695758
117	0xbfeda4e80c172e01	-0.9263801799910995
118	0xbfeb6aeeeb5f25f2	-0.8568033787825569
119	0xbfeddb0f659d21e0	-0.9329907402653213
120	0x3fa63b9ac555132d	0.04342349680749744
121	0xbfd3b70d73922f43	-0.30804764066919094
122	0xbfdf32546d70b7ef	-0.48744688689737264
123	0xbfd6a0701bdaa03f	-0.3535423538219255
124	0x3fc10557cd101e90	0.1329755545887008
125	0x3fb32a8f877feeb2	0.07486817415331862
126	0x3f8d2adb8b438804	0.014241900622838706
127	0x3fc2de88516a02b1	0.14741615271852518
128	0xbfe0e6fd305d35a8	-0.5281969017611816
129	0x3fc45a77e6be38d9	0.15901087538481454
130	0x3fd9f80fc152b356	0.4057654750748062
131	0xbfdb22fbf8aa433e	-0.42401026996326496
132	0x3fda11c598b89e45	0.4073347083490016
133	0x3fc21fed9ef05dd8	0.1415993715352062
134	0xbfd77820a99dccf5	-0.36670700611212165
135	0xbfd64bbe5c460058	-0.34837302218511956
136	0xbfe007be2202d578	-0.5009451545981127
137	0xbfd2525f150d5929	-0.2862775521838495
138	0x3fd177c0cceda928	0.27293415081534755
139	0x3fb1de99cf3b8f1e	0.06980286893263751
140	0xbfca531fa6a104d1	-0.20566173206501628
141	0x3fc2f3a188ddbec0	0.14806002791327977
142	0xbfd68fa2ae0c8d99	-0.3525168132493604
143	0x3fbcd39254aa43bf	0.11260332648295356
144	0xbfdf212a5945fe0e	-0.4863992568789123
145	0xbfd06d130994a3e2	-0.2566573709069059
146	0xbfdb142380679eb3	-0.4231041673615252
147	0x3fd0b08b29c53c23	0.2607753665842571
148	0xbfdce67ce6bb17b3	-0.4515678647261396
149	0xbfd788baca29b970	-0.3677203153846653
150	0x3fd01cd9c0c2b6bc	0.25176090072896407
151	0xbfe2394902ce6a40	-0.5694928221522062
152	0xbfd396dd0a9fb617	-0.3060829738377335
153	0xbfdd6bfbd974aa5d	-0.45971580730352973
154	0xbfe8045f7f606616	-0.7505338180373566
155	0x3fa1b0dd12946bac	0.034552486913717345
156	0xbfd0690c48681fe7	-0.25641161986322775
157	0x3fd2afa069b641fc	0.2919693977683264
158	0x3fd2aac9aa306330	0.2916740571977696
159	0xbfd1ba90652886f7	-0.2770119655489078
160	0x3fc3193227c7c2b1	0.149206418441755
161	0x3fcbd2261bfee0aa	0.21735073439572733
162	0x3fdb8bd754de1fa9	0.4304102257524343
163	0x3fdb8c35893605ef	0.4304326858474203
164	0xbfa9fa52ed1f3bff	-0.050737945027883306
165	0xbfcb39f0940147d3	-0.21270568110281704
166	0xbfc878ff32f3c10e	-0.19119253147028598
167	0xbfc5f606fb5196fa	-0.1715706565038813
168	0x3fd7bb80bf3278e3	0.3708192698631036
169	0xbfc01fb35358bb0f	-0.12596742219599164
170	0xbfc00783fc559b57	-0.1252293569661684
171	0x3fdee814bde63236	0.4829151014789973
172	0xbfd0dc3d9d99f670	-0.26344242468608225
173	0xbfcdd9449d3aebc0	-0.23319299390081305
174	0x3fd344b4e7adbba4	0.3010685217367899
175	0x3fdcf981fa7f0d77	0.4527287431958124
176	0x3fdbaea1213f7a14	0.4325335335433078
177	0x3fdbe475d8d3e23d	0.43581911253525957
178	0xbfc9a7083facb168	-0.20040991887197923
179	0xbfd388e6165b298e	-0.3052306383439366
180	0x3fd5283de47a480c	0.33058116256972947
181	0xbfd58a04c2b14673	-0.3365489865583193
182	0x3fd2de916364cfc1	0.29483446794915485
183	0xbfcde201fcd2e6ec	-0.23345970959581253
184	0x3fd51591636e05c2	0.3294414015764141
185	0x3fde9cbc375f208e	0.4783163586366833
186	0x3fdc16c5faaf34d2	0.4388899753656236
187	0xbfd1d6df4c6a366c	-0.27873976194755445
188	0x3fd2f9c178bdea54	0.29649388114163355
189	0x3fdc13de89428fe8	0.4387127247266549
190	0xbfd201ad95acd847	-0.28135242096630403
191	0x3fdda546c24b94a3	0.46321267103332725
192	0x3fd6a6cce9a1114a	0.3539306909117569
193	0x3fc93e64fd211be1	0.1972166286452355
194	0x3fe57cb499087024	0.6714728344845793
195	0x3fa600400cce0950	0.04297065883931117
196	0x3fdb7ff4ca4844ed	0.4296848273671248
197	0xbfd1b26dc5eb9e5b	-0.27651542976534466
198	0xbfcf536523970c4a	-0.2447325156955194
199	0x3fd013f8a1b0bf19	0.25121894636230163
200	0x3fe068cc805ed1e9	0.5127928263887586
201	0xbfc2e40299c0933c	-0.1475833178275482
202	0xbfcfa9be3a290e70	-0.24736764755117546
203	0xbfcd1b7c7d05f77b	-0.2274013147797936
204	0x3fe392f5662e32f2	0.611689281054707
205	0x3fe433c724dd2f75	0.6313205451965432
206	0x3fe0431228593390	0.5081873691611793
207	0x3fe7ac1f68edf97c	0.7397610711484925
208	0xbfe75f4df44e6e7e	-0.7303838512047631
209	0x3fe54a2d02d1a229	0.6653046660476934
210	0x3fe86175e30778b2	0.7618970331348207
211	0x3fc82398a1a5808e	0.18858631031890066
212	0x3fe7bb14bc7b99f0	0.7415870362572701
213	0x3fe24cb6ebf4edd6	0.5718645676164964
214	0xbfc684ce2a92644d	-0.17592789725020666
215	0xbfcf58c876b10d10	-0.244896944002996
216	0xbfdec83511edea16	-0.4809696841327037
217	0xbfcc646eb1d54216	-0.22181495364431275
218	0x3fe4b4e838661cb7	0.6470833875217953
219	0x3fe1f0a6a0a62171	0.560626329200245
220	0xbf88cf4d24b34cc1	-0.012114145929820077
221	0x3fe755c13e345903	0.7292181219989121
222	0xbfbb8d87b23e63aa	-0.1076283273854545
223	0x3fe798ccf69e73f7	0.7374024216438774
224	0xbfc05cae90657431	-0.12782842684365073
225	0xbfcdc462185ea486	-0.23255563917090089
226	0xbfe8fd7c81372e35	-0.7809431575528324
227	0x3fe09cd86a156944	0.5191461631723446
228	0xbfe7398a2db1c470	-0.7257738964527913
229	0xbfd3118a5c8cdde9	-0.29794558561431345
230	0x3fe4effc100d31e1	0.6542949975496947
231	0xbfea8a3dfbc51429	-0.8293752591495195
232	0xbfdcce01ec665c85	-0.45007370077059533
233	0xbfb671616a18b351	-0.08766754951711887
234	0xbfeb4e9dfb233363	-0.8533468155888894
235	0x3fe9137e33b0b0ec	0.7836295136999332
236	0xbfd23e5b62ac6180	-0.28505596767492847
237	0x3fe7ccd2f36fc9e6	0.7437529329893635
238	0x3fe6725d9c5e3049	0.7014606527386685
239	0x3fc7fd86af272ed3	0.18742450287242338
240	0xbfa8ff0cb53ec472	-0.048820874333053946
241	0x3fd79d5405bd3091	0.36897755203677557
242	0x3fc0cc52b8c060c4	0.13123544713085356
243	0x3fd0eb561fbc5be2	0.2643637952727983
244	0xbfc9329aab90c0f7	-0.19685681702822652
245	0xbfc0ae485eb23288	-0.13031868575889782
246	0xbfc25790a43f9188	-0.14329727191865183
247	0xbfd6a3e21a0b0bac	-0.3537526373221975
248	0x3fdeb8b7d0249f32	0.48002429319830064
249	0xbfb4edc956a2195d	-0.08175333371227596
250	0xbfd6f215bd6f0f0c	-0.3585256910266572
251	0x3fc55be72861b5f6	0.1668671557594476
252	0xbfc471c268632c8d	-0.15972166153946823
253	0xbfb37313144b4bc3	-0.07597464795553237
254	0x3fcf0d5e19b2add3	0.24259544615539017
255	0x3fc9cea05dca10b3	0.20161823825413236

linear_layers.0.layer.bias f8 [40]
0	0xbf9e693841c89607	-0.029698256507023426
1	0x3fc51b5f7996fa4c	0.16489785611152497
2	0x3fadde108635a980	0.05833484304715153
3	0xbf906fad95dd6ac1	-0.016051018020656786
4	0x3fb4aa329e5d0b59	0.08072201124472879
5	0xbfc00eb7adef322d	-0.12544914238823549
6	0x3fbf88a7333c158a	0.12317891121718652
7	0xbfa24db492f6df62	-0.03574909490583768
8	0x3fce425094a935a4	0.23639876612507493
9	0xbfc88dc8e621b8f7	-0.19182692753697214
10	0x3fb2c49f5c34584e	0.07331272126279595
11	0x3fc2ea8babb78d70	0.14778276333445772
12	0xbfa2620f3495ec3f	-0.03590438382067206
13	0x3f87b0a6fb80abdf	0.011567406225443775
14	0x3f72d4fbfad01892	0.004597648902750733
15	0xbfa7f7f93fb07e26	-0.04681376364191818
16	0x3fc85cfd9b7bddb2	0.19033784954056682
17	0x3fb74164e32c29dd	0.09084158464626264
18	0x3f81c0fdb9adebd8	0.008668882588372215
19	0x3f97abbd85710f75	0.023116074819213368
20	0xbfd1428e5f270573	-0.2696872643683356
21	0xbf82e3a070106cbd	-0.009223225994040235
22	0xbfc75c76b7c0239a	-0.1825092694491815
23	0x3fd345c63bb6a6bb	0.30113368827242554
24	0xbfcf35f5cdef92c0	-0.24383423381291003
25	0x3fbdc396677976d5	0.11626567865593114
26	0xbfaf1f605f7031b7	-0.06078625836389356
27	0xbf7655f4c413f2b2	-0.005453067891036655
28	0xbfbe159f90092b1d	-0.1175174452447831
29	0xbfbff7cedd479a68	-0.12487500097595616
30	0x3f95f48fc97fbe3f	0.021440741227648493
31	0x3fb38caf524c7dce	0.07636543044326702
32	0xbf9b2697d5c68d4f	-0.02651440851481129
33	0xbfb5ac6d02a44501	-0.08466225924009409
34	0xbfc237433952e593	-0.14231148051275663
35	0x3fa745c9902f0ef4	0.04545431027466221
36	0xbfc87c166189f11f	-0.1912868477119298
37	0xbfc321c0ce76c09f	-0.14946756440395334
38	0xbfa0fd2ec46bfad8	-0.03318163058974272
39	0xbfc59070b206f130	-0.1684704655907665

linear_layers.1.layer.weight f8 [40, 40]
0	0x3fbd47ca53accde3	0.1143766836437901
1	0xbfea15738a8e1d00	-0.8151185709147342
2	0x3fb160461aa95595	0.06787527228273967
3	0x3fd86b97c1f61fda	0.38156694356484666
4	0xbfd6edf856680b65	-0.3582745403111203
5	0x3fd1b3215dee7f3e	0.27655824826250697
6	0xbfd538d3f86972a4	-0.33159350642180585
7	0xbfebebb8902b4582	-0.8725245300103526
8	0xbfd99d0af682bd28	-0.4002101332980197
9	0x3fe86b3794dca7b7	0.7630880267581607
10	0xbfe65514c26a3842	-0.6978858754316735
11	0x3fb06c61c8c7b1e2	0.06415377761704336
12	0xbfc5fc9a8bcaf431	-0.1717713530141807
13	0x3fc8b58dbc25b25e	0.19304057776334366
14	0x3fb9eedcaf9888e9	0.10130099570281782
15	0x3fbc0ca785fa64d7	0.10956809063863503
16	0xbfcb88d298316c0d	-0.21511299544621956
17	0x3fc6b97a7341da36	0.17753534915728303
18	0xbfcd2b0109931e49	-0.22787487952722277
19	0x3f99e9e634390b5c	0.025306317269733966
20	0x3fc4ed19ab17c83d	0.16348572591920343
21	0x3fa2f05be7b77db9	0.036990043674218716
22	0xbf8dbe88cb6fd87f	-0.014523571689988522
23	0xbfe10d3158983f0b	-0.5328604441037624
24	0x3fc1994aba725878	0.1374905977615446
25	0x3fba29a70416321a	0.10219806527874944
26	0xbfcb0a4612c65d66	-0.21125102917424526
27	0x3fc1378e6407f842	0.13450794109661685
28	0x3fc41f4f169591a6	0.15720547297236215
29	0x3ff112ba92ed4a4a	1.067072462018262
30	0xbfc6f59bf7d337da	-0.17937039948304695
31	0xbfb7dfeea06ddd94	-0.09326068321921915
32	0xbfab3bb64fa836aa	-0.05318994257332339
33	0x3ff1e91d1276ef2e	1.119412490966123
34	0x3fbb98e05a3cacdd	0.10780145838787143
35	0x3fb2fa6a73003360	0.07413354213367773
36	0xbf92d2fe025988a0	-0.018382996457497414
37	0xbfb2bfc46566026f	-0.07323863482998559
38	0x3fc3f5a9a12ed064	0.15593452806718056
39	0x3fcb772404c5bcc8	0.21457338555362626
40	0x3fd196cb97853f37	0.2748288135235159
41	0x3fa6151d682558a4	0.04312984367668207
42	0x3fee586920551baa	0.9482923156254988
43	0x3fb5f9e406ebdb0d	0.08584427994706463
44	0xbf890606d8af9aff	-0.012218526351671864
45	0xbfcab078b1b415e2	-0.20851048161436753
46	0xbfba13f6a8a36f2a	-0.10186711899899295
47	0xbfb81caa8dad0199	-0.09418741186983083
48	0xbfc6c909f2f17f86	-0.17801021921604504
49	0x3fd00a6fadd01f4f	0.2506369779007302
50	0xbfc54f915b2a6c1d	-0.16649071647120275
51	0x3fcfe362c438675e	0.24912676411696116
52	0xbf98446af4ce3738	-0.023698493186706332
53	0xbf75071494a97c74	-0.005133705514338439
54	0xbfdfc8142d39d5e3	-0.4965868417415022
55	0x3fd5b9f4d403da32	0.3394748754939513
56	0xbf7a5b256f0f2058	-0.006434580064656435
57	0x3fdf33e8920e5464	0.4875432421043284
58	0x3fbfe2a4a198e0d9	0.1245520491146438
59	0xbff829c1b6b4c3c6	-1.510194505401374
60	0x3fc0f14799f87598	0.132363271885805
61	0x3fbdcdcad1635f64	0.11642139064804052
62	0xbff1442b257ef1a2	-1.079142710178623
63	0x3f8ab08889816853	0.013032023140272886
64	0xbfaa0bae6784fdaf	-0.05087037099519464
65	0xbfaf6fc9ec5922f9	-0.061399755574319266
66	0xbff09c3570736445	-1.0381369011504529
67	0x3f9f8fb980f382ee	0.030821703429753926
68	0x3fb1ac96be085bca	0.06903974666089066
69	0x3fb64ff4f69ad6e8	0.08715754528642672
70	0x3fd473de3510ec53	0.31957202131497303
71	0xbff86d2edfa9586a	-1.5266560303475907
72	0x3fdaa843fb9ea084	0.41652011463384775
73	0x3fcf639b7aa50442	0.24522727478509593
74	0xbfe1c7b3bb175dd3	-0.5556276945234749
75	0x3fb2ae4b77e6c355	0.07297202756195749
76	0x3fc1b42b1e60b82d	0.13831080420772093
77	0xbff85e46fedb3ddb	-1.5230169253662698
78	0xbfb09a6aab0c747a	-0.064856211433339
79	0x3fb29d5d823cf95c	0.07271370343821587
80	0xbf9e35de4e1d17f0	-0.029502366559675808
81	0x3fb6d24426cb1c52	0.08914590785126222
82	0xbfe1fb90d69d922f	-0.5619587127408233
83	0xbfc83b3f819595fe	-0.18930810763701794
84	0x3f935deaaf8438c7	0.0189129514338269
85	0x3fbaa63a76f7fe44	0.10409894375333645
86	0x3fb6546c2eca06ea	0.08722568647683784
87	0xbfa7ecb74f540be2	-0.04672787516940226
88	0x3fc0cb95d9cc22e6	0.13121293196333922
89	0x3f9efcf544ed1a36	0.030261833507461776
90	0x3fd8475fe65bbaeb	0.37935636039666915
91	0xbfc9306155d1124d	-0.19678894701259467
92	0xbfac00a583f17c7c	-0.05469243274341637
93	0xbfc78d3347f139b8	-0.18399659169013005
94	0xbff64e4088f13bd7	-1.3941045140561437
95	0xbfcfde5654275289	-0.24897269352972654
96	0x3fcfc0dfe120976a	0.248073563504643
97	0xbfe9189052f4976e	-0.784248506567321
98	0x3fc0e331404487a4	0.13193336141654044
99	0x3fd9811879f1d903	0.3985043707720168
100	0xbfbe63722249a676	-0.11870492302991828
101	0x3fb0b5e0f27e200e	0.06527524872046817
102	0x3fe041920d155e02	0.5080042129074516
103	0x3fb0083daf633328	0.06262574703141566
104	0xbfd1b798e6cef9c4	-0.2768308881749386
105	0x3f72491fab76b6d4	0.004464267454222532
106	0x3fb471b7be6717a8	0.07986019514564069
107	0xbfb952ac2ae578e2	-0.09891773268961715
108	0x3fa5e0b391d40ba9	0.04272996096735621
109	0xbf987a47f81c5cde	-0.023903965490799865
110	0xbfc7a7cbe9f4e562	-0.18480824397719703
111	0x3fd67042d228c8cb	0.35060186885233396
112	0xbfe6766e7f602067	-0.7019569862177492
113	0x3fa578e354fd8145	0.04193792736509975
114	0x3ff08f2f738ff879	1.0349573625713033
115	0xbfbb36b7729b6363	-0.10630365894338704
116	0xbfbf626cc5540a61	-0.12259559457383197
117	0x3fed752f29fb0177	0.9205547161036937
118	0xbfbbb6e5ad845942	-0.10825953947310032
119	0x3fb2e870c3c5af14	0.07385926036448281
120	0xbfb2627175f6945c	-0.0718146241184327
121	0xbfc23fd309825e0c	-0.14257276501005867
122	0x3fb61bc317668a17	0.08636111565878256
123	0x3fe094ef39ba0cad	0.5181804778552724
124	0xbfd6f0d5f857e958	-0.3584494519451673
125	0x3fa4c0a89dfc7a0e	0.040532368932179805
126	0xbfd61dab1a4d7b81	-0.34556081360454277
127	0xbfead8c338bbef97	-0.8389602764213916
128	0xbfcffc53011117bd	-0.2498878245552855
129	0x3fd63817065372f5	0.34717345826884066
130	0xbff33229cb6e8e5b	-1.199746889739706
131	0xbfbbca036707318a	-0.10855122819265808
132	0xbf9dfd4dfd16330f	-0.029286593029200832
133	0x3fc8fb0dd68c04b3	0.19516156173634655
134	0xbfc54bb5ce257f07	-0.16637299123521407
135	0x3fbe6464d5dd8c81	0.11871938916515214
136	0xbfa4c387a59593e8	-0.04055427452366428
137	0xbf87d2bf6e4940f2	-0.011632438233533968
138	0xbfc571cdf27e789b	-0.16753553715256406
139	0xbfb6607d5c5ba84f	-0.08740981583437811
140	0x3fcb308b68b25a44	0.21241896259444293
141	0x3f8e2f957c24bf1e	0.014739196635303705
142	0x3f5638133cb73707	0.0013561427939409747
143	0xbfe25d7663bb2f96	-0.5739089916109943
144	0x3fca9876c510b7e5	0.20777783033685107
145	0xbf941fdc2f7dcc54	-0.019652786635060274
146	0xbf927e7c7ff34f2e	-0.018060632047151852
147	0x3fc6d952fde9d498	0.17850720785250895
148	0x3fc3c31c75ba75a0	0.15439182041602084
149	0x3fe712e7edb09507	0.7210578577402494
150	0xbfc3378b007c35a9	-0.15013253711405852
151	0x3faacb498ca1d974	0.052332209031123705
152	0x3fb00a3ef635207d	0.06265634070325805
153	0x3fdf3e1c85a15327	0.4881659798605135
154	0xbfb623322015a64e	-0.08647454531969709
155	0x3fbef00c5138fb75	0.1208503435418445
156	0x3f986ac5f1d141e3	0.023844807514537335
157	0x3fc34d1d93536c95	0.15079087918897885
158	0x3fb3daf3dba88fe9	0.07755970108752276
159	0x3fd822b6aae0ac13	0.37711874663608674
160	0xbfed21010d962a2e	-0.9102788224566376
161	0x3fc911866b29b731	0.19584732277456277
162	0x3fd9163708f184dd	0.3919808947885722
163	0xbfd0d1ccd3a57a67	-0.2628051821574559
164	0x3fbf9ed19092b3a5	0.1235171297036702
165	0x3ff7ecb08660b3c8	1.4952855347757907
166	0x3fd4c889beeac6d6	0.32473987240073876
167	0x3fcc77f0f7497fe7	0.22241031717840018
168	0x3fc51a1473c24fb9	0.16485839512153946
169	0xbfcf6cdd836b5aff	-0.2455098048873978
170	0xbf99e57cf43741ba	-0.025289490133049354
171	0x3fc4ffeca3664c7b	0.16406019190307916
172	0x3ff5005c1fa1cf84	1.3125878558757629
173	0x3fc1dc009c7be3e8	0.1395264400560159
174	0x3fd61caa87d4b13e	0.3454996420357651
175	0x3fc8caebf05b95f1	0.19369267688959682
176	0xbfcc62e2762d2c48	-0.22176771898588954
177	0x3fd8f7adb0beaff8	0.39011709461442434
178	0x3fc0737d36e31df4	0.1285244482044018
179	0xbfd5fbc6ff48cb6f	-0.3434922688494941
180	0x3fa836b4eaa27d78	0.04729237903779454
181	0x3fe2cafac1f887e1	0.587277773713364
182	0xbfd09a51daa0b2b4	-0.2594189295803446
183	0x3fa01fc97ab09d4b	0.03149251578025288
184	0x3fcdb475bfd3cd16	0.2320697008759473
185	0x3fd98c8fc5104dca	0.39920419926167183
186	0xbfcec041a3842e78	-0.2402421997470474
187	0x3fc26e99643b0753	0.14400021928855242
188	0x3fa2052053082100	0.035195360313140966
189	0x3fb6c45923f3845e	0.08893353584018501
190	0xbfc2f33b928fd968	-0.1480478730806667
191	0xbfd2ac39d3fd2823	-0.29176183416405105
192	0x3fa8467a702b8c53	0.047412706558838245
193	0xbfd05580eb02b25c	-0.25521872472999063
194	0xbfb3964aee1abdb2	-0.07651203454110236
195	0x3fbf3a42cb926775	0.12198274106995462
196	0x3fd14045ca9cf6f9	0.26954788958015247
197	0xbfb1a7432c6f431b	-0.06895847163037809
198	0x3fb3e40285a02d5a	0.07769790422769543
199	0xbfb388da398b8c76	-0.0763069525233265
200	0xbfdb367836cd8885	-0.42519955970613693
201	0xbfe08167bb610cfb	-0.5157965335605746
202	0xbfc85eacd10165c3	-0.19038925366730383
203	0x3fe0701c61cfc0fa	0.5136854086286171
204	0xbfd3c95f2ef1c8f2	-0.3091657598917116
205	0x3ff160fb1f24ebee	1.0861769882746972
206	0xbfdb834cac3e76c2	-0.4298888856954869
207	0xbfddc3b30bd955e2	-0.46506954342961937
208	0xbfe822ffa6ed635e	-0.7542722950266627
209	0x3fe197f4fba0fcaf	0.5497994341493689
210	0xbfc69715d4733d72	-0.17648575662176885
211	0x3f8be5abf37574df	0.013621657721780199
212	0xbff17c75b8b0e005	-1.0928857054223056
213	0x3fb85a766e9ac8f2	0.09513035011585538
214	0xbfc411008b53f316	-0.15676886370774729
215	0xbfc8a6136240e253	-0.19256822869808107
216	0xbfc39766d43175f0	-0.15305791245457057
217	0x3fbe9e873bef6a03	0.11960644925367352
218	0xbf9f812208e5408d	-0.030766040604533407
219	0x3fdbd7e08a0ea6f2	0.4350510929312882
220	0x3fa79ad11b9db202	0.04610303365811676
221	0xbf9774736b266724	-0.022905162253301317
222	0xbfb7426902173ef0	-0.09085708905262968
223	0xbfde448a6bf279ea	-0.4729333929225549
224	0xbfada99d79f47630	-0.057934685837818356
225	0x3f87ed374d4892d2	0.011682922407154992
226	0x3fb26a389984f2c7	0.07193330524473672
227	0x3fb5cb3a282630bb	0.08513225059704414
228	0x3fc99482aca58985	0.1998446791649934
229	0x3fc503d68b9e5e99	0.16417962853733029
230	0xbfe361031db6bcd4	-0.605592306170275
231	0x3fde3a37394f6571	0.47230320545857923
232	0x3fb7285c9a8cc174	0.090459621173755
233	0x3fd2613df1d78301	0.2871851789223428
234	0x3f927e998a18b39b	0.018061064771405105
235	0x3faff3a01665db38	0.062405588850131755
236	0xbfec1d658b6dbdf8	-0.8785884593216329
237	0xbfa82c9d0781cc6a	-0.04721537319792264
238	0xbfb9f53d36aa8b96	-0.10139830193160856
239	0x3fe32e0ae1bc8370	0.5993704232133563
240	0xbfc5840b467cb34d	-0.16809216443780386
241	0xbff1b8ffa4bfd3de	-1.1076656756897516
242	0x3fc9a96529acdeab	0.20048203024793074
243	0x3fccdebff537d109	0.2255477855065993
244	0xbfe1367f29f144d5	-0.537902433318005
245	0x3fd64da2128d1aff	0.34848834811820945
246	0xbfdb15c919303c55	-0.42320468387419413
247	0xbfd3adb91f6aab61	-0.3074782187274448
248	0xbfc59c9b4906152d	-0.16884175363171874
249	0x3f9d1b52f50be09a	0.02842454548496729
250	0xbfe1f1eaa7d30bd9	-0.5607808378048232
251	0x3fc3aa1f2d7528c4	0.15362920493709542
252	0xbfd39a608f772262	-0.30629743585863
253	0x3fc611c61de37b95	0.17241741618542208
254	0x3fc0d29e6357d4f3	0.13142757273423164
255	0x3fc9686790143307	0.19849867377379146

linear_layers.1.layer.bias f8 [40]
0	0x3fa98dd2fa314fe9	0.04991015724286269
1	0x3fb25acacd8028a9	0.07169787900071135
2	0xbfab16f1dd41dfbf	-0.05290942979712509
3	0xbfc2da229098fe16	-0.14728195248061188
4	0xbf59bf211c0af93e	-0.0015714476905227116
5	0xbfc2cf08ea09d527	-0.14694320132881808
6	0x3f94b2d0ecf55e19	0.020213379347607672
7	0xbfc66a2846ad783a	-0.17511466456466157
8	0x3f863607bf0e8b85	0.010845242040721246
9	0x3fbe7d203576f56f	0.11909676842966176
10	0xbfccae4184d93d54	-0.2240678690600172
11	0x3f8db43ad1b07d3f	0.014503917240345941
12	0x3fb1fc38f4ba9d6f	0.0702548596842598
13	0x3fd35199ca0ca0fb	0.301855513871956
14	0x3fb6f1801871f74b	0.08962250325018066
15	0x3fa73ef3f69eabf9	0.045402168135602446
16	0xbfa02191d9468a9e	-0.03150611665048085
17	0x3fbefd07001bfbed	0.1210483908907773
18	0xbfd35b7e0b9337cf	-0.3024592507398411
19	0xbfc17a9872a09e0a	-0.1365538177208097
20	0x3f749fe02f10de48	0.005035281866234316
21	0x3f91287688937c24	0.016755916677421948
22	0xbf9207282b972c85	-0.017605426464609514
23	0xbfc88b27c6b53295	-0.19174668505219886
24	0xbfbe0d03a1b0e4a0	-0.11738608071836376
25	0x3fb77ea616e16900	0.09177625712019122
26	0xbf85b621de5d7103	-0.010601296042004998
27	0xbfd86e4789dea39d	-0.3817309233077653
28	0x3fb0f15325d1e2a8	0.06618232415520231
29	0x3f7625b372cc467c	0.0054070481972005
30	0x3fc4637874045b73	0.15928559937375616
31	0x3faf4ffd81e48b44	0.061157152277039134
32	0xbfcea5561c396aee	-0.2394206655324846
33	0x3fbe35f045d0dd75	0.11801053719033468
34	0x3fbcf63b2f0ee85c	0.11313218974001543
35	0xbfb2056ac5ab3005	-0.07039515806098968
36	0xbfa4fc85bd16a80a	-0.04098909314355133
37	0x3f9746c616bd61dd	0.022730918062139217
38	0xbfbe775fedc83834	-0.11900901370265232
39	0x3fc6a0c9daac4e01	0.17678187539478077

linear_layers.2.layer.weight f8 [3, 40]
0	0xbfda03a120584916	-0.4064715209834885
1	0xbffb9ad705dbd854	-1.725302718053645
2	0x3fa62f743ed399dd	0.04333079592634068
3	0xbfc8b5f24b6c5d79	-0.19305256541040786
4	0xbfc5a51ae33086a2	-0.16910110562553365
5	0x400a61a27d73224b	3.2976732064019294
6	0xbfef3e939e333c77	-0.9763887491079818
7	0x3fd3cbfa9128464d	0.3093248765518169
8	0x4002ffe681f1ef0e	2.3749513771016444
9	0x3fd28560e2b01160	0.2893907750842768
10	0xbfbe04b499b28730	-0.11725929977776839
11	0xbfea5e4327d2f7c6	-0.8240066316427537
12	0xbfe02923b056fd3f	-0.5050219005715134
13	0xbfc7dbb59ffb3725	-0.18639250098788654
14	0x3fd937848486be52	0.39401352827096503
15	0x3ff69787c786b5be	1.4119947237007717
16	0x3fe50faa1181bfa7	0.6581621496134077
17	0xbfaa071c9023b432	-0.0508355070067882
18	0x3fed433f1c295d9b	0.9144588041335057
19	0x3ff429855d0512c6	1.2601369508349065
20	0x3fdefb04c2d07518	0.4840709593280095
21	0x3fee1b4635a2db1b	0.9408293769436996
22	0x3fd3e5bafc5eafb2	0.3108966316747185
23	0x3ffd4052e01a36bc	1.8282040361404333
24	0x3feb381fd5401e29	0.8506011166618396
25	0xbfa93f413dea3553	-0.049310721214264185
26	0xbfd38222ed46ffac	-0.30481789752593147
27	0x3fb0134031843ac8	0.0627937432184168
28	0x3fcc74ee69608e37	0.22231845994348173
29	0x3fe5fb7e757f78a2	0.6869499487763913
30	0x3fe8415f6b8c1392	0.7579800701647506
31	0x40010be74fdfa168	2.130812286388551
32	0x3fe5506285af4c98	0.6660626040487783
33	0xbfe0157b459a1886	-0.5026222571766688
34	0x3fde612887a0262b	0.47468007321058064
35	0x3ff99afdb2b0ac3a	1.600339601524651
36	0xbfdc499b98daf5af	-0.44199266364361284
37	0x3fdcfbb32f0a5f4f	0.4528625449543044
38	0xbfd860faf69b093d	-0.38091920931414675
39	0xbfac8f5586c909fc	-0.05578105230644678
40	0xbfe2d2ff4523f1eb	-0.5882564878843913
41	0xbfffd09eee6b511a	-1.9884328187227482
42	0xbff612d387db5615	-1.3795962626367146
43	0xbfd5ec012d9d5b00	-0.3425295777755508
44	0xc0093809780bf4b3	-3.152361810555328
45	0xbfe532d3c6656cd1	-0.6624544978070849
46	0xbffbe30d10279a63	-1.7429323798220586
47	0x3fe1adc11ea4136e	0.552460250707197
48	0x3fec22645aefe118	0.8791982437242352
49	0x3f8e1076b6fdb13c	0.014679839572374058
50	0x3fe0441ea3734fa5	0.5083153908149042
51	0xbff7a500c5397f20	-1.4777839378438742
52	0xbfe101fd0627e71b	-0.531492721579727
53	0x3fb99f5575c56aa8	0.10008749127647809
54	0x3fda16cc610a0fd4	0.4076415012025312
55	0xbfe00c9114cb456b	-0.5015340238698348
56	0x4000793a8ce675af	2.0591937072592468
57	0x3fea8d00c7cfe3cb	0.8297122862414822
58	0x3fdfa739b323e277	0.49458162779004716
59	0x3ff6e5affabd9bb9	1.4310760302121095
60	0x3fe2710c76787a00	0.5762998880271084
61	0x3fd1f3c462e56753	0.2805033651144317
62	0xbfac895e74679b8c	-0.05573554202037831
63	0x3ff15028d90fc0c8	1.082070205589888
64	0x3fc548dd3c7c881a	0.1662861390441897
65	0xbfeb30bea8ac9568	-0.8497002882401548
66	0x3fd42e2453544c14	0.3153162778627927
67	0xbfc34a9ded31b102	-0.15071462709182276
68	0x3ff1c165a07e86ef	1.1097160596186162
69	0x3ffcd290bea659ba	1.8014075705774375
70	0xbfd9db221a3a05f3	-0.4039998298759137
71	0x40071c819bb3a974	2.8889190830424756
72	0xbfdcd8cd2cd978ce	-0.45073251132806724
73	0xbfa883341855d6c8	-0.04787600323736069
74	0x3ff26f8f69c1efe5	1.1522363787798835
75	0x400aba48c393e6aa	3.3409590987692654
76	0xbff6b97a70e8536b	-1.420282784504901
77	0x3fedbbf001559a6c	0.9291915918409592
78	0xbfdf37ca6fcade63	-0.4877801982615663
79	0x3f9c0e59fa5ead9c	0.027398496538507552
80	0xbfeef41550368018	-0.9672953192384766
81	0x3ffa0b09765f871a	1.6276945709182145
82	0xbff64a8e13a45532	-1.3932019011748022
83	0xbfe617f9ba38e9fc	-0.6904266965059942
84	0xc003350054d5d060	-2.4008795383215755
85	0x40071f57f25e5f61	2.8903044638681625
86	0xbfd071ae4883cdfb	-0.2569385250237414
87	0xbfe99b9eadcb2bb2	-0.8002465624243682
88	0x40001e0544accccd	2.0146584859117866
89	0x3fee52c550e75057	0.9476038532398076
90	0xbff4105f67c35df2	-1.253997235607923
91	0xbfd0d5690060507d	-0.26302552258244544
92	0xbfe6b16f5083a5ae	-0.7091595242065318
93	0x3feab49c6d3e6a9c	0.8345472463291403
94	0x3fe2c62bf24035d6	0.5866908771001202
95	0xbfd387009ad16a34	-0.3051148902792733
96	0x3fe189a301aa02ec	0.5480513603689281
97	0xbff181d025dc4af4	-1.0941926459242355
98	0xbfe1eb41001d20fa	-0.5599675180647232
99	0x3fee51cafd156710	0.9474844878234041
100	0x3ff05ec0f53e7843	1.023133237823928
101	0x3ff3312fc8dd4764	1.1995084615959621
102	0x3ff35c50872bd897	1.2100377349975469
103	0xc0118554c6ef0575	-4.380206211413101
104	0xbfe90f31dfd5b63b	-0.7831048366330785
105	0x3fe70ca0f166b757	0.720291587340152
106	0xbff142a41fbbb658	-1.078769802053463
107	0xbfeb333225a76330	-0.8499994979311847
108	0xbfe35114ac040ee9	-0.6036475524601573
109	0x3fdc14817c828ec4	0.4387515750806694
110	0xbfed9d3a60c1ca1f	-0.9254428758416146
111	0xc009096f3748b1b2	-3.1296066588458524
112	0xc0084ea9362df069	-3.0384086830873014
113	0x3fe87740488ce2e7	0.7645570199011588
114	0x3fe5d56239c5e88b	0.6822978142147503
115	0xbfd667565ec49bd4	-0.35005721335113305
116	0x3fd10c77e6635a66	0.2663860082515498
117	0xbfd95ae537e5a5c8	-0.3961728139753089
118	0xbfe298dd183fec60	-0.58116011368055
119	0x3fef18aa6aebce0a	0.9717609489729864

linear_layers.2.layer.bias f8 [3]
0	0xbfcaf05efa430ca2	-0.21046054096050165
1	0xbfa83700bceb537c	-0.04729463869231318
2	0x3fe4dc2b70926f7d	0.651876182429518
