8_Inv_Lorenz/logs/models/2023-10-16-09-05-45_Lorenz_DNN_100X5/epoch_2000.pt (torch, 332139 bytes, 15 tensors)

alpha f8 [1]
0.005482702596170589
00000000: 1e09 82c5 0775 763f

beta f8 [1]
0.010719263604977465
00000000: 51f3 f634 fbf3 853f

rho f8 [1]
2.88999437144652
00000000: 21e5 775e b51e 0740

net.0.layer.weight f8 [100, 1]
0.6911648132839809 -0.06420974539430531 -0.6010330519107691 -0.09917298051590344 0.4392445154831019 0.6971003239672962 -0.644535630354368 0.3937482226424759
-0.8576771277325912 -0.6018471681838562 -0.7928076809825347 -0.8341530442518386 -0.5287086414942276 -0.32675219956491897 0.6564329633278523 0.20985117914105364
-0.9531995181608153 0.42903830464414927 -0.5860995732046477 0.24460139900035152 -0.6984153069250633 -0.35163064404514516 0.19621558483656906 0.8028864848834406
-0.10342496825780034 -0.5185890469114475 0.7476448188599896 -0.23958103107792186 0.6052899974873773 0.21163586008171315 0.5235887267278384 -0.7018234013850707
0.2248626269140272 -0.4729137552433826 0.0172067989801878 0.7203950455234105 0.681132188617129 -0.6580424338392843 -0.5585030969753848 -0.6965574667866059
-0.22894406860311534 0.2239066216577196 0.42755975717286726 -0.6079549690707452 0.16087877383473706 -0.8107963312264056 0.007357429757753738 0.3200232831207808
-0.35978051472336575 -0.007214983983639654 -0.0026020674494533886 0.617852779397111 -0.6319937944247076 -0.7366726312831405 -0.5987520489937446 -0.4807702944359582
0.5138791761182552 0.376789147710186 -0.674256576310545 -0.1328533277538078 1.1631620802645424 0.6531616363057161 0.04300265355612691 0.6390255532284553
-0.9380672245236201 -0.057417768137518414 -0.14043208085023293 0.002151635467242193 0.7000096495565425 -0.36641274652491723 0.26917272795750485 -0.5225169767776533
0.686012948817895 -0.665552806224988 0.4489535327650165 -0.6873898148555885 0.584882981877698 0.1295021089010854 0.4971747362783587 -0.4765035624303641
-0.6315743326043382 -0.5194529443035466 0.6321346353666232 -0.39262415276179446 0.09980184440062052 0.6289946948125809 0.5852672841466642 -0.41032831580483964
0.7706748483094418 -0.6360351625744315 -0.5625303487170156 0.5004736250663271 -0.6736366559149419 0.7296858593239005 0.7186002921752876 0.049963945329217246
0.5941601425906804 0.4141397159542115 -0.211125077535151 -0.7305532373703668
00000000: ae6b a6ab 051e e63f 3d93 8dc4 0c70 b0bf
00000010: c7b2 b8aa a93b e3bf 4370 f683 6663 b9bf
00000020: 5fa0 3c07 951c dc3f ae0e af56 a54e e63f
00000030: f751 af2f 09a0 e4bf 46e2 c6be 2b33 d93f
00000040: 2e70 c44d 1772 ebbf a646 11fe 5442 e3bf
00000050: 85cd ba36 ae5e e9bf a274 9db9 61b1 eabf
00000060: c991 8a62 2eeb e0bf ccc0 c10e 82e9 d4bf
00000070: c44d b0b3 7f01 e53f e30b b847 67dc ca3f
00000080: 8009 a246 9c80 eebf d062 cb13 5d75 db3f
00000090: f4a1 63e4 53c1 e2bf e994 a140 194f cf3f
000000a0: 3b9b c80e 6b59 e6bf 0d80 1cd1 1d81 d6bf
000000b0: 8356 eb9f 971d c93f 5d31 5fff 3eb1 e93f
000000c0: b0d0 4108 0f7a babf 1f8d 910e 4898 e0bf
000000d0: 46e1 c0d3 b4ec e73f 815e 9c5a 97aa cebf
000000e0: 12bc f920 895e e33f ee1b db44 e216 cb3f
000000f0: 0b36 3b25 3dc1 e03f 0586 9059 5675 e6bf
00000100: 5e1d 586e 4cc8 cc3f ff53 260e 3844 debf
00000110: 3415 8ebb a89e 913f be26 17e9 790d e73f
00000120: 91a1 4bbb d5cb e53f fe09 9701 af0e e5bf
00000130: f62a 07e3 41df e1bf 2e42 74e2 324a e6bf
00000140: 5cbc a10b 0a4e cdbf 255a b0e0 f8a8 cc3f
00000150: a329 8999 235d db3f 732f b3fa 5d74 e3bf
00000160: c1d1 1ef8 ac97 c43f bbb1 ca25 0bf2 e9bf
00000170: 5520 1303 d322 7e3f 5d96 bdef 427b d43f
00000180: cd64 1eda a406 d7bf a4ab 0384 758d 7dbf
00000190: 5bce 1d53 ee50 65bf fd1a 2831 73c5 e33f
000001a0: b687 ca0c 4b39 e4bf f504 677b d292 e7bf
000001b0: 7aea 9a0e fa28 e3bf 2468 dfc4 f0c4 debf
000001c0: 1fbf f0bd b271 e03f 22ca b93a 501d d83f
000001d0: 2abc 0b87 8293 e5bf 1906 ef7c 5601 c1bf
000001e0: c4ef 6ad7 4f9c f23f adea 5d3b b3e6 e43f
000001f0: 765e 549d 7104 a63f b195 8db7 e572 e43f
00000200: f6e8 588e a504 eebf af4b b898 dc65 adbf
00000210: 23ce 47ad adf9 c1bf 2bfa de7e 4ea0 613f
00000220: 495a f7a2 7a66 e63f 255f ca72 4e73 d7bf
00000230: 9b5d e33f 203a d13f 8bac db85 75b8 e0bf
00000240: aec5 796d d1f3 e53f 48ea 0f66 354c e5bf
00000250: f08f 2999 a7bb dc3f 5d10 cdec 18ff e5bf
00000260: 83da e483 5cb7 e23f ed20 3f6d 8693 c03f
00000270: 63a1 2dfc b5d1 df3f d737 44cc 087f debf
00000280: c6ea f05f db35 e4bf 4f07 f3c7 5b9f e0bf
00000290: 6931 326a 723a e43f c9d2 ee0d c120 d9bf
000002a0: 2df9 c719 9d8c b93f 2c7b 727b b920 e43f
000002b0: 6684 9a74 82ba e23f 7c4a 40b2 d142 dabf
000002c0: 8fd7 aa4c 5ea9 e83f 8d9f cb69 665a e4bf
000002d0: e5e7 57a5 3f00 e2bf 4074 8543 e103 e03f
000002e0: cf53 d175 6e8e e5bf 3dcb c428 9659 e73f
000002f0: b63e 390a c6fe e63f d413 56ce df94 a93f
00000300: fa6f a021 5c03 e33f 58e0 ffdd 4381 da3f
00000310: 0981 b083 2506 cbbf cbc3 cf2e b160 e7bf

net.0.layer.bias f8 [100]
-0.0009006141635885349 0.002741458919673994 0.0008054510409817939 0.0021827380825733345 -0.006064834148432671 -7.277972607701922e-05 0.002338457906842942 -0.003443786415508661
0.004005787487800393 0.0014696000184385924 0.0013555796413321655 0.0008032213239791426 0.0020344557646102277 0.00028751031463286744 -0.0046212842434945715 -0.0018134373953362778
-0.00016837158638027708 -0.0002393876169899003 9.844254150031338e-05 -0.0009481724331944228 0.008368245995935235 0.0014066552842902525 -0.0013063394626401227 -0.0003725638282982726
0.002814837095305979 0.002624785009575099 -0.003848542542822108 0.00035624685902186417 -0.0007509020832533372 -0.0008550233521726621 -0.009445347438722962 0.0012210453058951408
-0.0009459117453204636 -0.0007299815334087112 -0.0011559027495307236 -0.00040839922620074254 -0.002772237692242477 2.2885446876000405e-05 -0.0023586903549400796 0.0013876186139352988
0.0011069684050083821 8.227302154630183e-05 0.000896309082872655 0.003558779445766165 -0.0007819196909468202 -0.00019829791896912823 -0.0007714133587566855 -0.0026234022993635348
-0.001764175909679402 0.000970740621677487 0.00011197044247700245 -0.0006881978975070522 0.0014183898889650653 0.0014363801757023454 0.006792949573170371 0.0015236437609648914
-0.0007623060806672334 -0.004031123246381282 0.0035710058975274225 0.004629409555078241 -0.0009784093138977563 -0.000848201605136035 -0.002575307009375926 -0.0011322643591976252
0.0028286809731503395 0.0016826770324997761 0.0034462032298694487 0.00020613144425284168 -0.0007306660570461288 0.004182407966091815 0.0006762320132612936 -0.000191678344995961
9.633418357216634e-05 0.0017291754216570317 -0.008374770650056053 0.005575395285047129 -0.007572539491334019 -0.0020115636910774184 -0.006466733934012289 0.006205126526723361
0.001232737130264413 0.0019581535679519366 -0.0013285704782031121 0.0012024698744299632 -0.00442177586201197 -0.0010973152900922215 -0.0009472275754250763 0.0003218768052642576
-0.002087086501297738 -0.0006953738410848451 0.008256887984035139 -0.008538567949034064 0.0032443830170058694 -0.008356703007664489 -0.0013481667640642683 -0.004069618785316464
-0.0011368757906226766 -0.00022939594479522195 0.0013338576571821155 0.0010502985722783804
00000000: 55af 8030 e682 4dbf a50e e88c 4175 663f
00000010: 48f6 94f0 9c64 4a3f 52b9 c595 88e1 613f
00000020: 3dc1 2b85 70d7 78bf cb25 5a2c 2a14 13bf
00000030: ed6e 7407 1a28 633f c3b8 edc0 2436 6cbf
00000040: 3fc7 1364 5f68 703f e0fe 1c01 f313 583f
00000050: 495a 818e b635 563f 0644 b2a8 e851 4a3f
00000060: c250 2c1f 90aa 603f 185c 0b66 9fd7 323f
00000070: 4caf 0f8b c4ed 72bf bca0 9a93 1bb6 5dbf
00000080: d83f 06ea 9c11 26bf 6f1a daf8 8360 2fbf
00000090: d28d 30fc 5dce 193f 088b b7cb d811 4fbf
000000a0: 49f7 04f7 5e23 813f 4861 569c f00b 573f
000000b0: b9b5 3f51 2f67 55bf 377d 4d75 956a 38bf
000000c0: 50b1 9228 240f 673f 2914 ceb8 9280 653f
000000d0: 4b5a 7a8b fa86 6fbf 6f6c da9b d458 373f
000000e0: abdb edf1 059b 48bf fdee ddaa 7404 4cbf
000000f0: cd14 ca12 1558 83bf 66df f769 6f01 543f
00000100: ec34 6a01 e2fe 4ebf 85b6 0568 87eb 47bf
00000110: 65fc 6b20 35f0 52bf 0281 fb51 cdc3 3abf
00000120: 548b 32c7 cdb5 66bf 74f6 26ef 43ff f73e
00000130: 0d8d f23d 8852 63bf 812d 3c24 18bc 563f
00000140: a6ca 3846 f622 523f 76a4 5ebf 3f91 153f
00000150: a490 5919 c95e 4d3f 90ec a92a 4d27 6d3f
00000160: 066e 17c0 379f 49bf be36 5727 c6fd 29bf
00000170: da29 e392 1547 49bf 0981 8f62 ac7d 65bf
00000180: a5a0 8875 7de7 5cbf 1361 8b9c 29cf 4f3f
00000190: 05fc e18d 355a 1d3f 5a8f 42bb 058d 46bf
000001a0: 97c4 e88b 283d 573f cddd 4578 9d88 573f
000001b0: a78c 2984 ecd2 7b3f 773b f107 a0f6 583f
000001c0: ba19 cfd7 affa 48bf 494f 2668 f082 70bf
000001d0: b004 6631 f140 6d3f c8bb 38aa 49f6 723f
000001e0: 08b7 5600 bf07 50bf a1cd c513 3bcb 4bbf
000001f0: 18dc 3c6c cf18 65bf 46dd 2999 0f8d 52bf
00000200: c3eb a788 2c2c 673f 899b c1b4 a891 5b3f
00000210: 1976 5d45 363b 6c3f 14ce 9c9f 9f04 2b3f
00000220: b929 df68 45f1 47bf 7e22 ed96 9221 713f
00000230: 7fdc d330 a528 463f b559 3b72 a81f 29bf
00000240: 8ea9 f5ab e040 193f 50e3 a4f8 af54 5c3f
00000250: e78c 6db0 ca26 81bf 78b5 95c6 39d6 763f
00000260: 413c 6817 6204 7fbf 9040 8b08 8e7a 60bf
00000270: e3e1 22ac dc7c 7abf 1c42 fff7 8b6a 793f
00000280: 57e2 2d6a 7932 543f 19e5 1db1 8b0a 603f
00000290: e9ab 46b0 6dc4 55bf 1e1c 3f32 86b3 533f
000002a0: f638 7b6b 911c 72bf 1bbd 3252 79fa 51bf
000002b0: 753b aaba eb09 4fbf 0f75 195a 3218 353f
000002c0: f83c 8b08 f018 61bf 3147 f6f3 37c9 46bf
000002d0: 4a86 ddbe fce8 803f bc25 c430 ab7c 81bf
000002e0: 9905 85de f693 6a3f d961 f6b0 511d 81bf
000002f0: 8144 510a 9f16 56bf 3323 71f9 4dab 70bf
00000300: 4c1b c815 67a0 52bf 1082 5529 4011 2ebf
00000310: a2aa f7c0 9ada 553f b6d2 3681 4535 513f

net.1.layer.weight f8 [100, 100]
0.0880401501960757 -0.14431817968902078 -0.11932924697499278 -0.03594872740851927 0.0973302100368617 -0.0447637092203889 -0.0008503412928017271 -0.034566898046463894
0.10654829501921445 0.009094019382038777 -0.08471711161725151 0.0239440847708638 -0.04678886507170433 0.14220495164888497 0.17559770335566027 0.025857967964307112
0.14161151083688256 0.043255298658472885 0.09620642588910856 -0.04346294203851099 -0.08667236596700571 -0.012111011889043418 -0.16808452540504365 -0.07245118905194817
0.05989833305171672 0.027383024533411526 -0.0026008773489575514 0.03818396961774348 -0.01121888871762191 -0.10266934138157345 -0.013895514253420166 -0.1747273736597042
0.07914181814776315 0.16839843394939807 -0.05174418400683663 -0.06686207189176957 0.06905239887190084 -0.16326409579098683 0.056676973597119366 0.09785025706213914
0.06490450685622792 0.012522008229760838 0.03133652897709961 -0.12985770786267048 0.12669347524636673 -0.1125803969597075 -0.1406346645882599 0.1465643726052688
0.09335957732631885 -0.043650059909249764 -0.01727307666473899 -0.14992330064412088 0.15220862072318594 -0.004021872273468843 -0.001736860747473363 -0.12615015588227838
-0.041242979173579525 -0.06566559190050167 -0.08203968753291717 0.13100472582764508 -0.09217261159888039 0.14441133845503956 0.08115764788869068 0.11260235066593953
-0.104087707517815 0.14270355201837 0.0803692481077667 -0.1563871901281571 -0.010578733748906506 -0.0596299241511127 -0.0010763641543361322 -0.09193205917128895
0.021397789133171998 0.12858401023823285 -0.1595814460985001 -0.16869988573510375 0.010238613694281251 -0.08077894503941863 -0.023075680635970337 -0.05490607719004944
0.14328074078762218 0.07864840478275649 0.11236844148745534 0.08160512734283784 0.10685910775160891 -0.057009033417662724 -0.16116809902598983 -0.16065872636302322
-0.06814984399705187 -0.031684372027364106 0.047474130656804114 -0.12109298459648231 0.07472800641130915 -0.034247457364266376 0.05724878659026229 0.10756729536196664
-0.0017120695300472224 0.0593959646136933 -0.018963477558181757 -0.06407961533681814 -0.10012900965804569 0.11479716993775127 -0.0062219864122782555 -0.16351770270818736
0.04946342188539756 -0.01669004129338564 -0.012671490363395635 0.041655331706599984 -0.10163695266120754 0.08213584773289458 0.0061314588502273904 0.08347922531717487
0.06787165469910063 -0.02900657789115955 -0.13960600373896082 0.004440584263545026 0.11534475538876623 -0.07118881846761811 -0.023814220824832363 -0.00314675541599508
-0.08852552873317356 0.025784573083968837 -0.03704439934290927 -0.017455815976292262 0.05649918055486087 0.06283443795192804 -0.1285145464708369 -0.04118537812366844
0.07413850778407849 0.0013837976696009482 -0.006258561215277386 0.2209581948082687 0.15221260876203704 0.008966744837089811 0.012658447526144553 -0.10050485135070235
0.08110315345590584 0.08491090476248563 0.04033346646616101 0.16373684433482424 0.14425791536401242 -0.11124273640634617 0.003339518917800626 0.1252290135699626
-0.08239551130074753 0.14897688588127359 -0.1082745062957054 0.023936822529407906 0.07561614250738895 0.11630568605573068 -0.010909421720835408 -0.06179899019928465
0.174682313298191 -0.057841685613965965 -0.07328868365058201 0.16608062432666007 0.051816091467615906 0.015489382544538167 -0.11805162373802967 0.056100006576590825
-0.0733740276140079 0.09526272520775858 0.05521405052584909 0.13594717252071778 0.05860761126190887 -0.0361725992392661 0.12019230159277203 -0.12860515254908297
-0.2113276278330823 -0.11000268041652358 0.1329416240289174 -0.15413206691621492 -0.09710323925663181 -0.058427839962706354 0.0067177683356155525 0.08039275966495513
-0.08693107756462373 0.027969065033465686 -0.1388531908011412 -0.12570420393442855 0.07587167968362965 -0.044577519960988916 0.05085701115053484 -0.03261671296211236
-0.17124419637756402 -0.1771290924179727 0.0008202410667549439 0.15184646088156856 -0.06760010180932909 -0.046716449252561576 -0.055497532482358614 -0.17682240528493698
0.11704326539317127 -0.0330690089387589 -0.21426107957145504 -0.09746328916216039 -0.029836766329284423 -0.04119740153378791 -0.14359056086460936 0.10325409021983815
0.12637996742278443 -0.06972194761188695 0.04265690057722982 -0.03606739604386063 -0.1039160293209412 0.1409366191672404 -0.0618728522599576 -0.17597414035802045
0.2000592361941332 0.07868923299843625 -0.10301884705971091 -0.0774130416991275 -0.11836874563428279 0.07150130825497815 -0.2213661168155823 -0.05036878869668171
-0.07858387261354302 -0.07814853049770526 -0.09032570120047655 0.14948899565292637 -0.08045850135000295 0.10488719070811152 -0.14474677472048028 0.030830445872382265
0.10854586050607211 0.023237701558763195 0.0744892137513832 0.14723160117292444 -0.12926954405731775 0.07244294456495563 -0.011689916233789985 0.1308060447105333
0.15841349995348042 -0.16866329337477906 0.04175646596507904 -0.10658189241976802 -0.08019373477456414 0.11926475743101758 0.05633049047490343 0.07015103461685779
0.10640837727171643 -0.08144586950348644 -0.10979920867634198 -0.12204758441229241 0.0884543279164137 0.1592620522696251 0.12239332459640472 -0.007860700175002035
-0.12962888657429866 0.0773801535997004 -0.05232804478898664 -0.17853010588607005 0.14015442389766194 0.12803788163434826 0.027632864242033935 0.09647310366039714
00000000: 10bb d39d cc89 b63f b2c5 fda2 0479 c2bf
00000010: 36c2 368d 5c8c bebf 5dd5 1a21 df67 a2bf
00000020: e768 05f5 a1ea b83f 1667 4cd6 44eb a6bf
00000030: d5bc 8105 2edd 4bbf 1778 44a1 c0b2 a1bf
00000040: 7e55 8dc2 bf46 bb3f f42c ae9e e29f 823f
00000050: eac3 ce47 05b0 b5bf 7213 1854 cc84 983f
00000060: 0190 99ca b5f4 a7bf eea2 5498 c533 c23f
00000070: 9427 954c fc79 c63f efa8 fdda 827a 9a3f
00000080: 2a0a e473 5320 c23f 40d4 3bfa 8e25 a63f
00000090: 49d8 dbfc fba0 b83f f264 4955 c640 a6bf
000000a0: 6394 4b01 2930 b6bf cb17 e17f a8cd 88bf
000000b0: 2a07 ca31 cb83 c5bf 72d0 883f 298c b2bf
000000c0: 2986 158b feaa ae3f 53a5 58ab 4b0a 9c3f
000000d0: 2f23 f364 6f4e 65bf 7cb5 7a69 d98c a33f
000000e0: 8c00 1ec1 edf9 86bf c724 89b7 8948 babf
000000f0: 3d80 3c5a 4075 8cbf aacd ca71 775d c6bf
00000100: 9bcc b060 a342 b43f e250 4173 148e c53f
00000110: 7a98 22b4 367e aabf 0c32 1e6c df1d b1bf
00000120: 387b dd02 6bad b13f 2a43 0480 d6e5 c4bf
00000130: 475f 12a8 c304 ad3f 51b1 fce5 b60c b93f
00000140: 5e7d 4fee 949d b03f 99d4 9d7e 23a5 893f
00000150: d2eb 406e 570b a03f 2cac 3368 2d9f c0bf
00000160: 935d 66e6 7d37 c03f 13d6 1ca3 11d2 bcbf
00000170: b095 8b12 5100 c2bf f997 8c11 9fc2 c23f
00000180: 498a 62cb 69e6 b73f a2ad 8ef7 4c59 a6bf
00000190: 2263 818d 08b0 91bf 4d62 96cc af30 c3bf
000001a0: eb71 1674 927b c33f 03be 211e 3d79 70bf
000001b0: ea2d eb06 ec74 5cbf f728 f334 b025 c0bf
000001c0: bcf2 7abd cc1d a5bf 2665 afd1 75cf b0bf
000001d0: 5b8d ed8e 8d00 b5bf 238d 864a c3c4 c03f
000001e0: 3373 67d0 9f98 b7bf 7601 eb1b 127c c23f
000001f0: d490 8063 bfc6 b43f 731c 90f5 81d3 bc3f
00000200: 8d62 b4f3 7da5 babf 4b91 7828 1c44 c23f
00000210: 911a 3a3c 1493 b43f fa8f 8ed5 7e04 c4bf
00000220: 848d e09b 4daa 85bf 4319 2f3c d087 aebf
00000230: a87c da35 99a2 51bf 3539 9803 dc88 b7bf
00000240: 777c 2252 4de9 953f ac80 61db 7075 c03f
00000250: 104e 0532 2a6d c4bf 541d 0936 f597 c5bf
00000260: c059 c977 fbf7 843f b851 26cf edad b4bf
00000270: 2561 a8b6 26a1 97bf 4b0d c43b a61c acbf
00000280: bf2c eaf7 0557 c23f a1ac 6c46 4d22 b43f
00000290: 3486 4a9d 2dc4 bc3f 6697 1fd9 12e4 b43f
000002a0: 99a9 1255 1e5b bb3f 40fb 35bc 4930 adbf
000002b0: 98d0 3c01 28a1 c4bf cfe9 c513 7790 c4bf
000002c0: 04e1 31a7 4472 b1bf 25bc 4d1b ef38 a0bf
000002d0: 286d 277d 874e a83f afee 9d28 f3ff bebf
000002e0: ffc0 a1e7 5f21 b33f 208c b3fa e188 a1bf
000002f0: ca1e 4884 b64f ad3f d1e5 b2bf 8789 bb3f
00000300: 3444 f6a8 f00c 5cbf 8a74 0fdb 2569 ae3f
00000310: 0829 b96f 296b 93bf ae3e 368c 8567 b0bf
00000320: 76b7 dc05 0ea2 b9bf c255 8eea 5863 bd3f
00000330: a4a0 82c2 397c 79bf 816f b9e8 25ee c4bf
00000340: 432b b106 4553 a93f 718e 18b6 3117 91bf
00000350: b570 9ea5 82f3 89bf c38b c4fe d853 a53f
00000360: 70b7 be1b e104 babf 7d8e d7db da06 b53f
00000370: 9be1 d0f3 4c1d 793f 67f7 a1fe e45e b53f
00000380: 090f 4269 0960 b13f db47 a57d e6b3 9dbf
00000390: e029 310a 9cde c1bf ab30 fe42 4a30 723f
000003a0: 4aed 28e0 3b87 bd3f edc7 282f 6e39 b2bf
000003b0: 6f50 7d4e c162 98bf 11eb 3473 39c7 69bf
000003c0: 8924 c5ea 9ba9 b6bf 5841 8c68 4567 9a3f
000003d0: 4103 5bc7 7bf7 a2bf 7201 f9fa efdf 91bf
000003e0: 39c5 77e9 75ed ac3f 1bea 10f0 ea15 b03f
000003f0: ab85 1327 2a73 c0bf 45a6 3af8 3f16 a5bf
00000400: 488e 4ec2 bdfa b23f f7cb 0d6f 11ac 563f
00000410: ad86 d5bb 93a2 79bf 030b 3eae 5b48 cc3f
00000420: 49fd 55e8 b37b c33f ff71 9d1e 285d 823f
00000430: cbb4 2411 acec 893f e3fe a399 afba b9bf
00000440: db11 b21f 2dc3 b43f 5f55 0797 b8bc b53f
00000450: 641d d08e 96a6 a43f 7bbe c833 54f5 c43f
00000460: 97ba 561a 0b77 c23f ef65 c86a 677a bcbf
00000470: 3e97 2991 7a5b 6b3f d38b e51a 8107 c03f
00000480: 81b8 5f4a df17 b5bf c528 5cb2 ac11 c33f
00000490: 74d5 87c7 e0b7 bbbf c960 bcf7 e482 983f
000004a0: f370 1e5b 945b b33f a9bd f29d 35c6 bd3f
000004b0: f8f6 12cc ad57 86bf 69db a903 1ea4 afbf
000004c0: ea15 6773 fd5b c63f 5070 1de8 6c9d adbf
000004d0: 3536 7213 0cc3 b2bf edba fd40 2142 c53f
000004e0: d118 8584 a387 aa3f 9452 b6bb e5b8 8f3f
000004f0: 07cd 3197 a138 bebf 1a8b 1adb 23b9 ac3f
00000500: e75b fae8 a3c8 b2bf 788f 4b51 2363 b83f
00000510: b690 931a 0445 ac3f 49e6 fa89 b766 c13f
00000520: f549 551b d101 ae3f a3e8 7c05 3785 a2bf
00000530: a669 9234 ecc4 be3f bfcf 2536 2276 c0bf
00000540: 8265 24a1 c80c cbbf b67e dcba 2229 bcbf
00000550: 289c bd2b 3b04 c13f 6fc3 557d 99ba c3bf
00000560: b261 f104 c2db b8bf 6aa9 a1fb 40ea adbf
00000570: 856f db34 1784 7b3f 9c9e 98b1 9e94 b43f
00000580: b266 2577 1d41 b6bf 4f46 792e eca3 9c3f
00000590: bfd3 b7fc f0c5 c1bf 6a1d 6f4a 1317 c0bf
000005a0: 020c ef8e 536c b33f 510c bd5c ddd2 a6bf
000005b0: bce4 531f ee09 aa3f 7559 f346 23b3 a0bf
000005c0: eb24 896f 54eb c5bf 407c 8d85 2aac c6bf
000005d0: 59fc 3c47 aee0 4a3f 86f5 bf6f b46f c33f
000005e0: e132 7a82 3d4e b1bf a032 73eb 37eb a7bf
000005f0: 8875 0a2e 2c6a acbf e80d f3d7 1da2 c6bf
00000600: 03aa 1425 8cf6 bd3f 4663 cecf 6bee a0bf
00000610: a953 c834 e86c cbbf 0717 83a7 5af3 b8bf
00000620: 7922 697e 878d 9ebf fe1c 8968 d317 a5bf
00000630: fac1 76ed 2c61 c2bf eb24 ac2c dc6e ba3f
00000640: dba6 7901 382d c03f 7575 ce2c 4cd9 b1bf
00000650: 1019 db11 20d7 a53f 5ba7 ebfc 6c77 a2bf
00000660: c5af 76ab 3d9a babf cbe8 100d 360a c23f
00000670: dafa ee69 ccad afbf c2c3 e314 5286 c6bf
00000680: a3b7 5b82 8a9b c93f 3a8e 4642 fa24 b43f
00000690: c33a fe72 715f babf f4b2 6152 57d1 b3bf
000006a0: 5027 5e03 6a4d bebf 698b 93e4 e84d b23f
000006b0: 312d 1594 b955 ccbf e0fc 6118 f0c9 a9bf
000006c0: 2e42 de9a 121e b4bf 94d5 b7c6 8a01 b4bf
000006d0: cff1 a4cc 951f b7bf 6779 b895 7422 c33f
000006e0: 5dc2 fba7 ed98 b4bf d353 dc0d e3d9 ba3f
000006f0: e11e d0f3 0f87 c2bf c1cf f832 0492 9f3f
00000700: c360 fd58 a9c9 bb3f 2e98 eac0 9fcb 973f
00000710: aa89 f7a0 b911 b33f c0da fc2f 7cd8 c23f
00000720: 5129 0c88 e78b c0bf 3b80 bbed 9e8b b23f
00000730: 723c 56ff e1f0 87bf 324f 13a2 40be c03f
00000740: b4c5 c5c0 e446 c43f 3d48 8a40 c296 c5bf
00000750: d8df 6e7f 1a61 a53f d9e7 496e f348 bbbf
00000760: f76a 339c 9387 b4bf b649 bb98 2288 be3f
00000770: 8cf6 b69c 59d7 ac3f 78c0 750f 6bf5 b13f
00000780: 1407 6754 943d bb3f f968 e9f1 a2d9 b4bf
00000790: d13d 640a cd1b bcbf d449 9baf 823e bfbf
000007a0: 4635 975d f1a4 b63f 00f6 feec b262 c43f
000007b0: c7e8 633e 2b55 bf3f 2e01 6751 4519 80bf
000007c0: 7e0c 3aea ad97 c0bf a7f6 118d 2fcf b33f
000007d0: 5b8c 10d2 bdca aabf 42e8 1013 13da c6bf
000007e0: e7dc 8385 94f0 c13f f462 2299 8b63 c03f
000007f0: e27c db20 ca4b 9c3f fd3e 2a19 76b2 b83f

net.1.layer.bias f8 [100]
-0.00026708256553424734 -5.149376885135112e-05 -0.0003606600300990254 0.0017630749435481115 -0.0013032348645016115 4.199864021159287e-05 0.001220745956715863 -0.0009508075407994322
0.0006945415705080644 -0.0017901122016469291 0.005074979153189826 -0.003290816333061087 -0.004740088979774129 -0.003519687581679169 -0.004355785797834781 -0.0019916708832888774
-0.00397202569899462 0.003944088092469824 -0.015026933823668197 0.002121596806690055 1.8710513808028912e-05 -0.0016253924737621732 -0.004514231943263894 0.004175286682098484
0.0007118357443598021 -0.0019324689380909425 -0.001597838162409561 -0.0002244848201310939 -0.0022756285724455953 -0.0024999188227644567 0.004401052856933294 0.0022343430237807913
-0.005493817223259307 0.0016875983167806232 -0.004263749865253721 0.0006439683514166833 -0.0032098573612251214 -0.006848233197068395 -0.0035085214098583574 -0.002512502828652908
-0.004270537772464994 0.003014976796034355 0.0011694441863536495 0.005659426586270922 -0.00564751160218675 -0.0009694633902176911 0.0009427925212566004 0.0008010840496371752
0.00139250845635257 -0.0016300512673504109 -0.008520186723764443 0.002563573084266904 0.0008724165632015488 0.0013682820455628974 -0.0030372840157958437 -0.003937328816011173
0.004315285080477666 0.001724581184012163 0.0019385538577134194 -0.007802755699868672 0.004501142764309845 0.009402682670813626 0.006296780534844392 -0.005085161215556919
0.013534801414824724 -0.0013001880589741323 -0.0019812606204281397 -0.0026775951626150825 -0.002125907647235678 -0.007458810711016812 0.0015913235145762832 -0.0016855510010562714
0.0027249666186528083 0.002166389049901011 -0.0007028299534038601 0.0015792266768618823 -0.0014280100702833882 0.006445175578019223 0.003631481845375131 0.0005082538896478839
-0.009936005857283334 0.0001330383718848464 0.0008562518976266599 -0.019220569039275007 0.0015575039684109471 -0.0020740749361226954 -0.0029101949623173305 -0.010604955068735327
-0.0016051950805678248 0.005389296778192054 0.00598546157661652 -0.0009074271978708688 -0.008575596547929604 0.00011553803277796723 -0.007929193020852595 -7.04513765958608e-05
0.00268261717334794 -0.0033387655658604415 -0.0028906484032248576 0.0007445381148343891
00000000: 1493 61e2 e680 31bf 766c e16c 60ff 0abf
00000010: 7196 c408 dfa2 37bf 2296 444e dfe2 5c3f
00000020: c986 cfc7 295a 55bf a47f 1b4a f604 063f
00000030: 670e 7efd 2d00 543f 0b6b 71a5 f327 4fbf
00000040: 81ab 5faa 3cc2 463f f401 2f57 4654 5dbf
00000050: bc72 da57 80c9 743f 4f6d e290 57f5 6abf
00000060: c345 5ff2 576a 73bf bc3d c6e1 51d5 6cbf
00000070: 6b22 cd58 5fd7 71bf e920 dc29 d650 60bf
00000080: 34ea 9d87 f844 70bf 824b ea15 ad27 703f
00000090: 998c a7ea 70c6 8ebf 880f cd9c 4f61 613f
000000a0: e1bf e5b7 909e f33e 8778 26e1 63a1 5abf
000000b0: 438b 01e9 837d 72bf ba3f 04fc 1a1a 713f
000000c0: 6fbe fe9e 4f53 473f b5cd efb8 5ca9 5fbf
000000d0: 3ae8 b7a9 d12d 5abf 4697 fceb 756c 2dbf
000000e0: 46e7 7cc9 56a4 62bf fe04 c4b2 b57a 64bf
000000f0: a47a 6aa1 d606 723f 14ca e2c6 c14d 623f
00000100: 3a98 dd54 af80 76bf 2a31 14e5 4ca6 5b3f
00000110: a965 aca3 dd76 71bf 8ab4 2681 ff19 453f
00000120: cd6b 850c 8f4b 6abf 7c5f de99 e40c 7cbf
00000130: 0317 ce16 e7bd 6cbf 1b91 5daf 1995 64bf
00000140: fae8 1ac1 fb7d 71bf 07de 9657 ddb2 683f
00000150: 8e93 3b22 0129 533f 6764 a2c1 562e 773f
00000160: cdaa 295a d821 77bf daad 1fc7 72c4 4fbf
00000170: 54d7 d985 b7e4 4e3f 7173 b3e5 fa3f 4a3f
00000180: cc4e e291 9ad0 563f 76a8 9438 eeb4 5abf
00000190: 4cd0 ac1a 0873 81bf edc2 d9d1 3300 653f
000001a0: c092 c04d 5c96 4c3f 381b cba8 fd6a 563f
000001b0: 0d39 8770 a5e1 68bf 094f f9a7 9620 70bf
000001c0: ad74 b284 e7ac 713f 625d 37f2 6a41 5c3f
000001d0: 2c0f e85a e2c2 5f3f 9137 cb48 c8f5 7fbf
000001e0: 3937 7a4f ca6f 723f a2c7 86b4 b641 833f
000001f0: ffd6 7927 a7ca 793f 0aed d991 2dd4 74bf
00000200: 25e9 794b 22b8 8b3f e2cd 484c 624d 55bf
00000210: 0418 3a32 013b 60bf a8b4 f8f4 52ef 65bf
00000220: 60d5 36fa 596a 61bf 614a 2241 218d 7ebf
00000230: a11e f59c 7e12 5a3f f6bb 379b b69d 5bbf
00000240: a853 5050 ab52 663f 6fe3 d443 3fbf 613f
00000250: 94f3 0ed5 c307 47bf e1a2 86bb c1df 593f
00000260: 55e6 3623 8265 57bf cb70 31a5 4166 7a3f
00000270: 5384 61f8 c4bf 6d3f 85de c3ea 8aa7 403f
00000280: 25de ad21 5459 84bf 4cd2 a7e9 0670 213f
00000290: a575 dff2 c20e 4c3f f49d bc8d 8eae 93bf
000002a0: 71ce e426 a584 593f 50a9 a480 a6fd 60bf
000002b0: a637 0506 1fd7 67bf a3ee 90f9 0cb8 85bf
000002c0: d6b8 fb17 ad4c 5abf c086 9256 1613 763f
000002d0: 958a 911b 3684 783f c9a8 b511 0dbc 4dbf
000002e0: bd83 bc15 1590 81bf 4c7e f549 a049 1e3f
000002f0: 3e76 aa45 2e3d 80bf dc36 0a6f e977 12bf
00000300: f4f6 de20 dbf9 653f 0e9d 421d e659 6bbf
00000310: 2d0d 650b 21ae 67bf 4a9a 4a6d a365 483f

net.2.layer.weight f8 [100, 100]
0.12997737209589735 -0.2082802022923536 -0.027215313160390355 -0.09875462523234921 -0.010082057317091742 0.09515699870494494 0.20125138657357375 -0.02325264028355355
0.03059248198514061 0.07124490823680782 -0.13429086802486315 0.009622313365895845 0.12513943660163263 -0.14613127933449294 0.1322414619716868 -0.1692364953762146
-0.14262813909766378 -0.18344990068083428 0.018900032248474818 0.17728306524890866 -0.13793090696649707 -0.22594377021831652 -0.05788695174712399 -0.031559699899490395
0.11346644957807767 0.04501852363091923 -0.20225834743654017 0.07711952243133993 0.10002858378812217 -0.010451191490117305 -0.04432687984771287 -0.0029297852662388646
0.09081317915449634 0.09703867926574279 -0.09360731333622899 -0.06169192769957932 -0.11597418204781722 0.07666807791765225 0.05607848501129748 0.018827088907836718
0.046721074749049386 -0.1155442588004942 -0.20852132379538948 -0.08115517332583314 0.025967469417779228 -0.03766790140560762 -0.13344774529037606 0.03693349836882376
0.06778426415956865 -0.00030861745460019247 -0.0353806765571643 -0.1974148561947195 -0.07119206716963491 -0.08345367219348224 0.13216592158284862 -0.028840747913826053
0.22919351352651038 0.031228244930481958 -0.09633066383851259 0.16008304771074755 -0.039061410221580876 -0.08154812329897114 -0.07277789703250297 0.03129713946099594
0.026817663586103935 -0.1840878162013193 0.11929632640192643 -0.17159233547120742 0.1794222955386681 -0.11920305404260655 0.025416961685035946 -0.10773503935108113
0.08310469173859975 0.007778687454392852 -0.022627863949887663 -0.011628646235016188 -0.21749887012979666 -0.08422808619803238 0.17146707865197955 0.0836343689523506
-0.06838137603286876 -0.014074513276580986 0.00359413560272172 0.036268630353757304 -0.07847996603554046 0.06926505951137435 -0.04417508666614717 0.05874556815180098
0.12049997618417706 0.17014369453047234 -0.015082755416821287 -0.06867945087514343 -0.04096337401620186 -0.16664778238481864 -0.19509395893838843 -0.04320494527185722
0.04206778286859019 -0.035103844258462545 0.11018478901435573 -0.16133968335883458 -0.10003597610920319 -0.09893612046371823 -0.08470617758231953 0.002092908994328751
0.1809772059253428 0.15625416808996723 0.19142867415445528 0.059136613491315534 -0.15098406505613893 -0.061718602618685746 0.029965446479481416 0.00985660359469431
0.05639996392826183 -0.05910958037029853 -0.09721830742718902 0.0868813802180782 -0.23372382883244597 0.08192119770594397 -0.21273162190803252 -0.07697395979374619
-0.11072079180686609 -0.2183692784164221 0.17210544738631958 -0.02943573395461856 0.0731930020127231 -0.0008466889303877753 -0.042429656558341924 -0.10907332872475381
-0.09608034267695804 -0.25697158907667894 0.07071154483898562 -0.02131047653209344 -0.005786146320382081 0.19575376531170924 0.04067289305344534 -0.024568954691224092
-0.10190073852875782 0.033564756488580656 0.14499832091956544 -0.08873401097422629 0.005917053890530075 -0.014006089331331082 -0.10679511634516331 0.13750210236352775
-0.23360919117037096 0.13948717222146653 -0.0057776890279870215 -0.005719402922561497 -0.024320210900507084 -0.07354533960032476 -0.08531843381702103 -0.013970172494584992
0.0940756131082585 0.11385311812334785 0.15854010359727896 0.050778359283372286 -0.09680316668722629 -0.15149106338814025 0.023962304398532135 -0.28811378573204477
0.11439361509887758 0.3451705075799461 0.06642757576684283 -0.22967472273786468 0.25076975866364115 -0.15683328696695312 -0.07786462157976427 -0.2058344113572164
0.11292561069155392 -0.17682953884247757 -0.02144337650726893 0.233439746289674 -0.06149331534676802 -0.18475309883048366 -0.2147263083125136 0.012780005167424845
0.05381707376545494 0.26080490261079725 0.12948993820899232 -0.2505099980271453 -0.0093827998317872 0.05270186209765529 -0.16842508052000982 -0.05538405260284371
0.06789809071211442 -0.10624609076639736 -0.0831848502646811 -0.32004096451233605 -0.054968391547674654 0.1324773481060015 0.06660384044884814 0.03864850342969754
-0.1457326058944977 0.11234704179633413 -0.13010343927220014 0.12313288509335327 -0.16208526651355445 -0.13813071298834115 -0.19723873998515437 0.056381595623070865
0.05818984723905891 0.04079287648660835 0.0611984895463763 0.0450448975325543 0.07623808789733605 -0.013239901068994604 -0.0999311497197099 -0.08782321014649344
0.14908896694470644 0.06889650193708804 -0.14247070613502824 -0.01424719028487832 -0.18526665819558932 -0.05924187196740056 0.060987660857403786 -0.1470937406406994
-0.09830478854361939 0.11256323806459216 0.08583899850852654 0.02652777234975213 0.03636058665937452 -0.03232735512590973 0.006129757852744035 0.1634812076982362
-0.061688083971922374 0.17424185635799794 -0.11738678899605517 0.15521339608944942 -0.1356660539618617 -0.004995193949197817 0.13581146611773653 -0.13451813128893142
0.09782264418937109 0.09103835401646972 0.05081273766124691 -0.08361773770782416 0.19917928944616647 -0.03268037343223329 0.1803150891186531 0.13574704022568881
-0.04491355851450532 0.035994496581820065 0.09938743178914415 0.13359255514820106 0.0685910768499435 -0.15119846690200361 0.0959309426810871 0.024953642940198927
-0.09463017014024384 0.14424540709671455 0.10138504700463556 0.1646962419769255 -0.031004416243015503 -0.01122635965724951 0.10768629889559103 0.0982322775435376
00000000: 7d9a 2f39 19a3 c03f 7afd 9ff8 eca8 cabf
00000010: 57a8 e5bf 54de 9bbf 0ea1 b3ad fb47 b9bf
00000020: 2d5f a0d3 e6a5 84bf 4d5a 6c85 355c b83f
00000030: f3d7 cdfd 9ac2 c93f fd09 4146 8acf 97bf
00000040: 77c2 84b6 a253 9f3f 4e34 e236 1b3d b23f
00000050: 11bc 2873 7130 c1bf 5641 bf09 ddb4 833f
00000060: 946a d2ad 9104 c03f 6207 d504 6eb4 c2bf
00000070: d2fb 2bc9 49ed c03f 861a 779e 8aa9 c5bf
00000080: 8ff7 748c a341 c2bf fe76 f04d 497b c7bf
00000090: 6328 9ab1 875a 933f 2379 b023 36b1 c63f
000000a0: 36ad 434f b8a7 c1bf 3a4b e9b7 b9eb ccbf
000000b0: 2ff1 3cc9 5ba3 adbf b438 e1cd 9728 a0bf
000000c0: 3c8e 2122 230c bd3f 3702 6bfd aa0c a73f
000000d0: f59d cafd 99e3 c9bf 52ca b9e2 1abe b33f
000000e0: 9701 0928 799b b93f fffa 3b2d 6f67 85bf
000000f0: 0e2e 8f46 03b2 a6bf d7b9 e37c 3400 68bf
00000100: 7dac 8352 883f b73f c5b5 e4e1 86d7 b83f
00000110: 220e 721d a6f6 b7bf 2035 cb97 1596 afbf
00000120: bb62 13e7 7bb0 bdbf edb1 4de7 84a0 b33f
00000130: a9f7 43b6 51b6 ac3f 295b 8d8c 6847 933f
00000140: fd8a 2920 d3eb a73f 1de7 c9fc 4e94 bdbf
00000150: 3523 1ca5 d3b0 cabf 22ee 55df 95c6 b4bf
00000160: 5210 a35f 3797 9a3f 62c5 4a09 3549 a3bf
00000170: 14a1 dfd2 d014 c1bf 70ef 3d8f f2e8 a23f
00000180: 8aaf bf3d 4f5a b13f 5317 dedf bd39 34bf
00000190: 265e 7281 6a1d a2bf 16e9 8cd7 e344 c9bf
000001a0: 726c 3ab0 a439 b2bf 2257 cd48 385d b5bf
000001b0: 5a09 6c1b d0ea c03f 5b08 54d4 6d88 9dbf
000001c0: f79d 868a 3656 cd3f 4868 c00a 4cfa 9f3f
000001d0: 5dd3 c95a 20a9 b8bf c0e4 47ef 997d c43f
000001e0: b7e9 df6e dbff a3bf 9b87 9e7a 56e0 b4bf
000001f0: 4b52 a07f 92a1 b2bf f8fb e2bc 2d06 a03f
00000200: 40d3 3af0 1676 9b3f f09e 1687 3090 c7bf
00000210: 0fe1 6d3c 348a be3f 97ea 8bd6 bcf6 c5bf
00000220: 8583 c14d 4ff7 c63f bf41 b262 1784 bebf
00000230: 84bc cd6c e706 9a3f 2b6b a506 8694 bbbf
00000240: 9c54 295d 5946 b53f 330b 8f83 8bdc 7f3f
00000250: 178a 923e c22b 97bf 1d8d 357a c2d0 87bf
00000260: 41ed 0fc3 00d7 cbbf 4a0e a0cb f88f b5bf
00000270: 1551 931b a2f2 c53f 4cd1 78df 0f69 b53f
00000280: 5876 b71d 7181 b1bf 9d1b d731 19d3 8cbf
00000290: 24e1 dfdb 7271 6d3f 75ee 7a4a cd91 a23f
000002a0: d38a 8357 4317 b4bf 4c5a 5bdd 5abb b13f
000002b0: f8e1 0ef1 1d9e a6bf df6c fe2b e613 ae3f
000002c0: d73b e120 16d9 be3f d682 d0c1 44c7 c53f
000002d0: 5792 fd29 b5e3 8ebf a47d 6afb f994 b1bf
000002e0: 9f80 77bf 26f9 a4bf a698 a5eb b654 c5bf
000002f0: 48ce a4be d6f8 c8bf 5baa ef65 f51e a6bf
00000300: b78a 458f e889 a53f 7ba2 1b8e 21f9 a1bf
00000310: 5354 5501 1235 bc3f 4a5e c95b c7a6 c4bf
00000320: b5fd cf2d f59b b9bf bfe7 c8a9 e053 b9bf
00000330: 1538 7cd6 4daf b5bf a586 e4f5 2525 613f
00000340: bba9 62d6 422a c73f 3ab1 e7f6 2200 c43f
00000350: 8748 811b bc80 c83f 36fe e179 2747 ae3f
00000360: 700e d122 7253 c3bf 9ba9 9aa7 9499 afbf
00000370: c3c1 8e12 43af 9e3f fef5 b5f0 b22f 843f
00000380: ad8a 22c1 74e0 ac3f db34 2465 9c43 aebf
00000390: 6de5 f88a 4ce3 b8bf 3601 abae db3d b63f
000003a0: 0acd 9094 a9ea cdbf a005 ffa0 c9f8 b43f
000003b0: c4c3 752f ca3a cbbf ae2f f5bf 90b4 b3bf
000003c0: 0637 cca3 3258 bcbf 95f4 9f46 86f3 cbbf
000003d0: ab6c fe21 8d07 c63f 4de5 acaa 6624 9ebf
000003e0: 3bd2 f0cd c6bc b23f df08 09a2 8abe 4bbf
000003f0: dae0 9806 57b9 a5bf ce19 bdcb 3aec bbbf
00000400: 9d04 96a9 b898 b8bf 9e78 c5f6 3872 d0bf
00000410: fc77 88dc 261a b23f eeef 11df 69d2 95bf
00000420: e85f 74d3 36b3 77bf 4a94 0a9a 750e c93f
00000430: 0f1b ffd2 13d3 a43f db35 95a3 9a28 99bf
00000440: c154 6bb3 2a16 babf 2954 d556 662f a13f
00000450: 7487 2913 4e8f c23f 705d 2dab 45b7 b6bf
00000460: 640a 2d0f 7b3c 783f 45be fb7c 39af 8cbf
00000470: a432 13bc ec56 bbbf 1b2c 643c ab99 c13f
00000480: ad95 0fee e7e6 cdbf 478c 7335 b7da c13f
00000490: f420 bf96 58aa 77bf afad 1488 3a6d 77bf
000004a0: e549 ccb9 65e7 98bf b34a 5b0c ded3 b2bf
000004b0: a473 fdca 6dd7 b5bf 43a9 decf 649c 8cbf
000004c0: bfaf a6e1 5615 b83f e72c e35a 7a25 bd3f
000004d0: 8b02 07c8 0a4b c43f 13e9 ee00 9fff a93f
000004e0: c524 12a3 17c8 b8bf a5b4 7125 0f64 c3bf
000004f0: eef9 e906 9389 983f 8fbc cfcd 7470 d2bf
00000500: 508c b863 e648 bd3f a95f 660a 4617 d63f
00000510: 6c9d 78c9 6501 b13f 6b41 7037 fb65 cdbf
00000520: 4e50 129a 9c0c d03f 613f 39f7 1c13 c4bf
00000530: 3154 3393 efee b3bf 09d8 9530 c858 cabf
00000540: bf11 cd5c b1e8 bc3f 35c9 25af 59a2 c6bf
00000550: 6615 42a3 40f5 95bf b849 f385 5ae1 cd3f
00000560: 1b89 ac44 0d7c afbf f5e1 a752 fda5 c7bf
00000570: f482 e5d3 267c cbbf c6f7 e441 672c 8a3f
00000580: 2cfe 9357 e98d ab3f c463 d60b 07b1 d03f
00000590: 3364 e254 2093 c03f 4d3f 3616 5b08 d0bf
000005a0: 6528 6113 4a37 83bf 74a3 4b0c bdfb aa3f
000005b0: 106e 54fa f38e c5bf 5c5e 4c6d 4c5b acbf
000005c0: 6ac2 11ef c461 b13f f165 2b9d f132 bbbf
000005d0: 85d2 6833 9a4b b5bf 6b7d fd18 8d7b d4bf
000005e0: e39f 0528 d124 acbf 1fbd c98a 04f5 c03f
000005f0: c70b 8404 f30c b13f a62f 8a94 bcc9 a33f
00000600: 7a8c 23b4 5da7 c2bf 3f4e 5196 c6c2 bc3f
00000610: 64b7 62c0 3aa7 c0bf 7ebf 8902 a385 bf3f
00000620: 9b69 6bc3 35bf c4bf d1d5 6d67 44ae c1bf
00000630: 3bc8 de78 1e3f c9bf fe42 986a 0cde ac3f
00000640: 79b5 b345 0fcb ad3f 81e9 d6cc cde2 a43f
00000650: 3023 558e 6855 af3f 370b 82f3 1f10 a73f
00000660: 9c87 3ade 5684 b33f 2ab5 bf70 851d 8bbf
00000670: 6cd8 e57b 1695 b9bf 4aaf 68f7 947b b6bf
00000680: 8168 9ce6 5815 c33f 86eb a07e 33a3 b13f
00000690: e575 bee7 7a3c c2bf 47e3 aa82 a12d 8dbf
000006a0: 49a0 fe5e d1b6 c7bf 79bf 4e5d f354 aebf
000006b0: 3c26 af51 c639 af3f 12c2 bfba f7d3 c2bf
000006c0: 3bc5 d5ab 802a b9bf 1b23 38c2 f1d0 bc3f
000006d0: 8bc5 506b 8bf9 b53f 4330 b6aa 182a 9b3f
000006e0: 777a 21d5 da9d a23f 185d 100a 368d a0bf
000006f0: 68b1 2858 841b 793f 7a89 49c4 f3ec c43f
00000700: afb3 6c9e 9495 afbf 7872 53a1 8e4d c63f
00000710: 5273 b883 0f0d bebf cd79 0d56 08de c33f
00000720: d0c6 7858 815d c1bf a53a 622a d775 74bf
00000730: f8e0 b226 4562 c13f 7870 4ddf e337 c1bf
00000740: 0402 9aa1 e70a b93f 45b2 2e21 4a4e b73f
00000750: 4b58 f38c 2004 aa3f 8c13 d2d8 f867 b5bf
00000760: 5c1c 1bfb b47e c93f d09a 395e 7bbb a0bf
00000770: 5fb6 5e99 9014 c73f 1f29 26b5 2860 c13f
00000780: 24fe eef1 e8fe a6bf 2e4f 4fe3 de6d a23f
00000790: 43f5 2a69 7471 b93f 76e0 ac93 8f19 c13f
000007a0: aa30 de4f 2f8f b13f 2e54 46ab 785a c3bf
000007b0: 445e 7d25 ee8e b83f 137a 60a1 728d 993f
000007c0: 8d9e f7cd ae39 b8bf 690f 0a2d a276 c23f
000007d0: 8f36 30d5 5ef4 b93f d651 8836 c414 c53f
000007e0: 1869 2e27 9fbf 9fbf 08ee a57c d8fd 86bf
000007f0: 3add fb4b 5491 bb3f f109 7623 c025 b93f

net.2.layer.bias f8 [100]
-0.011015784264658372 0.012714218026500924 0.0007234540260488407 0.0008173874345107554 0.0008206354786313282 0.01723933821672188 0.01391765101571571 -0.013403682675500905
0.000630175446857682 1.0222554991479385e-05 0.02183895190906369 -0.00594319287345214 0.021793657047980013 0.019127021499498888 0.0035419409614036767 0.0026972156191905324
0.010167180639696028 0.003176907055538061 -0.0021715565380234897 0.0011622413338868258 -0.006632673758256689 -0.012625626250275369 -0.0022965190414114436 -0.016940277616617257
-0.009475118735806788 0.024734689442907944 -0.0028625870932243616 -0.0060526168971973176 -0.004956075565279659 0.0042400999947675745 -0.009608598454543642 0.0012973541432093033
-0.009450280847177518 -0.003349006901882768 0.007723001901857545 -0.0016162783950439477 -0.01080014698393599 0.0017246477538147924 0.008983711570858555 -0.0014002159165053514
-0.0015003515015493375 -0.008743412094525078 -0.0036887000811780053 0.00538085755797442 -0.012440418930836411 -0.023183444340606638 0.01932198288899383 0.0008618648464415323
-0.02350705080296359 -0.007877644222036186 0.02813064681581845 -0.014125869505609293 0.010464767831384586 0.020145994005898334 0.004021414265204658 -0.017011802236329133
0.0024521162245789894 0.0040798564651147885 -0.005792117074096469 0.005089582765042193 0.012967088236423977 -0.0025502120161301598 0.01307116128776232 -0.0043153528889438636
0.011037874991328136 0.01939808611386176 0.005031098628396184 -0.0009438626759865547 0.01698102801057373 -0.00982873373654437 0.020271563794507015 -0.0009823546796439032
-0.017898824784272575 0.0029759871666466455 -0.004987631807231714 -0.00046094534263950584 -0.009163514312891537 -0.005674817654171561 -0.001600353836063039 0.009984701276624906
0.00761785100817759 -0.01591483929874858 0.023745844962651485 -0.00665809235603706 0.0143178310203019 -0.005374393431143253 0.004206181509038612 0.010322010606790085
0.004382107661782906 0.00688665476166292 -0.007257381671792393 0.028960189854234188 0.008021674034462764 -0.0015371736504355513 -0.0039230370289672824 -0.0011840590625151945
-0.00011126772585679437 -0.0006039972045666723 -0.0032822756843713355 -0.0018789648368911086
00000000: 9c82 4089 718f 86bf 67bc f174 e909 8a3f
00000010: f4a9 e6b0 c5b4 473f b63f 5226 bec8 4a3f
00000020: 77d8 7545 fde3 4a3f a7cb 6167 30a7 913f
00000030: f0dc 987f db80 8c3f 20dd e5d5 6373 8bbf
00000040: 57f2 ad77 4ba6 443f 4bcd 8442 3170 e53e
00000050: 5bd3 e940 f35c 963f 0c9e 67b0 e357 78bf
00000060: cb10 2091 1351 963f aaae 3daf 0896 933f
00000070: cab3 fe12 fd03 6d3f ba68 fd9b 7818 663f
00000080: c75b b8e2 87d2 843f d3af fdfc 7406 6a3f
00000090: 1bc1 fd89 15ca 61bf 30fd 3821 cb0a 533f
000000a0: e42a 07ce dc2a 7bbf a70d b1de 76db 89bf
000000b0: a71b ae45 26d0 62bf 8fe5 64c9 ca58 91bf
000000c0: 549f c4e8 b067 83bf 4a9f efe8 0c54 993f
000000d0: a7b1 50be 4773 67bf 3512 0ffa a0ca 78bf
000000e0: 7e95 8267 d24c 74bf e4e0 f22c 115e 713f
000000f0: bc35 fb40 acad 83bf f353 7367 7f41 553f
00000100: 9ac3 6939 ab5a 83bf e8e8 c363 606f 6bbf
00000110: 46db 8689 27a2 7f3f a0bb 44b6 297b 5abf
00000120: 5b38 b430 631e 86bf a6c6 c86c b241 5c3f
00000130: 4df5 255b 0d66 823f f40e 6664 eef0 56bf
00000140: 7119 6d28 ee94 58bf eaf0 02e8 10e8 81bf
00000150: 9145 d4c6 c337 6ebf 5163 c6f3 3c0a 763f
00000160: dddf a6c3 5c7a 89bf 2c94 019d 66bd 97bf
00000170: ee8c 6852 24c9 933f 84ee 1daa d83d 4c3f
00000180: 8951 b279 3b12 98bf c1e3 6c82 2722 80bf
00000190: c068 5bc0 47ce 9c3f 22e9 6e1c 06ee 8cbf
000001a0: 30ab c45c 8d6e 853f ff5c 9ac5 26a1 943f
000001b0: 1826 0b2c c278 703f 1d14 01b9 8a6b 91bf
000001c0: 2ba6 b2df 7516 643f 12d0 7021 0ab6 703f
000001d0: 258b 8696 79b9 77bf 5213 6b78 d0d8 743f
000001e0: afc3 321f 7d8e 8a3f 19ef a0a6 2ee4 64bf
000001f0: 0571 0392 0dc5 8a3f c79b 75b8 f9ac 71bf
00000200: c139 d780 069b 863f 272a db85 17dd 933f
00000210: 458d 2641 7d9b 743f bcaf a2a9 b1ed 4ebf
00000220: f4dc d47f 7963 913f 8628 ad4f 1621 84bf
00000230: c20d 259e 11c2 943f c897 374e 4b18 50bf
00000240: f154 57cc 1154 92bf 6ce2 baf1 1861 683f
00000250: fbdd f137 e96d 74bf 1b57 002c 6135 3ebf
00000260: 4487 5212 52c4 82bf 8e52 c443 7a3e 77bf
00000270: c9a9 d3d8 5e38 5abf d226 8ceb db72 843f
00000280: 8d80 224f e533 7f3f 5ca4 3cc9 fa4b 90bf
00000290: b334 1fae d450 983f da4e c40e 8445 7bbf
000002a0: afd4 dabf aa52 8d3f 328f 5cc0 7503 76bf
000002b0: f796 5b40 803a 713f 118b e1cf b423 853f
000002c0: e4be 8411 f9f2 713f 61d6 ae4f 2e35 7c3f
000002d0: b081 f58e eab9 7dbf fa52 3d71 bda7 9d3f
000002e0: 0bf7 18dd aa6d 803f 2d25 a4a3 5f2f 59bf
000002f0: b6b9 d83b 9a11 70bf 5b60 cdbc 4d66 53bf
00000300: 62c1 80f9 0c2b 1dbf 4b5a c81e b2ca 43bf
00000310: f90b 1157 6ee3 6abf 3f04 9621 f3c8 5ebf
