7_Inv_Burgers/logs/models/2024-01-16-14-23-10_Lorenz_DNN_100X5/epoch_34000.pt (torch, 121211 bytes, 14 tensors)

mu1 f8 [1]
000000 91 e2 b8 13 78 3a ef 3f
       0.9758873353194578

mu2 f8 [1]
000000 e1 45 c1 c1 71 85 74 3f
       0.005010074961391693

rbf_layers.0.centres f8 [128, 2]
000000 7a 96 55 7c d2 9a c4 bf 06 b3 88 fc dd 00 d5 3f
       -0.1609747988797386 0.32817792569657944
000010 6a 59 e9 cc e5 5d e3 3f 1e d3 4e fe 80 02 f0 3f
       0.6052121164491784 1.0006112989332858
000020 73 b0 61 ca 02 bb b6 bf d4 1a 1b 6e 4e ae e4 bf
       -0.08879105988461493 -0.6462776327615196
000030 fd ed 21 e5 57 3c ba bf bc f2 e0 e1 e9 26 da bf
       -0.10248326629692169 -0.40862509783236667
000040 13 18 f8 4f 53 de e6 3f ec 00 05 b7 73 b9 d2 bf
       0.7146393358132194 -0.29256909249308083
000050 bc 37 48 9f fe 9c f0 bf 85 2a f1 af 0e 37 bd 3f
       -1.0383287641484307 0.11412135882816628
000060 a8 de 19 d9 bd 7b ef bf e5 cb fb b3 4a 5b e0 bf
       -0.983855175042625 -0.5111440196327491
000070 3c 4d ff f9 7e 0e ec 3f 3c 7b e7 f8 ec 17 e4 3f
       0.8767695315131401 0.6279206143770817
000080 f0 34 b8 62 05 a0 ea 3f 00 4a 07 ca 41 88 e4 3f
       0.8320338180652964 0.6416329332226383
000090 6d 87 1e 37 0d 5a f7 bf aa 76 df b1 e7 d6 df bf
       -1.4594852593513352 -0.49749176378632376
0000a0 58 72 0e 60 83 1b e2 3f db 99 d5 9b fd 11 eb bf
       0.5658585430242722 -0.8459461253776753
0000b0 15 11 5b 72 b5 fd ec 3f a9 72 ba 1c 6f 7d cd bf
       0.9059703095922794 -0.23039044287442792
0000c0 17 bd 49 c7 9f 24 ce 3f 28 e8 15 3a 23 79 9a bf
       0.23549267989026454 -0.025852728290807786
0000d0 48 6f 28 d8 f5 62 e1 3f ab 66 58 62 31 49 f6 3f
       0.5433301183543131 1.3928693620313577
0000e0 3a 43 d4 f6 14 ed e2 bf bc 24 66 b2 c1 4f c6 3f
       -0.5914406605607845 0.17430897913826537
0000f0 88 67 cb 7c c8 69 ce bf 86 99 b4 db 0f 55 ed 3f
       -0.23760324567302527 0.9166335383531965
000100 0a 49 56 c2 ff 7c f8 bf e3 3b c2 2a 10 98 e7 bf
       -1.530517348412618 -0.7373123965388654
000110 23 9b b4 5b ad 03 f0 3f cf 72 e0 5d 41 8a f8 3f
       1.0008977491613187 1.5337537447987193
000120 73 dc c1 bf 03 c3 a3 3f 55 7b 44 a8 f9 d1 bf bf
       0.03859721866404522 -0.12429771764844351
000130 7b 43 ea 4d 40 f8 cc bf c4 af c3 f7 aa 75 d3 3f
       -0.22632602505157337 0.30405687518827684
000140 49 b1 75 c6 94 03 77 3f ea 68 6b 2e c3 76 de 3f
       0.0056186496288826515 0.4759986832920179
000150 49 0e 7d 68 33 67 c4 bf 45 5d 18 3c 1e 35 02 40
       -0.15939943887689115 2.2759365744529156
000160 a8 e0 1f f5 30 ee dd bf c8 b3 74 e2 f1 c9 e3 3f
       -0.46766303956929756 0.6184014723745515
000170 2f db b5 a2 0a 2f f1 bf 36 2a c9 3c 2f 21 e5 bf
       -1.0739847522615482 -0.6603008448813117
000180 64 c6 2f 8c cf 94 e8 3f 4f 6e ea fa 34 ec b0 3f
       0.7681653726596775 0.06610423208115289
000190 d7 aa 5b 18 4f b2 db bf 9b 50 d8 b8 5c dc f2 3f
       -0.43275811556547467 1.1787993641383199
0001a0 90 90 0d 45 eb 6f 8d bf 78 7c 78 0f ea a2 f0 3f
       -0.014373624844388894 1.0397739986726986
0001b0 9b d5 57 45 60 0b ed 3f 28 12 74 84 bb e2 94 bf
       0.9076386789662821 -0.020396165808977212
0001c0 93 ed 4a 4e d5 cb a4 bf 14 e9 b0 50 4c ee db bf
       -0.04061762409898075 -0.4364195621489142
0001d0 b8 f6 f9 c0 27 aa d8 bf 22 44 81 ff 25 f1 db bf
       -0.3853854546103821 -0.4365935321012008
0001e0 29 39 c1 db f2 51 d0 3f dc a1 7e 1b 74 1e f8 bf
       0.2550017496149786 -1.5074349473962831
0001f0 b7 51 17 b5 7f 35 eb 3f 70 59 99 5d 87 f4 d1 bf
       0.8502806221900333 -0.2805498518040599
000200 3b 87 62 9d 15 9a 01 40 28 e6 ac 1d 9a 99 df bf
       2.200236539429992 -0.4937501230047894
000210 8f 3b 74 b2 96 09 02 c0 59 58 e3 57 84 ec 96 3f
       -2.2546819631310835 0.02238661562372388
000220 ff fb 62 c2 eb 9f f9 bf 57 8f de 0d db 30 e9 bf
       -1.6015431969860854 -0.78721382817137
000230 38 c5 79 ac 9e 1b d2 bf fb 80 05 93 1a 26 dc bf
       -0.28293577998472896 -0.4398256717449979
000240 56 61 87 54 30 d6 f8 bf 3f 29 2c 93 21 36 c9 3f
       -1.552292185011614 0.19696445165784301
000250 44 c0 01 c9 94 7a f1 3f 22 d8 f9 c1 23 ef dd 3f
       1.092427048857659 0.4677209276482036
000260 22 c8 45 31 22 60 cd bf e6 42 0a 25 02 f8 e1 3f
       -0.2294962635601801 0.5615244601668479
000270 6a e5 05 bf 9d 17 ee bf 18 08 01 68 3c d9 f8 bf
       -0.9403828364294615 -1.5530361235291874
000280 7c 5d 56 8c 37 ac f1 3f aa 4c 19 2e 15 16 ea bf
       1.1045451623848228 -0.815195646321077
000290 b4 cb f5 1e 8d e5 f0 bf 26 0c 1f 46 9e da ed 3f
       -1.0560427865391206 0.9329367990070565
0002a0 c7 20 0a 6e 58 9d e6 3f ad 0b df cf 87 a2 fc bf
       0.7067072056970795 -1.7896803016635474
0002b0 a0 03 a8 d3 5b 35 d1 3f 1a 1f f3 68 05 6b b0 3f
       0.26888175649224344 0.06413301288841602
0002c0 01 33 dc 92 5a 1e f1 bf 5c 8e 94 f6 a0 e2 f1 bf
       -1.0699105965351807 -1.117829287723814
0002d0 68 5f a3 15 65 93 b1 3f e7 c6 d6 d4 e1 61 e7 3f
       0.06865531709933992 0.7306985051165754
0002e0 c5 97 20 8e 39 cd fb bf a2 51 07 f4 a8 17 d1 bf
       -1.737603717026546 -0.2670690901843732
0002f0 04 ec 5a 5d 42 0a 01 c0 90 3e 34 e1 75 31 00 40
       -2.1300093930599378 2.024150618941185
000300 0e e4 b8 54 8b e5 f1 3f 1f d1 4d 1f ce 76 f1 bf
       1.1185410794698813 -1.0915051672755636
000310 4c 55 20 23 6e 4c df bf 20 37 f0 8e c0 d4 e8 bf
       -0.48903993063261875 -0.7759707252277828
000320 14 05 88 b1 3f 1c d2 bf c7 3d e4 f9 63 7a af bf
       -0.2829741700844164 -0.06148064065393615
000330 48 4a 2a 91 9b 60 03 40 a0 69 60 35 48 67 e1 bf
       2.422171720603078 -0.5438576738845775
000340 4f 66 99 fa fc e1 b8 3f 9b 1f ce f5 3f d1 f3 3f
       0.09719830625672297 1.2385863878025478
000350 89 15 3c 7c 9d 09 03 c0 e6 b6 0f 31 33 9c 03 40
       -2.3796949106060237 2.4512695153160733
000360 2a 8f 49 a4 c1 95 d0 bf 8c c3 16 38 1c 4d e8 3f
       -0.2591404060715258 0.7594128699766869
000370 01 a6 da a0 0d 44 ea 3f 4a 6d 59 fc 10 40 ca bf
       0.8208072797471574 -0.20508014985794382
000380 71 b9 9e b2 fc 90 d8 3f c4 d2 4d 14 9c a9 fa bf
       0.3838493103347878 -1.6664086144566435
000390 95 a4 25 fe e1 8e c9 bf 7d 52 fa 9e c8 f0 ea 3f
       -0.19967293653033794 0.8418925385509081
0003a0 64 1b 0d fe ec 9f a0 bf 15 0e 22 4c 43 9e 01 40
       -0.03247013665400436 2.202276797093655
0003b0 20 40 90 f6 54 1a f9 bf 51 68 cd 7f 8f 0b f0 bf
       -1.5689286834131124 -1.0028223984031863
0003c0 31 cb 86 39 a6 73 f3 3f 8e 75 b5 3c a8 85 ff 3f
       1.2157346961145772 1.970131146568153
0003d0 04 08 d3 1f eb 87 ec bf a9 ec 9a d6 cd b7 d3 3f
       -0.8915916081971322 0.30809350926910867
0003e0 4b 8b 3c b4 56 74 f9 3f af bf 29 cb 9b cf e8 3f
       1.5909029999244975 0.775342842867749
0003f0 69 0a e8 ce bd 2c e8 3f d5 53 89 59 32 47 00 c0
       0.7554616013661192 -2.034764003280069
000400 27 1f ba 61 e7 9f e3 3f ea 33 53 3e b4 0b f1 bf
       0.6132695111018379 -1.0653574404307116
000410 1d 46 32 f8 64 50 f1 bf a6 85 a3 3a f4 8c de 3f
       -1.0821275420352159 0.4773531506198999
000420 4d 4a ba 53 78 53 f0 3f 97 e1 ce 95 b2 f4 fe bf
       1.0203784247029433 -1.9347406246070926
000430 e5 2e 09 f0 06 fe e7 bf f5 0e 3f 90 3e 41 f1 bf
       -0.7497591674996015 -1.078428805792041
000440 65 0d aa ac 9b 75 cc 3f c6 03 8a c7 06 44 ed bf
       0.22233911448357016 -0.9145540139435233
000450 70 a9 88 a5 9b 7c fc 3f df 26 82 00 88 60 e3 bf
       1.780421873680634 -0.6055336008004949
000460 f7 f9 73 aa 02 c7 f6 3f 74 d9 75 a8 3e 81 d7 bf
       1.4235865267106627 -0.36726347399908055
000470 ef a6 4b 53 80 05 e6 3f d7 2f 84 f3 10 2f cd bf
       0.6881715418687387 -0.22799884691664715
000480 ed 81 e1 d7 23 4f f2 bf bb f3 86 fc 30 e4 f3 3f
       -1.1443212921950547 1.2432107796041538
000490 29 9a 1d 54 05 3c f1 bf e1 c2 af 2d 06 4d f4 bf
       -1.0771535192267356 -1.2688047203666246
0004a0 a1 68 d7 c4 22 42 a1 3f e2 b5 dc 7d 11 c1 d1 bf
       0.0337077012333833 -0.2774089554903566
0004b0 17 27 c7 8d 66 80 f2 3f be 2d de 97 eb f5 f4 3f
       1.1563478029442587 1.3100391323413159
0004c0 92 48 69 db 8e 7f e0 bf 63 fe a5 b8 a1 b9 03 c0
       -0.5155710492492906 -2.465640490117765
0004d0 2f 17 4c 36 30 46 f3 bf 6e 0b 57 23 ab 54 c6 bf
       -1.204635822390127 -0.17445887780749153
0004e0 bc f5 9d 52 f1 6e f0 bf 8c 2a 41 2e 21 b0 e2 bf
       -1.0270856120326775 -0.5840001967820441
0004f0 1c 07 f1 9c ca 3e f4 bf d6 39 5a fb 48 36 7b bf
       -1.2653299456146163 -0.006643567166646899
000500 3f d5 5e 4a 25 3a e0 3f 08 05 2c 72 cd 50 d5 bf
       0.5070978596255954 -0.3330567946396319
000510 e2 dd d9 f1 51 19 ca bf 58 c3 25 bc 0b 81 d2 bf
       -0.20389770802624613 -0.28912633298664536
000520 0c 2b fe 85 93 c1 e1 bf c6 81 2f 15 de 4e e7 bf
       -0.5548799149558774 -0.7283773816853276
000530 e5 30 d5 d9 04 60 e8 bf 0c 11 f9 62 3f a1 d0 3f
       -0.7617210630937988 0.2598417727024447
000540 a6 b4 b4 ef 8e 97 e2 bf 34 70 ef 3e 0a ce df 3f
       -0.5810007745509622 0.4969506849863621
000550 87 13 a2 38 9f 3c e1 3f 95 12 6a 2a f4 02 f5 bf
       0.5386501413455428 -1.313221135788955
000560 11 2c 46 9a d7 22 f7 bf d4 2d 64 1c cf e2 f0 bf
       -1.4460063959438723 -1.055373297599421
000570 8c 5e 6c 61 53 f0 e7 bf 87 da 50 30 2f 73 e1 3f
       -0.7480866339492009 0.5453105872791902
000580 00 bf 5c 18 b1 7d f2 3f 41 47 3f 94 9e 10 f5 bf
       1.1556864692356044 -1.3165574828057773
000590 b7 6e b1 57 d4 23 cb 3f d6 73 74 49 8c 0e ee bf
       0.21203092843903956 -0.9392758783975477
0005a0 6c 65 ff 47 63 08 f0 3f 1e 11 de 79 b1 47 d4 bf
       1.002047806969439 -0.31687580968015705
0005b0 ab 7b 29 e2 c3 fc ed bf c4 db b2 97 be 03 ed bf
       -0.9371051232554825 -0.9067070925583427
0005c0 3a 43 77 27 28 0c f3 3f 7d 05 e3 c1 c2 5c e2 bf
       1.1904679814944772 -0.5738233363010036
0005d0 f6 89 c5 22 df f6 c7 bf 09 ad 3b 3e a3 a1 c3 bf
       -0.18722142408212478 -0.15337029017187145
0005e0 d6 eb aa bd c2 9e d9 bf fa 0a d0 e5 62 19 d0 3f
       -0.40031498453362013 0.2515494579567271
0005f0 46 a2 a1 f6 8a 88 cb bf 1d db 69 6e 17 10 c4 3f
       -0.215104456353645 0.15674107447895205
000600 3a 30 59 e0 ef 9e e6 3f 77 72 b7 1e 68 3a ba 3f
       0.7069014913372549 0.10245371580044514
000610 22 8c 84 73 ad d0 e1 bf d7 ac 52 49 e1 b4 c8 bf
       -0.5567233329969705 -0.19302002029630813
000620 12 d0 ed eb 8f 46 f0 bf ab 58 b6 cb 54 24 98 bf
       -1.0172270980810976 -0.02357609265671871
000630 c8 6f 7a 1e 36 21 e9 3f 14 59 66 d6 40 1c f3 3f
       0.7853041262892413 1.1943977713577327
000640 61 1d 98 ac 57 9b cc 3f 3e f4 d1 27 75 e7 f2 bf
       0.22349067618800247 -1.181508212611575
000650 73 2e 97 1c ae 50 74 bf 18 fa 79 81 d4 a5 d2 bf
       -0.004959755061871729 -0.29137146610438114
000660 e4 9d f3 38 b0 95 f0 3f bf 15 db d0 21 3b e3 bf
       1.0365450119660347 -0.6009682730879645
000670 b6 99 d1 cb c6 8d e8 3f bc b8 29 8b 9f 20 db 3f
       0.7673067074618334 0.4238661631596974
000680 67 1c 5c c7 a7 17 f6 3f f9 30 e7 f9 4c 3a ce 3f
       1.380775240659 0.23615419580745092
000690 30 f6 da 82 73 f6 7f 3f c6 33 12 dd b7 7c d9 3f
       0.00780339356941577 0.39823719586348394
0006a0 52 ed 51 62 52 9f da 3f 8f f2 ea 7f 72 96 f3 bf
       0.41597423173489745 -1.2242302891528742
0006b0 3b 31 7a 64 f5 ea fb 3f e3 fc bd a0 0d 2f f2 bf
       1.7448629307646815 -1.136487605952248
0006c0 9d f2 a6 40 58 9a e6 bf 6a 5c 9b 4e 32 90 d1 3f
       -0.7063409102189159 0.2744260566373159
0006d0 d3 9f 03 4c c0 7f d1 bf 64 cc f8 6d ae c9 e2 bf
       -0.27342231200463835 -0.5871193073165952
0006e0 73 6e 77 d4 e5 54 05 c0 71 0e 48 dd 91 d2 cf 3f
       -2.666453990835913 0.2486135797954492
0006f0 71 9d 41 65 92 7f ea 3f 9e 9d e9 fc 54 20 d3 3f
       0.8280727365171697 0.29884838770382227
000700 fb 9e 08 6a 1a 7a e2 bf 35 0c 1f 23 28 4a f2 3f
       -0.5774051733942253 1.14310468405962
000710 68 71 d0 7d 29 1e f6 3f e9 35 5e 34 28 ea f5 3f
       1.3823637880915047 1.3696672483086962
000720 b4 66 8a 56 3e aa c5 bf 92 af 2b 91 78 e5 e1 3f
       -0.16925791955582314 0.5592615924228872
000730 35 d7 60 c9 87 ee e7 bf 79 88 f5 22 e0 82 fa 3f
       -0.7478674824876409 1.656952034529722
000740 ea bb d4 49 08 a5 e6 bf ce be 2c 3d f1 5f e0 bf
       -0.7076455537807054 -0.5117117113895462
000750 4f d6 7c 76 68 a9 f3 bf 43 fb e5 91 07 50 f2 3f
       -1.228859389154781 1.1445384692339793
000760 dd a4 b0 fe 04 5b ed bf 42 98 0d 25 5c 6a e1 3f
       -0.917360780183255 0.5442333911603401
000770 be a2 5a d6 7e 45 cc bf 7e d3 b7 67 5a 1d f8 3f
       -0.22087083307748928 1.5071662951933997
000780 33 09 22 96 a9 5f f0 bf 33 fa a3 aa 6b f4 f5 3f
       -1.0233550896233055 1.3721729913373906
000790 6a 3b 0c a4 c0 e4 e7 bf 17 c8 e1 5b 6e ce e4 3f
       -0.7466738895471796 0.6501991076058883
0007a0 21 5f a1 7f 4a 9c d1 bf ba 2b 2c 0d 91 2d ea 3f
       -0.27516424621488694 0.8180623299862113
0007b0 0f ea bc c5 41 b4 e2 3f 9b ad 44 d9 a9 58 e9 bf
       0.58450401898091 -0.792073177673433
0007c0 33 f1 b8 c5 81 05 ca 3f 9d 80 47 dd db 1a 00 40
       0.20329305796065852 2.0131146705098915
0007d0 61 9a bf e2 78 e2 e6 3f 63 16 3e a6 78 a1 c2 bf
       0.7151455334358837 -0.1455527126055812
0007e0 58 3c 44 a3 b5 24 c9 bf b8 3e de 53 a4 ff f1 3f
       -0.19643278572081857 1.1249125743960757
0007f0 d2 72 7f d1 00 5c f3 3f 6c 27 f1 c2 1c a6 e9 3f
       1.2099617179402924 0.8015273864232149

rbf_layers.0.log_sigmas f8 [128]
000000 a3 24 00 2f 87 73 c0 bf 42 19 0e 9b 4f b5 9f 3f
       -0.12852563662480518 0.030965083922205545
000010 70 23 b9 01 7d a0 bd bf c5 b9 ef 7a c5 2c ba bf
       -0.11573010723180999 -0.1022456574571385
000020 22 0b 1d 43 93 eb c9 bf 95 5c fa 08 75 1a a1 bf
       -0.202501685877075 -0.03340497717470573
000030 16 48 0f ae 85 ec af bf f6 c0 2d 2c 90 0b ba bf
       -0.06235139608146782 -0.10173894003469627
000040 d0 35 c5 06 2e 89 c0 bf aa 61 ac b6 32 2c aa 3f
       -0.12918639498313533 0.05111845474147299
000050 59 b2 8c b8 b3 33 c0 bf 61 2d 58 3b ba 55 c1 bf
       -0.1265778208848072 -0.1354286947028909
000060 73 f4 c9 67 e9 2b a5 bf 45 e5 88 8e a0 6d 7e bf
       -0.04135064498857668 -0.007428767371089611
000070 1e ef 47 5d 9b a6 99 bf ac 40 7f 93 45 ed aa bf
       -0.02504961735574717 -0.0525914900350711
000080 65 7c f5 83 0e 3f bd 3f fc 0c 72 24 bc 16 a3 bf
       0.11424341890004681 -0.037282828759112235
000090 1f be 04 ea a3 98 c2 bf 74 c9 4b a5 7e 11 bc bf
       -0.14528321196256486 -0.10964194808528821
0000a0 84 bc e9 9f e9 55 c8 bf 08 b0 9b c9 f4 cf 76 bf
       -0.19012184437039903 -0.005569416238113696
0000b0 17 32 99 f3 43 a9 b0 bf 85 b0 fb 39 3a c4 88 3f
       -0.0650827855799395 0.012093024153237994
0000c0 ed 1a bf 65 68 f7 c5 bf 01 a6 ff 2c 0f 9f b2 bf
       -0.1716127869423966 -0.07273955200766836
0000d0 d4 ec 38 51 34 96 c6 bf be ba 18 5a 7b 41 7f bf
       -0.17645887342391708 -0.007630807727351195
0000e0 3d 78 62 ea 16 c4 bb bf 71 05 61 2d 01 42 a7 bf
       -0.10846083853036333 -0.04542545012419453
0000f0 b5 bb dc 98 17 28 b8 3f de f9 10 cd bb 22 c2 bf
       0.09436175806034337 -0.14168498528483914
000100 48 27 67 64 b6 67 ba 3f b6 22 bb 81 d5 37 c9 3f
       0.1031450266956685 0.19701641878625303
000110 01 14 10 f9 93 c6 c1 3f e5 4b 5e a0 e7 ad b7 bf
       0.13887262021322047 -0.09249732651942073
000120 cb a4 e9 c6 c6 f1 b3 3f d7 49 44 f5 35 f4 ac bf
       0.0779079661966932 -0.05655068034151938
000130 4c 3d d2 45 0e ed a3 bf 03 4f ff 3a 1f c0 b7 3f
       -0.03891796686468271 0.09277529898036722
000140 43 e1 4a 13 13 ff aa bf 92 9a 2d 4a 04 7f b0 3f
       -0.05272731409553668 0.06443812190046064
000150 0b 7a 6b 60 c5 a6 b5 3f 51 9c 05 6d da 30 c0 bf
       0.08457597354888706 -0.12649088214240803
000160 c8 f2 96 dc 86 05 b6 3f d6 98 72 eb 6b b9 c6 bf
       0.08602183232774074 -0.1775336169859602
000170 a3 d0 e0 30 b8 b4 bb 3f d8 71 1a 61 77 f5 c6 3f
       0.10822631066622761 0.17936603776332904
000180 76 76 28 be c2 46 99 bf e4 50 3f f6 3b 4a a8 bf
       -0.02468399320252109 -0.04744136219929532
000190 db 33 e7 59 b5 48 b2 bf 23 47 09 f9 c8 6b c5 3f
       -0.07142194218540913 0.16735183868382206
0001a0 5f 4d c7 76 92 8a c4 bf 0c 47 f5 ec 81 0e cc 3f
       -0.16047888564808496 0.21919273443432308
0001b0 90 f7 2e e5 dc 03 a2 bf 00 d2 21 5f 12 3f c8 bf
       -0.03518572137498588 -0.189424797488428
0001c0 36 cf 25 67 ff 13 cd 3f e8 e2 9c d2 6b 1b b9 bf
       0.22717278038509797 -0.09807466403880094
0001d0 8f e6 71 fe 33 31 a3 bf c9 dc a6 08 80 af c5 3f
       -0.03748476487176077 0.1694183389897488
0001e0 73 6b b9 79 7f 77 96 bf f8 89 af 4c 30 28 76 bf
       -0.021940223507367528 -0.005409420652514367
0001f0 c7 04 00 cf 65 88 af 3f 74 14 f6 a7 f9 29 c4 3f
       0.06158750678879126 0.15753098202927485
000200 13 e2 49 0d 96 0a aa bf 38 6c bd fc 28 67 9f 3f
       -0.05086201584066798 0.03066696207620742
000210 1a 63 40 87 ae 1b c0 3f 0e fc 1e 17 4f 8c 8f 3f
       0.1258447800071501 0.015404336827371547
000220 59 db 5c 2f 12 cb b3 bf b1 0c 8b 63 48 4c a8 bf
       -0.0773173680907865 -0.0474569913399362
000230 b5 4d 13 f1 9e 6b 98 bf 2d 4b 08 fb 1b 41 c9 bf
       -0.0238480410233259 -0.19729947812501206
000240 b5 09 fd 14 64 d3 b6 3f 39 2e e7 6d a5 b5 be 3f
       0.08916306984341456 0.11995920117549809
000250 34 bf 4f 21 b1 8d bf bf 3f ae 80 1e 0f 46 b1 bf
       -0.12325579703587836 -0.06747526640600031
000260 fc 28 79 64 90 c7 c5 3f 03 76 d7 3a a3 02 a7 bf
       0.17015271097108797 -0.04494199841768067
000270 b1 a0 c1 c6 82 d7 7d bf 94 11 6b 63 5b 02 94 bf
       -0.0072856052830518195 -0.019540241187102916
000280 0e f7 08 c0 c9 1b db bf bc 33 06 67 20 66 b8 bf
       -0.42357105019969843 -0.09530832782020487
000290 0a d2 5c 50 ae 02 ab bf 91 bd b9 07 94 03 99 bf
       -0.052754828748593566 -0.02442771241333969
0002a0 2c bb 17 44 36 e1 a7 bf 4e ac 6c 27 9b b9 8c 3f
       -0.04664010602197374 0.01402589048446692
0002b0 73 62 d4 53 2b 3e c2 3f db 93 6f 96 c5 5c 82 bf
       0.1425222548794128 -0.008966010716855813
0002c0 c3 1b 68 4a c3 8a 92 3f f1 b4 cd a6 64 3c b2 bf
       0.018107463280127477 -0.07123402664520363
0002d0 b4 5d f5 a4 4e 80 bc bf 6f d8 95 2e 59 51 8b 3f
       -0.11133281256967714 0.013338753446742594
0002e0 a9 b6 c7 b2 2b f0 a3 bf 6e 4d 73 03 b2 db b8 bf
       -0.03894173200010915 -0.09710228523481643
0002f0 f8 16 59 a2 f8 83 c1 bf e0 0f 1f ab bf cb b7 bf
       -0.1368399422373654 -0.0929527085091304
000300 3b 18 60 db 2b 2b c1 bf 56 0e d1 e8 1a 1a 99 bf
       -0.13412998401344275 -0.024513645610808453
000310 83 0a 50 06 d7 76 a6 bf 70 5f a2 ea 07 be c6 bf
       -0.043875426788891246 -0.1776742835688725
000320 00 05 f1 b1 b7 5d 90 bf b3 e2 cb a9 de 2d b8 bf
       -0.015982504115759077 -0.09444991727276424
000330 fc c8 e9 2b f3 42 af bf a4 ec f3 48 87 8b c2 bf
       -0.0610576621155747 -0.1448830705847729
000340 c1 9e bc 63 86 ec ab bf 46 21 5a 8b c8 f2 c1 bf
       -0.05453891723146632 -0.14022166065502456
000350 aa 79 83 8a 65 d6 a8 3f 54 fe 32 b1 b2 0c a6 3f
       0.04851071658935109 0.04306562817646112
000360 c1 2b 88 61 ad db 9d bf b7 6e 5f 79 13 81 b0 bf
       -0.0291583147791632 -0.06446954453661645
000370 fb 06 41 a4 31 c7 d1 3f 94 ee 48 00 46 4d d0 bf
       0.27778283157759603 -0.254716396597112
000380 5d 6a b8 75 55 48 8e 3f 9b d0 32 bf 0b d6 9b 3f
       0.014786403327027015 0.02718370775683408
000390 f1 2e b3 24 1b 57 cb bf 26 80 ea 1a 3e 8c 80 bf
       -0.21359576503743186 -0.00807999152794998
0003a0 21 ef 6c a1 10 fc d5 bf ee 32 a9 fd 84 4f b8 3f
       -0.3435098244115001 0.09496337120908624
0003b0 64 4b 9f fd 05 17 9e 3f 3b b1 ad 2b 76 c7 a7 bf
       0.02938470230567293 -0.04644364627060545
0003c0 cb 53 58 a4 c2 46 af 3f 01 df d6 9d 54 fa a1 bf
       0.061086733400010106 -0.03511299540281066
0003d0 b7 5f 6c bc 09 d4 be bf cf c1 0f b3 c4 74 c1 bf
       -0.12042294359377946 -0.13637598746528432
0003e0 a9 05 a9 0a 51 84 c2 bf ce 15 0c f2 a0 98 ce bf
       -0.1446629812290159 -0.23903285807334246
0003f0 3e 7e 6a 69 4e 08 c0 bf 25 c7 16 fd ee 4e a4 bf
       -0.12525348803773 -0.03966471518960039

linear_layers.0.layer.weight f8 [50, 128]
000000 c2 03 a1 76 23 aa 9d bf 1e 11 b9 e9 55 78 b4 bf
       -0.028969339480912522 -0.07996117550016321
000010 70 d7 14 26 a4 57 9b bf fe 64 9f 6d 1c ca bb 3f
       -0.0267015121691751 0.10855271984418732
000020 d3 1e 96 69 cb b2 b2 bf ac 77 2b d3 f4 4b be bf
       -0.0730406887797657 -0.11834650187981194
000030 b2 d8 0b 21 75 d2 c3 bf 75 2c e4 d4 6e 66 90 3f
       -0.15486015428149852 0.01601575064072987
000040 00 95 e6 32 51 7a b6 bf 23 2b 79 29 3c 37 ce bf
       -0.08780391209309713 -0.23606063866676505
000050 d3 79 ed 7a 62 6e ae 3f b6 d0 93 f7 38 91 97 bf
       0.05943591833669228 -0.02301491747944403
000060 09 45 e2 02 17 6b ad 3f 61 d9 28 c4 c9 a1 72 bf
       0.05745765600398484 -0.004548824452788786
000070 7e ca a2 e7 ce 34 97 3f c0 20 18 03 87 6e b2 bf
       0.022662384880002488 -0.07199901414435583
000080 89 77 80 b0 9e e7 d2 bf 23 b1 e5 fa 08 49 b7 3f
       -0.29538695560938116 0.09095817685528522
000090 0d 8e 2f 73 f8 40 92 bf e6 82 ec 6d 99 38 a1 bf
       -0.01782596781766981 -0.033634943645898294
0000a0 35 dc 01 02 d0 8c 9a 3f 1f 23 63 0a 9a 50 9d bf
       0.0259277821755541 -0.02862778366469165
0000b0 1f d8 91 28 9a de b1 3f 45 c9 f1 ff 8d d4 aa bf
       0.0698028897330407 -0.05240291356394037
0000c0 2b 35 a7 54 61 ed a2 3f fe ca 6f 6a 0f 4d 55 3f
       0.03696731718410214 0.0013001108688938663
0000d0 81 8c 29 b0 3d 75 b1 3f 5b d8 18 5c d8 d7 b4 bf
       0.06819520521962553 -0.08141853569472472
0000e0 bd bd d2 11 29 ce 85 3f f3 f9 9a d3 cf 83 a4 3f
       0.010647126060887463 0.040068144398436
0000f0 8d e4 9f 97 78 7e a2 3f 04 45 dc bf bb 35 a9 bf
       0.036121147641048436 -0.04923807827993623
000100 29 64 98 ea 74 d8 d4 3f cd 78 a0 ca 6b 36 d3 bf
       0.3257114687890544 -0.30019659793641723
000110 c0 d6 25 1a 61 af d0 bf 1c ae 40 a5 96 69 ba 3f
       -0.2607043032979668 0.10317365202416123
000120 d0 a6 e4 f9 58 04 c2 bf af 2d 77 7c 2a f7 a1 3f
       -0.14075767709555587 0.035088851636455025
000130 04 a8 ad dc 11 34 85 3f 93 d1 86 7e d0 ea 96 bf
       0.010353221461361535 -0.022380120966504057
000140 69 4c 66 6f 8b 4c 81 3f 47 28 10 a4 02 1a 8a bf
       0.008446778618951893 -0.01274492324047939
000150 02 50 80 c8 9f 96 b0 bf 3f 42 81 bd e4 c6 79 bf
       -0.06479834218072258 -0.006293195263495976
000160 78 0f 70 ea 65 74 b6 bf d5 8b b8 66 c0 92 ad 3f
       -0.08771359418466129 0.05776025060574567
000170 1e 04 ab 2e ad cd d2 bf d3 cb c3 a1 23 7e c6 bf
       -0.2938034969084259 -0.17572446249650273
000180 6c ce cc 46 23 73 b2 3f 5b cd c2 04 c5 f7 ad 3f
       0.07206936338916997 0.058530957060976184
000190 48 b6 9b 92 0a ae 94 bf 55 fd 07 16 50 4b d7 3f
       -0.020195164869554 0.3639717307232407
0001a0 11 29 ea a0 3a 6e b2 3f bc 1a 55 fd 38 4e 92 bf
       0.07199446133214261 -0.017876520597634324
0001b0 37 3c 60 41 b8 8b a7 bf a3 8f 1d 9e 8b c7 ad bf
       -0.04598785207792171 -0.05816303544159431
0001c0 98 2b 8e bd c8 fa b2 3f cb 4e df f0 cc bb a6 3f
       0.07413916232887485 0.0444015544923367
0001d0 a2 13 10 23 64 67 ac 3f b3 83 9f 58 83 a6 ca bf
       0.055476311950804616 -0.20820657565402953
0001e0 cd 51 fa cf 18 ce bc 3f 69 9b 10 85 0f 08 a3 bf
       0.11251978948195714 -0.03717087268187564
0001f0 3c 06 f1 74 33 d5 c6 3f ad af e7 05 e4 47 86 bf
       0.17838137826952216 -0.010879308157164614
000200 9e 01 ac 72 9a 77 b4 bf 09 36 63 9d 75 f3 a7 bf
       -0.07995000171286512 -0.04677932306513461
000210 a2 8c 92 a5 80 87 bc 3f 73 d2 9f 09 35 71 b6 bf
       0.11144260446831081 -0.08766490445106871
000220 97 6b d8 d3 ff de 9b bf a6 8b fd af 63 78 c0 3f
       -0.027217862420097907 0.1286739930465874
000230 fd 2f 5f 89 d7 54 c3 3f 96 61 c9 28 0e 5b aa bf
       0.15102667052849475 -0.051475946883047616
000240 70 3a ba 9f 50 e1 c0 bf ef 24 df c9 dc d1 aa bf
       -0.131876066200181 -0.0523823734689105
000250 81 20 66 2e 92 31 72 3f 1d 34 ca 98 7b 14 b5 3f
       0.004441805859080828 0.08234379272671828
000260 75 6e 00 f2 7e 9d ae 3f f7 8d bf 60 f7 6b c9 bf
       0.05979534820673119 -0.19860737060581332
000270 3c 8d 12 92 f2 65 c0 bf 0a f3 bf 1e 5b 49 c2 bf
       -0.12811119205898958 -0.1428636455674666
000280 7d 4a dd a3 f5 0d 68 3f ed 6a 3a d3 cf 5b 89 3f
       0.002936343923388761 0.012382148393319048
000290 05 59 08 fc 32 b2 b4 bf c8 ae 0b 61 dd 86 97 bf
       -0.08084410336627819 -0.022975405739017046
0002a0 0e a8 b3 4c d6 45 b1 bf 00 1e 91 99 bf 65 95 bf
       -0.06747187969781995 -0.020895951984384098
0002b0 8a 0d 7a 9a 33 49 ca bf 04 5f 45 dc 30 6e b9 bf
       -0.20535893481074324 -0.09933762910565852
0002c0 f0 00 bb bb 9d 59 98 3f f8 b6 08 d1 4b a1 8e bf
       0.02377935846630036 -0.014956085507118896
0002d0 c3 08 16 fc b7 f1 92 3f 36 2c f5 95 bf 23 c1 bf
       0.018500208626854652 -0.13390345403817755
0002e0 a2 38 10 c8 45 c9 a6 bf de f0 3b a8 bc ee b7 3f
       -0.044504337951466924 0.09348658664015683
0002f0 f3 02 11 47 f2 95 a4 bf 40 a6 a5 83 91 fb 9e bf
       -0.040206500220397866 -0.03025653234491288
000300 17 38 5f d4 71 b4 8a 3f 08 9e 21 71 ba b8 af 3f
       0.013039483350350918 0.06195623999593286
000310 32 6a e8 e8 01 57 c0 bf 87 ef 1d 13 29 3e b4 bf
       -0.1276552569623433 -0.07907349316331934
000320 32 23 93 84 12 57 bd 3f 95 3a 78 27 cd 7c a2 3f
       0.11460986839950918 0.036108408992835773
000330 f1 36 90 3a 26 c2 a5 3f 4b 74 95 cc c4 5c b1 bf
       0.04249686684498311 -0.06782178873750515
000340 9c 9c 7f 68 b2 55 c0 3f 67 c7 ab 14 a3 4d a6 3f
       0.12761526205506335 0.04356107356387789
000350 56 0f aa a9 ba 4b 9f 3f 1e c4 3d 34 b2 93 d4 3f
       0.03056232128666577 0.32151465512930766
000360 69 0d 0b 41 0d 23 a9 3f d5 fd 3d ee b3 83 ba 3f
       0.04909554881080675 0.10357212606867645
000370 b0 75 0a f4 66 cc d5 bf 40 01 59 db b0 8f 90 bf
       -0.3406007178508288 -0.0161731370810696
000380 50 50 af b7 9c 58 a6 bf 33 64 ae 92 05 bf ba 3f
       -0.043644807264769825 0.10447726088604341
000390 b7 fe 87 b2 34 a9 b2 3f 8e 1a f7 b3 33 5a c4 bf
       0.0728943763606321 -0.15900274550786658
0003a0 cd 1e a6 c3 29 73 c8 bf 31 77 e0 02 12 34 91 bf
       -0.1910145001713687 -0.016800195146166878
0003b0 3f 2e 01 93 71 d6 c0 bf d2 29 6d fe 7c 4b bd bf
       -0.13154430082282606 -0.11443310939390663
0003c0 28 bd 94 4f c3 39 be bf c6 3b ac ff 6e 50 b3 bf
       -0.11806889241119178 -0.07544606916438487
0003d0 19 47 2f 07 26 37 b4 bf 6c 72 5e 87 62 fe a1 bf
       -0.07896650004775231 -0.035143927597549446
0003e0 aa fc 4c 75 a9 c2 97 bf f9 ea 39 22 b2 85 ac bf
       -0.023203513893574147 -0.055707518270500196
0003f0 06 9a e5 69 e8 67 b9 bf e2 97 03 f0 d3 bc 84 bf
       -0.09924175820706446 -0.01012578560080252
000400 3d 82 55 b8 a6 33 af bf df 94 06 32 21 6a a7 3f
       -0.0609409427659142 0.04573158012071032
000410 d9 df cb 74 6f 83 a9 bf 6f 5b e6 80 42 a3 91 bf
       -0.04983089733826746 -0.01722434913389342
000420 8d 62 e1 f8 f7 53 a9 3f b9 9c 4a f6 24 0e 7e 3f
       0.04946875489321654 0.007337707884892791
000430 92 b3 6b d9 44 18 b1 3f 8e 45 fc fb c6 95 a9 bf
       0.0667765646755483 -0.04997083497995468
000440 e0 7c 39 e9 c8 d6 bd 3f 03 c5 ab ae 1f 3c c8 3f
       0.11655860609015489 0.1893348315129871
000450 82 c6 f8 2f 80 06 98 3f e1 bb 82 b0 c9 55 b3 3f
       0.023462298324551607 0.07552776870100743
000460 7c 5d 0d b9 ce 88 25 3f 8f d9 66 b7 17 0f 87 bf
       0.00016429446670927414 -0.011259255680539563
000470 78 cc 77 84 50 e4 b1 3f dd f7 e9 3d 7f 12 b4 3f
       0.06989005312043328 0.07840724240847359
000480 db 2a e8 71 68 37 bb 3f 87 9c 54 51 85 1d a5 3f
       0.1063142088025119 0.04124085061840171
000490 af b4 ad 49 0c 7c a7 bf e4 12 70 9a 11 f6 9a bf
       -0.045868286127054396 -0.026329302836546456
0004a0 60 be e2 a6 da 9f b0 3f b1 61 6d 1a 57 00 ac 3f
       0.06493918012960753 0.05469009587858709
0004b0 6c 3a 5c be 69 01 a0 bf 8f dc fc 70 5e f0 bc 3f
       -0.03126078079923364 0.11304273851861722
0004c0 0a aa d9 01 21 57 73 3f 36 ba e8 76 ce a0 bc 3f
       0.004721764502031886 0.111828712492504
0004d0 d8 8b aa e5 32 0a a0 3f cc 1f c2 ea 1b 4d a9 3f
       0.031327810798096045 0.049416420371073494
0004e0 82 1d 1f 14 8f c0 b7 bf 21 bb 94 cd 0e ff b7 bf
       -0.09278196564911492 -0.09373562354151634
0004f0 2c 5d cd 70 ec de a6 bf e5 ce 38 72 41 ca c0 3f
       -0.044669522065925754 0.13117235257379103
000500 10 55 99 6b 9d 8a c7 bf 25 87 32 de 44 6f d0 3f
       -0.183917691744377 0.25679132174455993
000510 75 1a 98 fa 9b f1 ba 3f a6 4e fb 10 e2 5e a3 3f
       0.10524916523000079 0.03783327538772356
000520 dd 6e eb 4b 9a fa b9 3f a0 23 85 4c a5 18 a8 3f
       0.1014801440573438 0.04706303176005311
000530 20 54 ab 45 a4 6b b5 3f 8f a5 48 85 97 ba b9 3f
       0.08367373181256754 0.10050341609953349
000540 7b 21 39 7d e6 38 af 3f 73 0f ef 5d df cb a5 3f
       0.06098099020579447 0.042571048943073196
000550 43 1f c1 b2 7a 52 cd 3f 6b 48 32 85 53 0d a2 bf
       0.22907956817857142 -0.03525792122776824
000560 c8 57 76 23 5c ba b0 3f f0 fc 46 b0 02 d7 b0 bf
       0.0653436266496491 -0.06578079990048358
000570 7e 89 2e 34 f3 34 bb 3f 03 c8 64 49 c7 b4 c0 3f
       0.10627670310944912 0.1305169208877147
000580 42 07 1f f3 6f da a4 3f 77 98 8d 75 c9 92 a9 3f
       0.0407290443686308 0.04994802055334529
000590 40 bd 02 c5 75 c3 8d 3f d5 ea fe fd 01 5a cc bf
       0.014532966685094295 -0.22149681951653713
0005a0 ce 09 7a f5 4c e3 af bf 07 37 a2 b1 4f f5 b1 3f
       -0.062281041112345656 0.07014940344580732
0005b0 65 65 63 90 39 b8 78 bf 11 a2 e4 a0 17 d9 c0 3f
       -0.006035065516891568 0.13162513118847177
0005c0 ec 21 0a e8 d0 9e b2 3f 2f 26 ef fb 65 41 b0 3f
       0.07273584046391307 0.06349790001618126
0005d0 f4 13 4a a1 f7 4f a8 3f 6e 20 28 43 5e c0 ca 3f
       0.04748510211815207 0.20899561194551403
0005e0 b0 68 1a eb ff 41 cb bf 90 47 2e 2e 50 3d b6 3f
       -0.21295165042540054 0.08687306525669514
0005f0 50 59 28 60 ab 6c 95 3f d7 b9 0d 37 d8 d2 ba 3f
       0.020922353500361368 0.10477973312456555
000600 e9 67 5e 7d 22 21 96 3f 06 11 88 13 2c cc bd 3f
       0.021610773946669246 0.1163966701206541
000610 de 0e fe e2 ee 8b c0 3f 74 5f 2f 08 01 f9 b6 3f
       0.12927042087186796 0.0897369999869378
000620 5e 9c d5 39 41 8d b2 bf 0c 0d b9 75 c2 50 c2 bf
       -0.07246787702534749 -0.1430895876711492
000630 0c b0 ba c7 2e a0 b6 3f 8e 72 63 60 6c f7 95 3f
       0.08838169456674921 0.021451657660565497
000640 67 52 d5 59 cd f7 c2 3f d6 fa 28 eb e7 bc b7 3f
       0.14818732153311773 0.09272622576916531
000650 5b 2e 81 2a 5d a4 a9 bf 83 ed 98 bb ec 08 92 3f
       -0.050082122267295325 0.01761217017177109
000660 90 ce a8 aa 5b 5e 86 bf a6 6e 5c 0e 57 31 b1 3f
       -0.010922161241160994 0.06715911961185358
000670 19 60 f1 fc 2f 61 a4 3f d9 60 b0 9c 68 d6 b5 3f
       0.03980398142510939 0.08530286622442719
000680 50 0a 1b 13 9d 5f 9f bf fa 90 1a 36 6c 30 b8 bf
       -0.030638174334635615 -0.09448887177365242
000690 e8 88 5f b7 b8 8f b2 bf 2b 7c ce dd d7 fb 84 3f
       -0.07250551678547235 0.010245977837085437
0006a0 f7 d1 f1 5a d2 58 ab 3f 08 7f e8 5b 3a 82 c1 3f
       0.053412030793797464 0.13678674209312924
0006b0 df e8 07 66 f7 39 c7 3f 1f 43 94 c5 5e e8 8f 3f
       0.18145649415948292 0.01557992973769867
0006c0 5f 28 4a b4 cf fb 95 3f 35 f8 21 1c 6f d4 ab 3f
       0.021468396548279475 0.05435511797348661
0006d0 be 8e 99 77 dd 03 b6 3f 10 78 6c f1 8c e2 90 bf
       0.08599647684018927 -0.016489221797307663
0006e0 35 49 0f 8a 01 a8 b0 3f 39 31 90 99 42 9c ae bf
       0.0650635683116761 -0.05978592037726788
0006f0 87 7d 25 9e 17 fc ad 3f 2f 10 82 db 01 8d 67 3f
       0.0585639362859594 0.0028748546865831263
000700 ab 87 fa cf 69 6b b9 3f 85 99 e2 3b 35 f1 a5 3f
       0.09929524734118782 0.04285589557666739
000710 09 d5 cb 3e f1 1f bd 3f 6f b7 81 a1 02 52 a7 bf
       0.11376865180121255 -0.04554756375806234
000720 3d 38 56 c6 bb f3 8e 3f b4 89 db 5f b2 05 b8 bf
       0.015113322248705536 -0.09383692589066223
000730 7b 34 23 6d 28 67 a1 3f 86 f0 0b 2d b3 ef a5 bf
       0.03399015743489372 -0.042844390152795106
000740 cd c0 ed c6 8e 96 b5 3f a0 bb 45 26 d7 8d 6d bf
       0.08432857853563576 -0.003607673848982043
000750 8c 8d 2d 7e 47 c4 88 3f 93 17 7c 68 18 d0 b9 bf
       0.012093122995515036 -0.10083153296372264
000760 ab 9b c9 36 45 eb 98 3f 87 64 64 81 5c 62 a3 3f
       0.02433498522659831 0.03785981254095199
000770 e5 5b 4f 84 74 51 be 3f 68 68 55 31 e8 25 bf 3f
       0.11843040685867796 0.1216721649592799
000780 cd 54 17 49 46 a4 90 3f 89 ff 42 33 40 00 aa 3f
       0.01625165768731023 0.05078316331628147
000790 1f ed 52 15 d3 1f b0 3f b5 76 4c 85 49 55 a8 3f
       0.06298560400584961 0.04752568962270002
0007a0 84 91 a0 63 28 36 82 3f 34 0e 21 9e 78 ee 98 3f
       0.008892360248929483 0.024347195292888382
0007b0 b4 88 b4 b3 97 90 9a bf fa a9 5b fd 9c 2b c0 3f
       -0.025942201941810253 0.1263309704875864
0007c0 91 bd a6 6b 11 1e ba 3f 12 60 db 29 38 33 ac 3f
       0.10202130201536465 0.05507827292393598
0007d0 fa a4 92 90 4f 28 a8 3f db a7 23 62 f6 10 a3 3f
       0.04718254699521114 0.03723878810872324
0007e0 33 8d 33 f4 de 31 b4 bf 21 b8 b2 37 e5 5d 2a bf
       -0.07888596975276556 -0.0002011625582318275
0007f0 58 f1 f1 7e cd 18 b2 bf 14 c5 7f 64 c1 04 7a bf
       -0.0706909594463857 -0.006352191390747625

linear_layers.0.layer.bias f8 [50]
000000 30 82 46 dd e7 35 b6 3f 50 c5 95 4c 62 d5 ae bf
       0.08676003601295501 -0.060221740578422556
000010 dd 11 a3 54 ff c6 7c 3f a2 48 f7 44 45 a4 a0 bf
       0.007025716195304868 -0.03250328509206325
000020 a8 22 18 cc 83 3b a6 3f 85 99 ff ed fc 73 ad 3f
       0.04342281214127769 0.057525543263
000030 89 bc a1 89 ee 61 ad bf 21 86 d6 2b 7f eb ae bf
       -0.05738778524470784 -0.06039044771320002
000040 f6 aa ec af ab cd a6 3f 0e 8b 1f 3b 49 b5 ad 3f
       0.04453789255633993 0.05802372786253872
000050 97 44 38 e4 25 ea b5 3f 1e bf 2a a9 1d b2 80 3f
       0.08560406514904383 0.008152229046885003
000060 f7 20 a1 92 48 62 c0 3f 01 68 d3 2a 39 aa b4 bf
       0.12799937400473713 -0.08072240157653711
000070 3b 75 42 d3 35 72 b6 3f 9c fa af a7 06 0d 87 3f
       0.08768021018700704 0.01125531386605632
000080 3d 91 fc e8 b4 e6 98 3f c6 c2 ee 2e 91 1f 86 bf
       0.024317576141713138 -0.010802397007723907
000090 55 f7 51 b0 eb 33 93 3f b0 08 5a b0 f5 d4 aa bf
       0.018752749096612693 -0.05240600373964932
0000a0 c6 81 13 4d 08 6b c0 bf 0e d9 45 3b 9e f0 a1 3f
       -0.12826637042509342 0.03503889535470438
0000b0 09 7f d9 ac d0 76 8e bf a3 36 a7 78 82 9d a0 bf
       -0.014875059390021332 -0.03245170328919513
0000c0 b6 13 bc ce 97 52 a9 bf 62 83 48 5d 95 fc b2 3f
       -0.049458259569326854 0.07416661765502178
0000d0 ba fe b8 fa 89 d7 b4 3f 3d b7 46 ed b3 6f ba 3f
       0.08141386386068464 0.10326695006253046
0000e0 d7 c4 1b a5 92 8a b6 3f 6a 6c 88 f9 5e c1 5d 3f
       0.08805195361107408 0.0018161227691340328
0000f0 16 22 c3 c7 f1 b4 72 3f b2 ce ee 2e 16 54 6b bf
       0.00456709332883822 -0.0033359940784637105
000100 13 8d a0 ca 37 6a 93 3f 68 2d 1b 36 a0 2e 91 bf
       0.018959876768474503 -0.016779425909402873
000110 ca 5f 81 96 71 d8 73 bf 8a a6 3c c4 c3 cf ab bf
       -0.004845088675288831 -0.0543194939658181
000120 87 d8 ab 7b 2c db b5 bf 1f 62 59 2f 80 60 b5 bf
       -0.08537557620351964 -0.08350373416886513
000130 fc 54 8c aa 26 10 b1 bf 84 b1 e2 46 a1 9f 96 bf
       -0.06665269531034207 -0.022093315078266965
000140 5b db da 48 98 84 97 3f 1c 78 c4 9b b3 0b bb 3f
       0.02296674675627784 0.10564730217853974
000150 96 21 44 c4 b7 14 a0 bf de a7 b7 61 ee cc a4 bf
       -0.03140806456400751 -0.040626000812906446
000160 74 18 3d 1c 32 a5 8f bf b6 15 8d 68 27 f7 8d 3f
       -0.015451804625296918 0.01463156497778582
000170 f0 6a 42 9f 30 00 94 bf 63 d4 99 e1 83 51 b8 bf
       -0.019531974525857032 -0.09499382264933014
000180 6e 91 e1 a1 6d ab 9c bf 78 e6 e8 59 5b c9 b0 bf
       -0.027997696881713656 -0.0655724615579859

linear_layers.1.layer.weight f8 [50, 50]
000000 f4 9b c9 7c 76 10 8b bf d2 5f 67 27 c0 f3 a8 3f
       -0.013214994128430725 0.04873466950419893
000010 ec 77 4d 70 16 d6 b5 bf 7c fd bb bf ff b1 d1 3f
       -0.08529796830904929 0.2764891979604369
000020 20 b9 85 0a 80 7c d0 bf e1 3e 29 97 07 5e bd bf
       -0.2575988867528327 -0.11471602859932829
000030 1c 09 f1 28 d7 37 c2 3f 88 08 6d 10 6e 0a 92 bf
       0.14232911585902108 -0.017617912056501456
000040 e9 fe e6 27 20 63 cb bf 5f e1 ec 86 63 6d bd bf
       -0.21396257351260964 -0.11495039028239294
000050 2f de 14 34 b8 25 bc bf ff b2 0b be 32 37 a6 bf
       -0.10995055457612389 -0.043389878939569464
000060 65 a4 4a c5 a2 f5 ae bf de 97 18 f8 d6 b5 aa 3f
       -0.060467802604144784 0.05216857698933074
000070 85 33 db a2 de 82 ba bf 7f 98 35 6b 8d cf c0 bf
       -0.10355941272719178 -0.1313339971049494
000080 05 e2 d5 3e 23 3d 58 3f 60 06 ad 0d 08 b6 ca 3f
       0.0014794201082094516 0.2086801592613936
000090 21 a7 1b 2f f1 ec bb bf 7e ec 93 aa e1 be d7 3f
       -0.10908419990633124 0.3710254827307792
0000a0 4d ca 92 d4 da 4c cc 3f 25 eb 5c dc 78 88 a2 3f
       0.22109542254982487 0.03619744958856178
0000b0 6d 7f 4b 74 13 93 61 3f 43 a3 99 f8 07 ab c5 3f
       0.0021453266111705533 0.16928195608786653
0000c0 c7 d1 b2 a3 b0 72 a7 bf 80 5f 1d 83 bb 71 a5 3f
       -0.04579689024231786 0.041883334880082224
0000d0 03 b1 cf 43 c6 39 bd bf 98 b1 4d 21 85 fc cf bf
       -0.11416281848477543 -0.2498938000311568
0000e0 74 f7 86 9b 7d cb c2 bf a8 6c f8 9f b1 2d b6 3f
       -0.14683504194357122 0.0866347327759508
0000f0 6b 88 e1 98 3c ee bd bf 0d 64 43 f8 4d 5d c3 3f
       -0.11691645367094032 0.15128492948750286
000100 1e b0 57 a4 47 77 a4 bf 20 e7 aa 48 a4 62 a5 3f
       -0.03997253304609692 0.041768201704554864
000110 f1 3b 73 bc 33 31 97 3f b4 34 f3 85 70 7a c9 3f
       0.022648628594477974 0.1990490583470198
000120 96 3e 37 90 7a d7 c7 3f 4e 3d 17 b9 64 2d 87 bf
       0.18626338998591468 -0.011317049883386911
000130 b0 2f e1 89 77 b6 c8 3f ba 85 46 de 14 5a ad 3f
       0.19306844932941436 0.05732789243053156
000140 13 da b4 a9 71 dc c3 bf a3 32 94 6b 71 23 b1 3f
       -0.1551649168629444 0.0669470679897111
000150 0c 95 75 3e f7 ad be 3f ba a1 f9 b8 fd ae 7c 3f
       0.11984200739751233 0.007002822021242522
000160 39 07 37 4a 67 b0 c8 bf 7e 06 bf f5 2c 4d d9 bf
       -0.19288340686585473 -0.39533542631770746
000170 2c e3 c0 c8 ec 43 d5 3f d4 03 a6 df 69 f3 8f 3f
       0.33227080921965313 0.015600993287764021
000180 0e 01 5d 79 d5 e3 cc 3f 93 f4 4e c1 a5 a9 c4 3f
       0.2257029383272386 0.1614272302521483
000190 69 71 bb 2d 2d 64 a5 3f 0d d9 e9 9e 44 f9 ba bf
       0.04177991088156114 -0.10536602859233231
0001a0 f6 d4 02 e4 71 3c c0 bf a5 8c a7 ea 52 83 b4 bf
       -0.1268446315131439 -0.08012884358281498
0001b0 78 ef a8 38 32 57 a7 3f 0e a4 f8 06 c2 77 ad 3f
       0.045587129036419094 0.05755430541132266
0001c0 0f 00 24 f2 11 bc b3 bf a9 1a a3 63 5f 25 c3 bf
       -0.07708847200046896 -0.14957802167028447
0001d0 d8 45 a2 10 db 95 c0 3f 2a 3a 2f 32 72 de 8d 3f
       0.12957323372078977 0.014584438473233059
0001e0 a0 4d 22 09 82 e4 af bf e2 3a e2 1a ee fa c0 3f
       -0.062290252318372596 0.13265777886086655
0001f0 0b dd 95 2f e9 e7 c4 3f a6 b9 86 b5 bc 2e a5 bf
       0.16332735847002086 -0.04137220111748556
000200 4a e9 7f ed 03 9a 99 3f 2f 25 f9 03 69 6e c3 3f
       0.025001584406689127 0.15180695241932926
000210 bb 0c 51 f4 ad aa b5 3f 00 2d c3 9e 36 ec b7 bf
       0.08463561262856249 -0.09344807983432091
000220 f0 8b b5 de 88 2a 98 bf 0c 7b fe 88 eb 54 ab bf
       -0.02359975680645826 -0.05338226363459428
000230 45 32 a9 a2 ca ac ac 3f 66 05 0c 9f 2f aa ab bf
       0.05600579486472105 -0.05403279129496745
000240 47 76 93 8c 75 d3 b0 3f 92 80 c3 69 a1 11 b1 bf
       0.06572661096603226 -0.06667527038689716
000250 b2 60 12 c7 33 6b be 3f 5a 9a 32 49 6e fa b3 3f
       0.11882327661658357 0.07804002081921038
000260 d9 cd 7a ae 66 1d bd 3f 04 44 8e 24 fa 9c b4 3f
       0.11372987518080126 0.0805202807662369
000270 92 3f 24 0d 95 49 ae 3f 60 72 2c dc 83 1a a9 bf
       0.05915513787670003 -0.049030418993628144
000280 be 73 1e b7 38 df c0 bf c0 38 0e 7f a2 63 bc 3f
       -0.1318121809134975 0.1108953056520674
000290 43 63 26 1a 8a 3c b4 3f aa 50 f8 35 f3 db 12 bf
       0.07904875887323919 -7.194206181565752e-05
0002a0 4a bf 3d 2d c6 88 8f bf 55 18 00 b5 c7 b7 b3 bf
       -0.015397594695712908 -0.07702301186518075
0002b0 38 26 e8 fe 0f 5e c5 bf 99 e1 53 e3 e8 67 b9 3f
       -0.16693305918333734 0.09924178647987104
0002c0 44 e4 2b f7 79 2b c1 bf f1 7e ee dc 24 9c c4 bf
       -0.13413929528158708 -0.1610151366012285
0002d0 40 fd 43 62 42 43 98 bf 6e d5 b8 95 bd 3c 92 bf
       -0.023694073913245406 -0.017809831870370933
0002e0 5d 20 b2 c2 10 8d 99 3f f0 f3 9c 15 03 67 b0 3f
       0.024952184565819702 0.06407183911956316
0002f0 18 83 63 86 a5 bc b8 bf b7 2d 72 5e 06 9d ba bf
       -0.0966285183999499 -0.10395850950060646
000300 83 77 ec bd 9f 66 a3 bf ca 05 51 c5 75 02 92 bf
       -0.03789233392147564 -0.01758750931572254
000310 5d f4 d6 52 45 39 c0 3f 8a 96 3f f1 a4 43 b1 bf
       0.1267477659693296 -0.06743842019894877
000320 99 bd 3b f0 54 3a ba 3f 28 0f 8b 71 62 a4 ba bf
       0.10245257248947438 -0.10407080909777433
000330 ec 1d 71 db 4c a8 be 3f 62 72 20 4b 0c 08 d3 bf
       0.1197555576082931 -0.2973662122401831
000340 ac 7b 5b 29 10 e1 d8 3f b9 96 f6 b3 84 ed c3 bf
       0.38873676337055474 -0.15568598544375847
000350 a9 b7 e1 c3 78 80 93 bf 74 1b 3f 3a 57 98 a6 3f
       -0.01904476829115934 0.044131017551584245
000360 af 6d 45 95 4c 2e 7c bf 56 fd 61 96 db d0 be bf
       -0.00688009181279929 -0.12037441655592337
000370 9c f4 7f 8e 60 f9 b0 3f 14 98 cb ac da 4a c4 3f
       0.06630519370078719 0.15853436887044892
000380 9c e9 9c 00 29 36 b0 bf 1f af 13 70 12 4c c1 bf
       -0.06332641854252191 -0.1351340338945812
000390 0e 44 88 8c 2c 5c a3 3f 1a 16 31 f6 0a 76 b8 bf
       0.037812606959171643 -0.09555119047680485
0003a0 3e ad 59 c0 5a ad af bf 92 a6 60 10 79 cc 87 bf
       -0.06186946485544319 -0.011620469867995174
0003b0 c7 2d 60 45 a0 56 87 3f b0 ed 2f 88 0a b7 c2 bf
       0.01139569484441595 -0.14621097230688695
0003c0 25 92 dd 5a 5b 39 c4 3f 5d 3a 76 6a 3a 88 b7 bf
       0.15800039231102506 -0.09192242716947292
0003d0 49 93 09 71 b0 03 c9 3f 77 bc d3 9a c8 06 c1 bf
       0.19542508620647883 -0.1330195194236443
0003e0 6e 74 63 56 dc 1c bc 3f b1 35 24 f5 8d c1 99 bf
       0.10981537922948956 -0.02515241440510402
0003f0 08 cf 7b fa 9d f6 d5 3f 5f 5d 95 cf db ee b1 bf
       0.3431773134354761 -0.07005094354587048
000400 72 05 1d ae 70 98 a2 bf 52 87 f4 30 c6 62 be bf
       -0.036319276098320766 -0.11869467444605888
000410 de b5 01 16 94 16 af 3f 24 7d fc 21 b4 61 c1 bf
       0.06071913498531577 -0.13579417857634113
000420 3c 6f c1 7d 84 cc cd bf 5b 0d 68 0e 80 7e 82 bf
       -0.23280388012323694 -0.00903034252133377
000430 0a 53 00 9b f7 2a be bf 41 8a 13 ed aa 86 c5 bf
       -0.1178431275769293 -0.16817223144524188
000440 94 1e 78 b9 11 06 cb bf 1a b5 11 b2 c7 95 99 bf
       -0.21112271839250651 -0.024985428088645546
000450 fb e5 20 ae 32 7b 98 bf c1 c6 5a d9 17 2c a9 3f
       -0.023907462957344788 0.04916452911619507
000460 f5 70 9e 01 a2 96 b0 bf f7 7b 00 63 0f ef d0 3f
       -0.06479847468876072 0.26459107082513306
000470 c1 9d 47 1a 2a 3b b1 bf 80 4a b9 ca 10 21 af bf
       -0.06730902806849938 -0.06079914545684506
000480 43 ff 59 be 5a d0 b0 3f d1 f5 dc 5b 25 3c ba 3f
       0.06567923686270398 0.10248025410415741
000490 38 a8 53 6d 30 fd ab bf 14 40 c1 d1 df 3d a8 3f
       -0.054666055055193785 0.04734706340298103
0004a0 70 48 bc 77 cc ac bb bf 6f 64 d2 70 68 b6 62 3f
       -0.10810544894437313 0.002284244523775451
0004b0 00 9f 50 28 71 25 71 3f f6 df dd 97 2c 37 b0 3f
       0.004186098119170145 0.06334189136202881
0004c0 c8 b0 b9 b0 a9 2e c1 3f 3e 74 5e 16 7b c6 b9 3f
       0.1342365372578398 0.10068482681386201
0004d0 cc a6 98 1b 87 23 c9 bf 3c 5a 5a 75 12 31 c2 bf
       -0.19639672133899067 -0.14212256174205773
0004e0 11 60 c2 e4 37 db ba 3f 36 6e 2e f3 99 6d b0 bf
       0.10490750632232017 -0.06417238413853785
0004f0 4b ee 91 2b 6b bd b3 bf 23 ec 16 14 01 48 b2 bf
       -0.07710904897424446 -0.07141119709460546
000500 3a 94 c8 ae 21 22 b2 bf 04 9e 48 a5 37 2b b4 3f
       -0.07083330647636013 0.07878444466825135
000510 d9 d3 3b 53 98 cd 83 bf 6d cc 38 08 f6 e9 be bf
       -0.009669485130396826 -0.12075746250848036
000520 54 6c 1f d2 b1 d6 c3 bf cd 71 2d a5 82 88 77 bf
       -0.1549894596090292 -0.005745420773419285
000530 a1 4e 70 52 64 df c8 bf 1b 82 33 3b 78 a5 c7 bf
       -0.19431737923934114 -0.18473723307307996
000540 89 96 65 f3 ce a4 ba bf e9 4f 28 13 0e e4 89 bf
       -0.10407727663331391 -0.012642011603965346
000550 d2 05 f8 f5 b3 59 ba 3f a4 41 2e 55 6b bf 83 bf
       0.10293125872706035 -0.009642447030075392
000560 b2 c4 21 01 6b 8f d0 bf e9 5c ee 59 f8 cc 98 bf
       -0.25875353918588495 -0.02421939896484285
000570 9d dc 0a 0e d2 66 a3 3f e4 15 b4 fd fe 90 a8 bf
       0.03789383336464278 -0.047981232137356306
000580 1b 40 bd 86 4f 9e a7 bf 0f 41 7c a0 50 8a b9 3f
       -0.046129689405120376 0.0997667686281185
000590 d4 ad 92 c3 ba d9 9b 3f 75 9a 86 3b ac 0b a6 bf
       0.027197759806467506 -0.04305780626900894
0005a0 6d df 3f 62 35 2a c1 bf 66 49 83 fa 3e 09 ba bf
       -0.13410060212458622 -0.10170358291660406
0005b0 cc 9b 8c b3 32 8b 8c 3f 91 46 36 9e ee e0 c4 3f
       0.01393737421456178 0.1631143829841233
0005c0 bd bf 40 23 47 d6 b9 bf a5 30 a5 3a 70 94 c8 3f
       -0.10092587099711543 0.19202998031176324
0005d0 34 65 03 67 3d 3a cb 3f 64 be 49 83 9a fa bb 3f
       0.21271483926720125 0.10929265694880425
0005e0 bf ca 57 fa fd eb b1 bf 99 4e 5a ee b0 c7 c2 bf
       -0.07000720369232293 -0.14671908987348983
0005f0 a2 ad 2b 9c 03 47 c1 3f b2 bb c5 34 c3 dd c8 bf
       0.13497967839735475 -0.1942676551511489
000600 da d4 80 14 1d 6b b9 3f 36 4a 3b 9f b2 59 c2 bf
       0.09929067373817038 -0.1433623578546574
000610 1d e6 7e 40 94 28 c3 3f 8b 7a 86 98 24 91 a9 3f
       0.14967587613300362 0.04993547784691995
000620 62 e5 cb 9e 34 e9 c0 3f 2d b2 9c 16 f2 5c 61 3f
       0.13211686853154975 0.002119515255705437
000630 53 31 05 a8 0e 56 cc 3f 58 59 3f 3b 08 cc bd bf
       0.2213762588893454 -0.11639453360053176
000640 14 80 3d 0b 6c d0 c2 3f 37 9c 3d 16 e3 06 b9 3f
       0.14698553608741405 0.09776133816704734
000650 a5 9a c5 7a 01 e9 bc bf fc 02 d7 ba c8 10 9e 3f
       -0.11293038604126567 0.02936090126400169
000660 32 24 1d da a7 28 bb 3f 30 2b 5f 25 0d 10 ac 3f
       0.10608910632176174 0.05480996209333566
000670 e0 0d cd 38 74 4f 9f bf c7 36 d4 8e f6 41 84 bf
       -0.0305765304249358 -0.009891439660829516
000680 4b 27 24 0e 39 56 c5 3f 06 ca 58 51 9c 1c 94 bf
       0.16669381323327523 -0.01964039083959259
000690 72 a1 0f 97 5f 3a be 3f e8 e8 7b b3 45 3c 98 bf
       0.11807820737852184 -0.023667420463405003
0006a0 ea c0 3b a9 51 ed c3 3f 00 1e 19 2e 57 0d 58 bf
       0.15567990077352728 -0.0014680243842962737
0006b0 64 6d 4b fa 49 50 9b 3f 67 77 ce d8 44 8a c1 3f
       0.026673465635082563 0.13703213297133773
0006c0 5c 43 7a 0d 4b 35 91 3f 7b 82 d3 b0 19 7e a8 bf
       0.01680485982666667 -0.047837069354277305
0006d0 8b 2c 7a a6 ab 32 a9 3f 07 13 c8 92 95 0c a2 3f
       0.04921471030419252 0.03525226036803102
0006e0 f4 7e 39 b7 e1 40 c8 bf 14 ef a1 ee f3 45 b3 bf
       -0.18948003241074896 -0.07528614593496413
0006f0 67 1d 5e bd a0 3f c0 bf 84 8d af 30 40 e1 be 3f
       -0.12694176908938035 0.12062455357186336
000700 8d 78 0d 82 24 73 c1 bf 75 8b 1b 5e ae 02 9b 3f
       -0.1363263735792696 0.026377415174362057
000710 5b 69 84 8c d4 51 86 3f d1 0c 2f aa fe c0 ab 3f
       0.010898266351934074 0.05420680835188708
000720 cc 2c 0a c9 22 e5 b3 3f 42 28 36 50 cb a7 cc bf
       0.07771508606144834 -0.22387067238406827
000730 75 58 17 ce 33 40 c2 3f 7f 5b 50 20 c1 12 9e 3f
       0.14258430064245756 0.02936841735580797
000740 ea 5c ab f7 30 da b3 bf 04 f9 68 5a 84 c6 c0 3f
       -0.07754808470359689 0.13105825819543082
000750 43 d0 f5 d8 ed 87 c2 3f fb 5c af 2c cb 5d a5 bf
       0.14477322667846879 -0.041731213764871065
000760 07 02 2a b2 a7 c7 a9 3f 41 89 32 8c 44 6d a6 3f
       0.05035137224058777 0.04380239688295485
000770 d4 e3 47 ae 5b 60 bd bf 92 8f 33 f4 e6 27 b0 3f
       -0.11475155835059009 0.06310885869930719
000780 f0 f1 74 4e be 9d 9d 3f a4 4a 8a 36 2c 03 bb bf
       0.028922055758117737 -0.10551716167018782
000790 6e 81 00 90 06 28 a9 bf 76 b9 ec 1d 1d 37 bd 3f
       -0.04913349635922058 0.11412221890052429
0007a0 43 7d e2 35 a5 f6 b7 bf c3 7c e4 fd 19 77 b8 3f
       -0.09360725942177787 0.09556734512851776
0007b0 0b 16 de ec 17 cb bc 3f 6a 22 17 c1 d0 2e 8b bf
       0.11247396023653537 -0.013272887127542893
0007c0 7e 3d c1 9b 5e 63 bf bf 39 7a 45 20 e0 a9 ba bf
       -0.1226100092182971 -0.10415459430576214
0007d0 e2 22 0a dc 9a 66 bc 3f 52 18 fc c5 59 ec ae 3f
       0.11094062683163089 0.06039696256452544
0007e0 09 16 46 e1 51 0b cf 3f 6c 00 b9 23 e2 53 c9 bf
       0.24253295421310408 -0.19787241691847457
0007f0 e2 d9 6c 92 41 77 b3 bf e2 3d 73 ed 7d 3c d7 bf
       -0.07603845429262138 -0.36306713284008485
