7_Inv_Burgers/logs/models/2024-01-16-14-23-10_Lorenz_DNN_100X5/epoch_36000.pt (torch, 121211 bytes, 14 tensors)

mu1 f8 [1]
0.9758909318425539
00000000: 6841 979e 7f3a ef3f

mu2 f8 [1]
0.005010071560533488
00000000: 23be 0cd8 7085 743f

rbf_layers.0.centres f8 [128, 2]
-0.1609747785366742 0.32817799199396747 0.6052121628107655 1.000611274938207 -0.08879103380828725 -0.6462776212296275 -0.10248325520286454 -0.40862509322053925
0.714639351377296 -0.2925691461838739 -1.0383287152598304 0.11412138545794946 -0.9838551644981062 -0.5111440124718486 0.8767696441386718 0.6279206297084046
0.8320339537539105 0.6416329558812431 -1.45948525307903 -0.4974917615997113 0.565858541205419 -0.8459460936134764 0.9059703233087032 -0.23039042894538314
0.23549267497620813 -0.025852760527419246 0.5433301555104957 1.392869344118482 -0.5914405962603361 0.17430903319606914 -0.23760324293549434 0.916633506884501
-1.5305173398689351 -0.7373123923161502 1.0008977761108804 1.533753631887576 0.03859719497012679 -0.12429773755302251 -0.22632601311587558 0.30405693182751786
0.005618636920650614 0.4759986929472922 -0.15939944840144638 2.2759365704509547 -0.4676629654773559 0.6184014830687844 -1.0739847413756531 -0.6603008372269983
0.7681654254401903 0.06610430855946917 -0.4327580581552411 1.1787993028151762 -0.014373650724117788 1.0397739742452363 0.9076387201446446 -0.02039609992065624
-0.04061761491580497 -0.4364195683578562 -0.3853854356901209 -0.43659350137873215 0.2550017577008891 -1.507434908522786 0.8502806354578635 -0.28054985228494367
2.2002364836140673 -0.4937500449116986 -2.254681953096842 0.022386618064222173 -1.601543189073073 -0.7872138244731669 -0.28293576579408763 -0.4398256470989699
-1.5522921573540849 0.19696445959110723 1.0924270200301136 0.4677210418237371 -0.229496268895721 0.5615244731539025 -0.9403828279343115 -1.5530361122814191
1.1045451583051296 -0.8151956220023645 -1.056042689689336 0.932936779258043 0.7067072043619171 -1.789680277522179 0.2688817608201462 0.06413301665185152
-1.069910585299237 -1.117829277053397 0.06865526379365393 0.7306985136497106 -1.737603705609993 -0.26706908563115983 -2.130009387950339 2.0241506158739044
1.1185410739497523 -1.0915051486667702 -0.4890399100500965 -0.7759707087047728 -0.2829741633187052 -0.061480592284721615 2.4221716545554064 -0.5438576011570446
0.09719827237653421 1.2385863769531729 -2.3796949090904187 2.4512695142520298 -0.25914040563009344 0.7594128572263222 0.8208072863670103 -0.20508013566098704
0.38384931347435997 -1.6664085848871506 -0.19967294799266924 0.8418925150798537 -0.03247015129102991 2.2022768006852527 -1.5689286751279183 -1.0028223930891915
1.2157347038699937 1.9701311344401564 -0.8915915172313562 0.3080935448179624 1.590902752933194 0.7753427785440398 0.7554616000011716 -2.0347639815427203
0.6132695084483292 -1.0653574065528921 -1.082127448760575 0.47735316858477567 1.020378422657224 -1.934740608842481 -0.7497591554225946 -1.0784287927744605
0.22233913308639985 -0.9145539758138664 1.7804218663940057 -0.6055335437771183 1.423586502875836 -0.3672633651778367 0.6881715455333247 -0.2279989047439033
-1.144321211421849 1.2432107457116213 -1.0771535089214925 -1.2688047103483444 0.03370768562528941 -0.2774089680962536 1.1563477667832647 1.31003895348172
-0.5155710473724712 -2.4656404848360136 -1.2046358087503544 -0.17445887150868034 -1.0270856002221016 -0.5840001862715113 -1.2653299226598738 -0.006643556724334379
0.5070978582119634 -0.33305679526167065 -0.20389769987608855 -0.28912629207933854 -0.5548798992004623 -0.728377365350272 -0.7617209681366746 0.25984181940937173
-0.5810006867905151 0.49695071108930394 0.5386501418224449 -1.3132210989838224 -1.4460063880148106 -1.0553732925610615 -0.7480865372442399 0.5453106050239962
1.1556864656279655 -1.3165574638297652 0.21203094810848166 -0.9392758278785033 1.0020478017417402 -0.3168757714472892 -0.9371051117865696 -0.9067070829138355
1.1904679801141755 -0.5738232895815205 -0.18722142421264537 -0.1533702532905563 -0.4003149176854006 0.2515495218524908 -0.21510445879398307 0.15674113600001527
0.706901560148762 0.10245378239927141 -0.5567233047095635 -0.1930199692481506 -1.017227066130812 -0.023576069134544797 0.7853041808424519 1.1943977038690794
0.22349069270371621 -1.1815081603601485 -0.004959761061715442 -0.29137148342013025 1.0365450066089468 -0.6009682506632142 0.7673068454497154 0.42386625593059524
1.3807750727581616 0.23615437567235079 0.007803371325491849 0.39823721460661954 0.4159742378188287 -1.2242302534963396 1.7448629342751234 -1.1364875803137644
-0.7063408148388681 0.2744261063805384 -0.2734222880354696 -0.587119288081882 -2.6664539808715912 0.2486135812155059 0.8280727968111352 0.2988485370802269
-0.5774051203291516 1.1431046369144053 1.3823636929302183 1.3696670766050607 -0.16925788935281386 0.5592616101066873 -0.7478674520322409 1.6569519978964242
-0.7076455475311826 -0.5117117024080864 -1.2288593140317774 1.1445384452741578 -0.9173606732015155 0.5442334050012781 -0.22087084537045254 1.5071662469355713
-1.023355020868719 1.37217295420577 -0.7466737842348766 0.6501991114796213 -0.2751642065851557 0.8180623005941184 0.5845040144346116 -0.7920731489106648
0.20329303316561184 2.0131147007530985 0.7151455578554862 -0.14555274556501194 -0.1964327951727416 1.1249125101916584 1.2099615910193386 0.8015272938423414
00000000: b0de a550 d29a c4bf f662 b843 de00 d53f
00000010: bf3c cde5 e55d e33f 3ae5 ddf7 8002 f03f
00000020: b976 625a 02bb b6bf 722c ea67 4eae e4bf
00000030: 83e2 7bb5 573c babf 3b42 eddc e926 dabf
00000040: 5634 5358 53de e63f 9b6a abf0 73b9 d2bf
00000050: 629e 2892 fe9c f0bf 1fec 5022 0f37 bd3f
00000060: 62a4 70d3 bd7b efbf 1b9c 23b0 4a5b e0bf
00000070: d96f 7636 7f0e ec3f 349a 2201 ed17 e43f
00000080: a01b 91ab 05a0 ea3f c976 31d6 4188 e43f
00000090: de7f 6f35 0d5a f7bf 7e69 86af e7d6 dfbf
000000a0: 2377 145f 831b e23f 76f6 c78a fd11 ebbf
000000b0: d73c b879 b5fd ec3f e2df d0fe 6e7d cdbf
000000c0: 2235 bcbc 9f24 ce3f ff05 e863 2579 9abf
000000d0: 3c24 1bec f562 e13f 0770 895d 3149 f63f
000000e0: 53e0 4ed4 14ed e2bf 43bc 7c26 c24f c63f
000000f0: 4e6e ea76 c869 cebf 3b93 cfca 0f55 ed3f
00000100: fb2a 0bc0 ff7c f8bf 4ede 7d28 1098 e7bf
00000110: d790 f062 ad03 f03f f840 913f 418a f83f
00000120: 2d62 3af4 02c3 a33f 3ecc c1fd f9d1 bfbf
00000130: 5a8b 4834 40f8 ccbf 0790 9434 ab75 d33f
00000140: 371c 285d 9103 773f 716e c938 c376 de3f
00000150: 443c f17c 3367 c4bf a6db 8e3b 1e35 0240
00000160: c5a3 91a5 30ee ddbf a781 32e8 f1c9 e33f
00000170: 7ec8 c99f 0a2f f1bf 002a ad38 2f21 e5bf
00000180: 97df 85a8 cf94 e83f 9a3a 6343 36ec b03f
00000190: cddc b6da 4eb2 dbbf 7438 62a8 5cdc f23f
000001a0: 4411 46be ee6f 8dbf 02d8 e908 eaa2 f03f
000001b0: 6f58 735b 600b ed3f b62b 8018 b7e2 94bf
000001c0: 32e9 68ff d4cb a4bf 889c 5b57 4cee dbbf
000001d0: b333 a9ac 27aa d8bf 9956 84de 25f1 dbbf
000001e0: 87dc 6fe4 f251 d03f 1144 0f11 741e f8bf
000001f0: fdd5 36bc 7f35 eb3f a088 1d5e 87f4 d1bf
00000200: 2ab5 e495 159a 0140 6ed5 d2c9 9999 dfbf
00000210: 7075 1bb1 9609 02c0 26c5 d081 84ec 963f
00000220: cf34 43c0 eb9f f9bf 6348 e20b db30 e9bf
00000230: 9c13 3d9d 9e1b d2bf f0da 8e78 1a26 dcbf
00000240: f0c4 1a4d 30d6 f8bf ed84 35a4 2136 c93f
00000250: b9bc 44c1 947a f13f 0a2d 923c 24ef dd3f
00000260: c206 bb3c 2260 cdbf 4330 032c 02f8 e13f
00000270: e554 76ba 9d17 eebf 4317 fc64 3cd9 f8bf
00000280: c302 3e8b 37ac f13f 09f6 0a21 1516 eabf
00000290: 4654 f604 8de5 f0bf 82c3 843b 9eda ed3f
000002a0: ee9f 526d 589d e63f 3b10 64c9 87a2 fcbf
000002b0: b5a8 4dd8 5b35 d13f 0510 1d79 056b b03f
000002c0: 3112 d88f 5a1e f1bf 664a b7f3 a0e2 f1bf
000002d0: af26 b130 6493 b13f e88f 6bd9 e161 e73f
000002e0: a60d 108b 39cd fbbf babd 23ef a817 d1bf
000002f0: 825b ab5c 420a 01c0 7ada cae0 7531 0040
00000300: eb8c 3d53 8be5 f13f c407 4f1a ce76 f1bf
00000310: 0ea7 060d 6e4c dfbf 654f 1186 c0d4 e8bf
00000320: 7a46 44aa 3f1c d2bf b536 675a 627a afbf
00000330: d1e8 4c88 9b60 0340 0cd1 540e 4867 e1bf
00000340: f7bc 1569 fce1 b83f 628f e4f2 3fd1 f33f
00000350: 2202 087c 9d09 03c0 7927 eb30 339c 0340
00000360: 2038 d0a3 c195 d0bf f95d 3e31 1c4d e83f
00000370: 5f79 68a4 0d44 ea3f 4091 dcdd 1040 cabf
00000380: 31b9 fdb5 fc90 d83f bfd2 5d0c 9ca9 fabf
00000390: 4d20 c316 e28e c9bf 2e7c 6092 c8f0 ea3f
000003a0: 3e44 c87b ed9f a0bf 1c76 9d4c 439e 0140
000003b0: 73e5 56f4 541a f9bf 883b 607e 8f0b f0bf
000003c0: ecbd 9b3b a673 f33f 9507 7439 a885 ff3f
000003d0: 4eca fcee ea87 ecbf db84 c6fc cdb7 d33f
000003e0: 556e ef71 5674 f93f 5d2a a1a8 9bcf e83f
000003f0: 9671 2cce bd2c e83f 1770 9e56 3247 00c0
00000400: 1d6d 4d60 e79f e33f 0323 3b35 b40b f1bf
00000410: 477d 28df 6450 f1bf 65ab ed4d f48c de3f
00000420: a0b5 2d53 7853 f03f 9c8b 9391 b2f4 febf
00000430: fe54 8de9 06fe e7bf 427f c08c 3e41 f1bf
00000440: ec10 9dd4 9b75 cc3f bd83 11b3 0644 edbf
00000450: b7ed 93a3 9b7c fc3f 2ceb e4e1 8760 e3bf
00000460: 430f 0ea4 02c7 f63f 2f4b 9d33 3e81 d7bf
00000470: 174f 4355 8005 e63f a10e b36f 112f cdbf
00000480: aad0 32c2 234f f2bf fedf 6df3 30e4 f33f
00000490: 686e 5951 053c f1bf 6e4f ff2a 064d f4bf
000004a0: e7d8 c43e 2242 a13f 06cb 658b 11c1 d1bf
000004b0: 2830 1284 6680 f23f 750a db67 ebf5 f43f
000004c0: db55 67da 8e7f e0bf 9c83 f0b7 a1b9 03c0
000004d0: c4c5 a232 3046 f3bf 903c d015 ab54 c6bf
000004e0: e357 724f f16e f0bf 0d9c 9c28 21b0 e2bf
000004f0: 0297 c796 ca3e f4bf 101f c32d 4636 7bbf
00000500: 7e8b 9c49 253a e03f 1e01 d772 cd50 d5bf
00000510: 2d45 59e0 5119 cabf 893f 3990 0b81 d2bf
00000520: a9c2 887d 93c1 e1bf 196f 6a0c de4e e7bf
00000530: 1a62 daa6 0460 e8bf d9c4 1f95 3fa1 d03f
00000540: 6c00 97c0 8e97 e2bf 718f f65a 0ace df3f
00000550: 079f e338 9f3c e13f d8d7 8820 f402 f5bf
00000560: 8a4a 2598 d722 f7bf 12f2 091b cfe2 f0bf
00000570: 3757 812d 53f0 e7bf 62ae d739 2f73 e13f
00000580: bfd4 6417 b17d f23f b841 278f 9e10 f5bf
00000590: 98d2 ee81 d423 cb3f fb2a 552e 8c0e eebf
000005a0: c626 9846 6308 f03f 38b2 d050 b147 d4bf
000005b0: 2c35 01dc c3fc edbf d653 8592 be03 edbf
000005c0: b468 1827 280c f33f d0f1 cda8 c25c e2bf
000005d0: 1a4b 0d23 dff6 c7bf 60f5 07ef a2a1 c3bf
000005e0: 94d2 e375 c29e d9bf a093 6b2a 6319 d03f
000005f0: 5339 dffb 8a88 cbbf 086b 87f2 1710 c43f
00000600: e691 4a05 f09e e63f 8aa1 c13c 693a ba3f
00000610: 7bc1 5464 add0 e1bf 5da7 b2db e0b4 c8bf
00000620: b434 5ae3 8f46 f0bf 40bb 9a37 5324 98bf
00000630: 3e2c c43b 3621 e93f 2290 48c4 401c f33f
00000640: 73b9 0fd0 579b cc3f 6d43 cb19 75e7 f2bf
00000650: 5c8c e5b8 af50 74bf 9db1 1194 d4a5 d2bf
00000660: 017b 8337 b095 f03f fd0c d1c4 213b e3bf
00000670: b282 e615 c78d e83f 5064 c6ee 9f20 db3f
00000680: 9e0d 4a9a a717 f63f 39f7 287c 4e3a ce3f
00000690: b4b6 438a 6df6 7f3f b046 32f1 b77c d93f
000006a0: ec43 da68 529f da3f 2ba6 5876 7296 f3bf
000006b0: 946d 6b65 f5ea fb3f ea1f dc99 0d2f f2bf
000006c0: 8603 720d 589a e6bf 83ac 0484 3290 d13f
000006d0: 8507 4732 c07f d1bf 1533 a563 aec9 e2bf
000006e0: 590f 21d3 e554 05c0 a7bd 54e0 91d2 cf3f
000006f0: c25a a085 927f ea3f 9fe3 4d9d 5520 d33f
00000700: af69 8b4d 1a7a e2bf d240 7716 284a f23f
00000710: 5a02 4564 291e f63f 9cd3 4606 28ea f53f
00000720: 091f ae15 3eaa c5bf f920 aa9a 78e5 e13f
00000730: 1515 07b9 87ee e7bf af1c 2019 e082 fa3f
00000740: 61ce 7946 08a5 e6bf c857 5a38 f15f e0bf
00000750: 746c 5262 68a9 f3bf a079 778b 0750 f23f
00000760: 892f 41c5 045b edbf f9e0 7b2c 5c6a e13f
00000770: 84c3 c0f0 7e45 ccbf cc92 c35a 5a1d f83f
00000780: b941 ad83 a95f f0bf d24f aca0 6bf4 f53f
00000790: 2938 826b c0e4 e7bf f42e f65d 6ece e43f
000007a0: b608 1455 4a9c d1bf 658d 64fd 902d ea3f
000007b0: 6813 4cc3 41b4 e23f ab8d d3c9 a958 e9bf
000007c0: 9bb8 7990 8105 ca3f ada6 56e1 db1a 0040
000007d0: c2ce dbef 78e2 e63f e3b9 05ed 78a1 c2bf
000007e0: 407c 90b7 b524 c9bf aa26 a242 a4ff f13f
000007f0: ca81 6daf 005c f33f 86ef 3c91 1ca6 e93f

rbf_layers.0.log_sigmas f8 [128]
-0.1285256943544767 0.030965080625465803 -0.11573011381912739 -0.10224566904585332 -0.20250175689538538 -0.033404908557597354 -0.06235138087238267 -0.10173908739384743
-0.12918657222753216 0.051118463051776995 -0.1265778454160915 -0.13542870387871597 -0.04135064977106333 -0.007428751247763424 -0.02504957864752962 -0.05259153828594972
0.11424343298212161 -0.0372827636072826 -0.14528323333782028 -0.10964200378193988 -0.19012192304002667 -0.005569414950108905 -0.06508280938068829 0.012093041675635937
-0.1716127954937843 -0.07273954878109543 -0.17645891914886563 -0.007630806222740716 -0.1084608697150252 -0.045425420122762704 0.09436179420069887 -0.14168501469957212
0.10314516478791208 0.1970164452519783 0.13887263335136493 -0.09249730430210451 0.07790801799028553 -0.05655084155295954 -0.03891805350110122 0.09277532116196457
-0.052727287145363705 0.06443822302139836 0.0845760053228695 -0.1264908854161182 0.08602185684141313 -0.1775336625174594 0.10822633611314365 0.17936605392481134
-0.024683975202065066 -0.047441335885913434 -0.07142193810514848 0.167352000353774 -0.16047892765251437 0.21919274032252153 -0.035185787894729974 -0.18942481299522282
0.22717279884074465 -0.09807475355856025 -0.03748477738773487 0.16941835483716328 -0.021940193643400364 -0.005409330307796386 0.061587568032178894 0.15753101619554954
-0.05086201594682616 0.030667069514103803 0.12584480484671126 0.015404359868021824 -0.07731737407331425 -0.04745692404165567 -0.023847927617378542 -0.19729954300095284
0.08916317909435277 0.1199592223496277 -0.12325582771145992 -0.06747521213042615 0.17015272435611598 -0.04494197526571063 -0.007285584011399573 -0.019540199693048075
-0.42357108672825594 -0.0953083115290726 -0.052754803824895134 -0.024427632667260772 -0.0466400876234562 0.01402591123742079 0.1425222670655731 -0.008965956972014246
0.01810748378001466 -0.07123401964431957 -0.11133278964437535 0.013338772086823755 -0.038941676378073525 -0.0971022783670175 -0.13683993376780107 -0.09295274283665575
-0.13413000767465624 -0.024513599996523097 -0.043875376467622886 -0.17767430480612081 -0.015982472309942916 -0.09444994720594375 -0.0610576422703163 -0.14488320346443395
-0.05453885738547721 -0.14022170884454532 0.04851071803212639 0.04306565800948271 -0.029158244751274147 -0.06446953205043328 0.2777828606962604 -0.25471649899277155
0.01478640924626055 0.02718382182349611 -0.21359586945546544 -0.008079940707755012 -0.34350982993861084 0.09496347343375877 0.02938479204132516 -0.04644366267488287
0.06108682260243935 -0.03511293099296095 -0.12042303694175568 -0.13637601956889714 -0.14466302118631477 -0.2390328957628845 -0.12525355367131757 -0.03966486324945814
00000000: 9c5d f9aa 8773 c0bf 4ae2 6a62 4fb5 9f3f
00000010: 73f8 031e 7da0 bdbf 01a7 b5ac c52c babf
00000020: c3c5 9fdb 93eb c9bf 9ebe 8fbb 721a a1bf
00000030: 4f26 6a2b 85ec afbf 9ada 14a5 920b babf
00000040: 0c59 6683 2f89 c0bf ebee 0efe 322c aa3f
00000050: afe9 3aed b333 c0bf f4a3 0c4f ba55 c1bf
00000060: 16c1 de90 e92b a5bf 7757 8c3a 9c6d 7ebf
00000070: 9564 47c4 98a6 99bf 8b0e f831 47ed aabf
00000080: 12e4 70c0 0e3f bd3f 87a9 cbf4 b916 a3bf
00000090: e2e9 eb17 a498 c2bf 2fe7 8294 7f11 bcbf
000000a0: 52d2 da48 ea55 c8bf 22de 1871 f4cf 76bf
000000b0: 4d65 d259 44a9 b0bf f154 0c94 3cc4 883f
000000c0: c147 1c78 68f7 c5bf 76fe 231f 0f9f b2bf
000000d0: 3e7b 6ab3 3496 c6bf 8d57 b3f2 7a41 7fbf
000000e0: 365e 5270 17c4 bbbf cb2c ab2b 0042 a7bf
000000f0: 6e79 1534 1828 b83f 82e5 3b0c bc22 c2bf
00000100: 542e 81b5 b867 ba3f 6ad2 90ba d537 c93f
00000110: 75d9 4615 94c6 c13f 5419 f240 e7ad b7bf
00000120: fd4c 5da5 c7f1 b33f 91fe 0f5e 3bf4 acbf
00000130: 0fbd 052e 11ed a3bf 9c3b 449a 1fc0 b73f
00000140: a4d2 ca2b 12ff aabf 2940 7dfc 057f b03f
00000150: 0357 e3e8 c5a6 b53f 105a 0d74 da30 c0bf
00000160: 2504 e045 8705 b63f accd 394d 6cb9 c6bf
00000170: bdfe 2b9e b8b4 bb3f 4550 cf83 77f5 c63f
00000180: b39e e988 c146 99bf c993 3714 3b4a a8bf
00000190: 95e8 6048 b548 b2bf 1e46 3854 ca6b c53f
000001a0: 447b fbd0 928a c4bf 4f59 9af9 810e cc3f
000001b0: 676e 9520 df03 a2bf 5bc5 6e80 123f c8bf
000001c0: 92e8 c78e ff13 cd3f 13e7 1853 6d1b b9bf
000001d0: 98d1 f469 3431 a3bf 1812 af2a 80af c53f
000001e0: 9a4d aa78 7d77 96bf bc73 3e0c 1828 76bf
000001f0: fea6 13dd 6788 af3f 2430 55f1 f929 c43f
00000200: d153 330e 960a aabf bf49 8232 3067 9f3f
00000210: 8d14 98bc ae1b c03f 0eb0 ca2e 528c 8f3f
00000220: 35b7 0e49 12cb b3bf cd90 7421 464c a8bf
00000230: 24ac c654 976b 98bf 2338 5a86 1c41 c9bf
00000240: ffb6 37ea 65d3 b63f dd61 d8c8 a5b5 be3f
00000250: cfe7 0fa5 b18d bfbf 460e 6435 0e46 b1bf
00000260: 35a8 3781 90c7 c53f 8ebd f773 a202 a7bf
00000270: 8fc3 fa10 7dd7 7dbf 1949 8e9a 5802 94bf
00000280: c6db 41e7 c91b dbbf a8e9 0d21 2066 b8bf
00000290: 2b07 457a ad02 abbf bec6 b2ad 8e03 99bf
000002a0: 94f6 0ca6 35e1 a7bf f695 7df0 9db9 8c3f
000002b0: 0bcc ff6d 2b3e c23f a1f3 c65f be5c 82bf
000002c0: d590 97aa c48a 923f 4327 bc88 643c b2bf
000002d0: eaba 7e42 4e80 bcbf b8bb 0daf 5b51 8b3f
000002e0: 4c90 fdd4 29f0 a3bf e313 f4e5 b1db b8bf
000002f0: c2e5 2890 f883 c1bf 4693 8e3e c0cb b7bf
00000300: fdfb 2f0e 2c2b c1bf b44e 2bd9 171a 99bf
00000310: d566 0e56 d576 a6bf 6dac 3d18 08be c6bf
00000320: 8c8f 858f b55d 90bf b5c3 5b2a df2d b8bf
00000330: b199 7181 f242 afbf 644a 4f66 888b c2bf
00000340: f9e5 a961 84ec abbf 6499 d6f2 c8f2 c1bf
00000350: f42b e896 65d6 a83f 7280 76b1 b30c a63f
00000360: fe41 76ae a8db 9dbf 99ba be43 1381 b0bf
00000370: d31a 85c3 31c7 d13f 8d3c 3b6e 464d d0bf
00000380: 568b 1a41 5648 8e3f c24c d966 13d6 9b3f
00000390: ba9a ef04 1c57 cbbf 9656 bf48 378c 80bf
000003a0: f936 5ca7 10fc d5bf 406a b6b4 864f b83f
000003b0: e0dd 4403 0c17 9e3f 7014 97b8 76c7 a7bf
000003c0: 2e8b 96a2 c546 af3f 1c1d 9074 52fa a1bf
000003d0: 268f 594d 0bd4 bebf a5e7 00f8 c474 c1bf
000003e0: 8bc7 7760 5184 c2bf 4a21 fc42 a198 cebf
000003f0: 82f0 5cf6 4e08 c0bf 2cd9 e9f4 f34e a4bf

linear_layers.0.layer.weight f8 [50, 128]
-0.02896932700118748 -0.07996116386562038 -0.02670151079891315 0.10855272207197583 -0.07304068801164558 -0.11834649927713688 -0.15486015430841643 0.016015761182919787
-0.08780390117566109 -0.2360606385562534 0.05943592007867321 -0.02301491516789892 0.057457663344263936 -0.004548817066413761 0.022662391886510584 -0.07199900196241288
-0.295386955541969 0.09095817816401865 -0.017825963273282806 -0.0336349319809126 0.02592779753037549 -0.028627781159825064 0.06980290073271715 -0.05240291348545929
0.03696732047542697 0.0013001183730152427 0.06819521587458811 -0.08141852938475494 0.010647128174033876 0.04006814634036008 0.036121148630760574 -0.04923807634589117
0.325711471098036 -0.300196597703325 -0.2607043032298549 0.10317365371346804 -0.14075767591530622 0.03508886057097026 0.010353235113175924 -0.022380120854878408
0.008446780726863414 -0.012744918569078981 -0.06479834161720088 -0.006293188106126027 -0.08771359410277359 0.05776026613708676 -0.2938034966137435 -0.17572446229846425
0.072069364901599 0.05853095763431684 -0.020195158991549247 0.36397173255707255 0.07199446978494775 -0.017876520529557974 -0.04598783889724331 -0.058163034288004824
0.07413916345315377 0.044401567357483025 0.05547631482499358 -0.20820657559943334 0.11251978966671859 -0.037170867565250516 0.17838138320520816 -0.010879307734700009
-0.07995000015956497 -0.046779318860390225 0.11144260490541838 -0.08766490423925748 -0.027217860739519234 0.12867399547463584 0.1510266745428014 -0.05147594611192163
-0.1318760627874104 -0.052382373356878946 0.0044418089501797025 0.08234379329785307 0.05979534828230443 -0.19860737002421075 -0.1281111919310682 -0.14286364446752328
0.0029363441671115477 0.012382151407442813 -0.08084410292194422 -0.022975399745131433 -0.06747187031850362 -0.02089595076202533 -0.2053589347800684 -0.09933762149287537
0.02377935958222561 -0.014956083857006782 0.0185002113260125 -0.13390345399215242 -0.04450433502985523 0.09348659125215666 -0.040206490953105294 -0.03025652283768035
0.013039488378989304 0.0619562434131276 -0.1276552550749526 -0.07907348845323559 0.11460986974995739 0.0361084123626526 0.04249686936783392 -0.06782177915576257
0.12761526922238747 0.043561087690593116 0.03056232275526235 0.3215146564010289 0.04909555546808201 0.10357212745483381 -0.34060071768684624 -0.016173132464787018
-0.043644799507363975 0.10447726124955746 0.07289439124342677 -0.15900274229673936 -0.1910145013209734 -0.016800191974794248 -0.13154429486312996 -0.11443310297911856
-0.11806888893246598 -0.07544606165574332 -0.07896648789573102 -0.03514392584211138 -0.023203510373380497 -0.05570751834315178 -0.09924174909646791 -0.01012577883880894
-0.060940926457708794 0.045731618682114686 -0.04983089293410887 -0.017224341785280966 0.04946876291274405 0.007337709892553474 0.06677656585076813 -0.04997079886137459
0.1165586430377308 0.18933483203571663 0.0234623008232032 0.07552777801267828 0.00016431511505271155 -0.011259228260294456 0.06989006071842348 0.07840725712207361
0.10631420928685559 0.0412408735632342 -0.04586827308036227 -0.026329288147302097 0.06493920147752372 0.05469009718884492 -0.03126077102892289 0.11304273959413529
0.00472178489729997 0.1118287186921636 0.031327826898633865 0.04941643963523464 -0.09278195834623419 -0.09373561803876156 -0.04466952070940069 0.13117236117026493
-0.18391769169105832 0.2567913218873346 0.10524916566660307 0.03783328101194338 0.10148014474247459 0.04706305913375787 0.08367374932295539 0.10050341647809333
0.06098099160923316 0.042571051403615966 0.22907956867444113 -0.035257899455854357 0.06534362737817237 -0.06578077616852193 0.10627670348690577 0.13051692086735103
0.040729045086238896 0.04994802304184159 0.01453297710814458 -0.22149681944409946 -0.06228102487232752 0.07014940343399023 -0.006035049533358142 0.13162514080405152
0.07273584213772573 0.06349791523184879 0.047485103955786194 0.2089956123801679 -0.2129516415316929 0.08687306909503914 0.020922371766867683 0.10477973348866831
0.02161077582103109 0.11639667262397313 0.12927042115324663 0.0897370010651708 -0.07246787398415148 -0.14308958803543362 0.08838169758140545 0.02145166791483004
0.14818732295087028 0.09272622641240581 -0.050082111951425035 0.017612196621115152 -0.010922161149550046 0.06715912050890394 0.039803982663054245 0.08530286715911206
-0.030638171950986295 -0.09448886365420957 -0.07250551439953971 0.010245982941476276 0.05341203868379793 0.13678674350839198 0.1814564946191851 0.015579935400424906
0.02146839703937781 0.05435512089752224 0.0859964835153285 -0.016489220788261042 0.06506357110687823 -0.0597859101590626 0.05856394551120846 0.0028748686823951127
0.09929527084803258 0.04285590156704334 0.11376865370411328 -0.04554753071581621 0.015113324215582837 -0.09383691558303525 0.0339901607113687 -0.04284435684262553
0.08432859111870505 -0.0036076517986249695 0.012093125183175178 -0.10083153306550104 0.024334991084377623 0.037859817239781324 0.11843040693307608 0.12167219145806325
0.016251664047193026 0.05078318475114753 0.06298561855025854 0.04752569063492085 0.008892361046745251 0.024347196572890667 -0.025942197863475087 0.12633097753884714
0.10202130337977175 0.055078277839877 0.04718255931956757 0.03723879080878833 -0.07888596661824986 -0.00020115114304942002 -0.07069094874968947 -0.006352162319017858
00000000: 7f9a 3aa0 22aa 9dbf 72c0 c0b7 5578 b4bf
00000010: a25d 8a0e a457 9bbf b6df 3077 1cca bb3f
00000020: 3b90 4966 cbb2 b2bf c5cb fdc7 f44b bebf
00000030: 0ea5 1a21 75d2 c3bf 1a37 018a 6f66 903f
00000040: f2bb 0204 517a b6bf 016a 3c29 3c37 cebf
00000050: e821 e489 626e ae3f 4a88 ddcf 3891 97bf
00000060: cfb6 ef41 176b ad3f 915d 92c8 c7a1 72bf
00000070: 4ebd 0160 cf34 973f a4f0 c5ce 866e b2bf
00000080: d3ef 6db0 9ee7 d2bf d9a8 8400 0949 b73f
00000090: 2621 1d25 f840 92bf bfef b809 9938 a1bf
000000a0: 2e14 cd09 d18c 9a3f 119e 5adf 9950 9dbf
000000b0: cb1d d057 9ade b13f 5a34 45ff 8dd4 aabf
000000c0: 53e8 ec70 61ed a23f ee63 2779 174d 553f
000000d0: d9cd ecdd 3d75 b13f c2f5 fe40 d8d7 b4bf
000000e0: 702c 6e5a 29ce 853f 0550 49e4 cf83 a43f
000000f0: f44a 20a0 787e a23f 7042 3faf bb35 a9bf
00000100: 4c14 13ed 74d8 d43f 6566 60ca 6b36 d3bf
00000110: cd1d 131a 61af d0bf b417 82ac 9669 ba3f
00000120: 71cd 5bf7 5804 c2bf 9e62 36c9 2af7 a13f
00000130: 1d49 c0b1 1334 853f 44e2 9b7c d0ea 96bf
00000140: 2eaf d3b7 8b4c 813f b515 8e03 021a 8abf
00000150: c0b6 14c6 9f96 b0bf 9d79 a7d1 e2c6 79bf
00000160: 2106 16ea 6574 b6bf 9453 22ec c092 ad3f
00000170: b003 5a2e adcd d2bf 63ec 56a1 237e c6bf
00000180: 59bd 4b4d 2373 b23f 7397 af09 c5f7 ad3f
00000190: 47f9 9f2d 0aae 94bf c711 0018 504b d73f
000001a0: 321e 38c5 3a6e b23f 94b3 29fc 384e 92bf
000001b0: ec9d 27d0 b78b a7bf 7dca 3494 8bc7 adbf
000001c0: fa53 62c2 c8fa b23f 5110 625f cdbb a63f
000001d0: 2d7c c03b 6467 ac3f f87f 8158 83a6 cabf
000001e0: 8777 c5d0 18ce bc3f 8907 1d59 0f08 a3bf
000001f0: 4972 8a7f 33d5 c63f f5a5 63f7 e347 86bf
00000200: 7e22 006c 9a77 b4bf 61e1 4479 75f3 a7bf
00000210: 7a27 73a7 8087 bc3f e3ee b608 3571 b6bf
00000220: 3828 f9b6 ffde 9bbf 1761 34b5 6378 c03f
00000230: 6c13 fe91 d754 c33f 40a8 2922 0e5b aabf
00000240: ad09 6698 50e1 c0bf c7c8 e8c8 dcd1 aabf
00000250: 3e50 d102 9331 723f 442c 3e9b 7b14 b53f
00000260: 689e a6f2 7e9d ae3f aed0 7f5f f76b c9bf
00000270: e739 cc91 f265 c0bf c73f 631c 5b49 c2bf
00000280: 3186 5cc5 f50d 683f 42ee ca3a d05b 893f
00000290: 20cc 1ffa 32b2 b4bf 874b 12fa dc86 97bf
000002a0: 35fd 6a24 d645 b1bf 6120 9184 bf65 95bf
000002b0: 7030 699a 3349 cabf 0e07 93bb 306e b9bf
000002c0: 13e5 e6ce 9d59 983f d12c 5698 4ba1 8ebf
000002d0: 550e 752a b8f1 923f c0de db95 bf23 c1bf
000002e0: 7787 f7ae 45c9 a6bf 6ae3 0abc bcee b73f
000002f0: 0705 76f7 f195 a4bf 0866 50e0 90fb 9ebf
00000300: 1297 2781 72b4 8a3f a71b 7c8e bab8 af3f
00000310: 91cf dae4 0157 c0bf d024 e3fe 283e b4bf
00000320: 93f8 5f8a 1257 bd3f cf88 6a44 cd7c a23f
00000330: b005 3c50 26c2 a53f 8637 6ea3 c45c b1bf
00000340: cee3 e377 b255 c03f 15c1 048e a34d a63f
00000350: 1604 e5c2 ba4b 9f3f 8b55 9b35 b293 d43f
00000360: 358e 3a7a 0d23 a93f 7116 32f4 b383 ba3f
00000370: 7162 ddf3 66cc d5bf 1f61 0a8c b08f 90bf
00000380: 0d99 0c75 9c58 a6bf 4f14 3e94 05bf ba3f
00000390: ffcc 73f2 34a9 b23f 93c4 11ad 335a c4bf
000003a0: 471f 1ec6 2973 c8bf 0b9f 64cc 1134 91bf
000003b0: 96cd 3486 71d6 c0bf 7f07 e0e2 7c4b bdbf
000003c0: e4d6 a340 c339 bebf 1165 6cdf 6e50 b3bf
000003d0: 30fd fdd2 2537 b4bf a532 4a78 62fe a1bf
000003e0: f602 d338 a9c2 97bf 2eae d922 b285 acbf
000003f0: 1265 c442 e867 b9bf ff77 ac07 d3bc 84bf
00000400: c462 3f2c a633 afbf aa01 447d 226a a73f
00000410: f906 f74e 6f83 a9bf 5bd1 a602 42a3 91bf
00000420: 3183 c43d f853 a93f a1c0 4180 250e 7e3f
00000430: 8cde 77de 4418 b13f 93ac bac5 c595 a9bf
00000440: f1c6 e987 c9d6 bd3f a724 cbaf 1f3c c83f
00000450: 1af6 e55a 8006 983f 3706 81d8 c955 b33f
00000460: 6c57 3d17 8089 253f bcd2 3f09 140f 87bf
00000470: 95e0 19a5 50e4 b13f 16be 1b7d 7f12 b43f
00000480: 7cb5 fc73 6837 bb3f e9d4 6c16 861d a53f
00000490: f6b9 9bd9 0b7c a7bf 0918 149e 10f6 9abf
000004a0: 9606 9302 db9f b03f 46ab ae25 5700 ac3f
000004b0: 7116 6f6a 6901 a0bf fb67 9b75 5ef0 bc3f
000004c0: c803 677b 2657 733f 4053 8991 cea0 bc3f
000004d0: dc00 f86f 330a a03f 6b76 3c90 1c4d a93f
000004e0: 5383 c1f4 8ec0 b7bf 5b63 f2b5 0eff b7bf
000004f0: 7355 2665 ecde a6bf 0ac5 ae84 41ca c03f
00000500: 2005 7c6b 9d8a c7bf 05c6 59de 446f d03f
00000510: 1327 78fc 9bf1 ba3f ef18 4b41 e25e a33f
00000520: 09be dc4e 9afa b93f 728d a837 a618 a83f
00000530: 2334 e090 a46b b53f aee0 e886 97ba b93f
00000540: 3a53 4789 e638 af3f e3d9 1173 dfcb a53f
00000550: b8ba d1b3 7a52 cd3f 8356 2dca 520d a2bf
00000560: da5c 9726 5cba b03f 966b 594a 02d7 b0bf
00000570: 188e cd35 f334 bb3f 1596 5949 c7b4 c03f
00000580: b410 49f9 6fda a43f 57db ed8a c992 a93f
00000590: f1db 242b 77c3 8d3f 2318 d7fd 015a ccbf
000005a0: 5adc f969 4ce3 afbf d038 95b1 4ff5 b13f
000005b0: 371a 0246 35b8 78bf 9cda 8ab5 17d9 c03f
000005c0: 4d82 3aef d09e b23f d9f3 483d 6641 b03f
000005d0: ff13 13b1 f74f a83f 8614 1744 5ec0 ca3f
000005e0: 9d0a 01d8 ff41 cbbf 5a95 aa3e 503d b63f
000005f0: 124b f999 ac6c 953f a80f 9e38 d8d2 ba3f
00000600: bcef 919d 2221 963f b07e 481e 2ccc bd3f
00000610: 65bf 98e3 ee8b c03f 10e7 d00c 01f9 b63f
00000620: cbc7 c52c 418d b2bf 8551 8176 c250 c2bf
00000630: 5756 add4 2ea0 b63f 0c2e 8e10 6df7 953f
00000640: 56bd e05c cdf7 c23f f13a eced e7bc b73f
00000650: a857 e4d1 5ca4 a9bf 875f fe81 ee08 923f
00000660: 0cfd 82a7 5b5e 86bf e0bf 3612 5731 b13f
00000670: 19a5 9307 3061 a43f 4013 b4a0 68d6 b53f
00000680: c4a3 27ea 9c5f 9fbf fd24 3b13 6c30 b8bf
00000690: 932c 20ad b88f b2bf 822e 318d d8fb 843f
000006a0: 5c1d b89e d258 ab3f 8e8b f25e 3a82 c13f
000006b0: 33a2 0467 f739 c73f 0121 2688 5fe8 8f3f
000006c0: f107 babc cffb 953f edfd 3f35 6fd4 ab3f
000006d0: 67f3 4494 dd03 b63f 91a2 16e0 8ce2 90bf
000006e0: a9a4 1096 01a8 b03f 091f ca41 429c aebf
000006f0: 0e07 64ed 17fc ad3f 7aeb 135f 098d 673f
00000700: 4094 f034 6a6b b93f 6193 576f 35f1 a53f
00000710: f917 f846 f11f bd3f 830c ad85 0152 a7bf
00000720: 2e0e eb09 bcf3 8e3f a42e 9633 b205 b8bf
00000730: eb3f 4889 2867 a13f 1d1a ea0e b2ef a5bf
00000740: f0fb f8fc 8e96 b53f d3c3 b14f cb8d 6dbf
00000750: 3f6a 58c9 47c4 883f a5ff eb68 18d0 b9bf
00000760: da64 6c9b 45eb 983f 483a c1a9 5c62 a33f
00000770: 1a29 a184 7451 be3f d520 25a3 e825 bf3f
00000780: 4064 5ab6 46a4 903f 62c4 62eb 4000 aa3f
00000790: 49ac ca53 d31f b03f 605c fe8d 4955 a83f
000007a0: ea3a 0a7f 2836 823f a890 1eb4 78ee 983f
000007b0: 85d3 a36d 9790 9abf b422 800c 9d2b c03f
000007c0: 06ec 8271 111e ba3f d7a4 1554 3833 ac3f
000007d0: db30 70fa 4f28 a83f 5f29 5579 f610 a33f
000007e0: 771d bde6 de31 b4bf 8e50 7229 835d 2abf
000007f0: 05cd 0051 cd18 b2bf bb7d b496 b904 7abf

linear_layers.0.layer.bias f8 [50]
0.086760055325958 -0.06022169907931693 0.0070257291028719086 -0.03250336371591863 0.04342282915756372 0.057525517405314704 -0.0573877851532319 -0.06039046998150659
0.04453786685543571 0.058023682449277116 0.08560404917608756 0.008152328590777611 0.1279993888675686 -0.08072238429433011 0.08768020111483239 0.011255324524282849
0.024317598839520595 -0.01080243859704354 0.018752771315581545 -0.052406007660937406 -0.12826634631466144 0.03503887823355532 -0.014875019783370268 -0.032451684459076965
-0.04945825005781511 0.07416661620364577 0.08141382864371922 0.10326698669771521 0.08805195158321148 0.0018160803063665236 0.004567074616086078 -0.003336035638314628
0.01895985814980193 -0.016779419416803304 -0.004845089818338994 -0.05431949846871991 -0.08537566385625361 -0.0835037507026262 -0.06665267255921477 -0.02209331358012708
0.022966782366559236 0.10564729178059205 -0.03140806785459323 -0.04062598979135719 -0.015451832520547276 0.014631590232867558 -0.01953195452591934 -0.0949938400864941
-0.02799771677088617 -0.06557249212717212
00000000: 4161 3930 e835 b63f bc45 1ce8 60d5 aebf
00000010: fa63 a3cb 02c7 7c3f 5bf8 56e8 47a4 a0bf
00000020: 1658 435e 843b a63f c9f2 e10f fc73 ad3f
00000030: 2994 d888 ee61 adbf 470c 1feb 7feb aebf
00000040: 21c8 27d3 aacd a63f 8db9 06b5 47b5 ad3f
00000050: 19d1 9d9f 25ea b53f f215 7805 2bb2 803f
00000060: 890e 8cb2 4862 c03f 316b 99e0 38aa b4bf
00000070: 157f 4bac 3572 b63f 1fbb e615 080d 873f
00000080: 8a94 ee6e b6e6 983f fa48 eec3 961f 86bf
00000090: 4b06 0a2e ed33 933f a209 09d2 f5d4 aabf
000000a0: 22a8 4c19 086b c0bf fe0a 34a8 9df0 a13f
000000b0: 8cb5 f95b cb76 8ebf 7e58 e7d6 819d a0bf
000000c0: 9e0a 087d 9752 a9bf 5bb5 0c57 95fc b23f
000000d0: 3588 7763 89d7 b43f 0387 9f8a b46f ba3f
000000e0: 431c 669c 928a b63f b0cc 7461 31c1 5d3f
000000f0: 83ea d4c1 ecb4 723f e810 e07e 2c54 6bbf
00000100: 5cc3 c28a 366a 933f 286c 90c6 9f2e 91bf
00000110: 1420 0ee5 71d8 73bf e7a2 eaea c3cf abbf
00000120: c80b 23f4 2ddb b5bf 2272 5c76 8060 b5bf
00000130: f533 d548 2610 b1bf f6cd 252d a19f 96bf
00000140: dd87 a2ac 9a84 973f 07ce 1b6f b30b bb3f
00000150: aa34 88e0 b714 a0bf 3a03 0b03 eecc a4bf
00000160: 0350 b6da 35a5 8fbf 1022 4fcc 2af7 8d3f
00000170: f4c2 a947 2f00 94bf b531 7e2c 8451 b8bf
00000180: e912 93f7 6eab 9cbf 7213 34dd 5bc9 b0bf

linear_layers.1.layer.weight f8 [50, 50]
-0.013215002390035443 0.04873466077517784 -0.08529799213121421 0.27648925123575546 -0.2575988987170316 -0.11471603399716647 0.1423291269118013 -0.01761789425654855
-0.21396261641000308 -0.1149503850685578 -0.1099505667793729 -0.04338989196496566 -0.060467841394246 0.05216855959635281 -0.10355944008476702 -0.1313340227880137
0.0014793735331831003 0.208680213684992 -0.10908422923767001 0.37102554172875046 0.22109547359832488 0.036197452617247355 0.0021453442224757843 0.16928197555049185
-0.04579688566599786 0.04188333104370246 -0.11416282857874754 -0.24989385273153114 -0.14683506250635675 0.08663474934027045 -0.11691646644996649 0.1512849659280041
-0.03997253796155018 0.041768208254308735 0.022648598766698065 0.1990490854063469 0.1862634256703751 -0.011317040285301998 0.19306850124780897 0.05732787587005588
-0.15516496178131411 0.06694706878232083 0.11984201783114114 0.00700279718099578 -0.19288344341419317 -0.3953354856790909 0.33227085704278797 0.015601005547656472
0.22570294637934113 0.16142728666957792 0.041779915085714346 -0.1053660402838011 -0.12684462293104715 -0.08012889042307905 0.04558714424462451 0.057554307434187615
-0.07708848315419495 -0.1495780056890013 0.12957324446946242 0.014584437234529377 -0.062290247844253986 0.1326577953894304 0.16332738234919011 -0.04137219861512967
0.02500159594770942 0.15180695035377098 0.08463562749452301 -0.09344811150095884 -0.023599750467174458 -0.05338230147667581 0.056005777780955786 -0.05403281659573823
0.06572662945676105 -0.06667529024388097 0.1188232991784058 0.07804003028253148 0.11372988700195151 0.08052030482311165 0.059155132441901695 -0.04903042539269315
-0.13181217988072672 0.11089528026334272 0.07904873360455321 -7.19578706372654e-05 -0.015397589613690754 -0.07702299845830388 -0.16693309617741203 0.09924178108291831
-0.1341393246029298 -0.16101513573037488 -0.023694052934931792 -0.017809800218660816 0.024952177125462882 0.06407183909919051 -0.09662850292931396 -0.10395846788629534
-0.037892359944672896 -0.017587512118336313 0.1267477612599991 -0.06743844697779804 0.10245256933830985 -0.10407081131448967 0.11975554939789347 -0.2973662397496797
0.3887367672415837 -0.1556859933371875 -0.0190447675207146 0.04413101612849585 -0.006880109192123188 -0.12037442023464644 0.06630518813532561 0.15853435424271842
-0.06332645105666385 -0.13513404028759887 0.037812597669432194 -0.0955512028413164 -0.061869376415832227 -0.011620457785654582 0.011395675790499944 -0.14621097092692403
0.15800041793069025 -0.0919224311209246 0.1954250812437861 -0.13301951769694578 0.10981537738634978 -0.025152416501549056 0.3431773159509679 -0.07005096699580514
-0.03631928478403663 -0.11869467206015452 0.06071913213239862 -0.13579418741768273 -0.23280388339454508 -0.009030344888413535 -0.1178431422465115 -0.1681722401607532
-0.21112272750294456 -0.024985430118848892 -0.023907454902537845 0.04916452430966048 -0.06479848780474635 0.2645910788465042 -0.06730902686846629 -0.06079915537822275
0.06567922979455192 0.10248025677145602 -0.054666078269539 0.047347068055176474 -0.10810544554468379 0.0022842605893253543 0.004186102553572265 0.06334189964960883
0.13423654310379438 0.10068479751189771 -0.196396720129921 -0.1421225479383757 0.10490750160425576 -0.06417241187130841 -0.07710903514151089 -0.0714111934630007
-0.0708333023102216 0.07878445765086706 -0.009669460469129837 -0.12075745623050815 -0.15498943858970443 -0.005745408890201469 -0.1943174098376811 -0.1847372674831956
-0.1040772620993546 -0.012642043957840259 0.10293124621226062 -0.00964243987582816 -0.2587535741742241 -0.024219410771690517 0.03789382025619875 -0.047981233026266175
-0.04612968737673081 0.0997667950275843 0.027197771326411185 -0.04305781025897777 -0.13410059351967496 -0.1017036004892595 0.013937388352647012 0.1631143852608515
-0.10092585825906658 0.19202998233003737 0.21271482251112678 0.10929265822513894 -0.07000723210091135 -0.14671908491791638 0.1349797014926992 -0.19426766273930351
0.09929067107005603 -0.14336234221108896 0.14967589142922977 0.04993551110091666 0.13211684968361936 0.0021195087664420383 0.22137625264866587 -0.11639456234314813
0.14698553473491904 0.0977613662152805 -0.11293042875952387 0.02936092314255634 0.10608908426832821 0.05480996265153475 -0.030576497250740412 -0.009891523234885721
0.1666938083254962 -0.019640393410202007 0.11807820419749274 -0.02366743702518639 0.15567990133617482 -0.001468044680512475 0.02667345497075247 0.13703215295652782
0.016804866048622646 -0.04783704482651492 0.04921469671788845 0.03525228520767789 -0.18948004043688907 -0.07528610300599999 -0.1269418269325633 0.12062458119059463
-0.13632641672617904 0.026377401391033384 0.010898248541195966 0.05420679272990524 0.0777150910453301 -0.22387066804510541 0.14258430213902193 0.029368450415524418
-0.07754803676815326 0.13105828874679704 0.1447732215279799 -0.041731216081249425 0.050351403446544374 0.04380240212122158 -0.11475153067509558 0.06310884625420109
0.028922037524994455 -0.10551720664302182 -0.049133486987897476 0.11412223195421545 -0.09360729570155504 0.09556732298749172 0.1124739942849007 -0.01327288930465156
-0.12261000922418594 -0.10415457198855681 0.11094063157785203 0.06039696456934062 0.24253296840412486 -0.19787244015108635 -0.07603844998847259 -0.3630671246065777
00000000: eb73 a798 7710 8bbf ce0d 6cdc bff3 a83f
00000010: 3d37 9ed6 16d6 b5bf bf32 f0f8 ffb1 d13f
00000020: c76a 5e17 807c d0bf 413b 58ae 075e bdbf
00000030: a35d ad40 d737 c23f 3603 a0de 6c0a 92bf
00000040: 5216 0684 2063 cbbf 3f35 8870 636d bdbf
00000050: 6a7b 7e68 b825 bcbf 2ed9 ee2d 3337 a6bf
00000060: 11fa 7e12 a4f5 aebf c107 b162 d6b5 aa3f
00000070: 5f2c 5b18 df82 babf 7602 5da2 8dcf c0bf
00000080: bdc4 633c f13c 583f ecb6 8c82 08b6 ca3f
00000090: 07cd 15ad f1ec bbbf a429 ede9 e1be d73f
000000a0: faff 3242 db4c cc3f 8c11 61f6 7888 a23f
000000b0: c736 c6e8 1c93 613f 4454 6522 08ab c53f
000000c0: a562 637c b072 a7bf b115 2962 bb71 a53f
000000d0: 9421 2a6f c639 bdbf ea07 7a92 85fc cfbf
000000e0: 3e7a afc7 7dcb c2bf 2516 1de7 b12d b63f
000000f0: 8338 c4cf 3cee bdbf acc4 8446 4e5d c33f
00000100: 4de2 90ce 4777 a4bf c3f6 ed80 a462 a53f
00000110: 5245 03bc 3131 973f 6f3a 0fc0 707a c93f
00000120: ebfb d8dc 7ad7 c73f 7c97 4d6f 632d 87bf
00000130: 25a0 5ff9 77b6 c83f b7a6 0550 145a ad3f
00000140: 9cfc 2a0a 72dc c3bf 71ae fb6e 7123 b13f
00000150: 797a 456b f7ad be3f c163 f70d f7ae 7c3f
00000160: 94b0 b398 67b0 c8bf 7f28 7c35 2d4d d9bf
00000170: 1d69 1afc ec43 d53f 5d2b e584 6bf3 8f3f
00000180: beb1 a78a d5e3 cc3f ebc3 763a a6a9 c43f
00000190: 4379 d851 2d64 a53f f5c0 20d1 44f9 babf
000001a0: 38c6 94d1 713c c0bf e2f6 d4b3 5383 b4bf
000001b0: 0022 4cbb 3257 a73f caf7 5818 c277 ad3f
000001c0: d2a6 0b22 12bc b3bf 014d 5141 5f25 c3bf
000001d0: 096b b727 db95 c03f 7279 9f07 72de 8d3f
000001e0: c39c b3e2 81e4 afbf 72e7 603e eefa c03f
000001f0: 5993 dd62 e9e7 c43f 84fc 07a0 bc2e a5bf
00000200: f6da c5b3 049a 993f b397 89ff 686e c33f
00000210: 9f58 2a34 aeaa b53f 2d03 c526 37ec b7bf
00000220: e514 cd71 882a 98bf 1519 0ece ec54 abbf
00000230: 6999 e90f caac ac3f 2101 6178 30aa abbf
00000240: bc3b fedb 75d3 b03f a07c 0cbf a111 b1bf
00000250: 155d f927 346b be3f 70a2 d771 6efa b33f
00000260: d74b 40e1 661d bd3f 4614 e18b fa9c b43f
00000270: 1a00 75de 9449 ae3f b923 2413 841a a9bf
00000280: 2dae e6b4 38df c0bf 1006 0312 a263 bc3f
00000290: 772c 9fad 893c b43f 3817 e7cd 02dd 12bf
000002a0: c0ce 9f7e c588 8fbf fa13 6b7b c7b7 b3bf
000002b0: 60db 594e 105e c5bf 74de 25cc e867 b93f
000002c0: 6578 2336 7a2b c1bf 31bd 0fdb 249c c4bf
000002d0: e863 dcf9 4043 98bf f523 f375 bb3c 92bf
000002e0: 5017 df42 108d 993f 8c8d 8615 0367 b03f
000002f0: 345e f143 a5bc b8bf 76c2 b6ab 059d babf
00000300: 3215 769d a066 a3bf 600c 77f5 7502 92bf
00000310: 04f9 b948 4539 c03f 833e 4364 a543 b1bf
00000320: a2ff b2e2 543a ba3f 0e5d 107b 62a4 babf
00000330: e1af 2db8 4ca8 be3f 1c33 aa68 0c08 d3bf
00000340: 1e8b 832d 10e1 d83f 190c eac4 84ed c3bf
00000350: 0044 a5b6 7880 93bf e8b3 052e 5798 a63f
00000360: 50ba 913f 512e 7cbf d3c9 2ea6 dbd0 bebf
00000370: 71aa 9876 60f9 b03f 07ea 618d da4a c43f
00000380: f496 428c 2936 b0bf 5f48 ce7d 124c c1bf
00000390: aae9 bb3c 2c5c a33f b302 4c2b 0b76 b8bf
000003a0: 5fea a8c8 57ad afbf 4742 3b71 77cc 87bf
000003b0: 4429 b0b6 9d56 873f 2c49 3985 0ab7 c2bf
000003c0: 7a21 e291 5b39 c43f 22e5 6e7b 3a88 b7bf
000003d0: 604e 6166 b003 c93f 4179 1e97 c806 c1bf
000003e0: b4e6 784e dc1c bc3f f678 2819 8ec1 99bf
000003f0: 0843 2ffd 9df6 d53f 2fd7 4c34 dcee b1bf
00000400: c91c b9f8 7098 a2bf f232 b526 c662 bebf
00000410: 4b14 80fd 9316 af3f 5a11 f934 b461 c1bf
00000420: edda c784 84cc cdbf 211b bd5f 807e 82bf
00000430: 59b3 01da f72a bebf 6df1 caff aa86 c5bf
00000440: bfa2 08cd 1106 cbbf dca2 f2d4 c795 99bf
00000450: 987b bf23 327b 98bf 5418 11b0 172c a93f
00000460: b59e f339 a296 b0bf c761 9d6b 0fef d03f
00000470: 782a 2015 2a3b b1bf 9ca1 f21f 1121 afbf
00000480: 537b fe9f 5ad0 b03f a1af 5167 253c ba3f
00000490: c78a bc34 31fd abbf 4989 b7f9 df3d a83f
000004a0: f648 2269 ccac bbbf 8dad da10 71b6 623f
000004b0: bc72 0b59 7225 713f 5b2a 76bb 2c37 b03f
000004c0: bf89 47bd a92e c13f 869a 8498 7ac6 b93f
000004d0: 5ef5 ff18 8723 c9bf b2b2 b557 1231 c2bf
000004e0: ffce 7ed0 37db ba3f 29ef 4a6a 9a6d b0bf
000004f0: efad 28f0 6abd b3bf 46ee 7d04 0148 b2bf
00000500: 7bdc e39c 2122 b2bf 7827 0bdd 372b b43f
00000510: 7007 e103 95cd 83bf 5818 42ed f5e9 bebf
00000520: 5aed fba4 b1d6 c3bf 79aa 9174 7f88 77bf
00000530: 24ec 2594 64df c8bf 5bab 1885 78a5 c7bf
00000540: ad54 f9b4 cea4 babf 6901 d46a 12e4 89bf
00000550: dbda 37c0 b359 ba3f 0ed5 5c5f 6abf 83bf
00000560: 2f4a b326 6b8f d0bf 996d c524 f9cc 98bf
00000570: a816 719d d166 a33f a9d1 5605 ff90 a8bf
00000580: 4bc6 5075 4f9e a7bf 15c6 de11 518a b93f
00000590: 58ed 7b89 bbd9 9b3f 3aa3 cc5d ac0b a6bf
000005a0: d445 c54f 352a c1bf 2ea0 fc45 3f09 babf
000005b0: 7d85 5499 348b 8c3f 93eb 19a3 eee0 c43f
000005c0: bc1d 8bec 46d6 b9bf 7abf fa3e 7094 c83f
000005d0: 5ea5 0743 3d3a cb3f ab16 c588 9afa bb3f
000005e0: 835d 5b74 feeb b1bf a3f3 b5e3 b0c7 c2bf
000005f0: 677a c4cd 0347 c13f 845d 1145 c3dd c8bf
00000600: 6d35 0b09 1d6b b93f ae25 a37d b259 c2bf
00000610: 9016 5861 9428 c33f 71ca 2cb6 2591 a93f
00000620: 0023 5276 34e9 c03f ba09 bc9a ee5c 613f
00000630: c357 9e9a 0e56 cc3f 9e30 b2b6 08cc bdbf
00000640: 54f5 5508 6cd0 c23f fef7 b48e e306 b93f
00000650: 61d3 3e32 02e9 bcbf a0e9 b532 ca10 9e3f
00000660: 8122 657b a728 bb3f 56a9 2a2a 0d10 ac3f
00000670: 6166 dffe 714f 9fbf f862 69c6 0142 84bf
00000680: cd12 9a03 3956 c53f ed72 827d 9c1c 94bf
00000690: 5a0d 6689 5f3a be3f 0765 03d0 463c 98bf
000006a0: 8412 71aa 51ed c33f e35c 14f9 6c0d 58bf
000006b0: 2235 1543 4950 9b3f dc70 b903 458a c13f
000006c0: 03b7 5e78 4b35 913f ca63 22de 187e a8bf
000006d0: 4d93 c531 ab32 a93f 1309 2768 960c a23f
000006e0: c1e9 75c8 e140 c8bf e509 4136 f345 b3bf
000006f0: b1bd 9539 a13f c0bf 42ab 4ea7 40e1 be3f
00000700: 37bc b5de 2473 c1bf fdd2 4f71 ad02 9b3f
00000710: 9a80 8b28 d251 863f def2 fd23 fec0 ab3f
00000720: cd02 72de 22e5 b33f 86c9 e446 cba7 ccbf
00000730: 2b17 4ed1 3340 c23f 2a87 4658 c312 9e3f
00000740: 09c9 c929 30da b3bf 90c3 049c 84c6 c03f
00000750: 644d e6cd ed87 c23f 1222 9540 cb5d a5bf
00000760: d8a1 38be a8c7 a93f 449b 31b9 446d a63f
00000770: a85c 6a37 5b60 bdbf 9f05 c0be e627 b03f
00000780: 22d2 3615 bd9d 9d3f 0b72 b2f7 2c03 bbbf
00000790: 86bf 803f 0628 a9bf e068 fd55 1d37 bd3f
000007a0: b286 b4d1 a5f6 b7bf f92b cc9e 1977 b83f
000007b0: e1a8 1a7f 18cb bc3f 4e2f e50b d12e 8bbf
000007c0: 0eb7 c79b 5e63 bfbf 5f73 6bc0 dfa9 babf
000007d0: 5ea9 6cf0 9a66 bc3f efba 34d7 59ec ae3f
000007e0: a8ae bfff 510b cf3f da43 9d55 e253 c9bf
000007f0: b463 f07f 4177 b3bf 5308 9ce4 7d3c d7bf

linear_layers.1.layer.bias f8 [50]
0.07337770348810818 -0.024037049509549206 0.08297695191886309 -0.10217843516031774 0.06363678834877436 -0.1469770969768104 -0.05680677406211354 0.06639964094035437
-0.058069257720972565 -0.134475458308585 -0.10668816303730976 0.007047713019653867 -0.10139918855538418 0.005812988353109031 0.016236384496931728 -0.13242349254363328
0.02999518283118252 0.13170968177452555 -0.037617833375913776 -0.12606471683170808 0.023623858414899338 -0.045267122902256575 0.025215339829143566 -0.014504582472977418
-0.03871820445295553 0.0686796124891732 -0.06933209292187482 0.0986109357585702 0.13158155966359628 0.04542113343428859 0.05814377998078384 -0.009200213190480687
-0.11226574888957404 -0.1237682758616467 0.07252040491971055 0.11324958259637448 0.12710221848635112 0.10947347419636903 0.041630683780251046 0.039893497116270056
-0.06758467514904817 -0.035415492336245476 0.006958276842459904 -0.14870182234864812 -0.014295162156288338 0.10886406312528282 -0.05898259639491069 0.07887527950968691
0.04163723877181461 -0.04436666455141095
00000000: acac bc94 e1c8 b23f feb4 2416 2b9d 98bf
00000010: 3633 d03e fa3d b53f b6b9 5ead 5d28 babf
00000020: 35cc c724 804a b03f c561 6340 25d0 c2bf
00000030: d079 9309 c715 adbf 2b12 4e1e 91ff b03f
00000040: ab0f a1f5 40bb adbf e165 c6e7 7d36 c1bf
00000050: 6f95 1d5b ea4f bbbf 5967 e50e 10de 7c3f
00000060: 2eb2 af16 4cf5 b9bf deea e52d 5ccf 773f
00000070: 75ac ad51 45a0 903f 7437 d9c4 40f3 c0bf
00000080: e09b 30a5 0eb7 9e3f 3fe2 e4e3 dcdb c03f
00000090: 561d 3108 a542 a3bf 3d60 fc7d e322 c0bf
000000a0: 8176 304d da30 983f 25fe e598 402d a7bf
000000b0: d9dd b1cf 0cd2 993f dd98 e81a 94b4 8dbf
000000c0: 2744 c55b dfd2 a3bf e8fe 8ab1 fc94 b13f
000000d0: c1a5 a97f bfbf b1bf 8b6b 1cf8 903e b93f
000000e0: 4783 c11f aad7 c03f f587 4b55 7041 a73f
000000f0: 4771 f782 05c5 ad3f f99c 27b6 8fd7 82bf
00000100: 3511 f1b7 72bd bcbf 0dab 1b19 47af bfbf
00000110: df3e 6c7f b290 b23f 057e 89b5 ecfd bc3f
00000120: 32ef d2af e244 c03f 93f1 731f 7406 bc3f
00000130: b24d b1f2 9d50 a53f 79f9 dfa2 eb6c a43f
00000140: 96d7 79b1 3a4d b1bf 393a b6ba fa21 a2bf
00000150: 2d1b 9937 4880 7c3f ebe8 eb4b a908 c3bf
00000160: 7d42 9e2f c846 8dbf 5e30 d5e6 83de bb3f
00000170: 053f 1985 f732 aebf 9bfb f499 2b31 b43f
00000180: 1531 a4e5 7951 a53f c5d3 8f3a 3ab7 a6bf
