8_Inv_Lorenz/logs/models/2023-09-28-12-33-47_Lorenz_RBF_100X5/epoch_8000.pt (torch, 436715 bytes, 17 tensors)

alpha f8 [1]
0.0
00000000: 0000 0000 0000 0000

beta f8 [1]
0.0
00000000: 0000 0000 0000 0000

rho f8 [1]
0.0
00000000: 0000 0000 0000 0000

rbf_layers.0.centres f8 [128, 1]
-0.39420541644161433 0.5458322103535606 0.5886940623378533 0.9810358303366299 -0.38297728935695863 -0.6577032978665468 -0.3828598461422632 -0.5221650565736491
0.7597013823441263 -0.4309306623389241 -0.967956318677125 0.4540341724148937 -0.9600227880987023 -0.5903678955409342 0.705503445652005 0.7160896364177007
0.8163802238775442 0.7272508030901861 -1.5019945463280446 -0.6582718681131586 0.6970131390822706 -0.873805359476339 0.9546050632910243 -0.4474125489784171
0.5737934299970928 -0.37797768022251604 0.48804647846765864 1.2276176469772029 -0.652240778441719 0.4295008831572359 -0.4121207594833012 0.8871858809212858
-1.6295119838593515 -0.9240041076028183 0.8683619917169233 1.4443747721093003 -0.47374612748264716 0.39889157566425787 -0.43452971871882656 0.5073575806910343
-0.39928624598946655 0.6524860694555115 -0.5055508813307368 2.1083285930679754 -0.5323966895967661 0.6750303660939656 -1.1067602156560674 -0.7491356490097352
0.7090411962128063 -0.40561832367894 -0.5357742596976565 1.1119972234789621 -0.3492874803548535 0.9268180717494285 0.8042042753439939 -0.35867952264686204
-0.4988540146555773 -0.524741786332086 -0.5378114499029437 -0.5538511713488472 0.5048648047266343 -1.5522223265636221 0.8961848742191938 -0.4231106947459885
2.1286597862374363 -0.7270717809602592 -2.308380338324415 0.5611711072952287 -1.7218827804083385 -1.0027557149995459 -0.4422906134479174 -0.5433458077004155
-1.5458418085629757 0.6911737014168321 0.9644103583635334 0.5751845639822668 -0.4013218701232579 0.6550854848920094 -1.0545164212266127 -1.5708688508955682
1.122592078150876 -0.813990103185045 -1.0358502162918106 0.9269801724444138 0.7366866007967366 -1.8248531222943618 0.5575879443211442 0.3838751221255629
-1.1423050116156221 -1.1720873708901371 -0.5915379975134237 0.7575607684934591 -1.8023757173856203 -0.48567933578245437 -2.123523182281971 1.9420017116026247
1.132300695636102 -1.0755985935029815 -0.628018696888339 -0.7525588185329183 -0.44548063135195076 -0.3888273657624325 2.4148331148081117 -0.8198567312852008
0.49209998652850917 1.0663298901085847 -2.368269250955232 2.3117086575387362 -0.4467695059807224 0.7432721260277755 0.8719638843218828 -0.5180483571095367
0.6044732903242314 -1.9142309913413793 -0.4056242511613264 0.8354368618114271 0.48255850130529987 1.989167258537296 -1.6972773864169384 -1.232528936013671
1.1947695586302105 1.787412305605647 -0.8846541485338517 0.5701824860569162 1.4478608671029485 0.8519005792710801 0.8056717878086739 -2.0675183490550113
00000000: 7675 e15a a93a d9bf 4b4d 921c 7577 e13f
00000010: 17e5 22ee 94d6 e23f 3f00 f040 a564 ef3f
00000020: 0687 392d b382 d8bf 7ddc 59c9 e70b e5bf
00000030: b87c 8895 c680 d8bf 4821 237e 93b5 e0bf
00000040: c49b fc45 794f e83f 0eb7 6533 5e94 dbbf
00000050: 0298 9587 7ff9 eebf 0b75 7258 e50e dd3f
00000060: a98e c9b5 81b8 eebf ee9c 7e36 4be4 e2bf
00000070: 354d 49f6 7b93 e63f ce64 2dd0 34ea e63f
00000080: 7cf7 546b c91f ea3f 0063 e879 a345 e73f
00000090: 2bfd f36e 2b08 f8bf eb87 2d2a 9010 e5bf
000000a0: 6bb3 a77f ee4d e63f 1da7 40a8 36f6 ebbf
000000b0: 6cca edea 1f8c ee3f ccaa 6b3e 68a2 dcbf
000000c0: e4e8 0f0a 845c e23f 1f1d cb4b c930 d8bf
000000d0: 7994 fc4b 273c df3f 2827 dc66 52a4 f33f
000000e0: e0ca 900d 28df e4bf 4adc b045 f17c db3f
000000f0: 04f1 febf 2f60 dabf b8f4 00a5 d363 ec3f
00000100: 1ddb 7128 7b12 fabf b8c2 f00f 7191 edbf
00000110: 7b6f 7016 9fc9 eb3f c607 96b8 281c f73f
00000120: 6541 0947 db51 debf 772f 0888 7087 d93f
00000130: 6765 c2bc 55cf dbbf f542 0ef7 453c e03f
00000140: 971c 11e6 e78d d9bf 3206 2d77 2ae1 e43f
00000150: 98f1 b80a 792d e0bf d496 a361 dbdd 0040
00000160: 0323 4ac8 6409 e1bf 92c6 4548 d999 e53f
00000170: 831b 2c33 4ab5 f1bf 2c77 1853 ebf8 e7bf
00000180: ea05 a829 77b0 e63f 3e00 b78e a6f5 d9bf
00000190: da14 6e0f 1025 e1bf f05b c199 bdca f13f
000001a0: 87af 41e0 b95a d6bf b02d 705f 7ea8 ed3f
000001b0: 95fc bc9a 0abc e93f add7 e0f4 9af4 d6bf
000001c0: f822 9b63 39ed dfbf 7e82 6449 afca e0bf
000001d0: 67eb 975b c035 e1bf 4a6d 7917 26b9 e1bf
000001e0: 6979 263c da27 e03f 7d63 0b14 e7d5 f8bf
000001f0: 381f bee6 8bad ec3f 2666 21e1 3e14 dbbf
00000200: e399 31c8 7e07 0140 8433 220a 2c44 e7bf
00000210: 87a9 5e1c 9077 02c0 3161 291c 1df5 e13f
00000220: cb63 56f5 d48c fbbf 66cd 9c93 490b f0bf
00000230: 948a 054a 7d4e dcbf 61be 4fbf 1663 e1bf
00000240: 5f14 c99e c4bb f8bf 1719 6e4f 181e e63f
00000250: 5f0a a31c 73dc ee3f acf8 6e75 e967 e23f
00000260: 3b55 d6ec 41af d9bf 6441 b6d5 75f6 e43f
00000270: 5236 649c 4cdf f0bf d06c 4e60 4722 f9bf
00000280: cc81 661c 23f6 f13f 6151 0ef9 340c eabf
00000290: 1672 28ad d792 f0bf e80d 9652 d2a9 ed3f
000002a0: 3959 3ac7 ef92 e73f d61f 0430 9932 fdbf
000002b0: 141a 30ac c2d7 e13f 43bf d1f5 6891 d83f
000002c0: ce22 af9e e146 f2bf b671 e0af dec0 f2bf
000002d0: e12a 3518 e1ed e2bf 622f ad14 f03d e83f
000002e0: 9669 94eb 87d6 fcbf 4ed5 e1c7 5e15 dfbf
000002f0: 5f97 e1b8 f9fc 00c0 aebf 0163 7012 ff3f
00000300: f6eb 8f55 e71d f23f a180 ebde a635 f1bf
00000310: b82e 8daa ba18 e4bf ff49 3d3b f614 e8bf
00000320: ab1d aa31 c182 dcbf 9a53 ef2c 8ce2 d8bf
00000330: 7130 2b06 9451 0340 0ed0 082f 443c eabf
00000340: 9020 20f1 907e df3f e437 4cee af0f f13f
00000350: 15cd 2726 37f2 02c0 4d12 d01b 617e 0240
00000360: c862 4220 df97 dcbf 7c2a 2aa0 e2c8 e73f
00000370: 6394 cecd 20e7 eb3f 0e06 f125 da93 e0bf
00000380: 54f0 a75e d857 e33f 6bd0 0cad b0a0 febf
00000390: e8f3 4c6b bff5 d9bf 5f4b eb15 e6bb ea3f
000003a0: 96d5 600d 3de2 de3f 0d11 1b0c a1d3 ff3f
000003b0: ed6a 2e55 0c28 fbbf 9bd6 f842 70b8 f3bf
000003c0: 742b 49af c61d f33f 17b5 50a5 3d99 fc3f
000003d0: e427 8737 164f ecbf ceb9 4b57 ef3e e23f
000003e0: 8ad8 1528 702a f73f 3435 ed00 c542 eb3f
000003f0: e256 7e33 10c8 e93f ca91 680f 478a 00c0

rbf_layers.0.log_sigmas f8 [128]
-0.5135444441013169 -0.32657830866218407 -0.27145960738522545 -0.05141137889288937 -0.4546642607346809 -0.17412669516085716 -0.42408184976576346 -0.3136573836126864
-0.15198387629394067 -0.3714833364358305 -0.0378494743342858 -0.407609044467595 -0.05519189335801524 -0.20876936539942623 -0.1600934492815472 -0.17150310362056348
-0.12544390287483861 -0.1756310366516209 0.07720037725183893 -0.1746645084506736 -0.2072218379167787 -0.09479757087656313 -0.06338288666714259 -0.38370116767419205
-0.2926212861244268 -0.47576678798005256 -0.34144933039887426 0.01415434566877572 -0.20844591578483848 -0.517374859290067 -0.4235595520124022 -0.08972025401956385
0.10562412400754019 -0.06787650784183515 -0.10042092923984702 0.0654153616045797 -0.6211655238092902 -0.5076595285930409 -0.4399851685574898 -0.3446068383449667
-0.6404368397237631 -0.20225879771734348 -0.47815820831293865 0.18143528995718736 -0.2664747853464147 -0.19519895995297956 -0.01152915650796481 -0.1544134290507711
-0.2173493415339287 -0.57247532240105 -0.2554163247817166 -0.02659364623804209 -0.6421664826518095 -0.0921046204714882 -0.13526401216118886 -0.5280644832867993
-0.5571596342755991 -0.29418046365760314 -0.2551176735272713 -0.25187800135007515 -0.36504943658199224 0.10977246074154545 -0.08605306103336408 -0.3473250213237799
0.1975788345831068 -0.16996522817734847 0.19437266815410603 -0.2921166731608143 0.12191029599826199 -0.05049025762458693 -0.3722641004097441 -0.27702101200985113
0.07016384508796851 -0.22639465637602832 -0.04182063900074418 -0.2613357518087444 -0.4596416346378683 -0.2025312553612394 -0.007359475412170973 0.11276003085782679
-0.04344505690936484 -0.0993986532188362 -0.017741735112144125 -0.08179863454527238 -0.16729717561966617 0.08896393660266669 -0.29505929890018107 -0.801035206471351
0.005865333556990782 0.018586681436111106 -0.6506297975068682 -0.18084701871195286 0.11062024815762526 -0.3195699947369721 0.1677744861518312 0.14453065120444125
-0.013198776329029771 -0.008659051671224228 -0.20179010336706418 -0.12513533607613872 -0.3458068415595206 -0.46182927924076306 0.2586712503426973 -0.10073285537493423
-0.41692938423434844 -0.025629574893077586 0.227355824539786 0.23939456564012976 -0.38540815452578325 -0.14512024783083557 -0.10644375704383378 -0.45231910244311924
-0.2344909374043295 0.14619726918791567 -0.4449024154951334 -0.13004663830442273 -0.3606417653913792 0.17278366483870014 0.148161276346151 0.025346277758347958
0.007803268841472113 0.1149030480244583 -0.0964390646997774 -0.3326427699631272 0.061623356800920466 -0.09821032036105988 -0.12193108166804444 0.17801822669579345
00000000: 1fa5 0ec2 f46e e0bf 6c5f d2b4 a8e6 d4bf
00000010: 0ae4 f91d 985f d1bf 7e75 f99d 9752 aabf
00000020: 7cfd a020 3819 ddbf e2c8 8996 c849 c6bf
00000030: 8c8d e432 2824 dbbf 8dfc 306b f612 d4bf
00000040: 16d4 1929 3574 c3bf 0b0e 400b 62c6 d7bf
00000050: 5683 df9c 0161 a3bf 43b2 e23e 4416 dabf
00000060: b338 f4a1 1c42 acbf f70a 665e f4b8 cabf
00000070: 0bea 7b30 f17d c4bf aa3d 9b4e d0f3 c5bf
00000080: 7f3e 2aba 8b0e c0bf ae67 4aeb 137b c6bf
00000090: 3817 8967 67c3 b33f c4a5 c817 685b c6bf
000000a0: 4f4e 6fc4 3e86 cabf 5eb3 a752 a744 b8bf
000000b0: 1c88 5c61 dc39 b0bf 2e40 a657 8f8e d8bf
000000c0: cf24 81a1 4eba d2bf 3a6d b98a f672 debf
000000d0: 0e79 d34a 4eda d5bf c309 f31d f4fc 8c3f
000000e0: 63ec a313 5bae cabf d18c 8db8 558e e0bf
000000f0: b34e f385 991b dbbf e086 cd14 e8f7 b6bf
00000100: d1f1 47be 2e0a bb3f 35ed 58d5 5a60 b1bf
00000110: 6048 eb9e 2fb5 b9bf 3668 bfa6 0fbf b03f
00000120: 4d3c 4585 96e0 e3bf 99ea 1932 bf3e e0bf
00000130: 607c 6b8d b728 dcbf 93da 2ad7 090e d6bf
00000140: 8b8c 3866 757e e4bf 451b c3c4 9de3 c9bf
00000150: 5a27 c1e2 249a debf 376b 5a86 4539 c73f
00000160: c95f 1142 ec0d d1bf 990a 9b8e 47fc c8bf
00000170: 39a7 3731 999c 87bf 2a0b ebb9 d1c3 c3bf
00000180: 8001 d96c 1ad2 cbbf 9b58 6fc4 b751 e2bf
00000190: c253 73b6 bd58 d0bf 4ac1 7e63 5d3b 9bbf
000001a0: bf75 32b9 a08c e4bf f34b bc1c 2b94 b7bf
000001b0: 436e 47c6 5450 c1bf 8eab bc7c e7e5 e0bf
000001c0: 3cae fb70 40d4 e1bf 7504 a24b dad3 d2bf
000001d0: 5c99 1b14 d953 d0bf bf58 98e8 c41e d0bf
000001e0: 97be e24f f85c d7bf e8e9 e248 0c1a bc3f
000001f0: d0e6 dbca 9207 b6bf c3c2 eab9 923a d6bf
00000200: 4547 7564 434a c93f 3f4c 3dac 6bc1 c5bf
00000210: 88a4 7a1e 34e1 c83f a1e3 7521 0ab2 d2bf
00000220: f9b3 5b5e 8335 bf3f 4147 87ea dbd9 a9bf
00000230: 8205 2fce 2cd3 d7bf cdc6 b856 b6ba d1bf
00000240: 03b2 03fc 41f6 b13f c5e5 8f06 80fa ccbf
00000250: 71ae 9cc9 8369 a5bf 07d3 d296 b9b9 d0bf
00000260: 7593 29bf c46a ddbf 64e0 184f 8bec c9bf
00000270: 8537 6023 f824 7ebf a68f d464 d7dd bc3f
00000280: 3079 3235 6e3e a6bf 7e62 d7ac 3072 b9bf
00000290: 95e5 52b0 e32a 92bf 01ba 3a5c c1f0 b4bf
000002a0: 08f4 ff6c fe69 c5bf e25b 3b2e 57c6 b63f
000002b0: bd0b ca65 40e2 d2bf 61a6 d795 14a2 e9bf
000002c0: 5a23 eb7c 3f06 783f 0617 a313 6308 933f
000002d0: 120b c394 f5d1 e4bf 4035 79bf fe25 c7bf
000002e0: 8fc6 1ccc 9b51 bc3f 6c67 0bb5 d573 d4bf
000002f0: 7b0a 9065 a279 c53f 06a9 18fa fa7f c23f
00000300: 8076 71c5 f507 8bbf a731 f03d d6bb 81bf
00000310: a11a 4f13 42d4 c9bf a1af 0248 6f04 c0bf
00000320: e4cb ce04 b321 d6bf 3528 ab64 9c8e ddbf
00000330: bfc9 28dc 118e d03f 7ed1 77df a0c9 b9bf
00000340: d8c9 8195 f8ae dabf 1c94 e7a7 a33e 9abf
00000350: 210c 7ae3 fe19 cd3f 91da 212b 7ba4 ce3f
00000360: 7032 d3f6 86aa d8bf 89de 35df 4c93 c2bf
00000370: d7db 5de7 e53f bbbf 745a 16d2 cbf2 dcbf
00000380: c513 ae8d cc03 cebf 099b f694 97b6 c23f
00000390: d1a1 1dfb 4779 dcbf 3f72 3c45 5ea5 c0bf
000003a0: 155f fb32 c114 d7bf 75f3 e16e c61d c63f
000003b0: f65c 38de f2f6 c23f 3d93 30e8 5ff4 993f
000003c0: 9cc5 9d07 52f6 7f3f cacb 7941 496a bd3f
000003d0: 4a3f f104 3bb0 b8bf d584 8fe6 044a d5bf
000003e0: 1167 42bc 188d af3f 6597 14c2 4f24 b9bf
000003f0: e751 2118 e036 bfbf 5f0b e01e 4dc9 c63f

linear_layers.0.layer.weight f8 [100, 128]
-0.1246094745933957 0.10224686585990204 0.14716261771172734 0.05073945743612717 -0.006872708212859343 0.005621734305203132 -0.05585271502292376 -0.07289283866061261
0.001121618623699125 -0.0364845564460754 -0.11020363331103501 0.12673683028085633 -0.14612185544346437 -0.05766031484343201 0.05870257216581473 0.08212229316588802
0.10331286636748159 0.16781118946311913 -0.04172352986935141 -0.03204400963257849 0.07764945331522671 -0.13685434865994317 0.1317978574235755 -0.03652618115399415
0.08838171548882097 0.02111595511702117 0.08425031756524803 0.09296988953379802 -0.027585187672087945 0.09750498403194853 -7.717393001232316e-05 -0.0011380573967359274
-0.15211433418642803 -0.15091651419754712 0.0128660556189904 0.1230740746203726 0.00984087298218721 0.08790463510099981 -0.08228063781001099 0.012469389568919135
-0.02331033743529764 0.02845315617680083 -0.10749738206072011 0.17395280040725344 -0.027900654439931977 0.10844619469572864 -0.06827481499392898 -0.1361468823916886
0.1389649875245168 -0.044855194218893314 -0.14065083488370755 0.06662880282877306 -0.0924462155259395 0.00886114222141552 0.06919964472284684 -0.08352194539008811
-0.12892142687968838 -0.056961103354293934 0.012869347112033814 -0.06181405933276026 0.15163601366086787 -0.11565519930165644 0.08872233221313824 -0.05966149101304173
0.06909269915198077 -0.06900006746728131 -0.14267969455423912 -0.009880232294326805 -0.06596594204809947 -0.1479938490421751 -0.10675927935022686 -0.06702847686544022
-0.18087685741905965 0.1306789992857651 0.08314618982389495 0.09780294941703944 -0.08975914069755399 0.12351384338570925 -0.14993916937479249 -0.16842965661534232
0.12552974178316248 -0.15107761553185542 -0.16169445045618108 0.03509202388591902 0.16630686857580854 -0.06093858481119036 0.14149104548088579 0.09415548841342829
-0.013489877587598936 -0.15222519169660104 0.011697757511920577 0.14873501396491245 -0.060110866739295395 -0.07732376982886556 -0.17241188001831134 0.12027439704454676
0.06773066757461631 -0.08280168988232006 -0.007815951487528615 -0.010247983557333248 -0.08105673793131606 -0.09343778608329589 0.092734258935732 -0.0021166207983672864
0.09559294561513823 0.16523267477531847 0.007776729419046407 0.061372004451348286 -0.017148068773553113 0.012618549114420194 0.0906717205115431 -0.1579333975650201
0.07064445235160961 -0.016933079118158022 -0.08293954173578755 0.03151374621099162 -0.016777663455605257 0.133147712571256 -0.0696464248053502 -0.09690392101343345
0.0821750531405362 0.058243158365315864 -0.10594934280865487 0.15925949725259944 0.11290117529865054 0.02103522120648389 0.023973752509623372 -0.10790701373849267
0.03615116906837188 0.01825859571743863 0.028004655984099052 0.2060290198264803 0.016395170285737434 0.030626145933055696 0.03604389246797101 0.09824913326961321
0.02903392672925065 0.07440362498745803 0.1346525924551081 0.06265910265245114 0.12761792599985866 0.04970538347993753 0.1477518975597729 0.0425369440429142
0.07844248059502094 0.11973081538249836 0.023091699489420414 0.03441724573936896 0.12922730049910303 0.10535273337571047 0.2045644964841369 0.12860493657177557
0.14748214455538397 0.11195244741056609 0.16596814698417517 0.06793654126380158 0.052221149731713955 0.11402393143592775 0.060451797563700026 0.07506718575183999
0.05146169430014975 0.0715822529614528 0.140964447607787 0.25457273935641433 0.041617284113050185 0.09997298158199702 0.08338884728496306 0.15106660248178308
0.05609295519962993 0.14729605743774493 -0.01531601928715673 0.27085262125906223 0.06465722906818915 0.16286150559792842 0.028196628948704006 -0.018611505240903155
0.15547468463921713 0.11534369306577094 0.04594447226926615 0.04833831092486654 0.1426024272418073 0.18796944584180014 0.07390320224030723 0.025118158873868052
0.10748324981415938 0.12324699435867228 0.13424615499702952 0.13657453699730976 0.029857185478551266 0.05820643897113274 0.19502808141953237 0.049014287011556065
0.20631960311998385 0.0846598748171335 0.097051849724894 0.02737680969100552 -0.025706225163677047 -0.020381498356053563 0.15137694749553252 0.03507211775769475
-0.004218258360803635 0.15754537812183902 0.110264403524264 0.13621798463791765 0.05709189794800668 0.06070884602906056 0.03177966324957964 0.03599186177912163
0.14614491717692404 0.06105107895836544 -0.01622613724181987 0.13463316625580884 0.057453739377533106 0.00022501889346167032 0.1757064877421242 0.009988205000710699
0.04775664016693133 0.004983286504575538 0.05931398878222996 0.05431066504723553 -0.03978443200800434 0.15284802625805138 -0.01723484989885865 0.2151922332663389
0.16428840705375616 0.13684184024545337 0.02874081605707499 -0.01180098908367156 0.141436423421606 0.09134754571243227 0.33233009815386344 0.01579148981696292
0.14234797907368976 0.17212729465628737 0.0023152766254919046 0.3676847505599553 0.1508625264575688 0.18455832835461 0.05073145199597678 0.06120528806522584
0.0930344778696925 0.08566744003675274 0.14043969800540798 0.10797287349860987 0.06998563309281024 0.3095071585369408 -0.04862052494876948 -0.016396750446121284
0.11304478465645122 0.1861332199266384 -0.0068465106226110765 0.06903508154002165 0.0972966123800233 0.07354375780339321 0.03129966345825868 -0.023260970378476874
00000000: 237f 2612 68e6 bfbf 7f9d fcc0 d92c ba3f
00000010: d0ff 2183 39d6 c23f 6f22 9cac 85fa a93f
00000020: 7c9b 2590 8e26 7cbf c268 cdcf d006 773f
00000030: be20 d520 ba98 acbf 8af1 28e6 1aa9 b2bf
00000040: c0fc abd3 6860 523f 606b 7d91 1aae a2bf
00000050: 41a5 f828 4e36 bcbf 33a3 a096 e938 c03f
00000060: 7d25 2ef7 1eb4 c2bf 3c28 0f1d a785 adbf
00000070: 9c58 4977 430e ae3f ff85 6b73 f705 b53f
00000080: ffe9 4d46 b672 ba3f 78cf 5249 d67a c53f
00000090: 196c 8658 c95c a5bf 222c cf8a 1268 a0bf
000000a0: 9c8a 8aa6 d5e0 b33f c0a8 e77b 7184 c1bf
000000b0: a397 a88f c0de c03f 6923 0243 8fb3 a2bf
000000c0: b5bf 9621 2fa0 b63f 2a0b 9bc2 6b9f 953f
000000d0: 90cf 9ec6 6d91 b53f 0f76 0feb dfcc b73f
000000e0: 1e60 9f9b 4a3f 9cbf 993d 9d2d 16f6 b83f
000000f0: c88d a305 0e3b 14bf a368 32d3 5ba5 52bf
00000100: e3b0 4a85 7b78 c3bf fbcf 737a 3b51 c3bf
00000110: 9f8a e5c0 8459 8a3f ebde 7a55 c881 bf3f
00000120: 5a0d fb9c 7327 843f a3f4 ec0c eb80 b63f
00000130: c4ee 7c08 5810 b5bf e25c 3223 8d89 893f
00000140: bef7 c543 aade 97bf b046 fdfc d222 9d3f
00000150: af3d 5bcc f284 bbbf 87fc 65da 1544 c63f
00000160: a80f 6d39 fd91 9cbf 7c03 983b 21c3 bb3f
00000170: 8214 8a51 757a b1bf 7c8e a9d3 426d c1bf
00000180: fc79 5ace 9ac9 c13f e5a5 7390 42f7 a6bf
00000190: f484 fdb7 d800 c2bf ca07 1fd1 950e b13f
000001a0: 1ba8 5220 8eaa b7bf f495 5e60 ca25 823f
000001b0: fcbc fa62 11b7 b13f bcdf f2b7 b161 b5bf
000001c0: 6ad8 1950 7f80 c0bf 4ffe 1978 012a adbf
000001d0: 8788 bc87 3e5b 8a3f 9bcf 88a6 17a6 afbf
000001e0: c0dc c813 cf68 c33f 06ec 9c42 949b bdbf
000001f0: 2cc0 47bb 81b6 b63f de95 7671 f38b aebf
00000200: 2608 4023 0fb0 b13f b39a 3109 fda9 b1bf
00000210: fcf4 f406 5443 c2bf 12ec a554 163c 84bf
00000220: 4815 bfdb 24e3 b0bf 4a99 d262 76f1 c2bf
00000230: 868f 5a7d 9354 bbbf 88aa 093c c728 b1bf
00000240: 3beb 9b0d f926 c7bf 486a 1ae6 16ba c03f
00000250: 9da4 1496 1149 b53f a5d2 3235 9d09 b93f
00000260: 8124 d07d 74fa b6bf 20e4 f16d 9a9e bf3f
00000270: 6954 6dea 3431 c3bf a271 6b5d 1a8f c5bf
00000280: 2927 d1cb 5b11 c03f 39f9 eee4 8256 c3bf
00000290: f2b5 535c 67b2 c4bf ae85 e1ed 94f7 a13f
000002a0: eb0e d120 8b49 c53f 493c a899 5733 afbf
000002b0: 5935 82ea 601c c23f 2b7e 79f7 921a b83f
000002c0: 16b8 86b8 94a0 8bbf f66b fb75 1d7c c3bf
000002d0: f715 9a6f fef4 873f 6aec 5fba bf09 c33f
000002e0: 0919 8ffd d9c6 aebf 0f50 9e96 7dcb b3bf
000002f0: 4d6d 0fad 9711 c6bf fe39 da89 4dca be3f
00000300: 4f52 2b0a cc56 b13f 001d 19d6 7d32 b5bf
00000310: df5d 3540 cf01 80bf 7e5c d411 e5fc 84bf
00000320: ef12 8966 22c0 b4bf f83a 70eb 89eb b7bf
00000330: 1c07 59b1 6ebd b73f 1bb7 6c23 e056 61bf
00000340: 0a34 257f c778 b83f 15ff 3123 5826 c53f
00000350: 93f2 64e8 7dda 7f3f 125b 04c0 266c af3f
00000360: 5cb2 496a 438f 91bf 8bbd 27fe c0d7 893f
00000370: b4e5 440a 4336 b73f 6774 be5c 2937 c4bf
00000380: 5d76 7e3c c115 b23f e6dc 21b4 e756 91bf
00000390: 48e9 4c9b 863b b5bf c888 b3da 9122 a03f
000003a0: db66 61ef 292e 91bf b3ef 83f7 fb0a c13f
000003b0: 6782 d21c 59d4 b1bf 6e5b 9b03 b2ce b8bf
000003c0: 5921 c99d 6c09 b53f aa20 ca18 0cd2 ad3f
000003d0: 7057 6502 7f1f bbbf 1b7f 237e 9d62 c43f
000003e0: 5a71 9667 17e7 bc3f 337a 95cc 418a 953f
000003f0: 1405 f74b 938c 983f a90e 0447 cb9f bbbf
00000400: edbd b8f1 6782 a23f 49bd e89d 61b2 923f
00000410: db88 59a6 40ad 9c3f ea40 17af 285f ca3f
00000420: bc24 c240 e5c9 903f 0470 bddc 755c 9f3f
00000430: 0faf bd56 5874 a23f 84da 40ee da26 b93f
00000440: e13a 1bd7 11bb 9d3f 2265 06b0 1d0c b33f
00000450: 8149 75d0 4b3c c13f 4a61 b04c 6d0a b03f
00000460: 38c0 46c1 c855 c03f 4983 f6e8 fb72 a93f
00000470: 2778 f8bf 88e9 c23f 817b 12ff 66c7 a53f
00000480: 9bd1 c570 ce14 b43f 9428 64c0 ada6 be3f
00000490: 50e8 76b8 59a5 973f 9beb bc21 239f a13f
000004a0: fc6e b22a 858a c03f 0e94 6490 65f8 ba3f
000004b0: c139 295f 2b2f ca3f f607 5766 2076 c03f
000004c0: 27fe cde5 b1e0 c23f 08e6 5564 eaa8 bc3f
000004d0: b8c4 bcb9 713e c53f 126f ee06 4a64 b13f
000004e0: bbb3 8304 bbbc aa3f 3389 7a20 ac30 bd3f
000004f0: 837f 0abb 89f3 ae3f a691 ce63 9a37 b33f
00000500: 1923 08ec 2f59 aa3f 3785 71eb 3653 b23f
00000510: 2be4 2f7e 1f0b c23f a84a 7f75 eb4a d03f
00000520: 1c83 6d54 dc4e a53f 74d7 604e d497 b93f
00000530: 6da7 f0b3 f858 b53f e9aa 9682 2656 c33f
00000540: 699f 3c40 37b8 ac3f 5a2e c3e2 98da c23f
00000550: 31c3 8b4f 015e 8fbf abfc 953b a655 d13f
00000560: 1740 4c4c 608d b03f a303 2954 a5d8 c43f
00000570: e0bd c4bc 93df 9c3f df25 5bf9 e40e 93bf
00000580: 1dd0 f02e 98e6 c33f ee70 840d 2a87 bd3f
00000590: 242e a8ab 0886 a73f 84e2 2191 ccbf a83f
000005a0: 5db9 aadc cb40 c23f ced5 44ff 610f c83f
000005b0: 6119 b1fc 51eb b23f 4592 981b 93b8 993f
000005c0: 22d2 d1b2 0584 bb3f a2cd 1972 1d8d bf3f
000005d0: 00ba a95e fa2e c13f 3255 ef40 467b c13f
000005e0: d153 b9cc e192 9e3f 9e63 98ff 3bcd ad3f
000005f0: 66cf bf1f aef6 c83f 4eb6 808f 6618 a93f
00000600: 9f46 f645 ae68 ca3f b47f 9f01 45ac b53f
00000610: a0b0 95d8 63d8 b83f 5caf 2a99 aa08 9c3f
00000620: 81c3 8691 bb52 9abf cde9 8733 e3de 94bf
00000630: 9b49 6edf 5160 c33f 07a1 8afd f8f4 a13f
00000640: bbab 4a1b 2a47 71bf 11aa 556b 722a c43f
00000650: 96b6 0cb7 493a bc3f 2fcd 9246 976f c13f
00000660: a944 1b35 263b ad3f 3fa1 8bd8 3a15 af3f
00000670: d76f ab8c 6c45 a03f d2e6 867a 866d a23f
00000680: b931 e06b e0b4 c23f aafc 0547 1642 af3f
00000690: a014 2da3 959d 90bf d647 03db a83b c13f
000006a0: 769e 5197 936a ad3f 9829 a993 617e 2d3f
000006b0: c912 46d9 8c7d c63f 6a22 972e b274 843f
000006c0: 5a1c 5eef 8e73 a83f d01e 05c9 5a69 743f
000006d0: 94ac 0734 675e ae3f b85d 6784 9bce ab3f
000006e0: 6687 ba04 a05e a4bf 60ab 042d 8690 c33f
000006f0: 9013 ab32 03a6 91bf 66b6 1d4a 6b8b cb3f
00000700: 6533 b40b 6707 c53f 2612 4a8e 0884 c13f
00000710: b919 1a84 3b6e 9d3f 4409 66f1 1d2b 88bf
00000720: 848d 87b6 961a c23f 759e 6781 8d62 b73f
00000730: 2f07 c375 e544 d53f cca0 46f1 a42b 903f
00000740: e3f7 6265 7538 c23f 5b1b a666 4408 c63f
00000750: ece1 67ac 7cf7 623f b225 b99e 2588 d73f
00000760: 74e1 a998 764f c33f ba65 3e78 9b9f c73f
00000770: a712 670e 79f9 a93f df30 2aad 4c56 af3f
00000780: bdcb d987 1bd1 b73f 7f36 4a25 4dee b53f
00000790: e325 ff92 edf9 c13f d21b 8838 1ca4 bb3f
000007a0: 47cf 5215 94ea b13f aed1 f21c f7ce d33f
000007b0: 847d 2319 cae4 a8bf b501 b54b 4fca 90bf
000007c0: bb33 15c5 80f0 bc3f fa5c 249e 36d3 c73f
000007d0: 630b 7433 160b 7cbf d5b7 7d79 48ac b13f
000007e0: c80c 2f48 6ee8 b83f 3b2c 9782 c3d3 b23f
000007f0: 77a9 db6d 8206 a03f 26f4 314c b9d1 97bf

linear_layers.0.layer.bias f8 [100]
0.028557025142211475 0.14482862222929413 0.16391280642028486 -0.11064353954003638 -0.11911696480202089 0.17876250657579115 0.029321365036401623 -0.08789033974819656
-0.05376135103825164 -0.02070844984577241 0.01859732431480354 0.004834739942444531 0.20394969737392105 0.0904641217692542 -0.14588629722412666 -0.16733993961646418
0.07830046161806241 0.08301375821134209 -0.11482874069945903 -0.029512784273146568 -0.0015616758421148553 0.0063534203111174645 0.1584119875774986 -0.03473974488690281
-0.02912491163366387 -0.023154818451744216 0.013399854066425385 -0.03256054194312691 0.021456553121358187 -0.1030314152027031 0.10530878867094401 -0.056692554341086915
-0.015064348380632104 0.06675360243297677 -0.02311913981785576 0.0025003892803813176 0.04799061978965116 -0.03128211331403457 0.11579224493538261 0.016321331910455286
-0.08026363134177314 -0.006227249119924794 -0.14991882660329017 -0.1281574096882993 0.155704799148136 0.13493871303515592 0.062805187421609 -0.09205924715747696
0.16968547658079283 -0.08768892658565819 -0.017468929208118655 0.08615102863230634 0.09151112640872072 -0.07112045118150709 -0.028204353754024244 0.07109248222942209
-0.006607021443841816 0.06139510605485151 -0.13652754751742852 -0.050221247337470784 0.10416790615160987 0.019242937346353583 -0.0515110803093928 -0.016827666742052882
-0.08351167734772029 0.11500449867726525 -0.17497774872293356 -0.030281252556157066 0.09481075399901012 0.016382839040044336 0.0451445536650989 -0.19263350961387019
0.0398501359691568 -0.05267930659700419 -0.12092118187757367 0.010905897967600522 0.0849238504336947 -0.053659525845311626 0.0568528274490278 0.05995198562145795
-0.05619636701701125 0.14235135583936148 0.06142200756723911 -0.008624826298666228 -0.09132076830316632 -0.009299715491201335 -0.0625218683945441 -0.035620858228496186
-0.029984981574957506 -0.01203616064350101 -0.011166470890017205 0.14172937782305667 0.037481335715423024 -0.06849648727376328 -0.09524488140833699 -0.07564455576266013
0.07301891241875409 -0.18968576954906988 -0.05059496065761819 -0.12089610529386453
00000000: 5f36 3a84 0d3e 9d3f 7bf1 ff89 be89 c23f
00000010: f93f 7c47 18fb c43f 4990 d68f 2253 bcbf
00000020: dc34 390c 737e bebf a73b bf97 b0e1 c63f
00000030: 2927 9f7f 6b06 9e3f 4553 da36 fb7f b6bf
00000040: 9002 ff98 9b86 abbf 4f92 5a8b 9834 95bf
00000050: 5f97 e64e 2d0b 933f 71da ff9e 97cd 733f
00000060: e202 2010 061b ca3f c6d6 751c a828 b73f
00000070: 728e c1f5 66ac c2bf 6bd1 fb27 656b c5bf
00000080: bb49 e9c1 7f0b b43f 8bc1 a2c0 6340 b53f
00000090: 30ee f195 6a65 bdbf 2e7a 116d 9938 9ebf
000000a0: df37 ceaa 2496 59bf c18c 4347 0b06 7a3f
000000b0: 9348 f810 d846 c43f 333e 5268 68c9 a1bf
000000c0: cfa5 dcbb ebd2 9dbf aff0 fa8f e5b5 97bf
000000d0: 324a e4f7 6171 8b3f f84f 927d c6ab a0bf
000000e0: ffb4 c3e7 b4f8 953f c996 c14e 4460 babf
000000f0: 5cb5 524b 84f5 ba3f 14b2 a475 ce06 adbf
00000100: 0afd 0a9d 0eda 8ebf 87fe 569b c316 b13f
00000110: 66a5 b735 8bac 97bf f8dc f745 b27b 643f
00000120: 04cc 05fd 3992 a83f f75f 448b 3504 a0bf
00000130: 65bd 2081 8fa4 bd3f 2759 210b 8ab6 903f
00000140: 46ce ab47 288c b4bf 8da4 0675 be81 79bf
00000150: fd6c a844 8a30 c3bf 06f8 ac45 7667 c0bf
00000160: 7af3 1586 22ee c33f 34a4 b9f7 ab45 c13f
00000170: c7b5 fe31 0014 b03f 5af3 d5df 3191 b7bf
00000180: 9da5 42f2 40b8 c53f 9020 e80f c872 b6bf
00000190: 307d 94fe 5fe3 91bf 7c15 7e6a fe0d b63f
000001a0: 9044 25ef 456d b73f 0ebe e62b f334 b2bf
000001b0: 4fd4 e923 9ae1 9cbf 4fb5 2aee 1d33 b23f
000001c0: e182 67d0 f60f 7bbf 2bb3 47e9 2d6f af3f
000001d0: 9693 cb13 bc79 c1bf 5eed c16d 99b6 a9bf
000001e0: 30c6 3676 bfaa ba3f f385 53aa 6bb4 933f
000001f0: 23f6 9e0a a95f aabf 10e8 4c99 453b 91bf
00000200: 63e5 0a73 0561 b5bf e833 b650 ef70 bd3f
00000210: 5f77 25be ab65 c6bf 3677 a475 0c02 9fbf
00000220: 1c1f bc7f 8445 b83f 9f0b 92b7 a9c6 903f
00000230: 5811 2bdb 2f1d a73f 05e0 f3ff 36a8 c8bf
00000240: c515 75ad 3c67 a43f 862a 0536 c8f8 aabf
00000250: 0ccf 8ec9 b0f4 bebf 2eb9 d5d8 d455 863f
00000260: 735b 43c8 91bd b53f debb 3fe9 4279 abbf
00000270: 174c 2855 d01b ad3f eb1a 26d3 06b2 ae3f
00000280: 70f1 fb2c c5c5 acbf 4a87 efb8 9138 c23f
00000290: bb0c 8393 b472 af3f 3d74 1797 e4a9 81bf
000002a0: f4c4 4e41 cc60 b7bf fbac 2caf ba0b 83bf
000002b0: 0015 0ae4 6e01 b0bf 162f 4baa e53c a2bf
000002c0: 7442 f10c 62b4 9ebf 4a79 aa22 6aa6 88bf
000002d0: 7d5e 465a 72de 86bf 52f4 5031 3024 c23f
000002e0: f35d 37ee c030 a33f 4450 bb5c fc88 b1bf
000002f0: d99c c2f2 f761 b8bf aefe 1e0d 715d b3bf
00000300: 3dfa d310 5eb1 b23f a76b 5d90 9f47 c8bf
00000310: 46d7 bb2a 95e7 a9bf 896f 7312 0cf3 bebf

linear_layers.1.layer.weight f8 [100, 100]
0.054056400512292005 0.1567190114165702 0.15607877812166576 -0.18833947993810188 -0.15173191586889284 0.1814424159526884 0.056007439674436194 -0.146814946537982
-0.06546315563997479 0.11591458403166464 -0.060698925639468354 0.05589089280680443 0.007899709056322255 0.16921795496733083 -0.16378063567555676 -0.07084954623711605
-0.04397456850200579 0.1208564520279138 -0.17065494552093652 -0.015993308830671165 -0.010585548333807529 0.8049763114263548 0.06184349394511145 0.21032141727925155
0.06481145532905967 0.0702845506469402 -0.07188751287767359 0.0071467445263026595 0.003953107315199162 -0.06698592174722375 0.0649289383596124 0.15281136281526234
0.14287058315009377 -0.09392594354552693 -0.06136553422867297 0.03337862283064085 0.03848839954022488 0.019946114811242865 0.16379477523118105 0.012274828742209618
-0.0004679873093059138 -0.13483528309687665 -0.07188200553045836 -0.05582717091741344 0.07103854682666351 0.03889124101182307 0.08765961161178114 0.11336863146189693
0.025134293129424605 -0.18709790168597826 0.22792311164772616 -0.053260855490224836 0.21072553824472784 0.19675119620255077 0.48402030318333955 0.1444472294677357
-0.563648849223804 0.07542601080699575 -0.130359303186498 -0.17296842112566962 -0.1297125110764387 -0.03237052273181016 -0.138996375231095 -0.15871599935782837
-0.1576067345330321 -0.8212621257767639 -0.11710244183775907 -0.03998447664046954 0.32700005190211845 0.14000428014360797 0.05629167670727579 -0.028485021360533484
0.07113233021084255 -0.0787615501608722 -0.0375366413640401 -0.06643385822471533 0.028677332507226268 0.16173581468895026 0.4902256783780178 0.16939577311571122
0.15240267299732466 0.14124456391862705 0.11863422247439871 0.09826036439386832 -0.021555955433300706 0.0460731227625351 0.01984309873018312 -0.031413557812903455
0.08815864644532212 0.3925266471283748 -0.005437816454330121 0.13380366559079424 0.031267949219535976 -0.04385798240389675 0.004817019439949983 0.13820445549661697
0.07933664026609276 -0.07064848071323798 0.08552309676380243 -0.37606810091233306 -0.024698950167853857 0.08850127419305692 -0.10109509620682287 -0.049784285477498094
-0.08025875106948449 0.06833694856222503 0.07383486208903772 0.03428207239676711 0.07189939045158114 0.03641875359297273 0.02186217522229802 -0.07995707056526508
-0.09221154690139223 -0.01846709265838174 -0.0008451828350032654 -0.00832477966018875 -0.09548625984130221 -0.06696059421811398 -0.01274298874814026 -0.049708124740103415
0.4881479105352508 0.060054307247777106 0.028900206927325305 -0.38295450204642945 0.10710184901237829 -0.13540831811579457 -0.0626276907922879 0.058412379534939635
0.06989355912446175 0.04117440901519284 -0.06848848892299766 0.06398073048575643 0.05152923224876295 0.2649914233088918 -0.03669730383586666 0.008523150897334327
-0.13916136507148635 -0.039445875301825396 -0.026990018296077816 -0.050671770036060416 -0.0791658541915206 0.06517779677605078 0.012971125345512842 0.03953636838798634
0.09229556167332029 0.07178367633825933 -0.07640901602033803 -0.6496197856695444 -0.03352661276087111 0.04669649247526504 0.03933745013651256 0.10512319702811998
0.07030970858173803 -0.2725206742684721 0.03481133742480227 -0.03621322486985027 0.026662635247929542 -0.2567243944992523 0.0972395117461894 0.08088217157166165
0.5485601361184085 0.16667937143725653 0.07648176338114213 -0.09405154999508218 0.04964365512659463 -0.00873209888272367 -0.04404928826081543 -0.03384726528901835
0.1028456180783309 0.020400102751815745 0.05775426468211756 -0.05757967382810357 0.05114287127606448 -0.014865830880243385 -0.08882297501759798 -0.04003236174918513
-0.07951337364428389 -0.21246576336615045 -0.0481744898489 0.05022522166847399 0.012063409391010858 0.08326624131331634 -0.04277464398067292 -0.10045099067724925
-0.06158457767584342 -0.01847895919644125 0.048149972025485384 0.06288677754924425 -0.06336004338597111 0.083361347617898 0.14002476229367838 0.06016019456644617
-0.10350606568622439 0.05276197660622042 0.07006659722178128 -0.08901497262392254 -0.04324408018956543 0.05806454486628961 -0.0762596923236116 -0.0460240789937489
0.046065108453728174 0.028727859860092866 -0.0971397380452532 -0.027136250533930095 0.10353626394695882 0.0680657186149736 -0.09121632168769336 0.09657498486841062
-0.04303491323623308 0.010790959178317591 -0.10087739288941684 0.0020261956544884606 -0.038727057436228986 0.05256960361850653 -0.033367952983601866 0.05642274082482551
0.015427699809737475 -0.015523811846551827 0.07379344217813688 -0.03410016445133742 0.8634219848426962 0.06269112509588379 -0.03676781569172744 -0.9718733383471362
-0.047780723314211515 -0.10863074743596224 -0.01490636595314436 0.028110257971346635 -0.023918927287103185 0.014401903270893291 -0.08369681066368102 -0.0689899392551611
0.06323039596274742 1.2316508219187652 -0.03450288647966556 -0.053211361355637865 -0.13983627642488655 0.04435757059350941 -0.02132695959418208 0.027589865258475777
0.10389082354147208 0.01264369694731716 0.03525421260043361 0.0751747806402055 0.11753650586392199 0.02395126298405404 -0.03826096757797834 -1.038465871899649
-0.018792760269933848 -0.042968094118952374 0.011284895837569423 -0.012084980449675044 0.0021783855733035224 -0.8711395467907127 0.01354545726976614 0.059155620572881124
00000000: 92f6 add0 47ad ab3f 100a 595a 5e0f c43f
00000010: c2eb d0af 63fa c33f 259d 7011 821b c8bf
00000020: ea49 3590 f36b c3bf 10e0 4f4d 8139 c73f
00000030: cc02 78d3 01ad ac3f 58e9 f808 d5ca c2bf
00000040: f40f 9180 31c2 b0bf 2fa2 8b03 94ac bd3f
00000050: 6436 0cf9 ed13 afbf 19ba 7f29 bb9d ac3f
00000060: 1fca 5b00 b92d 803f 2487 3d17 efa8 c53f
00000070: e3e8 f88c c3f6 c4bf c95c 0624 3223 b2bf
00000080: 74c6 24ab d583 a6bf 8d71 f8cc 72f0 be3f
00000090: f0df f470 05d8 c5bf fbbd 87c9 8c60 90bf
000000a0: fb3f 3b3f e0ad 85bf 6030 74ae 5dc2 e93f
000000b0: aee3 ed4f f3a9 af3f bf6e 6eec cfeb ca3f
000000c0: cb62 0bc9 7b97 b03f 6a52 7116 2bfe b13f
000000d0: 28e6 cc54 3867 b2bf caa0 36a0 e745 7d3f
000000e0: 8786 2e2a 2231 703f a15d 3247 fd25 b1bf
000000f0: 858b d1d2 2e9f b03f c9d6 df9e 528f c33f
00000100: 3e55 1851 9549 c23f 9523 c6d7 870b b8bf
00000110: 6039 3aa5 4d6b afbf cfe0 e2ba 0017 a13f
00000120: 71ee 9962 c0b4 a33f a0aa 2f1b c16c 943f
00000130: e9d1 6f29 3af7 c43f f225 18a0 8b23 893f
00000140: c0c3 3b30 86ab 3ebf 08be 9f55 4842 c1bf
00000150: 0399 ecee db66 b2bf 8511 a302 6195 acbf
00000160: f539 600b 952f b23f d146 7e80 8de9 a33f
00000170: 3f7b 0d3d dc70 b63f 6268 8504 ba05 bd3f
00000180: 5eee fedb cdbc 993f ab1c 72f4 d2f2 c7bf
00000190: fcc7 43a3 952c cd3f 4d99 f9c0 0145 abbf
000001a0: 9cb7 98ef 0df9 ca3f 58c5 91a8 242f c93f
000001b0: ca6f 314b 30fa de3f d8e6 472f 3f7d c23f
000001c0: 4904 bb4f 6909 e2bf d10c af79 1e4f b33f
000001d0: 6f2a f517 9daf c0bf 66dd fc47 d423 c6bf
000001e0: a548 7a68 6b9a c0bf 0da0 f980 de92 a0bf
000001f0: 09a7 f01a a2ca c1bf 9e02 4c4d ce50 c4bf
00000200: e06f 391d 752c c4bf cff2 7482 c747 eabf
00000210: 2f94 f9f5 6cfa bdbf de77 0967 d878 a4bf
00000220: 066f 2da0 91ed d43f 1b27 4206 a9eb c13f
00000230: 7650 fd3c 43d2 ac3f ce6a ad6c 2d2b 9dbf
00000240: 999f f177 ba35 b23f ab8a 1f8a b729 b4bf
00000250: ded6 1eae 0038 a3bf c518 6c30 cf01 b1bf
00000260: 022d 0535 975d 9d3f a029 5759 c2b3 c43f
00000270: 86c0 1286 db5f df3f 316a cebc c2ae c53f
00000280: d759 2c48 ee81 c33f 2857 6247 4d14 c23f
00000290: 29c4 b6f9 cf5e be3f a890 905b 9727 b93f
000002a0: 05f1 7aae c312 96bf 86b7 fa76 e596 a73f
000002b0: 2ac6 63d0 bf51 943f b133 ea16 7015 a0bf
000002c0: 00a0 57a7 9091 b63f cc64 0e16 281f d93f
000002d0: 49f6 53bd f645 76bf 9b10 e67f 7a20 c13f
000002e0: ba2d 9f46 5a02 a03f 66c2 2fb0 8d74 a6bf
000002f0: 2e2b 57cf 02bb 733f 947d 4200 afb0 c13f
00000300: 2740 51f3 674f b43f e4e9 2cd2 0416 b2bf
00000310: 7836 a777 d7e4 b53f e52f 9ff0 7f11 d8bf
00000320: 45a9 dd7c ae4a 99bf 1442 50fe 04a8 b63f
00000330: ff88 fe43 5ee1 b9bf da0e f66b 537d a9bf
00000340: 7cad 0f67 d68b b4bf 96e5 2ebf 877e b13f
00000350: 6422 fa6d d7e6 b23f 1702 9177 6b8d a13f
00000360: 2a85 979a ff67 b23f 3d2a 4997 7aa5 a23f
00000370: 7792 65be 0963 963f 446a 290b 1178 b4bf
00000380: f14a 410a 2d9b b7bf 1b6e 149c 09e9 92bf
00000390: 2a65 5751 e8b1 4bbf c567 1803 950c 81bf
000003a0: 305a 3c9b c971 b8bf 529b 495a 5424 b1bf
000003b0: 7397 69ff fe18 8abf fc5d 35e4 5773 a9bf
000003c0: 4704 d7bb d03d df3f 48ed 392b 70bf ae3f
000003d0: 1ee8 660e 0498 9d3f e64d 8999 5382 d8bf
000003e0: 606b d9da 066b bb3f 30f4 f44c 0f55 c1bf
000003f0: 67e1 c64b 5e08 b0bf 4476 9137 3ae8 ad3f
00000400: bbfe a356 8be4 b13f dc04 4ee8 cf14 a53f
00000410: caa4 132c 7688 b1bf 0db1 0289 0a61 b03f
00000420: 12c5 971e 0a62 aa3f 7a42 3596 9ef5 d03f
00000430: df20 a72f fdc9 a2bf b144 e7f2 9574 813f
00000440: dca3 ec23 0ad0 c1bf 7d51 c4f0 3f32 a4bf
00000450: bbb2 9977 45a3 9bbf a547 4576 a6f1 a9bf
00000460: 7365 b6a2 3644 b4bf c316 94f9 7daf b03f
00000470: d1d9 35f9 9a90 8a3f be40 7562 1c3e a43f
00000480: beee f392 aea0 b73f d06c 423e 6a60 b23f
00000490: ca48 ed90 8a8f b3bf 8b20 c96e afc9 e4bf
000004a0: c20a b572 662a a1bf 1ad1 0948 9ae8 a73f
000004b0: ee4e b0cb 0924 a43f c667 4995 5ae9 ba3f
000004c0: b929 f32a d1ff b13f 9de2 dd8d fa70 d1bf
000004d0: 0302 8aa7 cad2 a13f b555 ff30 8a8a a2bf
000004e0: bcfe a829 734d 9b3f 936b 9d27 2c6e d0bf
000004f0: 3932 d44a b0e4 b83f bfd0 baa9 b1b4 b43f
00000500: 6a92 90fc cd8d e13f 48d4 9ee8 bf55 c53f
00000510: e260 7610 4f94 b33f dbf2 5d2b c313 b8bf
00000520: 20fc 71a6 e46a a93f 538e 0379 22e2 81bf
00000530: fe0b fcd8 a08d a6bf ac63 f3c2 6d54 a1bf
00000540: 36ef 2e26 1754 ba3f 4ec9 9db8 c3e3 943f
00000550: 3548 078c f791 ad3f 3e19 0340 157b adbf
00000560: a8c4 1bff 652f aa3f 7608 ab0b fa71 8ebf
00000570: 9281 d53c 1abd b6bf e220 fd28 1f7f a4bf
00000580: 7f96 650b fd5a b4bf 79b1 9600 1432 cbbf
00000590: b915 cea4 53aa a8bf 813a 00c9 1eb7 a93f
000005a0: 1f4f 8066 b3b4 883f 9431 4db7 ef50 b53f
000005b0: 0675 fde1 8ee6 a5bf 0e41 cff7 27b7 b9bf
000005c0: 3987 1c86 0388 afbf dabd a6f5 25ec 92bf
000005d0: 7938 4ef6 1ca7 a83f bbc1 ec0c 5919 b03f
000005e0: 5f44 3722 5d38 b0bf bdf4 c455 2b57 b53f
000005f0: 223c 57d7 54ec c13f f025 5e28 51cd ae3f
00000600: a459 0f9f 5f7f babf 24f8 fd27 9e03 ab3f
00000610: cd0b 9c6f e2ef b13f 472a 466c afc9 b6bf
00000620: 57cf 518c 1624 a6bf 6b03 84d2 a2ba ad3f
00000630: 5e6e 8854 c185 b3bf ba9d 36d4 7790 a7bf
00000640: f645 978c d895 a73f 842a 550a d66a 9d3f
00000650: dede 0b5e 26de b8bf 0032 51f2 9ac9 9bbf
00000660: 912a 9a43 5a81 ba3f c217 6e43 c16c b13f
00000670: 3293 82ee f359 b7bf d61b 9f61 23b9 b83f
00000680: 9e23 df11 ac08 a6bf ab54 1b06 9219 863f
00000690: 4da4 5dcf 19d3 b9bf e64b 4882 3d99 603f
000006a0: 955d 516a 08d4 a3bf 163f 9c30 67ea aa3f
000006b0: 331b 99b5 9a15 a1bf 48c6 2f05 71e3 ac3f
000006c0: c826 15d1 8e98 8f3f 4086 85c1 f2ca 8fbf
000006d0: 387a d084 20e4 b23f 7ba3 36a6 9375 a1bf
000006e0: 497f 7124 27a1 eb3f b648 098c 860c b03f
000006f0: 59f5 e12b 3bd3 a2bf f5c4 811d 9619 efbf
00000700: f80b 0708 b776 a8bf a0d6 9383 39cf bbbf
00000710: 98ee 2a92 3a87 8ebf 4e1d ad7a efc8 9c3f
00000720: f964 d009 347e 98bf 7a9e 63bc be7e 8d3f
00000730: cd7b 9478 276d b5bf 0b9c da1c 53a9 b1bf
00000740: e3eb c502 de2f b03f ccb8 037e d7b4 f33f
00000750: 8b74 18c2 5caa a1bf f0a0 9801 853e abbf
00000760: e607 05b5 27e6 c1bf aeea 0e16 09b6 a63f
00000770: 03a6 eb07 bcd6 95bf 6dde f183 8440 9c3f
00000780: ba12 77c9 9698 ba3f 8535 1d47 f0e4 893f
00000790: 2287 5414 d70c a23f 846a 5588 a73e b33f
000007a0: 538b c558 df16 be3f a28d db0c ae86 983f
000007b0: 3ce5 eb08 f196 a3bf 4c23 dd63 8e9d f0bf
000007c0: 4932 0bcb 683e 93bf ca52 06fe e9ff a5bf
000007d0: 4230 7d14 891c 873f 21e8 6e9e 02c0 88bf
000007e0: 040e 74d9 67d8 613f e9fc f60a 60e0 ebbf
000007f0: e234 dd7f b8bd 8b3f 3c60 783f a549 ae3f

linear_layers.1.layer.bias f8 [100]
0.09984955221556847 0.08015110853929222 0.043805548606311515 0.1615689607187634 -0.11206122861977842 -0.12099639949540478 -0.09180192386414954 -0.06870137205166682
-0.15033932880437148 0.031171011917767683 -0.11144902192066157 0.03644151343379645 -0.13762996769116312 -0.0929290202968102 -0.11894296460331848 -0.04825326087994095
0.037614635400531754 0.039970243761698776 -0.006031525585194372 0.018077082117911758 0.12956340939921743 -0.02437980205144212 -0.05050997082049435 -0.04934210990045847
0.08739263169051507 0.025728211999685516 -0.013451870746312074 0.149916254335181 -0.054365208537125516 -0.1068518236805968 0.02347445694637795 -0.03501654219144148
0.021173564575438956 0.10291811214733855 0.008116049895475859 0.04609010224644658 0.06337158198358683 -0.0960717008111753 0.09212593771791718 0.0758645796185194
0.019120806534325314 -0.026407440549664086 0.018846567136094023 -0.10263908185597422 0.15137756573968933 0.172734893403618 -0.0009527251765601654 0.1085259808179116
0.0760215692171283 0.11311055497438056 0.09295570415270754 -0.12387367593177705 -0.16326440703472891 -0.08112912487502175 0.08998796821812281 0.09793098456211026
-0.12830063166708358 0.05974921150121363 -0.1528167280882137 0.023904173382949145 0.046806858964179236 0.08079572903738623 0.042591501298685934 -0.07389350379921117
0.06500936365130593 0.013142601577985077 -0.06952107023167538 0.09757298293365368 0.02041758240616141 0.05685778244160197 0.0104629964744202 -0.06732503682311215
0.04408906686832318 0.11667902769029655 0.08026092287461484 -0.06868427363557068 0.14229002776738897 -0.1307213690287285 0.03812300592713399 0.09984599240322563
0.07939537927694336 0.026408309157120207 -0.12012041310319356 0.01304462754221646 -0.061031752936532735 -0.007174174368512487 -0.05041296800970714 0.1378663526955696
-0.02947749312065337 0.12664371803384386 0.054222172784268684 0.04380502208975224 0.09439650901860204 0.012987207561410153 0.027121815395468967 0.17136691590106118
0.1562792326319168 -0.06659213602784035 0.16325786932277042 0.03607206327383277
00000000: 913e 4981 bd8f b93f 8a16 ea75 c884 b43f
00000010: 167e 4b4d ae6d a63f 69fb 2aad 4aae c43f
00000020: a14f 1270 0bb0 bcbf 4a3a c4ba 9ef9 bebf
00000030: e8d6 b4b4 5480 b7bf 08f9 26c2 6996 b1bf
00000040: 0f39 42b2 513e c3bf f584 1433 4beb 9f3f
00000050: 9b07 5250 ec87 bcbf d46d d448 76a8 a23f
00000060: 3d6f 17d9 db9d c1bf bb2c 063f 32ca b7bf
00000070: 737f 0fcf 0b73 bebf 2d35 cfc2 a6b4 a8bf
00000080: fce0 cab9 3942 a33f d00e 8ad3 fa76 a43f
00000090: fd64 2252 83b4 78bf 509f 0372 cc82 923f
000000a0: f55e 10a7 8895 c03f 4cc0 f9d1 04f7 98bf
000000b0: 1f85 9761 71dc a9bf 5a1c ad78 5e43 a9bf
000000c0: abaa 050f 5d5f b63f 3429 7e14 7f58 9a3f
000000d0: 9147 6787 a78c 8bbf ed13 c1b0 7430 c33f
000000e0: b912 6ab1 c1d5 abbf 1be3 3920 a45a bbbf
000000f0: 1f14 8123 b009 983f 63ff 0f2f b0ed a1bf
00000100: 01a5 90dd 85ae 953f cdc0 d665 d758 ba3f
00000110: b77c fdc6 259f 803f 9cb4 a233 1f99 a73f
00000120: 8883 1db8 1e39 b03f ae1a 0ead 2798 b8bf
00000130: 159e 9cc1 9095 b73f 75e6 6270 dc6b b33f
00000140: b5c8 f39a 6794 933f eda2 2056 8d0a 9bbf
00000150: 852f f7b5 834c 933f 75e5 dc0b 8e46 babf
00000160: 6d9b 190f 5760 c33f 83f6 054f 2d1c c63f
00000170: cff6 d9bc 0938 4fbf c416 61d2 5bc8 bb3f
00000180: b602 9449 2676 b33f 2587 7236 d0f4 bc3f
00000190: fc01 50ed f1cb b73f 4b58 f66a 2fb6 bfbf
000001a0: b151 681c d9e5 c4bf a660 17da e0c4 b4bf
000001b0: 5fc3 8794 7309 b73f 9997 f547 0112 b93f
000001c0: 677b 88b4 276c c0bf 5510 b8da 7297 ae3f
000001d0: 4dd6 b5a0 7f8f c3bf 60b4 abeb 557a 983f
000001e0: 9f92 f590 11f7 a73f c33e df65 07af b43f
000001f0: ffae 54a2 8dce a53f bc57 3446 afea b2bf
00000200: e7ed d022 74a4 b03f 3ec6 b11f 82ea 8a3f
00000210: b528 0703 22cc b1bf 6857 ac02 8bfa b83f
00000220: bb98 cac2 58e8 943f ec32 3898 761c ad3f
00000230: d008 689d 9f6d 853f 8d75 5baf 363c b1bf
00000240: a507 9f98 d792 a63f 3514 0f40 adde bd3f
00000250: f8ab e4d6 fa8b b43f 95a8 03e5 4a95 b1bf
00000260: 3468 e743 8f36 c23f 36f1 6e52 7abb c0bf
00000270: 7b50 5dcf db84 a33f 452e 02c8 818f b93f
00000280: 55af 726d 4153 b43f dba0 b0a0 c70a 9b3f
00000290: c937 dc1d 36c0 bebf 7b64 7545 24b7 8a3f
000002a0: 208a c2cd 8d3f afbf cdf3 9dc4 aa62 7dbf
000002b0: babe ca81 bacf a9bf 45ec 05ca 9aa5 c13f
000002c0: b861 af13 592f 9ebf 8b7f 9981 dc35 c03f
000002d0: 632a a735 02c3 ab3f 9155 8da2 9c6d a63f
000002e0: 3d6a 179f 5e2a b83f 07e3 f07d 0999 8a3f
000002f0: 5bd9 8638 d2c5 9b3f 12aa b4e1 59ef c53f
00000300: fc59 9938 f500 c43f 330d 69a6 2e0c b1bf
00000310: 1029 c744 a2e5 c43f c7e6 1e98 0978 a23f
