3_Heat2d_MS/logs/models/2024-01-31-10-58-19_2d_heat_rbf128_50X5/best_weight.pt (torch, 445179 bytes, 14 tensors)

rbf_layers.0.centres f8 [128, 3]
-0.0918398831781955 0.3384598630054883 0.414344957303192 1.0077666776252914 -0.1148509703479434 -0.6018751643728997 -0.0988323710550258 -0.35103541200697735
0.7202991431608566 -0.2257240653424099 -1.0518940401718693 0.24839826450364166 -0.9959901744308475 -0.5267086670101553 0.6652158758412332 0.6431373017887693
0.787149507130437 0.660626482418018 -1.6326531608877448 -0.6088966285022447 0.5986853526478811 -0.8741892560755266 0.9624843278119859 -0.18975459113712456
0.36642039531187937 0.0847571345095852 0.3113282316817131 1.310029244688433 -0.5596756916270714 0.19693838335199637 -0.16508335782839442 0.9074212879167074
-1.7834629478847388 -0.9363177368200689 0.8849157189494422 1.5823585931962798 0.10894947448590421 0.0989758024228759 -0.16787406773998761 0.3171629746395918
0.11666011870768099 0.5183897582799954 -0.09402546562151347 2.366686734346302 -0.412622620711556 0.5277420423865014 -1.1706643543202813 -0.7401457929802802
0.6011746868154106 0.07333410061166006 -0.42245459795689794 1.1630556591491952 0.10669656223992377 0.945816891491448 0.8020608918322506 -0.017954151003392795
-0.031660593869137256 -0.3925919217002379 -0.42271153723188487 -0.4388571816054247 0.3123457716834655 -1.720170412661431 0.9162075849214784 -0.23214613191247235
2.3986220057330763 -0.709494160024347 -2.5443371880779395 0.3801644013313262 -1.9004736191436262 -1.0253962957674687 -0.2456092731542915 -0.3895421370502762
-1.6759945777099359 0.5561002483080421 1.0190927470205886 0.41458640080396253 -0.124982102062797 0.5290061624354775 -1.1473196574143374 -1.749147541792048
1.1604123131111113 -0.8229917532785723 -1.1071018482630177 0.9535882346151532 0.6775963169328529 -1.9505921395013837 0.37413252244418915 0.11693143015203214
-1.2158736598036637 -1.2615358151202531 0.22654405694446791 0.7088011926530744 -1.947104068004186 -0.33016006857319735 -2.3352882355349163 2.1625532367474216
1.1973564222115443 -1.1548206334008644 -0.5522924699965145 -0.7386978754841269 -0.25994907188829264 -0.03434419963000207 2.745028479827095 -0.8224844049791091
0.25170851171688907 1.122749072798593 -2.6302072251805866 2.626147719834851 -0.21190057490409614 0.7078406777647741 0.8711885798507507 -0.1583082484068357
0.4493980287522698 -2.0986873592378763 -0.12677078270637118 0.8529799351668587 0.2537581683099121 2.226744767919234 -1.8935406741892493 -1.3274945375722167
1.277127729620719 1.9793317523473781 -0.8943864080151277 0.3871020631826847 1.5806891468854534 0.8439707576751365 0.7935928753428407 -2.2916244460013444
0.6511060602707924 -1.1137820267471448 -1.1120972443349093 0.5501316893089608 1.0656271432305113 -2.1287558351223055 -0.8326969436942266 -1.1305511195231086
0.21016282294162006 -0.942896524779418 1.8561332571054394 -0.6600253214074231 1.3931009092875513 -0.3879205101841045 0.6902213495821623 -0.14866922567891452
-1.2230745409674053 1.3130257292987058 -1.3697480281923338 -1.5602849727888515 0.1037808683004892 -0.2099081344996718 1.0809578962373647 1.3971129613635977
-0.6504132385920647 -2.705989417722005 -1.2587573801700709 -0.15032106237319107 -1.0985130902684204 -0.6184790951079151 -1.3164174787949374 0.14021742610901644
0.42037657508448517 0.003371034500409118 -0.15734709807502015 -0.26529074074843156 -0.6018151590391999 -0.712745508493753 -0.7575577217797889 0.30314680967718455
-0.5036537279005703 0.48988581083190597 0.42119130400018145 -1.4067519769776176 -1.763525738168686 -1.3836065685977885 -0.6978257628689046 0.5346975058766533
1.2419662811455379 -1.4129264473555567 0.2504314467619038 -0.9676669071816295 1.063249824510405 -0.24731264421683855 -1.0436988229530686 -0.9392896702566469
1.2392154870514813 -0.5413329950805368 -0.15963102000751556 -0.12075925787092306 -0.278029765394828 0.2650947158013963 -0.15384250463416238 0.1835251871220627
0.5202402411276716 0.10695931269617753 -0.5837369027442404 -0.19534962328147473 -1.027444637781928 0.021787508302819475 0.539209941165919 1.0954045863435318
0.2655752173491359 -1.267556542699831 0.02423831814654365 -0.22709448444792818 1.0979357262496443 -0.5886135997775856 0.5675872994553187 0.4160271133155406
1.3392878138136322 0.24129366191871124 0.18148258588649052 0.39720736386238953 0.41729807833804033 -1.5734906205040597 1.9394736122474143 -1.4382754420413442
-0.694891699995442 0.29906010193812194 -0.31123565551792315 -0.5707444420854336 -2.9981679986895795 0.9991176501049996 0.7437696583945922 0.27618660066674805
-0.5994761217659683 1.1327704024817242 1.3454402958150702 1.546715501422387 -0.0509003583591322 0.5474299798870954 -0.8619230200074884 1.646955813759422
-0.7672453920693773 -0.4152707121691863 -1.3258038676161978 1.2263572283986375 -0.9414274252137113 0.5684822383404861 -0.1875669959412427 1.5160188729835469
-1.0849423549903714 1.3825165239989785 -0.6993660415842564 0.6477808576157096 -0.21692812742911327 0.7078614512728413 0.5767777729855633 -0.7948588111569962
0.36137457397412187 1.9616124324305961 0.6728517747856297 -0.04333731541334148 -0.13447068339212334 1.1225674900816631 1.1995825392174724 0.8107956658111757
00000000: f203 b88e d182 b7bf 6980 a78e 53a9 d53f
00000010: 6e4d 38b6 a084 da3f 2163 a6f3 cf1f f03f
00000020: 9deb 8e89 df66 bdbf 0633 68b4 8f42 e3bf
00000030: 4dac 7709 144d b9bf dfb3 933b 5d77 d6bf
00000040: 73ce e6c9 b00c e73f b66c 48b3 86e4 ccbf
00000050: ec53 56d8 8ed4 f0bf f490 36ab 83cb cf3f
00000060: a02b 4ac9 26df efbf 0482 6a22 ccda e0bf
00000070: 3894 f0cd 7249 e53f 7fa7 c0ad 9494 e43f
00000080: 0302 c629 5430 e93f c76b 1b26 da23 e53f
00000090: 0e95 bbeb 581f fabf 49fa 41c8 147c e3bf
000000a0: a7f0 462f 6e28 e33f 917c 2bbf 5bf9 ebbf
000000b0: 44ae dbee abcc ee3f 1893 99e1 e049 c8bf
000000c0: 27ec 9c87 6e73 d73f 6f43 d2c0 a4b2 b53f
000000d0: fa3e 593f cdec d33f afd8 ab39 e1f5 f43f
000000e0: 47f1 fcfe dce8 e1bf b676 e9e5 4635 c93f
000000f0: 1b50 7e93 7321 c5bf 967c 695e 9809 ed3f
00000100: ecae ac71 1089 fcbf 61d2 499d 50f6 edbf
00000110: 7555 13c5 3a51 ec3f 5429 853e 5751 f93f
00000120: 1956 d5dd 1ce4 bb3f 7c69 806a 7a56 b93f
00000130: 0d16 65bf e57c c5bf 5f10 e5ee 654c d43f
00000140: dfd2 9802 70dd bd3f 0a9b 4c1e a696 e03f
00000150: 17e8 d58b 0d12 b8bf bf27 5f74 f9ee 0240
00000160: c4f0 62b5 6868 dabf d0c6 9847 43e3 e03f
00000170: 8560 c68b 0abb f2bf cce9 e33a 46af e7bf
00000180: 74c4 61b2 d23c e33f eb03 cf0b 06c6 b23f
00000190: d942 9102 7f09 dbbf 8693 3740 e09b f23f
000001a0: 9a85 6a45 7750 bb3f 8cb9 1ec9 2144 ee3f
000001b0: 573e 7a9a 7baa e93f 5a4e 8cad 9262 92bf
000001c0: e5d1 7a3e d135 a0bf 8915 18de 3920 d9bf
000001d0: 9961 03b1 b40d dbbf c30a a76e 3c16 dcbf
000001e0: d528 9b1e 79fd d33f bdd7 1e69 d185 fbbf
000001f0: 70b7 b291 9251 ed3f 047e 3ae6 f6b6 cdbf
00000200: 45b7 f0bb 6030 0340 f03d c018 2db4 e6bf
00000210: b054 a674 cd5a 04c0 e192 b411 9d54 d83f
00000220: 451f 9206 5768 febf 532c 3cf2 0568 f0bf
00000230: ad60 e5e9 1f70 cfbf 6adf c224 42ee d8bf
00000240: 9f99 b8b0 dfd0 fabf 05fa 78bf 92cb e13f
00000250: 2ab5 4032 344e f03f 8370 3466 9588 da3f
00000260: 9eee f1b8 d3fe bfbf f15e e154 9eed e03f
00000270: a770 6adb 6b5b f2bf 9e02 fe21 82fc fbbf
00000280: c801 6b80 0c91 f23f 83b1 26cd f255 eabf
00000290: d217 7a6d b0b6 f1bf fab7 3079 cb83 ee3f
000002a0: a2bb a378 deae e53f cae3 6f1a a035 ffbf
000002b0: 4823 1189 c9f1 d73f f2a2 60dc 37ef bd3f
000002c0: 05cb 4ef0 3774 f3bf 7bc9 ca2d 402f f4bf
000002d0: d1fe d649 65ff cc3f aaf1 b9d6 7fae e63f
000002e0: ddc8 5f98 5627 ffbf 54e3 3db2 5721 d5bf
000002f0: 1cd9 3299 abae 02c0 5283 1db6 e84c 0140
00000300: cddd 3035 5f28 f33f 553e 5333 257a f2bf
00000310: 73c9 0e42 61ac e1bf 3687 1aba 69a3 e7bf
00000320: 74b0 986e 01a3 d0bf e8b1 6f1c 9095 a1bf
00000330: 5891 db7d d1f5 0540 905e 9bd0 ca51 eabf
00000340: 4fba 7c04 fe1b d03f 698c 54bb c7f6 f13f
00000350: 06d4 ee15 aa0a 05c0 c83e 59bc 5902 0540
00000360: 8abc 9bdb 8e1f cbbf d8e6 387e a1a6 e63f
00000370: f171 63df c6e0 eb3f 6915 ccd6 7143 c4bf
00000380: f72e 18f3 efc2 dc3f 6ba4 2399 1cca 00c0
00000390: bbf5 e766 063a c0bf 8df2 b593 9c4b eb3f
000003a0: cff8 7ee6 923d d03f 8c04 968f 5fd0 0140
000003b0: 2d9e 544e f14b febf 6cdc 87e9 6a3d f5bf
000003c0: 4e92 787c 1d6f f43f 0343 84c5 57ab ff3f
000003d0: 2b2e 8d3e d09e ecbf 445c 65bb 47c6 d83f
000003e0: 1b3e f0b3 804a f93f 78d7 5ff6 ce01 eb3f
000003f0: 94f4 bde2 1c65 e93f b351 9232 3f55 02c0
00000400: 09e5 6260 dcd5 e43f 7d06 3c1a 0dd2 f1bf
00000410: 153e e67a 26cb f1bf 3368 c2c5 ad9a e13f
00000420: b17a 1e0c cf0c f13f e027 a823 b107 01c0
00000430: dcaa 940f 74a5 eabf 51ed 4cc5 bc16 f2bf
00000440: 1d45 af89 9de6 ca3f a511 2e55 352c eebf
00000450: ba92 44c9 b8b2 fd3f b541 3f6c ed1e e5bf
00000460: b3af d62d 244a f63f 270e 2c8c b0d3 d8bf
00000470: 969a 6e15 4b16 e63f dd35 1bdb 9707 c3bf
00000480: 4b67 209c b691 f3bf d54f 6244 2702 f53f
00000490: 828b 8de8 7cea f5bf 0818 2960 edf6 f8bf
000004a0: db13 4d0b 6291 ba3f 2f94 6b0e 45de cabf
000004b0: 3f14 cb81 9a4b f13f 65fd dd1e 935a f63f
000004c0: 786d 946c 2fd0 e4bf 3881 a3c7 dda5 05c0
000004d0: 91dd 56c7 de23 f4bf 837b 6577 b83d c3bf
000004e0: 66e4 4e76 8293 f1bf 00f1 d7ab 94ca e3bf
000004f0: 98e9 34c6 0b10 f5bf c4d7 bb05 a5f2 c13f
00000500: b382 7f26 73e7 da3f 2eaf da5d 929d 6b3f
00000510: cd25 2d20 f323 c4bf 5d8d dc03 86fa d0bf
00000520: d1ee 49dd 1142 e3bf f93f 2bab cfce e6bf
00000530: f60b fcb0 e93d e8bf ccd0 5ce0 c166 d33f
00000540: 03ed 3a6c ee1d e0bf e409 1304 4a5a df3f
00000550: 7a95 025f ccf4 da3f 433c 6b5c 0e82 f6bf
00000560: 956b b1c3 6637 fcbf 5388 2aa4 4023 f6bf
00000570: 9680 bab1 9654 e6bf 9bc6 9ff1 3d1c e13f
00000580: c513 0409 18df f33f b4ba 30c3 589b f6bf
00000590: b1de 6e9e 1107 d03f b687 f896 20f7 eebf
000005a0: b5ff 7b3f 1203 f13f b138 66d3 f0a7 cfbf
000005b0: 6150 7789 fdb2 f0bf 2e22 e735 a90e eebf
000005c0: 3f53 599e d3d3 f33f 78bb c392 9952 e1bf
000005d0: da00 2e0d ca6e c4bf 2cae 3e27 14ea bebf
000005e0: 97dc 6b5b 3dcb d1bf 0067 add3 4ff7 d03f
000005f0: ecb8 1177 1cb1 c3bf b13c 57da c07d c73f
00000600: ae9b b6dc cea5 e03f 5860 087e af61 bb3f
00000610: b127 5803 f9ad e2bf 43d2 a369 3701 c9bf
00000620: 4995 dbc9 6970 f0bf 58dd 7cee 764f 963f
00000630: e88a df34 3541 e13f f6bd a3f5 c686 f13f
00000640: dc20 4932 2fff d03f 29a0 8b5e e947 f4bf
00000650: 616f fffe edd1 983f 8225 e79b 6e11 cdbf
00000660: bda2 550d 2591 f13f 6ad1 2030 ecd5 e2bf
00000670: 3f23 19d7 ac29 e23f 4f21 7c2f 30a0 da3f
00000680: 982c 040f b96d f53f 1323 56f1 b5e2 ce3f
00000690: c686 9645 d23a c73f ca3c 616f d86b d93f
000006a0: 5a50 c9ff 02b5 da3f fe0a 3a80 042d f9bf
000006b0: 0dec 807b 1508 ff3f fd51 231c 2d03 f7bf
000006c0: a6c0 b784 8d3c e6bf d235 57fb cc23 d33f
000006d0: 4b1c 73f4 48eb d3bf b92e 24d9 8943 e2bf
000006e0: bc48 f280 3ffc 07c0 c4d5 0194 c5f8 ef3f
000006f0: cdfa d106 f6cc e73f 0a41 5d90 0aad d13f
00000700: caf7 368c e82e e3bf 7c92 88db d31f f23f
00000710: d0f0 5367 ec86 f53f d034 edc0 58bf f83f
00000720: 90a9 039d 9c0f aabf 62e1 8ee0 8b84 e13f
00000730: 4341 d395 df94 ebbf 4ddc e056 ee59 fa3f
00000740: c33a 5e35 468d e8bf d035 f09b cb93 dabf
00000750: 6f26 c51d 7e36 f5bf 32f7 d2c1 289f f33f
00000760: 4736 5b68 2c20 eebf bdef c0a9 0131 e23f
00000770: 8034 b000 3202 c8bf 6d54 7901 9d41 f83f
00000780: 71a9 cb83 ec5b f1bf 5915 8ca5 c91e f63f
00000790: 0832 91e4 3461 e6bf d4e5 cdeb 9eba e43f
000007a0: f0fd 7106 4dc4 cbbf 451c ea0e cda6 e63f
000007b0: ef0b 01a9 f674 e23f 676a dbbe 7b6f e9bf
000007c0: 4cc9 34d2 c220 d73f 7576 cbb7 c362 ff3f
000007d0: 9650 f871 0088 e53f 4b21 cb00 4f30 a6bf
000007e0: f54f b8d9 5536 c1bf bb41 1754 09f6 f13f
000007f0: baaa ec75 7d31 f33f b0b8 8cc0 09f2 e93f

rbf_layers.0.log_sigmas f8 [128]
-0.0035311751643368303 -0.0029912538955964986 -0.0001645148860774201 -0.00909789347370463 -0.007217620044550015 -0.003300188583909036 0.0020165643990107565 0.00275672983641684
-0.008472118959040783 0.0016334441345556383 0.0019359852085972786 -0.0006906502578747888 -0.0013568239532314595 -0.003791581491461571 -0.002257675712535663 0.0024020034116502952
-0.008194444663002802 -0.00902266890397938 -0.007085091056335807 -0.0032476278897282827 -0.0012827890928723703 0.0045021920797923545 -0.0080586741385745 0.009297427945838543
-0.008148697750158883 0.00879217422313931 -0.006022144947508061 -0.0022050673336548266 0.003776177882676494 0.008048741163981318 0.009329796391061896 -0.008553077520077456
-0.0008558105629028791 0.003571476169466505 -0.0035869029626259892 -0.0020846387954162717 -0.0034321507973582997 0.0036065996468261485 0.00027943293996663846 0.00366042215018224
-0.0023174955283440956 -0.0010824528200752137 -0.006965050786148933 -0.0021668321339927766 0.0010618799101569818 -0.0037950032679359784 -0.0032252617722805218 -0.004121518501284867
-0.0007011017604151377 0.0013378321919345773 0.0008467429560309318 -0.003106238088965934 0.0008134928892422484 -0.003892469703472615 -0.0010797068116313129 -0.0019922850497622892
0.001922967435275086 0.00749019064860255 -0.0015679023821066332 -0.003203469620277369 -0.009026088661461878 0.010698566410993182 -0.009723713299162008 -0.0023810586916412605
-0.0016177387931961427 -0.0010573391608535876 -0.008123792951149289 -0.003026002606089887 -0.0026739156097740366 -0.0013196530448970198 -0.003986299319089787 1.0667886604455574e-05
-0.00025183351427716206 0.007400595481990977 -0.0038149983674589786 -0.00910080315351579 -0.0032170897028852546 0.0027812265879422057 -0.0016930381787258915 -0.00244196213220968
0.008214863050596353 -0.002303619947380602 -0.004877186654467018 0.003427067592303691 -0.002976254163452618 0.0018365400324217723 0.002867969769295252 -0.0026694541045887213
0.0034229654673940003 -0.00279646519971031 -0.005826772596732333 0.0037446941308171998 -0.003352894133484809 -0.003437650771911705 -0.002740776343074672 -0.002196185974695218
-0.004111306496501322 0.001042059287552563 -0.0014715386352171767 -0.002572836183170507 0.0019120855052213793 -0.00554464810703294 -0.009141790872619552 0.005728163376474174
-0.00037984105826862496 -0.006287356853693054 -0.0019227208616900268 -0.002175327927602316 -0.0014595633510724828 -0.0040667947807000605 0.001587865706744019 -0.0003574498957057943
-0.00097604087554857 -0.002624501488475144 -0.0025337286432715067 0.005120396530122675 -0.0006815499157850412 -0.006924917214523658 0.0028443140752150036 1.9906342863142285e-05
0.0008958801223850694 -0.0021872046324952865 -0.004134214870193899 -0.006190556332265994 -0.0032487624401922534 -0.0005609383185206256 -0.007599533511786401 0.005563549437543751
00000000: 99de 1c3b 69ed 6cbf dfd5 fa34 1d81 68bf
00000010: 6765 5e1c 3490 25bf 52d8 7497 eaa1 82bf
00000020: 45a1 bd20 3990 7dbf 3392 3b41 ff08 6bbf
00000030: e7e2 9bc4 0a85 603f 05e0 b80f 4895 663f
00000040: 4bef da8e d459 81bf 2e0d d148 29c3 5a3f
00000050: fc85 034a 1cb8 5f3f e341 a122 98a1 46bf
00000060: 4212 5ba0 ee3a 56bf 67b6 30d0 850f 6fbf
00000070: 10c6 356b b07e 62bf dc25 22c3 5dad 633f
00000080: c91b b1be 3fc8 80bf 73fc eb1e 7a7a 82bf
00000090: f9af 04a6 4105 7dbf a644 6ef2 c49a 6abf
000000a0: c63b e64c 6804 55bf 3f67 e3fb e370 723f
000000b0: 2f90 feee 1081 80bf 40df b6a7 870a 833f
000000c0: 2c41 bcb2 43b0 80bf 5731 fea5 a101 823f
000000d0: 6b00 9f39 adaa 78bf 763d ac82 5c10 62bf
000000e0: 22b5 5110 38ef 6e3f eb0d 96c0 db7b 803f
000000f0: 7a0a 0613 801b 833f e6c1 d4a1 4684 81bf
00000100: 20e9 8a30 0f0b 4cbf ebe7 14ab ed41 6d3f
00000110: 1191 63dd 4762 6dbf 9abd 68ee cd13 61bf
00000120: 613c bfed bd1d 6cbf 9c61 0d71 968b 6d3f
00000130: b94c ad56 1b50 323f e436 962d 76fc 6d3f
00000140: 8576 17f0 23fc 62bf 8043 8cdd 22bc 51bf
00000150: eabc 7695 6287 7cbf 9270 d824 2dc0 61bf
00000160: cc3c 21df d865 513f 9364 91dd b216 6fbf
00000170: bacd a73a dd6b 6abf 221b c4b2 b9e1 70bf
00000180: 4e53 ea90 44f9 46bf 44e3 c260 46eb 553f
00000190: f95b f2a6 febe 4b3f 0bae 2ee0 4072 69bf
000001a0: 81df 6aad 12a8 4a3f 6e7c 77c2 19e3 6fbf
000001b0: ab90 7e5c 9eb0 51bf 83da 41e4 1f52 60bf
000001c0: e7d9 ba8f 8281 5f3f 6b5c 06be 08ae 7e3f
000001d0: fc02 165d 42b0 59bf ba1b 17a8 293e 6abf
000001e0: 63ea e41c 457c 82bf b35d cb46 21e9 853f
000001f0: c7b5 ecb4 06ea 83bf b90d bc26 7181 63bf
00000200: c7b3 74cd 4981 5abf cd21 7747 cd52 51bf
00000210: 8077 5b08 35a3 80bf 2171 62c7 fcc9 68bf
00000220: 026d 1483 9be7 65bf 3ca2 dfaa 069f 55bf
00000230: 0728 5213 f053 70bf 4c50 b12b 475f e63e
00000240: 7920 36b5 1081 30bf 57a6 0e39 1650 7e3f
00000250: 9df6 1ea7 a140 6fbf f920 4b1f 71a3 82bf
00000260: fc76 fde1 b95a 6abf de82 9da7 a7c8 663f
00000270: cbc7 f1e6 1dbd 5bbf c180 de6f 2a01 64bf
00000280: b2be 2541 f4d2 803f 0be5 c38a 0adf 62bf
00000290: 05ba d6d2 19fa 73bf d030 5de7 1413 6c3f
000002a0: 32da 7d49 a861 68bf c586 21d8 0117 5e3f
000002b0: e367 ae8b 917e 673f d0e8 7942 40de 65bf
000002c0: 6403 9c97 7a0a 6c3f d313 78d2 9ce8 66bf
000002d0: 5a38 e85b d0dd 77bf a689 695a 31ad 6e3f
000002e0: d1fd ce54 8777 6bbf e866 7eb4 4629 6cbf
000002f0: ed01 4b18 d373 66bf 63f3 fd5d bcfd 61bf
00000300: 4111 246f 04d7 70bf c0be dfa3 b612 513f
00000310: 7625 0994 141c 58bf 0d48 78e8 a013 65bf
00000320: 1fbe 922d de53 5f3f 13be 9924 fcb5 76bf
00000330: 3522 9966 eeb8 82bf 6abe e325 6a76 773f
00000340: 82e9 45ec ace4 38bf 5fcd 0981 c5c0 79bf
00000350: bc52 19ce 7980 5fbf d9fc d349 fed1 61bf
00000360: aab6 fe36 dae9 57bf 1289 52e9 57a8 70bf
00000370: 035b fad1 fd03 5a3f ce03 ad9c 036d 37bf
00000380: 4dd7 ecd1 9ffb 4fbf f133 f681 fa7f 65bf
00000390: 05ff 1c35 9dc1 64bf a919 3bfa 1ff9 743f
000003a0: 3c5f a84c 4155 46bf 4714 6c4f 4d5d 7cbf
000003b0: e5dd d77d f54c 673f c6c1 1c77 91df f43e
000003c0: 43f0 d3e9 2f5b 4d3f 9721 b88b e6ea 61bf
000003d0: cf0a 98da 09ef 70bf 32a9 dbcf 445b 79bf
000003e0: 31f2 db0d 269d 6abf 94da d6dd 7d61 42bf
000003f0: d51e 5e3e b020 7fbf 5f93 24ee cdc9 763f

linear_layers.0.layer.weight f8 [100, 139]
-0.056376608913458616 0.032427053265034284 -0.018933122567568864 0.006528684085724755 0.004243451036825094 -0.027015403680615887 0.035083723887763194 -0.0734423725638672
0.08446794950673206 0.07590363958171545 -0.04448563306200683 0.02906490742530931 -0.01859112643710109 -0.00933922173098779 0.05951212656252177 0.07099019898249063
-0.03052938821748993 0.07692787754956401 -0.040264656461875915 -0.02476583350710302 0.05921187614451777 -0.04042263008975118 -0.04034242945812918 0.07398699136315745
-0.02765177127664548 0.0828506435868937 0.02176918440000207 0.014845337403086316 -0.06686722183859674 -0.07324918222124772 -0.08258347958363062 0.0799211481302188
-0.02477755310977231 0.06091244070767686 -0.05045376616928886 0.05954861639630774 0.03477931813773135 0.02359564771888981 0.07832657200849527 0.01400220191677351
-0.010965445096341741 0.0015536265711214125 0.078128959122098 -0.05159413386836913 0.02847969444145147 -0.07229141456611914 -0.0327435609139443 0.032038618273767965
-0.04954584769411935 0.06336458270333692 0.02229831136171977 0.02143873067289401 -0.070538629289968 -0.03296949297092585 -0.010645493897260938 0.08054470266559234
0.005522996727579185 0.05625208803232486 -0.005829463231652033 0.04300361752272386 -0.06439756568306952 0.057732147173894244 0.047781469283929213 -0.07375462632538667
-0.059980716016870744 0.07701836613424816 -0.017755981376906264 0.08087539875587826 -0.07463466267245965 -0.07210698175888904 0.07064787573099267 -0.019439556573789988
0.08463249700555571 0.014703779169176808 -0.036851932283160506 0.03818908593979627 -0.07671261767993562 0.005316012267761476 0.010115152227346522 0.022594269729906843
-0.052308441976626714 -0.07082786998227641 -0.055829489988279225 -0.006509817101960629 0.04159308753526859 0.06671441346729359 0.011022777036125973 -0.004207433835384604
-0.0738148548388165 0.04389040516138616 0.038973864995431075 -0.04054285052148445 0.01652522031100055 -0.044041940704812585 0.059440806789118256 0.006474493600860949
0.06690536548474503 0.042025844885042546 0.07658499193735839 -0.05026029827102173 -0.0034189388089937963 -0.07835366988387005 -0.02555251019572295 -0.07086110826330905
0.08197578469468926 -0.00928172094775465 -0.040375677976754454 -0.059519210072970924 0.00808032716661652 0.05968565075585382 -0.0651445573043087 0.0835833758311799
-0.010887641243469255 0.07768489035419383 0.06401923422552003 -0.07173266776293866 -0.026177851821316274 -0.030705996770978756 -0.05269757656994181 0.08667340973178972
0.0321552664839975 0.034102902848220235 0.0422911358279071 -0.029881321010822498 -0.07853071888958926 -0.03613305393146205 -0.07955761926053728 -0.014681741511668513
0.02822649375531475 -0.018624467489152582 0.0864446401685308 0.00226823709749878 0.057476659335777044 -0.011021920643636536 -0.05409281678011767 0.02068085936766748
-0.011115644016721361 0.04588334884901907 0.041215358077924626 0.06092723576035169 -0.012628168074232208 -0.059569411643804054 -0.025182497053244754 -0.009103906517298423
-0.04930292731930539 -0.03542423460153583 0.02381498425979715 -0.03149688748369017 -0.002285716830519015 -0.06894131574696336 -0.004901575990222627 -0.06510981542165187
0.06958241078324971 -0.03971250537379096 -0.053047113201474566 -0.01286647178609944 0.00744423445553181 -0.057003349297438034 -0.018911387639586937 0.01629758458885454
0.03687131186454956 -0.047538535618393565 -0.061993753519443515 0.01498154631646448 0.034431212573308875 0.05732778674303274 0.010962784032952373 0.04194710037255175
0.08738120610795504 -0.0023633455562838955 0.0682889186627322 0.07035530728752855 0.06653356484975279 -0.022427284364923007 -0.02602848187776041 0.07135612532988606
0.05156226878239382 0.0747811426618377 0.016114386293113597 -0.01529373734973504 -0.046621520099508124 0.08555120821713029 0.03477628493978397 0.08153903727574632
-0.04801786320509622 -0.049374496648535576 0.0064294731448443325 0.08716107198633083 0.07665624841931717 -0.0675259319395476 -0.053704183741759136 0.05880548729843617
0.015568075548033357 -0.004113632827347721 -0.022054575968140266 -0.07810034247695698 -0.03635810356243808 0.013171657757459133 0.07089503074250993 -0.00038778970973645145
-0.030564001988661375 0.08390947824397922 0.007952319316775454 -0.033120275608871506 -0.016756699943135275 0.07791319855297003 -0.02880152163505159 -0.05498747140176122
-0.03349907921508397 0.0009614282399394998 0.06887930678027408 -0.07702483017356143 -0.05374028757378281 0.057202471283504634 0.050761981085789866 0.045334958105601675
0.0035315944251976777 0.027155211001483118 -0.0020818111585534913 -0.04486696169196674 0.03399781330879808 -0.050499699680647096 -0.00010711892939112244 -0.0006491578816773475
0.03271318420833925 0.019747844131476903 -0.05375383997981714 -0.02056621035942587 0.05083556927570762 -0.044595590824460636 0.011652482455230172 0.027503919227212657
-0.04848371790805804 0.019538455002975134 0.08553764997797378 0.02600616191649965 -0.04684229510521172 -0.07368842512232325 -0.03635741320369042 0.014207950428729927
-0.026360647931350043 -0.022459516494365415 -0.04234900624413316 -0.04361829791517082 0.021414874584488208 -0.057326054477245036 -0.07132815784111102 -0.023916163844864908
-0.046013535650138916 -0.02600249692470177 -0.002760117677197788 -0.0012546564047395431 0.006813327033268366 -0.03451091159131112 -0.06481351351915794 0.07657935656031276
00000000: 0ddb 1517 65dd acbf 74d5 8e5a 479a a03f
00000010: c499 f458 3463 93bf b249 254a d2bd 7a3f
00000020: 7032 ceb6 9461 713f 4f99 2f0d eda9 9bbf
00000030: 768e 706d 7ef6 a13f d76d 4d8c 1ecd b2bf
00000040: 460c b108 b19f b53f 629d a6c1 6b6e b33f
00000050: 524e 4926 d2c6 a6bf 3e71 69eb 30c3 9d3f
00000060: 902f 2c60 8d09 93bf 86cb 3c1f 7120 83bf
00000070: db56 9a9a 5f78 ae3f 6361 f7e6 692c b23f
00000080: 3712 d88f 1843 9fbf badf 399e 8bb1 b33f
00000090: 2d7a 60ad 919d a4bf 3a7f e2f3 365c 99bf
000000a0: c6a8 26df 0451 ae3f 5af0 8164 46b2 a4bf
000000b0: 63e4 534e c3a7 a4bf 40f4 3bbc cff0 b23f
000000c0: b118 3df5 be50 9cbf c483 a824 b335 b53f
000000d0: 3c02 3c3c a94a 963f 699c 2775 3b67 8e3f
000000e0: 499d f8d2 351e b1bf 4d58 195a 75c0 b2bf
000000f0: 5d67 00e0 3024 b5bf 3a62 7a5d b675 b43f
00000100: d020 2071 495f 99bf 1e9d 8459 ea2f af3f
00000110: ee72 5077 13d5 a9bf 056d e3ff 277d ae3f
00000120: db1c f543 98ce a13f 694d 1f1d 7529 983f
00000130: ba2c 2fd1 350d b43f d0ad 6fba 2fad 8c3f
00000140: 2656 9920 0d75 86bf 2edd 0ad4 6174 593f
00000150: 54c8 4c6c 4200 b43f 569b 42db 8b6a aabf
00000160: 9b88 e7f0 c729 9d3f c3d2 57ad b081 b2bf
00000170: d658 8f96 c3c3 a0bf dfc4 63a3 5d67 a03f
00000180: e867 ffc6 125e a9bf 327e 6f4a a938 b03f
00000190: 1dec 3758 5ed5 963f 796b 6edc 08f4 953f
000001a0: 57b3 e7d1 d10e b2bf fbd2 269c 60e1 a0bf
000001b0: a0a7 1b01 4ecd 85bf 5194 d0df 939e b43f
000001c0: 1646 2225 489f 763f d270 dcdc 12cd ac3f
000001d0: 1a4e ee9e a2e0 77bf 5055 bdf5 9104 a63f
000001e0: ef00 8dde 5b7c b0bf 1858 1468 118f ad3f
000001f0: cdcd db0f d076 a83f 5909 ff4b 95e1 b2bf
00000200: 54c2 5ddb cab5 aebf 47ea bcc3 79b7 b33f
00000210: 21ee 49bd 9f2e 92bf da1b b508 40b4 b43f
00000220: 3f82 53db 411b b3bf fdba 7768 9a75 b2bf
00000230: 7be6 cbab fa15 b23f 11c4 ee8e f6e7 93bf
00000240: 7553 d1ae 79aa b53f 5e15 46d5 031d 8e3f
00000250: 8db2 e6a7 41de a2bf cbe2 5916 858d a33f
00000260: 5639 2028 70a3 b3bf 92db 5c2d 3ec6 753f
00000270: d288 15c0 40b7 843f 3c8f 44c6 f322 973f
00000280: 694b 300f 2cc8 aabf a01e 3879 c621 b2bf
00000290: 65d5 4dd3 ae95 acbf f9cf e4b8 09aa 7abf
000002a0: 0144 686d b04b a53f 8a8b 0320 3214 b13f
000002b0: 7fd2 0c17 1c93 863f 1fa8 916b d03b 71bf
000002c0: 54e0 7dc3 87e5 b2bf da7c 8d9d cd78 a63f
000002d0: 6db2 1be7 61f4 a33f e31c 2752 08c2 a4bf
000002e0: 5b05 2ec3 fceb 903f 6e86 f54d aa8c a6bf
000002f0: 540b 6a82 066f ae3f 08ba 61a4 ff84 7a3f
00000300: 8914 afc4 b520 b13f fc6d bc5a 6984 a53f
00000310: bb41 bcf3 129b b33f eef4 b8c2 b7bb a9bf
00000320: fa95 e4cb 0802 6cbf c03c ac71 fc0e b4bf
00000330: ab3f 7cee 6f2a 9abf 309a 8c1e f423 b2bf
00000340: 69df 5372 5dfc b43f 62a0 5e7f 4b02 83bf
00000350: d08f edf0 1eac a4bf 448c 7e49 4d79 aebf
00000360: ed6e 5f27 6b8c 803f 9ae0 121c 1e8f ae3f
00000370: 4968 224f 50ad b0bf 5f27 af59 b865 b53f
00000380: e4fb 9178 424c 86bf 93f0 762f 28e3 b33f
00000390: 4846 5085 9063 b03f 62be 1876 125d b2bf
000003a0: 02f0 cee5 5dce 9abf e592 b08f 6471 9fbf
000003b0: c488 e43f 2dfb aabf a818 3b84 3a30 b63f
000003c0: 44c8 e2b3 a776 a03f 1c11 dd88 ef75 a13f
000003d0: ae46 950a 2fa7 a53f 98d3 0282 3599 9ebf
000003e0: 36b6 5cd5 961a b4bf 5166 e119 0880 a2bf
000003f0: f822 df5c e35d b4bf 21a6 20fd 7511 8ebf
00000400: c942 3dee 67e7 9c3f 5fd6 15db 4a12 93bf
00000410: 3f36 7066 3c21 b63f e216 e884 d694 623f
00000420: 4ed0 42a8 946d ad3f 57d2 a025 a992 86bf
00000430: ceca 09be 0db2 abbf 399a 8cfa 5c2d 953f
00000440: b4d4 347c ccc3 86bf 1899 79b5 057e a73f
00000450: 5d42 13ee 2d1a a53f 4783 0dca da31 af3f
00000460: 1506 1907 ccdc 89bf 7446 b4c5 e17f aebf
00000470: ece8 19c5 70c9 99bf 81a4 0fa6 11a5 82bf
00000480: 4df1 ddb8 3b3e a9bf 39e8 3212 2023 a2bf
00000490: 2bcc 338a f462 983f b023 562b 5c20 a0bf
000004a0: d0af 1ee1 7eb9 62bf 7ef6 7958 23a6 b1bf
000004b0: cbd6 3ac9 ac13 74bf 9274 e26f 09ab b0bf
000004c0: 83de b022 27d0 b13f 3933 a58f 3255 a4bf
000004d0: 2cf1 b1c0 fd28 abbf 3825 4a9c bc59 8abf
000004e0: abf7 7b78 d87d 7e3f 856b fd01 8b2f adbf
000004f0: af6b bcbd 815d 93bf 1c6f 4063 50b0 903f
00000500: d8da 3ced cbe0 a23f 0abc 8f8f f856 a8bf
00000510: 0637 d82f a5bd afbf a123 c81b a5ae 8e3f
00000520: 868f edc7 f7a0 a13f 3041 6d52 115a ad3f
00000530: c439 28f7 a773 863f 1b37 8620 177a a53f
00000540: adc9 845e 9d5e b63f bdc7 f27b 4b5c 63bf
00000550: 6eec 55f0 617b b13f 2564 e62f ce02 b23f
00000560: 16b1 1dfd 5708 b13f daaf 8a93 2df7 96bf
00000570: 5fd1 b7d9 35a7 9abf 5440 a920 6544 b23f
00000580: c581 41a4 5e66 aa3f 0311 1762 db24 b33f
00000590: a802 7f28 4a80 903f 7b7c 01ae 5252 8fbf
000005a0: dc00 3ca0 c6de a7bf 3b05 6d19 afe6 b53f
000005b0: a949 fc7c 32ce a13f 0258 720a bedf b43f
000005c0: d9eb 2d20 cc95 a8bf d44d b930 9d47 a9bf
000005d0: 8cad 338e ca55 7a3f 4864 aa21 3050 b63f
000005e0: 90b9 fe6f be9f b33f 81f1 4f25 6149 b1bf
000005f0: e390 a861 1d7f abbf 3254 8bb9 c01b ae3f
00000600: 6143 b9ba 27e2 8f3f 3c1e 61e7 74d9 70bf
00000610: b38e 0a8a 7995 96bf b9b3 be50 62fe b3bf
00000620: c191 7d83 879d a2bf 544c 6bfa bdf9 8a3f
00000630: 39ed 7c3e 2d26 b23f 21b3 fc1e 086a 39bf
00000640: 9e9b e773 2b4c 9fbf 59df e170 177b b53f
00000650: 91a8 243b 4e49 803f 3b33 2609 24f5 a0bf
00000660: cf85 fa18 ab28 91bf f535 b68f 1ef2 b33f
00000670: 6886 fd65 257e 9dbf 3479 b85e 5127 acbf
00000680: 5d8c 5993 ca26 a1bf 06f8 8a6c 0b81 4f3f
00000690: c70f fe01 13a2 b13f 704d 9336 e6b7 b3bf
000006a0: f2cc 36d3 d883 abbf df78 d36e a449 ad3f
000006b0: ed8a 4971 79fd a93f 98b1 dbc4 2436 a73f
000006c0: f7ff e251 4aee 6c3f a45d ab5c 93ce 9b3f
000006d0: 7d3a f5da df0d 61bf 7798 466a cdf8 a6bf
000006e0: 57f6 9750 2968 a13f 8722 2cbd 18db a9bf
000006f0: df8b ae31 a114 1cbf c855 95ef 8745 45bf
00000700: 614b a550 c8bf a03f 8144 d862 c738 943f
00000710: b8d6 7e91 9f85 abbf 65e7 9503 4f0f 95bf
00000720: 7c81 06a7 1e07 aa3f 0112 46b8 3bd5 a6bf
00000730: ecd9 7fb8 41dd 873f c9ed 5ec6 fc29 9c3f
00000740: 4e71 9b9d dbd2 a8bf 8132 0285 e301 943f
00000750: 6a6a 3ba1 cbe5 b53f 2711 b4fb 5ba1 9a3f
00000760: 4aca 179b b6fb a7bf db7e fe9f 3edd b2bf
00000770: eaa0 5a59 709d a2bf 4a07 7ad3 0e19 8d3f
00000780: 39ea 1023 49fe 9abf 6620 4fa3 a0ff 96bf
00000790: 9d5d acd9 c4ae a5bf 530e 1b36 2355 a6bf
000007a0: c009 f4e7 c7ed 953f b080 6032 d759 adbf
000007b0: b824 36e9 8f42 b2bf 55e6 3c96 7a7d 98bf
000007c0: 95d3 940d 168f a7bf 57ad 9f07 66a0 9abf
000007d0: 5b7d 03e5 629c 66bf 0dfc 770e 698e 54bf
000007e0: bdb4 8e8c 4ae8 7b3f 9d97 4709 6aab a1bf
000007f0: c554 e750 9e97 b0bf 0eab f967 b49a b33f

linear_layers.0.layer.bias f8 [100]
0.04127998468895607 -0.021315465607681362 0.07874714959617414 0.007236715573160491 -0.023144104738959656 0.07683062146689883 -0.05383857601666641 -0.04931685930791388
0.06192116356902449 -0.038744621540012174 -0.017429397100251664 0.07545837070598073 -0.009797484667622173 -0.014279151954242867 -0.07795205260711124 0.05462931176101478
0.031183204023699253 0.042858412021233305 -0.031173075052656825 0.005822880088286366 -0.045605527140348476 0.012786640156418996 0.009305498456231262 -0.0609592851378753
-0.027628556520593116 0.028904859261884044 0.01876953547773109 -0.03247750795456924 0.009532102998994867 0.02618469097191783 0.03528357316627891 -0.0659186764570188
0.050742185253982774 0.006870663142480529 0.06964838048532132 0.008129518972355775 -0.01796530212400117 -0.04782125932387232 -0.07296977300820874 0.005856569300386294
0.017010303067768278 0.010176077792779698 -0.037705034096451075 0.011541962977474769 0.06583525676844659 -0.02138507967597288 0.023639044152561534 -0.007372028757227235
-0.03352679546473913 0.06751745958695723 0.011911455209780705 -0.07736299716135615 0.04444179016230327 0.013594693752779382 0.03384278121806893 0.08518066867776669
0.005697565084925339 0.007240702076054912 0.09314813896315731 -0.05324893371351135 0.028611884106938167 -0.06893362463231728 -0.010480536747709948 -0.07810082261649245
0.02750931595274982 -0.06978960965700616 -0.029589178189236075 0.06675977155807154 -0.02317926027262223 -0.07842708788125793 -0.015016597815524066 0.0305936374816953
0.03100902999001072 0.03710040994966131 -0.0473101620167972 0.017976431890282397 -0.05905303908327224 -0.053414499448761435 -0.07010482503192436 -0.05529665930704244
-0.023385642923616636 -0.05614986809467012 0.0461125691011178 -0.04778386157456332 -0.06688623487225145 -0.0774450924792251 -0.01670802458355341 -0.043460826874497566
-0.019672648261580043 -0.05416720581562675 -0.0722846647294749 0.033894629706376515 -0.027513647962851464 0.05096309889443065 -0.05041606697634791 -0.039600512750809225
-0.04485423658190613 0.07053458987826845 -0.004127612846791892 -0.045812807884548404
00000000: 4bd8 6f70 a622 a53f 9a6b bcae b8d3 95bf
00000010: a935 2bf0 c528 b43f da8f 790b 3fa4 7d3f
00000020: 9cce cb93 16b3 97bf 931c 88ee 2bab b33f
00000030: 1f74 82d6 ba90 abbf 84e3 bc33 0f40 a9bf
00000040: c71f eb78 21b4 af3f 370c d2c4 55d6 a3bf
00000050: 7368 230a 03d9 91bf f941 6462 3d51 b33f
00000060: af0f d821 b410 84bf 6fc3 4355 633e 8dbf
00000070: 7886 9a6c aaf4 b3bf 9a45 d586 5ff8 ab3f
00000080: 8779 dd65 7dee 9f3f b0b8 faab 89f1 a53f
00000090: 72b8 77a7 d5eb 9fbf 8f75 c378 bbd9 773f
000000a0: 8e55 2b8f 9b59 a7bf 9b5c 61ca e12f 8a3f
000000b0: eb05 57dc c20e 833f 6103 1c30 0e36 afbf
000000c0: f63b c40a a94a 9cbf 67ae e644 3c99 9d3f
000000d0: c3e0 2634 5238 933f 0b79 0a55 e4a0 a0bf
000000e0: 3c6d 2435 9185 833f 2f61 85dd 28d0 9a3f
000000f0: 2b9e ab41 b010 a23f a218 94df 0be0 b0bf
00000100: 3009 6334 e1fa a93f 8307 fb97 6924 7c3f
00000110: ba60 67ec 79d4 b13f 6ca5 f290 35a6 803f
00000120: 8364 5704 7f65 92bf 68fa b231 077c a8bf
00000130: 69b3 aaa4 25ae b2bf 3369 cad9 0efd 773f
00000140: 1b05 7c1d 266b 913f ea83 920a 32d7 843f
00000150: 1d7a ad00 134e a3bf b7bf 280c 50a3 873f
00000160: 9086 be52 94da b03f f597 5267 f8e5 95bf
00000170: b501 2d66 d534 983f 28ed ade6 2132 7ebf
00000180: bf18 1f94 6c2a a1bf 72c1 d500 d348 b13f
00000190: 5e18 9774 0865 883f 4583 bab6 0fce b3bf
000001a0: 5944 a506 13c1 a63f 9ee0 89e8 88d7 8b3f
000001b0: 8f17 134d d753 a13f 7cf0 387a 66ce b53f
000001c0: e82c 4e7b 5456 773f ae25 de29 6da8 7d3f
000001d0: a7af 8772 8ed8 b73f bf5b b1b9 7143 abbf
000001e0: a3a1 100a 6f4c 9d3f 9cfa 634f a2a5 b1bf
000001f0: a886 9bd4 d176 85bf 4ab4 ed5e 6afe b3bf
00000200: 55d9 68f1 662b 9c3f 95d3 135b bbdd b1bf
00000210: b39a 8d22 a04c 9ebf e7c4 871b 2b17 b13f
00000220: 4efa 43d3 4dbc 97bf a60d 9231 cc13 b4bf
00000230: 656f 1ea4 05c1 8ebf c059 cc41 f053 9f3f
00000240: 3449 c0c6 d4c0 9f3f 6ad1 cd2e d3fe a23f
00000250: b5de 429d 0939 a8bf ba27 45ec 6968 923f
00000260: 0623 2f2f 333c aebf f27e 8730 2559 abbf
00000270: 86cd cdca 63f2 b1bf b385 9afe d74f acbf
00000280: d722 36ee 67f2 97bf 5b5b 48ee acbf acbf
00000290: 4c9b 7210 119c a73f d78a 7a55 2077 a8bf
000002a0: 7232 54cf 741f b1bf 7c18 6f0b 71d3 b3bf
000002b0: 0e23 ab8c e81b 91bf 1c8a 2a5c 7f40 a6bf
000002c0: ae04 a313 1125 94bf b3d5 fcd2 cdbb abbf
000002d0: 86f2 036f 3f81 b2bf 47a5 320c a35a a13f
000002e0: 37c3 c6a8 892c 9cbf 74d9 1bd6 d517 aa3f
000002f0: cd74 b67d 22d0 a9bf 20d0 56b6 8446 a4bf
00000300: 91a4 696e 22f7 a6bf 4991 c30c 8e0e b23f
00000310: a315 00a3 1de8 70bf 0a42 34bf c674 a7bf

linear_layers.1.layer.weight f8 [100, 100]
-0.02080363985615285 -0.08716430517218428 -0.01908484544141184 -0.0817047580755042 0.020241271081516667 0.06265127309338948 0.055332984042199315 0.05118105894075761
0.024775277780154207 0.0898105783740404 0.018926619134018646 0.03974877214932161 -0.016798274447006035 0.0955751576297889 -0.07210661531576668 -0.04499346397992781
-0.06942840091284447 -0.05278080954415364 0.06179313591095015 -0.015233307447249846 0.08969338729135867 0.05406085738142938 -0.014729358700066806 0.05382040843741398
0.08854805139336568 0.04064205111776218 0.05156959923841321 -0.0033302591040788067 -0.03782590516721089 -0.07414865426875683 -0.07249136476495563 0.05826905569338412
0.07236880769582686 0.05027428594554231 0.04211913827213428 -0.08960460532942714 0.06571989774106837 0.030974582727084785 0.08068212030330876 -0.03512148783434042
-0.030553849310171785 -0.019659594338356384 0.01567254736292964 0.06228697279318528 0.049788019367756946 -0.04989551037628146 -0.07223279913747332 -0.09323965958536577
0.07393920843794206 0.08072898818908295 0.07812944706039163 0.09680627355872003 0.08740528467482964 0.042654176034050556 -0.06292363794743565 0.08731911207692356
0.029227942435459293 -0.05006332385750547 -0.01074683255831106 -0.054809376655492355 0.018381645503107946 -0.0071240336692878865 -0.09265833316535348 -0.07542931823359426
-0.032671513198524356 -0.018831098912804566 -0.03641634163608914 0.06918364110587583 -0.026323030259054293 -0.06262697297702274 -0.06081530158049766 0.046021473569924164
-0.04991640393264955 0.09034820333384866 -0.05015382464471994 0.01024088871002943 0.001769629976719865 0.01821919209272193 0.023947358485130504 -0.09676527166460662
0.07667422278536917 0.06651624994471088 0.002649569364280419 -0.014911580019535506 -0.077546977053064 -0.08453359154861818 0.08121931869337805 0.0682590754029071
-0.009009590862604975 -0.07226320051633718 -5.095931323895809e-06 -0.06873068487129802 0.034218508065235805 -0.02904487368253616 0.07354924806888875 -0.06796503023224566
-0.05855007182817639 0.06464466399199251 -0.0527147006784305 0.053418456504422104 -0.009411066556229827 0.06732162849296419 0.05048732219958657 0.08817372649445142
0.014807532750159455 0.004534878345223042 0.005521111094479007 -0.10815174021511743 0.042527101430794516 -0.057757259942374045 -0.05725472907154333 -0.03635769803424656
0.05246603719099702 -0.04662958426451504 0.06970043398757575 -0.10149505274506576 0.07336711986171766 -0.08773668060353089 0.07813936732788873 0.030395481430667722
0.08567285965376935 0.005964422713712192 0.10101938758707697 -0.01998116778371368 0.05834878979190545 -0.0799718621741755 0.06827061944039002 -0.01339568360299222
-0.004182436613508757 0.035707726834524924 0.07040190043555893 -0.0050784519767875114 -0.053267405535096034 0.05867907618800883 -0.008628418815369129 -0.06801599156069571
-0.06908464660228708 0.08941601309238202 -0.0014595326114742815 0.0694166102392808 -0.08839793524801075 -0.07560778317056994 0.010773834154238602 -0.0048596174155514146
0.03715166564528128 -0.02718378459694908 0.008617671562172085 0.07860308385347994 -0.04296436544445964 -0.07419756628748189 0.0802495941220619 -0.027182967700128808
0.03380022110576593 0.072189953582258 -0.021967595602002173 0.01681235673304297 0.09483792209734071 -0.007752845795955392 -0.04782188498136208 -0.011719903776848992
-0.07004469991400515 -0.05479494772114708 0.046750587457326784 0.054126254423025245 0.03361959479484879 -0.05543831903793196 -0.07767520486769122 0.0497972460098666
0.08981446210095605 0.08798085448000746 0.05307872117887304 0.0671455786962062 -0.024770312906986388 -0.06364770475096507 -0.007783918190707525 -0.046364491430978344
-0.015865957883246153 0.06714892286081398 0.053977539677264104 -0.06402683331235562 -0.0782338291888445 -0.004272371027427707 -0.054833854978157064 0.02692548013285887
-0.030042115256711136 -0.07923177735101336 0.06119433123007655 -0.06268048430373968 0.09857290433633645 -0.08490157197909577 0.0729286289851974 -0.03369755484482447
-0.04946229796875919 -0.04807321245503126 -0.05134777817211773 -0.07921041683911614 -0.060413172612985185 -0.07368169121638324 -0.08577017960876027 -0.09191810643125205
-0.017109562002363306 -0.0749206408368671 0.027985837166773504 0.08084782569551835 -0.007159885907742179 0.07323412752025797 -0.06583815344902298 -0.05463313064586369
0.03894675686567488 0.044141075410398585 -0.032670618413810665 -0.09533237975841191 -0.08603246777136853 0.015810836483019265 -0.005190246983932394 0.009911303690252652
0.08400012459035273 0.06263510696518022 -0.06764116508644949 0.056702953046171914 -0.0969368235179409 0.006425180598136647 -0.05820389140422403 -0.031407212687779976
-0.07362186626635392 -0.05142224071701313 -0.10050501208195742 0.04905204576800603 0.07439798345527848 -0.07630107787847419 0.025694557478979266 0.051743912271704
-0.0007744425943087485 -0.03351371293449251 0.0029412044668820944 -0.04489683363123192 -0.059532835964505273 -0.08203522994435125 0.02614072507444637 0.03183305304948255
0.02525922330925973 -0.0027013201423654425 0.05231985675743714 0.01026633555331242 0.08722351616369059 -0.04396772155317326 0.038505604467044985 0.037530105499327136
-0.0337362214669692 -0.06344590680487003 0.03576678843210555 0.05228942567558027 0.0015817109309899935 0.03152008614755094 -0.04018431531251006 -0.07368121305665748
00000000: fe9d 47a3 8c4d 95bf 15d5 1760 6650 b6bf
00000010: 788f 144c fa8a 93bf 54a4 dc5f 9aea b4bf
00000020: ea5f 4cb5 20ba 943f c126 fdf0 e909 b03f
00000030: 4ee2 b3d9 9a54 ac3f ec80 a65c 6734 aa3f
00000040: c1a3 42bf b05e 993f 918b f378 d3fd b63f
00000050: 6b5d d1e8 7f61 933f f2fe df78 f359 a43f
00000060: ed38 841d 9133 91bf 1b7a 5410 9d77 b83f
00000070: a841 9b42 9475 b2bf d7b3 a720 6209 a7bf
00000080: fc90 5547 0fc6 b1bf 6e74 b215 1606 abbf
00000090: 30aa b593 59a3 af3f 4ee7 5dea a332 8fbf
000000a0: 0877 1555 25f6 b63f dcd7 e45c ddad ab3f
000000b0: 9f41 430f 6d2a 8ebf 302e 313c 598e ab3f
000000c0: 93e9 dbc8 15ab b63f cd4a c9f0 08cf a43f
000000d0: 71c4 649c 5467 aa3f 0821 0e3e 0f48 6bbf
000000e0: 5600 45c3 ea5d a3bf d070 20fd 67fb b2bf
000000f0: 8e6b e848 cb8e b2bf 6dce 2411 71d5 ad3f
00000100: cfd8 4d1e c386 b23f c484 ee1b 8dbd a93f
00000110: cb3b d4c2 a390 a53f 07fc 75d1 53f0 b6bf
00000120: ea8d 7eeb 04d3 b03f e9c1 470f cdb7 9f3f
00000130: 2e1c 135c 95a7 b43f 1e4d 4593 71fb a1bf
00000140: fc65 371e 8249 9fbf 3b87 f10a a521 94bf
00000150: 18a5 79d9 760c 903f 2e26 3afe 13e4 af3f
00000160: 2792 d5b5 d07d a93f 3d14 9182 e78b a9bf
00000170: cc75 fe45 d97d b2bf 53fc 9be8 8dde b7bf
00000180: 1512 2212 aeed b23f f27c 1cac a7aa b43f
00000190: 2a9c fa9b 4a00 b43f 1d7a fbc2 4bc8 b83f
000001a0: ee0b 2d57 3160 b63f 3449 35a6 c4d6 a53f
000001b0: 332c 2177 c31b b0bf 38a7 af9a 8b5a b63f
000001c0: 3205 8f03 eeed 9d3f c3e2 6465 e6a1 a9bf
000001d0: 67ff fc72 6f02 86bf 91bc 7f80 f90f acbf
000001e0: 604b 2159 a3d2 923f cbcb 003a 172e 7dbf
000001f0: 13a6 a5de 74b8 b7bf 9b0d f9f6 554f b3bf
00000200: 11a1 6511 52ba a0bf e6b6 e9a7 7548 93bf
00000210: f7e2 bba8 29a5 a2bf c8ca f7e3 04b6 b13f
00000220: cd84 60a8 6cf4 9abf 5ca6 c840 5208 b0bf
00000230: 33ec c4e6 2e23 afbf f308 cb67 2090 a73f
00000240: 766c d994 a48e a9bf aa3c 9252 0f21 b73f
00000250: bd9d 3c19 c3ad a9bf a17f bbd0 2cf9 843f
00000260: f9ec 10b8 5dfe 5c3f 7e87 ca48 0da8 923f
00000270: 5baf 1306 a885 983f 7323 30dd 9bc5 b8bf
00000280: 7033 4fff eba0 b33f ab43 2a7e 3507 b13f
00000290: 2703 94b8 8cb4 653f b8ee 1f64 f689 8ebf
000002a0: f7b8 5862 1eda b3bf 695f 1d53 fea3 b5bf
000002b0: ef69 970d caca b43f 30bc 8240 6d79 b13f
000002c0: 3282 d7d0 9e73 82bf 7905 ec52 d77f b2bf
000002d0: 799c adef b65f d5be 0c00 c18b 5598 b1bf
000002e0: 49bf 1d9a 1685 a13f 3eef 547a f0bd 9dbf
000002f0: b9ec 199f 1fd4 b23f 6180 1efe 2766 b1bf
00000300: 5f66 5c67 46fa adbf 46de b47d 8d8c b03f
00000310: db54 ddd6 6bfd aabf ceea 60f7 a959 ab3f
00000320: cbc9 a2f8 1b46 83bf 88d4 b080 fd3b b13f
00000330: 0870 6b6b 79d9 a93f 77fd a8a7 8d92 b63f
00000340: 45cb 2b67 6953 8e3f 06f5 f122 2a93 723f
00000350: c4f6 69f9 4d9d 763f 19bb 3a1b d5af bbbf
00000360: 2f89 adbb 1cc6 a53f 143e 1e0d 5c92 adbf
00000370: 28a7 cee9 7d50 adbf 3aa5 07e8 799d a2bf
00000380: 98a8 c513 d4dc aa3f e263 e236 d5df a7bf
00000390: 805f 7e3c e3d7 b13f 30f0 3e6c 94fb b9bf
000003a0: e364 6804 30c8 b23f 1f0d da3d e975 b6bf
000003b0: e012 340b f100 b43f 7f79 c33a fe1f 9f3f
000003c0: 0724 5e12 a8ee b53f 5a2a eb87 266e 783f
000003d0: 39cd f215 68dc b93f 12f2 aa78 f175 94bf
000003e0: 19b7 d57f e4df ad3f d767 a334 0979 b4bf
000003f0: d72d c6ed 2e7a b13f 6afc db37 326f 8bbf
00000400: c2d2 8f47 9a21 71bf bd04 f07d 4848 a23f
00000410: df6c f2e3 db05 b23f 3247 7992 24cd 74bf
00000420: 7398 6e89 dd45 abbf 30bd 5f12 2f0b ae3f
00000430: 7e8e 06c5 c6ab 81bf 00b3 5bfb 7e69 b1bf
00000440: a802 d009 88af b1bf f171 f8c3 f7e3 b63f
00000450: a5ca 5b35 b9e9 57bf 3fe2 c676 49c5 b13f
00000460: e793 ec40 3fa1 b6bf 8168 0a1c 085b b3bf
00000470: 3f86 c28a 9710 863f 8610 ef9d ade7 73bf
00000480: 4177 e009 8b05 a33f ed36 4de7 10d6 9bbf
00000490: c3b3 374c 24a6 813f 02f4 83ea 541f b43f
000004a0: c866 f4e0 6cff a5bf 52c4 a598 9cfe b2bf
000004b0: f882 45c6 3c8b b43f 1501 1f15 dad5 9bbf
000004c0: fa60 7e38 434e a13f 694d bc71 0a7b b23f
000004d0: afba ba62 ac7e 96bf 0b32 5929 4237 913f
000004e0: fc23 d44d 4c47 b83f 9f1d 50b2 72c1 7fbf
000004f0: 1f59 0e30 1c7c a8bf 987d 78db 9a00 88bf
00000500: 7d87 630f 73ee b1bf fa8e e558 150e acbf
00000510: 1661 6568 b1ef a73f 2528 34b9 6fb6 ab3f
00000520: 821b 4c68 9636 a13f a21f 6d4e 6962 acbf
00000530: d2e8 9db0 85e2 b3bf 0424 164e 067f a93f
00000540: b372 6ea1 14fe b63f b76f aacc e985 b63f
00000550: 624d 2757 222d ab3f 293a 92e0 7330 b13f
00000560: 9f86 638f 635d 99bf 9af0 5e4a 374b b0bf
00000570: d670 05a1 07e2 7fbf 1490 c82c 16bd a7bf
00000580: d7bb e968 2a3f 90bf 4019 a6fb ab30 b13f
00000590: d9c8 43af f1a2 ab3f 5a9c 2403 1064 b0bf
000005a0: 7293 ced9 2107 b4bf ed47 6ddd e77f 71bf
000005b0: 7f88 b0db 2e13 acbf ba1e 6662 5a92 9b3f
000005c0: 71f6 1e3a 5cc3 9ebf 5ecc 86a4 8848 b4bf
000005d0: efe3 aa06 dd54 af3f c497 2e06 d40b b0bf
000005e0: 0674 65e8 123c b93f 117a 0703 1cbc b5bf
000005f0: 83fc 6e5c 73ab b23f 0b02 0750 ce40 a1bf
00000600: 0b58 5250 1f53 a9bf afb4 9d56 0d9d a8bf
00000610: 8a69 f187 414a aabf 9297 d345 2247 b4bf
00000620: b1a1 3db1 79ee aebf 389d 16a6 cddc b2bf
00000630: 9444 64d4 08f5 b5bf 4550 08ed f187 b7bf
00000640: f202 ff44 2b85 91bf 9790 30c6 ff2d b3bf
00000650: 22a7 87bd 51a8 9c3f 34a1 506f 71b2 b43f
00000660: f1ca 113d af53 7dbf d38d a6c6 78bf b23f
00000670: 5780 e4eb c4da b0bf 6bdd cdaa dff8 abbf
00000680: d6f2 0b4e d4f0 a33f 818a 98b6 a899 a63f
00000690: 2c3c 410b 34ba a0bf 68ee 4fed b367 b8bf
000006a0: 38e2 784b 3906 b6bf 5ac7 7746 b730 903f
000006b0: c5ce dd50 5e42 75bf d5d0 aea9 604c 843f
000006c0: bdb9 f93b 0881 b53f 8d35 ffb7 da08 b03f
000006d0: 02de e86f ee50 b1bf 5201 d761 2b08 ad3f
000006e0: 63a5 c906 dad0 b8bf 5864 a348 4a51 7a3f
000006f0: 0583 2984 e6cc adbf fa7e b42e 9b14 a0bf
00000700: 006d e2f3 e1d8 b2bf 094e 5514 0454 aabf
00000710: 2ae1 f94b b2ba b9bf 0f3f c088 591d a93f
00000720: 482a d409 bf0b b33f 7939 23aa 7788 b3bf
00000730: 34c9 3a90 ac4f 9a3f 39b8 f295 2d7e aa3f
00000740: c265 bece 7e60 49bf c8d7 0a9a b528 a1bf
00000750: 471d e01f 2718 683f 67ba 47c0 b7fc a6bf
00000760: dae8 027f 167b aebf 9417 bbc5 4200 b5bf
00000770: d065 275d a2c4 9a3f 5b08 8f03 6c4c a03f
00000780: 917c 24c8 8ddd 993f d80a 5c35 1421 66bf
00000790: f4c0 6813 abc9 aa3f 2523 9c3b 8406 853f
000007a0: 567c 5dc5 4754 b63f 1a10 4dec ef82 a6bf
000007b0: 701e ccaf 01b7 a33f 2357 785f 2537 a33f
000007c0: 6151 c8bf df45 a1bf 3ebf caae fd3d b0bf
000007d0: bd9b 3245 0650 a23f 120f 68fa adc5 aa3f
000007e0: 80d9 192e 2dea 593f 8b77 5796 6623 a03f
000007f0: daa4 28e0 0993 a4bf 8c6f 68a0 c5dc b2bf
