4_Poisson_2D/logs/models/2024-01-02-16-10-01_2d_poisson_rbf128_100X5/epoch_18000.pt (torch, 440187 bytes, 14 tensors)

rbf_layers.0.centres f8 [128, 2]
00000000: f1b5 328a c44d c4bf b357 832c eba9 df3f
00000010: cdfd 7705 cf01 de3f ab4e 712c 6773 f23f
00000020: bdc6 dad3 c09a c7bf 6a79 f500 19a1 e9bf
00000030: 2116 0488 f255 ccbf b0e6 3033 66e5 e7bf
00000040: 3f70 b4fb c9eb e13f be80 4e82 3824 cabf
00000050: a0e2 75a3 8844 f1bf 4b11 777a 6516 d03f
00000060: a219 119a 3994 edbf 01b8 ddf5 f468 e2bf
00000070: 7c61 3568 f21c e43f 3fbf 565e 1351 e43f
00000080: 8383 b4b6 1a1d e23f 583b d8a7 c610 e93f
00000090: 4171 e97e d216 f6bf 5342 9b58 2f1a e3bf
000000a0: 45e4 1d54 df66 e73f 949b c6cc d6a5 ebbf
000000b0: a74c 9451 6b8f f53f e401 6d91 ef40 d9bf
000000c0: 1f2c ba9b 5e11 d93f 0124 f1e9 576e c23f
000000d0: 87e7 3b32 941f e33f 7e63 b723 4e69 f43f
000000e0: 6e99 9df6 83da e5bf 8d0c c00d 406c cc3f
000000f0: 5426 c1ad f7e9 c0bf 086d 3417 1e2a f73f
00000100: 4f0f 5960 3668 f7bf 46ff 074f e0fb e9bf
00000110: 979e 3c0b d22d f13f c185 7cde e3d2 f53f
00000120: 5259 2794 9ef4 b63f edcf 4ac2 7fe9 b83f
00000130: 1465 3d61 bde3 d7bf dcc2 3f2a 9a3c c93f
00000140: e1fd 094c 8617 d73f 5da1 914d 02fd dc3f
00000150: df9d 14b0 17cb bdbf 97b8 f0f3 6f06 0240
00000160: e13a 60cf be98 e4bf c7b9 29ee d270 e93f
00000170: 5676 aa8f ad5f f0bf 8436 d836 880f e6bf
00000180: 7424 ce73 f8d6 e13f d9bb e093 8fa9 d73f
00000190: 747d 6c0b 984e dcbf 1fb4 8af5 c6d0 f33f
000001a0: 37e6 6ac0 e84e e73f 9df0 0d98 3581 ed3f
000001b0: 24f2 125f 532c f13f 21a6 7806 497e d73f
000001c0: 542e 1bb3 2f16 923f b077 f89a df88 e4bf
000001d0: d687 999f d1b5 e0bf e48f 434d 09b5 e1bf
000001e0: ecd2 0170 e84d e73f 2a52 03e5 c3e0 f7bf
000001f0: cbd0 a2d0 410e f33f 11d2 5b5e 8b9d d8bf
00000200: 1d83 cfc8 8692 0040 ef68 b65b dd3d e5bf
00000210: af3d ebaf 8554 01c0 9ede b3d2 5cba e23f
00000220: 5e45 3100 6fe1 f8bf 902f d92f d994 ecbf
00000230: be27 7b8b 1de1 dabf f463 0c8a 6089 e3bf
00000240: 594b 4a96 8e67 f7bf 86cc 82e3 a95c e93f
00000250: 4191 b3e2 cab8 ed3f 6ecd 014d e7d6 e63f
00000260: 5335 fddf ec1c debf 2013 fca9 499b b33f
00000270: 2d42 62f3 50af ecbf 09f3 21cd 26da f6bf
00000280: b80b 6d9f 2d46 f13f c806 b944 0dd1 e9bf
00000290: 614b a590 cc4f f0bf 9e1f 0c16 c3bc ea3f
000002a0: 5a30 08bc 7632 ec3f e5ab 9af2 3093 fabf
000002b0: 2d75 6d5b cac1 d73f 31bf 704b 9513 d3bf
000002c0: d109 06af 838f efbf 7b88 1821 1a21 f1bf
000002d0: 4d08 c407 2c30 dc3f 8620 3dc5 25e7 e53f
000002e0: 0776 f931 884a fbbf ae15 2414 0d58 c2bf
000002f0: e5e9 08eb fa56 fdbf 4033 682d e74a fc3f
00000300: 5892 22f8 15d4 f13f 0ad7 72ca 8134 f0bf
00000310: 9612 7350 5f5a e3bf 67dc 99ad 38ba e7bf
00000320: c5af 9486 1950 debf ccec bea3 49f5 c9bf
00000330: ed88 1da4 cc01 0340 8b50 fb88 8c02 e6bf
00000340: cf98 1f57 1e29 e13f a91f b2e1 183c f23f
00000350: 937d 2e13 e3be 00c0 5e3e 015a 6239 0140
00000360: 209a 459c 3c40 e0bf 7c0e bb24 164d f53f
00000370: 8e02 41df 0913 f63f bb46 3512 5416 c13f
00000380: 2061 3801 85ae ea3f d4a4 fe88 ac6d fcbf
00000390: 5996 02b5 5607 9bbf 96ea 0778 b4fe f23f
000003a0: a054 a5ac 66a8 cc3f 72fd 729e b218 0140
000003b0: aae4 8f09 e5ba f8bf b0bf 8f66 93ee f1bf
000003c0: 9760 c4dc f450 f53f a92b 4ff7 af50 fb3f
000003d0: 6585 5b6e 2ece edbf f835 87ca 894e e23f
000003e0: 024b 5b89 813a f63f ed91 70e0 599f ea3f
000003f0: 6cbf 3ba0 d5b0 ec3f 318a 9008 0070 febf
00000400: 24ee 034f 8e91 ea3f 9602 a527 f224 f0bf
00000410: e782 a336 9d69 f0bf 66ff 9bf7 d50a ea3f
00000420: 3af0 735f 893f f03f e2fa 6592 ba67 fcbf
00000430: 92b6 f55e 45ed e7bf 08a6 3112 3e0a f0bf
00000440: f938 5b90 25a3 e13f 604d 4a56 b7e3 eabf
00000450: 1d3f 0874 4948 fc3f ab73 fd78 f188 e1bf
00000460: d1cd 808b 3aa3 f83f 809d 5efe d5b1 e0bf
00000470: 68db 2e39 c334 f53f e102 063c acda b33f
00000480: 5df4 0a7f be65 f0bf 8ea3 cd22 9b2a f33f
00000490: 61b2 6e23 843f f1bf 1772 c9f3 575b f4bf
000004a0: 704d 4e67 cd10 833f 661f 7064 8e75 e2bf
000004b0: 8db6 4063 bd11 f03f 204f 6c6a 274c f33f
000004c0: bf49 4705 96e7 c8bf 62fd 453d 1125 02c0
000004d0: ca05 b30c 721e f3bf 5092 8bf4 04df c7bf
000004e0: a84f ffcf 4214 efbf f6b9 1a41 dc44 e2bf
000004f0: 5e00 626a 898b f3bf 1c5a b5ea db03 e13f
00000500: 0290 1839 8e96 db3f 40a1 d84c 95f9 c23f
00000510: cb80 37d2 af16 d5bf 6c76 347c ef45 debf
00000520: 1092 2768 9332 e2bf 9254 6dbb 5941 e6bf
00000530: 731a 8785 5f33 e9bf c33b 703a d178 e23f
00000540: 22c2 4762 1aed e6bf 1e51 7924 f30a e53f
00000550: 0061 cf98 5a0c e93f 7126 98cf d6cf f3bf
00000560: 6b2f de8c ce05 f7bf 4188 9362 cadc f2bf
00000570: 4179 3e59 56cd e7bf f247 be3c 0177 e73f
00000580: 6f7a fbcd 3574 f13f 7008 9765 eacf f2bf
00000590: 80d5 7be9 d234 dd3f f151 0443 cf46 ecbf
000005a0: 2995 5ff5 8d27 f73f d261 712e ef32 bcbf
000005b0: bdba 6b60 c5b6 ecbf a7ef 24bc 79d2 ebbf
000005c0: 0885 67cc 877a f43f 8739 8a62 48cb e7bf
000005d0: 65b3 b091 9f1f d9bf 68b3 c623 b7c7 e3bf
000005e0: 0710 67b5 cc2d debf d876 5f1a dd87 da3f
000005f0: bc89 9aab bef2 dabf 5fb5 4215 7ca6 a0bf
00000600: f196 0601 7f90 de3f a08e 988e af12 c5bf
00000610: 3026 15aa a42f e4bf f751 1384 aa7d d0bf
00000620: 38fc 7ed6 2689 f0bf ec50 3191 b1ed cd3f
00000630: 8254 d664 f729 e23f 03d2 e04a d25e f43f
00000640: 3ae3 7eb6 c04b e23f 0bbc f2f3 a04c f2bf
00000650: 995e 35ab 9aaf 81bf bdcc bbbe 0b50 e2bf
00000660: f6fb 0af3 37b3 f03f 6a08 09fb d007 e6bf
00000670: f3ab 8b44 297c e33f 94e9 060b d606 e33f
00000680: 1242 31a6 aec5 f13f 1d67 adba 356c e43f
00000690: 6eb5 4795 3c54 d43f 1057 ed6a 3903 dc3f
000006a0: b8a6 776a e3ba e93f 565b e860 f2fb f5bf
000006b0: feb9 3e57 226e f93f c295 b682 66c8 f1bf
000006c0: c7b4 53ff a1d9 e6bf cf6b 60a2 1090 dc3f
000006d0: 00fd 7884 3324 d7bf 2282 d0cc 100f e5bf
000006e0: 666c 0df7 57b9 04c0 6f2f bc6d 0f05 e03f
000006f0: 6a13 5109 5954 ea3f a2db a5c6 d4f8 df3f
00000700: 0a37 0e0e ea94 e1bf 08f0 69eb 1a0e f23f
00000710: ddb4 1eeb 9157 f33f 3e29 833e ee8a f53f
00000720: f248 8036 44cd aa3f 9bf3 91c3 82a4 da3f
00000730: 2bf8 5538 d4e4 e7bf 6e8e 6ffa a6a3 f53f
00000740: 9177 c141 6fb8 e7bf 063a a8ff 1c49 e0bf
00000750: 95b7 09a9 a895 f1bf 366c 01c1 16a4 f23f
00000760: 9dbe ae91 5dfd ecbf 53e0 c0fb 5aea e93f
00000770: 7728 621e 8a19 d3bf a226 300a 8218 f73f
00000780: 49f0 26ba c3d2 ebbf f6be c8af 5448 f33f
00000790: 4aab c834 1c52 e7bf 948a ed65 0c0f e63f
000007a0: ffba c3f5 28af e0bf b4b7 e608 2bfc e03f
000007b0: 9b5a e0ca 11e8 e83f be1a 89fc 166f e9bf
000007c0: 596c 6214 d5e3 d33f bd53 bd43 5944 fe3f
000007d0: 84b8 f3b4 60dc f23f a9fd 365e 3c65 adbf
000007e0: 9271 c60f d937 b13f ad56 5335 95f5 f33f
000007f0: 317d 1144 daa0 f33f cf0d ff1b 124c e63f
-0.15862328288987684 0.49474601122835365 0.4688603928952631 1.1531745658912012 -0.18441019386732718 -0.8009152430275155 -0.22137290612606456 -0.7467528343033418
0.5600328365430939 -0.20423036921147814 -1.0792318711448061 0.2513669677685086 -0.9243438729397904 -0.5753121187278795 0.6285335574457771 0.6348969309383178
0.5660527771434406 0.7832978513923576 -1.380571838140057 -0.5969464045138672 0.7313076632409624 -0.8639940261390273 1.3475144564334103 -0.39458836747874515
0.39168515403497567 0.14399241373965313 0.5976048451550334 1.275709285275496 -0.6829242531501174 0.22205353423496313 -0.13214012130838404 1.4477826029240664
-1.4629424823369452 -0.8119966071680913 1.0736866415917683 1.363986844146311 0.0896700965598474 0.09731291287863515 -0.37327513214184305 0.19716193259184578
0.3608108275002149 0.4529424436100465 -0.11638019608346138 2.253143220695232 -0.6436456728277699 0.7950224544163625 -1.0233588802288032 -0.68939600669701
0.5574915181943099 0.3697241729850567 -0.44229699245075627 1.2384709922291746 0.7283824690013664 0.9220226259053735 1.0733216966465386 0.36708284027062815
0.0176627591197714 -0.6417081858414715 -0.5221946828062254 -0.5533491620121791 0.7282602489127306 -1.4923743196315038 1.1909807348102273 -0.3846157475921084
2.071546143372315 -0.6638018409023781 -2.1662706130661813 0.5852493396077596 -1.555037499191108 -0.8931699690378867 -0.419989954196918 -0.6105196663148704
-1.4627824660025992 0.7925614780018726 0.9288076808702855 0.713733339695336 -0.47051545976576853 0.07658825302139549 -0.8964009049978522 -1.4282596600525628
1.0796333530022206 -0.8067690222016717 -1.0194821977827007 0.835542243062253 0.8811601326465379 -1.6609353520132057 0.37120303085778766 -0.29807026259639985
-0.9862688463620605 -1.0705815594488104 0.4404401851499003 0.6844662525482057 -1.7056962921263918 -0.14331210597462757 -1.8337353879020324 1.7682868741714657
1.1142787640357223 -1.0128190906665986 -0.6047817775039046 -0.7414821043629559 -0.47363889830262124 -0.20279808516884257 2.3758786031258894 -0.6878111529754433
0.5362693502072718 1.1396721664659515 -2.093206548553732 2.1530196220044635 -0.507841401308557 1.3313199457924432 1.379648086629604 0.13349390877788445
0.8338036559899002 -1.7767758704524583 -0.026395182416896954 1.187183827276987 0.22388919286701014 2.137059438595025 -1.5456285832899916 -1.1207460409459422
1.3322647689547347 1.707199064304158 -0.9314186244411472 0.5720871883037821 1.3892836919300753 0.8319520362461482 0.8965862397726432 -1.9023437819056535
0.8302680533665279 -1.009019999372105 -1.025784696037755 0.8138227306480814 1.0155118683460516 -1.7753244131742396 -0.7477137427028586 -1.0025006018353242
0.5511653727969864 -0.840297382865554 1.7676481754787752 -0.5479667056166496 1.5398507546750475 -0.5217084854274816 1.3253814920151061 0.07755543198983218
-1.0248398745163947 1.1979018554213527 -1.0780068763807764 -1.27230067471749 0.009309391703743869 -0.5768501245192794 1.0043310048162397 1.206092277255216
-0.1945674443982863 -2.268099287699145 -1.1949329849306758 -0.18649351063426645 -0.9712232649276205 -0.5709058066911996 -1.2215665965632279 0.5317210754536208
0.43106418205047714 0.14824167492157336 -0.32950969246850254 -0.4730185234965123 -0.5686738046902651 -0.695477357929706 -0.7875211341823402 0.5772482053160889
-0.7164432448899485 0.6575866424923651 0.7827580437251811 -1.238241969027879 -1.438917684808042 -1.17890394693724 -0.7438155882880794 0.7332769571678439
1.090871624582771 -1.175760647617178 0.4563491134752766 -0.8836437519954058 1.4471568665406471 -0.11015219577655636 -0.8973109133929352 -0.8694428133671764
1.279914663748345 -0.7435647892578324 -0.3925551340824341 -0.61812932002577 -0.4715453883657123 0.41454246116141524 -0.4210659671608956 -0.03252017745522084
0.47756934261484135 -0.16463274443332399 -0.6308158227850011 -0.2576700486945635 -1.0334843043090256 0.2338163336704676 0.5676228494145479 1.2731497692994942
0.571747166096521 -1.14370818416842 -0.008635719632976534 -0.5722712254777417 1.0437545293677863 -0.6884541419060615 0.6089063967496017 0.5945844855662465
1.1107622615710437 0.6382092138330538 0.3176413972676845 0.4376967949113899 0.8040635184708753 -1.3740104470686751 1.589388218689805 -1.1114258867249736
-0.7140665041785262 0.44629302842230073 -0.36158454834726683 -0.6580890655787395 -2.5904998112651354 0.5006177085174225 0.8227963621107908 0.499562448494027
-0.5494280123254793 1.128443641267042 1.2088793930409374 1.3464186136139484 0.05234730878159323 0.416290942179154 -0.7466832256611772 1.3524541647574568
-0.7412639889041533 -0.5089249604514527 -1.0990378001256194 1.1650607623366915 -0.9059284062731937 0.8098578373965303 -0.2984338089669402 1.4434833906147237
-0.8694780956061631 1.2051588884896183 -0.7287732153830373 0.6893369665888991 -0.5213818359460162 0.5307822393276553 0.7783287966183993 -0.7948107654891243
0.31078078261061176 1.891686691863682 1.1788031643332326 -0.05741299295504671 0.06725842127929685 1.2474567492512663 1.2267706545752157 0.6967859789660283

rbf_layers.0.log_sigmas f8 [128]
00000000: 489c 518a 2845 e1bf ac6e 50dc c475 e5bf
00000010: 6f57 0b02 70da d5bf e7d6 3fda a4e5 dcbf
00000020: a381 2ce1 5c6b e9bf a21b 198a 4f5b d1bf
00000030: 962c 833a 0c84 c3bf d45b cfab aace e8bf
00000040: aa7b e57d 248f f0bf 545c 5b6c 8f8f a13f
00000050: 293d 158c a36e d4bf 09dc f87f ad91 dbbf
00000060: ce2f deae 7568 ebbf d536 d35d d85c e9bf
00000070: f4de 1fc4 9f4b dabf cf00 3726 4e2d d6bf
00000080: 37e4 fd6c 33cf b43f 546a 1f9b 1572 d0bf
00000090: 7252 a931 f14b e0bf 9134 3de4 b75f e0bf
000000a0: a67a 4552 2305 edbf 294c 8b3b 49d1 bbbf
000000b0: e974 ad61 abf2 dfbf 31cb b4e7 78a7 b2bf
000000c0: 971d 0a48 ff34 eabf 2a09 cbfe f401 d8bf
000000d0: 1557 e9b3 8f44 fabf 4293 9769 c44c e7bf
000000e0: 9be7 5ab7 f7e4 debf 68b8 7fda e771 d4bf
000000f0: f3b5 beb1 8ca3 95bf c155 6996 12d6 dcbf
00000100: a916 32ea 8601 b2bf 1cca f129 a277 c33f
00000110: d85a 4a92 f00a be3f 8fef 3238 a3cc d7bf
00000120: c7ab d1ca de81 a1bf 99ee 4eb1 c688 f8bf
00000130: 1520 6c79 b9bb dfbf 8c8f 0439 29e6 b43f
00000140: e717 54c1 04ba d2bf a8b9 d07d aab5 c8bf
00000150: 2740 2865 4f80 af3f 9a49 8e46 4e25 e7bf
00000160: 9509 50fa 3478 40bf 9371 ee54 cd86 e8bf
00000170: 0819 67b1 83ed b73f ed9e 2353 5ac0 c53f
00000180: 0a45 043d f138 c8bf aaad 0eb8 56b3 cbbf
00000190: 4416 dd5b c3db dcbf 458a e37f 01cc 9e3f
000001a0: 1edc ee60 619f ecbf 5e1c f19b 4b47 d03f
000001b0: 7114 d910 cc66 d9bf 1e8b e539 5292 dbbf
000001c0: 56aa 5a78 c6df b63f 9860 69ae 65c7 e1bf
000001d0: a526 2d6b 56ea c4bf b6a6 847e b19e c03f
000001e0: f22f 0db9 cd56 acbf 1c41 372c 7b5c d3bf
000001f0: e67d 27d3 0d49 d2bf 753c 3dde cbff c13f
00000200: 7e73 0e45 9058 cdbf 1382 44cc b374 cfbf
00000210: f072 a7f5 4a5c c03f ddb9 8f99 a805 b8bf
00000220: ebb8 866f 4ef7 d3bf 261c 630e 71cd c5bf
00000230: f9b7 97b0 ce90 d2bf 63bf 536e dfa8 ddbf
00000240: adf5 cb33 5f7f c5bf f20b a8d1 3dd1 b23f
00000250: 0f8b ae82 663c e1bf 0f21 22d2 b14d d6bf
00000260: d5bd 4165 2818 d03f 4a7b 22fe e498 c1bf
00000270: 3405 8f9c c46d bcbf bce6 663e a2c3 c4bf
00000280: 70d7 b6d8 60e7 e7bf 0793 f36c 05e6 d9bf
00000290: 53a0 0166 9f3c cebf d1a3 3b40 cca0 d6bf
000002a0: 352a 397d 6e8b d7bf b43a 2a66 12db bbbf
000002b0: ed78 7514 1c76 ba3f 469f 6bdf 837b dabf
000002c0: ed02 0870 7f2c bcbf 8625 1a83 5c77 d3bf
000002d0: 32ee ea6f 775d d7bf f823 3044 211d b8bf
000002e0: d8fe 385a 7b00 d4bf 73a8 b7c3 05df d9bf
000002f0: 82e5 2467 8aac e0bf 43a1 6f42 0bc5 dbbf
00000300: 9203 4f4b 0886 ebbf e355 b28a 8d2a d6bf
00000310: 3aff e261 1281 cfbf 5a8d f81f 5928 e4bf
00000320: e1a0 d59c aebb c7bf 220d 417d 35a7 e1bf
00000330: 53f9 4cc6 ee6c d8bf 361f 2c06 77ff ecbf
00000340: 3ea4 f8b4 8288 efbf 1037 a80b b098 e8bf
00000350: 092c baec dc34 a7bf e77a 7d10 80af 9ebf
00000360: 3d75 8289 e227 d5bf 9687 1b1e b75a d6bf
00000370: e24b 004f 01a5 cb3f cc4f 40c5 1875 ecbf
00000380: 2823 4439 726a dabf d387 102e 83c5 c2bf
00000390: 3728 fb58 e3a6 e5bf f88c 9b7c cc34 d0bf
000003a0: 274e 0369 d548 cebf 4467 849e 83c5 c4bf
000003b0: 8c23 f87b 8986 d2bf 3809 a676 f951 dabf
000003c0: 096d 0f66 9922 cebf bf3c d88d 6127 ddbf
000003d0: c495 8c60 490c dabf 523e 9165 b9bb d5bf
000003e0: 34f9 cff1 0b48 d1bf 6cd7 3561 be67 dcbf
000003f0: 2555 8d92 fb8e debf d793 eefb 8d91 e4bf
-0.5396921826876531 -0.6706260970126627 -0.3414573688472648 -0.45151635468879053 -0.7943558118750399 -0.2711981629003565 -0.1524672780709337 -0.7752278667129482
-1.034946910651096 0.034298402764470964 -0.3192528598783207 -0.4307664632537472 -0.856501428164387 -0.7925836403389562 -0.41086572792799747 -0.3465152142707781
0.0812866345494435 -0.25696315907194855 -0.5092702836942193 -0.5116843660158726 -0.9068771941054663 -0.10866220191682942 -0.49918636835884783 -0.07286792427912016
-0.8189693839093931 -0.37511944658412466 -1.6417386081497558 -0.7281210005136034 -0.48272507577677864 -0.3194522508409876 -0.021131704662982597 -0.45056595505351643
-0.07033580033938826 0.15208842323370753 0.11735442706627042 -0.371865086442761 -0.03419395662134366 -1.5333926130396434 -0.49583279473927294 0.08163697855030544
-0.2926036727880032 -0.1930440058071785 0.061525803659719984 -0.7233039262812782 -0.0005026110344490848 -0.7664553316895301 0.09346793252106889 0.16993264255074028
-0.18923774222688677 -0.21641048419165304 -0.4509132763963388 0.030075095587458262 -0.894455613443714 0.2543515227193377 -0.3968992390185298 -0.4308057370564472
0.08935203970273994 -0.5555904776074554 -0.16340141518803822 0.12984293630261384 -0.0553497589486084 -0.30251960103943687 -0.28570886250051186 0.14061878539584752
-0.2292652451696106 -0.2457489726448477 0.12781655306653006 -0.0938363432794413 -0.3119693841098427 -0.17033208086488222 -0.29008834119201726 -0.46343217634329487
-0.16794958142410846 0.07350527161183587 -0.538623099553975 -0.3484921028216527 0.2514744747959104 -0.13747846993370622 -0.11104992696984511 -0.16222026869745843
-0.7469944222163871 -0.4046643794993518 -0.23622505646494804 -0.3535643222117502 -0.3678852293857376 -0.10881152147542644 0.10336471080288208 -0.4137887651290736
-0.11005398259295492 -0.3041602402014053 -0.36507974557364087 -0.09419448771235739 -0.31252940951160957 -0.4042372142126915 -0.5210620893987399 -0.43390161025901736
-0.8601113768455539 -0.34634722275344937 -0.24612645892738688 -0.6299253105575346 -0.1854151025575055 -0.5516612478608389 -0.38164872517872545 -0.9061846848062263
-0.9854138884157988 -0.7686386325528662 -0.045325187585227474 -0.02996635532997063 -0.330559381758423 -0.34928682270230504 0.21597305638769543 -0.8892940380633205
-0.4127469596137865 -0.1466526007580443 -0.6766220796500936 -0.253222581565026 -0.23659770610412176 -0.1622776531228799 -0.2894614897382375 -0.4112533243825456
-0.23543088420306216 -0.45552862979907255 -0.4069999163496869 -0.3395827762478564 -0.2700223790597136 -0.44383201115794324 -0.4774769717381154 -0.6427678986116189

linear_layers.0.layer.weight f8 [100, 134]
00000000: 8c4c d1ad 43cc 9e3f 5ea6 ba6d 0fda bbbf
00000010: ea5e 716e f0e5 98bf 079c 9d90 ec6c bd3f
00000020: e461 c985 e4d9 9f3f 1da8 68f6 8378 c0bf
00000030: 25b3 740a 6a40 adbf e0a3 8162 1447 ac3f
00000040: c7ee fc3a 5288 863f bb07 a8da 3536 aabf
00000050: e71d fff6 167e a83f fd81 49f7 17f9 95bf
00000060: 68c2 06a0 24dc a1bf b045 701e b711 c4bf
00000070: 2626 28a7 37c6 9a3f a1e9 b28a ec80 a0bf
00000080: 40a9 6e83 fcb2 aebf 6273 2e2b 4c30 b7bf
00000090: 7b74 a048 bf03 9fbf b059 9a47 3643 803f
000000a0: 7b3b f442 bbf1 b6bf 38df c850 e49a bd3f
000000b0: b45a cefc 6cf2 c13f 8da5 31e1 df76 b03f
000000c0: d627 da82 6c5e a53f d0d0 ad1c 1010 c13f
000000d0: 9939 b326 72d0 ba3f e554 2d30 7d20 b5bf
000000e0: ca4d 82e2 ef19 a53f 605c bcb0 49aa a13f
000000f0: 0692 0ead d41c bebf 335b 5818 9ff4 713f
00000100: 1d98 1e12 2431 d03f 14a0 93b7 04ba e4bf
00000110: 40d6 771b 7e9f 8bbf 5f6f ed38 9833 b63f
00000120: 2ea0 05d7 5675 cfbf b839 efb4 6d14 afbf
00000130: 4284 0e1e fc93 a13f 8406 3f96 cbe9 c73f
00000140: cf98 6397 daa3 8d3f bbff b161 bea8 aebf
00000150: c72f 2bf7 8cf1 cfbf 9392 a8bb 9fcf a93f
00000160: 098e 1ed3 c849 ba3f 399c 27e3 9eef b93f
00000170: 8a80 6e2d 1923 cabf ca32 817c e727 e3bf
00000180: 7f84 9c8d a418 913f 41a3 b011 0868 bb3f
00000190: 38b4 d940 3726 abbf 46a5 69c7 ddf0 cd3f
000001a0: e8db 5d49 2501 af3f cec4 0bad 26e4 e0bf
000001b0: 78b1 ef16 2268 ac3f ba65 eadb e88b b3bf
000001c0: d005 ee8c 8f71 c1bf 0629 8cb6 ea70 c03f
000001d0: b181 04a3 4bbe b53f 9194 b4d1 cf13 b63f
000001e0: e9c8 bfc2 4c25 d3bf ca3f b871 ff1e b0bf
000001f0: ffb5 2fcc 9c45 c43f 66d7 e314 7490 d1bf
00000200: 2506 db19 611e bbbf 62c4 c850 1228 b2bf
00000210: a90c cfc4 2c0a c6bf 0455 1241 2aca a33f
00000220: ee62 960d c915 adbf 8159 f053 1ecb a63f
00000230: f50f 3e80 5a3a c13f d429 8f0b ff78 b4bf
00000240: 9249 4a23 7f7a c1bf 2aff a07b 309e c73f
00000250: 4d5b 06cd 19df 8e3f b4f5 8aa6 b78d b3bf
00000260: 58b9 a93f 25bb 84bf 9e25 352b 8ebd bdbf
00000270: f1cf bd25 e225 9dbf 2c22 31a9 4f8d c0bf
00000280: a633 2a1c 417f 9ebf a3e9 0031 0f2b 88bf
00000290: 8582 43b7 c5c1 67bf 6880 bb28 af02 9cbf
000002a0: fa3f fd46 c38c 9dbf 4987 1520 a8a6 c0bf
000002b0: ef2f 4f64 0bda bd3f 7556 5d3d 381a b2bf
000002c0: dfac 1bfc 5f75 b4bf 9b0a 78b6 389d b0bf
000002d0: 9557 1013 ac21 78bf d0a2 1526 e5f7 823f
000002e0: c02c 6f74 7e4b a4bf d546 4f07 4e5d b03f
000002f0: f6d2 27a6 4de2 6ebf f644 d538 9fa0 94bf
00000300: 9dfa 7ea2 6f69 bb3f a708 7cfc a62d aa3f
00000310: 534f ddb1 ad1f bbbf efb2 1902 022e c1bf
00000320: 2994 b939 1444 9d3f 1ac2 5de6 3794 b03f
00000330: 0eb7 782f aaff b63f 0976 72f3 1c20 95bf
00000340: 42a7 83db eee5 c33f 6d67 5050 7175 823f
00000350: 6dec 03dc 7652 b7bf f555 4e38 63ab ae3f
00000360: 5c36 b465 66b5 a63f 2528 1298 c8f1 bc3f
00000370: e9ba 64b2 ab11 f0bf 5bf1 8319 fa9f 9e3f
00000380: 037c b951 c4b4 b13f c296 089a 929b b6bf
00000390: 4855 7eba 3811 bb3f 5b6d 9fc6 e486 a03f
000003a0: ea1a d772 9ce7 96bf 9d8f 5f63 7592 abbf
000003b0: 80ba 938d 6336 c0bf 6c0c 0248 785e ad3f
000003c0: 9f28 0004 adf4 b1bf 5a2a 8f9c a39e acbf
000003d0: e0da de46 8359 68bf 57c7 0ec6 5282 95bf
000003e0: 4358 7af6 2ce0 b0bf 05a7 8913 5fe9 91bf
000003f0: ed65 4695 5e2c 93bf 95d0 5a59 e305 973f
00000400: 69b4 f979 7c1c a0bf 7ca4 423a 5f05 ab3f
00000410: f671 995e d865 a4bf cba3 b7a5 8cd5 a83f
00000420: 96d3 4944 536b af3f 22c0 85bd b22e a13f
00000430: 20c7 6ffd 2ba0 cf3f 717c 8336 ca6b b73f
00000440: 66ba 4a24 8024 c83f 3902 701f 3a45 c73f
00000450: 2dc9 7084 a0a3 cd3f 4beb 3341 b49b bc3f
00000460: fb5b 1b97 8476 ab3f 90d7 046f 9327 893f
00000470: 755d 483e 85a4 c93f 4948 eca4 c383 d13f
00000480: 2bce 07c9 98c5 c53f 6b06 2ae3 3810 a6bf
00000490: a5c9 46d4 8193 b7bf a677 099c 29fa bd3f
000004a0: 1bbd 7de0 e3b0 b93f dbe7 4000 bb84 d23f
000004b0: 6f95 2c6e 1cc7 cb3f d5e4 ac69 1c4f c0bf
000004c0: f943 954d b3d6 933f 06f7 a899 2af8 c23f
000004d0: 4fee 3fb7 ff24 ba3f a1aa 83df c9fa d23f
000004e0: c3f6 2cad 7f56 c43f 8647 bcd4 1201 b03f
000004f0: 71df f14b 7a54 c9bf 5319 3063 2e19 da3f
00000500: 3a79 d156 965a d03f 98c0 d49c dcbc cebf
00000510: f80d 2b8c 7b75 b73f b171 2286 41c8 b53f
00000520: bb92 1e2e 2ac4 c53f f740 aa2b e9d0 a5bf
00000530: 3ca4 fd00 553c 8fbf 270f 21bc 76a3 b53f
00000540: d8ce 0034 b5c4 d03f e331 2810 473a 9c3f
00000550: fae0 ba6c 276b d23f 9a7c fa92 18aa dcbf
00000560: 6811 d0b3 151f ab3f c55c 02a5 af8b cb3f
00000570: 850d 9eaa 66b9 ae3f a000 f8a7 da2b d13f
00000580: 7eeb 26eb 196b b13f dedf 01e2 c647 cc3f
00000590: 898a 21d5 ab13 d03f 8b1a 03a8 a77d d03f
000005a0: f1ad 3445 6cea c03f de18 bb6f 2c39 de3f
000005b0: 7894 6e2b 6c29 bd3f c35d 3012 93ab c13f
000005c0: 7b1a 0cdd 105a 973f a090 8727 7092 b3bf
000005d0: 8ecb bbc4 a73b d63f bb2a f47e f9e7 e43f
000005e0: 86d5 cd2a bd20 d23f 30c4 2381 a7aa c6bf
000005f0: e335 2d21 91c2 c13f c9f9 c978 10e9 d43f
00000600: bb7b 7ae0 f958 c33f e4fa 3c1e b0c8 d83f
00000610: 5314 72ac ed1b cebf 3bd7 7162 e35b d03f
00000620: 2c45 f9c4 ff0f dbbf c2cd 65d6 0fe7 90bf
00000630: 32fc 2f03 feef cd3f 3428 5ba5 c68f c93f
00000640: 53cc e25e 1fd9 c83f d055 cbc4 b7a9 c43f
00000650: 34f8 014b 39dd c43f 66dd cf6e b6b8 b4bf
00000660: 7d01 8018 e44f cabf 4dc0 e67b b2f1 cebf
00000670: 341b 181a cb26 d53f fe54 187c 1b50 d43f
00000680: 5e19 6ca2 17da b73f 915e b0c8 5729 d4bf
00000690: b5e4 e9bc 3a7d ba3f 93c6 ef8f 217e b63f
000006a0: fe80 5362 5d45 c33f 3ac8 05d9 1daf cc3f
000006b0: 5bde 2aa8 53e1 9ebf 13c2 ff9f ff95 a13f
000006c0: b780 fa20 5266 7bbf 5e5b 79d0 391b cc3f
000006d0: b594 6655 a137 d23f 47d7 6242 be85 b73f
000006e0: 0297 dac3 c82c d43f 066d 7ed2 862a c43f
000006f0: e1b0 f897 95c8 c93f 3ff2 1b66 9985 cb3f
00000700: e262 50c7 75b2 c4bf dd5a 5622 436d c63f
00000710: 6af2 06f5 0666 b23f ad5e da2b 1d2c 803f
00000720: c85b 4eab b2b7 c03f a4a9 76f3 033d 84bf
00000730: 21c9 084a 3db4 c93f 52c4 b7d5 398c b3bf
00000740: e044 f213 3d2d c83f acbb 65b3 b262 c03f
00000750: c7e5 4065 07ef c33f 56ec e6db 1fb3 b93f
00000760: 4ee7 bebb 860a b73f 1bbc c564 7471 be3f
00000770: 531e 0a08 a781 e1bf d72e 87e9 3528 c93f
00000780: deff 4d9a 5c5b be3f 3454 9754 0e09 c63f
00000790: accb ca1a 0e26 cc3f bbc2 a4d6 e0ab 85bf
000007a0: faed 6df7 1080 a4bf 98b5 691b 6a4b c7bf
000007b0: a8ff 3cc7 fcb1 d03f c338 4bd8 8784 c5bf
000007c0: 7921 15bd a5b3 c53f 907e 2e85 6c70 d93f
000007d0: 0a23 1bb6 a697 b13f e232 fb05 fd1d d13f
000007e0: d093 d76a e5f3 c23f f1ca e640 6131 d43f
000007f0: 110d 1b17 f19c d03f 71cc 4172 ecd1 c43f
0.03007608173750191 -0.10879608563359386 -0.024314648381134875 0.11494329958587467 0.031104632058800777 -0.12867784053497724 -0.05713206651339523 0.05522979452582155
0.011002199578448736 -0.05119484228272549 0.04783698811621289 -0.02145802923985406 -0.03488268331000627 -0.15679062830217338 0.026146764352267614 -0.032233611994757945
-0.059959307712534216 -0.09058071188196729 -0.03028773194101973 0.007940696773670236 -0.089626029821586 0.11564471218377725 0.1402107462315222 0.06431388137720813
0.041736021969952894 0.13330270195331773 0.10474313206507303 -0.08252699304769669 0.04121350898744998 0.034502318214600036 -0.11762742257139544 0.004383679833629017
0.252999322600205 -0.6477073274118106 -0.013487801755199702 0.08672477140265532 -0.24576840876693623 -0.060702732407310334 0.034332159680396504 0.18682236515273953
0.014472682709719823 -0.05988116209573443 -0.2495590407255561 0.0504121700835515 0.10268836168557284 0.10131257100839343 -0.20419611662237386 -0.5986211234790855
0.016695567267678953 0.10705614501843021 -0.05302593866949973 0.23391315686175512 0.060555615621460224 -0.5278504733852516 0.055481972980348127 -0.07635360116036952
-0.13627809888207176 0.12844594872905918 0.0849349282257268 0.08623980397949739 -0.29915160196755025 -0.0629729893337291 0.1583744046214832 -0.27444173851050946
-0.10593230134238547 -0.07092394325515408 -0.1721855126362233 0.03865177196818517 -0.0568068341337432 0.04451842093128545 0.13459330808484507 -0.07997125656326115
-0.13655080054429597 0.18451505695883813 0.015073968476640021 -0.07638118568407642 -0.010122576718654727 -0.11617363505242514 -0.028464826158099702 -0.12931247483563035
-0.029782311767622048 -0.01180087917611134 -0.00290001503354659 -0.027353989468679535 -0.028857279975738927 -0.13008596006971576 0.11660834502180227 -0.07071258066329185
-0.07991599946005888 -0.06489901022727411 -0.005891487279788073 0.009261884903666667 -0.03963847323719838 0.06392371824702121 -0.003770019205371229 -0.020143974155250675
0.10707757680118353 0.05112954933248775 -0.10595212547678771 -0.1342165479903978 0.02858001329731877 0.06476163267303328 0.08983863505337927 -0.020630314215500465
0.15545449942083606 0.009013066543093829 -0.09110205527751854 0.05990133344964114 0.044352722086938384 0.11306432449978894 -1.0043141335005947 0.029907138640724678
0.06916453356960521 -0.08831135044655539 0.10573153069556895 0.0322791569194247 -0.022367901334088204 -0.05385176504185483 -0.12665981686537364 0.057361372747458755
-0.07013970706626303 -0.055897820340381 -0.00297237052924558 -0.021004956568226287 -0.06592064874198038 -0.017491803710448135 -0.018723943577787883 0.02248339875104984
-0.03146733273465758 0.052775359975677255 -0.039839517162111024 0.04850425265232835 0.06136570175741622 0.03355940402514103 0.24707555651507906 0.0914884932603728
0.1886139085012985 0.18180014166866146 0.2315560003931493 0.11175085632195907 0.05363859505239784 0.012282516313103092 0.20033326665064136 0.2736672506881673
0.1700926763147533 -0.043092515687942555 -0.092094530415841 0.11709842738625173 0.10035537939778687 0.2893512251354175 0.21701388721082135 -0.12741427574090972
0.01937370453862639 0.14819843771868352 0.10212705825682032 0.29655691936083356 0.15888973193971453 0.06251638120400402 -0.19789055546038584 0.4077869385368064
0.25552900770516696 -0.2401386037613562 0.09163639232706788 0.08508691334504338 0.1700489735786926 -0.04260948808689762 -0.015251792996155193 0.08452550976749916
0.2620060928195307 0.027566061364312843 0.2877901613060342 -0.44788183549275973 0.05297153301219987 0.21520038182345594 0.0600082476876436 0.2683016434020917
0.06804048529640558 0.22094045672906665 0.25120063603950676 0.25766936690744363 0.13215402011097369 0.47223959838119167 0.1139133077654878 0.13804853809481984
0.022804511539130417 -0.07645321812703054 0.3473910733438793 0.6533172111097295 0.28324822597581834 -0.17708295636796967 0.13875021095229476 0.326725118597008
0.15115283451902237 0.3872490210814432 -0.23522730751224916 0.2556084119199686 -0.42285150752748524 -0.01650643106536421 0.23388648181568922 0.19970019411113216
0.1941260541258055 0.1614293776425897 0.16300121462330852 -0.08094349103327189 -0.2055630797986047 -0.24175101327773732 0.33049275921114263 0.3173893653741543
0.09317157473933466 -0.3150233707287749 0.10347334968709528 0.08786210788800934 0.15055434514125204 0.22409413430028896 -0.030156428469778934 0.0343475230037066
-0.006689377608978634 0.21958086661717408 0.2846453985205913 0.0918845092845376 0.3152334129939477 0.15754781034488746 0.20143384857636362 0.21501462446021155
-0.16169616920594537 0.17520941902758738 0.07186931116206954 0.007896640682971546 0.1306060158210285 -0.009882002704064537 0.20081297030407888 -0.0763584276935643
0.18888057207053688 0.12801202544821189 0.15573208278673986 0.10038947218610991 0.09000436862598102 0.11891868076575955 -0.5470767170927026 0.19653962996232252
0.11858156935886607 0.17215136652399254 0.21991134937488022 -0.010581738043215485 -0.04003956814173289 -0.18198896730920633 0.26086348969328776 -0.16810701428625494
0.1695449040655708 0.397486810741591 0.0687202639193282 0.26745534500223134 0.14806812016391158 0.3155139097026867 0.2595789647713938 0.1626563604255327

linear_layers.0.layer.bias f8 [100]
00000000: c275 4bfc 7c3b 95bf 5eee dd15 6429 f0be
00000010: 4ea1 bbe0 d3c4 97bf 3a65 fb70 e399 aa3f
00000020: a4df 0840 ae9c 743f 66ad 0cab 8d94 aabf
00000030: 02e5 c989 ece5 b83f 1109 886b 2a89 a9bf
00000040: 2599 2935 7e6a a13f 5141 a0b5 2b64 b6bf
00000050: 3fbc c772 1431 92bf 062e 23bc 5131 a7bf
00000060: 454c d93d 18df a23f c639 0a27 99eb a3bf
00000070: 7a56 6aac e299 ac3f c3ee 3ad9 be17 1f3f
00000080: 6ffc c4dc 43ce 9b3f 713e 889c 8528 a5bf
00000090: c650 da48 e2a3 a53f c5ae c279 28f7 afbf
000000a0: bf25 0184 ce43 a1bf 6722 c3a0 bf4f 90bf
000000b0: ace1 1c25 931d 9c3f 51aa a3c3 9496 a4bf
000000c0: b216 32eb 7093 a63f 7727 5311 bd0b 7fbf
000000d0: bea0 3d6c 1927 adbf ed04 fa2e ab9d a43f
000000e0: 45bd 6a84 4425 7cbf dd89 c47a 8a52 82bf
000000f0: c73b 0d20 1e9b ac3f 8b0d e5e1 52eb aabf
00000100: c280 131b 5da0 b33f 0eb3 c108 de2c a9bf
00000110: e0e2 0b45 a51d ac3f 9e25 2759 997d 9abf
00000120: e2d0 3c08 aedd adbf f9b1 65bb fc02 ac3f
00000130: 3294 4213 3446 abbf 4f3a c25a 6884 aebf
00000140: ce2f 2308 7cb3 9abf 3df5 22c6 0a6b 983f
00000150: f580 68d9 37c9 b7bf 3bd1 040f d531 943f
00000160: 5c20 cfc8 ef33 a1bf 7d7e dfea ce0e 73bf
00000170: c983 ae16 2f25 a1bf bc97 d62c 45a2 a23f
00000180: 2d43 2f97 3853 b63f b1d0 1642 cb24 8a3f
00000190: c35a 450d 3dfb 9d3f 9a46 8eb4 80af 973f
000001a0: 6251 f0bf 13a6 91bf dae1 5dca 32a9 aabf
000001b0: fd97 fe75 90fd a03f acf9 10f7 e001 a63f
000001c0: 8385 1e3a fd11 853f 319a e9ae 5b2d 923f
000001d0: 23b2 5bc7 0ce3 b23f e326 752f bf88 b13f
000001e0: cb35 346a 8458 b63f 28e8 1bce b912 993f
000001f0: ee37 f4a3 33f5 863f 6e29 f44b 9eb7 b23f
00000200: ef07 585a 0a06 96bf 6dd3 d5f0 d58e aa3f
00000210: 3a58 99b9 4d73 9fbf 433c d5b2 ebc6 c5bf
00000220: f46b be28 ec50 a63f 1df7 57f0 af29 b6bf
00000230: 9fcc 55ac 2df7 973f 8bb2 2521 6421 423f
00000240: d985 2753 9b04 923f eaed 27a3 3f34 78bf
00000250: 8afe ec66 7617 b33f b608 7241 5703 cdbf
00000260: 8e6b 0935 6b79 a7bf 7bcf b227 82bd ad3f
00000270: 06da a6c4 8631 ad3f 62de 9f9b a31d ae3f
00000280: 3e01 45b0 6591 8dbf 514d 1fc2 6ba1 b1bf
00000290: 558d 5648 fb70 a0bf ee60 d245 db68 af3f
000002a0: 4784 d6a4 0cb0 7dbf 8359 6b5a b752 afbf
000002b0: 1b63 bbc0 a004 ad3f 8e78 7c5e 947a 95bf
000002c0: 0d92 d502 ca31 acbf 8a0f 55e6 338b b2bf
000002d0: 5043 b5d1 42c0 a5bf 2b24 3e17 c1e1 ab3f
000002e0: eca6 d06b 18dc b53f 3ab8 f376 c15a 98bf
000002f0: 9433 f5b9 e244 abbf d5fa a1bd e11b a83f
00000300: c181 0f74 a29b a63f bd2e 117d c15d a5bf
00000310: 15dc 839d b0b3 8cbf 8190 b511 290e 893f
-0.020734742068148078 -1.541298239925018e-05 -0.02321177539025259 0.0519553256433007 0.0050322348256982875 -0.05191462243086668 0.09725836147289971 -0.049874616266622714
0.03401560210186209 -0.08746598419407305 -0.017765349870327404 -0.04529815122222307 0.03685832743635634 -0.03890684701501672 0.055861552759933056 0.00011860945078983735
0.027154026364993585 -0.041324782712874326 0.042265960114634946 -0.06243254171689964 -0.033720449079349894 -0.015929216563366568 0.027456568851648974 -0.040211342698814996
0.044093636236579484 -0.007579554124456204 -0.056938929045658324 0.04026541660733494 -0.0068714786963675655 -0.00894649684102416 0.05587095395332358 -0.05257662780288815
0.07666570578612933 -0.04917043549435195 0.05491367786266266 -0.02586974722524859 -0.058331907754480175 0.054710290790215006 -0.05326998458011935 -0.05960394008535685
-0.026075304028196737 0.023845833152099195 -0.09291409547632042 0.019721344987560157 -0.03359937025339896 -0.0046527941430835025 -0.03348681594730569 0.03639427349416688
0.08720735255270702 0.012765491442089024 0.029278711256973688 0.02313042737984592 -0.017235096540461632 -0.05207213135048834 0.033184542087198544 0.04298308387705005
0.010288217865140897 0.01775115256386978 0.07377700678961978 0.06849284084924138 0.08728816597814341 0.024485495762725545 0.011209872666338296 0.07311429361667418
-0.0215074174539111 0.05187099995502007 -0.030713285878242604 -0.1701330779273765 0.04358613965379013 -0.08657359712375663 0.023403848308089278 0.0005532969392284132
0.017595698309269856 -0.005909203131973831 0.0745767594607917 -0.22666445441797628 -0.04584822676107257 0.05808645948982779 0.05701848173650963 0.05881987833703019
-0.014437479440517206 -0.06886933793366735 -0.03211198099168181 0.06134686686817924 -0.007247971906879042 -0.061177949702755384 0.05667593338666262 -0.020975416438084475
-0.05506736073110483 -0.07243656514498134 -0.04248246011650869 0.05445674332356306 0.0853896392078714 -0.02378370560193608 -0.05325993080132388 0.0470877212510367
0.04415614763979959 -0.04173092509935603 -0.01401460629175059 0.012234040120070457

linear_layers.1.layer.weight f8 [100, 100]
00000000: af88 0d92 9b7e 70bf 7f37 3305 66ad a83f
00000010: dc38 50ee 313f 6c3f 9ae9 8c23 f045 90bf
00000020: 61c4 211c 70a9 9abf 41de 14fa e6e2 a6bf
00000030: c3d4 b6ee f390 9b3f c212 9c40 d247 7cbf
00000040: e4cd 00e9 566e 903f e2ee 9e23 6ec9 a2bf
00000050: 26c7 3efb 5089 743f 2b4c 56fa 8734 8ebf
00000060: cf92 beb6 317c 833f 1a3d b02c 26a6 70bf
00000070: eb5c 962c 46b0 a2bf 1202 463f a58b 8a3f
00000080: 2970 01e9 7d69 a23f 8b91 a400 36cf 71bf
00000090: 9eb0 d082 687b 97bf dfcc 09aa 5dfb b3bf
000000a0: 23a1 dea0 7476 603f 77f5 847b edb2 93bf
000000b0: 3d3d 084f cd0f 9c3f dce8 fb2b df9e 86bf
000000c0: 3c58 2672 35d7 97bf 8b9f 8e29 e581 803f
000000d0: 4559 509a 1206 7c3f 8ad1 2c29 1e3f 733f
000000e0: b2f0 1781 cf45 b6bf dcaf a400 0e52 903f
000000f0: e1ce 7adf c830 93bf 2ff5 b811 5471 923f
00000100: bb0b 807f 132f 9fbf 8f93 d312 2f61 7e3f
00000110: caf7 244d db1b c1bf 2764 8d87 b861 6dbf
00000120: 348d 2dae 97ff a0bf 90d9 ed8a 2bc2 b6bf
00000130: 50d9 444f 2b83 633f b29c 5f67 405e ab3f
00000140: 30e6 2e88 970a 873f c3a7 4589 3994 a1bf
00000150: e185 63a8 ef64 933f 49a5 d352 cb39 823f
00000160: d45d 2f3e 6e8e 8abf d343 7486 b9e5 9c3f
00000170: 4a3e 3fae 3fc6 71bf b5dc 447d 46bf 923f
00000180: 8365 5da3 7641 bf3f 6193 3b49 6491 9a3f
00000190: 8433 f46b 9439 913f f6bb 3a6f 6b1a 873f
000001a0: 5433 402c 708e 6b3f d108 cad7 7c64 97bf
000001b0: cb37 ab9c f622 85bf 1ac4 2dee 2f1e 903f
000001c0: b84b babe 5342 94bf 5215 fa00 1575 8abf
000001d0: 3c18 815b 51db 763f 20c7 251a 6059 abbf
000001e0: 387b 72c0 cc73 8c3f 4d9f f769 b844 8dbf
000001f0: 1ccc 0ca9 7f4d 9bbf fef7 fba2 d43a 5b3f
00000200: eb7a 7eba eca0 acbf 90c0 f693 ede8 adbf
00000210: a084 f643 8d54 8d3f 8861 0aad 6dbb 9bbf
00000220: a688 8e7e 1a3a 95bf 0881 9af3 4cb6 bd3f
00000230: 993c 27d5 5f59 8abf eee3 098b d6af 6a3f
00000240: b2b6 1e71 96ae 973f c76a d02d 0c31 82bf
00000250: 3200 a6b8 0e18 813f 0d30 8166 073f ab3f
00000260: fe8d 7c0c 7aaa 88bf d960 7efd 06f0 983f
00000270: 119e cc5c 7a38 a1bf 01d3 e823 5917 933f
00000280: bf1c dfa4 a761 673f d433 8ec5 eb2d 513f
00000290: a0f4 fd98 dc18 60bf 1684 c9ec 4e14 98bf
000002a0: 0ae0 4b45 171a a5bf 7c41 7c2d 38ee a53f
000002b0: 0d13 9edd 4238 a7bf 25cf 15e2 508c afbf
000002c0: 14f9 5a41 f45d 93bf e0b3 84db e9e1 6e3f
000002d0: 221d 9ba1 7040 22bf 0606 9481 d1ba 73bf
000002e0: b867 6221 eb2e 90bf b4d8 f64b 4643 933f
000002f0: 59f5 1589 7cbc bbbf 7d31 80c9 0892 c5bf
00000300: f878 3384 736b b3bf 653e 1829 a5b0 a2bf
00000310: 9b0f 50ab d56d 933f 7858 7abe a7d3 93bf
00000320: f9eb e5f2 1ccb 8a3f d3e1 43a4 c85b 713f
00000330: 661e 96df ff09 8e3f 698e 4bbb 25e7 823f
00000340: 88d0 ee59 cde3 84bf 9683 9a01 d2b7 b4bf
00000350: 01ed 6a26 c611 913f 547c e66c ca45 80bf
00000360: dd5e 0a60 aad2 9b3f aa61 ad35 ac4a 5f3f
00000370: d737 683f d285 7f3f ca98 4276 815f 8abf
00000380: 560b 3cb2 9361 943f 144b 3e05 9389 5ebf
00000390: 0bae 08cc ecb1 663f 067d 37cb 3c5b a43f
000003a0: 5143 4045 2123 9fbf 384d e8f5 ba9b 663f
000003b0: 94e8 45de 5315 96bf dcc1 d30b 6984 913f
000003c0: f7df 231f d405 53bf abcb d0cc 71b0 9f3f
000003d0: 0df8 caf4 f28d a33f ff33 b7b9 a3d9 983f
000003e0: e218 dbe1 8dcb 713f 3262 e6c4 2adc 923f
000003f0: 7a53 5d2c 0fd0 973f d8a9 563d 618c 93bf
00000400: f4a2 8429 ad7c 8a3f 3a97 6e45 3544 903f
00000410: d8b3 d7ab 5e02 913f bac2 05fd f44d 73bf
00000420: 52a3 161c a20a a03f 6871 96d6 f69d 393f
00000430: 76da ad91 6c20 b03f 7cc1 f9e6 cc9f 963f
00000440: 7853 a84c 5364 9a3f f877 4339 812b 933f
00000450: c4d0 d6ad b6cc a4bf c9fb 9eb7 4f61 7ebf
00000460: 0f23 96f4 2ba6 5fbf d7bd 85d8 6111 bc3f
00000470: f817 8a5b 2e6a a9bf 37ef 18e2 0f49 80bf
00000480: b042 159e 9a77 5fbf 78f3 1a4e 138a 93bf
00000490: f541 f18b e268 8b3f 4190 5eb6 83d8 963f
000004a0: 1dbc 6683 8859 aabf a68d 06d6 873f 9e3f
000004b0: 2700 9742 94d9 9c3f 412b 9c64 cbbd 9b3f
000004c0: 1c56 b4ef 6381 92bf e0ab 6110 eadf 923f
000004d0: 5c2d 1e2d 6ae3 933f 1dc0 0aa5 0d97 80bf
000004e0: 72a8 df91 a763 6a3f c589 d74b 26b5 8f3f
000004f0: ab4f 023a aeba 7c3f a340 f2fd fe1e 83bf
00000500: 4b7d d963 22ec 9fbf f75d ddbf 50bb 323f
00000510: e1e0 801f 1305 91bf e386 9b14 c6f5 92bf
00000520: 94ef 6678 8236 8dbf 8115 efb3 9d3d b93f
00000530: 4d63 3a7f f275 b43f e4e5 9e80 7820 6f3f
00000540: 520a b6a4 f819 73bf ed11 6f22 fe45 b9bf
00000550: a4fd e22d b997 7f3f 7d10 7f3a b241 773f
00000560: 6c18 cd21 5b9b 883f a527 02f7 cb8a 823f
00000570: 7801 c035 f497 a13f 704a 4f2a da4b a73f
00000580: bcbd 0e97 a582 85bf b705 c2f4 8ee8 ab3f
00000590: 7839 b6ff 53fa a1bf 1091 67ad 144d a5bf
000005a0: 116c 51d8 32cd 8ebf 6eb2 8f2a 441a 963f
000005b0: 2aef 7708 b8b3 6cbf 59de 635c 865e 613f
000005c0: 41ca f150 67a5 9dbf 5808 f317 1ec0 973f
000005d0: d117 5135 16bc a53f 9a1e 2784 a1f1 883f
000005e0: fdbb 4dad 46bf 883f 1af1 e9f8 cfc0 873f
000005f0: 9df9 fee0 b148 9bbf b66f 53a8 da29 95bf
00000600: b5b5 5cd7 ed2a 94bf 3e74 a488 e50c 8dbf
00000610: 8780 1318 227b af3f cdc9 2412 8221 aa3f
00000620: 7db9 3360 5931 a43f 3a3c 2b90 fabe 90bf
00000630: 09ee 7801 af0d 7b3f a073 5698 c8e7 983f
00000640: 95c5 5bf3 2cc9 853f 1a90 917e cfe2 933f
00000650: 80e1 230d cbfb 943f c22e da68 bd35 1b3f
00000660: a78f f56e 2829 93bf c3d7 e17e 2e8c 84bf
00000670: 4ead 205f c9f3 8e3f d309 c488 5b7b 83bf
00000680: 7671 a9d6 f596 83bf 2ba6 49fd 8ee1 a0bf
00000690: 95a6 f7e8 b598 583f cfe4 ec7b a6ba 8e3f
000006a0: e269 75e7 714a 643f e87b dbd9 49ad 7ebf
000006b0: d220 6e40 0c57 84bf 7d9c 134d faf7 43bf
000006c0: f551 1d8b 9844 9d3f c8fa 8ab1 8e9d 973f
000006d0: 9a5b 8311 8ca1 783f d7b5 a7ac 97d7 9e3f
000006e0: b2bc 688b 541b 833f 03e5 5af0 d122 a0bf
000006f0: ec57 7bc4 0b49 b7bf ce2d 0245 9c7e 75bf
00000700: 7841 7953 f1c0 5d3f 5c02 225b 549e b0bf
00000710: 2d29 f6a6 ab81 903f 317e ffae 3a02 913f
00000720: d7d7 2d42 c56c 82bf fe4e 9057 a4ee 813f
00000730: f125 55f3 e078 893f f94d f60d 0f3f 863f
00000740: cb0c 1eed bede b63f 3f22 de5e 31c3 853f
00000750: 3238 d9c4 14b2 afbf e501 9b40 e0c7 94bf
00000760: a209 2101 9dfe a3bf 9c22 1aac 6d99 803f
00000770: 9d0c fd74 272b a53f 843d 5352 a9c1 a13f
00000780: eb34 9adf 7d9e a7bf adcb a45b 482e acbf
00000790: 8a34 7265 6688 653f 37f6 a863 33ba 793f
000007a0: 9a4c d41e c22d 773f ac09 e26a 4a6b b0bf
000007b0: e9d6 5cdb 904d 8dbf 6b91 e5a3 4908 803f
000007c0: 50b4 e0f2 4636 c13f 37b8 32d8 0b99 423f
000007d0: bcae fd8e 6fc6 a8bf 0258 b1f6 d44f 96bf
000007e0: d67d 577e 9722 873f 6d49 c02c fbda a43f
000007f0: 04c0 ee4d 5696 953f 6d25 f3ea 8656 95bf
-0.004026992509212387 0.0481979256961571 0.0034481024945370708 -0.015891792459322575 -0.026036979405436592 -0.044699876811531876 0.02692013878341438 -0.006904431627621834
0.01604591176164928 -0.03669304070305458 0.005013767560670767 -0.014748632743055342 0.009514225377480838 -0.004064702147857058 -0.03650111479071846 0.012961665147259747
0.03596108884150368 -0.004348002383526848 -0.022931702598882546 -0.07805428887677433 0.002009609021986007 -0.019237242378257826 0.027404029797307706 -0.011045211343561005
-0.02328189381804456 0.008060255366060939 0.00684172884668605 0.004698865714818709 -0.08700272466370754 0.01593801382948344 -0.018740786209220487 0.018010438520140667
-0.030453018815034243 0.007416900521296634 -0.13366261736695 -0.0035866359798260197 -0.03320001603312975 -0.08890030042480235 0.0023818822757234806 0.053453457468827806
0.011250671237451021 -0.03433399010357576 0.018939728405603765 0.00889929625050691 -0.012966977379547474 0.028220080214911136 -0.004339455368565457 0.018307782550632996
0.12209264267348456 0.025945250482340202 0.016821211899741964 0.011280860263779485 0.0033638182521883806 -0.022844267531134946 -0.010320593506005246 0.015740155136374147
-0.01978426791772467 -0.012918628780662775 0.005580251505369612 -0.053416255180208205 0.013892745612165677 -0.014291229947914675 -0.026662821476929208 0.0016619755296569667
-0.05591525818384987 -0.0584177249069181 0.014321426045002916 -0.027082170187527704 -0.020729459738170995 0.11606293628074493 -0.012865780537053605 0.0032576742453866913
0.023126936582846987 -0.008882613323341627 0.008346667299292763 0.053215247404836054 -0.01204390860181714 0.024353131505990475 -0.03363401778034015 0.01864375383066186
0.002854182653183906 0.0010485460718172484 -0.0019649799868931145 -0.02351497001871302 -0.04121468277838865 0.04283309512368569 -0.045351113846697634 -0.061617400739946405
-0.01891309403321724 0.0037698333291218272 -0.00013924956220121807 -0.004816835769135169 -0.015803979790326855 0.018811319719781408 -0.10834482523747137 -0.16851911391166743
-0.07585832574429563 -0.036503945604746936 0.018973673421001185 -0.019362088204239986 0.0130827199579837 0.004237922436225411 0.014667510042968245 0.009229941156667825
-0.010200123126061791 -0.08092987574720065 0.016669365019635233 -0.007945615242361516 0.027170812713477644 0.0019098932013631256 0.007695981292739482 -0.012877475186837368
0.019903476480077252 -0.0018638549563305172 0.0027703881207992213 0.03975858669923053 -0.03040744767355658 0.0027598048757312664 -0.02156573337695329 0.01710666784942015
-0.0011610576153184818 0.03094651997180235 0.03819236028856219 0.024267729005988056 0.004344515063797712 0.01841799570829234 0.023254620631024882 -0.019090194100195607
0.012933113889248095 0.015885193217079797 0.01661060260623856 -0.004713017450158114 0.031331125191462875 0.00039088512729692224 0.06299475247019778 0.022093965146667824
0.02577333598499673 0.018720645065393143 -0.04062434074458701 -0.007417022128662639 -0.0019317082645519711 0.10964023147766198 -0.04963822238373433 -0.007951854789204666
-0.001920605653442358 -0.019081403391044444 0.013383645911887657 0.02231031227678693 -0.05146433452625152 0.02953922504242503 0.028173748554536495 0.027091196075200278
-0.018071710114858516 0.018432290315484212 0.01942220592858966 -0.008100611304456657 0.0032213471267726274 0.015482234181892882 0.007013969967505955 -0.009336464047266018
-0.03117421850617789 0.00028582307264943214 -0.01662092094213186 -0.01851567745951045 -0.014264125155811581 0.09859643595617308 0.07992473226694337 0.0037996629298191354
-0.004663440001766066 -0.09872425404234493 0.007713054043221677 0.005677887158473391 0.01201506802466331 0.009053796268080403 0.034362441598207505 0.04550058142162505
-0.010503095314418391 0.054508654954598716 -0.03511297699434385 -0.04160370461230134 -0.015039822794440412 0.021584572885262103 -0.0035036653896422148 0.002120268272047626
-0.028951277080020658 0.02319380780387123 0.04245061302985643 0.012179624410136914 0.012083580173309011 0.01159822920202962 -0.02664449630514697 -0.02066747333888915
-0.019695011396086055 -0.014184754593367651 0.061486306609141166 0.05103689643364682 0.03943900393811626 -0.016353526162500943 0.006604846588341492 0.024321684167819435
0.010637618233405624 0.019419900989660822 0.02049176471425218 0.00010379761280370894 -0.01871169259301522 -0.010033000228059202 0.015113423553052254 -0.009512629615078183
-0.009565277684651301 -0.032970875185878455 0.0015012527909398544 0.015004444748785066 0.0024769043626921986 -0.007489479523171895 -0.009931655613187127 -0.0006093952344174005
0.02858198498809546 0.02306197126994894 0.006013438360432577 0.030119295037300233 0.009329472069195741 -0.031515656080452835 -0.0909583429996414 -0.005247698238359756
0.001816020650853371 -0.06491591668055591 0.01611965376427198 0.01661006634810586 -0.008996525842785914 0.008755954668266504 0.012437589097902242 0.010862462628927526
0.08933633126257516 0.010626207072861436 -0.06190552618919333 -0.020293716376501698 -0.039051920306991464 0.008105141462935443 0.04134486487466769 0.034680644320924464
-0.04613107065697782 -0.05504060858438407 0.0026285171439384735 0.006281090487900757 0.0056588728741814535 -0.06413712605902927 -0.014308101362626018 0.007828307451469304
0.1344689069677849 0.0005675609430875254 -0.048388944821309704 -0.021788909489565363 0.011296447318215035 0.040733193600447894 0.02108130312598179 -0.020837886896321423

linear_layers.1.layer.bias f8 [100]
00000000: c25a e23c e5eb b43f f661 e7ed 235f b1bf
00000010: a465 5a14 9c28 9f3f d609 c9bc 3b6f 87bf
00000020: b6e2 bcd1 5fbc b33f ca2b 7067 f630 5abf
00000030: c7e0 e9ae 5b71 a9bf 85f5 5c09 f0ae a83f
00000040: de28 ff05 7ef1 9a3f ba91 8982 f086 b4bf
00000050: a99e 9c87 b018 b3bf ccd3 773c 090e 93bf
00000060: 4815 c022 0b5d a63f 03d6 27f9 5954 b5bf
00000070: 5899 6d3f 878b 75bf d7b7 bf47 2636 b83f
00000080: ad0c 4042 7af3 993f 2f86 0c11 b3d5 c73f
00000090: c52c 5754 02d2 a4bf c2ea c180 f596 ab3f
000000a0: 0d26 73aa 486e b63f 0f08 a6f3 2ea2 573f
000000b0: c301 194b e111 b43f 0096 8a2e cd2a b73f
000000c0: b114 118b 27cc acbf 0a1c 8bee 2d5e c3bf
000000d0: 225d 5717 b5ad babf 8472 2f9d a219 91bf
000000e0: 2ed2 242c 1af9 94bf e33d 82c3 b4cc b6bf
000000f0: b2e3 9471 9beb 7bbf f3ab f855 e013 903f
00000100: 7dd9 f93e 276f 82bf afe6 b278 2e35 af3f
00000110: 3798 84db 358c c5bf 0fc0 973a fd13 b6bf
00000120: 5b22 5555 c290 be3f 7fa3 5eb3 9696 b1bf
00000130: 9c7f 018b 5af9 ac3f 01a1 2c93 576d a3bf
00000140: a06c ec87 a377 c2bf e0ff c2f4 8328 cf3f
00000150: 484d 2628 c668 c83f 80d4 4426 9739 a6bf
00000160: 63ac a5af 71c5 bcbf c379 a0e1 8133 b33f
00000170: 710c f7d9 05bf c0bf 86bb 337b 579f a33f
00000180: fe01 f335 4ee5 bd3f b9a7 45b4 e841 82bf
00000190: 6558 bea8 2c26 933f b32c 5d43 be03 b93f
000001a0: 356c 552c 632b bf3f 65ee 4208 eca1 88bf
000001b0: ef84 21a2 5216 a3bf 1950 c624 f6d6 b03f
000001c0: 8b9f e41c e7b3 a03f bf16 4859 d261 c63f
000001d0: 58c4 c4d9 efd8 79bf 49ec 284f 3a4e ae3f
000001e0: da09 ff09 3fc3 a2bf e7c0 1248 2bbc ac3f
000001f0: 7a5b b55e 0ffe b0bf 362b ad09 2758 c8bf
00000200: 990c 28bd 0460 c03f b950 3f95 c509 b3bf
00000210: b24f 8206 cd78 a4bf 83fd 8a07 ba58 6dbf
00000220: 8545 faa4 9d99 b9bf 9e89 ad92 a68c a2bf
00000230: 2798 00ce f862 c03f c9ed c8b7 6f5c 6f3f
00000240: 954d 8ec4 e3ff a3bf 61d4 ad5f 55e6 a9bf
00000250: 3094 8ed7 83f6 b6bf 66d2 8048 1dc8 8dbf
00000260: d499 7202 ef4b b4bf 45b4 82e1 0eba bf3f
00000270: afe7 5e0a 10fc 85bf 5927 a586 cef1 b6bf
00000280: db1a 678c cfff 99bf 32e8 8eeb 1f38 b8bf
00000290: 14fa 55fc fe04 a33f ccaa e6f8 65cc a53f
000002a0: ee62 5084 a9da 88bf 4d19 28aa 9593 8a3f
000002b0: dea2 920a 1585 b13f 8fdf ab5e a9c1 c93f
000002c0: f033 37ad 7f2f d53f c716 89d9 a821 68bf
000002d0: 2fe3 ea73 1839 54bf 77e2 bf57 6b35 adbf
000002e0: f3db ab9e f4bc abbf 97e4 0e88 dc9c a9bf
000002f0: 5854 9e6b ed1c afbf 2e4b 8ba9 58ab c2bf
00000300: 8a67 8748 7d19 98bf d145 d723 ab1f bb3f
00000310: 823e fc33 130b c73f 7e20 d5c1 6d50 b3bf
0.08172447906904792 -0.06785797651480849 0.030428351156478364 -0.011442629526872954 0.07709311361839863 -0.001598587635956094 -0.049692978955989946 0.04820966829582133
0.02631184493638094 -0.08018401324222327 -0.07459548292956221 -0.01860823089187473 0.04367861556242275 -0.0833183511056959 -0.005260017692171402 0.09457625629121878
0.02534285573348132 0.18620909054247778 -0.040664742274736855 0.05388610073801693 0.08762029801723532 0.0014424761307911848 0.07839782794417886 0.09049684892905674
-0.056245074964445314 -0.15131162784220492 -0.10421306438307856 -0.016699353069145065 -0.020481499618840875 -0.08906106732523926 -0.006816489412181536 0.015700822112346868
-0.009001070603727563 0.06095261786817951 -0.16834138125085626 -0.08624251060950903 0.11939634879412024 -0.06870405081884988 0.056589917629707304 -0.03794358893930117
-0.1442760862053989 0.2434239335179873 0.19069745026045326 -0.04340813009404432 -0.11238775766621383 0.07500468977421008 -0.13082955496620088 0.03832505587512629
0.11678017441864338 -0.008914773942439657 0.01870031146935282 0.09771336693408976 0.12175578911176006 -0.01202759170734353 -0.03727968434464823 0.06578005216425743
0.03262254932116012 0.1748602806039141 -0.006310402790675594 0.05919058052355603 -0.036645860643620146 0.05612311606216896 -0.06637664854257067 -0.19019020054323627
0.1279302524199906 -0.07436785596593411 -0.03998413757759013 -0.0035823472393016766 -0.10000024106763845 -0.03622932949544409 0.1280203824873649 0.003828256796877237
-0.03906165861476577 -0.05058543007809458 -0.08969902050610368 -0.014541844153520955 -0.07928365525967901 0.12393277173642143 -0.010734677616586056 -0.0896271780703989
-0.02538990301561737 -0.09460639477666247 0.03714749174377033 0.04257506049483126 -0.012135815000918506 0.012976807837742266 0.06843692310452407 0.20122258303285576
0.3310240928229282 -0.002945737633384879 -0.0012343157574560939 -0.05704818197404376 -0.05417599141031095 -0.05002488289705658 -0.060767573725720225 -0.14585407522698673
-0.02353473429852885 0.10595197320005602 0.1800254825434316 -0.07544599516143255
