4_Poisson_2D/logs/models/2024-01-02-16-10-01_2d_poisson_rbf128_100X5/epoch_16000.pt (torch, 440187 bytes, 14 tensors)

rbf_layers.0.centres f8 [128, 2]
0	0xbfc3f28fe58db4c6	-0.15583990772885253
1	0x3fdf99f8ad3a3e72	0.49377266804456277
2	0x3fde8cdc3351cdbe	0.4773474217574537
3	0x3ff234bd3690e901	1.1378757602201974
4	0xbfc70e29784a6b8e	-0.1801196896893455
5	0xbfe9470e52928be3	-0.7899238217108827
6	0xbfcb55144405d0fd	-0.21353391000196345
7	0xbfe766a50b926bfc	-0.7312798715605591
8	0x3fe1cb095fcf967f	0.5560347434336136
9	0xbfcb8b36bf564627	-0.21518596975924817
10	0xbff11ce3005ff7a2	-1.0695524229663325
11	0x3fcfbec4a72908b0	0.24800928270457723
12	0xbfed7668f46c17c5	-0.9207043432113485
13	0xbfe24eb30afcc3dd	-0.5721068586918779
14	0x3fe40f17744e32bc	0.6268422385779426
15	0x3fe4653b24d2a326	0.6373573035426474
16	0x3fe2206b752e5ce8	0.5664574898427448
17	0x3fe8fb4d93aacbf7	0.7806766399502284
18	0xbff5fd597644eca3	-1.3743528957263969
19	0xbfe2eca40445988e	-0.5913868030009028
20	0x3fe75f0c18213991	0.7303524466786248
21	0xbfebc63808462373	-0.8679466401673451
22	0x3ff557f2be8451a5	1.3339717332902208
23	0xbfd7c87e1e3e9617	-0.3716121001583316
24	0x3fd8cc9a78a0c302	0.38748800067973843
25	0x3fc1a6954142fe90	0.13789621054273882
26	0x3fe36fe53ddf8f54	0.6074091156446948
27	0x3ff47f6697f9e60e	1.2811037003106125
28	0xbfe5ae12abf2c75a	-0.6774991377226158
29	0x3fcbfa409597eba5	0.21857459358565481
30	0xbfc130b92a72b2cf	-0.13429941723497626
31	0x3ff6f682d5675a23	1.4351833664019373
32	0xbff755d8cbcddbea	-1.4584587060069176
33	0xbfe9df57c96925dc	-0.8085135396769902
34	0x3ff107c4e0a1d804	1.06439674136118
35	0x3ff5a38bae91d8c6	1.3524281329278423
36	0x3fb90236f762e52d	0.09769004382805653
37	0x3fb6f115a37627fd	0.08961615792046014
38	0xbfd71351f6ca7383	-0.3605542097155238
39	0x3fc7e8d4c467661e	0.18679294195207857
40	0x3fd70da499bff57e	0.3602077008689192
41	0x3fdc7f7cbad36feb	0.44528120274276145
42	0xbfbb4e2d9537ba81	-0.1066616524983406
43	0x4001dc6eb7d931c4	2.2326330531270475
44	0xbfe478fb1f01754c	-0.6397681813793183
45	0x3fe98d40f3397155	0.7984928846813469
46	0xbff05446ee6c155a	-1.02057545789406
47	0xbfe5fee98fbc5a10	-0.6873672301615574
48	0x3fe1d9900cb92cf8	0.5578079460623533
49	0x3fd7261ca85b3bca	0.3617011684518131
50	0xbfdbc8f02600359c	-0.43413928710000405
51	0x3ff3df597abf6547	1.2420286936597493
52	0x3fe6d82cf1e54605	0.7138886189006263
53	0x3fee052abfca8b7b	0.9381307359620757
54	0x3ff111ba68692074	1.0668281630078384
55	0x3fd6ee6de7b68fc2	0.35830257061229187
56	0x3f9569ba11e5c8dc	0.020911128370649887
57	0xbfe42e568e32beb0	-0.6306565072354342
58	0xbfe086cac6152264	-0.5164541119384691
59	0xbfe18b02567512b0	-0.5482188881511174
60	0x3fe71e705f22fd38	0.7224656923425874
61	0xbff7f0b07a8e5961	-1.4962620532365565
62	0x3ff30876e3f1181c	1.1895665077186157
63	0xbfd814ccde606efb	-0.3762695476195714
64	0x40008cc91aecc8d1	2.068742952681625
65	0xbfe4f646da2c8111	-0.6550630818565272
66	0xc00142f3004993b8	-2.1576900503591467
67	0x3fe2338c4cbd197b	0.56879248607656
68	0xbff8d383507cf44a	-1.5516389030519968
69	0xbfec7a7df96f941d	-0.8899526473802585
70	0xbfda6b3052656d61	-0.4127922825479882
71	0xbfe348f16a650323	-0.6026541784304736
72	0xbff75ed3a86d5627	-1.4606510714705878
73	0x3fe94ebd6079e153	0.7908617862986297
74	0x3fee720146598c0c	0.9514166234988592
75	0x3fe6727d95b8ce70	0.7014758991485461
76	0xbfdc0aacde568321	-0.43815156662644666
77	0x3fb5a4941b04b558	0.08454251918438638
78	0xbfecabc0696d4a79	-0.8959657725448117
79	0xbff6d2282c4f9843	-1.4263078432936858
80	0x3ff159554358f43d	1.0843098288307964
81	0xbfe9e0f2cb8bd8d8	-0.8087095237267716
82	0xbff047b90fbe9393	-1.0175104727761421
83	0x3feac74180ca9b55	0.8368232264955205
84	0x3fec014369438cde	0.8751542144713331
85	0xbffaa210b2532e9d	-1.6645667043511942
86	0x3fd7665640b7cb28	0.36562115020858466
87	0xbfd272b3ab41dd82	-0.2882508442339359
88	0xbfef8dbfbd9d7295	-0.986053343145232
89	0xbff118b71bd58ad5	-1.06853400109019
90	0x3fdb9ef9409d3127	0.43157798109020223
91	0x3fe5dfd33273c4f6	0.6835723863024714
92	0xbffb1e1d25dec31c	-1.6948520163825327
93	0xbfc21d6d830ce024	-0.14152306460323516
94	0xbffd3cc2d7aca817	-1.8273342537672812
95	0x3ffc6ecee676cbaf	1.7770527842046524
96	0x3ff1e4db3da859ba	1.1183731468678233
97	0xbff04758c80a3fbb	-1.0174186529220453
98	0xbfe33b4b46e22f7b	-0.6009880432552416
99	0xbfe79d772340e507	-0.737971848349077
100	0xbfdc2044adcf7e5c	-0.4394694993370416
101	0xbfc6e2593ad8e3fa	-0.17878260968589627
102	0x4002ed890911671d	2.3659840305744084
103	0xbfe5a3aad93dc35a	-0.6762289278977776
104	0x3fe11031dc9c552c	0.5332269009401549
105	0x3ff25f2e10a05849	1.1482372903315243
106	0xc000ae451d2e9474	-2.0850927619781547
107	0x4001409b7039fa03	2.156546475190454
108	0xbfdf721d98a42002	-0.49134006410940867
109	0x3ff515ee2e8120b6	1.3178541008547149
110	0x3ff5d00aec8f571d	1.3632916679975502
111	0x3fbf0b03bb3ec597	0.12126181909004284
112	0x3fea697ed1aac59b	0.8253778548297989
113	0xbffc78dbb28bef28	-1.7795063948132768
114	0xbf98020e3ea7a254	-0.02344534165777852
115	0x3ff305ce27f480a9	1.1889173088784821
116	0x3fcd3bd9485ae3c9	0.22838893921814776
117	0x4000f4a90f09a275	2.119463078958058
118	0xbff8b17b1bdafeee	-1.5433302963355646
119	0xbff1e6c51032cfc4	-1.1188402779343827
120	0x3ff52442cb207f8b	1.3213527617117247
121	0x3ffb21e4d8debf8b	1.6957748862732582
122	0xbfedb3e4d57fe068	-0.9282097024834117
123	0x3fe236a2f8db6d28	0.569169508027163
124	0x3ff608fc2f871582	1.3771936279821095
125	0x3fea297d0517bff4	0.8175644969433038
126	0x3fec615c4d1139f1	0.8868848328800693
127	0xbffe742843ebb65c	-1.9033587124971723
128	0x3fea7b193a2c16e8	0.8275266777206669
129	0xbff030d6ff5b91c6	-1.0119237875852476
130	0xbff07314d2e9739c	-1.0280960310694587
131	0x3fea0e3a2475ca7d	0.8142367088424433
132	0x3ff0338b26053a5e	1.0125838742420892
133	0xbffc7293b5b74e9f	-1.7779728983195253
134	0xbfe7d4cd5910ee43	-0.744726823766037
135	0xbfeff6c9546da90c	-0.9988752984038753
136	0x3fe1923004c3c397	0.5490951626835451
137	0xbfeaf064567ace56	-0.8418447197968344
138	0x3ffc3271189849af	1.7623148880708006
139	0xbfe151fa75519250	-0.5412571231250443
140	0x3ff8884280812a23	1.5332665462216333
141	0xbfe05d5da8f11d36	-0.511397199596934
142	0x3ff50b47e9e4df4e	1.3152541290746345
143	0x3fb2cf1c593da252	0.07347275904397435
144	0xbff05643cdc2d8a8	-1.0210607564490974
145	0x3ff34f88add063f4	1.206917456589733
146	0xbff13daf9a743a7e	-1.0775600465164241
147	0xbff4576ce2e4c80f	-1.271344076445988
148	0x3f90646085ec6e48	0.016007908033414148
149	0xbfe1ff10b76aa7af	-0.5623859007221109
150	0x3fefff7fc2249d6a	0.9999388496261592
151	0x3ff329ef2dd79665	1.1977378645618952
152	0xbfc88ac8032b26ff	-0.19173526911463765
153	0xc002157586259144	-2.2604780655111956
154	0xbff2f764be82deab	-1.1853988115162035
155	0xbfc7dfa09acbdd1a	-0.18651206549086724
156	0xbfeef2f5b2b0ccd6	-0.9671581735659867
157	0xbfe231b0f9ad6615	-0.5685658337126279
158	0xbff384442c507fd1	-1.2197915774377075
159	0x3fe0be5f070f8210	0.5232386720563813
160	0x3fdb0068a9e4410b	0.42189995375612516
161	0x3fc1d21f54fdb351	0.13922492647125265
162	0xbfd3ebb9dbb4de01	-0.3112625737735187
163	0xbfdd4a2b855b12b4	-0.45765197775862565
164	0xbfe229f3b08dbd56	-0.5676210830987809
165	0xbfe6334c183380ad	-0.693761870639738
166	0xbfe9381e7e7985c8	-0.7881004781922281
167	0x3fe26e7cf475760e	0.575987317522676
168	0xbfe6ac762cdfc880	-0.7085524441192916
169	0x3fe512b5938a86df	0.6585338479673871
170	0x3fe8f53ccc5a70f0	0.7799362174296487
171	0xbff3df00b3676b5e	-1.2419440277069138
172	0xbff6ffc5b1dd0ce2	-1.4374443958084204
173	0xbff2d3e9c01e34ce	-1.176736593686019
174	0xbfe7d2eb20f3936f	-0.7444968837340705
175	0x3fe7776eee34b446	0.7333292629679213
176	0x3ff18c2bd3012623	1.0967214815485782
177	0xbff2f211d443999b	-1.184099034458632
178	0x3fdd11bc78293c29	0.4542075322578421
179	0xbfec46c15ac70011	-0.8836371205325141
180	0x3ff6f81ec6ae8487	1.4355762253765378
181	0xbfbafe353bbc5101	-0.10544140537632886
182	0xbfeca5213b35afa9	-0.8951574474754028
183	0xbfebb9606b4bdd14	-0.8663789840346987
184	0x3ff4762091cef124	1.27883965450662
185	0xbfe7818032e01793	-0.734558200231492
186	0xbfd84f343d3024fa	-0.3798342320956888
187	0xbfe36a9e7411642c	-0.6067650095893717
188	0xbfde47efe72c66d9	-0.47314069343120263
189	0x3fda4f1328a9c75f	0.41107634516730757
190	0xbfd84a2f8d22fca0	-0.3795279386794821
191	0xbf93a8b69e6535be	-0.01919827787178518
192	0x3fddf824d69bfe3e	0.46827050168937834
193	0xbfc5f8eb95b44c24	-0.17165894326953535
194	0xbfe40ddf7f69b9a7	-0.6266934860739654
195	0xbfd06dfba0179a97	-0.2567128241920868
196	0xbff06c3ba1587c1f	-1.02642405534403
197	0x3fcd04e5d716af21	0.22671196939824603
198	0x3fe25f2f74d954b2	0.5741193086820628
199	0x3ff4261354515b76	1.2592957776703009
200	0x3fe21c4a293bd1af	0.5659533315033992
201	0xbff258402b5a36df	-1.1465455716565243
202	0xbf772ae267bac680	-0.005656132121360735
203	0xbfe21deb87212664	-0.5661523474929706
204	0x3ff0d1775e223e82	1.0511392285442587
205	0xbfe60b80b0863b27	-0.6889041373959558
206	0x3fe33066205097e2	0.5996580725811749
207	0x3fe2d703f29f6cf8	0.5887469996190751
208	0x3ff1c084123e356f	1.109500952970247
209	0x3fe43a17b34f5479	0.6320913793703219
210	0x3fd4079ce7760b26	0.3129646549570445
211	0x3fdb6228f8112b83	0.42786621308612655
212	0x3fe9a19e3c88a37a	0.8009787733363816
213	0xbff608d107b8061f	-1.3771524716870613
214	0x3ff992ff007401d5	1.59838771988881
215	0xbff1d60844a2001e	-1.1147539788216885
216	0xbfe6d61d0ef94f69	-0.7136369030435904
217	0x3fdc61e95420c37b	0.4434760400354702
218	0xbfd6e7e6e024acd4	-0.35790416611662335
219	0xbfe4f07aef854522	-0.6543554952751587
220	0xc004a13c14eed2af	-2.5787278781302443
221	0x3fdf27876e9e3091	0.48678766062290274
222	0x3fea660880be179f	0.824955226373948
223	0x3fe00cd6c34cdfa5	0.5015672506769887
224	0xbfe17b1a9cc1d9d0	-0.546277338186707
225	0x3ff236762b427ac2	1.1382962884742232
226	0x3ff32f0314b48948	1.1989775475309035
227	0x3ff560e984a4cd31	1.33616020025222
228	0x3faa245eb8cb9394	0.05105873113442452
229	0x3fd9ea8a4f32ae6a	0.4049402020852769
230	0xbfe7a78d20c905ae	-0.7392030372940803
231	0x3ff5dfef5b849e37	1.3671716284678845
232	0xbfe7a0e4977e786f	-0.7383902510516814
233	0xbfe038eef240f7d1	-0.5069498759764831
234	0xbff193297e3ec054	-1.0984282428217016
235	0x3ff2cd2f323eceda	1.175093837996363
236	0xbfecfd3df9bc510c	-0.9059133412979761
237	0x3fe9e755d86971a8	0.8094891764445054
238	0xbfd23f7d2cda31d1	-0.2851250589381183
239	0x3ff7114c6ba02ff8	1.441723270810142
240	0xbfebd8bc21a8f367	-0.8702068955823109
241	0x3ff387d901412165	1.2206659363747232
242	0xbfe77974e6c479de	-0.7335762507607873
243	0x3fe60f90ee569962	0.6894001631779185
244	0xbfe04d54c051c7dc	-0.5094398266066906
245	0x3fe1046d69922c00	0.5317904531415252
246	0x3fe8ee9222a9f20f	0.7791224171665493
247	0xbfe98242806d5ccc	-0.7971508510917373
248	0x3fd3b2358c3755ac	0.30775202458365913
249	0x3ffe14a91152fa36	1.8800440479968876
250	0x3ff2b16de2c28f7e	1.1683176858723239
251	0xbfac15585c2a49f3	-0.054850350618966724
252	0x3fb08af6dfc6f97f	0.06462042773543962
253	0x3ff3f8d4afe6f761	1.2482497092418827
254	0x3ff369ff9a75d014	1.2133785279847915
255	0x3fe61d9b699ac28a	0.6911141455257888

rbf_layers.0.log_sigmas f8 [128]
0	0xbfe0346ab63e62c9	-0.5063985404441037
1	0xbfe411f2a36a7624	-0.6271908942905537
2	0xbfd4a41d9b9effbf	-0.32251682469722803
3	0xbfdb8a183143898d	-0.4303036194889039
4	0xbfe922a1ee274b07	-0.785477605002911
5	0xbfd0a13eaf8ed6e5	-0.2598416056092517
6	0xbfc26bf32a73d63c	-0.14391936848521591
7	0xbfe7b25b3f8fd7a6	-0.7405220261996319
8	0xbff01b0ec6d0f121	-1.0066058889634137
9	0x3fa6c9bbfda33cc5	0.04450786086237594
10	0xbfd3d8579350e4e5	-0.3100794733650914
11	0xbfda7f08864eb041	-0.4140034972758749
12	0xbfeaf99cd33953e8	-0.8429702878444205
13	0xbfe895987549c4ba	-0.7682611742767655
14	0xbfd9c1a3b383e670	-0.40244381457123435
15	0xbfd57285dfb7d419	-0.33511492583721886
16	0x3fb6c24934ae6dea	0.08890206848302964
17	0xbfce9f1ed838210d	-0.23923097188549783
18	0xbfdf2844241f7fa6	-0.48683265235558293
19	0xbfdf2a55600c2719	-0.48695883159290215
20	0xbfed1f422695e511	-0.9100657228110852
21	0xbfb608c6fc6acdb6	-0.086071430802625
22	0xbfdf461f0fbb01ff	-0.48865486656362117
23	0xbfb0f6f69f9c9bff	-0.06626836201449747
24	0xbfe9aafde317a0f8	-0.8021230159183963
25	0xbfd76a4a666edb8a	-0.36586246493555363
26	0xbff96d9757d1f29f	-1.589255660102175
27	0xbfe6a6e0827d1cc3	-0.7078707264526191
28	0xbfddc15f54349ada	-0.4649275133437364
29	0xbfd38e226c0d40fa	-0.3055501990502446
30	0xbf8bbdd9eda97bc7	-0.013545706334466957
31	0xbfdc4f73f64ec022	-0.44234942487219275
32	0xbfacb04e7bf40f99	-0.056032612448716886
33	0x3fc4b5ae5a560556	0.1617944661229937
34	0x3fbfbc81aaee9a2c	0.12397013114114291
35	0xbfd6e4147e817db5	-0.3576709018143121
36	0xbf992c459d8fa258	-0.024582946531071265
37	0xbff6ccd6397e077c	-1.4250089879792247
38	0xbfddb0af30ca8fe5	-0.46390895619174294
39	0x3fb6733b9a97ec29	0.08769581341032108
40	0xbfd1f7a124870e30	-0.2807391030039268
41	0xbfc7841a5019af5a	-0.183718957053652
42	0x3fb19a0d8fc1ec3a	0.06875691184716085
43	0xbfe666f360321c08	-0.7000672224829723
44	0x3f759bbea7903dd8	0.005275482887568704
45	0xbfe7c8bc95c361d0	-0.7432539868414612
46	0x3fbb8b3cc36d1945	0.10759334345957423
47	0x3fc720a90db57569	0.18068421525360215
48	0xbfc71e1e5e20e0b5	-0.18060664745440183
49	0xbfca76b9c6362d51	-0.2067482202367992
50	0xbfdab33addf3b008	-0.4171893279551573
51	0x3fa8a74b3ab49ed3	0.048151350895123145
52	0xbfeba7d8868d5326	-0.8642389896363951
53	0x3fd0f620ca22b4a8	0.2650224660854499
54	0xbfd8bcfb5adf3084	-0.38653453706934493
55	0xbfda3bb0bab54b37	-0.4098932097742138
56	0x3fb8c83af1e4f032	0.09680527120230023
57	0xbfe197fc93870635	-0.5498030549426348
58	0xbfc215671422188c	-0.14127815707269453
59	0x3fc147e2f418716e	0.1350063030121293
60	0xbfa5ede60da4638c	-0.04283064762621
61	0xbfd2b6a59c9d7d63	-0.2923978833623179
62	0xbfd0d3c9181cdf4f	-0.262926362559928
63	0x3fc2f21966086db2	0.14801328165127142
64	0xbfcbe70dd3492a1f	-0.2179887086552563
65	0xbfce4653278bf33b	-0.2365211432551407
66	0x3fc129b8aa48f035	0.1340857345074952
67	0xbfb5f70e5344c4d0	-0.08580102475095264
68	0xbfd33b9feafcbbc0	-0.30051420162174836
69	0xbfc3e6a0f3b87907	-0.15547572994632494
70	0xbfd1aab58b09b261	-0.276044259814432
71	0xbfdd0fc621ff49e5	-0.45408776588479177
72	0xbfc3db6d6d4fc604	-0.1551338943241235
73	0x3fb4211785a0784c	0.07862994205831447
74	0xbfe08d7eeb930fb3	-0.5172724343360556
75	0xbfd562bc98ff237d	-0.33415141049459135
76	0x3fd0ed73b5190057	0.264492918828187
77	0xbfbf2f0d5ea21959	-0.12181170997982828
78	0xbfb9e4249cbe48c9	-0.1011374361681049
79	0xbfc3626b5963005d	-0.15144101967416904
80	0xbfe719325de1601b	-0.721825774536231
81	0xbfd8511f83c11563	-0.37995136133789326
82	0xbfcd3e969eda5a91	-0.22847254520884921
83	0xbfd64b7d785f5278	-0.3483575511466266
84	0xbfd6c919aec6849a	-0.3560241896430597
85	0xbfb9b1fc54adbb08	-0.10037209575032702
86	0x3fbb9d6e1b078e5e	0.10787094268703742
87	0xbfd9ff25f208d9ae	-0.40619801174343706
88	0xbfba46b77a8c0305	-0.10264155141704741
89	0xbfd299b93a008cb6	-0.29063254036209274
90	0xbfd6b6afc71b27cb	-0.35490030712082604
91	0xbfb6714c2e91155d	-0.08766628395922767
92	0xbfd310925f83a29d	-0.2978864605670795
93	0xbfd8a0859a7420f3	-0.3847974785171708
94	0xbfe07a0f470ba163	-0.5148998630148011
95	0xbfd9a496dce2c3c0	-0.40067073412779663
96	0xbfeb269bded96672	-0.8484629967235391
97	0xbfd53e29e591da25	-0.3319191686527197
98	0xbfce0ce40402c022	-0.2347683925231659
99	0xbfe3039d2abac95c	-0.5941911539614853
100	0xbfc6c3cf57bfed2d	-0.17785064491895622
101	0xbfe113e097afba69	-0.5336764299989457
102	0xbfd7ad14bf75251a	-0.36993902871161455
103	0xbfec1a7a5a1d8903	-0.8782321701112611
104	0xbfeed3b707ee1b14	-0.9633441119084147
105	0xbfe7f22381ab8f99	-0.7483079464550314
106	0xbfa26d5d84230b9a	-0.03599064100264755
107	0xbf96bb461918ce09	-0.02219876793078693
108	0xbfd4defccba96e69	-0.3261100758443037
109	0xbfd593d70cc292bc	-0.33714843984698084
110	0x3fcd29a831e8c6e0	0.22783377110459124
111	0xbfeb36b599f925ee	-0.8504283911981341
112	0xbfd9b236f46b629e	-0.40150236004914486
113	0xbfc103d97dabead6	-0.13292997967058423
114	0xbfe44dfcf5dcc41f	-0.6345200349807135
115	0xbfce8b87cf87bff1	-0.23863313325227822
116	0xbfcd0fc9f92cbea4	-0.22704434077012536
117	0xbfc336040a21a906	-0.1500859307737487
118	0xbfd2010b3691836d	-0.28131370858141375
119	0xbfd994729e7f4ebc	-0.39968553045512656
120	0xbfcc9f8685d78d1b	-0.22361833129171135
121	0xbfdcad80a8c8e0a2	-0.4480897568023555
122	0xbfd8bcab89df06eb	-0.3865155073545867
123	0xbfd523b2a24a8a5a	-0.3303038201212637
124	0xbfcf923446b857a4	-0.24664929822091353
125	0xbfdbe0410163768b	-0.4355623735008087
126	0xbfde20f964afa739	-0.4707625849974764
127	0xbfe3b98f753f864c	-0.6164014139178078

linear_layers.0.layer.weight f8 [100, 134]
0	0x3f91f4d1c5d40245	0.01753547449061645
1	0xbfb9c16d9e0e104a	-0.10060772999537551
2	0xbf7ca84d008181d3	-0.006996441639870859
3	0x3fc0f861cb7e7a39	0.13258001743538886
4	0x3f6ac0d548a9a4f2	0.003265778131482316
5	0xbfc29a5978badac0	-0.14533537287726084
6	0xbfa7580860abb7fb	-0.04559351139128861
7	0x3faffd158437661d	0.06247775305719137
8	0x3f9dd11941cf1449	0.029117960588127798
9	0xbfab9555987236ab	-0.05387370572962643
10	0x3fa34226297b6af9	0.03761405235646537
11	0xbf9d56a7fc278e06	-0.028650879636087388
12	0xbf99f7c4400945bd	-0.02535921707960197
13	0xbfc2f9a9c3161cc8	-0.14824411416723238
14	0x3f81750a82100087	0.008524019331162215
15	0xbf90734515bc8e10	-0.016064719630902558
16	0xbfadac027c75f52c	-0.057952954953160635
17	0xbfbe4fab436c66b3	-0.1184031524284375
18	0xbf952db26b0c3cc7	-0.020682132514647813
19	0xbf84935ef616cfbc	-0.010046712765735204
20	0xbfb20212d67de899	-0.07034414040200189
21	0x3fbff19c7892e7be	0.12478044456193424
22	0x3fc04a68bad0b58f	0.12727078554000257
23	0x3fb33fe8c56419bc	0.07519392794720309
24	0x3fa0a0eae1b3b20f	0.0324777031436022
25	0x3fc224f7b1e47384	0.14175316034461727
26	0x3fbf47255c049a8a	0.12217935081990042
27	0xbfb2ddfaad6a960e	-0.07369963392064724
28	0x3fac58b1a2c1ec47	0.05536418067728071
29	0x3fada3e9a6cb9d29	0.05789117966724639
30	0xbfbea3d9d576604c	-0.11968766652569335
31	0xbf95d6307e0263f0	-0.02132488030528984
32	0x3fd1fb671df38728	0.28096940922670166
33	0xbfe52497fae4b5b9	-0.6607170009862592
34	0xbf87c66fe14d6643	-0.011608957350904286
35	0x3fbc2b80ef3c7f4f	0.11003881302576456
36	0xbfd077ad9403192c	-0.25730456785494726
37	0xbfa36a632771c574	-0.03792104584216363
38	0x3f961ccd01ff8cbc	0.021594241377795184
39	0x3fc9a65aade66596	0.20038922778330165
40	0x3f041b81524f64c0	3.8351902084074376e-05
41	0xbfb21804d6fe3bd5	-0.07067899941306106
42	0xbfd0339377bbffc7	-0.25314795201120116
43	0x3fab7aa2b0ed6743	0.0536700097060945
44	0x3fbe4f69a16ca276	0.11839924040817515
45	0x3fbe6b265b446a17	0.11882247665600008
46	0xbfcbbffe252e3b50	-0.21679665389498348
47	0xbfe3297ee8d9cc27	-0.5988153980127934
48	0x3f7cac07ef5b7c5f	0.006999999042562071
49	0x3fc068df263ac971	0.12820042959863145
50	0xbfa4c1e96b1dd7e7	-0.04054192955565821
51	0x3fd0effe3b7eff43	0.2646480160728865
52	0x3fb064019a67a062	0.06402597446106165
53	0xbfe0cef03e45baa8	-0.5252610412843142
54	0x3fb102916e1ea663	0.0664454358908642
55	0xbfb074ebe39ae098	-0.06428407961618843
56	0xbfc1b15f93970e64	-0.1382255049376112
57	0x3fc2bb5dbdd6964f	0.14634296197361826
58	0x3fb79f881f01c24e	0.09227801091197671
59	0x3fb7d2fb064bd6e6	0.09306305793492306
60	0xbfd517a61187298d	-0.32956840240208224
61	0xbfb42dba1b1ba3b1	-0.07882273828330601
62	0x3fc20e4c752b3419	0.1410613605607132
63	0xbfd1c7c57d8203be	-0.27781808144214526
64	0xbfbda70bb211c159	-0.11583016488453292
65	0xbfb5530829622271	-0.08329821596465493
66	0xbfc694228400c1f1	-0.1763957161470127
67	0x3fad394800f6167c	0.05707764636740095
68	0xbfafdf04d5fdc1a2	-0.06224837410161689
69	0x3fb025dcc8283afb	0.06307773481988115
70	0x3fc24642eaadbe37	0.1427692075626383
71	0xbfb21e83d62c687d	-0.0707781217464873
72	0xbfc1ec156f4b4c71	-0.1400172036579508
73	0x3fc97b254475355f	0.1990706047312569
74	0x3f9f81dd2633ad16	0.03076882882753037
75	0xbfbabd0001c4dbcd	-0.104446411544685
76	0xbf71888adc829ed2	-0.004280607630938698
77	0xbfc02e78c09f8273	-0.12641820340560947
78	0xbf948e33099578ff	-0.020073697528794728
79	0xbfc282acd1230be4	-0.1446128865410109
80	0xbfa04f73d3845911	-0.031856174058861104
81	0x3f83a6a828808a7d	0.009595216499353793
82	0x3f93e6089724fb3c	0.019432195878148692
83	0xbfa67f183db32efe	-0.04393840554402394
84	0xbfa63eb1debdfb9b	-0.04344707340259576
85	0xbfc14ffdcd533f38	-0.13525364423412056
86	0x3fc049afe881a034	0.127248753098003
87	0xbfb5f1cd4780e67d	-0.08572085376445134
88	0xbfb6886277de91ad	-0.08801856447695995
89	0xbfb0b2bc04ab5359	-0.06522727121348505
90	0x3f74a7752cd9f2e5	0.005042512622477989
91	0x3f9c81ad99a07850	0.027838432790410927
92	0xbfa8b985f9193f2e	-0.04829043069605486
93	0x3fb5f60f70a2d51e	0.085785832404174
94	0xbf9a986176e5334b	-0.02597191131762892
95	0xbf9717871eacd674	-0.022550688979399117
96	0x3fb91a3ab6ede993	0.09805647817657918
97	0x3fadd9db438a18f6	0.05830273818451019
98	0xbfbf3366cc399b26	-0.12187807546579829
99	0xbfc0a8bdd1cc4a9f	-0.1301495813755382
100	0x3f9bb6eb25f3e237	0.02706496638436048
101	0x3fb4cef512dec488	0.0812829180784026
102	0x3fb27fbeccef045a	0.07226173880828082
103	0xbf85a56ebd8be217	-0.010569443854806555
104	0x3fc7d35db28195d6	0.18613787857172664
105	0x3f96806ebf8e679e	0.02197430652777365
106	0xbfb876c6c5646942	-0.09556238478800075
107	0x3faf0041db6e7363	0.06054883769613786
108	0x3f9c0aecf003cec0	0.02738542761740237
109	0x3fc14b460db76528	0.1351096693968341
110	0xbff0471ab57c9a9e	-1.017359455997997
111	0x3f9f4e380e8c68ca	0.030571819198578244
112	0x3fb2436164e096e4	0.07134064400505796
113	0xbfbe734ed275784f	-0.11894695890575345
114	0x3fbb3deb96aed7cd	0.10641357830795002
115	0x3fa24ac66e5044e7	0.03572673889733285
116	0xbf746a69c4eab3a0	-0.0049842959985370305
117	0xbfae5607cb572c49	-0.05925011021789623
118	0xbfc1cb2c1b501313	-0.13901282628662467
119	0x3fb2c9afbc4f1473	0.07338999125848193
120	0xbfb26c03f9b0624a	-0.07196068616793486
121	0xbfb2a08c9c053462	-0.07276228722658254
122	0xbf942a7b3f83b001	-0.019693303825008005
123	0xbfa1e5067a712c55	-0.03495044941572504
124	0xbfac8bb4b8ada04b	-0.05575337175724878
125	0xbfa2c5728d8d1e89	-0.03666265466614244
126	0xbf6411e2dfa73921	-0.0024499350667844953
127	0x3f97982ad7289993	0.023041409857023586
128	0xbfa3a48141ea94ea	-0.038364447876384336
129	0x3fa577f2b373f331	0.04193075600230712
130	0xbfaa4cc878258fb8	-0.051367058435772106
131	0x3fa8397d87ab1c00	0.047313616572459694
132	0x3fb37c40fe69f8c7	0.07611471377637989
133	0x3fb0948b313276e1	0.0647665972814724
134	0x3fced850aff61450	0.24097641555650506
135	0x3fb3cd30a5548ee4	0.07734970127472313
136	0x3fc83a76de70d814	0.18928418980948492
137	0x3fc7202723aaa485	0.18066872827083472
138	0x3fcb59d199d96ba6	0.21367855083630366
139	0x3fbfedf40d832a68	0.12472462968723053
140	0x3fb2a950be4a8165	0.07289604802872914
141	0x3f8921bf8bfe9e80	0.012271400890156103
142	0x3fc821b6ac6f5cc2	0.18852885646513157
143	0x3fd271780db4f697	0.2881755956512761
144	0x3fc47e25aa417558	0.1600997048689503
145	0xbfa0c72e55ce2746	-0.03276963040759866
146	0xbfb4362a8d728df1	-0.078951510937763
147	0x3fbbc705c116c0ba	0.10850559200366919
148	0x3fbef31d1331fb45	0.12089711874612614
149	0x3fd1bf9cafd58ba6	0.2773200719004144
150	0x3fcd61b8b4f3f43e	0.22954472385018393
151	0xbfc0cc3d3fdb2864	-0.13123288743946937
152	0x3f995470a41d2267	0.024736175553046993
153	0x3fc58c9dbf0077f4	0.16835376573811767
154	0x3fbbac5ee7f0ba4a	0.10809891855817813
155	0x3fd21d530cce532f	0.28303982019979207
156	0x3fc26fb71465fa25	0.14403427597058385
157	0x3fb3bd9f4f7e7897	0.07711215677997739
158	0xbfc7610d2c15895a	-0.18264927532716052
159	0x3fd90fef85437f90	0.39159763349561505
160	0x3fd03eb2156c95d5	0.2538266381473851
161	0xbfcc32b73cf73891	-0.22029772259560734
162	0x3fb5ee0d78694969	0.08566364469269207
163	0x3fb98a004f4abadd	0.09976198135221233
164	0x3fc50ff52f262ac6	0.16454949190332097
165	0xbfa2d1b0752329e9	-0.03675605230235474
166	0x3f63475769ff9c9f	0.002353354197100879
167	0x3fb3aaeb79f011f2	0.07682677962299758
168	0x3fd17e562683fcc5	0.27333596955572786
169	0x3fa45315e2059df2	0.03969639190728093
170	0x3fd1cc6cbc55739e	0.2781020964810582
171	0xbfdb3d9e8c608644	-0.4256359454030625
172	0x3fb5a5cbea5456b2	0.08456110449727808
173	0x3fcc3d8e7b41cffb	0.22062855738079165
174	0x3fad2590855cf67d	0.05692721965759249
175	0x3fd069856773ff1d	0.25644049742548863
176	0x3fb0014d9412482a	0.06251988282227275
177	0x3fca46036e8c3a8d	0.2052616395744348
178	0x3fd0bf43decc6303	0.2616738963857161
179	0x3fd003b01d98500f	0.250225094701137
180	0x3fc12e9376ba49c7	0.13423388764620212
181	0x3fdd63e2efa93903	0.4592215862693509
182	0x3fbc803948df7cde	0.11133153943181948
183	0x3fc34d968a2ffdb5	0.15080529925761046
184	0x3fa9cc3fe06f8067	0.05038642515842256
185	0xbfac1d9dc1ee2788	-0.05491345398247832
186	0x3fd5a5c4d3151a90	0.3382427274085922
187	0x3fe488261040e6bd	0.6416197125865534
188	0x3fd119f4a63f3825	0.2672092078690887
189	0xbfc47c038a5ebaf1	-0.1600346017489396
190	0x3fc13a527f02c1f8	0.13459235383699286
191	0x3fd3b5290a79a6ea	0.30793214819878634
192	0x3fc18384abe20570	0.13682611839980607
193	0x3fd9a55d8ce95674	0.4007181049431445
194	0xbfcea7c64b800d0a	-0.2394950741437259
195	0x3fd01b162f56e0df	0.25165323851571303
196	0xbfdae7ce9f9487e1	-0.4203983839416861
197	0xbf967010fc679b09	-0.02191187420421684
198	0x3fccf53f12eefb76	0.2262343256424761
199	0x3fc837bf55a9c060	0.18920127566116474
200	0x3fc8395822931602	0.18925000847063705
201	0x3fc5e1e4bfd7a839	0.17095622412972647
202	0x3fc39eebb27f06b5	0.15328737464556288
203	0xbfb0be7a5bac379d	-0.06540646303275684
204	0xbfc8bbb4c03277e7	-0.19322833428026273
205	0xbfcc7050c2f6498e	-0.22217759627944783
206	0x3fd4427438a5d361	0.31655602962501034
207	0x3fd4ea3071dbd5ed	0.32679377669350523
208	0x3fb61e465430d2c8	0.08639945559918794
209	0xbfd46d7e481e2687	-0.31918293993712904
210	0x3fbae09a7cdd0459	0.104989676937309
211	0x3fbb27a5754bd8d6	0.1060737048499932
212	0x3fc5798864573fb6	0.1677713861413374
213	0x3fcc54eb2f6b65c1	0.2213415128269798
214	0xbf926aed4b5983ec	-0.017986018871287188
215	0x3fa6b1e25f3d0267	0.0443258992440903
216	0x3f798acac3bd5adc	0.006235878037691402
217	0x3fcb374562b6e8e5	0.21262423820537105
218	0x3fd18a869fecbc0c	0.2740799485936243
219	0x3fb62b517c6845f8	0.08659848487175015
220	0x3fd4fd92f413ed99	0.3279769309590051
221	0x3fc2929b7c39c8a3	0.145099101693238
222	0x3fc96db70dcce314	0.19866073774189685
223	0x3fca30aa8ec6518a	0.2046101758138657
224	0xbfc25a8302e4451d	-0.1433871997947244
225	0x3fc834a4376f6bff	0.1891064902000323
226	0x3fb33467a03ac308	0.07501838361600843
227	0x3f8f7bddca42cf51	0.015372975096717008
228	0x3fc1579f7735bb9b	0.13548653908534622
229	0x3f83c7afdb7a3810	0.00965821636716771
230	0x3fc731aa4a34e4c8	0.18120316146249693
231	0xbfa86966bc0f4ace	-0.04767914815569939
232	0x3fc953017a2cc1f4	0.19784563508575526
233	0x3fbde7146a674b87	0.11680724714032752
234	0x3fc3019c2fd4f806	0.1484866365007635
235	0x3fb847d54effd13b	0.09484608820622935
236	0x3fb65471ad35b48d	0.08722601393465564
237	0x3fbf04cc2415559a	0.12116695290509086
238	0xbfe0f766cad040cf	-0.530200382347198
239	0x3fc97c67dfe3ec5b	0.1991090625013808
240	0x3fbcf4cbff85ec70	0.11311030376775633
241	0x3fc6b79e299eb315	0.17747857124540958
242	0x3fcbad9756b6f0ed	0.21623508199798583
243	0xbf66f77909b283c9	-0.0028035511036965427
244	0xbfa8695b9f866077	-0.0476788170082622
245	0xbfc5d9e2c3b9c203	-0.17071184689440608
246	0x3fcf0388dcd0fd38	0.24229536802338614
247	0xbfc5e1cba585f46b	-0.1709532316416785
248	0x3fc5b52cf49b43f2	0.16959154075314548
249	0x3fd87f8ceed5804b	0.3827850658763096
250	0x3fb76be77abe6f75	0.09149023768116911
251	0x3fd0540c2f39dc9d	0.2551298581306101
252	0x3fc15c0ba62e0452	0.13562150587316296
253	0x3fd330dea4d88303	0.299857769949128
254	0x3fcf2fa5991d98ff	0.24364156700466563
255	0x3fc386b0cffe76fe	0.1525479331584662

linear_layers.0.layer.bias f8 [100]
0	0xbf9c4b868c2d368d	-0.027631857209874645
1	0xbf5aca5e8e816f41	-0.0016351626782328962
2	0xbf99fd926ce6b3c7	-0.025381362816620425
3	0x3faa9d8181aeed27	0.051982924538118085
4	0x3f873ef022beee4e	0.0113505135158142
5	0xbfab6b4a197fb2cd	-0.05355292855515401
6	0x3fba3aa4ea59f48b	0.1024573394915526
7	0xbfaa1c438a64a5f7	-0.050996885913558936
8	0x3fa0ceaf3ce161be	0.032826877767266435
9	0xbfb5f2bd6d5f882d	-0.0857351676964135
10	0xbf9378a848778302	-0.019014958785080978
11	0xbfa7774852597abc	-0.04583192830317759
12	0x3fa40667f9b6830d	0.03911137507680538
13	0xbfa2fecd97e81e33	-0.0371002433712956
14	0x3fad714edd4f7093	0.05750509692708863
15	0x3f56d656c608cdc2	0.0013938758276140638
16	0x3f97f9bd7984d4e9	0.02341362051193566
17	0xbfa5c7e8c5db1491	-0.0425408116839573
18	0x3fa5626e6aabe0bd	0.04176659633771027
19	0xbfaf1c35c8cf7217	-0.06076210094736128
20	0xbfa08b4a4e86c720	-0.032312700353385404
21	0xbf897eacfe999a5a	-0.012448646087432614
22	0x3fa0e11490771715	0.032967226633941284
23	0xbfa3e1dfa28ceaf2	-0.03883265361078782
24	0x3fa67520bbfea07c	0.04386236471992874
25	0xbf7fe7bbc4c98ace	-0.007789357635007389
26	0xbfaf0aec95fd671a	-0.06063021975451317
27	0x3fa4eefe0d8dad76	0.04088586726615066
28	0xbf86bbbfb7c4d3a2	-0.011100290103607528
29	0xbf80d379e9babb68	-0.008215858884197139
30	0x3fadd5e9cf2f9f41	0.05827265409590022
31	0xbfab691aee63a380	-0.05353626403832035
32	0x3fb370f82173495d	0.07594252411516807
33	0xbfa97d0b1fb79a78	-0.04978213083432065
34	0x3fae371a289a0108	0.05901414628624663
35	0xbf9b5850f4a7d9ec	-0.026704087193104728
36	0xbfae64eaf159e218	-0.05936369129353042
37	0x3fa838d9c1da4a73	0.04730873576513241
38	0xbfa8791da623b138	-0.04779904034680488
39	0xbfad1a2c8be285ec	-0.05684031684473809
40	0xbfa009f684c62d95	-0.03132601137903205
41	0x3f9ec0c11029e724	0.030032173739960602
42	0xbfb7e64e5bd69cd6	-0.09335794202944511
43	0x3f9565da79484f43	0.020896352436536657
44	0xbf9ee631529c8b06	-0.030174990336614214
45	0xbf8100e03f995878	-0.008302452031028404
46	0xbfa1c97831fa6570	-0.03474021539768557
47	0x3fa3e34d95d3076f	0.03884355977926545
48	0x3fb7269735c28653	0.09043259680267939
49	0x3f8f9903f9a180aa	0.015428572707776606
50	0x3f9a68d63aa1ffc6	0.02579054577699915
51	0x3f97339ad4dc1caa	0.02265779422944251
52	0xbf94a8dc256d91a4	-0.020175399574684186
53	0xbfaac560f6ff9e77	-0.0522871305000167
54	0x3fa022d780dfbbb5	0.03151582191627914
55	0x3fa58fb4b3a1a557	0.04211201374784917
56	0x3f8bb7464349b482	0.013533162048782413
57	0x3f94f166f8d4a412	0.020452126443306247
58	0x3fb19066b8bbf975	0.06860963831056728
59	0x3fb24c7827a7c199	0.07147932975909156
60	0x3fb52bd3f8d7b84e	0.08270001244793088
61	0x3f97030ce6f80204	0.022472573849883673
62	0x3f924d3b65fea5f4	0.017872741794837624
63	0x3fb2ca4856930cf7	0.07339908708222596
64	0xbf9676d4403c0bc5	-0.021937672062460018
65	0x3fa8409b95c1a318	0.047367918043908996
66	0xbfa3ef932069682c	-0.03893718500758356
67	0xbfc677fbc8712a00	-0.17553660666665394
68	0x3fa5f9f13389d2de	0.04292253259783306
69	0xbfb61796b525ee43	-0.08629743502199809
70	0x3f97f5522b4f2496	0.023396762746220455
71	0x3f5125b694a5d101	0.0010465891851625944
72	0x3f85de3224ad303c	0.010677711242941361
73	0xbf7b87410625f26d	-0.006720785141052771
74	0x3fb2dd68a7c45fa8	0.07369093032718743
75	0xbfcaeb7bf1df8aac	-0.21031140623297995
76	0xbfa6d1a69dec7e95	-0.044568259027298364
77	0x3fabc9580b24bdd6	0.05427050720242803
78	0x3fad387c0a2dc461	0.05707156776669176
79	0x3fab9bc6f01656ad	0.05392285996201216
80	0xbf8dc412f319a3e3	-0.014534137767627747
81	0xbfb075470300ecb1	-0.06428951094942438
82	0xbf9e349eca3c6f5d	-0.029497605412969963
83	0x3faf5b9c10dae3ef	0.061245801026821194
84	0xbf768d03f349d11b	-0.0055055765447955774
85	0xbfaeb490ec612069	-0.059971360068232844
86	0x3facbc79e1cb08ae	0.05612545853866045
87	0xbf9a506d81321530	-0.02569743252799589
88	0xbfaf427c319c31b3	-0.061054116302418214
89	0xbfb2838a772036e1	-0.0723196545443119
90	0xbfa4f96031d16eb0	-0.040965086060820055
91	0x3fab8fbd8754581d	0.05383102681132377
92	0x3fb62ced18be5dea	0.08662301878063486
93	0xbf912e0435ae7d4f	-0.01677710130354387
94	0xbfac663dd634f565	-0.05546754112081479
95	0x3fa8bf8b46ee24f7	0.0483363651356487
96	0x3fa79d438c9f961b	0.04612170306772275
97	0xbfa5207d67d6047e	-0.04126350300340052
98	0xbf80159eaaa21661	-0.00785373647910176
99	0x3f6ba50d4a83ca26	0.003374601325157006

linear_layers.1.layer.weight f8 [100, 100]
0	0x3f8df9de2cc27829	0.014636741391139978
1	0x3fb2fc8c64e6b17e	0.07416608298689728
2	0xbf738729181809c9	-0.004767570995229461
3	0x3fa2d4dd0e8a9669	0.0367802696467095
4	0xbf9d5cdf51130705	-0.028674592326530596
5	0xbfb07453f3768bad	-0.06427502340242937
6	0x3f86fdac5c57bda8	0.011226030891491615
7	0xbf84ec5c5d79607b	-0.010216447451213853
8	0x3f7df6f0508a3d36	0.00731557724851877
9	0xbfa320fbe9ac581e	-0.03736102321106237
10	0x3f6846e0cffdd2c8	0.0029634848469249665
11	0x3f428896b981055b	0.0005655990562517908
12	0x3f960add48b1cde2	0.021525819360659677
13	0xbf8b12e82bbebd3e	-0.01321965583323836
14	0xbf93d77b66508d96	-0.01937668621043328
15	0xbf8355ab91bdb53e	-0.009440746674693853
16	0x3f643a1ece20688d	0.002469120184298629
17	0x3f9004de4a39e7d3	0.015643571167380643
18	0xbf84d91625b7061d	-0.010179684663742578
19	0xbfaa0c5c3e99a624	-0.05087555183565609
20	0x3f900f1cd7d3b3cf	0.015682650254280447
21	0xbf88221671eb95eb	-0.011783767081804583
22	0x3fa4be2e502449de	0.0405134651974952
23	0xbf941addb47de35e	-0.019633735791532707
24	0x3f9698a53d31bfd5	0.022066671237950992
25	0x3f8f719458595d4a	0.015353354402732795
26	0xbfafa74f943be04d	-0.06182335552688354
27	0x3f93b4ecb574ae4f	0.019244860243971037
28	0xbfa732e5cf6db3a5	-0.045310193606247474
29	0xbf91cec51eab7b3d	-0.01739032745069412
30	0xbfa47ea07015f9a0	-0.04002858513102869
31	0xbfa68d218b05eacd	-0.044045494289965605
32	0xbf75343037c1417f	-0.005176723814728112
33	0x3f790fbeeb063234	0.006118531964955088
34	0xbfc1f1fd98b76112	-0.1401974673924618
35	0x3f9ed9e36ceb5609	0.030128053210168235
36	0xbf869ccd48df9941	-0.011041263376637135
37	0xbfb98eb2eb095cf5	-0.09983366239736198
38	0xbf9383168a856dbb	-0.019054748730338505
39	0x3f9271c975b015ac	0.01801218777474893
40	0xbf9c0f40209d2d16	-0.027401926031683642
41	0xbfa095488bf24b51	-0.032388941844280546
42	0x3f74254563ff4dc0	0.0049183569498895685
43	0xbf5fd99c83b249c2	-0.0019439724408455293
44	0xbf915f17b599629a	-0.016964312037404207
45	0x3fa1e6d51dc4e485	0.034964237102436825
46	0x3f6dad7045428d6b	0.0036227410110584632
47	0x3f933c48c1aed3b3	0.01878465349337306
48	0x3fc0bafd5f04d91c	0.13070647372814725
49	0x3f9d328d49dcae49	0.028513152726345834
50	0x3f87973f07d8ade1	0.011518948008492682
51	0xbf92778e056b820d	-0.018034190254981698
52	0xbf842ec46be6459f	-0.009854826491195122
53	0xbf79bb00793681e9	-0.006281854486048102
54	0xbf9dac35d4c73c97	-0.028977242576556064
55	0x3f9f1febc9333530	0.03039520659949807
56	0xbf9a1399e1552f0a	-0.02546539724180178
57	0xbf72fc4d3f1e3118	-0.0046351449435742195
58	0x3f7f2ce810eb3c05	0.007611185558473292
59	0xbfab320c2fb7a44a	-0.05311620790946188
60	0x3f99f993fe469bb6	0.02536612739063645
61	0xbf806affae0f839c	-0.008016583918960589
62	0xbfa770ec66bdab06	-0.04578341249619737
63	0x3f537405aaf1018b	0.0011873298024199532
64	0xbfb4345631450f4d	-0.07892359450221172
65	0xbfb853afd5b6ec66	-0.09502696006431818
66	0x3fa146bc7603d32d	0.03374279919254373
67	0xbf9ff5f177000638	-0.031211636436643014
68	0xbfa357f6dae68cd3	-0.037780489178908326
69	0x3fc030d34708ff30	0.12649002998841175
70	0xbf9491790de85803	-0.020086184953548535
71	0xbf8785eeb70ac52c	-0.011485924683571534
72	0xbf34a432362f3bd1	-0.0003149626338058683
73	0x3fa0972588f34b0c	0.03240315720326778
74	0x3f8cb49a17da5891	0.014016345837529339
75	0x3fa9195869ce67ac	0.04902149478512227
76	0xbf91b0813d98fc00	-0.01727487505399594
77	0xbf82d9d4df310120	-0.009204543172132207
78	0xbf7511a3f647f9b1	-0.005143776394560027
79	0x3fa263a88d6a850d	0.035916583311754825
80	0xbf41dd7c753f23e9	-0.0005452020363857477
81	0xbf97d7d226d07433	-0.023284228915248128
82	0x3f85c34b1055899a	0.010626398502328983
83	0xbf8de8dbeb4f26e4	-0.014604299658361915
84	0xbfa30cdbabe6ba43	-0.037207474454920696
85	0x3fae26f1d47f96cb	0.05889087408995194
86	0xbfa3cfd1ea16b76b	-0.03869491560486334
87	0xbfb171c919355539	-0.06814247956693444
88	0xbfb2670f540ff19f	-0.07188506891538403
89	0xbf85677838065ec8	-0.010451258859390036
90	0xbf7503199e3e5f2d	-0.005129909582954712
91	0x3f8c7d90977a2d78	0.013911370871275905
92	0xbf81322e9b68561b	-0.008396495931303474
93	0x3fa922bd19259a1d	0.04909315998047623
94	0xbfbf8227cc1172c1	-0.12307976467259164
95	0xbfc883a6385e2d2e	-0.19151761772477854
96	0xbfbc0b26a98ec032	-0.1095451511343988
97	0xbfa6e3e0d7b8c226	-0.044707323392121176
98	0x3f8b67572782ad2a	0.013380700009597197
99	0xbf722963557b2197	-0.004434001944624197
100	0x3f89c256f0dcc874	0.012577704644716393
101	0xbf89c8255745aaef	-0.012588779187998137
102	0x3f9532d840e0c1e8	0.020701769790493346
103	0x3f85cc0a099a2bde	0.010643080156361447
104	0x3fa490b2383ab818	0.040166444171845395
105	0xbfb67f27bc7ea254	-0.08787773467941778
106	0x3f9e744441301252	0.02974039695620185
107	0x3f9897ad1983a7a3	0.024016098673122276
108	0x3f6bcafaae9de2fb	0.003392686475248372
109	0x3f802922955d0823	0.007890958960732835
110	0xbf4fc3d4d3edfd79	-0.0009693898390280973
111	0xbf5a8092c024f29c	-0.0016175683127378831
112	0x3f9bdfc0ef7b4f01	0.027220739952851684
113	0x3f828449e0be4961	0.009041382952805934
114	0xbf741b2819211c65	-0.004908711083834926
115	0x3fa2a89a09eb1bba	0.03644257899355048
116	0xbf889a24b761ab6f	-0.012012755247459343
117	0xbfa10728d5e5bf08	-0.03325774775555429
118	0x3f98ebc5c8af50f0	0.024336901067571526
119	0xbf4afb72feee63bf	-0.0008234321120311679
120	0x3fa32241ad8871fe	0.03737073176691651
121	0x3f671256e5ad0fc5	0.0028163621149434903
122	0x3fa61e47f992b0e6	0.04319977685494951
123	0x3f734e0252d67492	0.004713067127707709
124	0x3f945e05bec81f56	0.01988991715373286
125	0x3f9b61d2c74759b4	0.026740353978164058
126	0xbf7faf5047690f50	-0.007735551442752911
127	0xbf94e29ab6afa2c1	-0.020395676994584336
128	0x3f8c6100ddd5eac8	0.013856894273648904
129	0xbf97c1350c846a92	-0.02319796456240881
130	0xbf89ac527a2fa98a	-0.012535709718538585
131	0xbf933eec901c8690	-0.018794723792899648
132	0x3fa045d742cbfa55	0.031782843498139236
133	0x3f9640e1d4e47474	0.02173188077823736
134	0x3fb35596d493870d	0.07552473726130078
135	0x3f47ed574e00fd5d	0.0007301975529187366
136	0x3fa237ef08bbea4c	0.03558299047104593
137	0x3fa0e6f1c9d332a7	0.03301196659740429
138	0xbfa7813ec0515f95	-0.0459079370272654
139	0xbf8f26fe2ab6c11f	-0.01521109168865614
140	0xbf78e23d20ce2d38	-0.006075133115597091
141	0x3fb9c6b1784c4e63	0.10068806826557757
142	0xbf96fcdd13a52641	-0.02244897301105753
143	0x3f744f9a7216b172	0.004958728125910349
144	0xbf533c348867bf82	-0.0011740220085094404
145	0xbf9a959dc3977dc2	-0.025961365759824558
146	0x3f8e5ffc398d98b1	0.014831514841443601
147	0x3f983f7a48005366	0.023679648060425683
148	0xbfa6af1836381acd	-0.04430461561064689
149	0x3f660cb95fc7f30d	0.002691614207149923
150	0x3fa6c66aee7df635	0.04448255692748796
151	0x3f70d35ed6e109b7	0.004107828584951559
152	0xbf98bb7e5790c89b	-0.024152731031968782
153	0x3f95ea5809b54cd9	0.021401763527433147
154	0x3f16a5f1f012a349	8.639611407325084e-05
155	0x3f82b523b007d7d0	0.009134558496025763
156	0x3f784cbcb61d7eef	0.0059325572527482015
157	0x3f96530b2301954f	0.021801160823448126
158	0x3f6f54d7b4519c8e	0.0038246357894880572
159	0xbf74aa389c507325	-0.005045148024717593
160	0xbfa52be094e3dc2c	-0.04135038201814498
161	0x3f7da5f01025806e	0.007238328691841029
162	0xbfa055fa612a7160	-0.031905960427340174
163	0x3f453aa627a7e225	0.0006478606513261083
164	0x3f8323a0e36813fd	0.009345299663445767
165	0x3fbe55a765864391	0.11849447468399733
166	0x3faee403b4ac8e90	0.06033336239331988
167	0x3f79ff154caaf2a6	0.006346781922442679
168	0xbf4991a384d70e95	-0.0007803009445343673
169	0xbfb848a6a0a09622	-0.09485856458248823
170	0xbf9e070fc034c411	-0.02932381258614575
171	0x3f44076371c9ef8f	0.0006112323349749415
172	0x3fa08d4f40b108cc	0.03232810654346138
173	0xbf92617ac9bdcf3d	-0.017949980319328807
174	0x3f6445edbe0731a9	0.0024747508434527954
175	0x3fa8af0ee655a74f	0.04821058808995692
176	0xbf81827a87a9127a	-0.008549649491336842
177	0x3fab82509724773d	0.053728598070149826
178	0xbf83c2781cb403bb	-0.009648264289809796
179	0xbfaaa041ce6dd1d1	-0.05200391430745167
180	0xbf964e0bef1932ea	-0.021782099216852403
181	0x3fa63bf1093e4350	0.04342606771309099
182	0xbf841b50f0c6212d	-0.009817726466977728
183	0xbf777e79dfabaa1f	-0.005735851353828396
184	0xbfa2413e99606f6e	-0.03565402624391721
185	0x3f8f12e39c6c53a5	0.015172746859699002
186	0x3fade597465a2a66	0.058392264688411896
187	0x3fadf393e75b3b6e	0.05849897574591166
188	0xbf831d1cf390e74b	-0.009332872565312697
189	0xbf2327388659f631	-0.0001461273670208415
190	0xbf84dbddbd97ee67	-0.010184986446794398
191	0x3f82bf18e9dd3246	0.009153551709141127
192	0xbf8ce46835d169a6	-0.01410752691497381
193	0x3f9150ac7a44b89d	0.016909308397935353
194	0x3fa21bdc45da3875	0.03536880829516146
195	0x3fb359bb834ec545	0.07558795886759125
196	0x3fa5f7fae98b5c6d	0.04290756321795972
197	0xbf69fcd14f96aebe	-0.003172310648286685
198	0x3f95928ed3d99f88	0.02106688659696901
199	0x3f7e6e803525e9ba	0.007429600535369502
200	0xbfa0f66582d4c456	-0.033129856319995696
201	0x3f94ba65a15fb628	0.020242298101882522
202	0xbf9aef9f90aeafff	-0.026304715352736704
203	0xbf923eb6f7a77e52	-0.017817362657181875
204	0x3f792933ba5bc2bf	0.006142808973650104
205	0xbf923fe8daad4446	-0.01782192072579771
206	0x3f817407a108d9b9	0.008522090532193315
207	0x3f71362ac47f19f5	0.0042020483596787355
208	0x3fa593d87e8215b1	0.04214359802521573
209	0x3f761a7be883ce57	0.005396350876469911
210	0x3f5337abe10eb7ca	0.001172941065515231
211	0x3f77b78e51cba023	0.00579028695640463
212	0xbf72478ab4a37150	-0.00446275884516141
213	0xbf46266a3a508f8b	-0.000675966137923188
214	0x3f88565541d65536	0.011883417197888418
215	0xbf74b6d02d62636a	-0.005057156746396932
216	0xbf75e639f683f236	-0.0053465141465918655
217	0xbf244d94c55def94	-0.00015489998866857464
218	0x3f6a32fec09be2cd	0.0031981444961924677
219	0x3f9a126707cc03c2	0.02546082482422541
220	0x3fa1701de068c674	0.03405850757952758
221	0xbf4f2aa9e3ba2487	-0.0009511308230269058
222	0xbfb8d079e60be8f8	-0.09693109384889798
223	0x3f9080597c27894e	0.01611461468008573
224	0xbf98bb166c524b8a	-0.024151182519357252
225	0xbfb2a7d80ab07308	-0.07287359486549516
226	0xbf92149952bd54c7	-0.017656703639052276
227	0x3f90cb593a9d64c4	0.016400713160099625
228	0x3fb9ab0cd96437e8	0.10026626880082257
229	0x3f505b48a613c4e6	0.0009983262501090328
230	0x3f5764025d177ede	0.0014276526529712267
231	0x3f886cebcf06ee80	0.011926500564064968
232	0x3fb406956c5b11ca	0.07822545905498327
233	0x3fa0e87b3909ffc8	0.033023691857124116
234	0xbfaa28e5063655b5	-0.051093251236277316
235	0xbf853ffe014ae0ca	-0.010375961698955289
236	0xbfb21c4e69a1f794	-0.07074441985056829
237	0x3f3836fd46e29b1c	0.0003694885589404105
238	0x3fa034fdec754091	0.03165429603052517
239	0x3fb08427aec2db42	0.06451652542714917
240	0xbf9cc0b54b5bf6e0	-0.02807887337166093
241	0xbfa6b54bf6943b05	-0.044351934289911944
242	0xbf77b48389da40d1	-0.005787385771000867
243	0x3f7d0323129108e9	0.007083069803288413
244	0x3f6ee687e785e6a4	0.0037720350630337674
245	0xbfb5a81e6209433a	-0.08459653752767063
246	0x3f7373e06b0dd912	0.004749180444255667
247	0xbf795437968f301e	-0.006183831349471118
248	0x3fc117a58fc64597	0.13353414077986933
249	0x3f977e3526f0d3c5	0.02294238138366091
250	0xbfad092d2e4dc9dd	-0.05671063604576763
251	0xbf8807418f2a6d0b	-0.011732589894839515
252	0x3f8bb0123b219628	0.01351942294077009
253	0xbf9c37767437c8e7	-0.027555323451402904
254	0xbf90ebf14ac62cbf	-0.01652504938969623
255	0x3f3336550638b99f	0.00029315543926857786

linear_layers.1.layer.bias f8 [100]
0	0x3fb5fd5ad094ce04	0.0858971366149533
1	0xbfb211c569558f9d	-0.0705836660541181
2	0x3fa2a7a438df9dbd	0.03643525308853721
3	0xbf942d3283a03eb5	-0.01970366409665188
4	0x3fb491536075c098	0.08034249405841576
5	0xbf549a77c5e45dd9	-0.0012575311334951293
6	0xbfa84e3a82582e06	-0.047471836482227345
7	0x3faab24fd0274c70	0.052141660842288995
8	0x3f99a21bdf05e098	0.025032458770028215
9	0xbfb640188e114c5f	-0.08691552608915874
10	0xbfb2b2f04facd89e	-0.07304288811869461
11	0xbfa27a3069851ac9	-0.03608847892842488
12	0x3fa4c17f7b4100cd	0.04053877238811907
13	0xbfb59ebb17104829	-0.08445329011036108
14	0xbf7800284d7692c4	-0.005859525138849523
15	0x3fb6f382a329496e	0.08965317233495337
16	0x3fa175d10a0166dd	0.034101994010325966
17	0x3fc7845b94c83a24	0.18372673763993064
18	0xbfa3d3882e061b6c	-0.038723235719820476
19	0x3faa7680206cf20d	0.051685337026786106
20	0x3fb61e2926587f68	0.08639771639036342
21	0xbf780470cbaf8b30	-0.005863609893796348
22	0x3fb5ba6ba173a6a2	0.08487580005353348
23	0x3fb82da81e2ff398	0.09444666611666575
24	0xbfad92154bdc3400	-0.057755151281618566
25	0xbfc32af280d94f2a	-0.14974814692924926
26	0xbfbbf527ce5b1302	-0.10920952594740288
27	0xbf8e2e2406989375	-0.01473644394997973
28	0xbf93f00f68b8e99c	-0.019470444456808886
29	0xbfb54ecf9b392422	-0.08323380984906284
30	0xbf71ad5e9b9c4ef7	-0.004315728723458304
31	0x3f9ea2393ccadad6	0.029915708861802802
32	0xbf7fe6f8d91e24a6	-0.007788631499246501
33	0x3faf625c31f3d18c	0.061297303292948774
34	0xbfc60853ea0c48a4	-0.17212914398311796
35	0xbfb45f50e00ed8dd	-0.07957940550008709
36	0x3fc022756db064a4	0.126051596221065
37	0xbfb1cfee5a49446e	-0.0695790262627882
38	0x3faa20740d886065	0.05102884926981303
39	0xbfa456aa31640a1f	-0.03972370007433689
40	0xbfc253fcc57e7b83	-0.14318809169068566
41	0x3fce9f506631c7bb	0.23923687925304002
42	0x3fc6e914f443f46b	0.1789880936338791
43	0xbfa7afe0f4525d23	-0.046263723205976846
44	0xbfbc54aa476d2a8c	-0.1106668877011236
45	0x3fb0489568cb07b3	0.06360753830361325
46	0xbfc0e99c317cd65b	-0.13212921539677577
47	0x3fa4265a5174eefa	0.03935510868401866
48	0x3fc1326c52b1fcd9	0.13435129201750476
49	0xbf8095bf47b665ab	-0.008098120094291191
50	0x3f8ba624268f9bc9	0.013500482966220322
51	0x3fb920a1ce050895	0.0981541755654994
52	0x3fbf421cbdb03153	0.12210254317341666
53	0xbf8b0080ac85be69	-0.013184552445380153
54	0xbfa567926a25d9f1	-0.04180581613302426
55	0x3fb199a07ef13aca	0.06875041102578475
56	0x3fa05d5f9c7788a0	0.031962383127180916
57	0x3fc67321b8803b81	0.17538854130586048
58	0xbf794ad96cf24993	-0.0061748974977881175
59	0x3fad778664676d2d	0.057552528148983796
60	0xbfa15cf4bd64d530	-0.033912323111886855
61	0x3fab3ccda057956a	0.0531982668142444
62	0xbfb19103466440b6	-0.06861896961732125
63	0xbfc83523fcd3dd39	-0.18912172169778232
64	0x3fc05788a3ea814c	0.12767131808960597
65	0xbfb25ff8686ba53e	-0.07177689122513173
66	0xbfa27319ca32c8fa	-0.036034398968142825
67	0xbf9364c2a7bf845d	-0.018939057816059413
68	0xbfbab33517ebaa5c	-0.10429698785780189
69	0xbfa2921b24cc7dec	-0.036270950548210695
70	0x3fbfa9679a67f4f1	0.12367866058044165
71	0x3f7e6a0b976402ce	0.00742535140875651
72	0xbf9930c7f233a54e	-0.024600147397824394
73	0xbfb227364b689b89	-0.07091082898169367
74	0xbfb6391a8f079132	-0.086808833998991
75	0xbf5d06f5b8400ff9	-0.001771678887053872
76	0xbfb2feb986901070	-0.07419929061149033
77	0x3fbd72538659c585	0.11502573041959437
78	0xbf80bed1142666ae	-0.00817645399802144
79	0xbfb7c53c1deb9a02	-0.09285331469036609
80	0xbfa38aac111eadda	-0.0381673594377749
81	0xbfb8b0f2ff21e2f3	-0.09645003060166939
82	0x3f9c7d3befad20ab	0.02782148027770918
83	0x3f9f8518d3e119b4	0.030781162197195136
84	0xbf84aab6021c5c1d	-0.010091230334678564
85	0xbf5e5b53dc1bff38	-0.0018528288787251334
86	0x3fb0d7118c9b81cb	0.06578168566512159
87	0x3fca3fecb7c9aa18	0.20507582639705002
88	0x3fd454644928a3a1	0.31765086311730256
89	0xbf8129d4b05915fe	-0.008380567199433916
90	0x3f65e1fa95615371	0.002671231671266865
91	0xbfac209fe6a32288	-0.05493640604396882
92	0xbfae6bca95cc9a8b	-0.059416132722892
93	0xbfaa230e1d2cff51	-0.05104869943761393
94	0xbfb0e7fe9f0c1968	-0.06603995688428699
95	0xbfc22e105e3ccaba	-0.14203075982512364
96	0xbf9c1b5818c3b1f4	-0.027448059569836716
97	0x3fbb24559ac633af	0.1060231688372386
98	0x3fc61b90ef1f8708	0.1727162520974661
99	0xbfb1edf98fd46055	-0.07003745805229873
