8_Inv_Lorenz/logs/models/2023-10-16-15-12-25_Lorenz_DNN_100X5/epoch_0.pt (torch, 31300 bytes, 11 tensors)

alpha f8 [1]
00000000: 3a06 1ed9 cef7 ef3f
0.9990000000545429

beta f8 [1]
00000000: 5127 32d9 cef7 ef3f
0.9990000002010025

rho f8 [1]
00000000: fccb 26d9 cef7 ef3f
0.9990000001183712

net.0.layer.weight f8 [40, 1]
00000000: 6e81 b877 efc0 c6bf 1277 0382 1b7f cebf
00000010: e1ec e1fe 5fe8 d4bf 25a6 e0a2 6131 cd3f
00000020: e3e3 b0e4 a5e7 d3bf df3a 636e ef0e c73f
00000030: b646 96b6 9512 d13f 8511 c93e 75eb bdbf
00000040: 86fe 020b fe19 b13f aaf0 5e45 e9f0 a53f
00000050: a238 d231 b48d c53f 8571 f975 ebbd d1bf
00000060: bc29 2285 df41 a0bf bccd 2f54 3250 d0bf
00000070: 0f5c a607 549b 9c3f d829 d698 1ced d2bf
00000080: dbe5 6748 4021 933f eba7 4f30 af97 ca3f
00000090: d3ba 8e4d c313 d1bf 030f 6cb2 7d2a d43f
000000a0: 84f8 e7d7 0d6c d2bf 9e8b aa27 6d38 ba3f
000000b0: ff7c 8d6e b9d7 d63f 72ca 2074 c4c2 d73f
000000c0: aaf1 778b 32e1 a43f 9819 c7db 82fd c3bf
000000d0: 0be6 ed31 b811 d5bf ab04 6ac7 ce9b c83f
000000e0: f63d e12b 834b babf aa2f 3be5 c610 b03f
000000f0: 13b4 12d3 07ba cb3f 3790 43b3 19b7 d43f
00000100: d9b8 e53f 6cdc d4bf 81cb f842 f9e9 d3bf
00000110: fa81 9ff6 70b9 c33f 0a6b f7c5 37f5 cabf
00000120: fc5c 8412 d473 d03f fb40 8dea 1564 d23f
00000130: ba05 78a6 2977 c23f f0e4 9b23 75d2 93bf
-0.17776292176950953 -0.23825401161496323 -0.3266830433928601 0.22806950047497412 -0.3110136731443715 0.1801432885171925 0.2667593272281964 -0.1168740537914968
0.06680286187019577 0.042853631704447295 0.1683869593875374 -0.27721678276955003 -0.031752572061197054 -0.25489481183396 0.02793628021899158 -0.2957221500916183
0.018681530398657258 0.20775403841918147 -0.266831231822761 0.315093445053421 -0.2878450973947866 0.10242349832928574 0.3569167689910983 0.3712626585067148
0.040780620121924585 -0.15617404681524927 -0.32920651317508093 0.19225487458246468 -0.10271472760472719 0.06275599571671245 0.2166147022848298 0.3236755610107624
-0.32595354309058916 -0.3111556200048469 0.15409671823637422 -0.21060845533687483 0.25706960495286046 0.28735874085852203 0.1442615568958397 -0.01935751943435532

net.0.layer.bias f8 [40]
00000000: 8225 56d2 4d62 503f 0290 23c6 4d62 503f
00000010: fe9b 1cd2 4d62 503f a9ec 55d2 4d62 503f
00000020: 5237 b9cd 4d62 50bf 357c a9d1 4d62 50bf
00000030: a9af 4dd2 4d62 503f b9f8 21d2 4d62 50bf
00000040: f20b 53d1 4d62 503f bbb2 57d2 4d62 50bf
00000050: 7089 45d2 4d62 503f dddc 06d2 4d62 50bf
00000060: 877d 6bd2 4d62 503f 1c4c 91d2 4d62 503f
00000070: 1c3c 4bd0 4d62 50bf 70c7 16d2 4d62 50bf
00000080: 29a6 11d1 4d62 503f f75d c9d1 4d62 50bf
00000090: 1fd9 48d2 4d62 503f ca4b dad1 4d62 50bf
000000a0: acd7 43cb 4d62 50bf e361 ccd1 4d62 503f
000000b0: 7371 74d2 4d62 503f e968 3bd2 4d62 503f
000000c0: fd55 36d1 4d62 50bf 6dc9 b9d2 4d62 503f
000000d0: 5b30 67d2 4d62 50bf 9a76 8cd2 4d62 503f
000000e0: 538e b3d1 4d62 503f 0149 68d2 4d62 503f
000000f0: 82d1 70d2 4d62 503f 8bf3 b1d2 4d62 503f
00000100: 3a95 1dd1 4d62 503f 77f8 2fd2 4d62 503f
00000110: b2a2 fed1 4d62 503f e1b6 96d2 4d62 50bf
00000120: 68d4 92d2 4d62 50bf 33ec 7fd2 4d62 503f
00000130: 6772 39d2 4d62 503f 5a78 18d2 4d62 503f
0.0009999999977899636 0.0009999999534153763 0.0009999999969723112 0.000999999997786808 -0.000999999981007933 -0.0009999999953362985 0.000999999997669735 -0.000999999997048513
0.0009999999941079332 -0.000999999997812014 0.0009999999975539263 -0.0009999999966632735 0.0009999999980932776 0.0009999999986305469 -0.0009999999903589412 -0.0009999999968894578
0.0009999999931785775 -0.000999999995789367 0.0009999999976009822 -0.0009999999960299427 -0.0009999999720639958 0.0009999999958322174 0.0009999999982205048 0.0009999999974100121
-0.0009999999936999287 0.0009999999992059375 -0.0009999999980321503 0.0009999999985618514 0.0009999999954794128 0.0009999999980477294 0.0009999999981689938 0.0009999999990945886
0.0009999999933481677 0.0009999999972474507 0.0009999999965463577 -0.000999999998707528 -0.0009999999986523237 0.0009999999983836382 0.0009999999973821173 0.0009999999969134894

net.1.layer.weight f8 [40, 40]
00000000: 102c 2e3a 05a0 c93f 2847 e506 f016 bd3f
00000010: f22f 2b6a 4972 95bf da73 1429 4478 6ebf
00000020: 9267 c200 4f9f c0bf 82fd 3258 bd24 d03f
00000030: 1448 0f70 39b4 93bf 458e b5eb 961c b5bf
00000040: cb1e 2409 1f99 c6bf d47e a807 b443 ccbf
00000050: 6d9c b96f 386f 733f 2f05 ec97 82d2 cc3f
00000060: 73c8 4929 11f2 ca3f 0543 0baa de8d b9bf
00000070: e5b7 751c 94e3 b03f 3392 dadc 779b c5bf
00000080: 8b39 30f7 9faf c2bf bed1 0775 090b cabf
00000090: 3452 7c65 ac4a c8bf e226 fdf0 fef2 b3bf
000000a0: 60de f9b3 d75b bfbf db5a a610 9c93 c5bf
000000b0: d3e1 a209 b416 bdbf cb00 cd80 5841 c53f
000000c0: 5691 b22e a0d4 c53f 304b 660b b524 a0bf
000000d0: 2a54 522f e8e1 7bbf ee20 bd26 7c0c 903f
000000e0: d6f8 7256 4933 bc3f 0b8b 49e4 ab33 bcbf
000000f0: 51cd caab ea9c a8bf 84a3 5c2a b445 c7bf
00000100: d06b 67ef 8657 b0bf e02a 46c3 ce94 ae3f
00000110: bbc0 ab65 2524 d13f dba9 5e3c ecf6 c7bf
00000120: 1695 49aa b8b0 cbbf 34d8 bdec f408 c23f
00000130: f607 7cca 70b6 bf3f 37d1 5055 ea1f cf3f
00000140: 8403 35c7 6dc1 aabf 63a1 723c f745 c9bf
00000150: cc2e 9c1c a6ce a23f 9251 1384 5a82 813f
00000160: e997 a2c1 e4c2 b8bf 384a 7f65 762e c03f
00000170: 539b 684d 375a bc3f 0d5f c031 d36c 8b3f
00000180: c3af 55c2 7ac4 803f 9039 a4fe f038 a03f
00000190: af1c 80c7 88cb 9a3f bd2a 74ac 261f b2bf
000001a0: 0208 1b52 a166 b03f 9265 c542 207a d03f
000001b0: 2b5e 169b dc38 bbbf 9f0a ccef 1777 c8bf
000001c0: 6217 3b52 3f0e c7bf 47a4 94da ad81 cabf
000001d0: f316 45a1 2c46 be3f 862d b558 5281 af3f
000001e0: ba1f 65b9 b6e0 bf3f 573d 740b e605 cebf
000001f0: a25c bc6f 80ec c0bf 4437 66a2 f27c cf3f
00000200: 31d6 a2db b587 c5bf 808b 9cf1 1a82 d03f
00000210: be04 5d77 2cfd a13f 2f83 c093 d72b cfbf
00000220: ab13 d55a 79d4 b43f dccf f017 96ee c73f
00000230: 0c73 daff f9c7 943f a746 5bf2 2ff2 cf3f
00000240: b3af a892 9b56 b03f ec68 1a5c 8567 b9bf
00000250: 89c1 3ce0 e997 873f 3ce4 02cb bb97 c9bf
00000260: 7d5b 48f9 713b c23f 8a78 1e52 fd56 c63f
00000270: 2700 950c 48b0 d0bf 97ed 49f6 02ef d0bf
00000280: 9376 524d 8925 c0bf 08f3 cf71 9e8f 8bbf
00000290: f16b ea36 162a a1bf 66ff 6346 7205 6bbf
000002a0: 8bf9 67c2 2fbf bbbf 594a 00a8 30d0 cfbf
000002b0: 8c24 b85f c084 cd3f eb01 4405 267c c7bf
000002c0: 329b b7ec 82ce ccbf 5f72 25f3 c7d0 923f
000002d0: f2cb 0571 a663 91bf 3e01 b4bf 5036 d1bf
000002e0: 8838 9440 63f1 c2bf 6d69 7048 a00d ab3f
000002f0: 9db5 b420 2221 c7bf a65c aa7f e5d6 8e3f
00000300: c20a 6721 ca60 cebf fdfb accc fd5f c13f
00000310: 3b03 462e b2fb b23f 385b e303 30ac cb3f
00000320: ff90 e7b9 661e a3bf b076 d4ab 75dd 91bf
00000330: 9acc f430 4f0d cd3f 5f78 d6d9 b6d5 cb3f
00000340: ec35 c527 1c8a c23f e862 600c 1d5c c7bf
00000350: 522a 15d4 f33f bdbf 68e1 4b27 7eb8 c73f
00000360: 0f17 c990 71da cebf e9fa b2d9 adb8 bb3f
00000370: 0594 24e4 e038 b4bf 58e8 1086 0b36 c1bf
00000380: afaf 34cf 2ff5 c13f 5964 5c89 a523 bfbf
00000390: 7fbe 0964 7797 613f 8df1 1c0f 2c73 b93f
000003a0: f5ca b453 b41f d0bf cbf0 54d5 4149 bf3f
000003b0: ca6c 42b0 90ac d03f abf7 6864 4c32 ca3f
000003c0: aaf9 e308 3a94 cf3f a5d4 7ab9 9b37 92bf
000003d0: 6c61 313e 3358 b8bf 29de 5f23 76fb ce3f
000003e0: 8621 3fde a0a1 bebf 751b 79a0 909f c33f
000003f0: e465 51ac 2a26 c0bf b7d6 2aa0 c4a5 c53f
00000400: 327e b2fa b154 c3bf 1653 86aa bb58 b7bf
00000410: 35e9 3692 e12c cfbf cf1b ab65 1d08 90bf
00000420: 3f67 3ff5 55fa af3f 5200 d8d1 1c85 cd3f
00000430: 21ba e98f 850b b3bf 2eec 8d07 e022 b1bf
00000440: af3f b12f 3d80 c73f 51f6 7f73 8901 c6bf
00000450: 797c 530b eb5b c7bf a2d8 4d5f 9def c83f
00000460: 3132 9e88 d845 ccbf 64c6 c423 65e7 cdbf
00000470: fdc6 9ce8 67ce cc3f 4f76 d2fc 67ca 973f
00000480: ab9b 1ba9 23d6 c6bf 727c 5b82 bcf2 c53f
00000490: 5586 318d 6423 a83f eb5a 339d 929f d03f
000004a0: c5c5 0826 2196 5abf 6278 e13d c523 b83f
000004b0: e066 42f9 1f1a bc3f 2964 bb30 faf1 b4bf
000004c0: cf04 1a7d 0a8a bc3f 2f4d de92 a4f2 c3bf
000004d0: 159d b71e 1dd9 c33f 94ea eed6 8589 cabf
000004e0: 89b4 9d8f ebe8 cb3f 6118 d2ad ed0d c93f
000004f0: 77f3 a18f 71cc ae3f 4d3a 70ab f5ae bd3f
00000500: dc45 f1e1 0fac c23f 6a85 bab0 9af6 c13f
00000510: fb46 50ef d15d af3f 815b 40e0 a41b cf3f
00000520: c4e7 9a01 da88 a23f f6f8 f18f eea5 b23f
00000530: 2bee cd86 5738 c43f 1b04 a283 a68c c33f
00000540: 0121 d498 a360 ccbf 0185 73dd 5262 a4bf
00000550: 5e19 3b47 b41d 9dbf 8bd6 11be b3e4 c53f
00000560: f299 d585 bada c5bf 6e4b 082b 966a 8fbf
00000570: c5cf d8a7 c39a bbbf 7037 5e43 1502 c6bf
00000580: 6e98 6a2d 7606 bfbf 50be 24ee 7663 a0bf
00000590: 18bc bdc3 b4d9 ce3f e2ca b695 53e0 913f
000005a0: 5199 6963 1ec7 763f db4d 37d4 2b68 c5bf
000005b0: a1db 7128 f07c ce3f 9f09 3f16 a960 b73f
000005c0: a9f5 61cf 1f87 a43f 349e 9b30 cfb2 c43f
000005d0: 1a2e 1119 95fe afbf f460 27d9 9adf 703f
000005e0: c05d dd44 bf7d cb3f 6c9e c6d3 7bc2 a3bf
000005f0: 91ab dec0 d5ce 483f abcc 3133 1ead b4bf
00000600: 35d1 4cdc 66b1 b1bf bcee e48d 7dd3 c3bf
00000610: a906 e23f a583 99bf c5f4 a7f1 16b1 923f
00000620: ab80 b203 3409 a1bf d211 2cb7 8fd7 c5bf
00000630: 1a03 1e00 e4c4 bfbf ee52 2545 9f31 c5bf
00000640: f911 c357 560c 993f 4127 e047 7eb0 c03f
00000650: 9017 6a7a 4a9f b9bf 27fd 6a13 243b b53f
00000660: e84a ca6b 6cc5 b13f 2683 b4f1 6e89 a13f
00000670: 4a33 ae68 b829 73bf a28e ae52 6aee c9bf
00000680: 5d2a 99b6 db29 d1bf 47d9 bfa2 7c36 cb3f
00000690: cfd5 4944 1489 acbf 19bf f8ca 3990 b13f
000006a0: 5071 8f20 4d04 c03f b69a c146 4529 a93f
000006b0: c251 c567 22fa c8bf a599 a050 6d0d bdbf
000006c0: b796 d90f e410 aa3f 018d 9e7e 1d62 90bf
000006d0: c4d4 05fb 65aa ccbf 6e57 78f6 0e37 ba3f
000006e0: f3d6 4e13 e94c cfbf 9d9a 53cb 481f a3bf
000006f0: ef1a b728 9822 7c3f 6aa7 8ba4 9cc9 b03f
00000700: 2893 c515 ea39 4b3f 4688 fa01 5db3 ba3f
00000710: 188e f307 8301 d03f 5ae9 633c 2884 c3bf
00000720: 3b6d f7bb 824d c7bf 1792 f8e5 c2c0 a5bf
00000730: 85c1 52cf e0d5 c63f 1ece 6ff5 fb6f d1bf
00000740: c41d 0723 73f3 aebf 8d86 45eb 1696 cfbf
00000750: 59cf ec10 c948 b83f 89d9 586d cf3b d1bf
00000760: e69e 5c54 3bb1 b53f 01ef 7bb9 1d98 75bf
00000770: c52c 2c0f 9790 cfbf 41ea bd15 fdf7 c53f
00000780: 6638 26f2 5a7c bebf afa7 2d53 2bad b83f
00000790: 57ae 93f6 39e3 bcbf da6a bc86 9ecc c7bf
000007a0: b9bd 519c 64f7 bdbf d71c e446 9c86 cd3f
000007b0: 908a 5a2a d2b4 d03f 4261 1d65 27d3 7bbf
000007c0: 1ce7 3fbc 1884 d0bf 8ef8 02e0 32d5 ba3f
000007d0: dd85 c42b bf13 cbbf 6231 1651 7ca3 bebf
000007e0: 20b8 af67 1237 cd3f 6625 d3f8 738d b7bf
000007f0: fcc8 ab82 1955 c83f 33ba 3b78 9363 c13f
0.200195935638789 0.11363125007963204 -0.02094378195288011 -0.003719456792750081 -0.12986171280936937 0.25224240887833826 -0.019242188896733195 -0.08246749167079155
-0.17654788919775508 -0.22081613897261454 0.004744739966191164 0.22517425935806432 0.21051229969049565 -0.0998210110804046 0.06597257323093648 -0.16880701335789325
-0.1459846455549719 -0.2034618207395748 -0.18977885203698153 -0.07792657264249273 -0.12249515670725364 -0.16856718838672333 -0.1136276744390508 0.1660566929731487
0.17055132179406013 -0.0315300537505635 -0.006807238552160514 0.015672626366069524 0.1101575695092579 -0.11016344378871794 -0.04807217928955743 -0.18181469028902708
-0.06383555741142222 0.0597290624019331 0.26783118180084003 -0.18722298572295312 -0.21633060755554173 0.1408983379330394 0.12387757247418549 0.24316147962384502
-0.05225699478842841 -0.1974476857333328 0.03673285578960658 0.008549410968421243 -0.09672384002132585 0.12641792255324602 0.11075158729418648 0.013391160922807477
0.008187254958748618 0.03168442829529561 0.026167046715298067 -0.0707878275899629 0.06406601194888142 0.2574539806424464 -0.10633639131844379 -0.19113444527473164
-0.18012229457070378 -0.2070824925697556 0.11825827538731541 0.0615335210119055 0.12452260996098988 -0.23455501136093446 -0.1322174592575936 0.24600060395862944
-0.16820405220430382 0.25794099421380423 0.03513468701431453 -0.24352545465901573 0.081367096591818 0.1869685761354266 0.02029410003761982 0.24957846959892047
0.06382152872600848 -0.09923585413563146 0.01152022090499895 -0.199943040968522 0.14243912384037208 0.17452970990865807 -0.2607593653556272 -0.26458810855521037
-0.12614551806921223 -0.013457525108600446 -0.03352422161443503 -0.003298495476997165 -0.10838602539295132 -0.24854095652752298 0.23061375306886978 -0.18347621209251427
-0.2250522285314332 0.018374561515303586 -0.016981697700838745 -0.2689401504612937 -0.14799156811972503 0.05283833393351043 -0.18069864842383945 0.015058320005932945
-0.2373287833307441 0.13574192518169062 0.07415307645534323 0.21619224729394104 -0.037341318314959786 -0.017446364033381456 0.2269686688465285 0.2174595416699416
0.14483978216087168 -0.18249858002015817 -0.11425708701896412 0.18531777304429942 -0.24104137010197532 0.10828672947807728 -0.07899289674658412 -0.1344618229503023
0.14029500596495612 -0.12163767436540364 0.0021474201060341365 0.09941363686534128 -0.25193508314548235 0.12221156557365302 0.26053254330481634 0.20465998556931927
0.2467110198412688 -0.017790253825940145 -0.0950958277547948 0.24204899527806958 -0.11965375352804672 0.1533070357856691 -0.12616475500071467 0.16912133999510612
-0.1510221933467491 -0.09119770920944989 -0.24355716361407934 -0.01565595562967897 0.06245678538080179 0.23062477346684546 -0.0743945576047982 -0.06693840202744702
0.18360104397515672 -0.17192190303460334 -0.18249261906655415 0.19481246140975822 -0.22088152571486 -0.23362411734119626 0.22504900796916863 0.023233055883443317
-0.17841001279086063 0.17147022595506517 0.04714502547791414 0.259739545360772 -0.0016227077213780566 0.09429581413994151 0.10977363429483544 -0.08181728067155859
0.11148133806456716 -0.15584237262064835 0.1550632858263518 -0.207321863124737 0.21804565918447263 0.19573756205881224 0.060153530867842635 0.11595092235095557
0.14587591678950573 0.14033826474500738 0.06126266523655307 0.24303112935805518 0.03620034474938863 0.0728444196156238 0.15796941835638853 0.15272981097589952
-0.2216991897805727 -0.03981265023481662 -0.02843362507589952 0.17104193478342142 -0.17073756728059625 -0.015340016544575365 -0.10783026550126269 -0.17193856992201573
-0.12119234665678544 -0.03200885445619106 0.24101886327432065 0.01745730019838277 0.005560988144316007 -0.1672415529452412 0.23818780875055004 0.09131867211457355
0.04009341627623126 0.16170682786399626 -0.06248918467516891 0.004119496227268583 0.21477499830755953 -0.03859316787867048 0.0007570785253297898 -0.08076657056681096
-0.06911318663043604 -0.15489167622023625 -0.024916250251868863 0.018253668307796973 -0.033273339701964964 -0.1706409115214585 -0.12409806254255465 -0.16557684780368426
0.0244611254754705 0.13038614759016734 -0.10008683670647955 0.08293366884298746 0.06941869384381116 0.034251658444423946 -0.0046784594986889 -0.20258835828018557
-0.2681798251329946 0.21260030695675367 -0.055733331047047245 0.06860696034777582 0.12513126458987722 0.04914299477313959 -0.19513349596912916 -0.11348612993660952
0.05091011708718212 -0.015999279835921424 -0.22395014531108448 0.10240262524925267 -0.24453462069293827 -0.03734805566800967 0.006868929263368114 0.06557635323738756
0.0008308785432232556 0.10429936693484007 0.25009227539541845 -0.15247061680549728 -0.18205293825199384 -0.04248627717268876 0.17840204356390302 -0.27245997398788
-0.060451124215940705 -0.24676786887998894 0.09486061728676755 -0.26927552870201815 0.08473559198011635 -0.005272022353661533 -0.24660003891799512 0.17163051187147185
-0.11908501064155672 0.09639235287400426 -0.11284219999259314 -0.18593198374659076 -0.11705616775883855 0.23067048512914454 0.26103643547154665 -0.0067931689134968515
-0.2580625379920194 0.10481565445931748 -0.21154012333958763 -0.11968209247260611 0.22824316084683094 -0.09200215172599754 0.1900970352213064 0.13585131998793684

net.1.layer.bias f8 [40]
00000000: d34a 3cd2 4d62 503f e36d 37d2 4d62 503f
00000010: 645a 05d2 4d62 503f c518 52d2 4d62 503f
00000020: 9708 34d1 4d62 503f 0e93 77d2 4d62 50bf
00000030: 4698 acd2 4d62 50bf 137a 5ed1 4d62 503f
00000040: e3bd 4ed2 4d62 50bf 704e 85d2 4d62 503f
00000050: 2254 8cd2 4d62 50bf 5a98 78d2 4d62 503f
00000060: c093 71d2 4d62 503f a7bc 37cf 4d62 503f
00000070: 1e31 53d1 4d62 503f 0594 a4d2 4d62 50bf
00000080: fe6c 08d2 4d62 50bf f05c f1d0 4d62 503f
00000090: 9371 b9cf 4d62 503f 3660 80d0 4d62 503f
000000a0: b143 4dcf 4d62 503f 3f87 55ca 4d62 50bf
000000b0: 4a82 b9d2 4d62 50bf e08a 21d1 4d62 50bf
000000c0: 041c 9ed2 4d62 503f 6289 67d1 4d62 50bf
000000d0: a248 a3c7 4d62 50bf 5150 c8cc 4d62 50bf
000000e0: 6306 71d2 4d62 50bf 32ea 24d2 4d62 503f
000000f0: db7f f9d1 4d62 503f 467f 4bd2 4d62 503f
00000100: 600f bfd1 4d62 503f 7fcf 13d2 4d62 503f
00000110: 0b40 41d2 4d62 503f f0ae d0d0 4d62 503f
00000120: a52d 63d1 4d62 503f 05d7 a0d2 4d62 503f
00000130: d273 84d1 4d62 50bf 6ab0 c1d1 4d62 50bf
0.0009999999974225529 0.000999999997353445 0.00099999999664182 0.000999999997732413 0.0009999999936672105 -0.000999999998265003 -0.0009999999990184679 0.000999999994270366
-0.0009999999976847355 0.0009999999984601458 -0.000999999998559938 0.0009999999982795078 0.0009999999981797764 0.000999999986443881 0.0009999999941099967 -0.000999999998904545
-0.0009999999966854851 0.0009999999927197654 0.0009999999882871243 0.0009999999911141206 0.000999999986749805 -0.0009999999686773479 -0.0009999999992019886 -0.0009999999934044365
0.0009999999988126182 -0.0009999999943991135 -0.0009999999588683824 -0.0009999999775845046 -0.0009999999981719291 0.0009999999970903392 0.0009999999964733694 0.0009999999976386272
0.000999999995642896 0.0009999999968472726 0.0009999999974930087 0.0009999999922553592 0.0009999999943371776 0.0009999999988514207 -0.0009999999948100313 -0.000999999995680257

net.2.layer.weight f8 [40, 40]
00000000: 8feb 96c0 23b3 c2bf b5fc 4bfd 18cc cbbf
00000010: 284f cf64 a552 c5bf cb4e cd06 10d8 c93f
00000020: f172 b982 1ee1 abbf d0db 1c5d c9c1 cbbf
00000030: d7f3 f7db b818 c8bf 5547 4319 9522 923f
00000040: 750d 9440 eb5d cabf 9f08 e907 3785 c93f
00000050: 1ebc 5012 ddc1 d0bf 38dd 53e7 baa1 c2bf
00000060: a99e 63d2 37ce c1bf 37d0 a774 8c6f b3bf
00000070: 08e0 ac92 d95e c3bf 0d4b 5f25 94f7 c43f
00000080: b45d 16fe 94e5 c7bf 2ff3 f907 a078 d13f
00000090: 1857 effd 60bb c03f 382b 70fd 9d61 cc3f
000000a0: 0b39 3dd9 4132 c43f ab55 6243 0f71 a6bf
000000b0: 996e 9df5 dc4b c1bf a133 e3db faba c23f
000000c0: f4b8 5a52 b6a7 be3f c8c6 a611 79be c3bf
000000d0: c487 4dc0 3484 cd3f 7ca2 0aa8 ca0a c6bf
000000e0: 4249 8e9d 712c c7bf 691e 8573 ba28 c73f
000000f0: bd99 eed8 6b96 6e3f 51e2 f1a9 1952 b23f
00000100: 6b6a 0d8a c2c1 bbbf 961b 5396 93a7 babf
00000110: b71e 2963 a231 993f f093 d434 2735 cf3f
00000120: 5ae0 7dfb 65bf d03f d232 2f1b 3a67 74bf
00000130: bfd1 5fc1 5ca9 6e3f eb16 fa22 bee3 d03f
00000140: b5ca fa2b 5565 d13f 9ab0 e79d e8e3 a5bf
00000150: 5832 8e78 e2a5 babf c4e0 c07f 4892 80bf
00000160: cbd9 c092 2208 c63f 6fdb e8d2 87d2 c7bf
00000170: 746c 9ed6 9111 b03f 2eca aa91 c7a5 c23f
00000180: 3be3 453a ad1d c73f 95c7 17ff 0226 843f
00000190: 61ea c65b fe09 c03f c4c8 0097 d952 c7bf
000001a0: a4ba e42d b838 ca3f 05fe db8f c9b2 c73f
000001b0: 0e04 2d05 aac9 c53f c5f3 efa3 73b7 b8bf
000001c0: c5df 6350 63fc c53f bd30 524e be15 c3bf
000001d0: ce14 f6f5 0e3c a9bf 2642 6c17 9a8f b9bf
000001e0: 88fd f633 16d4 ca3f 961b 5d61 e794 c33f
000001f0: 2f45 5669 45c6 c83f 8e27 8fa4 2552 8dbf
00000200: c822 2013 28dc b7bf bf98 feda 88ff c2bf
00000210: ad01 0eed e3e6 a4bf 23ba 7fa5 6f0e d1bf
00000220: 3f7d b37c 3972 d03f a3e8 871c 6338 a3bf
00000230: 8971 c720 b4cb c23f 8291 baf9 c0b4 abbf
00000240: 7b18 8329 9049 d1bf 1de0 d7d7 2911 d03f
00000250: 42fe 49f0 2c41 ba3f cc8c cf17 8485 c13f
00000260: 85d6 2b79 29e7 953f e726 f33d 9565 4bbf
00000270: d6de 45d2 2b89 bc3f b55d ada7 234e c93f
00000280: 1e83 2aaa 5631 c43f e2a6 233d adb7 c5bf
00000290: 1bec 94b0 a162 c0bf 942d a856 993e c5bf
000002a0: ad81 fa84 9c4d b0bf 5d3a a708 7ee0 aebf
000002b0: 41c0 9c92 063c cf3f 7e25 cac3 2e91 a33f
000002c0: ab78 bc88 5e29 a2bf bfcb f4a7 8aac abbf
000002d0: 87c9 bcc4 4fcc c33f a2f9 c12c 2105 cfbf
000002e0: ac62 3584 0607 cc3f 5e54 7f19 e4b0 a7bf
000002f0: d414 bf68 b7dd bf3f 611c e704 4ce5 cf3f
00000300: f3f7 3749 ac7c c93f b5f7 5879 323d aa3f
00000310: 69bd bdc8 8722 cbbf 40ad 8257 ee42 ca3f
00000320: fcbd 53a7 ddca d0bf a460 4e91 9522 babf
00000330: 4d63 de9c 9f98 cbbf b031 c08d 815c a33f
00000340: 0eeb e7d9 d796 c43f 2c1e ec66 7ad0 c03f
00000350: 5df4 5bc1 73cf 8c3f fe9f 7183 c514 913f
00000360: c351 81d9 c2fa c9bf 9131 793b f368 c9bf
00000370: 9fc4 b2a3 5a88 493f 28c9 5a80 4f97 b7bf
00000380: 8522 a1ea df05 d1bf 7c6f f2a9 e853 643f
00000390: 092a b025 2172 64bf 45ca c520 16a3 c53f
000003a0: c8f7 bf53 dac9 c7bf 480b d07c 98fd a5bf
000003b0: 9246 ac5e e148 d13f 2d58 4d54 e5e2 c73f
000003c0: 795d 409b 0c6e cf3f 5435 3c0b d432 93bf
000003d0: 5e75 17d0 0866 bf3f 6528 26f6 5751 ca3f
000003e0: db45 f963 6858 b3bf f54e 0f5b 2bcf b3bf
000003f0: 78be d040 2c6d babf 1c7c cc20 0340 97bf
00000400: 58f1 0846 2a2b c0bf f8d2 f2da fd6d c5bf
00000410: 5a7f bfb2 8c97 acbf 4170 82b6 bbf0 cebf
00000420: 8129 e078 71a8 d03f 7054 3b4a 479a 9a3f
00000430: 5017 35ad d220 c3bf 2af5 69b3 6a48 c33f
00000440: 9374 d54e 335e c93f e175 ff38 36d8 b4bf
00000450: 2004 43e1 9285 c33f f56f db49 e944 933f
00000460: 8b08 6e7a cc11 cbbf 4808 078d 90e8 cc3f
00000470: 7169 cc21 9d72 cdbf 8e81 ea5c f197 723f
00000480: 7537 c74c a7f6 ca3f d865 094d 1468 a93f
00000490: 2ebe 9736 95e8 b33f 056e d3fa ca31 c13f
000004a0: 553c 00d9 ce3e cbbf 9d6c a842 d778 cbbf
000004b0: e01a 8e5d bd95 d1bf f1e7 1015 d79a a33f
000004c0: dfb0 4a47 f564 c1bf e2d7 9218 4b0b c0bf
000004d0: 33c8 8fea e031 92bf 2d86 2d50 0553 3a3f
000004e0: 12eb e704 ff4b b6bf 1836 3f86 be47 d13f
000004f0: 4526 8db0 13eb c0bf fd53 8c78 c93c 6ebf
00000500: 30cc e4ac 9bc2 c0bf 1320 10ec f4d9 d0bf
00000510: 3d8a 7978 a705 a43f d2c5 f266 7729 b73f
00000520: 1a77 5aa3 3aa8 b1bf 77b6 54e7 12c6 ab3f
00000530: 691c 5cb9 4f40 ba3f ef8f 976f a4a0 a5bf
00000540: d126 cc46 73ef cebf 3e70 544a de87 cbbf
00000550: d59b 4bf5 8855 c4bf 6333 6191 e5da c23f
00000560: 1d16 1155 42b6 b53f de54 20d6 7781 d1bf
00000570: 4d2b 4b62 89af b83f 2701 6de1 07a4 aa3f
00000580: 8b5c 13c3 863a c73f 9684 7355 9b1c b8bf
00000590: 9e6c 44c3 5772 b43f 39c8 d361 b14d babf
000005a0: b3e0 8e31 4388 b0bf ec2a aa74 818b 703f
000005b0: a42e 9436 1ad5 ca3f 4719 3ba7 3737 b43f
000005c0: f790 6beb a978 d0bf 5961 bad0 4cac c4bf
000005d0: 9bd1 3df2 265f b7bf a752 4e1b 4176 d0bf
000005e0: dc15 833c 802e b1bf c19a 255f afa8 9d3f
000005f0: e556 a3dd 4b55 d1bf 413b 97e1 7db9 c43f
00000600: c760 5559 47ff c9bf d2a6 e5c6 76e8 cbbf
00000610: 481a a0fb 7898 af3f 2bb9 b263 0780 c9bf
00000620: d9fd 2b90 bde9 a53f eab7 da83 dba9 bebf
00000630: 11e1 0cc3 007f ce3f 637c a31d a52e cc3f
00000640: 8e00 96d8 ca05 ac3f ba2b 3d0e 41bb c9bf
00000650: f426 8d99 8b86 c83f ebc3 c64f 70f2 813f
00000660: 6291 c7ee 3a00 a13f b730 0efc e111 a63f
00000670: 7790 3bc2 6467 cfbf ef3f 90af d327 b7bf
00000680: 0c1c d3bf 7bf6 acbf aff4 fa10 b094 c93f
00000690: 62b5 cc8b 7f13 bebf 1713 8c98 c7fb b23f
000006a0: c624 ff6f 0b0c cfbf fb83 27f5 6d60 d03f
000006b0: 02d8 4fa0 2fe5 7f3f dda7 42d2 4528 923f
000006c0: 63f5 5610 4bab ca3f aa66 56d1 b656 b83f
000006d0: 335f a5c5 2d12 c4bf aa39 d990 130c d0bf
000006e0: 1eb1 c00a a7aa c7bf b65e 78bc 66d8 a8bf
000006f0: 6d23 ce69 3bda babf 8ae4 ca69 c5de cdbf
00000700: 90c9 2f7a 3730 cfbf feb9 31a2 2c02 abbf
00000710: b9d8 8511 2447 babf be64 fec5 0612 d03f
00000720: 449e d2da 4a6d 6fbf 8b6b 1599 9350 c73f
00000730: 3869 7103 14ba bd3f 8087 5dbf 86fd b03f
00000740: eaa6 f89b 8bf9 7d3f 5665 985b 7c82 d0bf
00000750: 59e4 71d0 75ec c63f 3f8c 6b83 2397 c1bf
00000760: b585 c91c 1d5a bc3f 3270 74dc a27f a3bf
00000770: dcf4 d2ff d3d9 b73f 7ee7 0b5c 91f2 b03f
00000780: 9dbe 8d0c 937e b8bf 6d76 8613 4d4b 74bf
00000790: ee47 344e c336 c93f 1210 d46a cf45 c3bf
000007a0: debb e154 d772 c53f a025 99bb e99a b93f
000007b0: a469 3edd 5333 bf3f 6a5d bd20 bb67 c8bf
000007c0: ed88 3806 eec2 cabf 65fd bf26 0d4a 933f
000007d0: aa75 99f2 4156 bebf 76fa b3e9 f411 c0bf
000007e0: 4ee9 3557 9922 a2bf fe1f 91bf 996a c3bf
000007f0: 3178 6924 e942 d13f 7498 a88d 0b00 b0bf
-0.1460919084909986 -0.2171660649109747 -0.16658465788224786 0.20190620739105322 -0.054451898057527155 -0.216851397004318 -0.18825445881512223 0.017710046450538048
-0.20599117902029787 0.1993778980850651 -0.2618324927197494 -0.1455606107262868 -0.13910577557475293 -0.07592084739718606 -0.15133208906058848 0.1638055021745334
-0.18669378668412906 0.27298737315122684 0.13071834944883487 0.22172903895292406 0.15778372866993381 -0.043831326461411045 -0.13512765877645874 0.14633117424673706
0.11974658499341101 -0.1542502723873922 0.23059710874355066 -0.17220433430817994 -0.18104381745485837 0.18093042984604615 0.0037338358301497163 0.07156525038761542
-0.10842529173297925 -0.1041195146564021 0.02460340242603706 0.24380960540398133 0.26168202934014106 -0.004981257417011791 0.003742867625073226 0.2639003125735672
0.2718098573197197 -0.04275443007995357 -0.10409369891403608 -0.00809151306030776 0.17212326207818615 -0.1861123828727744 0.06276809205739814 0.14568419087079704
0.1805931601081968 0.009838126573388265 0.1253049800996733 -0.18221588013836343 0.20485594025509102 0.1851436569631774 0.1702168011925384 -0.09654925110221686
0.17176476884173844 -0.1491010553767235 -0.04928633453804708 -0.09984744140479815 0.2095973733648686 0.15298168424689312 0.19355075496108884 -0.01431683929867569
-0.09320307223255064 -0.14842329686252317 -0.04082405346617022 -0.26650611078267356 0.2569717138084861 -0.03753957484509953 0.14684154129544094 -0.054113417133780053
-0.2701149373427893 0.251047573837697 0.10255699984008351 0.13688708460458654 0.021389625569062893 -0.00083608424383749 0.11146806605926982 0.19769712149967025
0.1577556925667744 -0.1696678684741562 -0.1280099975791423 -0.16597286921783605 -0.0636842560438768 -0.060306490474989906 0.24401933821491364 0.038217030906774405
-0.03547187251227631 -0.054050763132543526 0.15467259508438877 -0.24234404263911552 0.21896439986700977 -0.04627144633529022 0.12447687442098082 0.2491850875796642
0.1991172177803829 0.05124814730923736 -0.21199128438773165 0.20516757271739472 -0.2623819479040035 -0.10209021375192379 -0.21559519919972062 0.037815140298423144
0.16085336818635948 0.13136224771027238 0.014067558611254133 0.016680799625106595 -0.20296512241715278 -0.1985153236768267 0.0007791941237852601 -0.09215256580026632
-0.26598356164007725 0.0024814171043327487 -0.0024958274275424003 0.16903950309968443 -0.18584755982732148 -0.042950406299516575 0.2700732636013551 0.18661181083979397
0.24554593639980363 -0.0187485820634284 0.12265067177164243 0.2056074096584012 -0.07556774559750272 -0.07737990353717435 -0.10322834570319539 -0.022705124737623192
-0.126317295262093 -0.16741917792173644 -0.05584373170836328 -0.24172159587476652 0.2602809601236445 0.025979150682207963 -0.14943917710678045 0.1506474853557987
0.19818726872737055 -0.08142413035917385 0.15251384734259066 0.018817563183674186 -0.21148067453401995 0.2258473099337286 -0.230060235503355 0.004539435218845601
0.21065226792273575 0.04962218704595117 0.07776768286543564 0.13433205840452458 -0.2128542480063255 -0.21462527041226034 -0.27476438652267454 0.03829071170953558
-0.1358934972862533 -0.1253446454990686 -0.01776839667940795 0.000401676938215886 -0.08709710950635621 0.2700039206509657 -0.13217397804901246 -0.0036910948732704605
-0.1309389681060522 -0.26330302289034185 0.039105637985603604 0.09047647727381694 -0.06897322166556955 0.05424555848945272 0.10254381442438078 -0.04224122869689483
-0.2416824432078131 -0.21508387212168317 -0.15886032082855076 0.14730519865625089 0.08481230332207486 -0.2735271063878154 0.09642847680804074 0.05203270556239863
0.18147358441521919 -0.09418650470935783 0.0798697330214275 -0.1027479995571249 -0.06457920036234803 0.004039292990124049 0.20962836899740467 0.07896755059036763
-0.257364730741997 -0.16150818054007735 -0.09129565633867857 -0.257217671075788 -0.06711579778046634 0.028963794882111985 -0.270831076091197 0.16191075816319692
-0.20310298788058942 -0.21803173743983578 0.06171014854048856 -0.1992196308905901 0.04279892334852393 -0.11977931946850587 0.2382508232492531 0.2201734919280823
0.05473169225570117 -0.20102704234372287 0.1916059970629288 0.008763196405967085 0.033204881332298056 0.04310518457268258 -0.24534282192246668 -0.09045146023004212
-0.05656801907166917 0.19985009030452747 -0.11748501933171476 0.07415435289665272 -0.24255507439219154 0.2558855909429096 0.007786928214946089 0.017731753309511922
0.20835245416484857 0.09507315264490993 -0.15680477286036307 -0.25073708672871453 -0.1848954012397223 -0.04852601099645197 -0.1048924573243661 -0.2333609358372864
-0.24365895715852703 -0.0527509639731427 -0.1026480238705031 0.25110024772000006 -0.0038362943656300736 0.18214650130070384 0.11612057766015915 0.06636850521092974
0.007318063114817733 -0.25796421952107573 0.1790911929890935 -0.1374248878192663 0.11075002625286497 -0.03808316174601635 0.09316754337028804 0.06620129105786351
-0.09568137222754065 -0.004954625205213154 0.19698373144689135 -0.1505679389593984 0.16756717342965904 0.10002003507647439 0.12187694694004009 -0.19066561792963493
-0.20907378486396713 0.018837171068296316 -0.11850368664587188 -0.12554799472123407 -0.03542021932203686 -0.15169069150783793 0.26970890575273915 -0.06250068863355002

net.2.layer.bias f8 [40]
00000000: ca50 c4d1 4d62 50bf f3f4 0ad2 4d62 503f
00000010: aa50 78d2 4d62 50bf a1df c8d1 4d62 503f
00000020: 1336 75d2 4d62 50bf 4fb1 a8d2 4d62 503f
00000030: e6c4 9ed2 4d62 50bf 3e41 6ed2 4d62 503f
00000040: f392 92d2 4d62 50bf c3d1 66d2 4d62 503f
00000050: 5d51 1cd1 4d62 50bf 9208 1dd2 4d62 503f
00000060: a67a afd2 4d62 50bf a946 90d2 4d62 503f
00000070: 9296 95d2 4d62 503f 3e4e 11d2 4d62 50bf
00000080: d28c aed2 4d62 50bf b623 43d1 4d62 503f
00000090: b76b 43d2 4d62 50bf 7b2f 60d2 4d62 50bf
000000a0: 5952 d3d1 4d62 503f 6a7a 7bd1 4d62 503f
000000b0: 4ae3 81d2 4d62 50bf a9d0 89d2 4d62 503f
000000c0: c06f 3dd0 4d62 50bf be7d a5d2 4d62 503f
000000d0: 1c35 70d2 4d62 50bf 59dc 42d2 4d62 503f
000000e0: 0074 81d2 4d62 50bf 9a71 5dd2 4d62 503f
000000f0: 3227 a8ca 4d62 503f edc0 02d2 4d62 50bf
00000100: 39c6 93d2 4d62 50bf 1487 9cd2 4d62 503f
00000110: 72b7 ebd1 4d62 50bf 0485 96d2 4d62 50bf
00000120: ab64 04d2 4d62 503f d372 b1d2 4d62 50bf
00000130: 728c b0d2 4d62 50bf 8977 62d2 4d62 50bf
-0.0009999999957175814 0.000999999996721454 -0.0009999999982755283 0.000999999995782354 -0.0009999999982314197 0.0009999999989630142 -0.0009999999988219931 0.0009999999981325637
-0.0009999999986486901 0.0009999999980268993 -0.0009999999933301897 0.0009999999969783385 -0.000999999999059456 0.0009999999986160335 0.0009999999986915237 -0.0009999999968116759
-0.0009999999990462538 0.0009999999938818788 -0.0009999999975238546 -0.0009999999979326258 0.0009999999959308308 0.0009999999946824997 -0.0009999999984115653 0.000999999998524218
-0.000999999990162856 0.0009999999989175191 -0.000999999998160312 0.0009999999975158962 -0.0009999999984053876 0.0009999999978936636 0.000999999969851517 -0.0009999999966048792
-0.0009999999986657472 0.0009999999987901397 -0.0009999999962775033 -0.00099999999870476 0.0009999999966281796 -0.0009999999990874433 -0.0009999999990746547 -0.0009999999979650473

net.3.layer.weight f8 [3, 40]
00000000: a40b 49bb f1a9 c2bf 395e 8c48 0225 d3bf
00000010: ceb7 1781 87ff d63f 8634 c44f e5d4 ce3f
00000020: 1b85 7314 d1ba 9b3f 59f8 32eb eed5 bb3f
00000030: 3b35 7792 ab74 d63f 3aa9 e34d 835e c2bf
00000040: 7e65 f454 fa5f d03f 8d93 3d21 8af7 d0bf
00000050: 02c7 5ee0 22d9 d6bf 6144 fa91 f2d2 c8bf
00000060: 2fdf 56b5 cb6c cbbf 08a5 09e0 dbd9 c9bf
00000070: 333d 396e c31f cdbf ab2a b110 3e26 c1bf
00000080: be0c 48f3 7181 b63f cd01 8e1e 58a1 c13f
00000090: 5669 e5ff 2cb8 c13f e47e cd41 b073 abbf
000000a0: 5275 8c6d a269 bbbf 997b 1554 073a 98bf
000000b0: 2c00 cf4e d16b d13f 0a56 9452 3d63 b1bf
000000c0: 7614 5379 9c53 d03f a001 c99a 607f cb3f
000000d0: dac0 9022 c728 cb3f 9af6 561e 68e8 cabf
000000e0: e0b6 5ceb 0c51 d1bf 15ee 035b f481 d73f
000000f0: 4b85 0c56 3d17 d5bf 10d2 8014 7604 c13f
00000100: 3bc0 8f3d 228a b3bf 41d1 1565 30f0 883f
00000110: 2019 8999 1322 d0bf a5fe 4ac3 fb7c d3bf
00000120: db69 2770 a8a1 b7bf a786 48b1 77ec ca3f
00000130: c2e8 c827 2cca c73f 31f1 5431 29d8 d4bf
00000140: 3fe6 5bd2 9853 d2bf 7d88 9d1c ad10 d23f
00000150: 8742 812b eb04 993f 2962 8d15 88aa c4bf
00000160: 2bac d44f 23bf c93f 5064 3b95 f60f d33f
00000170: 5880 4162 dc24 91bf c619 1854 d8b2 bb3f
00000180: f5bc 1c76 5bcc d43f 43ec 1abc 8888 c93f
00000190: 25c9 1e0a c2e9 d3bf 0be1 cf58 8b2d c2bf
000001a0: 8bd6 4439 58fe c2bf f985 adc6 a7ba d23f
000001b0: 8392 6d76 cfe6 6fbf 6970 086c 144a c23f
000001c0: 80f5 9189 2392 cebf 63c4 7066 5bd2 c43f
000001d0: 87af 9c03 a6a7 c43f 6184 f670 a686 d53f
000001e0: ad14 3acb 5c6d c93f 4f96 5138 07a2 d13f
000001f0: df15 39da de82 b2bf 9066 3992 0c91 d1bf
00000200: 0e5e e6a9 32c9 ca3f aaae c30c 6707 d53f
00000210: 5411 0a27 6c76 903f b591 ce4d 9810 703f
00000220: d390 d010 2e51 d3bf d12b f834 a9b8 d7bf
00000230: 42e6 813b 91e8 d23f 2c22 117b 4788 d7bf
00000240: d337 35bd ad15 cbbf 3b31 bbd3 9638 babf
00000250: 10b1 af9d 0cac a9bf e614 770d f51b be3f
00000260: ebb9 f833 481b b73f 9d6e 1c8a e65a c6bf
00000270: 3370 a575 03e1 cbbf 7173 ee2a cfe6 c6bf
00000280: b645 0810 1f96 8dbf 9978 ed9f eba6 953f
00000290: 29e1 37a2 f78e c9bf 69c5 0717 5867 c23f
000002a0: 0bcc 252c 7b35 d0bf 1c8a 6947 1335 d13f
000002b0: 6664 0beb a44c d2bf e8f0 eee1 633b c43f
000002c0: bb5e f663 b6b0 d5bf 41a7 99c5 0b46 be3f
000002d0: 692c 92fe 7bf4 8b3f 28f9 519c e6ca c23f
000002e0: 6930 9acc a1dc d6bf e975 f63a d8e9 c53f
000002f0: 1df5 c0d7 090b d13f a08c 8146 8720 c4bf
00000300: 17d7 7f36 51c8 d3bf 9e84 59c6 c369 943f
00000310: cd86 f196 e511 c7bf 1e57 7c03 560c d1bf
00000320: 1193 5cc9 7d32 a03f e1b2 be68 de2b 80bf
00000330: c7f4 c650 bf17 c9bf 304b 4711 5408 d43f
00000340: 9267 95fc 2826 b5bf 0ef6 e03c a007 d03f
00000350: 7e21 c54d 597c c8bf ef30 ae0c 2d58 c13f
00000360: 727a 81b5 5dee c3bf acc7 4c86 e31e d23f
00000370: f33b bd17 62c3 b4bf bd92 97b0 f0d1 6dbf
00000380: be77 0116 850b ccbf fe76 2b31 ae94 d43f
00000390: 9d94 aad5 86cf b8bf 42e9 4e31 e2c5 d4bf
000003a0: f3bf 386c ee5d b43f b36f 2a2f d6e6 d5bf
000003b0: ec97 05fb 377f d4bf d287 1e5c 98da c1bf
-0.1458112873534364 -0.2991338451842896 0.35934627157882637 0.24087206263394395 0.027079836724515177 0.10873311273732734 0.3508709841087982 -0.1435093050307133
0.2558580236087308 -0.2651086163153245 -0.35700294409899425 -0.19393760803044116 -0.21425768236599071 -0.2019610256132085 -0.22753184206019625 -0.13397956671754704
0.08791267575729741 0.13773633472375338 0.13843309874466553 -0.05361700824027851 -0.10708060431030234 -0.023658861643862748 0.2722056645980071 -0.06792052522754247
0.2551032242593644 0.21482474859113854 0.21218194186940914 -0.2102174900191372 -0.2705719278772971 0.36730679405420236 -0.32954343226636656 0.13294864655621597
-0.07632650378195731 0.01217687424171088 -0.252079868256617 -0.3045033843190857 -0.09231045473226322 0.2103414168969284 0.18585731451623216 -0.3256934148555671
-0.28635235350484217 0.28226783556431895 0.024432825594262766 -0.16145421078069092 0.20114556692110006 0.2978493172973389 -0.016742175576269197 0.10819770863608999
0.3249729779663107 0.19947919068167339 -0.31114245403581925 -0.14201490246319567 -0.14838698192913954 0.29264253999835393 -0.0038942386631098404 0.14288573527381068
-0.23883480279247848 0.16266958715417265 0.16136622597093384 0.3363433936265832 0.1986499779051533 0.2755144166934302 -0.07230942561826435 -0.2744780948611174
0.20926507278339596 0.32857681509515635 0.01607674587514059 0.0039220761654274365 -0.30182983057080753 -0.37064581082148346 0.29544478236457306 -0.36769282358412414
-0.21159908045450368 -0.10242598218173253 -0.05014075684434449 0.11761409357775995 0.09026004093968935 -0.17464906448082199 -0.21780436748929474 -0.17891873928320082
-0.01444648997952212 0.021144563327987063 -0.19967551632704186 0.1437788116887007 -0.2532642298821776 0.26886445974210615 -0.2859279914242222 0.1580624440374614
-0.33891067277862036 0.11825631689285122 0.013649910646810608 0.146817041710116 -0.35721631031697726 0.17119887236633183 0.26629873342229066 -0.1572426885860283
-0.3091013939114062 0.01993471048479433 -0.1802336680439595 -0.26637792911911784 0.03163521845843865 -0.00789617306858176 -0.19603721088598133 0.3130083245024933
-0.08261352697937088 0.2504654497641646 -0.19129482552876803 0.13550341719781708 -0.15571185457789088 0.28313530078150495 -0.08110631064958777 -0.003640146348276778
-0.21910155844210338 0.3215747337506939 -0.09691660610640658 -0.32457785430201025 0.0795582784855922 -0.3422141514399712 -0.32026481164791565 -0.1394834947396349

net.3.layer.bias f8 [3]
00000000: 2769 70d0 4d62 50bf b4d7 92d2 4d62 503f
00000010: b28e d8d2 4d62 503f
-0.0009999999908872432 0.0009999999986525067 0.0009999999996432138
