8_Inv_Lorenz/logs/models/2023-09-28-15-26-39_Lorenz_RBF_100X5/epoch_14000.pt (torch, 436734 bytes, 17 tensors)

alpha f8 [1]
0	0x4021082a95bcac76	8.515949897080855

beta f8 [1]
0	0x3ff2f7da3afc2722	1.185510855112121

rho f8 [1]
0	0x403ab246bb92e2f7	26.696391795502645

rbf_layers.0.centres f8 [128, 1]
0	0xbfd58ac7264f3508	-0.336595332538153
1	0x3fe73b90cc65d73c	0.7260211937088807
2	0x3fe8bb01019f1d8e	0.7728276282950206
3	0x3ff1811a9ed2fcb9	1.0940195278233615
4	0xbfd42e7cf6e3215f	-0.31533741102295737
5	0xbfe2cfab0b02d49b	-0.5878501143512439
6	0xbfd509e869b42a94	-0.32872972796091315
7	0xbfdd05fe56799507	-0.45349081463639646
8	0x3fedcd42f2550eda	0.931306336693946
9	0xbfd786eda99286aa	-0.3676103740673208
10	0xbfecb119d252e0a5	-0.8966187579999497
11	0x3fe3a336647e5211	0.613673397327661
12	0xbfebf9a95b0620dc	-0.8742262628375346
13	0xbfe181364978db0c	-0.5470229563714795
14	0x3fec462c95b40b8c	0.8835661815540887
15	0x3fec64d19c83b80f	0.8873069817470894
16	0x3feec1ae9c0ab61b	0.961142830628606
17	0x3fec119d3b227980	0.8771501688932375
18	0xbff64f457e8c89fe	-1.3943533843345217
19	0xbfe349fe601ade5a	-0.6027824284601124
20	0x3feb4aebb73a2384	0.852895601144255
21	0xbfe96a80deb46b13	-0.7942509031011887
22	0x3ff131697c15dc7f	1.0745634886823436
23	0xbfd7909743ed08fe	-0.3682001269663856
24	0x3fe857b0342a32b9	0.7607041376919234
25	0xbfd43096c490ed0b	-0.3154656333533274
26	0x3fe5be191bd90dfe	0.6794553321746546
27	0x3ff4d527216d6285	1.3020392709496786
28	0xbfe2df703e0b55d4	-0.5897752010156929
29	0x3fe1eafa65c78daf	0.5599338519936533
30	0xbfd5c5ed60d8de3f	-0.34020552118042596
31	0x3ff041bb2f0b988c	1.0160476529795543
32	0xbff85d2d3f36535c	-1.522748228953069
33	0xbfeb34cb9693d412	-0.8501947346654808
34	0x3ff03958b6cf8cd3	1.0140006199879295
35	0x3ff7da12b75146fb	1.4907405052985598
36	0xbfd1fee02a7b452e	-0.2811813750132214
37	0xbfd8caf602fd9727	-0.3873877553181608
38	0xbfd669049c465faa	-0.35015979062290603
39	0x3fe6653f068bb736	0.699859154495903
40	0xbfd4656093d3e774	-0.3186875766401649
41	0x3fea64ef85663196	0.8248212438061724
42	0xbfd483254921ca26	-0.3205044950656507
43	0x4000eb6fddace1ea	2.1149594610580964
44	0xbfdead572ba719eb	-0.4793298651024133
45	0x3fea816acaaf9de2	0.8282979925833696
46	0xbff016e6f86817fb	-1.0055913642295298
47	0xbfe6243a40953c8d	-0.691922308100304
48	0x3feb8fb99a55cb73	0.8612945570333593
49	0xbfd11671c6fc1569	-0.26699490005588317
50	0xbfdf1b7123cfe1dc	-0.48604992387074986
51	0x3ff31da4cea8913b	1.1947372505756693
52	0xbfd311e9db29cc0b	-0.29796835329688126
53	0x3ff0d17954f65b85	1.0511411017266437
54	0x3fee78fba1c4e48e	0.9522684249451616
55	0xbfd37fbc7d4f8889	-0.3046714042412835
56	0xbfd1cd060f55b4f0	-0.2781386518243627
57	0xbfddf088525f00ec	-0.46780593914083
58	0xbfdf4bbe5d424cd1	-0.48899802310297696
59	0xbfe050714769f628	-0.5098196406176543
60	0x3fe65f184cdef035	0.6991082669624179
61	0xbff72ea7b1e280a6	-1.4488903950332683
62	0x3ff067212c78dbc8	1.0251781212989375
63	0xbfd8f7b0b764acc4	-0.39011781606195606
64	0x400122a727d0cbff	2.1419203863711114
65	0xbfe557105d82e46d	-0.6668779207603969
66	0xc00147cb3927a707	-2.160055586359593
67	0x3fe8b262e7acd2a4	0.7717756771949849
68	0xbff9a9f85d4a5d3f	-1.6039966243896087
69	0xbfed2ab971b0e12b	-0.9114653797651376
70	0xbfd93a3a14735d1b	-0.39417888638623005
71	0xbfdf22df29a27def	-0.4865034014310074
72	0xbff71109f2280843	-1.4416598757966461
73	0x3feadee618306575	0.8397093269769998
74	0x3ff19d4c1f3495c8	1.1009026736222598
75	0x3fe896cbfb8f628e	0.7684078133853107
76	0xbfd5f7a5522be76e	-0.3432400991874748
77	0x3feb2b350dc8f247	0.8490243214833492
78	0xbfefa2918a627105	-0.9885947897742261
79	0xbff794c28a139079	-1.4738183396921427
80	0x3ff323a1af5ea54b	1.1961991167430195
81	0xbfe7e78bb5069460	-0.7470148597391351
82	0xbfeed10804e0e5fd	-0.9630165190966974
83	0x3ff0c9acf80b8ab8	1.0492372216473722
84	0x3fec299ae1e53dd2	0.8800787364979732
85	0xbffb1e448e7e2c22	-1.694889599430788
86	0x3fe730d758e3b870	0.7247120605586712
87	0xbfd3a33d8f4b728b	-0.30683840745567953
88	0xbff0d2b4c94f6b0e	-1.0514419425659898
89	0xbff166cea8420bbe	-1.0875994274690437
90	0x3fde2589947fab72	0.47104110242678765
91	0x3fecbd555cc2d6fb	0.8981119930019469
92	0xbffaf355a54121ff	-1.6844078498126007
93	0xbfdba41461138df2	-0.43188962440601053
94	0xc0000dcbd206252c	-2.0067364128232352
95	0x3fff0f507aa27be9	1.9412388601701827
96	0x3ff38be19d297898	1.2216507090702518
97	0xbfefc7c79b55a8bc	-0.9931371721152327
98	0xbfe1faacdb0b5876	-0.5618500021180484
99	0xbfe5e97b5acb5545	-0.6847512029004653
100	0xbfd9a5191bedf500	-0.4007017872571197
101	0xbfd5b572c7766b3c	-0.3391997287632653
102	0x4003592c89c4d259	2.41854198104765
103	0xbfe7c452e89b2b52	-0.742715315159652
104	0x3fe514fde2c578e6	0.6588124684456289
105	0x3ff2bf3982a465bc	1.171685705491071
106	0xc001c5bd44bfd1ff	-2.2215524073637876
107	0x400295acec907ed8	2.3230837327572367
108	0xbfd7b8828dd7c5d6	-0.3706365952667431
109	0x3fede44e5bd1d374	0.9341193955757334
110	0x3fef92758bd5b39f	0.9866283160350696
111	0xbfd58bb8e3dc242b	-0.33665296794839844
112	0x3fe88a6c066bed85	0.766897213499235
113	0xbffc8de2656bcb36	-1.784639736343434
114	0xbfd61c36edd95cde	-0.3454720804924828
115	0x3fef65809a83f25c	0.9811404245261417
116	0x3fe5c4f43fbc81b4	0.6802922482348124
117	0x400010fb2229d437	2.0082914990439593
118	0xbff96a2ffbbf1190	-1.5884246667711501
119	0xbff234a57c5ec379	-1.1378531320771954
120	0x3ff454a34974c4f3	1.2706635350589834
121	0x3ffcd1d36606e3b4	1.801226995985627
122	0xbfe9c79f823ba011	-0.8056180518733546
123	0x3fe544ef13680c40	0.6646647814781161
124	0x3ff7fce95b2f359c	1.4992459833041272
125	0x3fefd752c24797a1	0.9950345797085342
126	0x3feea37b6d497a38	0.9574563154708988
127	0xbfff04ae6a57f669	-1.9386428979918497

rbf_layers.0.log_sigmas f8 [128]
0	0xbfe0cf9d0befb315	-0.5253434403544782
1	0xbfe0e6df9fccb165	-0.5281828042111952
2	0xbfdc7988906143e1	-0.4449178132973071
3	0xbfcc800a8fbbbb10	-0.22265750902393977
4	0xbfe0cd65c08b39d8	-0.5250729332563493
5	0xbfc62aafafb9f3d4	-0.1731776817358922
6	0xbfe191682db16553	-0.5489998714867091
7	0xbfd6215eb756427f	-0.34578674224852785
8	0xbfd5642c9165dbd6	-0.3342391414548137
9	0xbfdd35bf81f21c8f	-0.45640552225126724
10	0xbf599d5e463e1745	-0.0015633984230318404
11	0xbfdf5cd5849a293d	-0.49004114102776325
12	0xbf81643080e96983	-0.00849187749297609
13	0xbfce2619fd474373	-0.23553776614292196
14	0xbfd5e4bffcc0b5cc	-0.3420867889679726
15	0xbfd71b100a3a42a0	-0.36102677344119094
16	0xbfd4351590531cc1	-0.31574000448422274
17	0xbfd5496e1cb38604	-0.33260681918008594
18	0x3fc43c7654673d2f	0.15809516068700577
19	0xbfc70ce2b90c6deb	-0.18008073840688552
20	0xbfd856f78f3c0563	-0.38030804622402153
21	0xbfac9cad442f33e6	-0.05588284928635527
22	0xbfce24bbd7009bae	-0.23549602506792894
23	0xbfdd73f6e1f0963e	-0.46020290436203826
24	0xbfdcedb4773f0912	-0.4520083584321962
25	0xbfe42b7a4a28ed23	-0.63030733570432
26	0xbfdd3aec3065c4a3	-0.4567213509208818
27	0xbfbd4b03c81516b7	-0.11442588457893065
28	0xbfca0989596c8005	-0.20341603151700852
29	0xbfe1b811b41e0bb6	-0.5537193792264279
30	0xbfdfc48deb19b039	-0.4963717265989121
31	0xbfd03825b38c5728	-0.2534269574547232
32	0x3fc8ae57780d78ab	0.19282048570579965
33	0xbfa4acf89469a27d	-0.04038216411283189
34	0xbfd0f05ab39387af	-0.26467006241557106
35	0xbfa071b1f4e53b64	-0.03211742510267504
36	0xbfe575b4d08592f0	-0.6706184456530462
37	0xbfe3e3bdda3233ba	-0.621550489582311
38	0xbfe04523f6e3fbd5	-0.5084400007325437
39	0xbfe03099f1036772	-0.505932780007454
40	0xbfe5ceab810c77a1	-0.6814782639009885
41	0xbfd7bec06d24c35f	-0.37101755770259176
42	0xbfe15d46564ce47a	-0.5426360784105235
43	0x3fc36ff1c6f9285d	0.15185377326480679
44	0xbfd42dad5fe06763	-0.3152879177374556
45	0xbfd8c243ba5a3bdd	-0.3868569679115675
46	0x3fa878a934f691bc	0.04779557010195698
47	0xbfbd817ddd2ef077	-0.11525713586792273
48	0xbfd889ee4eae329e	-0.3834186333049646
49	0xbfe6a2dd28de356b	-0.7073808477595497
50	0xbfd37e873fdac2cb	-0.30459767566484847
51	0xbfc50f18d38111be	-0.16452322318413154
52	0xbfe493b8f222f23c	-0.6430325249890028
53	0xbfcf8d563fdf30ca	-0.24650076025716877
54	0xbfd3fc6636d9df9b	-0.3122802291541064
55	0xbfe31c444f2c03ac	-0.5972005411459711
56	0xbfe59964a56c08b3	-0.6749747496508206
57	0xbfd4b2d82cdce3fe	-0.3234157980073745
58	0xbfd34f06bf065e58	-0.30169838576100494
59	0xbfd2577adf068cf3	-0.2865893533691654
60	0xbfddfc26f4022cb0	-0.46851514653162507
61	0x3fc8111253b49673	0.18802098357371086
62	0xbfcfec81327e3da6	-0.24940504994854712
63	0xbfdb45461ceb22fb	-0.4261031420142413
64	0x3fc528045586a1c8	0.16528371978826173
65	0xbfc31dc19ef9a30c	-0.14934559118707857
66	0x3fd4b28b1b6582ac	0.32339742350999745
67	0xbfdc131058e62e93	-0.4386635654597992
68	0x3fcbc30d04503b23	0.21688997946372365
69	0x3f6e9aaadcc79112	0.003735860553421352
70	0xbfdaf1877fa47825	-0.42099177804073157
71	0xbfd34e663fe9df14	-0.30166012040670975
72	0x3fc3a5145cbb336c	0.15347532775777084
73	0xbfd9d7241d76df9f	-0.40375616910341167
74	0xbfcc394bc9d9a16f	-0.2204985366436278
75	0xbfdb1d1ebce72f72	-0.4236523480183144
76	0xbfe100edddf70b76	-0.5313634238485594
77	0xbfd7b243cd379abe	-0.37025542298071545
78	0x3f99307442c27f0b	0.024598900389377436
79	0x3fc7bd11e6e0a2f4	0.18545745633425492
80	0xbfc74d1e6321c1bb	-0.18204097595618215
81	0xbfb3c3a47b2f3406	-0.07720401771003091
82	0x3f9d90b49b52131f	0.02887232015611396
83	0xbfd02d98cf212bb7	-0.2527830145597209
84	0xbfd4ce35c92fa081	-0.3250860657412958
85	0x3fc9ad70e55e244c	0.2006054992637324
86	0xbfdd9e3dbb868b05	-0.4627832728676114
87	0xbfe64c25a0b33bf0	-0.6967952860521773
88	0x3fb0b67c8cfa2db9	0.06528452340915337
89	0x3fb40f67dc44c7e7	0.0783600723996468
90	0xbfe565d1cb068cc0	-0.6686791386931858
91	0xbfd6d36f29f5cb47	-0.3566549215094494
92	0x3fcb1e8a996a58de	0.21186954966532928
93	0xbfd7cede334a00f4	-0.37200121887873583
94	0x3fd12c606ba0174f	0.2683335352925171
95	0x3fbc25ac7d9a288c	0.10994985643825056
96	0xbfc3ac71b6fab6bc	-0.15370007929361929
97	0x3fa3fb8b07d8f64b	0.039028496463725824
98	0xbfca4a3bf4dbb65a	-0.20539044815034196
99	0xbfbaf46ca4c612ae	-0.10529212019725762
100	0xbfdb904a3fe56778	-0.43068176498274324
101	0xbfe21214e760b05d	-0.564707233342698
102	0x3fce387510bf5f2a	0.2360979396605612
103	0xbfb10bb43b6fdaae	-0.06658483935448586
104	0xbfe0f580fc7296ee	-0.5299687319390765
105	0xbfc7829e43699aa5	-0.18367365161539798
106	0x3fd6b04d96c1e031	0.3545106861342929
107	0x3fcae3b02b72a02c	0.21007349130127417
108	0xbfdcfa5ac8098184	-0.4527804330337164
109	0xbfd61de3c3734b5e	-0.3455743225760467
110	0xbfd0e70cb884e63b	-0.2641021539635379
111	0xbfe0e1bbb7e41c2a	-0.5275553313848651
112	0xbfd9881cadd0d4a2	-0.39893261884874154
113	0x3fd03e113fafd83d	0.25378829211638615
114	0xbfe05a653e59848d	-0.5110346048133053
115	0xbfd2f63911f24f8f	-0.296278255010514
116	0xbfdfed3cb2dae7fd	-0.4988548037177905
117	0x3fc01196a1db9157	0.12553675559241625
118	0x3fcdae83cf3e3683	0.2318882715157323
119	0x3fb7b4d3500a409b	0.09260292724707357
120	0xbfc0636be50d325b	-0.1280341022887964
121	0x3fb08e37deffdabf	0.06467007822343883
122	0xbfa8f12207e5f8d4	-0.048714698280478835
123	0xbfde11a6a3e2dcf9	-0.46982732777128394
124	0xbfa3ff9b02327b7c	-0.039059490221226206
125	0xbfd1c7920b85c40a	-0.2778058159374842
126	0xbfd34b44a17afae5	-0.30146899957246226
127	0x3fd255a4418ee86e	0.286477149984086

linear_layers.0.layer.weight f8 [100, 128]
0	0x3fd83f1199d48652	0.37884941122510896
1	0x3f644df5dd3f9c3d	0.0024785806690377486
2	0x3fa1374650baced7	0.03362483725996206
3	0xbfc8797b00b517c6	-0.19120729002514575
4	0x3fdedf9840f16134	0.48239713995055244
5	0x3fdc7b798e4293fc	0.44503630535683647
6	0x3fdbcda6c530738f	0.4344269681621932
7	0x3fd9584db2dc805a	0.3960146185581884
8	0xbfc735d6c8e9ec0e	-0.18133053598634813
9	0x3fdc26193b4c7abd	0.43982535162824005
10	0x3fd7e880d3ff5eb7	0.3735658712662188
11	0x3fbca95af7f25a8c	0.11195915749918067
12	0x3fd598195015a603	0.33740837879904023
13	0x3fd8dcd17ac476ac	0.3884776781941166
14	0xbfb940d65599754c	-0.09864558782415606
15	0xbfb4c1f950188936	-0.08108480649437841
16	0xbfbb098b24ce2e96	-0.10561437271661087
17	0xbf45e5c853a0019e	-0.0006682613523026242
18	0x3fe0473175ceee12	0.508690576643348
19	0x3fdb075af37c8b69	0.4223239305303453
20	0xbfb7f25d76ae8c0a	-0.09354194781785466
21	0x3fd631e6b4c1b5a6	0.3467957272722181
22	0xbfba969e16a5df0b	-0.1038607411663827
23	0x3fdbc9098b20aa2e	0.4341453417461335
24	0xbf838de7096adba5	-0.009548001265427273
25	0x3fe0e1efa9758566	0.5275801000354192
26	0x3fa7815c67294a5f	0.04590882071774582
27	0xbfcb7dc0a01e68ab	-0.2147751600103381
28	0x3fdc463fabc52be7	0.4417876412814494
29	0x3fba7dc13efef3cd	0.10348136699663187
30	0x3fdfab2c80bb4451	0.4948226220267929
31	0xbfccb597b14a744a	-0.22429176480082652
32	0x3fda7c8164e30069	0.4138492093297886
33	0x3fd5539d944bbd53	0.33322848779694886
34	0xbfca855dc0f4ea2f	-0.20719501420701777
35	0xbfcebc5d919d46ce	-0.24012345895839932
36	0x3fe0f62412e32647	0.5300464981930383
37	0x3fde4bad92b0c90d	0.47336901974917184
38	0x3fdb83e179cce1fa	0.4299243630844384
39	0xbfa6b283f498a5b6	-0.04433071480554977
40	0x3fe1e0bb72cb647a	0.5586831323700061
41	0xbfb7a0fc81b65681	-0.09230020682147179
42	0x3fd9fb48172bca01	0.40596201193616827
43	0xbfd612ec2e779eab	-0.3449049428731807
44	0x3fdb9ad085bd86af	0.4313241296823475
45	0xbf99e10b3d974ad7	-0.02527253688260597
46	0x3fdbb9653981e809	0.4331906377407227
47	0x3fd55857cf37f746	0.3335170291537576
48	0xbfa647bf202bac10	-0.04351613300044488
49	0x3fe13ccaedd6d375	0.5386709828659223
50	0x3fd37a7cb661b916	0.30435102282253135
51	0xbfcaea9deefd75a1	-0.21028494042813597
52	0x3fde4a11e40ab47b	0.4732708670588363
53	0xbfcd373d3feb84fb	-0.2282482683286061
54	0xbfc10e1485df33cf	-0.133242192618495
55	0x3fdc35947de373c3	0.4407702664737451
56	0x3fdadc012f51d9a1	0.4196780168635091
57	0x3fda18c9dccf8c84	0.4077629715304243
58	0x3fddbb64957aae34	0.46456255529003276
59	0x3fd93a6a2f93b4ac	0.39419035574139616
60	0x3fb5533ddae6186f	0.0833014163418697
61	0x3fdb4e1e981dff93	0.4266430364150377
62	0xbfc19e0ec2f4d734	-0.13763603705745597
63	0x3fd9f75b886ee3c5	0.40572250674773286
64	0xbfdc6d2d8dbf71ee	-0.4441636928802656
65	0x3fda9f01a08fe992	0.41595497779749124
66	0x3fdd387216d91b94	0.45657016974694753
67	0xbfb9c202d0303d0c	-0.10061662276006106
68	0x3fe004305af8d5b0	0.500511338882168
69	0x3fd657b0368bd24d	0.3491020710637585
70	0x3fd821bcc3b4ca85	0.3770591651147373
71	0x3fd93c69dd8f330d	0.3943123496690511
72	0x3fd95d57f9fd3e71	0.3963222447682489
73	0xbfa1ace4b00d2cc4	-0.03452219628396727
74	0xbfc4b17b600732ff	-0.1616663187873186
75	0xbf6e35f8b1204dbd	-0.003687844969144398
76	0x3fdba5ad9ddc1de9	0.43198719421385917
77	0xbfa0a4fca610cc0c	-0.03250875022094854
78	0x3fd642ce9bdda9e0	0.3478275797012014
79	0x3fd8051db56c417c	0.37531225888326225
80	0xbfc677dacd9e9b93	-0.17553267517106672
81	0x3fd40bdabbfac46f	0.3132235370386018
82	0x3fd50106b40eead6	0.32818763336005696
83	0xbfc9ba040d107a1e	-0.20098925245197646
84	0x3f6f04bdb7c0c979	0.0037864404130455967
85	0x3fe1caa6f236d787	0.5559878092524152
86	0x3fac69a3a93db549	0.05549346390658145
87	0x3fe06bc147f3f971	0.513153687031986
88	0x3fdf4950055f0e22	0.4888496448949998
89	0x3fd6c68b9837a41a	0.3558682428834473
90	0x3fc601b98442ed6f	0.1719276328857222
91	0xbfabfa4cf1f24fbb	-0.054644016775597014
92	0x3fe144643e548964	0.5395985810649049
93	0x3fd88b0d58cc11f6	0.3834870688590678
94	0x3fdc24968134a6f3	0.43973314874402475
95	0xbfd739a6b2141c7a	-0.3628937472389634
96	0xbfcc492335ed46fa	-0.2209819806399123
97	0x3fda46d39234c3bb	0.4105729034227427
98	0x3fdbc0238250750a	0.4336022160149048
99	0x3fdc441ffe4e053b	0.4416580184407228
100	0x3fd8fccde5be89f1	0.39042994914976165
101	0x3fd99372e0cb85ad	0.39962455704343364
102	0xbfdca32986659975	-0.4474586307973348
103	0x3fdd364459655c8e	0.4564371941573392
104	0x3fa98ef7331201cf	0.04991886614243734
105	0xbfbac02c5a94a6b9	-0.10449483119432558
106	0x3fe284a0c5b34ba4	0.5786899434409531
107	0xbfdec63c186154ee	-0.48084928875807875
108	0x3fdd60e7e06a4dec	0.45903965869476226
109	0xbfc4ea391fe05782	-0.1633979230543297
110	0xbfbf82ac225cbd43	-0.12308765257761416
111	0x3fd6ac0a5c0c7c53	0.3542505167878904
112	0xbfa0ad85741e5bc9	-0.03257386248076661
113	0x3fe1f14b94dc6367	0.5607049853743832
114	0x3fdace0070cf4a6b	0.4188233472497475
115	0xbfc8354b960eb59e	-0.18912644221329072
116	0xbfae6fd73ed92cbc	-0.0594470276087917
117	0xbfd63a793354c37e	-0.3473189355163909
118	0x3fde468391afe800	0.47305382945307883
119	0x3fdafd49318011a8	0.42170934518824277
120	0xbfcbe966e729e659	-0.21806036269463183
121	0xbfd9e7819433f63b	-0.4047550151152312
122	0x3fd87d7217364a65	0.38265659586719486
123	0x3fbbc1dc0fa265eb	0.10842681295107297
124	0xbfd06fe3cd04a5fc	-0.25682921429924455
125	0xbfc76da6ef215436	-0.1830338161113631
126	0xbfc542c3262ecc7e	-0.16609992374796784
127	0x3fde5da56c42fa27	0.4744657094233013
128	0xbfb93d4ba14f606a	-0.0985915440390969
129	0xbfaf016f8895f37f	-0.060557828352989944
130	0xbfadf05ca09c9434	-0.05847444019881501
131	0x3fbe18952ec9b917	0.11756260292324715
132	0xbfbf2c2751760d62	-0.1217674802665463
133	0xbfbaff568d357325	-0.10545865008812123
134	0xbfba3c44ddaa83f0	-0.10248213207024981
135	0xbfa2c3db68881675	-0.03665052081127566
136	0xbfac9004397a7b61	-0.05578625871316124
137	0xbfb03c278412894e	-0.06341788267539991
138	0x3f49b2b32a5e667d	0.0007842421371037769
139	0xbfa3688afe04aa1c	-0.03790697432335241
140	0xbf8145cb9bd1edb8	-0.008433905308485076
141	0xbfb657744745c0b1	-0.08727194538164686
142	0x3fad35be675a2736	0.057050657383184974
143	0xbfa5ad6a98e97a77	-0.04233868710138194
144	0xbf73a8f0bc646a3a	-0.004799785971295873
145	0x3fa02ff74b137db3	0.031615951456611134
146	0xbfbac44e276039da	-0.1045578809864546
147	0xbfba3f1fa7518ebb	-0.10252569041181918
148	0x3fa6843bccf7a51c	0.043977612276487416
149	0xbf9fd08e1463acf0	-0.031069011682956338
150	0x3fbdf15efe9d4f1c	0.1169642802827266
151	0xbf7f8ed3576c645a	-0.00770456843636066
152	0x3fadbab7751feb7b	0.05806515984291757
153	0xbf9fb6a1fc7ee13c	-0.03097012618647564
154	0x3fb168317cc72f53	0.06799611374225138
155	0xbf9a39d3de482693	-0.025611219827658415
156	0xbfb59791a92df9b1	-0.08434400921212305
157	0x3f917ee62175f54d	0.017085643570216736
158	0xbfb3d744e114371a	-0.0775034951695627
159	0xbf88d3a534587bb9	-0.0121224314307805
160	0xbfb367ed211872b1	-0.07580453927989585
161	0xbfb06e70170f9f51	-0.06418514788640307
162	0x3fabfff9ca22c8a0	0.05468731491545609
163	0x3fc21b49b2868efd	0.14145776001998192
164	0xbfb612212bf7e5d9	-0.08621413539358204
165	0xbfad51819cf4f2b4	-0.05726246872879895
166	0xbfab30ebf850317b	-0.053107618390728605
167	0x3fae3f7d00204ea4	0.05907812716045882
168	0xbfb51d541c878947	-0.08247876831550115
169	0x3fad3ba1c79614b5	0.0570955806861461
170	0xbfc278242b6251fa	-0.14429142111170262
171	0x3fb1893667b14365	0.06849994689515666
172	0xbfb2adca3ff059c5	-0.07296432553298533
173	0x3fb2d202ce7b746e	0.07351701298780863
174	0xbfbb51c1a5b44197	-0.10671625419150242
175	0xbfc3c7715009f5d2	-0.15452400596761479
176	0x3fb212bcc56b6e00	0.0705984098416863
177	0xbf9710f4ebe2baad	-0.022525622269933866
178	0xbfb6f14303a5da0a	-0.08961886252459564
179	0xbfa62b3559b5daf0	-0.04329840393159212
180	0x3f76a1af8eca2464	0.0055252893186060505
181	0x3fba4d2bab90e088	0.10274002970334284
182	0xbf868d023b9a44df	-0.011011140293052111
183	0xbfbcdfac925725c6	-0.11278799603237308
184	0xbf978f9f15f90107	-0.023008809772592034
185	0xbf8d063e52beeb95	-0.0141720646860131
186	0xbf6a0ad971368c13	-0.0031790015143129484
187	0x3f3c64017cd8ac8a	0.00043320690460530635
188	0xbfafb09522a6938f	-0.061894093017406886
189	0xbfb0c7bec369000a	-0.06554786940341742
190	0x3fbb8143574511dd	0.10744114761934705
191	0xbfb71e33f8014dc7	-0.09030461125194399
192	0x3f044efdc2422374	3.873550329653352e-05
193	0xbfaacb217edf48f4	-0.052331015336351344
194	0xbf821401f6a23018	-0.008827224101217765
195	0xbfb049a57514669d	-0.0636237536276902
196	0xbfc305cc1ea4f0ac	-0.14861442085555632
197	0xbfc4030144dbcf44	-0.15634170400846348
198	0x3f8b698e165e24dc	0.013384923989877277
199	0xbfb9fcdb0d764183	-0.1015145213953073
200	0xbfc178072dc9d1c5	-0.13647546516189216
201	0x3fb310719d187d3f	0.07446966252654351
202	0x3f987d495f62c68b	0.023915430495157024
203	0x3fa67981f7ea54f7	0.04389578009901556
204	0xbfb514d60e378f4e	-0.08234918448539227
205	0xbf990683d898c239	-0.024438915343298204
206	0xbfba110ad20ace24	-0.10182254436477273
207	0xbfb58a169a54f3f5	-0.08413831012599345
208	0x3faca9a9f66345fe	0.05598193295157826
209	0xbfb34c5182b7b356	-0.07538327638003514
210	0xbfc35933933de14c	-0.1511597126916605
211	0x3fa924c280907893	0.04910857982052721
212	0xbfa0b0fcd7f3b60b	-0.03260030876286287
213	0xbfc14ffacd3975b3	-0.1352532865593453
214	0x3fb65254419eab83	0.08719374277158747
215	0xbfc1fa3a805f89b6	-0.1404488684484712
216	0xbfb662d96f9e7417	-0.0874458215243553
217	0xbfc067937cb45a87	-0.12816089238249992
218	0xbf8168371bf1d292	-0.008499556103040793
219	0xbf9cb7d2ac350bcd	-0.028044978867239046
220	0xbfc5bbb8eeb006e1	-0.16979133276622974
221	0x3f902fcaf9183fb5	0.01580731530526665
222	0xbfc1246958d6d630	-0.13392369115688174
223	0x3fa1b5d1731573bf	0.03459028749305259
224	0x3fb26e809aed8a89	0.07199863226336779
225	0x3f6bead9cb1de88b	0.003407884004386357
226	0xbfbb65cfde218d47	-0.10702227757569914
227	0xbfc2f1caca9ab3b4	-0.14800391094959553
228	0x3f707fa31d8fc0e3	0.004027974290679223
229	0xbfa7eff3e46d2857	-0.046752568849641456
230	0x3fb8a926fd4bacea	0.09633105930304323
231	0xbfbf094e6bef11d6	-0.12123575339416645
232	0x3fab9b9d5b78df97	0.05392162076571976
233	0x3fb595f9a3f0fb3c	0.08431968929742778
234	0xbfb4fc656ebd1087	-0.08197626069619633
235	0x3fc2e29a680179aa	0.14754037931829816
236	0x3f8e4ea09ecc4218	0.014798407407881561
237	0x3fb9adc8e4c53746	0.10030799470152116
238	0xbfa33368fb3192cc	-0.03750160280541123
239	0xbfb115ef03be0f4a	-0.06674093095176406
240	0xbf354ce909b5650b	-0.0003250187816852968
241	0xbf9d2d2783eec23c	-0.028492562701730714
242	0x3f67b46ed2be85f2	0.0028936543003090726
243	0x3f990db8f3695ea1	0.024466409546532678
244	0xbf9a75b4044b99f3	-0.02583962703911342
245	0x3fc04c7e23f202eb	0.12733437304634462
246	0xbfc4e8b79697a6d0	-0.16335196355003356
247	0xbfc30f6af18a1584	-0.14890801233211104
248	0x3f91e8c7f746ac82	0.017489551990064196
249	0x3f9a1dba057e97d9	0.025504023156507436
250	0xbfc26cccd9336328	-0.1439453182745407
251	0xbf984036b524adeb	-0.023682455831631016
252	0xbf8958546d709f6d	-0.012375506963578886
253	0xbf8ae2e61382bee1	-0.013128087492389752
254	0xbfacadb4a6ecbbb0	-0.05601276910453323
255	0xbfc10e58aab43d31	-0.1332503160015022

linear_layers.0.layer.bias f8 [100]
0	0x3fb421a0d675064e	0.07863812671441758
1	0x3f67bcef7c7dc1eb	0.0028977086512258408
2	0x3f9d470552b764cd	0.02859123532639245
3	0xbf8598a062d0a131	-0.010545018210976838
4	0x3f7e9f9e28821eab	0.007476442151648814
5	0x3fa826b34605fab8	0.04717025975968653
6	0xbfc32367af78b4bd	-0.14951797550148696
7	0x3f7e51e30c273266	0.007402312187377724
8	0x3f9c19de0b6098b7	0.02744242615167344
9	0x3f8f6a46865ba45e	0.015339423156051687
10	0x3f9848e7768b10f4	0.023715607271484765
11	0xbfb363cba50e1601	-0.0757415082899442
12	0x3fc17f049fedf4ee	0.1366887837320187
13	0xbf8fd370a4c6961a	-0.01554000857215514
14	0xbf91ebdeb16dd51b	-0.017501334742935897
15	0xbfb3997826841459	-0.0765605062516256
16	0x3fb1cd166411c36a	0.06953563635921758
17	0xbf9b3dda5a60b0b9	-0.0266031377470177
18	0x3fa1d51df9356194	0.03482907931419557
19	0xbfa51d985cb2c45c	-0.04124141818591262
20	0xbfc99e64145d35d6	-0.20014620775547937
21	0xbf70d24197a41d86	-0.004106765956982788
22	0x3fbb122998f1a972	0.10574588760360884
23	0xbf97039b37b251b1	-0.022474694513748342
24	0xbfb3171190b2ffca	-0.07457074911781017
25	0xbfab8be1b41a64b2	-0.05380158732914121
26	0xbfa13ce61094a98b	-0.033667745136273096
27	0xbf79992e36695351	-0.006249599950554367
28	0x3f8d62626a625fbd	0.014347809669103978
29	0x3fa2ba949c7348e0	0.03657974633974148
30	0xbf993acd23f6af26	-0.024638371772808608
31	0x3fc5d97149a952be	0.17069831940411534
32	0x3f9d048a8731fd0b	0.02833763551870753
33	0x3f8e97e481d7daab	0.014938149654864693
34	0x3fa44d258183d55d	0.03965108114236202
35	0x3f671605ed765cde	0.0028181186459722415
36	0x3fa681f1f1b1885b	0.04396015239105174
37	0xbfb3414920b666f9	-0.07521493004460557
38	0xbf8f438c48f44de0	-0.015265556312931972
39	0xbf99110bdc43e723	-0.024479089087413485
40	0x3fad0157aa73978b	0.05665086703974883
41	0x3fc001f4ac875328	0.12505968498467124
42	0xbfb8cf05f1dbbcbc	-0.09690892367119636
43	0xbfaece9c9e283e2e	-0.060170072847651176
44	0x3fc4f57fe8a7d4a7	0.16374205455909882
45	0x3fb6cf2e16d94c7c	0.0890988164695034
46	0xbfb6365a5331adb1	-0.08676685839753052
47	0xbfb55816bb096c5a	-0.08337537828758582
48	0x3fbfacb802260dae	0.12372922947365936
49	0xbfaacddea8ccb103	-0.05235191164533328
50	0xbfb69dad8fb86916	-0.08834347494886105
51	0x3fbd7e60fcc2fb66	0.11520963831843076
52	0xbf8149cce8a29717	-0.008441544389210116
53	0xbfa992b1979a54a5	-0.04994730926152017
54	0xbf962869b6c8d69d	-0.02163853815200999
55	0x3fbe4bccddbb1db0	0.11834412015297491
56	0x3fb0ea290cc17368	0.066073003400971
57	0x3fbdeab08e7a8a53	0.11686233023150665
58	0xbf4725abc7aab123	-0.000706395031860239
59	0x3f994b794536d589	0.02470197186422277
60	0x3fb543b1896ecf77	0.0830641708878924
61	0x3fa87f53ae5222e3	0.04784642699184418
62	0xbf96c04f32b83c44	-0.022217977019007643
63	0xbfbb044a0caf2d1e	-0.10553419885325296
64	0xbfac90eee72f914b	-0.05579325267879883
65	0x3fbff097d321c088	0.12476490883432423
66	0xbfb975f54881f00d	-0.09945614834026646
67	0xbf87758a67f3d490	-0.011454659745576273
68	0x3fb58965f55707af	0.08412778129334585
69	0xbfbec3687ded0071	-0.12016919206962641
70	0xbfab18ee58bbd8d5	-0.05292458375144952
71	0xbfc0e9805ab9b1cb	-0.1321258967394797
72	0xbfa9073c6a1eac00	-0.04888333125503408
73	0xbfbfa33379771f3b	-0.12358400073491975
74	0xbfb328d40b48ce2d	-0.07484174037454557
75	0x3fa20b4299cffe2c	0.03524215819924978
76	0xbfb02e5c4396565f	-0.06320740366057852
77	0xbfb567d046897341	-0.08361531946270608
78	0x3fabed08786fb8bd	0.05454279394312909
79	0xbfb45d5e4e4b8bd1	-0.07954968844892042
80	0xbfbfa08f1f9d32c2	-0.12354368707492383
81	0xbf4bb69ec20df203	-0.0008457446275396688
82	0x3fbdd037539434c3	0.11645837584019873
83	0x3f7183f0567e057e	0.0042762172887490495
84	0xbfb78aa2ac1ae2c9	-0.09195915891440189
85	0x3fa01cf08496c2e9	0.03147079103962886
86	0x3f9c29d8c6b3fa2d	0.027503382804747446
87	0xbf94efb3f3578473	-0.020445644118698824
88	0xbfa7c73e680619b4	-0.0464419843656744
89	0xbfaad37b4219a85e	-0.05239472562682644
90	0xbf9f35532795781a	-0.03047685555554134
91	0x3f8e0419e0ca4792	0.01465625970130072
92	0xbfaadaaf874bb010	-0.052449689164717594
93	0xbfb35464a239e85e	-0.07550648651695854
94	0xbfbe2cfbe78430a7	-0.11787390138869346
95	0xbfaca719ee398303	-0.05596238167777836
96	0xbfa0590ce3eed8dd	-0.03192940027604305
97	0xbfbc17c86a0ea83b	-0.1097378977707714
98	0xbfb027d7feec1610	-0.06310796712576683
99	0xbfbe73b568fdfa77	-0.11895307362827078

linear_layers.1.layer.weight f8 [100, 100]
0	0xbf763f4f0f487144	-0.005431469752263777
1	0xbf8498fc6045fecb	-0.010057422340423191
2	0x3f8868907e7d1803	0.011918190822722613
3	0x3fc2d78ae89d24ec	0.14720283849809535
4	0x3fa54154f3b9d00f	0.04151406741303287
5	0xbfa40222c3ba1c09	-0.039078794853644246
6	0x3f9f3984dc8d7070	0.030492855035263167
7	0x3fc3d0f2e32788d1	0.15481411067509623
8	0x3fd24642ba8ee372	0.28553837030954476
9	0xbfc44f3e1c09b833	-0.1586682927040229
10	0xbfcd58e4dddb38b3	-0.22927532990292362
11	0x3fd50aa2e184529a	0.3287741854012808
12	0xbfc109d2283b47fc	-0.133112210888214
13	0xbfd2ff28891e847d	-0.2968236292891289
14	0x3fb4ce3c4967b56f	0.08127190391652105
15	0x3fb7f1d26c7801f2	0.09353366039432112
16	0xbfc8edbddd84e370	-0.19475529972421723
17	0xbfc5d66d542582c1	-0.17060629471509084
18	0xbf9817ea81ca7006	-0.023528732463645972
19	0xbfc23c3eead137a5	-0.14246355500875754
20	0x3fb1d1eef2fa2f59	0.0696095793920767
21	0x3fb0b9f4cc75ae1f	0.06533746711436848
22	0xbfd3c30b1e6c50b4	-0.3087795064068459
23	0x3fcdad38f11ae2d9	0.23184882900911566
24	0x3fa8c023b754a5a0	0.04834090817378045
25	0x3fc69e813992d74e	0.1767121821518977
26	0xbfc2e17660cc7b1c	-0.14750556684972416
27	0x3fca9e7dabc859d0	0.20796175849746001
28	0x3fcc2963cfc8e0d3	0.22001311918007235
29	0x3fb51cb3930255ca	0.08246919955339319
30	0xbfb3071ea6114156	-0.07432738832836114
31	0xbfafd2a9ca754ae1	-0.06215410801327948
32	0x3fc24b70828d6135	0.14292723059294024
33	0xbfb0664d174b1608	-0.06406099146541788
34	0xbfe1f214b7ccee46	-0.5608008947232939
35	0xbfc34ad6cfce4418	-0.150721408336296
36	0x3fc95ad8d8a5b088	0.1980849321220186
37	0x3fd62ba3be3c2661	0.34641355111725686
38	0x3f992a3b35fd80d1	0.024575162096312667
39	0x3fa07fffaf43e003	0.03222655310122493
40	0x3fd0a4622bb20197	0.2600331713402055
41	0x3fa48de2d88599b5	0.04014500516022982
42	0x3fb9f9beafd60174	0.10146705429906949
43	0x3fe57362f0dba124	0.6703352646118543
44	0xbf94cfe79f61946b	-0.020324343779425307
45	0xbfb6f7d40bf3c27c	-0.08971905986596512
46	0xbfa1b7b0f370ed5c	-0.03460457774823553
47	0xbf9096010668d8db	-0.016197219864090378
48	0xbfcc4701f3960439	-0.22091698068473578
49	0xbf9c4c8f47d6b970	-0.027635802039804813
50	0x3feb62f602742549	0.8558301971362791
51	0xbfc111f335818401	-0.13336029160112164
52	0x3fd3a9a02cffe5f2	0.30722813028805185
53	0x3fcac5addd85852b	0.2091576892517336
54	0x3fc0a14fc3a0d8af	0.12992283870852847
55	0xbfbccfd46eeb8636	-0.11254623134620875
56	0xbfd30020ceaf4257	-0.29688282188457066
57	0xbf587ed8d9c063e8	-0.001495086448818345
58	0x3f69a6c09fd4434e	0.0031312715715405065
59	0xbf626514c35662c1	-0.002245464852148466
60	0x3fac293c92f907fa	0.05500211042500776
61	0xbfd0a890755cbbf6	-0.260288347827497
62	0xbfa3156e66b8b4d8	-0.03727288249897648
63	0x3fadb32d91e7bf44	0.058007644711209255
64	0x3fbeaa4604deb9eb	0.11978566759965019
65	0xbfc69038552995f6	-0.17627624662706837
66	0xbf7020edc9df3049	-0.0039376534095475
67	0x3fd090d8322d5e09	0.25884060764426003
68	0xbf8517b6747966c8	-0.010299134664069412
69	0xbfb15c824c76cad5	-0.0678178250007407
70	0xbfc8633940fab0a7	-0.19052806542220432
71	0x3fc002126948ee50	0.12506322995055763
72	0xbfb90be9dd20a7a9	-0.09783803604719189
73	0x3fbf87ce3e211e88	0.12316597954588293
74	0x3fdda6c9dc8206ad	0.46330496343589794
75	0xbfd00222cf043189	-0.25013036934321825
76	0xbfc6f5bdfe6e604b	-0.1793744556750901
77	0x3fcd0d0d28fb6c6f	0.22696079732017746
78	0x3fc8278c78f86559	0.18870693117859608
79	0x3fd055a9a24c6922	0.25522843217335567
80	0x3fcd5c21c27b1a2f	0.22937414165626666
81	0x3fc1050502757254	0.13296568508202944
82	0x3fa33656acbd4257	0.03752394541391329
83	0xbfb3f06e5744932d	-0.0778874362045598
84	0x3fdd643d84f39aca	0.4592431829791336
85	0xbfd438f20a98c50f	-0.3159756759151415
86	0x3fcafebea8f142d4	0.2108991932787122
87	0xbfd81a690b36691c	-0.37661195845579853
88	0x3fcef7ea94638fee	0.24194080586960304
89	0xbfa11e860bf1f30c	-0.03343600173773184
90	0xbfa677907008404d	-0.04388095252591082
91	0x3fd407a0c4358ca7	0.31296557580044254
92	0xbfce9da1cc9ecd8c	-0.2391855477450061
93	0xbfc0d1301ed7bd87	-0.13138391023629145
94	0x3fb1734a968ab6f0	0.06816545653665762
95	0x3fa51adf7f867910	0.04122065002160202
96	0xbfc0f949cb008e70	-0.1326076737615156
97	0x3fe3c3ecaa1d4915	0.6176665613695912
98	0xbf8f96541cae6897	-0.015423447728427226
99	0x3fb0120ea0fee4cd	0.06277553015287936
100	0x3fa9c15997e23ec2	0.05030326823282173
101	0x3fa7a813b7038b88	0.04620420083099136
102	0xbfd2e4aae3303529	-0.29520675836905014
103	0xbfbe4ac1c5614431	-0.1183282000431667
104	0x3fcfa725bc4626fa	0.2472884339625166
105	0x3faf19a85618d484	0.0607426266764515
106	0xbf6e5fad88108227	-0.0037077321326395465
107	0x3fb14ded53254c97	0.0675953224174911
108	0x3fbab029d4cb1d8e	0.10425054021026467
109	0xbfc71fbf4de7721b	-0.18065635017309564
110	0x3fc28590a36c12bd	0.14470108012769414
111	0xbfbb481feed4a54e	-0.10656928616358138
112	0x3ff108a4da7bbe17	1.0646103415018666
113	0xbfa5b623a4ea1dd1	-0.042405237084547694
114	0x3f62020b461cc6c1	0.0021982402985479548
115	0x3fa1b07ee9550caa	0.034549680693566856
116	0xbfcbca6496b8ae2d	-0.21711404189532982
117	0xbf8b85141779b880	-0.013437420813002143
118	0x3fdac9e77830d4fb	0.41857325303438103
119	0x3f9247a98eadc223	0.01785149510709706
120	0x3fa286b6a54d29f5	0.03618403213348024
121	0x3fd0c8cbf9e347c1	0.26225566294771957
122	0xbfc0c74b8f9135ba	-0.1310820055972906
123	0x3fb88bb5b55303bb	0.09588180233823966
124	0xbfc8b587c29f6cd7	-0.19303986552299676
125	0xbfb63e5f5d529850	-0.08688922909149821
126	0xbfd9a34d68db7494	-0.4005921863552626
127	0x3f6f813b94edde31	0.003845802660574348
128	0x3f918d6def0884e7	0.017141072954591243
129	0x3fd4ab1e32fb0a75	0.32294421175553306
130	0xbfd5c18f901d3840	-0.339939013229813
131	0x3fa78129d18b6a79	0.04590731318395042
132	0x3fe0f6fcc3c4bf3a	0.530149824486194
133	0xbfd4d408bdcec317	-0.32544153724579544
134	0x3fa647585f5dd011	0.043513070718205545
135	0xbf8f945affd6924c	-0.015419684345780692
136	0x3fd546120ce04101	0.33240176446362574
137	0xbfc0598bd44ee7a5	-0.12773273340809257
138	0xbfae10d1fd5938e2	-0.05872207849152901
139	0xbfb064691fe84461	-0.06403214482294707
140	0xbfad5cfbe3251e1e	-0.05735003612295152
141	0x3fd954ac767b1e8c	0.39579307146457476
142	0xbfc2f9a25dae6d87	-0.14824323248181434
143	0xbf85066cdfe72121	-0.010266161520931906
144	0x3fa7f9e9f7dd0d22	0.04682856703450457
145	0x3fd8ba09e0ec17cb	0.38635489430486974
146	0xbfe1e3dbb838c051	-0.5590647314147735
147	0xbf9350b3d5cf8a83	-0.018862543034524847
148	0x3f9ae5177243ba1e	0.02626454005160827
149	0xbfc746f01eec666a	-0.18185235509809
150	0x3f973f4bb3b49fb5	0.022702391475064327
151	0x3ff7f0d1785cb988	1.4962935163162872
152	0x3f79714e4387d1ea	0.006211572378095978
153	0xbfb9531b21139ebe	-0.09892434651885204
154	0xbfb128ac557ada13	-0.06702687346373919
155	0x3f91255b37613f29	0.01674406552802946
156	0xbfc32d316a0f0d01	-0.14981668165828668
157	0x3fd289d932b981e6	0.2896636004789158
158	0x3fe3692197de7e9c	0.6065834013169993
159	0x3fc10b2c86eb997d	0.13315350139528084
160	0xbf98e40451907d34	-0.02430731532888082
161	0xbf9053f93fafea5c	-0.015945333969265327
162	0x3fbc0efa7d00796e	0.10960355331233071
163	0xbfbef6e97fab4a28	-0.12095507971688646
164	0x3fa5f112c2d75832	0.04285486820633401
165	0xbf54cf80a7218d29	-0.0012701755881828292
166	0xbf92fc13a112581b	-0.01853972120860457
167	0xbfc419827888cc5e	-0.15702849278895575
168	0x3ff4aa17d6e582ef	1.2915266413112325
169	0xbfb038fa2fef356e	-0.06336940450929315
170	0x3fa3ce919c75adf2	0.03868536982448835
171	0xbfd306593d86c45d	-0.29726248749199674
172	0x3fc72c2c6058fd92	0.1810355635115966
173	0xbfb244902091948e	-0.07135868830808276
174	0xbfc13a65232316fb	-0.1345945760314676
175	0x3f936299d29c859c	0.018930819968891663
176	0xbfc6b1775453533d	-0.17729083650069724
177	0xbf9280dc21238776	-0.01806968643439385
178	0xbfb11106f49f2681	-0.06666606399735465
179	0x3fc636bb008278af	0.17354524159322213
180	0x3fc9c1b02a4c3e1e	0.20122339310954457
181	0x3fd8992a50781825	0.3843484674292788
182	0x3fe7641814de6779	0.7309685142129033
183	0xbfbcfe1d74ef694e	-0.1132524881826715
184	0x3f9bf7ba2e629f96	0.027312192040568194
185	0x3fca0f3285c62cea	0.2035887864297828
186	0xbfa7f654f9a53c90	-0.046801238512324095
187	0x3fb2118c0f430614	0.07058024761774845
188	0xbfd8511dae08782b	-0.37995092387598345
189	0x3fbbfef6bc429374	0.10935918899720126
190	0x3fcb4a74111a8f5b	0.2132096370233921
191	0x3fc1f0ee430e877d	0.1401651217866479
192	0xbfa97190746bb5fd	-0.04969455166961365
193	0x3fbe363a36ded741	0.11801494445429929
194	0xbfd2f9d6383f468e	-0.2964988278664372
195	0x3fd2db80aadb445f	0.29464737591940166
196	0xbfd4fd35437cee23	-0.3279545935690484
197	0x3f9e2a5df3124cf3	0.02945849224176995
198	0x3fb59978737b6cea	0.08437302417171436
199	0xbfa8f00aa2bbf463	-0.048706371655477886
200	0x3fa6421226b2f3e2	0.04347283098602596
201	0x3f9747425dd279d7	0.02273276994366732
202	0xbfca57b2ad106904	-0.20580132913966775
203	0xbface796e96a26ad	-0.05645438765811881
204	0x3fbf1a03dd68a75c	0.1214907088803136
205	0x3f975820d6a9918c	0.02279712019152806
206	0xbfa4a3293597959c	-0.04030731944275631
207	0x3fc2ef5328ef6a67	0.1479286146048537
208	0x3f8773c6576361c1	0.011451291601063287
209	0xbfad7992b51c1590	-0.05756815396129433
210	0xbfcba1b58275b51d	-0.2158724677096097
211	0xbfad07379f402974	-0.05669568842866371
212	0x3fba6c7b2144ae9e	0.10321778833593462
213	0x3f9819efabe43b29	0.023536438814569714
214	0x3f866438c11eba5f	0.010933345216327326
215	0x3fc260e1f92e04f9	0.1435816256235183
216	0xbfba6f013e146680	-0.10325629964463623
217	0xbfb192d3dbba7a31	-0.0686466609426837
218	0x3fc147f445fa96bd	0.13500836769997263
219	0xbfc99e430fe6f86d	-0.20014227177120195
220	0x3f9b350fb4519166	0.026569600468421405
221	0x3fcfde27f04ca3e8	0.24896716340415925
222	0xbfb8ff2703cb8277	-0.0976433166756666
223	0x3fcd919e1efb1e64	0.23100639832249492
224	0xbfc6e85abd30ba65	-0.17896589505967878
225	0x3fd0476bb33014c4	0.2543591737633728
226	0xbfc66c41d1fc45eb	-0.17517874482341197
227	0x3fc6cbef74072887	0.17809861340930785
228	0xbfa6ac5128d7f9b5	-0.044283424602315526
229	0x3fc48b632252224c	0.16050376106092512
230	0xbfd022dd65020ed3	-0.2521279798895481
231	0xbfaa76d0d28e64a4	-0.05168774194971462
232	0x3fc4f54539bd45cc	0.16373505896858231
233	0xbfa081bfb9b23dfa	-0.03223990575599696
234	0xbfb48f502ebeaae7	-0.0803117860911403
235	0xbf3d9ba447977716	-0.000451781852090481
236	0x3fd19e8e988f8bd1	0.27530255220898164
237	0x3fa0b659f79e3226	0.03264123103790366
238	0xbfb25d4bad29d9d2	-0.07173607804893514
239	0x3fc93e81076db9bf	0.1972199713013207
240	0x3fc33814bd0879cc	0.15014895658619165
241	0x3fa5741219f0ec72	0.0419011742273704
242	0x3f352ab100342112	0.0003229791766021932
243	0x3fc706933b2a4322	0.17988815678520448
244	0x3fa70b67ac2c2e25	0.04500888802257589
245	0x3fba71e25a9472b2	0.10330023490355236
246	0xbfc505a236a2e043	-0.1642344252375115
247	0x3fecde72c883febb	0.9021543423004553
248	0xbfa360d090f96f73	-0.03784801263529305
249	0xbfd1d5ff6cbd92f9	-0.27868638629142556
250	0xbfa98f51de7801bf	-0.04992156830485638
251	0x3fd0804a7a92cbdd	0.2578302571302496
252	0x3fb51d0f491520e8	0.08247466596833741
253	0x3fc530970c60b2bc	0.16554535011655058
254	0xbf99c86492ac05af	-0.0251785006066762
255	0xbf6584dba6b4ccd1	-0.002626828199618105

linear_layers.1.layer.bias f8 [100]
0	0xbf899aee646dbc54	-0.012502539100493738
1	0x3fadc7883a08adc4	0.05816293438359879
2	0x3f675eb6c31892a5	0.0028527803012983904
3	0x3fc817b7140463b0	0.18822372891807282
4	0xbfcc55c7eb709a67	-0.22136782642447203
5	0xbfb38797cc121342	-0.07628773433868921
6	0xbfba19d7170ef655	-0.10195679009390209
7	0x3fa0127722e862a4	0.031390879641724184
8	0xbf889a1dafbf88a7	-0.012012702871235638
9	0xbfa910c137b259f2	-0.04895595364466833
10	0x3f9aa6bcee9a9c10	0.026026680052975648
11	0xbfc5940884a14e81	-0.16858011699752143
12	0xbfa1473b85ae48c1	-0.0337465859112327
13	0xbfb0f80fa007bd38	-0.06628511101711332
14	0xbfb0ec171d4ba51b	-0.06610245194646718
15	0xbfb8d06244fef252	-0.0969296854445443
16	0x3fb98707d78b60d0	0.09971665394130302
17	0x3fba6c7018afb090	0.10321713068668914
18	0x3f921968ce68f99b	0.01767505416705149
19	0x3fd8a8f2c5a9568e	0.3853117876327382
20	0x3fb47412c354c019	0.07989613789391149
21	0x3fb161211b5a99d0	0.06788832586116844
22	0xbfbd65939ee872ab	-0.11483118657674633
23	0x3f631679bdd26278	0.002330053116179006
24	0xbfa851d514f08fa7	-0.04749933128940081
25	0x3f841235ee19a7da	0.009800359085790623
26	0xbfa23adc7630a849	-0.035605325152872576
27	0x3fa6162c68301b5d	0.04313792011094251
28	0xbf9ec7bff15e11ba	-0.03005885992708255
29	0xbfacdeeb9a4c2cd9	-0.056388247094298634
30	0xbfb4af471f8d7ab0	-0.08079952736214113
31	0x3fb518c0baf5ab96	0.08240894855923239
32	0xbf99fc50c610af5a	-0.02537656983274359
33	0x3fcdd1eb21caff25	0.23296870374724069
34	0xbf80a89338e04a78	-0.008134031460973676
35	0x3f8c7863e5f74ce0	0.013901501136308558
36	0xbf9ae6ce928a1264	-0.026271083540012077
37	0xbfb09a997721eacf	-0.06485900076396976
38	0x3fc7512e6a15ef95	0.1821649568554419
39	0x3fb0527caf6d4d21	0.06375865252384873
40	0xbfa1ec13d5b5075e	-0.03500425323228627
41	0x3fb5e7afb6853031	0.08556650358258434
42	0xbfb4053a9df2a3c5	-0.07820478778980007
43	0xbfb7f7d2b152cc55	-0.09362522916016876
44	0x3fbe5e5cf39ac4eb	0.11862736651780252
45	0x3fb317dfd2b3ac77	0.07458304304206985
46	0xbfb7d7271d15d11c	-0.0931267210015147
47	0x3fb96f62e6ebf64c	0.0993558706067798
48	0x3f84da3a8a1ba94f	0.010181863155101082
49	0x3faa34e6b0ce8d7f	0.05118485363280011
50	0x3fa3dca51829b43f	0.038792761993001516
51	0xbfaefe92f8c4017d	-0.06053599631013904
52	0x3fc0bf8e2af70165	0.13084580514806557
53	0x3f9060c4a22bd08e	0.015994141004697364
54	0x3f9b425b4e80757c	0.02662031809460562
55	0x3fb8e39b3caaff9f	0.09722299796248855
56	0xbfc034d519ef7edf	-0.12661231771834644
57	0x3fc1b9718d123c40	0.13847178829425566
58	0xbfb4765c437374c1	-0.07993103644135414
59	0xbf934a196e05f89b	-0.01883735403088647
60	0xbf65a7fdc8369d10	-0.00264358107388641
61	0xbfad1da9fb9e3488	-0.056866943326078945
62	0xbfb1a20e2cefe98a	-0.06887901875589911
63	0x3fa665dc6b7a8286	0.04374588787073201
64	0x3f77b625407136b4	0.005788941874085008
65	0xbfaa2c421274ce13	-0.051118912461245135
66	0x3fb07e5e2a696830	0.06442822013323801
67	0x3f9a2277f7185cb9	0.025522112328044886
68	0x3f8a301a94d5be72	0.012787063281137299
69	0xbfb7d2942f3a8852	-0.09305692818682701
70	0xbfb6b3c159bbcf4f	-0.08868034783136845
71	0xbfa5040881d53bde	-0.04104639611124815
72	0x3f99b70ec55b1988	0.02511237220348897
73	0x3fbb1bee57532058	0.10589494354201301
74	0xbf98ea692c560e0d	-0.0243317063627853
75	0xbfa0c0f8a0409fd0	-0.032722253381791355
76	0x3fbb5044f647aa2c	0.10669356358236176
77	0xbfaa2c1d72191df8	-0.05111782090949285
78	0xbfb5825d001b6c36	-0.08402043583502991
79	0xbfbfd17821b2dceb	-0.1242899973175217
80	0x3f9c84b42904d3ed	0.027849974635689213
81	0x3f9c5d0a801100c4	0.027698673311761693
82	0xbfaff031d13db128	-0.06237941436015354
83	0x3fb47c18a4dabf5f	0.0800185587383999
84	0xbf9fc5ab83664824	-0.03102748860835204
85	0xbfc410c08576da10	-0.15676123158273514
86	0xbfb2405ae82a7797	-0.07129448097336276
87	0x3fa6952838725d69	0.04410672844931691
88	0xbf95e6c5edb01a0c	-0.021388142235105476
89	0x3f8f6f2b878ca3de	0.015348758768213896
90	0x3f810db87b80b079	0.008326951283457827
91	0x3fb50877666ee586	0.08216043711481377
92	0x3fc3e8d2a8699667	0.1555426904989645
93	0xbfa4dbc7bf25cc9d	-0.04073929031701449
94	0xbf50e2498913f9ff	-0.0010305135841118804
95	0x3fb992c6ba2acffb	0.09989587826822792
96	0x3fa2648bb3d05745	0.03592335290902197
97	0xbfb30054bcf58773	-0.07422380078562955
98	0x3fbdd0243cb454c5	0.11645723802606074
99	0x3fa9f3b5985f4f28	0.05068747982991645
