8_Inv_Lorenz/logs/models/2023-09-28-15-26-39_Lorenz_RBF_100X5/epoch_10000.pt (torch, 436734 bytes, 17 tensors)

alpha f8 [1]
1.366956149855273
00000000: 8f1c 6b69 0ddf f53f

beta f8 [1]
0.8076195884638194
00000000: 65f4 0109 05d8 e93f

rho f8 [1]
21.10775957077884
00000000: 7c53 9821 961b 3540

rbf_layers.0.centres f8 [128, 1]
-0.3473130183385727 0.6895467370172984 0.7293694240684394 1.0676806288442662 -0.3260346676270067 -0.5881005010985794 -0.3381376370858916 -0.456178876644344
0.8906032205810268 -0.3737581685781481 -0.9030650463656932 0.5739319666959707 -0.8794622829223169 -0.5475220360363691 0.8407265989742024 0.8505063457186146
0.930481965600572 0.8404979816936777 -1.4090146897397253 -0.6042171904474276 0.8177280606420302 -0.8006521471798388 1.0483857471895308 -0.3731795372512914
0.7147283436434614 -0.3418048845168527 0.631912596255813 1.288175102429738 -0.5923752098876982 0.5379746430321165 -0.3512276019729403 0.9886293090835339
-1.5426916987194836 -0.8533059396993429 0.9841190042196434 1.4866999396868967 -0.3027669448493212 -0.41844577552524104 -0.3633965986234383 0.649257352504459
-0.3562290287842304 0.7764313714892817 -0.33225666792194564 2.1232114198212644 -0.4810719027979541 0.7875940833679785 -1.013267201291787 -0.6961775322709504
0.8250168516734998 -0.2956411441370278 -0.4827952966430591 1.174731099406541 -0.3200418392656571 1.0214350152385254 0.9231874601675057 -0.3196866583027939
-0.3024668137380189 -0.4719700515441608 -0.49021637258442374 -0.5119987557194517 0.6585219773230715 -1.4650106820787943 0.997012988049515 -0.3956894609428935
2.1524505132086595 -0.6719732395193484 -2.1809088932428815 0.7197224220052117 -1.622050815137866 -0.921460520989163 -0.40370659342326914 -0.49006751919329694
-1.4627887819421717 0.8024898018598378 1.0755242910233247 0.7254373735426183 -0.35791669086809985 0.8130542839814588 -0.9942304323005646 -1.4878260691730338
1.182460315220814 -0.7487068775174152 -0.9685462299064912 1.0221061116492325 0.8426231012417537 -1.719947770479207 0.6836111590086651 -0.3399792675896741
-1.0608367817102484 -1.1000394782017364 0.46496795959734993 0.8686020325975975 -1.7095543510965256 -0.43161631467723516 -2.0324628213763907 1.948110591989775
1.2041676753697435 -1.0008906443299013 -0.5620943790302881 -0.6854739296833782 -0.40784459260613287 -0.35211773664120216 2.4295169424023504 -0.74380581168339
0.6233716751932958 1.1503212443060087 -2.239879459540926 2.333820167837086 -0.3766025378774804 0.893571861493158 0.9553579167718826 -0.3469502339057707
0.722304578064166 -1.8049350014055991 -0.3561290142845375 0.9526962671936408 0.6324939821602318 2.014899119329229 -1.604937834699908 -1.1510234719838854
1.2568622352672063 1.8070729358724393 -0.8106232066559653 0.6284275480814027 1.4960446753032652 0.9614674551098978 0.920652112841037 -1.9577537924758122
00000000: 594f cf61 603a d6bf 9db0 9151 c410 e63f
00000010: 1271 e28b fe56 e73f 6657 7748 3815 f13f
00000020: 8c7e b482 c0dd d4bf f858 5f24 b8d1 e2bf
00000030: e628 350b 0ca4 d5bf fc0f 14e3 0832 ddbf
00000040: f872 4353 d27f ec3f ebfb a961 a7eb d7bf
00000050: dfa4 09ab e8e5 ecbf 2bd2 6292 a65d e23f
00000060: 70f0 e615 8e24 ecbf 7eb2 d3ee 4c85 e1bf
00000070: 9516 ef77 3be7 ea3f 86dc 7c15 5937 eb3f
00000080: 4db6 781d 82c6 ed3f aa4e f705 5ce5 ea3f
00000090: 5640 c0fc 528b f6bf f6e2 144a bf55 e3bf
000000a0: 2b54 af09 d42a ea3f bb81 7340 f19e e9bf
000000b0: 4e58 1c22 30c6 f03f 28f7 016d 2ce2 d7bf
000000c0: 2122 aff9 0ddf e63f 653a 2798 21e0 d5bf
000000d0: 642c dbc3 a038 e43f 9750 077f 5d9c f43f
000000e0: bab8 2ddb bcf4 e2bf 8fce 3c99 1637 e13f
000000f0: 3b48 fb55 837a d6bf f42f ccee d9a2 ef3f
00000100: 50f9 9c7d ddae f8bf 1fb8 0f42 484e ebbf
00000110: c3da 4f23 e77d ef3f efb9 3ee0 85c9 f73f
00000120: ca02 9c9b 8860 d3bf e7ef 41ca d0c7 dabf
00000130: fa2d a4ce e341 d7bf d936 f65a b7c6 e43f
00000140: 37e7 20d7 74cc d6bf 0851 849a 86d8 e83f
00000150: 7492 a678 b143 d5bf 2a02 d544 56fc 0040
00000160: 46ab 62ce e1c9 debf 87d5 d281 f833 e93f
00000170: d585 3aab 5736 f0bf f709 aa1a 1647 e6bf
00000180: 23c5 92bd 8966 ea3f 66ea 5ad5 c8eb d2bf
00000190: d4a6 6f3e 1ee6 debf 37b9 58d6 b2cb f23f
000001a0: 16da 3fc4 907b d4bf 0805 173e cc57 f03f
000001b0: 4be5 af6d c08a ed3f 9731 9807 bf75 d4bf
000001c0: cd53 48c4 9d5b d3bf f1b5 04e0 c134 debf
000001d0: bcaf 0d7e b45f dfbf 310c ed36 4b62 e0bf
000001e0: 5698 89ae 9c12 e53f ee1a 7d0a af70 f7bf
000001f0: 5984 2bc8 87e7 ef3f 3ec8 87e3 f952 d9bf
00000200: b8ea 83f9 3738 0140 95ba f005 ce80 e5bf
00000210: 1545 a05c 8072 01c0 bdba 1651 f707 e73f
00000220: f779 378e ebf3 f9bf b383 46c6 9a7c edbf
00000230: 3dae fb2d 54d6 d9bf 8e17 f127 445d dfbf
00000240: 5a5b b635 9567 f7bf 9991 cb17 ffad e93f
00000250: f2fa 7ff5 5835 f13f 7e2c 5570 c836 e73f
00000260: 5e25 7e68 1be8 d6bf 8756 f26a 8a04 ea3f
00000270: 5c67 ed56 bcd0 efbf 29c0 53b5 22ce f7bf
00000280: 590f eb81 5beb f23f 4d48 2720 68f5 e7bf
00000290: 6999 c3a9 54fe eebf ee33 29f0 8b5a f03f
000002a0: 6bff d5b8 c4f6 ea3f b894 10f4 e784 fbbf
000002b0: 92ee 6382 24e0 e53f 5a67 e766 38c2 d5bf
000002c0: 376e 3dfd 2ff9 f0bf 3ff7 f2fe c299 f1bf
000002d0: 5424 0af9 08c2 dd3f a7dd 677d 96cb eb3f
000002e0: f31a cba9 555a fbbf 7c5c fd08 9a9f dbbf
000002f0: 0e2e 21de 7b42 00c0 8365 1903 762b ff3f
00000300: 75d0 0953 4544 f33f 074f 84e8 a503 f0bf
00000310: a06a e659 adfc e1bf d705 c805 67ef e5bf
00000320: 8f00 c634 201a dabf d2ca cdd4 1889 d6bf
00000330: 6e91 2594 a66f 0340 1928 78d8 41cd e7bf
00000340: 72a7 c627 a9f2 e33f 6a03 c33f b767 f23f
00000350: f7ae 0dec 45eb 01c0 18d8 7ce8 a9ab 0240
00000360: 6f8f f187 411a d8bf 86a5 3704 2498 ec3f
00000370: 5051 10c4 4a92 ee3f ddbf fdc0 6e34 d6bf
00000380: 6b2c 917d 1e1d e73f 8e15 2786 03e1 fcbf
00000390: 4590 6059 d1ca d6bf 5ec6 d3e1 7c7c ee3f
000003a0: aa70 0905 643d e43f e010 f26d 831e 0040
000003b0: f462 824b d3ad f9bf 2996 9196 976a f2bf
000003c0: 3fcd 4093 1b1c f43f faf0 904f c5e9 fc3f
000003d0: a4e9 3e14 a0f0 e9bf 6f48 dd16 141c e43f
000003e0: f884 9c8a ccef f73f 06b1 7b65 57c4 ee3f
000003f0: 64a8 746b fb75 ed3f 7bdb 04a4 f552 ffbf

rbf_layers.0.log_sigmas f8 [128]
-0.5115958356553513 -0.4707634709545645 -0.3866505376223911 -0.1740137958343063 -0.5101593516220304 -0.15189058693553337 -0.5350145675419385 -0.32535928669037695
-0.2755495036497929 -0.43795168041499005 0.009962671540590474 -0.42250184045159594 0.0044014016723689835 -0.2139524307029714 -0.2809214490883041 -0.30524988467263736
-0.2623166704740512 -0.27746605739396907 0.15643301247441743 -0.16051351935286098 -0.32524903898034707 -0.043386190281821196 -0.18783600284724924 -0.4423766987341972
-0.390031469589807 -0.6305497451433374 -0.3949668250316523 -0.0798720041518815 -0.18458812036183272 -0.4886697597438646 -0.48151692411070657 -0.20489852072987946
0.18524947875730766 -0.02546210656354687 -0.21469304013001098 -0.008235533613451826 -0.6667392794802284 -0.6300335008315093 -0.49494314744316836 -0.44309415609735137
-0.6933936865215622 -0.3094517058640592 -0.5287311932504418 0.15795622320227662 -0.293577985984362 -0.33123823196303637 0.05632200543467591 -0.09859305795577956
-0.32725401042940744 -0.7102915942888518 -0.2794948215882604 -0.12289816779708071 -0.6391487120343495 -0.19531779305958202 -0.25961220858303735 -0.5874967224169386
-0.6731999021862091 -0.30305618332441503 -0.280973065010292 -0.2663652120908824 -0.4073829629684709 0.18460103270943515 -0.19960855714131728 -0.40824572139241105
0.16917048051109734 -0.1335514016908949 0.31121581449676705 -0.37395854783376475 0.21037023468318197 0.011428030120915896 -0.40518333315717164 -0.2815676283640295
0.14489229616649008 -0.34896841096343867 -0.17309593082216265 -0.36528717422228546 -0.520266267059199 -0.31502562043858173 0.03532910682150035 0.18386693276343782
-0.14414353980237463 -0.059209578246064834 0.04012156355535613 -0.20345704530786357 -0.26948776814568254 0.1864192353056416 -0.40663543946467734 -0.7048568512991998
0.07163142341445762 0.08199524643886125 -0.5869815615039092 -0.3060962531668569 0.19765251060289835 -0.3491722598594838 0.2517892682225486 0.11905362419697231
-0.11355365553219393 0.0478826588387197 -0.1832660736525246 -0.0859422451915305 -0.4132045468864119 -0.5537709775944485 0.23749686420099878 -0.048910175197207195
-0.47457054120548775 -0.14078384135059266 0.3446681431602378 0.21230578654930046 -0.4348801322895029 -0.28571436226470726 -0.21288335069071376 -0.5126301077042648
-0.3396169108410713 0.24419756030591683 -0.49716912362323123 -0.2451390832380166 -0.43507445671757056 0.13423846822933883 0.22707675924235254 0.09466502151411439
-0.09209050220799427 0.07621210483185321 -0.034907755478117 -0.40632763143232203 -0.015024154460368757 -0.22314431723583122 -0.24356974125391043 0.2772063238476467
00000000: d31a dd3a fe5e e0bf e8ae f91b fd20 debf
00000010: 4a6a 84e5 e1be d8bf 1ba1 1485 1546 c6bf
00000020: cce2 5eb4 3953 e0bf 90ab ba97 2671 c3bf
00000030: 1b3d cfde d61e e1bf 603e f2c1 afd2 d4bf
00000040: 92b6 a662 9aa2 d1bf 7f14 277c 6607 dcbf
00000050: f4bc 9423 4f67 843f 9152 cf28 450a dbbf
00000060: d584 d443 3407 723f 8f6d 6212 cb62 cbbf
00000070: 8811 25f5 9dfa d1bf 42b6 f1cf 3689 d3bf
00000080: 196d 38dc cbc9 d0bf 3f75 90fe 00c2 d1bf
00000090: 34d3 4b38 ff05 c43f fddb 17fe b48b c4bf
000000a0: 1c77 5e58 e1d0 d4bf 6c87 b7f8 b636 a6bf
000000b0: 19c2 9e98 020b c8bf 43da 645b e64f dcbf
000000c0: 7723 938d 46f6 d8bf 5f89 bca8 762d e4bf
000000d0: 8504 21ef 2247 d9bf 44c4 b2dd 7d72 b4bf
000000e0: 5193 1762 95a0 c7bf 8a38 2987 5d46 dfbf
000000f0: f6a9 615c 2cd1 debf 584d c45e 1d3a cabf
00000100: 2b8d 6e42 41b6 c73f 632a e90b bd12 9abf
00000110: 63c3 04c1 0f7b cbbf 6b71 479c cadd 80bf
00000120: 1b70 0a9d ed55 e5bf 4595 2e04 3c29 e4bf
00000130: 2674 e905 26ad dfbf 7028 5f97 a75b dcbf
00000140: 949d dbf4 4730 e6bf b529 1887 0ece d3bf
00000150: af57 ecad 5deb e0bf ff3d 6dd6 e837 c43f
00000160: 6637 2852 fbc9 d2bf a2d4 5dd7 0133 d5bf
00000170: af2d c6e6 3cd6 ac3f 695f 8807 653d b9bf
00000180: 8fdd 11ce baf1 d4bf a904 0370 b5ba e6bf
00000190: 23de 873f 3ee3 d1bf 9641 6d1b 4176 bfbf
000001a0: 4afa eeff e773 e4bf 4a47 c266 2c00 c9bf
000001b0: 1a6a 6086 7c9d d0bf d136 29ed c5cc e2bf
000001c0: e3ec 7185 da8a e5bf 01a7 0ec3 4565 d3bf
000001d0: 65ab 5173 76fb d1bf 843c aeac 200c d1bf
000001e0: 186b b9fd 8f12 dabf a7bd 25b3 01a1 c73f
000001f0: f73b 76f0 c58c c9bf 7730 87a9 b220 dabf
00000200: ce33 9fd8 60a7 c53f 0e76 4c5b 3618 c1bf
00000210: 56be 50bc f5ea d33f eb5c 40d5 efee d7bf
00000220: f10f 026f 69ed ca3f d12b 043d 9467 873f
00000230: 37d6 3213 86ee d9bf f6e3 db3a 3405 d2bf
00000240: 221c bdac d48b c23f 2234 1b9a 7f55 d6bf
00000250: c7d6 f9e8 0128 c6bf c9b5 bb74 dd60 d7bf
00000260: 7f66 4771 05a6 e0bf 70e4 4b38 6129 d4bf
00000270: 2e5c ca1c a816 a23f 3574 849f f388 c73f
00000280: 75c0 b0a6 4b73 c2bf ba85 5ac4 b750 aebf
00000290: f155 ab46 d08a a43f e478 de65 e10a cabf
000002a0: 2ae5 b69f 493f d1bf e3d4 7de3 95dc c73f
000002b0: db4d 79a6 5006 dabf 9321 96f4 2f8e e6bf
000002c0: 9957 eedc 6f56 b23f f8e2 e1f5 a3fd b43f
000002d0: 2b75 408e 8dc8 e2bf 07e8 31bd 1497 d3bf
000002e0: c080 816e ad4c c93f d514 319b d658 d6bf
000002f0: bff9 1fbc 501d d03f f971 655e 4c7a be3f
00000300: 241e da34 da11 bdbf d401 846b 1384 a83f
00000310: dde6 6640 4375 c7bf 8943 719c 4f00 b6bf
00000320: 7de1 db7b f171 dabf 53bf c7e9 7db8 e1bf
00000330: fbaa 5218 4c66 ce3f 00c8 d325 c10a a9bf
00000340: 85d8 871e 5d5f debf 61f9 3375 3405 c2bf
00000350: 3f29 b6f8 0a0f d63f ed8a fd04 d62c cb3f
00000360: b544 777a 13d5 dbbf 9a29 7be4 2449 d2bf
00000370: 892d 8afa c23f cbbf e01c 7141 7767 e0bf
00000380: dfc7 4e91 48bc d5bf 7a71 a39b dd41 cf3f
00000390: 91bc a271 9ed1 dfbf 2446 bdac b760 cfbf
000003a0: df52 bb88 42d8 dbbf a47f 74e3 b92e c13f
000003b0: 3654 50eb d910 cd3f 196f 7a83 f73b b83f
000003c0: cd6b 413f 3e93 b7bf f5e7 cff1 a282 b33f
000003d0: 8480 4fe8 6ddf a1bf 37a1 1d9c 4501 dabf
000003e0: c16c 75e0 fbc4 8ebf 6a77 6834 fe8f ccbf
000003f0: 7988 7d14 4b2d cfbf bbe1 ca97 bfbd d13f

linear_layers.0.layer.weight f8 [100, 128]
0.2814864904534339 0.015271931422056436 0.04772225068909064 -0.1660729588577628 0.38787506429633317 0.38474832003574005 0.3337829963274827 0.32036349957463156
-0.1599250886886188 0.35247534115047807 0.3171365349715668 0.1109431340566109 0.28126278609378264 0.32236049982222637 -0.0801721534262463 -0.06068156004443649
-0.08272402359208411 0.017537600547536166 0.4535044197816695 0.359781146752 -0.07487488044584269 0.28894027875175515 -0.07832433502706491 0.3484137979615453
0.0035129081372120632 0.40286369521599646 0.05103155974658128 -0.1863544316029821 0.3774630248158738 0.09741931020811484 0.40288671264931736 -0.20112693988260802
0.35811040455587345 0.2751063221687139 -0.1835026652196484 -0.21073090316788567 0.40363604521626933 0.33557317623000005 0.33324665745708787 -0.036038648708603536
0.41219233631328767 -0.0768647046997482 0.30691112224558376 -0.31459086585646884 0.3581011901680322 -0.008260464488345685 0.3786014659333621 0.2735017888560283
-0.02438883038895677 0.4001303360306942 0.23294759260732956 -0.1834359390107921 0.34928724422512086 -0.20414140592366867 -0.11107353710705663 0.3300672063542358
0.2897746310312009 0.3340046612823921 0.3941843945693804 0.32340772514135424 0.09117626500899392 0.3730171178958767 -0.11425781433840332 0.3224400713381987
-0.4149984624212929 0.3529225407500798 0.4010991528589154 -0.08750288407376514 0.44589069238151613 0.2925798801362532 0.293087456559416 0.32290302662079773
0.337740965224753 -0.016006573962133144 -0.13610344961287485 0.009300723540316545 0.33099512972285283 -0.014571633698548466 0.29098180885234226 0.32060840544661784
-0.14751088499713153 0.25546977958548406 0.2734533798420403 -0.17621455618059925 0.0219101000282873 0.49718062597377144 0.06584904501046997 0.3660018266840098
0.43543547361950885 0.30112388003203194 0.15339990865149114 -0.0335759883142965 0.4819763482530973 0.3068048872815292 0.3799422421150566 -0.33324038690412344
-0.19371046609885834 0.3559898489778198 0.3705160441032263 0.3845712348119826 0.3046759046898844 0.2928918423452816 -0.4196813189007222 0.401283979828801
0.05516364070269759 -0.07757652285559115 0.5266556969777532 -0.4519990178212537 0.37280620596872205 -0.14144698647323883 -0.10097707294779651 0.2565925336466732
-0.020744498932707026 0.5065900147215369 0.3231803025603544 -0.16611387470897937 -0.05342808891447109 -0.3171018975130614 0.42030296304427156 0.36714368020246907
-0.19030123865944795 -0.3743811889454811 0.3257733185030102 0.1130122435795877 -0.22719598351371018 -0.16023919603592685 -0.14458516161695362 0.41964746282394855
-0.1279454691715119 -0.0376302595900202 -0.04063482973765599 0.12522322541671918 -0.15070917964818495 -0.1265016267831715 -0.13276077914663253 -0.0615938736083772
-0.04379086417360286 -0.09088333816884699 -0.020417769131964397 -0.02042125422076786 -0.029399272683398432 -0.10989430861522326 0.07019782794273674 -0.02849086142724075
0.006823938189757317 0.04454335112875805 -0.1290896947045512 -0.12433673861099627 0.058952850909636936 -0.052386793334418945 0.1250953053002377 -0.035162140843957204
0.07616031192734407 -0.06404487081007129 0.08507313047412922 -0.021951813955153113 -0.10672227965274556 0.03603895114850559 -0.10596225997056036 -0.0027163836062415497
-0.10130141289391176 -0.08586514186765085 0.064131594166925 0.1432310943166097 -0.11939063491578955 -0.09022645602303919 -0.08228523534235697 0.07949932080940908
-0.11673360070443053 0.0712818773129759 -0.1739099305784513 0.06657394234307198 -0.09718466406623652 0.08837383825317913 -0.12825790031031367 -0.17575215889982115
0.08554946671094317 -0.05649913429176644 -0.11344913531782697 -0.03781653864206448 -0.027366625639064147 0.11128104681485124 0.0009134302906495103 -0.14442726153552668
-0.056193245260208004 -0.0384267294182825 -0.027136229001397026 -0.023252889568593584 -0.04330033133235308 -0.08966440449902455 0.11668024364762104 -0.11695506477037067
-0.0013184545739904877 -0.0744899502755995 -0.03881977946701772 -0.04628004208565847 -0.1741757392986775 -0.17775441804425654 -0.013379130087424359 -0.1252911083934685
-0.1621136636128142 0.09030151078721191 0.0314208245038113 0.060572510898891915 -0.11204056202926557 -0.009840443400636365 -0.12376509159104407 -0.1087036435177836
0.06189358444107699 -0.09629707395954 -0.17240122737007035 0.05793473371018758 -0.019960265417224805 -0.1638892183025854 0.10559987143424793 -0.17437415511244703
-0.10919022903178266 -0.15005328898302425 0.00980895306843269 -0.014234057836859403 -0.1974243636841871 -0.009466423907535536 -0.16442499730311233 0.03341521441756605
0.07724176062758942 -0.018041332191546033 -0.12865569910270336 -0.1685863607746971 -0.02311924560775359 -0.0774243726906877 0.09484105494485863 -0.14158609364213492
0.07533805764059166 0.09021577666431964 -0.111130278630052 0.14598123975440316 -0.012462885305143721 0.11259081754527887 -0.027527804568264494 -0.09592547736381804
0.015171355247197265 -0.05570643779119263 -0.02637319436477206 0.035346237166954134 -0.00607290996642522 0.12578706437024453 -0.187932014651073 -0.17114306611185018
0.021983455452021104 0.024982422373218502 -0.16507288981647342 -0.0058965491971212265 -0.010825829995990455 -0.0030847508722754166 -0.0448179166629713 -0.16134521419635647
00000000: 26da b0e9 df03 d23f 9130 09f0 e346 8f3f
00000010: c097 0004 0d6f a83f 42a3 85f3 e041 c5bf
00000020: a58b 05ef f1d2 d83f fda4 ef6a b79f d83f
00000030: cbfe 4b5b b35c d53f 6b54 60e8 d580 d43f
00000040: 491f dde0 6c78 c4bf d6d0 b8bb f48e d63f
00000050: fa74 8409 f74b d43f bd27 7dec c466 bc3f
00000060: 6cb2 f6a0 3500 d23f 268e 10ef 8da1 d43f
00000070: d1ff 0389 2986 b4bf 12e4 b847 a711 afbf
00000080: a2e9 ebcf 662d b5bf 1f3a 3573 60f5 913f
00000090: 3f70 e366 3706 dd3f 141a c180 a706 d73f
000000a0: b98a ce0a 002b b3bf 2f19 ef5d ff7d d23f
000000b0: b714 6c49 100d b4bf 4b14 ee62 694c d63f
000000c0: 108e 0532 1ac7 6c3f dbb2 ecce 84c8 d93f
000000d0: d5d2 5900 cf20 aa3f 7688 9946 76da c7bf
000000e0: 7623 c2ac 5a28 d83f 4cbd 57cf 78f0 b83f
000000f0: d797 b459 e5c8 d93f 4df7 910e 87be c9bf
00000100: 0530 fbe6 47eb d63f 3ecc 288c 579b d13f
00000110: eb71 ecec 037d c7bf 106a aef0 3af9 cabf
00000120: ad33 6c47 2cd5 d93f 08a7 54ea 077a d53f
00000130: 71e3 d1c9 e953 d53f 63e3 3063 a873 a2bf
00000140: 6227 08f7 5b61 da3f 13f1 e6c0 67ad b3bf
00000150: 3fb3 348c 6ea4 d33f ab53 1eba 4122 d4bf
00000160: 448b 1b41 21eb d63f 6c22 9ec6 dcea 80bf
00000170: 54b1 99a4 013b d83f 552f a2a5 0d81 d13f
00000180: fc0e a2b3 62f9 98bf a7ea d844 bc9b d93f
00000190: bc17 f709 3ad1 cd3f 0330 7b2f d47a c7bf
000001a0: c7d6 b6e2 b85a d63f 9bce 193b 4e21 cabf
000001b0: f36a 53b9 506f bcbf 7481 3134 d21f d53f
000001c0: 8d53 dfe4 aa8b d23f f7d7 3a16 5560 d53f
000001d0: 1938 d12e 513a d93f 3b60 b050 b6b2 d43f
000001e0: 2a93 62e4 5357 b73f 7b80 8d30 83df d73f
000001f0: 8858 e507 0040 bdbf 6f51 54ae dba2 d43f
00000200: de57 ffb5 558f dabf 90bd a26c 4896 d63f
00000210: c4de fec7 9bab d93f 460a 67c9 9666 b6bf
00000220: 62a4 571d 7989 dc3f 99c7 29f6 a0b9 d23f
00000230: c197 32e4 f1c1 d23f 5868 c774 71aa d43f
00000240: f539 0a48 8c9d d53f 47e3 c0fe 0664 90bf
00000250: f2e3 7a7c d66b c1bf cc76 7afb 410c 833f
00000260: 24e0 5232 062f d53f 1ef9 7991 bbd7 8dbf
00000270: 661c 302a 729f d23f d4d1 0d1e d984 d43f
00000280: edef 6efd a2e1 c2bf 23e7 1beb 9d59 d03f
00000290: 1ebe d99a 4280 d13f 61fa efd5 328e c6bf
000002a0: 3f59 4bec 996f 963f 2cc7 30b0 ced1 df3f
000002b0: f9f4 caa6 7bdb b03f ce94 f8ec 926c d73f
000002c0: 2eb3 adbf 2cde db3f a40f 3218 9d45 d33f
000002d0: 9d0b 6fb3 9ba2 c33f bb47 7b37 df30 a1bf
000002e0: e652 4c53 b3d8 de3f f822 48f7 b0a2 d33f
000002f0: 7f32 1044 f950 d83f 096a dd7c cf53 d5bf
00000300: 3ccd 642a 81cb c8bf 7255 c4a5 89c8 d63f
00000310: 0144 04ed 88b6 d73f c1fc 1fab d09c d83f
00000320: d16c a15d cf7f d33f d1d7 086d bdbe d23f
00000330: 8bed da08 0fdc dabf c77f 7100 a3ae d93f
00000340: 9925 7ea1 683e ac3f 3127 9a14 0edc b3bf
00000350: 6cb0 580c 5dda e03f 3173 d749 8ded dcbf
00000360: 846a 988f 0edc d73f b099 8252 ef1a c2bf
00000370: 3ce3 f429 a2d9 b9bf 6441 1a17 036c d03f
00000380: c197 f3c1 0b3e 95bf 6fb1 3643 fc35 e03f
00000390: a151 8d6f fcae d43f 66b9 a42d 3843 c5bf
000003a0: 379f 262d ed5a abbf 725c d4c1 654b d4bf
000003b0: 83f8 2b66 3ee6 da3f a1c5 d934 487f d73f
000003c0: 8d1e 377e ca5b c8bf 408a b084 dcf5 d7bf
000003d0: fb4e 3855 78d9 d43f 6ecf 38d2 5eee bc3f
000003e0: 14aa 7c0b c214 cdbf 607d 41cd b782 c4bf
000003f0: 3adb 503e c481 c2bf 3368 2b08 81db da3f
00000400: a2aa e162 8460 c0bf c0e9 8efc 4544 a3bf
00000410: 6280 9aa1 16ce a4bf 21a6 ee8c 5007 c03f
00000420: 77e1 e53a 704a c3bf a656 f68e 3431 c0bf
00000430: 7829 5022 4efe c0bf 205a 9071 3b89 afbf
00000440: bb78 fa92 c16b a6bf e1be 2f65 2144 b7bf
00000450: eb5c b74a 65e8 94bf 1304 162c 4fe9 94bf
00000460: 3237 ceca d71a 9ebf 9cd7 848d 0822 bcbf
00000470: 76a8 431f 7cf8 b13f 786c 4258 b52c 9dbf
00000480: 5ace adf5 6af3 7b3f 7d5b b4d8 62ce a63f
00000490: 9fda 80d8 0286 c0bf 1989 0652 88d4 bfbf
000004a0: aa61 536d 112f ae3f 0b2f 3a18 71d2 aabf
000004b0: 68e6 927a 1f03 c03f 52db f6a9 c500 a2bf
000004c0: 7829 fb00 3e7f b33f ca15 9ba1 3e65 b0bf
000004d0: 1f9c 2749 5ac7 b53f 81dd 194c 897a 96bf
000004e0: acf4 dcbc 2652 bbbf 2944 2189 b273 a23f
000004f0: f40d 2fb9 5720 bbbf 8901 1258 ab40 66bf
00000500: 5cfe 6aaf e3ee b9bf 321e 3008 42fb b5bf
00000510: 7558 969b ed6a b03f be18 ee80 6555 c23f
00000520: 4c78 6978 6290 bebf fc59 dabd 1419 b7bf
00000530: c734 bd2a a510 b5bf 643d ee46 115a b43f
00000540: 9aae 5ed5 40e2 bdbf bb51 db73 873f b23f
00000550: b15c 243c ae42 c6bf be18 2169 fd0a b13f
00000560: da54 d619 18e1 b8bf e090 1ef9 aa9f b63f
00000570: 97a9 a43f c16a c0bf 568b 56f7 0b7f c6bf
00000580: c5b7 b6e1 91e6 b53f 5e26 125c 74ed acbf
00000590: 6815 f3a5 000b bdbf 7261 6e79 b05c a3bf
000005a0: 4a93 7c28 ff05 9cbf ac03 bc28 ea7c bc3f
000005b0: 78b0 dd9c 68ee 4d3f 1914 79ae 977c c2bf
000005c0: 7522 4c6d 5cc5 acbf 7e9b 4914 abac a3bf
000005d0: 061d 6480 99c9 9bbf 573d f000 9bcf 97bf
000005e0: 8bf3 f405 762b a6bf c649 f014 3ff4 b6bf
000005f0: cd4b 8ea6 c1de bd3f 5951 4a62 c4f0 bdbf
00000600: f201 b3d1 ff99 55bf 4b7a 50fc c511 b3bf
00000610: 3b5f 7fa6 2fe0 a3bf cb49 6e86 04b2 a7bf
00000620: 45b0 0500 644b c6bf a91b 1c22 a8c0 c6bf
00000630: de34 6571 8466 8bbf e9c7 83fe 8909 c0bf
00000640: 00d4 b9f9 23c0 c4bf 8647 9cf3 ff1d b73f
00000650: ca7f 50eb 6316 a03f 1ed7 b132 5c03 af3f
00000660: 56bc bdb5 b0ae bcbf 32c5 abf4 3927 84bf
00000670: 561d c5ac 11af bfbf 976b dd81 00d4 bbbf
00000680: 5566 0312 84b0 af3f d751 5bcf eca6 b8bf
00000690: 881f ac50 3e11 c6bf 36ea 2c15 9fa9 ad3f
000006a0: 75ef bebc 7670 94bf ec67 6368 52fa c4bf
000006b0: 349b 45da 9708 bb3f 2ce0 bc6e e451 c6bf
000006c0: 38f8 bb0e e4f3 bbbf 0b6f 6b38 f234 c3bf
000006d0: 1368 1865 b716 843f 0c81 30e7 be26 8dbf
000006e0: 5285 ba98 3345 c9bf 1956 bee8 2163 83bf
000006f0: 9ce7 07d9 e00b c5bf f67b 398a cc1b a13f
00000700: ccec c7b3 1dc6 b33f 83b2 f44e 6d79 92bf
00000710: 4c89 0b3a ca77 c0bf 0f1c 0ae5 3c94 c5bf
00000720: 8389 2c4f 92ac 97bf 79ac 9e6c 15d2 b3bf
00000730: 216a 4edd 8047 b83f 5874 e13c 7e1f c2bf
00000740: 99e3 b5dd 5a49 b33f 1d43 5b92 6118 b73f
00000750: 99ba 4fb0 0873 bcbf a98f 4965 83af c23f
00000760: 3f27 6526 2486 89bf 17d7 2f77 c0d2 bc3f
00000770: f4ce 67b1 3f30 9cbf 3e7b 2174 928e b8bf
00000780: 834f fbd4 2812 8f3f 1bcb fae0 8d85 acbf
00000790: 47a7 261d 9301 9bbf 7a63 56e9 e618 a23f
000007a0: 3157 285b e8df 78bf 2f72 dd5f ca19 c03f
000007b0: b81c 6600 280e c8bf a59b f117 04e8 c5bf
000007c0: 89c5 e0b8 d482 963f cc75 45fc fd94 993f
000007d0: 45e6 9bc3 1b21 c5bf f4ce 5fdf fa26 78bf
000007e0: 7a57 474e da2b 86bf c27c 9b03 3145 69bf
000007f0: f043 afbc 5ff2 a6bf 9f73 2bc1 f5a6 c4bf

linear_layers.0.layer.bias f8 [100]
0.07230260065015227 0.0006852694025865273 0.026508782154073166 -0.04521322101545564 0.005506947919832736 0.09790447164995905 -0.1430415414829724 0.0053396638759258585
-0.0008471218739731236 0.021411862093664337 0.060563668091695964 -0.06816015563303525 0.13584274990490663 0.008176348687990628 -0.077665986185152 -0.028991875521155806
0.07144171052491495 0.01870256089968519 0.03253512832751745 -0.053586234850374524 -0.15508193868325948 -0.003113305394616218 0.12363232097704714 -0.03494953840360442
-0.08078611515138182 0.00022760464158563378 -0.03130142817537141 0.0016712779204690006 0.013349507305959648 0.03381938348691627 -0.03169914750263508 0.11638680582111108
0.029763285297165543 0.016956318526463215 0.044186306602634624 0.000738182709994817 0.031357270596862635 -0.07117945768717941 0.046551006789756995 0.028815420234326917
0.021594737632825607 0.12318561567344946 -0.08948495786086073 -0.07002132843655971 0.11439943539042922 0.087016204905156 -0.08847188931844546 -0.06988167874151194
0.13136059925203242 -0.06521480079830157 -0.09802046945358839 0.11417686451819883 0.02406310159456732 -0.04054818116916099 -0.05695302587442713 0.0792682161447362
0.07625587877377206 0.12056602811881191 -0.0034665969157342907 0.06946307503017167 0.0694051071131809 0.08258215957602615 0.03428178339349836 -0.15005521064859748
-0.01402876232887673 0.06479233912628236 -0.10325339038999608 -0.0052790382902726425 0.08312638221223852 -0.10201942958024185 -0.035343588309186054 -0.14239877620845645
-0.035785833685402134 -0.07766575514246529 -0.07215054420860716 -0.017871235433849136 -0.037322726620971636 -0.08330817655009799 0.06524542049391685 -0.11560869050293758
-0.08805691391070512 -0.008447452779649475 0.1190938841299802 -0.0006669668794142952 -0.11081144860902721 0.01459804900435244 0.0159266538536922 -0.01773720599986145
-0.056802453338005016 -0.04179039065190195 -0.023835525079763824 0.008537171801901054 -0.019897281692596153 -0.06477458299121257 -0.12028617293794314 -0.0673987702507806
-0.009800446429864157 -0.12786096273266764 -0.05354566882772905 -0.18033512397819546
00000000: 7949 3559 6c82 b23f b2c8 26d6 7474 463f
00000010: 6456 a241 1e25 9b3f 3d66 37f3 2f26 a7bf
00000020: 709b 7613 748e 763f 4e65 de77 4410 b93f
00000030: ffc3 516b 2f4f c2bf 65ef 7f1b 0bdf 753f
00000040: 0cd6 495f 2cc2 4bbf ca47 c1bd fdec 953f
00000050: 0b2c 8f7b 3302 af3f 498b 55a7 f172 b1bf
00000060: 88c1 1e94 4b63 c13f eb92 b9f1 c2be 803f
00000070: ca43 ad06 ebe1 b3bf 462e dad4 0bb0 9dbf
00000080: dd59 4602 014a b23f 0f92 a99d c326 933f
00000090: 5b94 46c0 71a8 a03f d371 65ac a76f abbf
000000a0: ec24 6c97 b9d9 c3bf 4f58 461b 1381 69bf
000000b0: b132 5327 5ea6 bf3f 7755 e8e8 e7e4 a1bf
000000c0: 92cb 8b1a 66ae b4bf 611b ebfb 24d5 2d3f
000000d0: e1a1 a9a4 bd06 a0bf ea42 b300 d961 5b3f
000000e0: cbdd 5f8a fc56 8b3f 0129 1834 c650 a13f
000000f0: b877 abe3 de3a a0bf e204 b094 86cb bd3f
00000100: 2031 e443 447a 9e3f cb7a 2046 ff5c 913f
00000110: f924 946b 969f a63f 0200 884c 5330 483f
00000120: 4c23 6967 0f0e a03f f3d7 e922 d138 b2bf
00000130: e108 8497 88d5 a73f bd93 1b1e ca81 9d3f
00000140: 4241 984f ee1c 963f 02b4 a7ae 1789 bf3f
00000150: cf0f 7f77 7ce8 b6bf d751 a8f3 eaec b1bf
00000160: 43c9 ae09 4849 bd3f 7528 4aaa b146 b63f
00000170: 2cf1 3cff 17a6 b6bf 9ecc c804 c4e3 b1bf
00000180: d29d e292 6cd0 c03f 01d4 a4cc eab1 b0bf
00000190: 5c48 a496 de17 b9bf bec3 10eb b13a bd3f
000001a0: f153 8e69 ffa3 983f 1a52 1130 bbc2 a4bf
000001b0: 88eb 136f f228 adbf de32 f4fb eb4a b43f
000001c0: 190a 7659 8185 b33f e166 c74b 6add be3f
000001d0: 5331 350c fb65 6cbf 1fc0 8803 55c8 b13f
000001e0: 2efb 3979 88c4 b13f a3b1 9cba 1a24 b53f
000001f0: 6919 0cc5 618d a13f 4741 2a57 0235 c3bf
00000200: 3f3f 3f9b 1cbb 8cbf 4127 9411 3b96 b03f
00000210: 6b18 ed6e d06e babf 7412 fa0c 799f 75bf
00000220: ed4e 0945 c547 b53f fc8c 9a01 f21d babf
00000230: 518e d207 8e18 a2bf 9922 6783 1f3a c2bf
00000240: f383 ad52 8552 a2bf ee24 5b26 e7e1 b3bf
00000250: dbba c343 7578 b2bf 58f5 e84e d64c 92bf
00000260: 5820 78e4 f61b a3bf 0da6 c545 af53 b5bf
00000270: 3432 3c83 ecb3 b03f cbef d7f8 8798 bdbf
00000280: f7e3 6edd e58a b6bf 9e81 62eb e54c 81bf
00000290: beeb 7dd1 ef7c be3f 76f5 a077 ecda 45bf
000002a0: fd53 cc9b 235e bcbf f208 79f8 94e5 8d3f
000002b0: c4ca bea5 134f 903f 706c c4be b329 92bf
000002c0: 2cae d60e 3615 adbf a322 46d2 8c65 a5bf
000002d0: 1e63 cd02 5768 98bf bf17 84cd ef7b 813f
000002e0: 7593 98f8 f35f 94bf 032e 8f2b 1195 b0bf
000002f0: 7cf1 ed1a 13cb bebf 5389 04ba 0b41 b1bf
00000300: 5d40 38a7 4112 84bf d799 af7e bf5d c0bf
00000310: 1143 ea80 566a abbf ea39 e7a9 3815 c7bf

linear_layers.1.layer.weight f8 [100, 100]
-0.04474171584325787 0.031089466689095114 0.05166737388858233 0.1077312501563395 0.0021374721408945027 -0.029787589330203607 0.06980309562963033 0.0537064023888032
0.27849221281415515 -0.10273017196897187 -0.15730504966287748 0.27467234921289435 -0.17242379333055385 -0.24781036065804832 0.047474045402487584 0.09860915655015409
-0.13688348211226628 -0.16291982659745974 -0.06285709820046377 -0.09987508279371711 0.1089203250127989 0.02229172887049569 -0.20928235219174926 0.14605863002083996
0.08791340533863257 0.19037726304634908 -0.10815149538913463 0.16403541023038123 0.27222197970724116 0.04309183755699328 -0.034864710403879035 -0.1014651323146802
0.1036149520433344 -0.024717137399661256 -0.3429722807074927 -0.05602044236107626 0.14009243525962622 0.23094813084691948 0.015320884269919621 0.09196161767844035
0.2708241155987173 0.0007771347977644498 0.14077731733818646 0.4524507206943925 -0.05965070343970119 -0.12903014795734952 0.004707350110715307 -0.055579399497426435
-0.2641141029254536 0.01199791242877275 0.5830102652352325 -0.1726716848815785 0.18676596419282857 0.16443108453070684 0.10415249768192958 -0.017921185700372506
-0.19661137504303747 -0.04080600428221696 -0.03619708926027907 0.0012309338844729866 0.09438602901055744 -0.1746963400077388 -0.012773847062962793 0.0968618327142425
0.12036878942219432 -0.12876195847291527 0.04675553579635823 0.2054451108014029 -0.049610763451259345 -0.023510040771858597 -0.12548884529793344 0.16437367569597136
-0.1373971374725603 0.1624769697826489 0.3296263815658862 -0.24128520609255796 -0.13593432243394463 0.15248787614547213 0.14661806346686132 0.191098640437598
0.18556444107551603 0.08226412022203604 -0.0017868612112971346 -0.02909352156396371 0.3079205639267438 -0.2009203406982125 0.25034636326301135 -0.25973452916055106
0.2815969199526917 -0.07323587540492982 -0.08421801477103756 0.2345770524246978 -0.22735697393120455 -0.1710914208254521 0.10747634680725746 -0.009150360260932838
-0.08477116463824338 0.44791848820210123 -0.05540555324719543 0.1016872480281715 0.06642695824275599 0.07866160568853751 -0.2652055478403946 -0.13965239076040412
0.21009798244532865 0.08410280338378327 -0.01910574312260654 0.04661917173890795 0.08316043855257482 -0.15958054060385427 0.16583441238582677 -0.1275119959848919
0.5710513979379934 -0.021414175815243318 -0.02069045760418355 0.009907886240713286 -0.1959650210891449 0.008301539111182756 0.2526122754779578 0.04555513209440653
0.01527860734703193 0.23997542819729084 -0.1101329732195536 0.07469284135387655 -0.14212551049303193 -0.10813273746399062 -0.3252106688693791 -0.021548357088224876
-0.0037850585911359614 0.248743044004917 -0.2886946173381468 0.06681398921250137 0.35827392461847524 -0.2239778245654888 0.06442088330199817 0.005586161813774461
0.3113484483390518 -0.14865633448647442 -0.03591169805329129 -0.08552166159150688 -0.07869043463952163 0.3968650010815889 -0.15839778291292236 -0.031175768592927186
0.06795369841217355 0.3323155019415856 -0.3544291729191487 -0.04356382934521533 0.047179050155565116 -0.15292012662412666 0.0017963858513508526 1.006768356129659
-0.01470413206280604 -0.12604930911435094 -0.08851360230964744 0.03767995556222877 -0.12878398738082344 0.23358561205855669 0.43832506895547585 0.10774381280620852
0.00034600251390931434 0.00508485283043357 0.08808723096036722 -0.14186049894064465 0.021878279193640465 0.022469860186224194 -0.03946523694051668 -0.17903145212833455
0.8552002605272765 -0.054018459525518515 0.059744252159472856 -0.2667049343015783 0.15371590198501156 -0.09226842089603109 -0.1555131168751121 0.04139004623724997
-0.1817887844721107 -0.03904419078908329 -0.09228146273281158 0.1524590394360987 0.1787865131809466 0.3632393141742352 0.4498313385272203 -0.09103038685865383
0.006383625720513611 0.22450682559334675 -0.024321687535870953 0.09149822745383426 -0.3576256437370425 0.08516998862738927 0.1899588542608476 0.11910083615458276
-0.028408549210034623 0.09395209355577179 -0.2556965665002053 0.27362397430791136 -0.302168952259185 0.00853582747391572 0.057648447628826587 -0.0696174071042003
0.06459054708652807 -0.01217651971441976 -0.21190733623458388 -0.09675196323396106 0.13382767357064326 0.06768253139378085 -0.061423538820212335 0.12260613266598723
-0.01876445204957036 -0.027533104343669138 -0.1839109395289464 -0.07940549186175065 0.12226059920700497 0.050381085785185284 -0.036488413079452456 0.13203789310235062
-0.07552983673745846 -0.017987320472453404 0.15042503417305603 -0.20886947410103648 0.005448526438470285 0.22095680931815917 -0.07332325636813894 0.20032139634539337
-0.18474385753735406 0.2328371601319365 -0.18865916418828466 0.17755114396342023 -0.06573653951582444 0.17272407357008096 -0.2544460411011153 -0.030565498093619768
0.18254630192581364 -0.04620581043536243 -0.05863036065191323 0.02470967372861533 0.24726042804219314 0.010270422666102176 -0.040453538231383764 0.17645327556222842
0.11230238968204106 0.054736409891809064 -0.020772713260896653 0.15794770912646552 0.06612903493955244 0.12362105048696895 -0.1832285046434779 0.7390641808911442
-0.016485484741765036 -0.18965060854167354 -0.07144979256740316 0.27699380743146973 0.06077110755204007 0.1757270917777099 -0.06619069459955078 0.019537035889647017
00000000: 989f a0dc 62e8 a6bf 0d0f b8ca ead5 9f3f
00000010: ef4a 3e62 2574 aa3f 84bd 2d74 4694 bb3f
00000020: 99be 1e9e 9a82 613f 95e6 ff47 a380 9ebf
00000030: e489 e39c 9dde b13f 0003 b1d3 677f ab3f
00000040: d88e 8e00 d1d2 d13f 0b50 eb48 864c babf
00000050: 831b e665 9222 c4bf 2708 3f55 3b94 d13f
00000060: 4e18 b49c fb11 c6bf b571 51f9 3fb8 cfbf
00000070: a333 d3a0 844e a83f 0e14 781e 733e b93f
00000080: d373 84df 6585 c1bf 0c94 8d8f 8eda c4bf
00000090: f5aa 171d 6717 b0bf 5dc8 48d6 6991 b9bf
000000a0: a7b6 ccd1 33e2 bb3f 215c e199 a4d3 963f
000000b0: f791 259d c3c9 cabf 2079 9e97 0cb2 c23f
000000c0: 1036 cf30 7e81 b63f c5d0 573b 485e c83f
000000d0: 4ab7 b5ff d0af bbbf bba7 29c1 1cff c43f
000000e0: 1814 06bd 156c d13f 1c4c 1022 2210 a63f
000000f0: 3c37 f08d c9d9 a1bf 3dd2 f970 9ef9 b9bf
00000100: 4a19 676e 8286 ba3f f20e 2103 734f 99bf
00000110: 85af 4402 42f3 d5bf 2d51 b21f b6ae acbf
00000120: 30b5 ed85 8cee c13f 19a9 8756 b58f cd3f
00000130: 40b2 1447 8e60 8f3f 4089 6aec cb8a b73f
00000140: 3dbc ddab 2e55 d13f fae4 3e45 1477 493f
00000150: 5539 feba fd04 c23f 6ac7 1bde f3f4 dc3f
00000160: 48f0 e978 898a aebf ba61 d654 0f84 c0bf
00000170: ebe7 6bac 0348 733f b474 582e e774 acbf
00000180: 778a 9ed6 3ee7 d0bf 66ca 038c 5c92 883f
00000190: 0e5d cd24 05a8 e23f 057c c113 1b1a c6bf
000001a0: d167 1b76 f2e7 c73f 4faa 40e9 130c c53f
000001b0: c831 57f3 bca9 ba3f c55e f469 ee59 92bf
000001c0: 836c eac0 8f2a c9bf e5bf be4b 86e4 a4bf
000001d0: 2da5 2ac5 6c88 a2bf 0a19 c031 e92a 543f
000001e0: f5b5 cccb ae29 b83f 8f35 881d 735c c6bf
000001f0: 7847 09bb 2c29 8abf dd00 bde3 efcb b83f
00000200: 0106 072e 7dd0 be3f 2417 4e98 457b c0bf
00000210: 5afc 4d72 57f0 a73f 83ef 0180 064c ca3f
00000220: 2d02 1bfd 9466 a9bf e395 f820 0413 98bf
00000230: 77a1 48bb 0410 c0bf 3b00 b854 320a c53f
00000240: db1b 01ba 3a96 c1bf 87ea c89b 0bcc c43f
00000250: e85a 2e40 9918 d53f 4b8c 9602 6fe2 cebf
00000260: affc a0be 4b66 c1bf 1568 8a04 b984 c33f
00000270: 23e8 cb75 61c4 c23f 76a9 7e95 eb75 c83f
00000280: 6324 dc5a 93c0 c73f 33e4 fce9 420f b53f
00000290: 46c2 c29d a346 5dbf 9d1e 922e b1ca 9dbf
000002a0: 1133 f573 f8b4 d33f 3733 33fa c1b7 c9bf
000002b0: 63c7 b8c0 ac05 d03f d4bc 1893 7d9f d0bf
000002c0: 1779 7616 af05 d23f 2013 c219 96bf b2bf
000002d0: 7bf7 2cd3 4f8f b5bf 1330 47f0 9e06 ce3f
000002e0: 83a9 c687 081a cdbf 9626 89dc 52e6 c5bf
000002f0: 2e77 a1e2 9183 bb3f 76e1 8990 6cbd 82bf
00000300: bedc c323 90b3 b5bf ac83 864e b2aa dc3f
00000310: b04e 6dde 1d5e acbf 4684 b3ec 2c08 ba3f
00000320: 76b3 396d 5b01 b13f e713 e2bf 2a23 b43f
00000330: f54d acb0 20f9 d0bf 17e4 8f29 21e0 c1bf
00000340: 5975 c79d 7de4 ca3f 4707 09e6 c287 b53f
00000350: cf6d 82b7 7490 93bf 606e f8d3 77de a73f
00000360: f081 e7a3 004a b53f e35b 7c99 226d c4bf
00000370: f5ce dfe0 0f3a c53f 5b28 4d26 5052 c0bf
00000380: 0852 cf94 0d46 e23f 0666 3003 99ed 95bf
00000390: 8539 ff1a e12f 95bf cfc4 02fb 954a 843f
000003a0: 2371 5ebe 6115 c9bf 2176 e9b7 6500 813f
000003b0: ffbd 6fad cc2a d03f df57 0595 0053 a73f
000003c0: 9048 12f7 634a 8f3f 12b9 f9cb 83b7 ce3f
000003d0: 2771 30ae ac31 bcbf 2037 dcee 111f b33f
000003e0: 2158 bf31 2b31 c2bf 3de8 084b 96ae bbbf
000003f0: 56ac c668 40d0 d4bf fce3 e7c3 c510 96bf
00000400: d28e 98db d701 6fbf d9e6 8de3 cfd6 cf3f
00000410: a7e8 fffc f879 d2bf d83e 95ba b81a b13f
00000420: 29bd 4fc1 f5ed d63f 2ddd c42b 4eab ccbf
00000430: d325 f612 e37d b03f f521 cee4 83e1 763f
00000440: 5fb3 d10a 22ed d33f f037 7bb7 2b07 c3bf
00000450: 8d8c 5da1 0463 a2bf 0196 a263 bfe4 b5bf
00000460: c0e6 486b 0e25 b4bf ada2 2476 3c66 d93f
00000470: 2f59 afe8 6046 c4bf ec1b 236a 8aec 9fbf
00000480: 7e91 52e0 6965 b13f 71bf 323d a844 d53f
00000490: 9de8 9bb2 f7ae d6bf f406 a78c ff4d a6bf
000004a0: 20f1 f23a da27 a83f 4f1a 60ff e292 c3bf
000004b0: 5315 e29e 966e 5d3f d397 c322 b91b f03f
000004c0: ec45 9b32 331d 8ebf 1b2e 2a3e 6222 c0bf
000004d0: 48cc 2bd3 d3a8 b6bf cb81 b581 c94a a33f
000004e0: 5949 0663 fe7b c0bf 49c7 4d22 22e6 cd3f
000004f0: d090 0b97 840d dc3f d358 5938 1995 bb3f
00000500: e373 487b f5ac 363f 7076 c9c9 dad3 743f
00000510: 8a83 2b80 e28c b63f ffab c51d 7c28 c2bf
00000520: b88c 8476 4267 963f 9b04 95ca 5602 973f
00000530: e810 fa9b c934 a4bf f25c ecab 80ea c6bf
00000540: c3d9 cfef cc5d eb3f adb5 15ba 4ea8 abbf
00000550: 5d3e 4c72 cc96 ae3f 7374 a092 b111 d1bf
00000560: 4e4c f371 f6ac c33f 5bb7 333a e79e b7bf
00000570: daef 8993 dae7 c3bf d215 f07d 1331 a53f
00000580: e92c 0bda da44 c7bf 4267 13a5 99fd a3bf
00000590: 69e7 7608 c29f b7bf 6fc6 2d1e c783 c33f
000005a0: 2bfd 89f9 79e2 c63f e1fc bf1b 503f d73f
000005b0: 232e ec61 09ca dc3f 9809 8076 c44d b7bf
000005c0: d031 317b b725 7a3f 4b7b d3c0 a3bc cc3f
000005d0: 844c 33d2 c8e7 98bf 4e62 8e86 6d6c b73f
000005e0: 59f0 03ab 56e3 d6bf 3b5d c14b b3cd b53f
000005f0: 7d67 515d 9250 c83f d7ce 3574 647d be3f
00000600: 15b8 2277 2117 9dbf 3d78 3691 3e0d b83f
00000610: ff57 b421 555d d0bf 1f75 4321 0e83 d13f
00000620: 5b77 f471 bc56 d3bf d714 c25e 3b7b 813f
00000630: df42 76ea 1884 ad3f 09af be46 72d2 b1bf
00000640: 050d 5e8f 0189 b03f 2ac9 9ecf 00f0 88bf
00000650: 537b 7493 c71f cbbf 6fe5 e995 bcc4 b8bf
00000660: 0b91 a4e4 4321 c13f b5c6 d872 a453 b13f
00000670: aff2 dff4 e772 afbf 5be6 1692 1d63 bf3f
00000680: 2764 850f fd36 93bf 5489 da5a a331 9cbf
00000690: 87a4 53c7 648a c7bf 7344 ab16 eb53 b4bf
000006a0: 92f6 2e7b 784c bf3f 2e95 91b7 8ccb a93f
000006b0: 5ae7 b7f9 9bae a2bf 1d8a 5a20 9ee6 c03f
000006c0: c5db a862 ec55 b3bf b6fb afa4 446b 92bf
000006d0: 4af0 22a5 2041 c33f 1bc6 3224 3cbc cabf
000006e0: 127d d5ad 3151 763f dbcc ec0e 5048 cc3f
000006f0: 5e2b 231c 50c5 b2bf d80a ffaa 21a4 c93f
00000700: be41 21cd afa5 c7bf 0eb4 07aa 9bcd cd3f
00000710: a0c2 23c6 fb25 c8bf 055b 58f2 feb9 c63f
00000720: cd67 5f1f 1cd4 b0bf 1692 9b8b d21b c63f
00000730: c30f 480c d848 d0bf e6cc cada 8f4c 9fbf
00000740: 6378 635e ad5d c73f 40fd 68b9 49a8 a7bf
00000750: 47f5 1a73 cc04 aebf a2a7 3c22 7e4d 993f
00000760: 93a1 04ce 3aa6 cf3f a16d bccb a808 853f
00000770: c12c 6c7f 53b6 a4bf 9bea e75b 0596 c63f
00000780: 866f f272 d9bf bc3f c183 c524 6906 ac3f
00000790: 1540 6b30 7145 95bf ad90 966a a137 c43f
000007a0: aea4 611a d5ed b03f 6a4e f010 a1a5 bf3f
000007b0: a2c1 9119 0874 c7bf dc51 d2ec 69a6 e73f
000007c0: c160 4c27 92e1 90bf a62e ad9c 7846 c8bf
000007d0: 020b 629a 884a b2bf 3836 073c 44ba d13f
000007e0: 8096 f4fe 631d af3f 1a6d 1ab0 397e c63f
000007f0: b3c6 9a94 dff1 b0bf 94c6 d348 8401 943f

linear_layers.1.layer.bias f8 [100]
-0.05181296743227931 0.07906775790125718 0.023974903508818243 0.16032738329050888 -0.24535266223997867 -0.07870454479458701 -0.0935060078531451 0.033017385084387126
0.025752000270666306 -0.06612875932046454 0.04224153976621576 -0.20261677652964566 -0.061880595396461666 -0.05569113041248167 -0.06302695723445075 -0.0942160389976481
0.10025696634883506 0.1050738285278852 0.0482960539054802 0.10440783416482174 0.0805613152577213 0.06180697131144314 -0.13805106959239222 0.0047812699400093025
-0.055392548769755884 0.0040781985985064275 -0.015748266441691788 -0.06954617914392833 -0.04487339161713221 -0.05449178826330354 -0.07743784394887747 0.06998274309336605
-0.04417861518541501 0.11811356309721424 0.0027051628316016934 0.0037047474401168197 -0.020326207762822457 -0.06751279893795963 0.2611311333691738 0.06383251812379921
-0.08432058676467853 0.0734209952734917 -0.08845219313279115 -0.09528577896647056 0.1010405255179361 0.05768868254374836 -0.09946468223079594 0.11087376402649886
0.006976472878401417 0.052560332114915335 0.04645343408845384 -0.0631342157435056 0.002856589993942292 -0.0744644674696377 0.03651950914866745 0.06353006863406899
-0.11778649230416229 0.13248103761776475 -0.07471532168537327 0.028971491926394623 0.015185641442249882 -0.05252360870992192 -0.05609573924383762 0.03833234999664527
0.02224998563676493 -0.02957422934338191 0.10420173779160204 0.010132722318333762 0.002905940944734441 0.014362630554472495 -0.10437895778107277 -0.06709959333741132
0.005976590160449664 0.09651436995762558 -0.01767441762715446 -0.038724294282809865 0.1295205036119126 -0.0570579748073591 -0.06831158822701737 -0.038049893366240976
0.017342324748520356 0.02795577079802758 -0.047045898921355696 0.08226920377406269 -0.026884953118727434 -0.03123503529062469 -0.07913803208633104 -0.0010311219325942894
-0.035547710636294166 0.035539854472001364 0.04041086703536919 0.06325290142619143 0.10365747583650392 -0.060293442799142144 -0.0021776226544563838 0.12924052740127404
0.056256501734750386 -0.08253559558284641 0.1192592799331232 0.05936320689069792
00000000: 98bd 42b1 3a87 aabf 279c 5ada c83d b43f
00000010: 5c03 fb89 e08c 983f 3468 f191 9b85 c43f
00000020: b953 274e b767 cfbf 2977 f025 fb25 b4bf
00000030: 6f72 b57d 02f0 b7bf 4115 469a a7e7 a03f
00000040: 6c5a e07b bb5e 9a3f 5540 9b7a d0ed b0bf
00000050: a93b a8df aea0 a53f 1a6b 68b6 58ef c9bf
00000060: 2639 f83a d0ae afbf c506 993f 8c83 acbf
00000070: 899e 16e0 8822 b0bf 42e9 40d6 8a1e b8bf
00000080: 5f17 aac7 70aa b93f f359 3151 1ee6 ba3f
00000090: 418b 19a8 42ba a83f 3c21 2fc9 78ba ba3f
000000a0: ebca 5a96 aa9f b43f 4819 e5d0 29a5 af3f
000000b0: e0df 894e a8ab c1bf a637 6960 8695 733f
000000c0: d4fd d082 695c acbf 6d00 b719 4db4 703f
000000d0: 9bd1 5745 5020 90bf 5624 fc44 c7cd b1bf
000000e0: df90 e92a a5f9 a6bf b99e fb00 59e6 abbf
000000f0: b3b1 3b6f f7d2 b3bf 08d1 de98 63ea b13f
00000100: 72cf ce56 949e a6bf fa70 b7c2 b03c be3f
00000110: cef3 8b3c 2329 663f d137 0c23 6b59 6e3f
00000120: a041 5fb6 64d0 94bf 63fd 7fcf 8448 b1bf
00000130: da6e 725b 5fb6 d03f e956 c3f1 5357 b03f
00000140: bda8 88b2 0896 b5bf 4317 8ae5 b7cb b23f
00000150: d6ca c38c cda4 b6bf 0454 6f18 a664 b8bf
00000160: 8291 abb8 cadd b93f fedb bff9 5e89 ad3f
00000170: 16ce 4975 8476 b9bf 896d 7a16 3962 bc3f
00000180: fea8 aaad 5c93 7c3f 473c 0017 30e9 aa3f
00000190: 14c3 6498 bec8 a73f c580 e05f 9029 b0bf
000001a0: 9619 4413 b466 673f ac03 7f74 1a10 b3bf
000001b0: 8543 eb62 afb2 a23f f290 18af 8143 b03f
000001c0: f15f 5b6c 4127 bebf f047 f47d 23f5 c03f
000001d0: 9d17 2617 8b20 b3bf 8a5b 5ce9 b3aa 9d3f
000001e0: 44ed e74a a619 8f3f c3a1 5adb 5fe4 aabf
000001f0: 7494 feaa 94b8 acbf e294 3a3b 4ca0 a33f
00000200: 5be3 9542 b3c8 963f 1740 56ef b448 9ebf
00000210: 1155 0010 f7ac ba3f 5244 d0f7 76c0 843f
00000220: 64b5 4b2a 33ce 673f 37bf 20a4 276a 8d3f
00000230: 016e 0f52 94b8 babf 5786 f55e 702d b1bf
00000240: 48db 7db4 e87a 783f 4ce2 8f6e 2ab5 b83f
00000250: d7e6 bc16 3e19 92bf febc 02b3 abd3 a3bf
00000260: c559 96bb 2094 c03f 3315 8cef b336 adbf
00000270: a373 5f45 de7c b1bf 3fa3 3f8f 467b a3bf
00000280: 9aa9 86b6 2fc2 913f 007d 3f05 70a0 9c3f
00000290: f168 8e6a 6616 a8bf 8274 ad33 980f b53f
000002a0: 8803 99a9 ba87 9bbf 6924 40bc 13fc 9fbf
000002b0: 2d3b aedb 6342 b4bf c0b4 a2be d6e4 50bf
000002c0: 14d8 423d 4f33 a2bf 60dd 52a1 4732 a23f
000002d0: ebcb a3b0 bbb0 a43f a7aa 0097 5731 b03f
000002e0: 5425 b4dc 4b89 ba3f 9c9b f839 c8de aebf
000002f0: a476 af42 ced6 61bf 41cd 401f f48a c03f
00000300: b0b7 46f6 a6cd ac3f d1c1 c883 0d21 b5bf
00000310: 75a9 0eb3 c687 be3f 1aca 5cb0 da64 ae3f
