8_Inv_Lorenz/logs/models/2024-01-12-15-32-36_Lorenz_DNN_100X5/epoch_26000.pt (torch, 100026 bytes, 13 tensors)

alpha f8 [1]
00000000: ca4d dfe6 3ede 2340
9.934073652991078

beta f8 [1]
00000000: 23db 2f16 962e 0540
2.647747205100488

rho f8 [1]
00000000: f091 9dd0 f92a 2e40
15.083937186464908

net.0.layer.weight f8 [128, 1]
00000000: 34e9 e61e 8091 cbbf c61c 3d75 3b6b cc3f
00000010: 00e5 f0a1 6a7d d63f ec6e 83bd 2406 d3bf
00000020: f5cc c2b1 1b45 d63f 68e5 25cc cbf5 d13f
00000030: ef8c 0d46 bfb6 d03f 0b2d 1936 1885 d1bf
00000040: fedf 8dfd a5ca cc3f 074f fdaf 4a28 c9bf
00000050: 60c6 de49 278a c7bf 688c 74db b0a4 c9bf
00000060: 0c54 c618 d72d c53f 83a6 6bfa 193e d23f
00000070: c551 f0d1 f084 d13f 198e 181d 43b8 d4bf
00000080: 71d8 72a4 baf5 c03f 6194 f060 ce82 d43f
00000090: d3b1 5636 d4bb d23f 90c2 ce7d ecae d4bf
000000a0: 70ff 2c0e 9655 d23f bce9 0a08 b61b ccbf
000000b0: 1213 356d 7add cc3f 1768 65a7 dc96 d13f
000000c0: 8f50 db3d a9ac da3f dc29 b89c 1e1e 99bf
000000d0: 0219 c9d6 47ff a53f 89af 94b5 3a65 d6bf
000000e0: c6e5 cb80 2aaa d03f 7136 cb1e 0446 d13f
000000f0: 8ddd 6bcf 037e d63f d6d7 58dd c8d3 d4bf
00000100: ca1f 32d4 9864 d93f 957d 5e57 32e5 d13f
00000110: dc9e 9538 4b83 d1bf 8081 665a 4029 dc3f
00000120: f4fa 6314 f354 d0bf b80e 47d8 f039 d63f
00000130: ee00 95b7 f67a d23f d3cd 1cdd e7ff d5bf
00000140: 5b66 5ae3 5193 d63f cdde aa43 9065 b3bf
00000150: 3a16 c290 d13f d2bf 5e1f 78a4 d704 d8bf
00000160: 1c50 4b80 4749 d7bf 6d3b f456 51e2 d73f
00000170: 039f 7a34 36cb ce3f 9b6b 4501 dbdc d4bf
00000180: 9a7e ef44 ab74 c03f 8b63 d469 9fa5 d6bf
00000190: a4e5 97ae 250a d7bf 1467 4c06 1674 cd3f
000001a0: eb68 b211 0ffe c03f 712b dfb3 6f05 bbbf
000001b0: be40 1385 7687 d4bf 4b2b bc34 84f4 d0bf
000001c0: 8e04 1869 7fb1 cf3f d8fb 336d 6eae d0bf
000001d0: 23f6 1c5f e6dc cb3f 9cbc 61d8 bc41 c0bf
000001e0: c49e 5106 1d33 d43f 4b7c f457 a664 d13f
000001f0: 8d66 b1ec f530 d2bf 5aa0 f8c8 6255 d73f
00000200: 0e05 7032 5417 ccbf d04f 4c6b aba8 e0bf
00000210: 928f cf79 18bb c03f 1654 bbfd 18ff c73f
00000220: e3e4 49cb 62db cf3f be19 7006 2275 d2bf
00000230: c18b 59e6 8b56 d5bf bf18 fc44 d9c0 d43f
00000240: b1b9 9715 d792 d13f 4550 186d 08a4 c7bf
00000250: ef62 f674 5834 d3bf 66c5 aae3 6a60 cf3f
00000260: 75bc 06c8 907d 813f 918d cddd d43b d4bf
00000270: 2380 6f28 dfa5 c5bf b229 4bd6 1739 d63f
00000280: a93a c3f7 804b d03f 216e 0bee 3615 d73f
00000290: 9ccf 6972 f4b2 ca3f 69b0 1745 c969 bdbf
000002a0: eb7d 7725 62ad d2bf 2227 15ae 0c2d d13f
000002b0: 9dfb 9015 9de9 d3bf 08dd c51d 5ad7 d23f
000002c0: 256f 5e41 d80c 883f 765d 68af e305 d6bf
000002d0: 02aa 64c2 3964 cdbf 74e7 5038 fdb6 d0bf
000002e0: 5a56 af1a cd31 b7bf baf5 08a6 0e47 d53f
000002f0: 7208 3232 7ec5 cfbf d5c0 8fa9 54b0 d13f
00000300: 40f7 fa0b 3b4e d0bf 8e84 de18 febc c03f
00000310: be71 d52a ad03 d8bf 2f79 bdb1 90ac c8bf
00000320: 6c30 1ead f669 d0bf 4a3b 94da 7f32 c23f
00000330: 2b31 afca c150 c1bf 81f8 d1b2 415f d93f
00000340: 82fc 4524 7618 d43f a056 de6b e18a d53f
00000350: 334b c8d5 4e69 d0bf 44b4 2ee0 6765 d7bf
00000360: da41 cc28 7a6c cc3f 1f41 cc75 5425 d03f
00000370: 4bad 9d5b 9511 d83f 0736 f9c4 6541 d23f
00000380: 8509 1271 872e d5bf 2d5e 5b19 78f4 9bbf
00000390: 07d5 a0c5 760b d93f 3699 d17d b7f9 d13f
000003a0: ce55 e25a ee72 c93f ee5d 901b fedf d83f
000003b0: f081 a052 cf38 cd3f 3633 041b 0410 c73f
000003c0: c9b7 1ae6 25a8 d03f f2d4 4ffc 6cbf d83f
000003d0: 4b2b 90c2 3788 c63f e018 494b 7cbe cb3f
000003e0: c8f3 417c a707 d03f b5e4 f86d 3e4e d1bf
000003f0: 098d d2ea d46b d1bf aea5 5a73 6f5c d63f
-0.2153778220070507 0.2220224688009919 0.3514048177199385 -0.2972499705044658 0.34796802863566195 0.2806272023804781 0.26115400162798513 -0.27374844821015704
0.22493433838440063 -0.19654210656391788 -0.18390360934204164 -0.20033846583928328 0.1654614325495064 0.2850403733742512 0.2737390566046794 -0.3237464698924853
0.13249905614583526 0.3204837748219856 0.29271416956433177 -0.32317650113967833 0.28647376427033233 -0.21959567444521422 0.22550897915257245 0.27483288142468737
0.4167883972234074 -0.024528959575073603 0.04296326157468579 -0.34992854816913926 0.2603861100938868 0.269898443290777 0.3514413381194224 -0.32542630783006865
0.39676495287175995 0.2796140530790237 -0.27363853956056317 0.44001778438725836 -0.25518490782989933 0.34728642578941615 0.2887551110070622 -0.3437442454625998
0.3527416916127543 -0.07576848651921893 -0.2851451791433167 -0.3752955537934123 -0.3638476136086426 0.37318833819965996 0.24057653009844424 -0.3259799492276955
0.12856045595161875 -0.3538588078968636 -0.35999433565265293 0.23010516459981345 0.13275326122386075 -0.10555170194053944 -0.32076800342202805 -0.26492409849077053
0.24760429984602123 -0.26064644493447764 0.21767882961459958 -0.12700615468518073 0.31561971299241187 0.271768175023628 -0.2842383204893871 0.36458654047101435
-0.21946194136402436 -0.5205895515123249 0.13070970485489092 0.1874724615978784 0.24888262678340486 -0.28839922550869435 -0.3334073781499534 0.32427055107872244
0.27458741291675454 -0.18469338728812282 -0.3000699178897283 0.2451299297004354 0.008540278534239424 -0.31615182552760596 -0.1691245028914646 0.34723468711004124
0.2546083850437904 0.36066983458087704 0.20858626925075618 -0.11489541947202188 -0.2918324819456461 0.26837460518128087 -0.3111336432083876 0.2943940439940467
0.011743249411487586 -0.34410946015983457 -0.22962114326340105 -0.2611687707864043 -0.09060365582930655 0.3324619885860006 -0.24821450663518224 0.2763873725771309
-0.25477482004122365 0.1307675954276743 -0.37522439177498856 -0.19276627234189322 -0.2564675036053419 0.1421661202698153 -0.13527700802513584 0.3964390035906789
0.31399301092455556 0.33660159620317565 -0.2564274871557927 -0.36556431668106293 0.22206046096881843 0.25227843764970886 0.37607320734851574 0.2852415488785884
-0.33096490900074854 -0.027299763248121934 0.3913247041667351 0.28086650168406224 0.19881991803838023 0.3886714238337551 0.22829619917412414 0.1801762706676528
0.2602629420388181 0.38668369903400823 0.17603203773645712 0.21675065685321382 0.2504671777203922 -0.2704006265590338 -0.27220652515298177 0.3493918062691489

net.0.layer.bias f8 [128]
00000000: 1bc0 8341 a63f a33f cc44 7dbd a7f0 643f
00000010: 8b53 e097 4b30 883f 21d1 5f9e 097d c43f
00000020: b664 bbcc 949d c9bf 8316 ffc2 462d b03f
00000030: 3590 2eeb a7f6 c33f bd90 b9a5 e219 ba3f
00000040: 1fef 6ab8 471f af3f ff47 eb8f 49be a43f
00000050: 3a40 eea4 92fa ce3f 2d5f b264 9d28 763f
00000060: 0cd0 32b2 b1c6 a4bf c7c1 db08 35e8 613f
00000070: b52f 8846 b705 c3bf 70a3 463c 07b8 d83f
00000080: 477d c6ff a8d8 cfbf 834a 1411 00af 793f
00000090: de2a a5d2 e26f c1bf 8a5e 5b2d 6a17 b63f
000000a0: 1289 ec39 cdce 923f 55fe 194e 7b4a c53f
000000b0: aa93 c1d5 09d2 96bf 7f69 2fe8 3fd7 a2bf
000000c0: fc29 7ea1 f729 c13f 2b91 3a5b be6b b7bf
000000d0: b92e a67c b9ab c83f 729b 8702 45c3 923f
000000e0: ea2c 42c3 d13f cdbf 3eaf 5dcb e09d c0bf
000000f0: eb28 3d26 dfd9 a33f fabd 43d7 f3fb 673f
00000100: 32d0 c5e0 60d4 84bf e028 4b8a ebc5 b13f
00000110: b5a5 4b6a c9fc 803f 21d4 a2b0 8737 8f3f
00000120: 4d71 94ad b828 7fbf 668f 6f20 32f5 67bf
00000130: 206e 4930 024e 893f c830 69fb a8de 513f
00000140: 945f cfcf 917b b9bf de87 0e0f 8cf8 d33f
00000150: 3b4a c323 c0f1 bb3f 4182 64c5 bad7 a43f
00000160: 353c 9360 b505 d13f 2ecb 3ed9 d288 c0bf
00000170: 28d2 34f2 9787 c1bf 3fc4 c61c db4f 953f
00000180: 1136 b8ce a0b6 c23f 8118 9637 4c73 a43f
00000190: a623 0ae2 e973 a33f a583 15f5 0a1b d1bf
000001a0: 9d60 7734 716d be3f b30f 0f71 4b0d c93f
000001b0: 0b0d 3f51 9d72 8b3f 74e0 4c28 042f bf3f
000001c0: 454a b270 74c3 b6bf 1403 df5a c13a c33f
000001d0: 4d98 2898 d0b9 a3bf acb0 0c49 6c62 cd3f
000001e0: ee26 5f95 618c cabf 39ad c474 fcb4 a43f
000001f0: ab68 4db5 e1e7 b33f 3684 9424 7a3b a2bf
00000200: 01f2 60e6 a6b3 c53f 41da b973 d470 a1bf
00000210: 6e2e 4667 a17f 66bf e2ea a0ff 8e90 c9bf
00000220: 6cda 87bb 74bd d0bf 86b8 1742 b12e c23f
00000230: 5b41 2d7c 88d4 90bf af62 d4e5 e9f0 c1bf
00000240: d041 0360 5cd2 783f 9b61 290b 6f10 c0bf
00000250: 9429 d505 0840 d53f a117 15b2 d90e b8bf
00000260: 0e43 7cad fe57 ba3f 9621 4003 7d81 9a3f
00000270: 0d9a 7df9 c50e 85bf 0cce b561 e5ad a7bf
00000280: f471 abc8 204f adbf f9a1 d5ed c96f bdbf
00000290: bb1f f00d a559 9ebf ef45 8a0d 7137 c0bf
000002a0: 57ff 1d0b 83dd c63f 1c2c 14e8 f5c4 c2bf
000002b0: 5f3b f510 1ddf bb3f a110 cdee af64 94bf
000002c0: 7258 b0a3 7e18 c43f ceb9 1a9d 5148 a1bf
000002d0: 7942 c265 5625 c03f 2aa0 691e 386f b3bf
000002e0: 113b 65b9 3abb bebf d771 8385 5785 7d3f
000002f0: 91b4 cf1b d7f9 8fbf 8287 b8f9 20b4 b9bf
00000300: 7d73 53a6 e2f0 68bf 35ca edaf 733b cfbf
00000310: c523 c765 1dbe 75bf 7e20 248d a5fe bb3f
00000320: 09ce e2d8 d0d1 9c3f 0ad6 2fb5 4c26 ad3f
00000330: bbb7 8057 e354 b2bf 30df 22d4 1862 bcbf
00000340: e7e2 615b 0529 a83f a737 e7b7 da17 8d3f
00000350: 1129 9641 72bb bb3f 8d72 94d1 52f0 82bf
00000360: 1b1c 0475 309a ad3f 52c5 7a62 584b b6bf
00000370: dcd1 0c1d 709d a73f 8dc9 58f1 5f19 d0bf
00000380: 21e3 d671 b5fd b3bf 00e4 bf57 8c1c c83f
00000390: 9a67 577f 0693 babf 285a 988c 43cc bdbf
000003a0: 0d18 0d33 bbda c63f f792 d752 0ab8 a33f
000003b0: 650e aee6 b936 a8bf f403 013e 8fd9 bfbf
000003c0: 8bc2 3646 d371 c1bf 24b4 fc96 14c3 783f
000003d0: 4849 d362 2c6c b1bf 724c fc20 d237 d1bf
000003e0: 342a 9026 a9d9 b0bf 2366 1dc7 ab93 a93f
000003f0: b9ee 7e5c 1658 d03f 2283 48d3 5151 c8bf
0.03759498166789418 0.0025561596084250123 0.01181086594810112 0.1600658438980043 -0.20012149807624774 0.06319086323409277 0.15596484168520566 0.10195747896210867
0.060785523664405476 0.04051427728485634 0.24202187588935137 0.005409827058563893 -0.04057841587328434 0.002185920317849563 -0.14861193603462444 0.3862321938163893
-0.24879944314032285 0.006270408878907066 -0.13622699056062165 0.08629478080126254 0.01836701074638209 0.16633549989272703 -0.02228560797847804 -0.03679847440044436
0.13409324059860228 -0.09148778655304983 0.19274061762222575 0.01832301929416808 -0.22851011308771457 -0.12981805734613688 0.03877160398276821 0.0029277575032364807
-0.010170704707640341 0.06942627073582086 0.008294652515774862 0.015242633893970904 -0.007607194326990485 -0.002924535659518601 0.012355820749852475 0.0010906839576306105
-0.09954177211272813 0.31204511137377533 0.10915757058254709 0.040708386035707374 0.265973419486673 -0.12917552573852603 -0.1369504864357094 0.020812438613294622
0.14619836896638153 0.039942151818693546 0.037993725626683614 -0.26727556165684013 0.1188574555484387 0.19571822185946317 0.013402203599872672 0.12181116088766136
-0.08891990424516745 0.15023056923930567 -0.03852702958492724 0.22956613127587866 -0.20740909379519884 0.04044331479448222 0.07775698353126141 -0.035610024419164096
0.16954504250487903 -0.03406394875212416 -0.0027464058313791317 -0.19972407800545172 -0.26156347573797833 0.14204993941479332 -0.01643574960627468 -0.14016460153722707
0.0060599907303217765 -0.1255015186786864 0.33203316278072603 -0.09397659871782917 0.10290519462092737 0.025884583781619584 -0.01028208415637002 -0.04624859636069453
-0.05724432420331374 -0.11498701149469771 -0.029638842559535066 -0.12669194375170842 0.1786350063593953 -0.1466357596585518 0.10887319244396342 -0.019915341329821094
0.1569975184690438 -0.03375487368372242 0.12613944977467265 -0.07591582052703019 -0.12004439378982236 0.007207242852214488 -0.015613251243815436 -0.10040479752254153
-0.003044550585953264 -0.24400182810093587 -0.005308260759599064 0.10935435005024094 0.02814413379446815 0.05693282806161555 -0.07160778890894808 -0.1108718412314118
0.04718796482570103 0.014205654847412165 0.10832895375475383 -0.009247443219061036 0.05781699589174868 -0.08708717731749019 0.04612303118338776 -0.2515487534430115
-0.07809003857881837 0.18837122234961612 -0.103805929269042 -0.11639806921480356 0.1785501479409394 0.03851349126106201 -0.04729252758900485 -0.12441344512718883
-0.13628617218411807 0.006045418194657013 -0.06805684483268692 -0.26903203221554073 -0.06582123939021117 0.049954765373240194 0.2553764251021949 -0.18998167816700923

net.1.layer.weight f8 [50, 128]
00000000: fd23 d916 f2d1 d5bf 180c b5a0 8ac1 d33f
00000010: 6ebe f44e 5d5c ca3f 513a 827a e096 c2bf
00000020: bdc4 1f26 463d b9bf 3132 2c4a 136c bb3f
00000030: 922b 23d9 c1ce c43f 0cb6 12df 73b0 c8bf
00000040: 2725 60b0 d8d4 bf3f 5381 9c3a 5d21 b0bf
00000050: f6e3 4bac 5fd5 c33f f1fe 9559 d226 b1bf
00000060: 7640 19b2 993c db3f b761 20f7 68dd d43f
00000070: c92c bf5f 2c5d c1bf 4dfc 359b 26e8 b13f
00000080: a883 7681 5675 c9bf 31f3 c669 0214 c03f
00000090: 6621 9a85 7861 c33f fb5c 5b2a c86a b6bf
000000a0: dd1f af46 115b c53f f783 ec84 86d3 a3bf
000000b0: b663 129a 69e4 c33f a69c 99b6 7f21 d03f
000000c0: 2705 fe26 fa62 b03f f358 59e4 c3c3 cabf
000000d0: d86b 6f1d 3fde 7a3f 54e7 3995 e0bb dabf
000000e0: f9cd b8b4 aa3f b6bf 8587 e240 6899 d03f
000000f0: 5d75 6d7f ad5a d03f 2785 5dbe e907 d9bf
00000100: 22ad 3933 7a3f d43f b98c 5807 bb9d cc3f
00000110: ac25 c6e6 4192 d1bf 8fbd f624 2d96 c03f
00000120: a357 a42c 86c3 a2bf 68b5 0791 b3ea cf3f
00000130: 119c e60e c011 c93f 57b1 aeb9 046b bdbf
00000140: 4f23 1663 4724 d43f cf9a 398c b11c b73f
00000150: c885 7dac b447 d1bf e3de 0b76 d882 d7bf
00000160: caec f342 8c3e b03f 0d4e 79bc 431e ca3f
00000170: 9ea7 2171 7f86 c1bf a4a8 db9e e1cb c9bf
00000180: 1019 be69 2a73 cd3f bc1d c8cc 32ae d9bf
00000190: e8a8 a29e 32f7 d3bf 8b1e b637 55a1 adbf
000001a0: 6a8e cd1f 9296 93bf b0d5 da30 a26f d13f
000001b0: 9381 b0b9 1780 d3bf da6a aa3c 7f2f b93f
000001c0: caf8 ca45 fb92 ca3f 1323 6146 4493 b2bf
000001d0: 9933 42ce 1dd5 c73f 493c 2bc1 87b5 98bf
000001e0: cbb8 b06a 4746 b73f 3135 2fe2 0bb2 d13f
000001f0: 0b16 eb0b c7ac c0bf 61cb f163 1c1a d53f
00000200: 4526 80b8 3e63 c5bf cbe3 b433 6295 aebf
00000210: 3bd3 1bff 6588 c13f e8d4 9796 1ee0 cebf
00000220: cad0 f957 7ae7 d4bf 28d3 b1c0 8fcb c4bf
00000230: d8c6 e798 c672 d6bf efdc 3d45 f3fc aabf
00000240: 418d f185 9e7d c43f 6da9 1f08 aa1c cabf
00000250: b096 fbaf 61da d13f 7a68 92e2 9c3c c53f
00000260: bc72 65ac 559e c23f 1b39 d21f 3941 d2bf
00000270: 6ba2 99f4 14a8 d1bf d29f 782d 9de1 d53f
00000280: 495c f665 d872 b33f d4c6 efa9 5c84 c03f
00000290: 44ed 7082 b2e9 db3f 2cba a9a1 03e6 68bf
000002a0: 9e73 008f 9c0f c9bf 7e4c 4a9b 237e c7bf
000002b0: 5728 b216 c3a2 89bf 1ae7 5d5b 999b d73f
000002c0: 30fb b6ba 8bbb cd3f bd8f 8621 50de d6bf
000002d0: 0fdf 7338 3d9f b9bf efc7 1927 79c1 cebf
000002e0: 361e ae9c 2200 a8bf 9454 8d12 8c8a c83f
000002f0: b833 c8bf 6495 c2bf 03ab 0fc3 04eb ae3f
00000300: 4f8a 8927 b6f7 c8bf 4928 8325 bbe2 d4bf
00000310: 9ca1 73fd fcb8 d8bf 6252 47de bbee bdbf
00000320: ca8e c0a5 9657 cbbf 3242 a3af 5b3e d13f
00000330: c883 7e8c 9444 bfbf d66e 7518 3a32 cb3f
00000340: eee3 faf5 3798 d23f b033 f485 0b9c d13f
00000350: 35cb 6570 ae7b d7bf 1114 1b7c 3a50 d4bf
00000360: 7b1c 0bd5 3b8b a63f 0770 ce4c 19cd c03f
00000370: 4daa e525 87b1 d83f 6637 1f00 a711 d0bf
00000380: 0344 d25c 3535 d6bf c04b 7b4d 37d2 59bf
00000390: b90d 3aca bd1b ca3f 0be8 d21e c5c4 d33f
000003a0: 96ad 817c a2d2 c53f 3c6b 225d c2f2 d63f
000003b0: 29c8 32d4 57fe c33f 3c08 f48c 4572 c4bf
000003c0: fabe 8c00 b726 b33f 0ec7 81b9 d8f3 d43f
000003d0: c4e4 391f 7735 c43f 55fd cdca bcb1 cfbf
000003e0: 54a4 7a6e e751 c73f 626c 83c6 d197 c1bf
000003f0: 0e31 84c1 76d8 af3f b7b4 6325 d217 b2bf
00000400: 2429 5ffd 667a b9bf 025a adab 9d05 af3f
00000410: aa84 9e15 aaaa b4bf 389a 8d0b ef8e babf
00000420: b3ef dfb0 58a9 d83f 1e3d 081f f6f3 c73f
00000430: 123d d544 81fc b8bf ec84 0872 ed6f d2bf
00000440: cf03 2856 4df6 ca3f 09f4 1d74 88e5 b1bf
00000450: 2d4b 55de 9d46 d4bf 9585 ebcf 6b8d a33f
00000460: 0c80 21fd 4259 753f 64ee dae6 772a 903f
00000470: 6c55 fd5f d220 d73f 0bde bf8a e4f2 d3bf
00000480: 0c47 0ae1 6834 b4bf 5f40 e8a5 1405 d23f
00000490: cd97 e8ea 6080 d83f 1ca8 41c5 d032 a13f
000004a0: aee7 60d1 235e abbf 1b66 47cc 3c3d e2bf
000004b0: 3ba5 84f9 7253 d03f d2ff e2dc bafe ab3f
000004c0: 8970 aea3 8056 b3bf 4eec 4b4e 2cb9 c43f
000004d0: 8a94 091e 4885 c2bf 6aff b1fd 7dbd c8bf
000004e0: 836d 5d18 1cde d93f 54d7 8d8f 6edb c13f
000004f0: 27ca 1959 b338 ac3f 0f3b 319f 910d c5bf
00000500: 5e75 b7ce aa13 ca3f fb6a 0464 2058 b73f
00000510: 6e01 de15 cda1 d0bf bcce da96 937d c23f
00000520: 9991 beb9 55a6 b53f 8a74 3441 db5a d13f
00000530: 4c20 451b fd7e 973f c613 4b84 bf45 c5bf
00000540: 50e8 2160 fdf4 c13f bbe3 2abe ef58 e0bf
00000550: 92b6 fa9d e94b 9ebf 54aa 5fae ebf7 97bf
00000560: ca43 6dc4 6099 dfbf 06be 91c1 7565 d43f
00000570: b05a db5f 9255 e03f f95d 90ae 2df4 b1bf
00000580: 7218 77fb a969 c2bf ff86 3214 8128 d2bf
00000590: c62a 6b90 c80d d2bf 919f b776 9a85 e33f
000005a0: 316b 3d3a 204e b03f cc31 9a5c 4e7b ccbf
000005b0: 0950 5a4a 2d11 b33f 6b54 a2d3 6548 ddbf
000005c0: b3fe 87e5 97a3 ae3f 872d d9e6 bb6a dbbf
000005d0: 7ec2 d113 eca3 c83f 83ca 9e80 698e ddbf
000005e0: ec26 0271 e16c e33f d340 5b84 36b1 96bf
000005f0: d15f 8827 3a4f afbf a6dc d3eb e967 d33f
00000600: 8bc5 162e c03f d4bf 12f4 9d38 73fa a83f
00000610: 59fe 309b c226 a3bf 2b4d 3498 58e7 d73f
00000620: cebf 373d 77a3 de3f 978c 18e6 b505 d9bf
00000630: 35fb 8de9 e8c0 c7bf 3fec 611e 72fc c33f
00000640: 0ef1 ed67 fada bb3f 3700 4657 7a9e a3bf
00000650: 74bc 0bc0 6698 d9bf 7852 86ad fac0 ac3f
00000660: 7268 9b10 c1ad ad3f ec19 8597 7848 ccbf
00000670: 1aa6 0151 cda7 9f3f 1a68 fd95 9973 a7bf
00000680: 4547 a3ae c5c4 c43f 2180 43a1 9710 cc3f
00000690: bac2 6cda c7a0 d13f 8c99 0c87 0d9c a8bf
000006a0: 6d40 9a81 aa06 dabf 3aeb 1f95 a760 e03f
000006b0: 4a05 0378 cec2 d4bf 3f4d e847 0d6a 9cbf
000006c0: 9438 0c50 512e 8d3f 26a1 8969 17ac 91bf
000006d0: 7c45 2986 45a5 d8bf c3b8 634e 50f4 bf3f
000006e0: acac 455e 32ed c23f ea66 1991 22db c93f
000006f0: 902f 02d2 909c bebf 9272 022a 3d35 d03f
00000700: 2ff1 2b8a 4b64 c1bf 1ba1 2031 5ad5 dc3f
00000710: e9ab 6f6f 5a73 6b3f eb7d 9f1b d42f cbbf
00000720: c2a6 e00d b056 883f 9588 c28f 16fc a4bf
00000730: bdce e43b 6a53 bebf 1c90 89d7 acb5 c73f
00000740: a198 c34f a878 91bf 550b 50f2 f002 c33f
00000750: 5844 5b21 8c89 8d3f 1e0d 00a9 8efb b0bf
00000760: b12a b494 fb4c 81bf 23e8 188c d110 c13f
00000770: a3e2 95a6 4aea aabf 66d3 4060 063c e23f
00000780: 3f85 d0c0 1fcb afbf 9b81 8090 96a0 d2bf
00000790: 88bf 7633 168e c23f 97e7 2cee 2dad d53f
000007a0: a57d 3cb6 c62e 953f 5b86 f60e a90f d03f
000007b0: 08da e379 3cf4 c83f dfb3 e703 38ff e33f
000007c0: bbb5 a7d2 4568 b43f dc57 b46d 2b8a 873f
000007d0: 68a9 71a3 5588 bd3f 835b 8a9e 8d5f d53f
000007e0: ad83 2366 2e25 c83f bfaa b84e d127 abbf
000007f0: d9bd 2fa0 fce3 dabf 5469 60b4 6eb7 e13f
-0.34093906623144205 0.308687836590424 0.20594374041819513 -0.1452293966471694 -0.09859121733440453 0.10711784897666445 0.16255972959910686 -0.19288490669480074
0.12434152895015825 -0.06300909691754457 0.1549491492549177 -0.06699862181812556 0.42557375328488634 0.3260137952179564 -0.13565592455993272 0.0699485901768508
-0.19889336892540865 0.12561063923740215 0.15141207240618398 -0.08756686243156146 0.16684165908213702 -0.038723186231670974 0.15540809653319138 0.25204460937534134
0.06401027156791327 -0.209099279879133 0.006559607069870098 -0.41771711895818453 -0.08690897857814396 0.2593632348672304 0.25553452915285907 -0.3911079749141941
0.31637434961767685 0.22356355532347097 -0.2745518449451889 0.12958301834940442 -0.0366479806418021 0.24935001927898814 0.19585419395045325 -0.1149142220808178
0.3147142856255884 0.09028157876455654 -0.2700015720821196 -0.3673611786648349 0.06345440516081449 0.20404860213112422 -0.13691704772946606 -0.20153446442356426
0.23007707751475737 -0.4012572288342786 -0.31196275226342474 -0.05787149720259518 -0.019129069510553633 0.2724385716531641 -0.30469315656412127 0.0983809970006563
0.20761052043775968 -0.07255961149452288 0.18619129725666708 -0.024129983105748463 0.09091612200492986 0.2764920910675129 -0.1302727516360139 0.3297186828632928
-0.16709121712510658 -0.05973345643219082 0.1369750495574865 -0.2412145839040598 -0.3266282900942882 -0.1624622050182094 -0.3507553570953923 -0.05271110744700446
0.16008359470570535 -0.20399976154960645 0.2789539545613975 0.16591225684243566 0.1454569904116364 -0.28523090465104567 -0.2758839024232091 0.34189538422151344
0.07597115029635505 0.12903936670004745 0.43613875139609015 -0.0030393668105752805 -0.19578892691143052 -0.18353695948153254 -0.012517475252270467 0.368872012353323
0.23228594414646286 -0.3573189093970049 -0.1000860464881692 -0.2402793351098462 -0.04687603151893109 0.19172812372076875 -0.14518412937505132 0.060386799632246045
-0.19505955629854774 -0.32633856452287496 -0.38629078627720914 -0.1169240396187177 -0.21361048787468057 0.26943103935358004 -0.12214020185503138 0.21247030443452414
0.29054068585861514 0.2751492317336739 -0.36692391372996563 -0.31739675636009773 0.044031018978380985 0.13125911951362942 0.38583544445888124 -0.25107741367252456
-0.3469975859125613 -0.0015759983124794402 0.20397159933427902 0.3088848877920333 0.1704905612890399 0.3585668477550603 0.15619943486450552 -0.15973729498370115
0.07480949176237664 0.32738321414864024 0.15788163208688932 -0.24761161711283344 0.18218701261983716 -0.13744566147838372 0.06219836342106265 -0.07067597782925615
-0.09952396093209309 0.06058972092312233 -0.08072913196385181 -0.10374349624690005 0.3853360869686597 0.18713261142009058 -0.09760291986934913 -0.28808151374876334
0.21064154345370276 -0.06990864596259895 -0.316810099718327 0.03818833268247627 0.0052120796918586725 0.015787003960879523 0.3613782822988785 -0.3116999964690598
-0.07892470831054882 0.2815600986659827 0.3828356069592445 0.03359081657329474 -0.05345260554209062 -0.5699752797910976 0.2550933300686499 0.05467781015749974
-0.07553867336395305 0.1619010336215489 -0.1446924349467376 -0.1932828415629005 0.4041815030993449 0.13950902947879718 0.05512009108214882 -0.16447658799230466
0.20372519582353282 0.09118845407321523 -0.2598755563303915 0.1444572912783907 0.08456931862617124 0.2711704384581216 0.022945360936575107 -0.16619104346878383
0.14028899377791726 -0.5108565057954516 -0.02958645846108838 -0.02340667964737471 -0.4937364500265714 0.3186926260304691 0.510445773334899 -0.07013211738409798
-0.14384960917067563 -0.28372218105697294 -0.28209127524739264 0.6100590056130263 0.06369210645554514 -0.2225130035552766 0.07448084893468389 -0.4575438086261047
0.05984186818022632 -0.42838952583107254 0.19250250785582418 -0.46181714592527373 0.6070410926051557 -0.022160388782879913 -0.06115133030488063 0.30321739225423483
-0.3163910341346187 0.048785782490974 -0.03740509170938528 0.3734952436800138 0.4787271592931547 -0.39097354383756894 -0.18557464031251816 0.156141533694468
0.10881009137478179 -0.038318465379234494 -0.39992684130169853 0.05615981453153024 0.057966264035443596 -0.22096164129671025 0.03091355139659955 -0.04580383258753802
0.16225501086460717 0.21925635694697213 0.2754382737212314 -0.04806558869886421 -0.4066568627977237 0.5117986595717874 -0.324390046309493 -0.027748305810814996
0.01424850011383353 -0.017258039299492677 -0.38508737661057757 0.12482168115431862 0.14786367037900072 0.20199997029231237 -0.11957650305902079 0.25324944593902743
-0.13587326285040421 0.45052199170688007 0.003350903159561981 -0.21239711140422854 0.011884093688496637 -0.040985779808822155 -0.11846031152964094 0.18523178600583
-0.017061834209834207 0.1485272582213734 0.01442250706478114 -0.06633845926267098 -0.008447614169673075 0.1333257612294015 -0.052568753085272556 0.5698272590585531
-0.0620965884084037 -0.29105152236481907 0.14496114266284743 0.3386950326854445 0.020686249611683433 0.2509558340189863 0.1949534983793486 0.6249046398421533
0.07971607582995592 0.01149400642911396 0.11536154976207558 0.33395710451571164 0.18863468157999588 -0.0530381592364697 -0.42016521113597843 0.5536416552525147

net.1.layer.bias f8 [50]
00000000: 1b85 7be1 e2c7 af3f 8ee5 2795 8781 96bf
00000010: f674 64ef 662e b43f cfad f9eb b85b a9bf
00000020: 38b0 3eb8 71fc a23f 7afa 32e4 f284 adbf
00000030: 7205 2e4f dfe8 9e3f 92be d842 0759 cbbf
00000040: 0824 d63d 3887 9a3f d674 b848 c10e 823f
00000050: b682 6f04 b51f b13f 4da1 f790 b179 b03f
00000060: 286b ca41 1750 9ebf aa10 9098 a214 bc3f
00000070: 9d8f e3cb de3e a13f ecc0 d1f9 33b7 81bf
00000080: 2773 f0ed e995 b0bf 473d d1e0 c5cf a5bf
00000090: 7fe6 40ef 66c9 aebf cc66 c82e cc53 933f
000000a0: 1da1 9c7d 3541 a2bf f20b c689 4043 bdbf
000000b0: 565e d99f b42c aabf 1675 f78a 51ed b63f
000000c0: d1ea 8739 adcb 8a3f a032 3f1a 7330 b33f
000000d0: 4484 d965 62ad c93f 9723 1cb6 1c59 90bf
000000e0: 47f1 7139 3228 a23f 0c93 1c9d c251 ab3f
000000f0: f8f3 0e6d b806 c2bf b807 4e8e 0f9f ab3f
00000100: c0ab 39be 991a 95bf aba3 c23d 75b0 ad3f
00000110: 822c 9a35 86e3 a7bf f610 c72a d3f1 b4bf
00000120: 2f42 d5c9 2390 62bf 4411 00b5 1f3f a23f
00000130: cb36 4b49 ee3c b0bf 2038 07f5 ef35 bcbf
00000140: a4ac eb38 3b07 833f e2d9 4576 d74d a2bf
00000150: 53c9 0dc2 b1de 83bf 9066 f9c7 1b80 b33f
00000160: 539f 9857 3346 b03f fde7 ce5a e186 b3bf
00000170: f006 141d f61d a0bf aba5 cbe7 e38b 8ebf
00000180: c161 3917 5e6e bdbf 2132 edf6 d0ee bebf
0.06207188608619615 -0.02197849128603973 0.07883303970853092 -0.04952791100080455 0.03708224653323139 -0.0576549438060185 0.030185212333440466 -0.2136544300460526
0.025906447195243515 0.008817205459360638 0.06689006193438271 0.06435689725151868 -0.029602397337480074 0.10968986725498789 0.033682787312300656 -0.008650213300115138
-0.06478750285209554 -0.04260080689766226 -0.060130325990439985 0.01887434993304886 -0.03565375479075981 -0.1143074356423737 -0.051122326386288705 0.0895586933397293
0.013083794897274544 0.07495803252022393 0.2006037709534515 -0.015964935889346412 0.035462922584857774 0.05335815589777412 -0.14083009076230701 0.05394791233176427
-0.020609285579137326 0.05798689249906571 -0.04665774730991591 -0.08181495470404684 -0.0022659968368901255 0.03563784679866669 -0.0634297303142503 -0.11019801838048737
0.009291136431292486 -0.035750134646992185 -0.009702099546960474 0.07617353088553558 0.06357117546633377 -0.07627685992238749 -0.031478587197865227 -0.014915256987893274
-0.11496532504077718 -0.12083154705505496

net.2.layer.weight f8 [50, 50]
00000000: 6a9f 1207 bfda c73f 6606 4319 54d4 c53f
00000010: 44c4 c090 a163 c03f 9eec 5529 7229 94bf
00000020: 34aa a409 7368 adbf f068 7200 2e49 d6bf
00000030: dd0a a18a 18ab d53f 77b0 e744 97e1 af3f
00000040: 1589 4c24 5d44 bb3f 4985 da4e 298f cf3f
00000050: fd11 fd38 dc67 bdbf b6b2 5437 82d0 a5bf
00000060: cf53 afbf 2f1b d3bf 3ce1 abfb 09fe b5bf
00000070: ac0c b50a 1dc2 d13f 057b 9df1 5d20 d5bf
00000080: c3d2 192e 8aa2 d6bf fd37 a3a1 31da d5bf
00000090: 99b3 d804 5dca db3f d833 f964 d8cd b7bf
000000a0: 4dd6 a06d 9012 d2bf bb45 522d b4a0 c03f
000000b0: 6e3d 8884 082f 8bbf afca 3cbf 86d2 d4bf
000000c0: 6370 1b64 e3b4 c53f 2eea dae0 98e2 d63f
000000d0: ff3b d326 51f6 c73f 9144 d650 42ab d8bf
000000e0: a568 5f89 9cd0 56bf fcde f5a5 e195 873f
000000f0: f9b9 b818 ffc8 ab3f 3bf0 16c1 cc26 c9bf
00000100: 0276 f4a9 5a62 c6bf e727 b727 f174 b5bf
00000110: b8d2 9825 d2ce c1bf 9c49 df1d 2068 c63f
00000120: 6f4c 0331 2d30 be3f 0e99 e6bd 76f0 d63f
00000130: 0f1b 1e88 ecf3 b43f adc0 8d0a c628 af3f
00000140: 16ed 4b26 d0d0 da3f 0167 7097 bc09 cabf
00000150: 354f 63cd 202b d13f ba62 ae49 725e d4bf
00000160: 1010 731a 2555 933f d5b5 f92a 2324 cf3f
00000170: 8024 c4f2 0122 b93f 5719 7a3f e861 d2bf
00000180: 2575 1bfd f34a b93f 9585 a8fa 179e c33f
00000190: 27ef 9222 247d b6bf 4869 5337 6646 c13f
000001a0: 55b8 0844 6a86 b7bf bd17 f565 8587 cb3f
000001b0: b5ad 0d3f 6772 bb3f c68c bcba 2e03 c7bf
000001c0: 155f 370f 0f37 b23f 7013 7e67 6da4 ac3f
000001d0: a1e4 46df fcac ba3f a77f 1076 1a07 d5bf
000001e0: b141 3098 f4e8 d0bf e78f bcc0 b435 9e3f
000001f0: f932 dd4d d4a7 c43f df0b 5a8d 8da4 c03f
00000200: 2798 8906 89a0 c13f 07c3 2791 4c9f a7bf
00000210: 5cd8 0d32 769a cb3f 9727 441d 434d b73f
00000220: db57 2265 439d d13f e8fc 3493 ba06 b3bf
00000230: 5ac3 1dde 381a b9bf 87a7 b960 2d89 763f
00000240: 0b50 4c9e b20a c13f 0924 095c 17c2 babf
00000250: 49f6 8242 d73c bdbf bc23 4b82 cc82 b8bf
00000260: d1f6 a72b cd5e 993f f588 f869 a208 c33f
00000270: ccc9 24df 63f8 c7bf 8821 520f 7ca5 d1bf
00000280: caa7 2cc0 4458 613f b144 0b55 1c43 c0bf
00000290: 9048 e5d2 4f8a cd3f 69ec 6193 9003 d2bf
000002a0: 7e94 3501 4611 c33f 1616 6391 2a95 543f
000002b0: fb2e b6f0 2116 cfbf 74c6 bc1e b2d7 c0bf
000002c0: 52a3 0a88 ee65 82bf 8284 0832 2192 ae3f
000002d0: 5b51 2eed 8495 cbbf 772f bdfe bc6f ca3f
000002e0: f909 53f5 f83f c9bf 3716 eb07 4825 cfbf
000002f0: f4ff 77c2 6fcb d0bf 06f3 341d 8134 a0bf
00000300: 39ec 7205 bc89 c9bf 511c 8487 3740 b63f
00000310: b8f9 d3f9 086d bebf e1a4 1170 c6bb bbbf
00000320: c9a3 f503 9079 cdbf e0a8 69ea c30b e53f
00000330: fcc1 7d8b 8ad8 a4bf c0b6 0e49 f50f c23f
00000340: c16f 1595 51d3 c2bf f3b0 7f57 28c2 d23f
00000350: 50e9 9556 c018 b2bf 7663 9cd0 59ae de3f
00000360: b0ce 6961 d040 d0bf 6301 0eb5 aca9 ce3f
00000370: 8b3b f7ed be89 b8bf 4007 e45c 4931 cabf
00000380: fdbc 5d70 24ed b3bf 331e 6acf 1ff5 bbbf
00000390: e1ab 9b61 2963 5abf 2599 0161 a428 aebf
000003a0: 32b0 d0db d61f babf b849 2fbf a353 c4bf
000003b0: 172e 163a 8038 b7bf 32ac a4f4 9728 c4bf
000003c0: 4320 f773 4436 b13f bb50 ca68 79fa bc3f
000003d0: 5e98 bf0f 5c01 b13f 03e0 747d 4407 d7bf
000003e0: af3d b380 76da ca3f 384b 9c1a 1aa6 afbf
000003f0: 743f 9a54 d6c6 c8bf 9887 0449 c919 c4bf
00000400: 954c e2d6 8726 c53f 4d93 3133 e6ad cdbf
00000410: 6d30 26a8 9cf4 dd3f 8cce a0f0 90a0 c9bf
00000420: 07d0 9dc6 fa6c cdbf f8ad 2c43 e677 e6bf
00000430: 0af6 8866 5e8b bebf f2b9 156f 1ead a4bf
00000440: b409 ad69 5240 ccbf 333a d8a8 e438 b7bf
00000450: 697d 94d2 3d07 c3bf 3ead aacc 724e a03f
00000460: 140a 6085 0c9f bfbf 2cef d8aa 0b90 913f
00000470: df19 3f83 203f c73f 5a17 f78d 8aed d1bf
00000480: df12 589b 3f15 c63f f08e 9d29 6ef6 c0bf
00000490: 8276 f799 d0d6 ec3f ea72 0025 f12a c8bf
000004a0: 934c ce62 058a de3f 1bca 86af bba9 d73f
000004b0: 7fd5 364e b486 c3bf d7e5 1d27 6a7c c83f
000004c0: ec6e 72b0 b799 cfbf 7c8e 2d01 4230 c5bf
000004d0: 014e ee73 b8b5 b2bf bc0c 5a6a 3c9e a43f
000004e0: dcde 968d a7f9 b73f 92dd f217 8bf8 a33f
000004f0: 4a86 f8f8 f77b b03f df33 da9d d696 9a3f
00000500: 5fff 54c9 7888 a23f d726 a490 59b7 c5bf
00000510: cf18 5bd1 5308 c83f 555e 71c0 dc6f c3bf
00000520: 0ba1 5b84 5e07 c8bf 31ab 3169 6742 ca3f
00000530: c5ff 9ff2 f738 b13f f721 d59b bc6d cbbf
00000540: ed05 28f8 9aa8 ccbf a18d 75ec 1401 c7bf
00000550: 8dce fe8b 8324 b0bf bf0c 5ae6 3728 b63f
00000560: 73dd 73f5 17e7 c23f e6e6 36b3 d28d c83f
00000570: a3b9 c5db 0ce6 913f fe8c 7b7f f39d 793f
00000580: 23ed 9c68 22f8 d1bf 3573 dfa3 602b a73f
00000590: 5b9e b2cb abf0 d0bf 0b0f 7f00 26dc d3bf
000005a0: 042b 0d57 06bb c83f fc4d 3eba ab6c c03f
000005b0: ebc8 fc75 f178 bb3f feab 18cd 92f4 8d3f
000005c0: 25ef 84f2 38a8 cc3f 5286 61eb aba3 ca3f
000005d0: dc27 63c3 96b5 b8bf 8394 8659 f49a b8bf
000005e0: c76c 8c51 f889 b23f ad9e fd89 3f60 c0bf
000005f0: fb7a b30d 0178 cdbf f3d2 f4be faad ba3f
00000600: f02a 5ac5 498d bfbf c610 944e 3043 99bf
00000610: 9d20 5d78 5877 afbf 72ee 7c54 9499 cd3f
00000620: 0601 5862 e8f5 b5bf 5a77 ce05 621f c23f
00000630: ef3b f762 7cf3 b5bf 906b 0ec8 c236 d03f
00000640: fe36 1fc0 8f2b cabf 3cea d6a6 c85c e13f
00000650: 980b 15cf 12d3 ad3f bf85 ae17 7d7b b73f
00000660: 2fac ccb3 8ac0 babf e09c 645c 3375 923f
00000670: 409d 2a70 8cdc d03f a156 41d5 d6df e13f
00000680: d5a2 b26e 1cfc d93f cb21 1de4 93bb 95bf
00000690: 695c 7035 24a1 c3bf 7fe4 ecaa 3f07 d6bf
000006a0: 303b 55bd 060f d9bf 4ea8 ef9b d871 ecbf
000006b0: 9821 631a 666f c6bf cac6 ecb7 14a5 babf
000006c0: 0b7b 9227 0583 d7bf 09a3 1311 0a09 dbbf
000006d0: af18 794a 4ce1 d43f 3b4f 21c1 5e63 e33f
000006e0: 6f64 2503 6d89 b1bf b615 a0a3 d197 da3f
000006f0: 242e 6423 32cf e23f e150 83a2 6c3e c7bf
00000700: df49 7f9f efa8 acbf ae27 dd8a 5bfc ae3f
00000710: e040 29d4 ac1d e1bf 115e 09ac daa0 d3bf
00000720: 3826 067e 9e5a b23f ba88 552f a70f cabf
00000730: 5e09 6157 c7de e13f 1d1e b8c2 6440 e2bf
00000740: 78ac 1c7c d318 acbf 1ca9 7269 9f72 e4bf
00000750: c392 9800 7a91 c4bf fe71 aa58 9558 ea3f
00000760: 1b31 a276 8c32 b03f 0a59 077a 1362 d03f
00000770: 12d6 dd87 b51b d23f 44a2 7c2b 7ca6 ec3f
00000780: e5d2 fa64 78fd a4bf ac18 aeeb 4222 8f3f
00000790: 71f0 f009 139e ce3f d20a 0096 ddef d8bf
000007a0: 4aa6 6777 af2b b1bf 6c66 4ef7 4c1d e33f
000007b0: e03f 60ea 6200 e93f b3eb da52 7ad0 d1bf
000007c0: 4ea0 a7a2 5bf0 da3f d5bf ee3a 7b88 e03f
000007d0: 0004 f1fd 52b1 c53f 199c a8fa 13d9 d23f
000007e0: 6f03 07ab 5722 ba3f a486 baa2 2b5e d1bf
000007f0: 9983 e7b7 6601 c1bf 2af9 f11b 288f c5bf
0.18636310429905772 0.1705422519062722 0.12804050033585856 -0.019689353726317742 -0.05743751042094339 -0.3482165340771095 0.3385678628730327 0.06226799694181378
0.1065118993397259 0.24655643797181373 -0.1148660315639702 -0.04260641980576933 -0.2985343334124168 -0.08590757746049332 0.27747274442317393 -0.3301005229495078
-0.353670640011199 -0.3414424971095967 0.4342262790040024 -0.09298469987079672 -0.28238306718717326 0.12990429127652967 -0.013273302597581273 -0.3253495090058704
0.16958277118726803 0.3575803943491874 0.1872044982505656 -0.3854528226302785 -0.0013925102880337017 0.011516344907007696 0.05426785637643045 -0.19649657657817152
-0.17487653063373904 -0.08381564349761526 -0.13912417255200693 0.17505265673260062 0.11792261549571646 0.35842674775121075 0.081846984130703 0.06085795286969762
0.41899493923092856 -0.20342214006887363 0.26825733239569455 -0.3182645530264768 0.01887948965010372 0.2432903251496287 0.09817516495617618 -0.2872257823841173
0.0987999432504308 0.15326213587927087 -0.08784700244990216 0.13496091557937917 -0.0918947616671358 0.21507327535999635 0.10721440591230798 -0.17978462331766404
0.0711526310109288 0.0559419812043761 0.10420208407494382 -0.32855855493289216 -0.26421847211988864 0.029501747382837975 0.16137174417453773 0.13002175714436157
0.13771164721691884 -0.046137230605273465 0.21565129703566555 0.09102267708308741 0.2752235877645696 -0.07432142347260007 -0.09805636809120469 0.00550191617694818
0.13313896874808537 -0.10452409741368753 -0.11420960782830848 -0.09574583226198191 0.02477570132213353 0.1487010018764249 -0.18726776500405007 -0.275725378953688
0.002117285040545068 -0.1270480551961888 0.230783441521059 -0.28146757500480263 0.14896464404151638 0.0012562671377492943 -0.24286293271540402 -0.13158251286363376
-0.00898348190942647 0.059708630902840745 -0.21550046521282237 0.20653498114040378 -0.19726478556374596 -0.24332523714672202 -0.26241678229416654 -0.031650576415335904
-0.19951582208691024 0.08691737230775344 -0.11885124301259153 -0.1083339713674323 -0.23027229493462034 0.6576861933110898 -0.04071457817815724 0.14111200396785328
-0.14707393435935326 0.29310043854526596 -0.07069017518907583 0.4793915307250737 -0.25395593178766784 0.23955305901109644 -0.0958518343897891 -0.20462910686188174
-0.07783725493731093 -0.1092090493567575 -0.0016105560411527819 -0.058903824655134586 -0.10204832903463126 -0.15880247912589396 -0.09070588510638121 -0.15748881764861405
0.06723430472550355 0.1131969338260345 0.0664269960830963 -0.3598185753976397 0.20979195865809916 -0.06181413245044215 -0.19356803065283723 -0.1570369345218381
0.1652383612859906 -0.23186948299112445 0.46805492802446375 -0.20021259068891017 -0.22988829324788204 -0.7021361648561983 -0.11931409838958743 -0.0403832922555586
-0.22071294937093244 -0.09071187135871454 -0.14865849287250946 0.03184851406453014 -0.1235206437704977 0.01715105276365063 0.18161398323554942 -0.28012336601056165
0.1725234516635714 -0.13252045661931033 0.9012225157891438 -0.18881048495031588 0.47717413567551964 0.3697346891523538 -0.15254834956219196 0.1912968340873664
-0.2468785869176523 -0.16553521211163857 -0.07308533506721206 0.04026974485625476 0.0936531754185767 0.03900561015455674 0.06439161136997842 0.02596602762655553
0.03619744737306862 -0.16965789377746063 0.18775413248494607 -0.1518512668287594 -0.187724890354055 0.20515148769785577 0.06727552102529362 -0.21428639992724616
-0.22389542691239175 -0.17972051187380791 -0.06305715720992051 0.0865511834509105 0.14767741665830733 0.19182809591966715 0.01747913447746331 0.006254149593334589
-0.2807699224101318 0.045252819065103735 -0.2646893967853196 -0.31031179474324294 0.1932075429015968 0.12831636995234408 0.10731419687798265 0.014626643070263508
0.2238837417770522 0.20811985963068708 -0.0965208270091859 -0.09611441789327739 0.07241775504046465 -0.12793726194216984 -0.23022473496435922 0.10421721612949479
-0.12324963634652497 -0.024670367046397933 -0.06145740956577692 0.2312493717707756 -0.08578350449534264 0.14158273013611727 -0.08574654976040084 0.2533423379588209
-0.20445439225152734 0.5425761469444477 0.058250987795438636 0.09172803714911647 -0.10450045480381286 0.018025209917280516 0.26346121743923234 0.5585741200581716
0.40601263819057226 -0.02122336463733791 -0.15335514649698048 -0.3441924256508812 -0.3915421341852605 -0.8888972325924074 -0.1752746228069213 -0.10408143511156279
-0.36737183441611937 -0.42242671649596325 0.32625109932667845 0.6058801433632434 -0.06850320174034306 0.41551629046474703 0.5877924624668975 -0.18159254012301232
-0.055976379604220965 0.06051908559909634 -0.5348724502346407 -0.30669276047180555 0.07169523789175336 -0.20360269366489608 0.5584446627256445 -0.5703605464086113
-0.054876908207313 -0.6389920291451605 -0.1606895926389794 0.823313401389498 0.0632713117249221 0.2559860889135882 0.2829412295171504 0.8953228806831892
-0.04099632485068642 0.015202067201027646 0.23919904694946895 -0.3896402325482714 -0.06707283654363852 0.597326739330311 0.7812971666007762 -0.2783494767315304
0.42092028507477586 0.5166603232410077 0.16947400474057872 0.2944993923032953 0.10208652425263919 -0.27137270823923587 -0.13285526256279637 -0.16843129505645865

net.2.layer.bias f8 [50]
00000000: 5acb e1ba 80b3 a93f 8359 7a16 7831 afbf
00000010: efe4 cc61 a385 89bf 8f74 a746 79f2 abbf
00000020: 6e33 ec66 4934 b5bf a566 b825 13e9 85bf
00000030: 3c00 6a08 0394 783f 84a4 8b94 8e2f 983f
00000040: be2b c0b3 2c2d b1bf af3b ea93 c70a bebf
00000050: 7a82 2740 e54f 98bf 80ef 462a 5908 c23f
00000060: c952 f52d 0bf5 aabf dd82 0bf6 05cf b03f
00000070: 3780 32da 779b abbf d68d 04e8 2ba6 a43f
00000080: 062a 8f7b 91a5 8e3f 7596 da1d 60bf a1bf
00000090: 96c7 f568 3bbc a83f 3457 8030 828d a1bf
000000a0: 10a0 b394 0d4a be3f 28a0 9ac6 2770 b23f
000000b0: dcee 2850 b3d4 c6bf 9f84 cd96 f885 74bf
000000c0: 7be0 4da6 db0d 9f3f ba42 3a6e efd1 ccbf
000000d0: 36a3 89e5 2fa9 9f3f 97d1 8a65 c565 97bf
000000e0: 9068 33b2 9353 b0bf 7750 45f2 1607 a43f
000000f0: d23a ec9a cd6e 98bf 29fe 0a7e d60e 8f3f
00000100: f0ba 3daa ab34 833f 9038 defd d793 b43f
00000110: 8ee5 c23f 58a5 98bf 2561 8def e6a5 4ebf
00000120: 3906 e6e6 becd b1bf 052e 4a97 dedd 9dbf
00000130: dc54 6c3b 329c b73f 342f 0c07 3788 b1bf
00000140: c9c8 1454 fc5b 943f cd20 c207 5684 89bf
00000150: adf8 097d 625b 9bbf 4e72 b824 3f2f 703f
00000160: 514c ca82 261b adbf 0136 7907 9431 a3bf
00000170: 88a1 5225 5792 a83f 3ae7 48b1 70a1 b1bf
00000180: a054 71b1 a1a7 93bf 47ef f854 0027 a5bf
0.050197623074288614 -0.060924294227493035 -0.012461925909166697 -0.054584302782793796 -0.08282908213386772 -0.010698461140282342 0.006000530097139797 0.023618915382858777
-0.06709555996364622 -0.11735198365407372 -0.023742277184171524 0.1408797699385751 -0.052650784835952154 0.06565892464596908 -0.05392050303021317 0.040330288002475775
0.014964233954647643 -0.03466320385386449 0.04831109672785698 -0.03428274957711466 0.11831745987331055 0.07202385519724486 -0.17836610235268935 -0.005010577250545683
0.03032630159893344 -0.22515671617704475 0.03091883505331624 -0.022849163363120786 -0.06377528286557976 0.03911658961683966 -0.0238601804549557 0.015165019723439492
0.009377804882857416 0.08038091609907583 -0.0240682400624102 -0.0009353044143649887 -0.06954568040057375 -0.029166677459711483 0.09222711516152365 -0.06848472520885879
0.019882147437962048 -0.012459442245259212 -0.026715792543193718 0.003951307920513415 -0.05684776636658085 -0.03748762694577224 0.04799148874855336 -0.06886963203660637
-0.019194151358835954 -0.04131318127880817
