8_Inv_Lorenz/logs/models/2024-01-12-15-32-36_Lorenz_DNN_100X5/epoch_32000.pt (torch, 100026 bytes, 13 tensors)

alpha f8 [1]
0	0x4023ddb3f08dcf4b	9.933013455687293

beta f8 [1]
0	0x40052ea8493b25b3	2.647781917684108

rho f8 [1]
0	0x402e2afe5e83c773	15.083971932970348

net.0.layer.weight f8 [128, 1]
0	0xbfcad61e61e5401c	-0.2096593835835855
1	0x3fcbccb49a28397d	0.21718461539462544
2	0x3fd62a51f163d310	0.346333013279307
3	0xbfd2c8403adc86a8	-0.29347234485804075
4	0x3fd5fb9086348427	0.3434792814824185
5	0x3fd1f227c08278de	0.28040498542567416
6	0x3fd099ffcb35623f	0.2593993648966126
7	0xbfd1172ace1f8de9	-0.26703901414131664
8	0x3fcc71a5a194f0bf	0.22221823110328917
9	0xbfc8e9e372ca22b9	-0.19463770966492236
10	0xbfc6996f22179126	-0.176557437559617
11	0xbfc94926b97711ba	-0.19754489952005178
12	0x3fc4320d1148e8e2	0.157777436675878
13	0x3fd1e5886ed95494	0.27963457894413435
14	0x3fd109480a2c9694	0.26619149201938197
15	0xbfd40ece7878951f	-0.31340371861218047
16	0x3fc0bb9337ef1396	0.1307243369211874
17	0x3fd462f1c675a1f2	0.31853908901987815
18	0x3fd26dfe2db1f0ba	0.28796343290720083
19	0xbfd45e40bb4df0bb	-0.3182527379174293
20	0x3fd1de16ea6101f3	0.27918026817863434
21	0xbfcb092230d22d1c	-0.2112162340530198
22	0x3fcbc212674a9af4	0.21686010402228073
23	0x3fd135c9eb741279	0.2689080046987225
24	0x3fda6d01a906dbc4	0.41290322786829514
25	0xbf944539498a9c37	-0.019795317758191735
26	0x3fa4c1b13666332f	0.0405402544884964
27	0xbfd614305ff1f58b	-0.34498223657268373
28	0x3fd07dcdb76cb0da	0.2576784411674119
29	0x3fd0d5e3294927de	0.2630546477490706
30	0x3fd62285ae7f6df8	0.34585706749723455
31	0xbfd452b3cc4818a2	-0.31754774999024893
32	0x3fd92a40b7d68760	0.3932039065640449
33	0x3fd1b0e4dc9f8840	0.27642175240737643
34	0xbfd15138fad86ffe	-0.27058243271471827
35	0x3fdbc5faa63633cb	0.43395868522275965
36	0xbfcfd7857effafdd	-0.24876469327079934
37	0x3fd5f434ef840bce	0.34303019895758957
38	0x3fd21c3313112548	0.28297116148003854
39	0xbfd5c0c69987f9e9	-0.3398910998656946
40	0x3fd628dfb773dc1b	0.34624474444666625
41	0xbfb317ba59c04483	-0.0745808095091594
42	0xbfd1e941ec9065c3	-0.2798619089313343
43	0xbfd7bb9eb52649e6	-0.3708264130629274
44	0xbfd6ec733b909f22	-0.35818177048575894
45	0x3fd781bd6aa8f595	0.3672936956025635
46	0x3fce1da43d78c5db	0.23527958871413443
47	0xbfd48ebb9b356cd6	-0.3212117210111506
48	0x3fc038168fde01fb	0.12671167397276392
49	0xbfd6706bfe6c530d	-0.35061168523797975
50	0xbfd6c2c40eb96060	-0.3556375640669156
51	0x3fcc57993b6f6b66	0.22142329599486316
52	0x3fc10d07d0dc8b45	0.13321016023936685
53	0xbfb970dfff1b5f27	-0.09937858560749345
54	0xbfd43dd9f67260ac	-0.31627511088437177
55	0xbfd09d231406b75c	-0.2595908828324036
56	0x3fcf3329bef6d044	0.24374887298984238
57	0xbfd023757a4573be	-0.2521642393165243
58	0x3fcb72ceaea7553b	0.21444114234933828
59	0xbfbf0a44f1df7980	-0.12125044732190382
60	0x3fd3f3ee3325cdef	0.3117633342255592
61	0x3fd12a94f00fbee9	0.2682239860869076
62	0xbfd1e61cf2cca253	-0.27966998778223234
63	0x3fd6fe79b45b5e52	0.35928194630603116
64	0xbfcb3eff2218a7c6	-0.21286000408991707
65	0xbfe082cb976f008d	-0.5159662206351797
66	0x3fbffcbada4ea40e	0.12495010213628197
67	0x3fc7caff02a21ce1	0.1858824503762895
68	0x3fcef6f8d19a04a2	0.24191198572592493
69	0xbfd218d7f1e79d56	-0.2827663290358563
70	0xbfd52e800407ab54	-0.33096313851881587
71	0x3fd42fa1bdbdf0d7	0.3154072144459525
72	0x3fd14f0f5505908e	0.2704504328050995
73	0xbfc7456a9ba72f93	-0.18180592155692618
74	0xbfd281070548a590	-0.28912520900720384
75	0x3fce22dd9d529492	0.23543901616827562
76	0x3f7f4c623dcdc3c1	0.00764120460085932
77	0xbfd3d9e13d9697a4	-0.31017333044507667
78	0xbfc4c8d08dfdb28d	-0.16237837727694107
79	0x3fd5e04164ee0b64	0.3418124662058999
80	0x3fd013a2972568ae	0.251198432544366
81	0x3fd6a6db0d329d69	0.3539340618976526
82	0x3fc9833cfa9f384c	0.1993175719966892
83	0xbfbc9c2e555f20de	-0.11175813278453314
84	0xbfd2345a2943ae29	-0.28444532422756424
85	0x3fd0d2cc32e58ed6	0.2628660676038924
86	0xbfd38143da3bd6f5	-0.30476471244706654
87	0x3fd291da950ddbd3	0.2901522117239754
88	0x3f85ce6225e6ae4e	0.01064755132832498
89	0xbfd5dde3363488d4	-0.3416679410312444
90	0xbfccb8014b3f890a	-0.22436538862445615
91	0xbfd0709ecc0422f3	-0.25687379764035184
92	0xbfb7107f239d27a4	-0.0900954687068905
93	0x3fd4f401bfcc5642	0.3273929951695643
94	0xbfcf1fb0ebaf448b	-0.24315463550604863
95	0x3fd11b70fbac9d50	0.2672998864895435
96	0xbfd029ead1d25714	-0.25255842676539086
97	0x3fc04de0f5172fbc	0.1273766705256757
98	0xbfd7d7aac76a3dc4	-0.3725382754718931
99	0xbfc831b7dc24eb6e	-0.18901727914075245
100	0xbfd01315318088c7	-0.2511647208613223
101	0x3fc16ede42879ddb	0.13619592903636044
102	0xbfc0f689ee5edf7c	-0.1325237668913778
103	0x3fd8def8db49095b	0.38860913672046643
104	0x3fd3bb9b0d14aaf5	0.30832554128089323
105	0x3fd51f35ed434f64	0.33002994699676536
106	0xbfcfaedd4b21d757	-0.247523938832894
107	0xbfd73dcdfab23da0	-0.36314725381904545
108	0x3fcbd7cfe5b7e6c1	0.21752356259076147
109	0x3fcf67c44916d30a	0.24535420960241822
110	0x3fd7b13e558b4d24	0.3701930842773484
111	0x3fd23abddc2b31b1	0.28483530522205586
112	0xbfd4f187b532df52	-0.32724182791888723
113	0xbf9a2455a9865f3c	-0.02552923056791133
114	0x3fd8cfa0beaac09b	0.3876726018888889
115	0x3fd17e334e4bc9e5	0.2733276619539125
116	0x3fc9344a9a33778f	0.19690830735538298
117	0x3fd8c3254535958e	0.3869107414123726
118	0x3fccb737740fdbc7	0.22434132735335607
119	0x3fc66a493f2c975e	0.17511859497715937
120	0x3fd02e770ce9b5d8	0.2528360010245172
121	0x3fd84b82c2174523	0.3796088118952687
122	0x3fc5a8cc2366a4aa	0.16921378830492034
123	0x3fcaf3b96471084d	0.2105628719746754
124	0x3fcf4e0d9474ec06	0.2445694899450645
125	0xbfd0e4a4ff1e6713	-0.2639553538698333
126	0xbfd11dc3fcca0a33	-0.26744174658248027
127	0x3fd62660c5bc94a2	0.34609240827769316

net.0.layer.bias f8 [128]
0	0x3fa26f6f87e0af79	0.03600643666899734
1	0xbf214d20bfcf9e68	-0.00013199829837095005
2	0x3f8a11c369a431a5	0.012729193364543099
3	0x3fc3984f51c3f314	0.1530856274838689
4	0xbfc8e3989cfbd699	-0.1944456831476387
5	0x3fb21a01af6f518e	0.07070932896687607
6	0x3fc43cf74ec4c825	0.1581105360615435
7	0x3fba4e8a1ec30bf9	0.10276091815016732
8	0x3fade7233b0460ed	0.05840406508849747
9	0x3fa26a16e07dee25	0.03596564760570357
10	0x3fceda328ae2b3ec	0.24103385716935521
11	0x3f629421eff80cb0	0.0022679007377078494
12	0xbfa5375f2fc001d8	-0.04143807847868047
13	0x3f747f6188f21e7f	0.0050042924841658945
14	0xbfc298ce575192d5	-0.1452882696495609
15	0x3fd8c273a3b7992b	0.3868683909226031
16	0xbfcf85d097c560ef	-0.2462712040967356
17	0x3f8642df84cda7b1	0.010869737854324631
18	0xbfc0a026c39bd077	-0.12988743354037854
19	0x3fb58578c821f883	0.0840678680997105
20	0x3f8c6fccb8c2d394	0.01388511599393797
21	0x3fc3c73a0357a455	0.15451741374207253
22	0xbf9aef40bd661a0e	-0.02630330234526395
23	0xbfa116acb420910e	-0.0333761186487057
24	0x3fc12671495fb603	0.13398567278584048
25	0xbfb5c19158e07e72	-0.08498485965582761
26	0x3fc8439f9d61dfbb	0.18956370529826735
27	0x3f8b6ae9ddeda551	0.013387515149320935
28	0xbfcc4df7aa65c02a	-0.22112937755764622
29	0xbfc0de4520f8051f	-0.13178314313703596
30	0x3fa3876d3b1e92de	0.038142598597266306
31	0x3f76286681ce6d95	0.005409622591197834
32	0xbf8249afdfaf5e6a	-0.008929609311891091
33	0x3fb2d9ee9e8a3227	0.07363788004494919
34	0x3f68eeb99d4ec99b	0.003043520477569573
35	0x3f8c1fff45cf3517	0.013732904737390457
36	0xbf694fec7d63a893	-0.003089868444580432
37	0xbf45171d741dbd73	-0.0006436246696760864
38	0x3f7feae8ca2d9d53	0.007792386374468069
39	0x3f5bf6a72b7bf8b3	0.0017067558782737746
40	0xbfb98001f908fb17	-0.09960949258764305
41	0x3fd3bdf00c080e74	0.3084678761954145
42	0x3fbaa46dd31b4446	0.10407148746459524
43	0x3fa4cd1c3f634732	0.04062736772324484
44	0x3fd0a4644e07379c	0.2600336801523271
45	0xbfc0308d8dad6f0c	-0.12648171823354237
46	0xbfc0b298b607358c	-0.1304503334817294
47	0x3f94a16dd478e939	0.020147052853851852
48	0x3fc2956470353a98	0.14518409232046703
49	0x3fa383a8a872e3f9	0.03811385208377511
50	0x3fa1eb97d9bcda61	0.03500055821352955
51	0xbfd0e0eb854d4e2c	-0.26372802751322655
52	0x3fbf87c6834f51bc	0.1231655188160578
53	0x3fc8ffea4613b42a	0.19530991002776094
54	0x3f846726bea61d91	0.009962370579855303
55	0x3fbd9085524b8636	0.11548646220355682
56	0xbfb6e7d6eb7200e0	-0.0894750904863062
57	0x3fc2e66b1da38e71	0.14765681216441665
58	0xbfa0ff222a5341b3	-0.033196513811734184
59	0x3fcd0f0c0b50cb47	0.2270216994525873
60	0xbfc99a946873aaa5	-0.20002989864527368
61	0x3fa4cbf3c4a76164	0.040618531947702846
62	0x3fb33f40766698f7	0.07518389597553098
63	0xbfa0b7b11b7944aa	-0.03265145740864146
64	0x3fc5e41519cc6b79	0.17102302322095023
65	0xbfa25bb4c73a2869	-0.03585591251346971
66	0xbf5f60d587942066	-0.001915176892284287
67	0xbfc8e0c93faf92d4	-0.19435992822322723
68	0xbfd0482744ba37bd	-0.2544038935819762
69	0x3fc197d8e87159c6	0.1374465117430203
70	0xbf92f755a3f40c7c	-0.018521631366649846
71	0xbfc1d04b42b22995	-0.13916912800443684
72	0x3f742e0cd62374fe	0.004926729338163625
73	0xbfc0446219eefc88	-0.12708688989912198
74	0x3fd533fa4bc681b5	0.33129746818488154
75	0xbfb7fefc148b41f5	-0.09373450757562536
76	0x3fb92bc7261955bf	0.09832424812460426
77	0x3f9b22e4345d2d98	0.026500287719768062
78	0xbf75d6c044263f51	-0.005331755676152587
79	0xbfa7a76f2a88f29c	-0.0461992968962239
80	0xbfab6716552ce38c	-0.05352086820352672
81	0xbfbcc943b22fdb3a	-0.11244605160014212
82	0xbfa01af894bb4619	-0.03145577254839455
83	0xbfbfbb3d4dcb2880	-0.12395079755074967
84	0x3fc6a7d5322af8c6	0.17699685048677888
85	0xbfc19d6862bdce0a	-0.13761620351179743
86	0x3fbaadb750fe5fdb	0.10421319701561009
87	0xbf9487b6e663eeb9	-0.020048959552680688
88	0x3fc3a2705057e659	0.15339473650947147
89	0xbfa39b7cd2bf3a32	-0.03829565117449753
90	0x3fbe0fd4da02c0a8	0.11742906878021364
91	0xbfb34aee7b29d90e	-0.07536211497231113
92	0xbfbe8eefe1142f94	-0.11936854596223007
93	0x3f8958ee0f5bc3f5	0.01237665161485955
94	0xbf8c63e72cd06f7f	-0.013862424903031243
95	0xbfb8f7fc82a02556	-0.09753397168255637
96	0xbf5a2f8c4c947424	-0.0015982503994742625
97	0xbfcececac36be399	-0.24068579237043933
98	0xbf823005d1798975	-0.0088806585837957
99	0x3fbb09e31e54abb1	0.10561961641785335
100	0x3f9c1949b5a803fa	0.02744021579019671
101	0x3fac543b75d10543	0.05533014119329007
102	0xbfb245c96a11b6bb	-0.07137736167507118
103	0xbfbccfc181f32cdf	-0.11254510328869881
104	0x3fa61136ad59a402	0.04310007921305471
105	0x3f855b7e7246eaeb	0.010428417074640225
106	0x3fbc67508334de18	0.11095145419391661
107	0xbf8aef1ced71d9af	-0.013151384350050003
108	0x3fae748b86317ac5	0.05948291791059072
109	0xbfb6a613996ca374	-0.08847162719452034
110	0x3fa5a3446cde2aee	0.04226125554040104
111	0xbfcef7c45507c53b	-0.2419362464129707
112	0xbfb400d07fdf3f89	-0.07813742753864807
113	0x3fc7926f97328895	0.18415636904416446
114	0xbfb91909807c42cf	-0.09803828608370256
115	0xbfbdbdd0d88ea93e	-0.11617760932009433
116	0x3fc695cfabf79408	0.17644687554198435
117	0x3fa676f74032d38a	0.043876387202010994
118	0xbfa6ffdf24533832	-0.044920895752156645
119	0xbfbf35fedee6e8ea	-0.1219176572984996
120	0xbfc171eb3713072d	-0.13628902615715202
121	0x3f724e527fe20fdd	0.00446922518142753
122	0xbfb159dd31ee99b3	-0.06777746647876519
123	0xbfd1083295657583	-0.2661253413151245
124	0xbfb066155f3e0872	-0.0640576703572451
125	0x3faa8c7a3f5c71af	0.05185300849391027
126	0x3fd04b2bc962cd85	0.2545880762729314
127	0xbfc722d01f36941b	-0.18074990772325425

net.1.layer.weight f8 [50, 128]
0	0xbfd5d2a79c0e7334	-0.34098234405410044
1	0x3fd3c1cc48afb1a1	0.30870349024078264
2	0x3fca5caef690fe88	0.20595347442030154
3	0xbfc29c2d6d2f6113	-0.14539115744879236
4	0xbfb92f52711f270f	-0.09837832700500491
5	0x3fbb68488c60a551	0.10705998828111275
6	0x3fc4ca1156bc8fd0	0.16241661772903493
7	0xbfc8b47a83979e93	-0.19300776887324797
8	0x3fbfd25bdddf5ef7	0.12430357138452651
9	0xbfb024763468a61c	-0.06305636195670455
10	0x3fc3cd2a3841ab28	0.15469863650226867
11	0xbfb127756ceaa23f	-0.06700834187598391
12	0x3fdb3d6ced3d44a9	0.4256241146841356
13	0x3fd4dd89d7b58e5c	0.32602163377143767
14	0xbfc157dd6c29724e	-0.1354939249166755
15	0x3fb1ce922e04756e	0.06955827353927699
16	0xbfc96d01f18d32e1	-0.19863914770612381
17	0x3fc0143cdd7de94f	0.12561760726004897
18	0x3fc36611a1ca574b	0.15155239486619573
19	0xbfb671dc4f6bc5b2	-0.08767487467755222
20	0x3fc55b38fec829d7	0.166846393971652
21	0xbfa3e7f996c6ec2d	-0.03887920346775107
22	0x3fc3e5cf0d4ff72d	0.1554507079126152
23	0x3fd02244e5e4463c	0.25209162187920575
24	0x3fb05c206edefba6	0.06390574175655547
25	0xbfcac0ed1234a096	-0.2090126360792552
26	0x3f7a1c73929ed4df	0.0063747896728518485
27	0xbfdabc49cace0cc9	-0.4177422028080398
28	0xbfb6309908cd2070	-0.08667904343485744
29	0x3fd09bf47b8ff0e9	0.25951873842838197
30	0x3fd05a6a8e2cabbb	0.25551856884220187
31	0xbfd9085852f5657c	-0.39113433934615904
32	0x3fd43ffc683ea587	0.3164053934111383
33	0x3fcc9ba063a02dbb	0.2234993444875338
34	0xbfd1928b5c5dd324	-0.2745693590180045
35	0x3fc096a5f16f3df4	0.12959741867824415
36	0xbfa2c5871ad7625e	-0.03666326716092237
37	0x3fcfeb5730986fb7	0.24936952469658788
38	0x3fc9124bdf79fd09	0.19587086116732902
39	0xbfbd6cd14368c286	-0.11494167228443972
40	0x3fd426371c0e5332	0.31483247508849665
41	0x3fb70899234b54fb	0.08997494804073718
42	0xbfd149951de10e67	-0.2701161186016407
43	0xbfd783ed823be9f9	-0.36742723196189747
44	0x3fb02ce06b10ba56	0.06318476308727247
45	0x3fca2356a832c528	0.20420344555672298
46	0xbfc181d12cf01f4d	-0.13677420324551762
47	0xbfc9cd2f056b7870	-0.20157420887602795
48	0x3fcd6e92551ed72a	0.22993687778733235
49	0xbfd9af2276e6347b	-0.4013143693089842
50	0xbfd3f822ba14e695	-0.3120199982837247
51	0xbfad7e1852f240c2	-0.057602653622895086
52	0xbf93b60f1fae583c	-0.019249187763840533
53	0x3fd16c5e59165fb4	0.27223929119054024
54	0xbfd38083627e2756	-0.30471882456241894
55	0x3fb926f5ca601690	0.09825073424152664
56	0x3fca9673f37ee84f	0.20771645917358447
57	0xbfb29d8e9ba26e15	-0.0727166299788496
58	0x3fc7d6aa2bd68917	0.1862385477116468
59	0xbf98f2aba6e5db07	-0.024363214551580217
60	0x3fb754335b6a09dd	0.0911285494021636
61	0x3fd1b1ab73254faa	0.27646909947110976
62	0xbfc0afe1a6e0fcf9	-0.13036747597104872
63	0x3fd51af0ae017c37	0.32976929657701554
64	0xbfc5693331619d89	-0.1672729483718565
65	0xbfae952a4ebe585b	-0.05973179064965058
66	0x3fc18890298c8729	0.13698007611042698
67	0xbfced95edf894734	-0.24100862421851732
68	0xbfd4e3488da7e19a	-0.3263722785336768
69	0xbfc4d07f56aadaba	-0.162612836187426
70	0xbfd672d8ca4c055f	-0.3507596946293087
71	0xbfaae7d2cc96d8f9	-0.05254992244174334
72	0x3fc47e07574d0984	0.16009608996143865
73	0xbfca18bd36bae2d7	-0.20387997791637844
74	0x3fd1d4e2127f3f44	0.27861835295060566
75	0x3fc540205936c9a3	0.16601948124077834
76	0x3fc29b53d1402dc8	0.14536521642035738
77	0xbfd242070bcddb88	-0.2852800002360074
78	0xbfd1a83b5f9a84d1	-0.27589306198394775
79	0x3fd5e2c6b0eea9a6	0.34196631697218505
80	0x3fb377534199729d	0.07603950835750557
81	0x3fc088c8a287d46a	0.12917430816711156
82	0x3fdbea545771ca42	0.4361773351621744
83	0xbf67f207428653bb	-0.0029230253023322084
84	0xbfc915fa33726726	-0.19598319541983605
85	0xbfc7794d9ff25466	-0.18338938054936021
86	0xbf89e077d857c053	-0.012635170259244577
87	0x3fd79c43b3f50179	0.3689126260178664
88	0x3fcdb69540d6d284	0.232134491595975
89	0xbfd6ddf411d52706	-0.3572969602724786
90	0xbfb9a717ece35856	-0.10020589383506837
91	0xbfcebf72e4446bfa	-0.2402175535761158
92	0xbfa7f1342cc21f84	-0.04676211401334654
93	0x3fc88a8043ea20fb	0.1917267161954966
94	0xbfc2954b2e7bba2b	-0.14518108148281902
95	0x3faef95da81365aa	0.060496260420858164
96	0xbfc8f846e9c73c3b	-0.19507681288675535
97	0xbfd4deaea65e82da	-0.3260914444636406
98	0xbfd8b9397e173313	-0.3863052111963025
99	0xbfbdf6578c6b9d77	-0.11704013040763593
100	0xbfcb591494973b9e	-0.21365601783187754
101	0x3fd13d7f41230ba8	0.26937848435425815
102	0xbfbf4076e628faee	-0.1220773994364028
103	0x3fcb36c25fe42601	0.21260862047374476
104	0x3fd297db0c12faf0	0.2905185335074938
105	0x3fd19c3e5f0c1274	0.27516135484646687
106	0xbfd77dcd4e105fc5	-0.36705334304269527
107	0xbfd45058d1ffc582	-0.3174039889118704
108	0x3fa684578c58bd39	0.04397843921867168
109	0x3fc0d071fb239acd	0.1313612438454669
110	0x3fd8b138ff5d1180	0.38581681192251693
111	0xbfd00d8c7acaca15	-0.2508269499914218
112	0xbfd63433daee642a	-0.3469361913681178
113	0xbf5cc4e357af03eb	-0.0017559261457196172
114	0x3fca1fb59d21f23d	0.20409269497385366
115	0x3fd3c6f89297d041	0.30901922527050735
116	0x3fc5cd3059da98f1	0.1703243674030044
117	0x3fd6f261926c1688	0.35854377078099064
118	0x3fc40020a192970c	0.1562538899353786
119	0xbfc46dd64b2d875c	-0.15960196181100172
120	0x3fb3309859814f52	0.07496025262053976
121	0x3fd4f421bd0998c9	0.32740062199298997
122	0x3fc437f663a582b0	0.15795783868363378
123	0xbfcfa8af306aaa7c	-0.24733533729643742
124	0x3fc7548a47453317	0.1822674606322827
125	0xbfc19a0ee0ea2c63	-0.13751398069539097
126	0x3fafb510997855e6	0.06192829011358096
127	0xbfb20b4d9b4f511f	-0.07048497239822325
128	0xbfb9afde4354c3a6	-0.1003397859938234
129	0x3faf9b7d16bdb725	0.06173315909005187
130	0xbfb4341f8a6df098	-0.07892033700585654
131	0xbfbaa7d6bb96a3f8	-0.10412351684375654
132	0x3fd8afc7d96784c5	0.3857288001145885
133	0x3fc82aa431650a4c	0.1888013116059305
134	0xbfb86b5a5797a7be	-0.09538807524191292
135	0xbfd27c1e0aff571b	-0.28882552217452123
136	0x3fcb277d5657b5ad	0.21214262691448252
137	0xbfb21387f3304117	-0.07061052024096558
138	0xbfd43c4f9b6308eb	-0.3161810891580347
139	0x3fa310f2e1d3c11b	0.03723868376425995
140	0x3f77ef41787d3ee3	0.005843406433839712
141	0x3f919c7dbc10d2b4	0.017198528865452103
142	0x3fd727b00d54ef32	0.36179734517985473
143	0xbfd3e5a0f33b8842	-0.31089042428186897
144	0xbfb4729392afd127	-0.07987329798908559
145	0x3fd21e5528f97bdc	0.2831013584272435
146	0x3fd88913c316a376	0.38336652804951343
147	0x3fa0a614cc129124	0.03251709929580418
148	0xbfaa8f07f5efaa63	-0.051872490664966596
149	0xbfe23c681b3d6d6e	-0.5698738605528157
150	0x3fd0641c9fba9852	0.25611034010433287
151	0x3fac921164be722b	0.05580190996918007
152	0xbfb2a149e1c4e9a1	-0.0727735687441169
153	0x3fc49e98a5ebf889	0.16108997441910258
154	0xbfc254b66daab4f2	-0.14321022372079245
155	0xbfc8ef8c76f308fb	-0.19481044586252225
156	0x3fd9d91c2ebbd11f	0.4038763481505771
157	0x3fc1eecc4f6c5b1b	0.14010003927315826
158	0x3fad38a53033e689	0.057072794088481045
159	0xbfc5429dd70b4108	-0.1660954761523572
160	0x3fca4ede16ceee25	0.20553184617698253
161	0x3fb7c87713cd3a26	0.0929026053756635
162	0xbfd0b6418a613f5b	-0.2611240245214412
163	0x3fc2c61443946c09	0.14666989612382533
164	0x3fb54b9ece1dbe11	0.0831851247037252
165	0x3fd1758c132f9738	0.2727995097505871
166	0x3f99167f9780067b	0.024499887105781753
167	0xbfc57d9a828196b7	-0.1678956162679037
168	0x3fc2192ee6474a3f	0.14139353031221621
169	0xbfe04b6a9a0ef06f	-0.5092061051323195
170	0xbf9f0521085f4fd4	-0.03029300321198021
171	0xbf999bb102e05eff	-0.025007978249134585
172	0xbfdf99472c615585	-0.49373034795765874
173	0x3fd4761ac3509ea2	0.3197085292217513
174	0x3fe0580280e0e192	0.5107433812291211
175	0xbfb252cd7f231462	-0.07157596925670043
176	0xbfc235f9f764bb69	-0.14227222995529168
177	0xbfd23fe5a2ca0732	-0.2851499643075953
178	0xbfd2261529b7ddf0	-0.28357438158079074
179	0x3fe380a6d4e4401c	0.6094545515097738
180	0x3fb0a6fcb3d554d3	0.06504802122556734
181	0xbfcc63781ad87e1c	-0.22178555785011234
182	0x3fb2b159dd267f53	0.0730186619680329
183	0xbfdd508919890590	-0.4580404996268834
184	0x3faefe70355e49a7	0.06053496028393406
185	0xbfdb70381be04223	-0.4287243149019863
186	0x3fc8be48f360639e	0.19330703624362128
187	0xbfdd80d417047b45	-0.46098806617549243
188	0x3fe36df5a80111cf	0.607172802098427
189	0xbf9510158c78f0ea	-0.020569168757206414
190	0xbfafc75d353b041e	-0.06206790232455027
191	0x3fd380a554dae4ad	0.3047269180929771
192	0xbfd43f7e55332a2b	-0.3163753349332718
193	0x3fa7a0353dd1921b	0.04614416484472291
194	0xbfa2d0d465435ae5	-0.03674949394342323
195	0x3fd7e0d69286392a	0.37309803303732514
196	0x3fde9b4bb3671e07	0.478228497694062
197	0xbfd90d372e5fb484	-0.3914316132421123
198	0xbfc7f87c11a4a86b	-0.18727064954265712
199	0x3fc414cae8b8a172	0.1568845402082491
200	0x3fbc361009a972a0	0.11019993053327903
201	0xbfa4792414db67e7	-0.03998673204996788
202	0xbfd98e4d0273db76	-0.39931035270222226
203	0x3fad1a48dca2cf8f	0.056841160710432985
204	0x3fae10e04f114e18	0.058722505237394695
205	0xbfcc766bec1fc8c6	-0.222363939566611
206	0x3f9e9fe3d019cb76	0.0299068065418839
207	0xbfa6b3e3fbb498cb	-0.04434120605064747
208	0x3fc4e1d6de09f1ef	0.1631420692609846
209	0x3fcc33fbe2852d8d	0.22033642349775243
210	0x3fd1af0297fd1d08	0.27630677073143817
211	0xbfa9548264a379da	-0.04947288015840785
212	0xbfda0bb57f4e38b5	-0.40696465904410256
213	0x3fe06308f5f1f1f6	0.5120892337432099
214	0xbfd4d03f86be02a0	-0.3252104583589617
215	0xbf9b0186bafea6f8	-0.026373009837391742
216	0x3f8f801cf5584477	0.015381075131730022
217	0xbf93889ed426a525	-0.01907585306040462
218	0xbfd8a97118146bde	-0.38534190513172273
219	0x3fbf807513ae4516	0.12305385332571847
220	0x3fc2c545743bee06	0.14664524245732496
221	0x3fca0edae58be83b	0.2035783406097965
222	0xbfbef1ade42248f0	-0.12087523288417734
223	0x3fd0413ce436c8e4	0.2539818028118488
224	0xbfc18ef067ce1da8	-0.13717465466127732
225	0x3fdcc6562b61c317	0.4496055053378298
226	0x3f5925be792b3b29	0.0015348777857757212
227	0xbfcb37bfb9cc54db	-0.21263882229019412
228	0x3f860cc2a1a12259	0.010766525800265091
229	0xbfa46b835e7b911f	-0.0398827603183085
230	0xbfbe9e681b757c5d	-0.11960459394821173
231	0x3fc7dfe9cdae31d4	0.18652079146376244
232	0xbf8f226c4087a98a	-0.015202375144288256
233	0x3fc33cade8f31e92	0.15028928637024258
234	0x3f8c26d05474f832	0.013745906426830688
235	0xbfb170720f771ea3	-0.06812203290530276
236	0xbf7cb5d972897281	-0.007009362605995607
237	0x3fc12873617fdff0	0.13404695759504603
238	0xbfa9d35241ef0966	-0.05044037871222677
239	0x3fe2392cc5ba4393	0.569479356943804
240	0xbfb06cb3fdce991e	-0.06415867754421753
241	0xbfd28dd1574c6221	-0.2899058678172271
242	0x3fc2b5de259bbbe5	0.14617516361565133
243	0x3fd5b7f6030516d1	0.33935308737669084
244	0x3f97505cf7fb65fa	0.022767498622533446
245	0x3fd0310c81c5e855	0.2529937045397948
246	0x3fc90e64139e22c9	0.19575167615791703
247	0x3fe3ffe1e0c8afa8	0.6249856367407931
248	0x3fb484792d816266	0.08014638291332118
249	0x3f8b7c9bef33d15e	0.013421266782167759
250	0x3fbda85f338d7028	0.1158504010067537
251	0x3fd554df34275267	0.3333051690399657
252	0x3fc840482ed8c80e	0.18946172988359006
253	0xbfabae8f4f82931c	-0.05406616063672784
254	0xbfdade873f77c7ac	-0.4198320503047579
255	0x3fe1ba48da16c593	0.5539898166227196

net.1.layer.bias f8 [50]
0	0x3faf41a9cf715189	0.061047846386517675
1	0xbf8fdd63ef512092	-0.015558987370369235
2	0x3fb440488db6cffc	0.07910588702981153
3	0xbfaa369321b670f3	-0.05119762217074877
4	0x3fa7088bf21964a0	0.0449870808631172
5	0xbfb091191b5b175f	-0.06471402089945631
6	0x3fa2d1633bea4081	0.03675375086197708
7	0xbfcb5e2d4ebcc697	-0.21381155342674127
8	0x3f9bc05c835cefef	0.027100987928164896
9	0x3f811bb7804abb85	0.008353646853121574
10	0x3fb1ab4cfb1cbde8	0.06902009134932252
11	0x3fb0b5823edabc63	0.06526960405857234
12	0xbf9d628ac95848de	-0.028696220912089447
13	0x3fbc581f62e61afb	0.11071964420817075
14	0x3fa302fd9339dea6	0.037132190915995
15	0xbf87cacccd64d0a0	-0.011617279070016473
16	0xbfb1c30efe5bd7e1	-0.06938260755472882
17	0xbfa49c03a2a3dc60	-0.04025279388763958
18	0xbfac920ab4f2aafb	-0.05580171068989689
19	0x3f9209e0890b95e1	0.01761580311258182
20	0xbfa084895961b7be	-0.03226117340169264
21	0xbfbd4784228296e0	-0.11437249987156006
22	0xbfa6ea94de190fa0	-0.044758464919623764
23	0x3fb5c2b22cdfeb72	0.08500207515309713
24	0x3f84de93bab85209	0.010190157066099397
25	0x3fb3806026882250	0.07617760601727608
26	0x3fc8fe7d4248910e	0.19526639687058672
27	0xbf92699242852007	-0.017980847654399692
28	0x3fa1ddc4a1a91253	0.034895081266345905
29	0x3faa8f980a6dfa94	0.051876784585137475
30	0xbfc22dae99334da8	-0.14201910477150403
31	0x3fac597875edab86	0.055370106120640236
32	0xbf8bf6aedb21c0b0	-0.013654104292271846
33	0x3fa93aee2ffa7fea	0.049277728420974956
34	0xbfa816a5d8b2ea3f	-0.04704778928995212
35	0xbfb5c5ebba21a469	-0.08505128187393186
36	0xbf718acb322dda1a	-0.004282754644796794
37	0x3fa5428fd519faf4	0.041523451579441956
38	0xbfb0a108fe94baf9	-0.06495720115047367
39	0xbfbc55aa56313c67	-0.1106821499281395
40	0x3f5f59a16e5805c0	0.0019134594416530953
41	0xbfa1496a14501912	-0.033763232211685104
42	0xbf851d7f5b0bc84a	-0.010310168233875445
43	0x3fb50a7418528d91	0.0821907576924359
44	0x3faff903269cd061	0.062446688140341385
45	0xbfb421a516457e1a	-0.07863837999092774
46	0xbfa38883f1aac881	-0.038150904894238565
47	0xbf91db1186747d01	-0.017437242347225105
48	0xbfbe35c62438984f	-0.11800802597335401
49	0xbfbf9f9eeee529a6	-0.12352937061692745

net.2.layer.weight f8 [50, 50]
0	0x3fc7c0dfa8671cf7	0.1855735370902278
1	0x3fc5ecec988a6101	0.17129285286205945
2	0x3fc0490f2de2bed2	0.12722959270967366
3	0xbf935593eba4eb46	-0.018881140954572183
4	0xbfad3fc8d3e82376	-0.05712726198914357
5	0xbfd639873b8e9d2f	-0.3472612458812873
6	0x3fd599e43ceaf2f6	0.33751779507637936
7	0x3fb027c565b612c1	0.06310685856994792
8	0x3fbb16342c7f7219	0.10580755316136282
9	0x3fcf7bd5cfe657fb	0.2459666504989285
10	0xbfbd9aaedb0bed98	-0.11564152572457542
11	0xbfa60cbd9092812d	-0.04306595220373519
12	0xbfd30ee7fd66bb38	-0.2977848028776182
13	0xbfb625a1ef6e1db4	-0.08651172728979512
14	0x3fd1b8b10182b274	0.27689767024529677
15	0xbfd515182addbef4	-0.3294125002494035
16	0xbfd695543ac9c4c4	-0.3528643201926338
17	0xbfd5cd5bf3a78ce0	-0.3406591300428783
18	0x3fdbbb92f1678a59	0.43332360815671717
19	0xbfb7cafc4d0ded0e	-0.09294106370173358
20	0xbfd207514aa30695	-0.28169662750961183
21	0x3fc0bc03605f2dae	0.1307377071919808
22	0xbf89fbf44c46a03f	-0.012687595918421944
23	0xbfd4dddfdee5df6f	-0.32604214446427354
24	0x3fc5a01ad1a0b3f5	0.16894850955705434
25	0x3fd6d533d14ba64a	0.3567628425504138
26	0x3fc7dad225b4a0f0	0.18636538354008492
27	0xbfd8a09ba4306aac	-0.38480273279280186
28	0xbf60c31fc357d49b	-0.002046167409157263
29	0x3f863c6f49bdf401	0.010857457578589804
30	0x3fac350c28885564	0.0550922202566351
31	0xbfc93df9e05b5ad5	-0.19720385985302494
32	0xbfc64ae5785fd9a0	-0.17416065576226192
33	0xbfb5a34780c21d73	-0.08452269452583554
34	0xbfc1b47b156a98f9	-0.1383203367779016
35	0x3fc67e55511caa6d	0.17573038540406874
36	0x3fbe0409e23b120d	0.11724912427150276
37	0x3fd6e26bd1a8342f	0.357569651358804
38	0x3fb52828afd03f5a	0.08264402668305362
39	0x3faf907af4675e68	0.0616491721481765
40	0x3fdac71e88acde4b	0.4184032759398845
41	0xbfc9f0b3ff87bc03	-0.20265817620335733
42	0x3fd12bf4046370c6	0.2683076899391036
43	0xbfd464c68c9dc194	-0.31865085346273614
44	0x3f928a0c39cff69c	0.018104735401712632
45	0x3fcf35af64a73c34	0.24382584013662412
46	0x3fb95709f943b53a	0.09898435912665074
47	0xbfd25ecb78dea56a	-0.28703581622774854
48	0x3fb9806485acfc0f	0.09961536658828173
49	0x3fc3b7ec28e3b049	0.15405036922982365
50	0xbfb7657df72daa35	-0.09139239582661036
51	0x3fc0fe39f244a08f	0.13275837258811804
52	0xbfb73224cd7d0505	-0.09060888306432353
53	0x3fcc40835ecf4b86	0.2207187855661596
54	0x3fbc73f05ed11e35	0.1111440879332058
55	0xbfc6a0dcf527cae0	-0.17678415270309866
56	0x3fb15fe34ff07484	0.06786938382761504
57	0x3fab74d79b786c44	0.05362581036407524
58	0x3fb9af13ccd3b7c8	0.10032771826419584
59	0xbfd54ae571ca57d8	-0.33269630539268524
60	0xbfd115ac95ae8cfc	-0.2669478856789309
61	0x3fa04ba16212828f	0.03182701418086708
62	0x3fc52168fa5c2cd6	0.1650820944272257
63	0x3fc0ee0792973812	0.1322640863203906
64	0x3fc1388c51b051f3	0.1345382117148258
65	0xbfa5c9ad6ec194e3	-0.04255430199627044
66	0x3fcc1743f4f58eca	0.219460005387296
67	0x3fb88436d896019a	0.0957674292349168
68	0x3fd17250036f94ca	0.2726020844987259
69	0xbfb3a53e8a7fabd6	-0.07674017793003371
70	0xbfb7a374da39d1d3	-0.0923378975656484
71	0x3f6a6f5992e70b69	0.0032269238938353218
72	0x3fc0c1315451be97	0.13089577309755349
73	0xbfba31027153e77c	-0.10231032625952524
74	0xbfbe278f48a88bb6	-0.11779113315473819
75	0xbfb8fa627297a443	-0.09757056520142364
76	0x3f9bc595a24e5498	0.027120912581797357
77	0x3fc3800eed8c0abf	0.15234552954651367
78	0xbfc8227fa3bcadf2	-0.18855281348201874
79	0xbfd18f4465ceb61f	-0.2743693346227207
80	0xbf11bc4205125e70	-6.765511467887188e-05
81	0xbfbff53c26954205	-0.12483573858231274
82	0x3fce147eab6b20b9	0.2350004517559279
83	0xbfd1dfaacfd07820	-0.2792765645443769
84	0x3fc3c6a83067ce90	0.15450003016995995
85	0xbf4f895c0dba5727	-0.00096241946035278
86	0xbfcf8234e78cc150	-0.2461610918630961
87	0xbfc157ecefd77d9e	-0.13549577437423194
88	0xbf7e09d4f5d013cf	-0.007333595157437991
89	0x3fad71a214d66c04	0.0575075769840723
90	0xbfcc125af319b4d4	-0.21931015844476198
91	0x3fcb03d58021ef1b	0.2110545039794197
92	0xbfc9939eab54c33f	-0.19981749883438657
93	0xbfced5e029d0dd76	-0.24090196649352053
94	0xbfd0a65923a7b04d	-0.260153088397378
95	0xbfa15c380cc2b52f	-0.033906699712455406
96	0xbfc9d06b0ce41a15	-0.2016729176468323
97	0x3fb6f5e600761112	0.08968961249599186
98	0xbfbf0057181c5133	-0.12109894121778524
99	0xbfbc4ed836f71720	-0.11057807294772859
100	0xbfcd241e6b031c94	-0.2276647589226043
101	0x3fe4efaa868afd1f	0.6542561176101208
102	0xbfa3846f6022d6ca	-0.03811977432762388
103	0x3fc1bae0d1c388f5	0.1385155700909945
104	0xbfc3219b82f235b5	-0.14946311849454977
105	0x3fd29774e15aa51a	0.2904941750262694
106	0xbfb16f43c6e9d639	-0.06810401541027823
107	0x3fde4b428e90ce88	0.47334350511958023
108	0xbfd017348be77280	-0.2514163366557014
109	0x3fcefa4a413a6da7	0.24201324639294094
110	0xbfb7e737b4255967	-0.09337185047238493
111	0xbfc9ce4483832b89	-0.20160728856566504
112	0xbfb489eac084f228	-0.08022944641283714
113	0xbfbbaa732989dfb0	-0.10806960834622603
114	0x3f341b3fbbd92c95	0.00030679994583655254
115	0xbfaf42a05e9471ef	-0.06105519442118978
116	0xbfbabcab79df0408	-0.10444137311334611
117	0xbfc4a8495d0cc960	-0.16138569873289565
118	0xbfb68e0ba396ce9d	-0.08810494178652069
119	0xbfc3f6c63fca8075	-0.15596845736309076
120	0x3fb08c8b811f06bd	0.06464454557774509
121	0x3fbb2e8946692db0	0.10617883652701354
122	0x3fb0939557fc83dd	0.06475194357018617
123	0xbfd6dbe8f6fcadc6	-0.35717224235369505
124	0x3fcb242375c526d0	0.21204035997862158
125	0xbfae5102b4440a6f	-0.05921181154737531
126	0xbfc822b5d95f44e5	-0.18855927575945156
127	0xbfc46559368dd41c	-0.15934291042108917
128	0x3fc56b74ad00acdb	0.1673417896975938
129	0xbfcd6a45c6533149	-0.2298056810744902
130	0x3fdd3d5231f9dedb	0.4568677413985662
131	0xbfc963320e720ec5	-0.1983397074255803
132	0xbfcdc2640587c418	-0.23249483366046841
133	0xbfe6293ddd880982	-0.6925343825135288
134	0xbfbf353863664aa8	-0.12190582682368734
135	0xbfa5cc5c3508e21e	-0.04257476947208637
136	0xbfcbecd5e75e5648	-0.21816514775552975
137	0xbfb69c273c67c031	-0.08832020973909561
138	0xbfc35c384f088e0f	-0.15125182971051784
139	0x3f9f61e8cbfeaa8d	0.030646932078222156
140	0xbfbef3ea671e990d	-0.12090935723844982
141	0x3f8dfa5eabfe51f1	0.01463769876844709
142	0x3fc744c41568d3a0	0.18178607030281757
143	0xbfd1c05d13eed1ee	-0.2773659414918076
144	0x3fc66e03d81b5b42	0.17523239185421785
145	0xbfc0ef1070e7c4e5	-0.13229566109615756
146	0x3fec7330b789760b	0.8890613159853172
147	0xbfc830192dc169e7	-0.18896784528881413
148	0x3fde03fc4c42e274	0.46899325797452396
149	0x3fd72377314bde6f	0.3615396481904786
150	0xbfc37cb251a012a1	-0.15224293695077498
151	0x3fc87ee9598c5b09	0.19137303230737526
152	0xbfcf89f32f199d7a	-0.24639739799316002
153	0xbfc53eaa4bca0496	-0.16597489071503863
154	0xbfb2d62df9ec7fca	-0.07358062125831491
155	0x3fa4408f600044db	0.03955505415809465
156	0x3fb822bd0eb24d47	0.09428006752778116
157	0x3fa4016f46804d7a	0.0390734456597341
158	0x3fb0a2cb50411ced	0.06498404225668582
159	0x3f9b21a7dbbbf92d	0.026495573793902927
160	0x3fa2bdcf2c218993	0.03660437978466571
161	0xbfc5bb0a609f2170	-0.169770524195211
162	0x3fc7f802576fc84b	0.1872561385094421
163	0xbfc373259ffa9c27	-0.15195150672408994
164	0xbfc7fa190c1d4e65	-0.18731988040473194
165	0x3fca3414082f435d	0.20471430205955246
166	0x3fb11b403d0223d7	0.0668220662065687
167	0xbfcb83b648f30933	-0.21495703279476572
168	0xbfcc978c409efe52	-0.22337487368894188
169	0xbfc6fb431baea9d6	-0.17954291202234057
170	0xbfb0473d2ca79780	-0.06358702030374097
171	0x3fb62514f38fb0c4	0.08650332399674016
172	0x3fc2ea3692f5bd24	0.14777261901643002
173	0x3fc88b260477970e	0.19174647539255613
174	0x3f92569bfef4cf89	0.017908513485238173
175	0x3f7b1c2108fc76cc	0.006618622821205466
176	0xbfd1fa1701a2483a	-0.2808892742115209
177	0x3fa6ee0312745707	0.04478463745378574
178	0xbfd0e9dd61ab140b	-0.2642739728729004
179	0xbfd3d4b59624b329	-0.30985774671971683
180	0x3fc8bae429527d84	0.19320346849142933
181	0x3fc069ead8402e86	0.12823234137646383
182	0x3fbb4172a0b7fcba	0.10646740363880527
183	0x3f8ddebe47bc3c9a	0.014585005344569791
184	0x3fcc993747e89d0c	0.22342577944912312
185	0x3fcaa67077913a3f	0.2082043250870402
186	0xbfb891b92b5e073f	-0.09597356137058187
187	0xbfb879fad0f36329	-0.09561126328788973
188	0x3fb270c8591379c0	0.0720334260435953
189	0xbfc05dbecfdf2475	-0.1278608813284198
190	0xbfcd587fef7d7257	-0.22926329797600672
191	0x3fba8a59bebd62eb	0.10367356211407823
192	0xbfbf7fdfc688ebcb	-0.12304495427171884
193	0xbf99688914e248ec	-0.024812833690312994
194	0xbfaf3a61a953b11f	-0.060992290420332156
195	0x3fcd9d43f58a1b66	0.2313618611262555
196	0xbfb5f5c049b2c01c	-0.08578111457131893
197	0x3fc215f8c11e8b73	0.14129552297262257
198	0xbfb5f7f10b1732c8	-0.08581453820006424
199	0x3fd035a6c0a4abbb	0.25327462017838415
200	0xbfc9fbac3da910e4	-0.20299294482004548
201	0x3fe135a334017e92	0.5377975478877082
202	0x3fae920589b2b087	0.05970780664333213
203	0x3fb71d48a61fa81e	0.09029058509591478
204	0xbfbb101e4e980cfc	-0.10571469706342279
205	0x3f90fd60d0bd1000	0.01659156106985904
206	0x3fd0f2fd8e99e174	0.26483096052063293
207	0x3fe1d2f5bbbc714f	0.5570019404145031
208	0x3fda11c81153cfd2	0.4073352975094596
209	0xbf94729f0a2a0b52	-0.01996849536454743
210	0xbfc37554b2fe6fd1	-0.15201815357147422
211	0xbfd5dec23e25e69e	-0.3417211157717278
212	0xbfd9216a0faee11b	-0.39266444713168064
213	0xbfec58bd502704c6	-0.8858324590184103
214	0xbfc651fb243aeed7	-0.17437686223080703
215	0xbfbae63906d8b16d	-0.10507542054319226
216	0xbfd796e9a797f3b1	-0.3685859810500985
217	0xbfdb1ffe5fe64abe	-0.42382773747628366
218	0x3fd4f86fa07f9e12	0.32766333268816183
219	0x3fe3600cd3be611e	0.6054748664492171
220	0xbfb1e70855efeda4	-0.06993152711941392
221	0x3fda7b11e3ca7136	0.4137615894812997
222	0x3fe2b3b981ec4210	0.5844390428119954
223	0xbfc6b858b906e8c3	-0.17750081095238643
224	0xbfac155315989c59	-0.054850193392035514
225	0x3fafbb209dd81932	0.06197454382713587
226	0xbfe11158b835f4d3	-0.5333675001017134
227	0xbfd3b22def8aad68	-0.30775020973916023
228	0x3fb2a47e6d250f34	0.07282247700373717
229	0xbfc9e8439d90fb97	-0.20240063851994414
230	0x3fe1ccc37f61da4f	0.5562455642637562
231	0xbfe21e35166b1507	-0.5661874235017031
232	0xbfacd64b75e5ffc9	-0.05632243932905074
233	0xbfe4585d702a2142	-0.6357867422785051
234	0xbfc4c05867da4980	-0.162119913777655
235	0x3fea38bad3987f22	0.8194250233391112
236	0x3fb088faad804735	0.0645901368700635
237	0x3fd074c1b5235fee	0.2571262616088451
238	0x3fd204001f4c597b	0.2814941697737578
239	0x3fec78d0ce42e002	0.8897480038203869
240	0xbfa43e249cc3fdb1	-0.03953661359446004
241	0x3f8c72a07f8c0b60	0.01389050854914381
242	0x3fce8448f79fd054	0.2384120186903852
243	0xbfd8d15483be96ef	-0.3877764975135127
244	0xbfb0cd1e42b3bca8	-0.06562985542744804
245	0x3fe30a83dd6b4439	0.5950335812177691
246	0x3fe8e94ebfe6e5d4	0.7784799335560657
247	0xbfd1ccfcc21abdf0	-0.2781364341307997
248	0x3fdacf30328f189c	0.4188957685222563
249	0x3fe0765c42c5dc1d	0.5144482902677542
250	0x3fc552ab09c61e2e	0.1665853307460891
251	0x3fd30defdfb5b147	0.29772564741758284
252	0x3fb958cf59fd6e27	0.09901138255138929
253	0xbfd1373e1a68d332	-0.2689967401413923
254	0xbfc102d0b06ff417	-0.13289841284850532
255	0xbfc58eae1f7d99e5	-0.1684167531740989

net.2.layer.bias f8 [50]
0	0x3fa945834e0cac03	0.04935846641304666
1	0xbfae00d033de0d2d	-0.05859995492121537
2	0xbf842b60464c4e68	-0.009848358292891393
3	0xbfabae5b57761f16	-0.054064611841623186
4	0xbfb4d3c848ecec92	-0.08135654240043014
5	0xbf8c79e7851a7179	-0.013904389142503902
6	0x3f744b95edd18df2	0.004954896602700641
7	0x3f9557d21c620cc1	0.020842822058068537
8	0xbfb098ce2f3d4952	-0.06483162549310365
9	0xbfbead4687d71355	-0.11983147446069371
10	0xbf980005b732ec64	-0.023437585169386557
11	0x3fc1aadc68578b1f	0.13802676291296564
12	0xbfaa407aea8d0383	-0.05127319443864222
13	0x3fb0c9172d4d88fa	0.06556839805628903
14	0xbfadbc2f8173875f	-0.05807636695114015
15	0x3fa3bafa1291a0c7	0.03853589512510918
16	0x3f91340f6709b71b	0.016800156272828475
17	0xbfa0bc49398eca06	-0.032686508442015635
18	0x3fa9855114380b27	0.04984525081456175
19	0xbfa1b6b31886261f	-0.03459701227536648
20	0x3fbe47a716d53c8e	0.11828083331532666
21	0x3fb26bdd263a3091	0.07195837195667056
22	0xbfc6d73404b6e6e3	-0.1784424803752734
23	0xbf6b17665c1ddf4d	-0.003307056352181015
24	0x3fa025c339a60110	0.03153810576168514
25	0xbfcc5b414aa81d28	-0.22153488297792845
26	0x3fa09d2982a040f7	0.03244905204349096
27	0xbf93c5754db2ef21	-0.0193079308198626
28	0xbfb01cbb247e6339	-0.06293840065917501
29	0x3fa2bd998c5b872a	0.03660278166149873
30	0xbf97d3ed55ab8baf	-0.023269375184905957
31	0x3f8f430006de5ce4	0.01526451130830115
32	0x3f80b556270e09ab	0.008158371989115695
33	0x3fb3ba3e5326bd04	0.07706059961377681
34	0xbf973bf28b220b82	-0.02268961881828658
35	0xbf4261296f5a8f9b	-0.0005608990020005035
36	0xbfb1c56e0fe07cba	-0.06941879165286738
37	0xbfa2c32366557d07	-0.036645036928115764
38	0x3fb7ff40112c01b6	0.09373855990634791
39	0xbfb1aa7a88ca7bbe	-0.06900754775641268
40	0x3f9101fdedf721bf	0.016609161042454575
41	0xbf8c377771ed49b5	-0.013777669109605076
42	0xbf9ca6447b00ee7a	-0.027978010184809034
43	0x3f748531cd195c6c	0.005009836707890885
44	0xbfafde88023980a8	-0.06224465396076201
45	0xbfa37c3005a0d84f	-0.038056851088570036
46	0x3fa7c41be9485c1d	0.04641806814850489
47	0xbfb11660d0da8257	-0.06674771403278022
48	0xbf91fa9673800083	-0.017557478713570617
49	0xbfa4c55b23a739c3	-0.04056820688457521

net.3.layer.weight f8 [50, 50]
0	0xbfca698c63e808ab	-0.20634608152619668
1	0x3fbc01c475e29e87	0.10940196874673279
2	0xbfc938f0560b5702	-0.19705013467199
3	0x3fbd95fb5dfd2168	0.11556979221962183
4	0xbfb484eabf17ae89	-0.08015315213531883
5	0xbfbc0ddc17e52f93	-0.1095864828432112
6	0xbfe2de2a37a676aa	-0.5896197401923093
7	0xbfbbb874e5551564	-0.10828333472189439
8	0xbfbf4a2c769714c5	-0.12222555060641856
9	0xbfcfbb66e127dbf8	-0.24790655130320238
10	0x3fc80e7fb46f9261	0.18794246969550257
11	0xbfd89c4cf80d8de9	-0.3845398352043206
12	0xbfce3d8891bac7b2	-0.23625285258964152
13	0xbfc464d731a7d829	-0.15932741093246364
14	0x3fb32a2e38d54f7c	0.07486237418680547
15	0x3fc78b29de3b5aaf	0.18393443442501708
16	0x3fd222a6d5dca780	0.2833649719710749
17	0xbfb617a4736acfd5	-0.08629825418284949
18	0x3fe197748fbb99f9	0.5497381980210881
19	0xbfb2dcd333fee18d	-0.0736820222799734
20	0x3fc42652fefd282b	0.15741956186894987
21	0x3fd853189009c24c	0.3800717741606021
22	0x3fb2e934fad78e0d	0.07387095569679776
23	0xbfd66f33622ce57e	-0.35053715312422884
24	0x3fda394877c20b15	0.40974628157725707
25	0x3f9dac15e46389f8	0.028976766648051794
26	0x3fd3ced5d1f1978a	0.3094992208701731
27	0x3fb264c2eb24b781	0.07184999695593143
28	0xbfb41c093d2e4fd1	-0.07855279678034256
29	0xbfdc6b43c9b5d9b5	-0.44404692362095527
30	0xbf77f786bede9d58	-0.005851293897570407
31	0x3fdb456548680c73	0.42611057349149134
32	0xbfb5d57e4ccb1746	-0.08528890013539323
33	0xbfe21966ca91eedb	-0.5656007725187594
34	0x3fd72c7b5dea4024	0.36208995982542747
35	0x3fae5e16aee5932f	0.05931158909769462
36	0xbf87915554768f59	-0.011507670059309015
37	0x3fd3223aa3168528	0.29896417547759535
38	0x3fd278d2d9882df8	0.2886244892440284
39	0x3fc48eaa0535a363	0.16060376409884744
40	0x3fda49c2a47825a5	0.41075197278459036
41	0xbfdbd19afec3c9a3	-0.4346683013856369
42	0x3f72ae63fd0d4928	0.004560843067183996
43	0x3fcafa0f90ad659f	0.21075625004122586
44	0xbfc80aa2bf2a8302	-0.18782457670479152
45	0xbfd5926553fe0407	-0.3370602913128668
46	0xbfe504403aa7c07b	-0.6567689080820992
47	0x3fd01b20078fd91b	0.2516555856558555
48	0x3fa65cf83686aab5	0.04367805162049391
49	0xbfcc499ed7309b5e	-0.22099671847646624
50	0xbfc0e1de325e26d5	-0.13189294299473056
51	0x3fc5ede7e12df21b	0.17132280821887566
52	0xbfbe3d4f9a3450f8	-0.11812303080325026
53	0xbf85c91b946bc626	-0.010637488810490824
54	0x3fcb67629670a92d	0.21409256311137295
55	0xbfb65e9700faffdc	-0.08738082670151875
56	0xbfbd1135cfdc739e	-0.11354385685667842
57	0x3fc0765ff5340f64	0.12861251328296952
58	0x3fd2508f99f3454d	0.2861670497341791
59	0x3fd4a064b252cc94	0.32228963293454993
60	0x3fd0cd5f984e0039	0.2625349986410615
61	0xbfcafcc11ff863d9	-0.21083845196770204
62	0x3fc9f660acad820c	0.2028313487198975
63	0x3fc05e968041a895	0.12788659346125955
64	0xbf64cd0bef6e9d6b	-0.002539180098626017
65	0xbfc894ae8b180a0e	-0.19203740874952796
66	0xbfc77c93bb356031	-0.1834892906288146
67	0x3fc215a731b328a5	0.14128580023527096
68	0x3fc904e64479f35f	0.1954620203358912
69	0xbfc06fe980f22ee6	-0.12841528698151378
70	0x3f9a3bf4130066d4	0.02561932912804006
71	0xbfd2e1980ef18583	-0.2950191636974397
72	0x3fcdf6a51c7ddc74	0.234089507018982
73	0x3fd440cfb8e2ef11	0.3164557748348083
74	0xbfa778e1abb19ef4	-0.0458441278540799
75	0xbfad845f4f7bbaa2	-0.057650545551827706
76	0xbfc4a809e1d797ec	-0.1613781311745578
77	0x3fe046a3e5e6c475	0.5086230745565802
78	0xbfaa4bcc0fdefc1c	-0.051359536111242415
79	0xbfc7d73f7e022229	-0.1862563481593196
80	0xbfd4d41fb20f7fe2	-0.32544700993275744
81	0xbf6b9022df64cf16	-0.003364627943620034
82	0xbfc7f24c6acf98d5	-0.18708186354996906
83	0xbfa8808c9dca2bed	-0.0478557531942768
84	0x3fcc4007e0e9e5eb	0.2207040641986134
85	0x3f61219786ea1487	0.0020912131797695163
86	0xbfa98e6ca311b831	-0.049914736658010724
87	0xbfc49a3212e65da2	-0.16095567629666357
88	0xbfb63f4ec0cfc022	-0.08690349776566156
89	0xbfc1a2e959b7f0e4	-0.1377841651991566
90	0xbfe4fb0ee3e9cf63	-0.6556467486793561
91	0xbfc7f18d485af788	-0.1870590785310322
92	0x3fdfd24c48fb09c7	0.4972105705930087
93	0xbf946b39811a23dc	-0.019940279488341747
94	0x3fd998e139002893	0.3999560410162612
95	0xbfcecd15df1c7f18	-0.2406337108050074
96	0x3fc76f6508bb653e	0.18308699537628031
97	0xbfc9d2fd0fe0a44b	-0.20175135875004666
98	0x3fd34e6d8bd2b25c	0.30166186003297013
99	0x3fbed83224be812b	0.12048638722490483
100	0xbfca674bf38128d9	-0.206277364634224
101	0x3fc2f46805bc2f72	0.14808368949922684
102	0xbfc1011fd4abf2ec	-0.13284681209906724
103	0xbfcc42c086ff47ca	-0.22078711120280864
104	0x3fe0b3a8d0d01031	0.5219310835241285
105	0xbfd0549f7c519030	-0.2551649774598017
106	0x3fc763a29aed8d03	0.1827281242832229
107	0x3fca220744b60645	0.204163464117345
108	0xbfe0a46ea3d428a1	-0.5200722884922194
109	0xbf9c80660e4f93d7	-0.027833552001442854
110	0xbfa0e1ea0cbbf75e	-0.032973588995431
111	0x3fbd53af52e9e7a8	0.11455817960987125
112	0x3fc77df93bef71e8	0.18353190828828692
113	0x3fca7a157f49539d	0.2068507071986944
114	0xbf9ef21e6f45e25d	-0.03022048525005726
115	0xbfca243519c2d953	-0.2042299629008065
116	0x3fb1c85fa1d2a330	0.06946370793106094
117	0x3fa441ee3b842c21	0.03956551052586855
118	0xbf8f898eaf24e856	-0.01539908859250631
119	0xbf915a8e87f79334	-0.01694700913312204
120	0xbfa61ec2518e9656	-0.043203422980962955
121	0x3fc526eaca785646	0.16525015722497666
122	0x3fb39dbcd5cc87ec	0.07662563533497718
123	0x3fcdbc83b99d6832	0.232315507538091
124	0xbfc13121f747d06d	-0.13431191038364734
125	0x3fc5fbc6c63cbd94	0.17174610786012734
126	0x3faa8df2aad809e5	0.05186422667977179
127	0xbf9421429cf7abe3	-0.019658127623113485
128	0xbfb398df3e406ea2	-0.07655139226738553
129	0xbf80fd931a01ba2c	-0.008296155196345266
130	0xbfd424c92626a8ba	-0.3147452232902982
131	0x3fdf858b50e43a8d	0.4925258912998423
132	0x3fdad5195f7597d1	0.4192565376491731
133	0x3fe414ed923a8310	0.6275546890284165
134	0xbfc2ad7eb70a6cd3	-0.1459196466210871
135	0x3fd8e0998cdb7910	0.38870848422620075
136	0x3fe319d431557112	0.5969029391813214
137	0xbfa1ec070c7bb50c	-0.035003872178871104
138	0x3fd6151e2ed77eb7	0.34503893446342765
139	0xbfb854cb2c4d9086	-0.09504384833923227
140	0x3fcb98259df25335	0.21558065616832214
141	0x3fc87a2abf95b2d8	0.1912282405350172
142	0x3f8a640d6ba3f5a2	0.012886147353578906
143	0xbfc58d2f345cd037	-0.1683711057354473
144	0x3fca2d1c5efb6b4d	0.2045016731052222
145	0xbfbb87772935ae35	-0.10753578907104429
146	0x3fd1e32a529fab93	0.27949007099840023
147	0xbfd797bcbd05f1b3	-0.36863630732821234
148	0x3fd697ffc065982c	0.3530272845149536
149	0x3fed25c7a6c41249	0.9108618027826846
150	0xbfd2f0a9292039bc	-0.2959387685413295
151	0x3fb8b9b8b49f3bad	0.0965838852855387
152	0x3fc4c09bb1e4a8f1	0.1621279352778582
153	0x3fd3d84188f043d1	0.3100742184915904
154	0x3fb0c3ec28b00ef1	0.06548954003670439
155	0xbfc9e364e08e1b88	-0.20225201572995055
156	0xbf9508356df97c4b	-0.020539126241029753
157	0xbf9bf51fe691c840	-0.027302263686984185
158	0xbfa0690156844178	-0.03205112629996426
159	0x3fe1a2e00a328b34	0.5511322211426433
160	0x3fd43de0142fe696	0.31627656909368207
161	0xbfc3948956a06bac	-0.15297047357384252
162	0x3fb0d8ba1cb822ab	0.06580699158815644
163	0xbfce2740d5ab3038	-0.23557291443865025
164	0xbfc76f1e11d95017	-0.18307853576209318
165	0xbfcbe95f4dd537f3	-0.21805945682939373
166	0x3f7048796bb1f735	0.0039753668780784695
167	0x3fad52d6d9a05d5f	0.05727263838360374
168	0x3fbc8485ab269cad	0.11139712742316261
169	0x3fd0d832eea99690	0.2631957369506859
170	0x3f97147d1812b9ac	0.02253909549170323
171	0xbfdf33a699603bff	-0.48752751329533334
172	0x3fd19e4cc6bd291a	0.2752868595895436
173	0x3fcac801a1d2962f	0.2092287101888117
174	0x3fd545fe8c0fd8a3	0.3323971145431505
175	0x3fb5d06250cd9016	0.08521093819359779
176	0x3fcaf04a850ee0e9	0.2104581021974419
177	0x3fd383a3d5882013	0.30490966656407287
178	0xbfc1cf914ff964a1	-0.13914696125974493
179	0xbf505fdf6e73d4ab	-0.0009994203517725102
180	0xbfa9066e08ea6317	-0.04887718066055962
181	0x3fc33f52e44685f7	0.1503699888826728
182	0x3fa1e21a70fdcfbd	0.03492815617838072
183	0xbfd3fb53deb95f82	-0.3122148203888103
184	0x3fd1fe60e1f3f4c0	0.28115102830618
185	0x3fc0317d78d9b2f4	0.12651031876466556
186	0xbfb4a4de828e5723	-0.08064070403483163
187	0xbfcbac0833e60742	-0.2161875012789612
188	0x3fbf975f993c24ac	0.12340352526747961
189	0x3fbe0f8694416ec2	0.11742440337678331
190	0xbfe4e4cee0073917	-0.6529306769896576
191	0x3fbd3373d28950c9	0.11406635179565962
192	0x3fc1bea37c8fde85	0.13863032896164298
193	0xbfbc1a58084158bf	-0.10977697564644283
194	0x3fd02b722150a38f	0.25265172246377515
195	0xbf631abba63d7057	-0.002332083227811348
196	0x3fabb306dd250df4	0.05410024117966464
197	0xbfc2280571ba733c	-0.14184635213032404
198	0x3fa74b1449f5d7fd	0.04549468424640677
199	0x3fca3fb99a585f46	0.20506973301302817
200	0x3fd5778c8adde059	0.335421691524521
201	0x3fcb1780fc1b722f	0.21165478048250594
202	0xbfe850bdd6c9af01	-0.7598561472964037
203	0x3fd69757b711e832	0.3529872215073083
204	0xbfd32625131ec245	-0.2992031752319558
205	0xbfa28ae923cf5d0f	-0.036216054555263104
206	0x3fd272e84274d48c	0.2882633828151675
207	0xbfdd9e5d0d055cf7	-0.4627907397420609
208	0xbfe027aa94c537a9	-0.5048420816108222
209	0x3fdecb57d94ec94b	0.4811610815187534
210	0xbfce7f5573e340c6	-0.2382609191759057
211	0xbf97c1d47905efc8	-0.023200340162915528
212	0x3faf04aec1e0f22f	0.06058260075267118
213	0xbfc23cc51693777b	-0.14247954943033023
214	0x3fa4fe44744f108f	0.04100240630899165
215	0xbf95ceb785c7ec6d	-0.021296374836293475
216	0x3f97289b7cf02d5c	0.02261584234296997
217	0x3fad60125f95c00a	0.05737359444435704
218	0xbfe2ced96c3bdbe7	-0.5877501596395377
219	0x3fd4ff47cd302213	0.3280810836591012
220	0xbfca95c9dc3d35d9	-0.20769618276464888
221	0xbfd28294fe6acfb4	-0.2892200932067184
222	0x3fc72dae8191f339	0.18108159376779456
223	0x3fddc06fb05c76d7	0.46487037871143627
224	0xbfdd51740f51fe12	-0.45809651847955124
225	0x3fdd8b2d1134daad	0.4616196315795758
226	0x3fbfefb5aa796a4f	0.12475142871827781
227	0xbfd5ed47cfc8350b	-0.3426074532624887
228	0x3fd8c5635864c695	0.3870476115435875
229	0x3fba8d197f21ac10	0.10371550897404824
230	0x3fcc5195604aa6f7	0.22123973085154322
231	0x3fd819f50f7ca460	0.3765843058814138
232	0x3fe7dec5bc2daaba	0.7459438968047245
233	0x3fd4a51d50995d76	0.32257778998378883
234	0x3fc659d62ee52788	0.17461659707833754
235	0xbfc5afc86a9407ac	-0.16942696765914655
236	0xbfded0aacbca81c7	-0.4814860334536459
237	0xbfcf88bca479ae6c	-0.24636037856122373
238	0x3fd0bb4b0798d1bc	0.2614314626873939
239	0x3fb7a1c656d41f93	0.09231223697508843
240	0xbfcc9d5e2c03cfaf	-0.22355248593487206
241	0x3fe28aac9fac433d	0.5794280165301654
242	0x3f9a6fbb2e1eecc7	0.025816845598211537
243	0xbfc859801ad4a25e	-0.1902313357361604
244	0x3fa959bea5cc4eda	0.04951282285597154
245	0x3fc3c286968bbf1f	0.15437395430444042
246	0xbf9013fcb909fd11	-0.015701245111356125
247	0xbff2e8b90c42dddb	-1.1818171004250562
248	0xbfca74422420fc27	-0.206672923699416
249	0xbfca7e45cdda2f2f	-0.20697853614216785
250	0xbfc464911957a337	-0.15931905496042884
251	0xbf652caf0e98b543	-0.0025847834665656834
252	0xbfb726c54d3a3473	-0.09043534408029234
253	0x3fce3942e79a7594	0.23612247761495253
254	0x3fc396cd10a65e17	0.1530395823763093
255	0xbfcc2ad350d7f724	-0.22005692908708696
