6_Steady_ns/logs/models/2024-01-31-11-09-39_2d_steady_ns_rbf128_100X5/epoch_0.pt (torch, 436603 bytes, 14 tensors)

rbf_layers.0.centres f8 [128, 2]
000000 12 d3 a9 10 f4 59 b6 bf 4c 12 d5 2b be d3 d5 3f
       -0.08731007963963247 0.3410487583207995
000010 37 23 83 20 f6 60 da 3f a2 a2 df e2 da 10 f0 3f
       0.41216805624985703 1.0041149961709057
000020 8a 0d bc 72 ac 59 bc bf a5 b8 56 ee 82 31 e3 bf
       -0.11074331093919035 -0.5997938780835922
000030 8d 68 20 c9 d8 63 b9 bf e8 73 9b fd 27 89 d6 bf
       -0.09917979154889363 -0.3521213509209802
000040 f4 27 0b 46 71 09 e7 3f d0 84 ac a6 99 a3 cb bf
       0.7199026458777085 -0.21593018186925983
000050 ca 9b c1 99 b8 aa f0 bf 13 d4 46 a9 42 75 cf 3f
       -1.0416799551110096 0.24576600327932904
000060 36 27 a7 12 d7 ab ef bf 6f 09 e4 68 78 a8 e0 bf
       -0.9897265781703257 -0.5205652283332663
000070 5d c0 3f a3 79 0a e5 3f f2 7e a9 dc e7 77 e4 3f
       0.6575287044961545 0.6396369275862226
000080 43 37 bf 01 b1 1d e9 3f 3f a9 c5 94 97 00 e5 3f
       0.7848744424934256 0.6563222795205447
000090 93 39 a6 1e 16 2c fa bf 97 cb 10 25 a2 93 e3 bf
       -1.6357632825125605 -0.6117716525972011
0000a0 b5 6d 62 72 66 2d e3 3f ed 83 48 63 31 07 ec bf
       0.5992920145103456 -0.8758780421377402
0000b0 98 78 34 3e 3c d8 ee 3f 37 77 8a 27 f6 84 c8 bf
       0.9638959135952687 -0.1915576642103873
0000c0 a1 80 0e 5b f7 07 d8 3f 46 8d 28 54 63 9e b7 3f
       0.375486220285902 0.09226055912636352
0000d0 fc 0f c1 2a 53 6c d3 3f 85 65 b1 09 d6 02 f5 3f
       0.3034866254349706 1.3131924036627833
0000e0 02 87 24 59 30 fc e1 bf ce 39 fc 1c 8f 31 c8 3f
       -0.5620347729747837 0.18901242175384286
0000f0 6b 9c 04 52 1a 5f c5 bf a6 84 be ac f3 1b ed 3f
       -0.16696480755601625 0.9096620916281111
000100 20 06 83 a7 8c 8d fc bf 6a 07 8c c7 c9 e6 ed bf
       -1.7845579665594258 -0.9344223878290283
000110 c5 c0 6f 61 5e 44 ec 3f 42 af f4 8d f7 4a f9 3f
       0.8833457854325607 1.580802492632714
000120 cb fb 66 dc b1 50 bc 3f fe 98 02 96 6c 1a ba 3f
       0.11060630446352986 0.10196570074421982
000130 b4 ce 07 5b 90 10 c5 bf 75 1d c5 ef ed 7b d4 3f
       -0.1645679897770741 0.32006405272519284
000140 d2 97 68 54 73 94 be 3f b1 56 08 3f 38 70 e0 3f
       0.11945267496830006 0.5136986952881754
000150 24 65 0e b3 a5 a7 b7 bf 03 3a b1 ce 88 ec 02 40
       -0.0924018442296029 2.3654953143916386
000160 73 8e bd 0b 15 32 da bf 87 f8 db 0e 2b 77 e0 3f
       -0.4093067755368118 0.5145468988628331
000170 07 c0 27 67 b1 c0 f2 bf 1b 9c 86 b5 f6 ba e7 bf
       -1.1720441846373448 -0.7415727181841051
000180 d8 c9 77 39 31 e9 e2 3f 36 a0 c1 d0 3e 20 b5 3f
       0.5909658548756012 0.08252327534285162
000190 e7 46 96 2d b5 93 da bf cc 0a 84 76 f7 7a f2 3f
       -0.41526536418778764 1.155021155311874
0001a0 fb 8d c4 40 97 d9 bd 3f dd fa f0 8b e1 f1 ed 3f
       0.11660142260785016 0.9357764943341312
0001b0 27 3c 06 f4 72 6d e9 3f a4 10 08 63 c5 19 88 bf
       0.794610478029317 -0.011767904362394006
0001c0 31 cd e4 2f d8 08 98 bf 85 d1 fb 49 97 da d8 bf
       -0.02347123901672638 -0.3883417341706024
0001d0 e2 4f b1 53 21 ca da bf 83 98 e5 35 ad d1 db bf
       -0.4185870473204415 -0.4346726442657955
0001e0 cb 82 fc 5b 82 12 d4 3f 85 c9 4d 74 52 7c fb bf
       0.31362971289676683 -1.7178520720595725
0001f0 b8 07 ab 4b 4e 51 ed 3f b4 be b8 14 10 2a ce bf
       0.9161750295536342 -0.23565865527915764
000200 29 d7 c1 c1 8d 37 03 40 7b 51 4c 1c fe d0 e6 bf
       2.402125848510782 -0.7130117943475364
000210 3d 2f 99 20 75 4c 04 c0 be 5e a4 9f 93 dc d8 3f
       -2.5373327776668746 0.3884629305843922
000220 8f da 88 78 bc 4b fe bf 6e 62 7d 43 1f 91 f0 bf
       -1.8934902866728043 -1.035430205947843
000230 9a 70 d1 11 99 5f d0 bf 27 1e 45 9b 88 95 d9 bf
       -0.25583483448077404 -0.3997518078144559
000240 22 e7 6f 1c 5d ab fa bf 21 a8 ad 6f 94 86 e1 3f
       -1.666836844522955 0.5476782017915448
000250 73 79 55 0b 0d 29 f0 3f 32 0f 15 9c 78 eb d9 3f
       1.010022205613123 0.4049970173111773
000260 57 10 de 01 41 40 c1 bf ce b3 62 bf 9b 0b e1 3f
       -0.13477337447341384 0.5326670396803992
000270 51 4f 8d 0c 5d 46 f2 bf cc 9c 31 17 d2 e7 fb bf
       -1.142178582221238 -1.744096842385079
000280 b7 79 66 66 60 75 f2 3f e3 aa 1c 31 8e 4e ea bf
       1.1536563873301995 -0.8220892867296609
000290 77 ac fd af 52 b2 f1 bf 77 e6 5f 03 bd 7b ee 3f
       -1.1060358881611856 0.952604776946102
0002a0 fe a9 bc 15 7d d3 e5 3f 3b ca 7c e1 37 49 ff bf
       0.682066481070535 -1.9553755577186525
0002b0 a2 10 17 dc 29 19 d8 3f f5 b8 dd cb 76 89 bb 3f
       0.37653585904286946 0.10756628491592209
0002c0 2a 46 a2 da f1 90 f3 bf 6a 55 a6 a5 0d 4c f4 bf
       -1.2228868999849376 -1.2685677023594857
0002d0 19 15 64 59 8b fd cb 3f 42 b6 1f 90 d8 03 e7 3f
       0.21867505898277598 0.7192194762153081
0002e0 25 7a 2a 2b 85 49 ff bf 5c fd cd 29 16 a4 d4 bf
       -1.9554492651146884 -0.3225150497673519
0002f0 74 ce 21 73 51 9b 02 c0 d1 91 fc 57 b6 39 01 40
       -2.325838946789924 2.1531798242524265
000300 12 cf c8 90 1d 20 f3 3f e3 e9 a3 32 ed 72 f2 bf
       1.1953406959191324 -1.1530582407127603
000310 13 0e 52 45 08 9f e1 bf 91 fa 97 f0 cc b7 e7 bf
       -0.5506631235043095 -0.7411865901084004
000320 18 81 07 bb e8 ca d0 bf b6 01 bd 52 7c ec a2 bf
       -0.2623845888574734 -0.03696049222935775
000330 4d b1 4d 9f 82 f0 05 40 fa c2 30 35 69 3c ea bf
       2.7424366422257322 -0.8198743857265918
000340 62 4b 4a 0b 20 26 d0 3f b7 30 66 c3 da f2 f1 3f
       0.25232697584686126 1.1217906601696492
000350 3b 27 f9 d8 62 08 05 c0 53 ed 99 68 1c 00 05 40
       -2.6290947867427383 2.6250541851019675
000360 1a 1e b5 cb ab ce ca bf 3a 1a 62 a4 9d 92 e6 3f
       -0.20943210074095547 0.7053974352464316
000370 5b 93 63 41 2d bd eb 3f 6a 33 5a 1c 63 dc c4 bf
       0.8668428685310617 -0.16297568210975594
000380 35 a6 06 6b 69 6f dc 3f e5 63 4a a7 83 d3 00 c0
       0.44430003597026096 -2.1032784528328983
000390 7d 66 1f 3f bf 67 c0 bf 96 e4 73 33 9c 53 eb 3f
       -0.1281661089149572 0.8539563183723142
0003a0 13 02 6f 9a 21 46 d0 3f 14 31 30 ff d8 d9 01 40
       0.25428047257813197 2.231370919855303
0003b0 70 63 b1 56 01 57 fe bf 7e 43 66 09 5e 48 f5 bf
       -1.8962415110056234 -1.3301678054014867
0003c0 bd 67 0b 82 6f 6a f4 3f 74 d1 12 2c 71 9d ff 3f
       1.2759852485528278 1.9759380075093675
0003d0 64 b4 94 ed 3e 83 ec bf 86 d4 e2 bb eb 33 d9 3f
       -0.8910212173701777 0.39379399631736367
0003e0 fa 03 34 51 3a 4a f9 3f 16 0a db 7c 00 01 eb 3f
       1.5806220218657914 0.8438723028742199
0003f0 0a 2a d8 cb 93 16 e9 3f b1 64 91 37 f8 44 02 c0
       0.7840060216270228 -2.283676561474373
000400 eb 9a 42 c9 62 91 e4 3f fc 7c 3f 8c e1 c4 f1 bf
       0.6427473002302951 -1.1105666616857084
000410 d9 ba b8 8e 9b c6 f1 bf 19 c3 ad 5b ff 98 e1 3f
       -1.1109881949484388 0.549926451740336
000420 09 f1 66 ee 0d 09 f1 3f 46 92 1c 49 f7 07 01 c0
       1.064710551508201 -2.128889628586225
000430 0f 7f a9 f2 8c b6 ea bf 56 b0 23 ff 1b 0b f2 bf
       -0.8347840060705226 -1.1277122465499096
000440 e5 8d 81 5a a3 3e cb 3f aa b9 1a 5a f2 14 ee bf
       0.2128490631031205 -0.9400569686748004
000450 bd d2 e5 35 d1 a9 fd 3f 1a 8c f0 bf ac 0c e5 bf
       1.8539592843418824 -0.6577972172566462
000460 87 c1 17 c6 9f 38 f6 3f e6 68 ac fb 16 7f d8 bf
       1.3888242471694825 -0.3827569444416795
000470 9f 1e 48 e9 69 ea e5 3f 5f bc ba 8a 63 9e c2 bf
       0.6848649555476704 -0.14545864366434366
000480 b5 27 63 e9 e9 92 f3 bf 30 97 14 6a e9 03 f5 3f
       -1.2233676068012589 1.3134550231711266
000490 45 a0 46 08 cd eb f5 bf 6f d3 70 18 98 ff f8 bf
       -1.37006858093993 -1.562400908919894
0004a0 2b 2a 80 59 3b 08 ba 3f ac 18 bc e8 79 f4 ca bf
       0.10168810782503417 -0.2105858217620996
0004b0 68 5e ed b1 0c 54 f1 3f 3f 60 f0 c0 e3 58 f6 3f
       1.08301991942235 1.3967015778234921
0004c0 87 f5 9e 01 d0 e0 e4 bf a4 f3 cc 64 8c 9d 05 c0
       -0.652442935148131 -2.7019279360815336
0004d0 ed 84 62 18 75 1b f4 bf bc df 14 1b 3e ef c2 bf
       -1.2567034676106303 -0.14792610475865142
0004e0 40 6a bc e9 da 9a f1 bf f9 a5 60 ee 99 d6 e3 bf
       -1.1003064279854158 -0.6199464469729598
0004f0 76 2b 85 98 90 16 f5 bf 35 68 d8 6c 31 d6 c2 3f
       -1.318008991033563 0.14716165365899916
000500 46 c8 b4 73 49 36 db 3f ad c7 f8 50 4f 18 89 3f
       0.42518841075355274 0.012253398569644103
000510 a0 25 94 c3 78 d9 c3 bf 2b af 4d ac 56 de d0 bf
       -0.1550742106412999 -0.2635704691553992
000520 a5 3f 22 b7 54 33 e3 bf 2a de fa 15 fe b5 e6 bf
       -0.6000159813720428 -0.7097158841415354
000530 df e9 23 67 68 34 e8 bf 3c 45 87 99 ed 42 d3 3f
       -0.756397439428209 0.300959968500212
000540 1e 61 ad 2c 16 35 e0 bf 64 f4 37 a5 aa 18 df 3f
       -0.5064803001978679 0.4858805287802339
000550 61 7a 2a d5 3e 0f db 3f a4 cc f1 72 e2 9c f6 bf
       0.4228055078218969 -1.4133018960972459
000560 49 a5 94 e7 40 51 fc bf d3 7b 9b 9e b2 3d f6 bf
       -1.7698372884863878 -1.390062923011773
000570 99 e5 75 03 ae 42 e6 bf b7 58 fd 3a f0 db e0 3f
       -0.6956396167362754 0.5268479492322261
000580 17 c6 26 a8 e6 dd f3 3f 45 9b 7a 7a 87 92 f6 bf
       1.2416750496307765 -1.410773733552291
000590 cf 9e 0b 92 70 2b d0 3f 34 27 d8 39 3c d5 ee bf
       0.25265135061497984 -0.9635296945354868
0005a0 5b 0d a5 04 f3 d8 f0 3f 06 1d 8a e9 69 a3 ce bf
       1.052966135161873 -0.23936199096008454
0005b0 91 88 31 ac 67 92 f0 bf e9 25 f3 7e 9c 6e ee bf
       -1.035743401175328 -0.9510023574341037
0005c0 c7 49 18 3c 6e 03 f4 3f 15 d7 25 40 88 b2 e1 bf
       1.2508375499206623 -0.5530434849631286
0005d0 fa 7e 3d cc e6 51 c3 bf 5c 5d aa c3 73 25 bc bf
       -0.15093693707148487 -0.10994647528638296
0005e0 73 88 77 82 4b 3b d1 bf 49 a3 8c 90 8f 07 d1 3f
       -0.26924407711897586 0.2660864745726497
0005f0 bf 26 92 8a ac 83 c3 bf 3b 3f cc 6a a9 42 c8 3f
       -0.15245587125928314 0.18953435625780365
000600 72 68 92 ac b2 09 e1 3f 74 2d 4c ff e8 8d bb 3f
       0.5324338312668841 0.1076341269764976
000610 15 94 7e 17 17 99 e2 bf 3f 37 7f c8 60 b3 c8 bf
       -0.5811877688289565 -0.19297418393983354
000620 f3 0d f4 78 f5 70 f0 bf e3 db a2 0a 16 c1 96 3f
       -1.0275778507938156 0.022220940016918333
000630 fc 34 39 4f dd 3e e1 3f f8 31 e6 2d 69 61 f1 3f
       0.5389238879521652 1.086281947416067
000640 66 28 21 6e 09 66 d0 3f d5 df 2f eb bc 37 f4 bf
       0.2562278342708225 -1.263607901286368
000650 2c 0d 5e 2d 7f da 9c 3f 49 fe fc ea 8d 8b cc bf
       0.028177249092107434 -0.22300886129413502
000660 de e1 73 ee bb 83 f1 3f dd 00 58 e3 1c c7 e2 bf
       1.0946616472775683 -0.5868057670886874
000670 b3 12 2a 32 db 1b e2 3f 42 71 c8 94 b4 f2 da 3f
       0.5659004192135256 0.4210635617216846
000680 34 a6 b5 77 98 6c f5 3f 59 fe f5 8e 54 37 cf 3f
       1.3390125919489835 0.24387604694855972
000690 2a 3c ab 7f 66 9b c7 3f aa 03 63 d6 c2 bf d9 3f
       0.18442994340736735 0.40232916771133864
0006a0 6f 1c 4e 6f b0 63 da 3f 37 30 64 ab 16 29 f9 bf
       0.41233454579964407 -1.5725313849425342
0006b0 83 c9 80 c1 5d 02 ff 3f fb ca 53 f5 ab fe f6 bf
       1.9380776938165531 -1.4371757109735757
0006c0 88 41 32 76 78 3e e6 bf 2a 20 68 f3 b0 40 d3 3f
       -0.6951257999917724 0.3008234383601144
0006d0 6b e6 6f 9f 98 f0 d3 bf 10 8c 11 30 5e 82 e2 bf
       -0.3115598256114029 -0.5784140528525104
0006e0 a7 f6 b2 6c 07 09 08 c0 6b 09 bd 09 c4 12 f0 3f
       -3.004408692561657 1.0045814876944756
0006f0 b0 3f 3c 6e 8d b7 e7 3f 47 58 da 4b ac db d1 3f
       0.7411563065561406 0.27903277785788244
000700 6c 31 ff ae d6 17 e3 bf 95 93 43 83 81 fe f1 3f
       -0.5966599862963853 1.124635231733213
000710 82 70 d0 f5 e4 65 f5 3f 27 8c 9d eb 43 9e f8 3f
       1.3373765565984574 1.5386389926650368
000720 69 1c 8e cc 4a e2 a8 bf e4 fc 94 e2 dc 7a e1 3f
       -0.04860147234926943 0.5462479043416377
000730 34 ab 99 bd df 72 eb bf e0 36 7d a2 f8 60 fa 3f
       -0.8577727034692999 1.6486746165496058
000740 74 6b 8d f5 34 9d e8 bf f2 35 45 fd 66 b2 da bf
       -0.7691902919717521 -0.4171388123839669
000750 f6 3e a7 84 be 2b f5 bf 06 31 e9 7c 01 96 f3 3f
       -1.3231797391671853 1.2241225127536963
000760 63 02 66 02 72 1b ee bf d6 34 2d 8f 8f 37 e2 3f
       -0.940850262341041 0.5692823215882992
000770 af 10 1d 5d af 8f c7 bf b2 76 ca cb 77 33 f8 3f
       -0.18407241865691534 1.5125654182988169
000780 bb a3 1f 15 60 81 f1 bf 31 83 65 75 c7 42 f6 3f
       -1.0940857720508876 1.3913034997751306
000790 6c e5 e3 d2 91 9b e6 bf d5 56 43 0f 1c ac e4 3f
       -0.7064904326390837 0.646009473620064
0007a0 94 af cd d6 4e 56 cb bf 49 d9 0d 84 de 8c e6 3f
       -0.21357141006899083 0.7046959475690439
0007b0 df ed a5 ed cf 81 e2 3f e8 5e 03 8f 0d 40 e9 bf
       0.5783462182584421 -0.7890689652658383
0007c0 bf 49 66 56 88 fc d6 3f f0 f6 69 7d 00 75 ff 3f
       0.35916336476762106 1.9660649203282752
0007d0 dd ad d3 fa 17 ac e5 3f 56 59 4b 55 e7 7d a7 bf
       0.6772575282060945 -0.04588244358244491
0007e0 f2 ae 38 6c 83 f0 c0 bf a5 d5 f1 5c 73 d5 f1 3f
       -0.13233988556145665 1.11461197191725
0007f0 5a 5c 58 2a 73 21 f3 3f 76 14 90 c4 79 ed e9 3f
       1.1956664709193974 0.8102387274854113

rbf_layers.0.log_sigmas f8 [128]
000000 f0 93 c2 83 4d 62 50 3f b2 d5 17 93 4d 62 50 3f
       0.0009999997119305402 0.0009999997677117953
000010 b5 8b e2 2f 4c 62 50 bf e6 56 d0 74 4d 62 50 bf
       -0.0009999984754720363 -0.0009999996575564218
000020 4d ba a4 af 4d 62 50 3f 67 75 96 8b 4d 62 50 3f
       0.0009999998715774117 0.000999999740407398
000030 f5 74 58 86 4b 62 50 bf 10 4b 17 a3 4d 62 50 3f
       -0.000999997858691257 0.0009999998259117605
000040 ae b2 ed 85 41 62 50 3f 7a 99 09 e3 4c 62 50 bf
       0.0009999885439483758 -0.0009999991272252305
000050 dd 2f ca 75 4d 62 50 3f 83 0d 4f 8c 4d 62 50 3f
       0.0009999996611069685 0.000999999743030639
000060 0d 44 52 00 4d 62 50 bf 7a 66 6b 82 4d 62 50 bf
       -0.0009999992337592662 -0.0009999997070536935
000070 22 91 fc 9d 4d 62 50 bf a3 d6 39 3b 49 62 50 3f
       -0.000999999807342063 0.0009999957227625831
000080 7f 64 5d cf 4a 62 50 3f 69 3e d7 6f 4d 62 50 3f
       0.0009999971930112759 0.0009999996394646443
000090 43 19 1e 9e 4d 62 50 3f 99 00 8c 0d 4d 62 50 3f
       0.000999999807818578 0.0009999992818734758
0000a0 e7 19 4f 6e 4d 62 50 bf f5 ed 68 ba 4c 62 50 bf
       -0.0009999996338919627 -0.0009999989794228202
0000b0 b8 da c9 17 4d 62 50 3f fc df 4c 71 4d 62 50 3f
       0.0009999993191322342 0.0009999996447742623
0000c0 3b f0 fd 91 4d 62 50 3f ca 47 3a e0 4c 62 50 bf
       0.0009999997637058073 -0.0009999991170030914
0000d0 e1 14 27 af 4d 62 50 3f dc 36 70 87 4b 62 50 3f
       0.000999999869791872 0.0009999978626668493
0000e0 06 c3 6c 5f 4d 62 50 3f 5b 41 26 95 4d 62 50 3f
       0.0009999995797437835 0.0009999997751926812
0000f0 0c 8a 18 f1 4c 62 50 3f 4f 51 bf 96 4d 62 50 bf
       0.00099999917836924 -0.0009999997810058064
000100 76 0f ce 6f db 61 50 3f b3 d2 71 28 3e 62 50 bf
       0.0009998934685606343 -0.0009999854098882543
000110 4e a5 cd 99 4c 62 50 bf 03 96 a2 af 4d 62 50 bf
       -0.0009999988608007829 -0.0009999998715469755
000120 4c f3 66 eb 4c 62 50 3f 86 54 de db 4b 62 50 3f
       0.0009999991576556564 0.0009999981698219098
000130 ac 22 5d 58 4d 62 50 bf 84 c7 51 b2 49 62 50 bf
       -0.0009999995540558677 -0.0009999961560222823
000140 ea 20 98 0e 4d 62 50 3f 75 79 69 79 4d 62 50 bf
       0.0009999992856837788 -0.0009999996742845161
000150 a0 8a bf b6 40 62 50 bf bc d9 dc 51 4d 62 50 bf
       -0.0009999877902308399 -0.0009999995304049566
000160 9b 9b d3 63 4a 62 50 3f 32 ea 4f 58 4d 62 50 3f
       0.0009999968017895048 0.0009999995538679915
000170 4a 82 fd f7 4b 62 50 3f 4e 8f e0 d5 fd 61 50 3f
       0.0009999982721283934 0.0009999255048649017
000180 c7 73 a3 6e 4d 62 50 3f a9 c6 31 86 4d 62 50 3f
       0.0009999996350906635 0.0009999997207867184
000190 55 6b eb 98 4d 62 50 3f 44 06 56 ef 4b 62 50 bf
       0.0009999997889084862 -0.0009999982406444655
0001a0 5e 5c 01 a5 4d 62 50 bf 2d ac dc 65 8f 51 50 bf
       -0.00099999983287604 -0.0009960079546072018
0001b0 fa ac 9f 8c 4d 62 50 bf 72 f3 f1 7b 4d 62 50 bf
       -0.0009999997441763595 -0.0009999996834999217
0001c0 9e 2d b4 b0 4a 62 50 bf 32 04 d2 86 4d 62 50 bf
       -0.0009999970814672308 -0.000999999723063871
0001d0 ca 65 53 3d 4d 62 50 bf 95 95 59 4d 49 62 50 3f
       -0.0009999994556920571 0.0009999957886973377
0001e0 b9 01 45 47 4a 62 50 3f 2e f3 18 53 4c 62 50 3f
       0.0009999966978996146 0.0009999986035744246
0001f0 e3 6f ac 6d 4d 62 50 bf 50 99 26 9f 29 60 50 3f
       -0.0009999996315803665 0.0009994894468064626
000200 23 a3 f0 88 4d 62 50 3f 6f 98 1a 6c 4d 62 50 bf
       0.0009999997307749773 -0.0009999996258698537
000210 95 fd 02 db 0e 62 50 3f d1 39 1e 75 4b 62 50 bf
       0.0009999413560278548 -0.0009999977960181048
000220 d7 d4 ce 29 4d 62 50 bf 39 01 bf 28 4d 62 50 bf
       -0.0009999993846865807 -0.000999999380823692
000230 25 ed 2d d3 4c 62 50 3f 5d c8 95 ad 4d 62 50 bf
       0.0009999990695338048 -0.000999999864089072
000240 9f 51 f8 36 4d 62 50 bf bf 66 64 12 4b 62 50 bf
       -0.000999999432569877 -0.0009999974368554568
000250 65 d6 b1 ab 4d 62 50 3f c0 f2 08 a2 49 62 50 bf
       0.000999999857211797 -0.000999996096779629
000260 c9 e5 7d 71 0a 1f 50 3f 92 46 24 26 4d 62 50 bf
       0.0009839632020586123 -0.0009999993713489014
000270 80 bb bf 7b 4d 62 50 bf 43 5d a2 8a 4d 62 50 bf
       -0.0009999996827862734 -0.0009999997369386094
000280 ac ad 51 30 4d 62 50 3f a7 e7 92 77 4d 62 50 3f
       0.0009999994083739012 0.0009999996675973206
000290 f2 b3 a0 a9 4d 62 50 3f 1a e5 f0 79 4d 62 50 bf
       0.0009999998496923426 -0.000999999676208957
0002a0 8a 8a a2 10 4d 62 50 bf 24 e2 ff dd 46 62 50 3f
       -0.0009999992931077084 0.0009999935209618139
0002b0 24 83 c9 ca 49 62 50 3f 5e e9 3e a1 4d 62 50 3f
       0.0009999962450352807 0.000999999819198814
0002c0 40 9f de c6 46 62 50 bf 3c 55 49 af 4d 62 50 3f
       -0.00099999343681563 0.0009999998702786136
0002d0 7f a7 91 dd 4b 62 50 bf 08 44 c1 48 4c 62 50 bf
       -0.0009999981760082375 -0.0009999985659485695
0002e0 fb 20 cb 90 4d 62 50 bf e3 a0 21 71 4d 62 50 bf
       -0.000999999759345781 -0.000999999644159693
0002f0 14 a5 23 a0 4d 62 50 bf a0 b9 db 96 4d 62 50 bf
       -0.0009999998151733512 -0.000999999781409501
000300 ad b2 a3 a5 4d 62 50 bf 84 9b 6f e6 49 62 50 bf
       -0.0009999998351829895 -0.0009999963456210634
000310 40 5d 29 8b 4d 62 50 bf e9 ae db 60 4b 62 50 3f
       -0.0009999997388570742 0.0009999977223129014
000320 f0 6a 60 80 4d 62 50 3f 8f 1d 27 8c 4d 62 50 3f
       0.000999999699621664 0.0009999997424630957
000330 fb d2 21 a6 4b 62 50 3f 55 dd 9e 47 4d 62 50 bf
       0.0009999979743302012 -0.0009999994931442953
000340 cf 35 f4 99 4d 62 50 bf 0b dd 2c ac 4d 62 50 bf
       -0.0009999997926713915 -0.0009999998589601013
000350 de 44 2e 75 4d 62 50 3f b4 02 69 55 4b 62 50 3f
       0.0009999996588912412 0.0009999976806655377
000360 f7 53 bb a2 4d 62 50 bf 97 92 79 b2 4d 62 50 bf
       -0.000999999824604856 -0.000999999881878077
000370 db bf d2 6f f0 61 50 3f 1e c5 2f 8c 4d 62 50 bf
       0.0009999130264013365 -0.0009999997425860839
000380 30 fa 1b 35 4c 62 50 bf d9 e5 fd 43 4d 62 50 bf
       -0.000999998494478082 -0.000999999479942884
000390 57 d4 e8 7d 4d 62 50 bf 6a 7a d9 36 4d 62 50 3f
       -0.000999999690646255 0.000999999432131605
0003a0 f7 b1 5a 28 4d 62 50 3f 53 54 89 92 4d 62 50 3f
       0.0009999993793982068 0.0009999997656866724
0003b0 ee 3e ec 4c 4d 62 50 bf 64 96 fc fe 4c 62 50 3f
       -0.0009999995124338429 0.0009999992289037246
0003c0 00 84 bb 58 4d 62 50 bf e0 4a 14 a3 4d 62 50 3f
       -0.0009999995553970908 0.0009999998258691176
0003d0 d2 2e a3 7d 4d 62 50 3f c5 46 df 93 4a 62 50 3f
       0.0009999996896565178 0.0009999969765783084
0003e0 f2 b4 61 f8 4c 62 50 bf 83 a0 d3 3a 4d 62 50 bf
       -0.0009999992048748655 -0.0009999994466003699
0003f0 70 cf 33 78 4b 62 50 3f 1e d5 7c 8f 4d 62 50 3f
       0.0009999978072387748 0.0009999997545951443

linear_layers.0.layer.weight f8 [100, 128]
000000 0f f6 b5 a9 7c e3 9f bf ed d2 55 64 9e 6e b2 bf
       -0.031141231401752786 -0.07200040769187029
000010 e4 5f 01 b5 81 11 b1 bf 30 82 2c 65 9f 61 b5 3f
       -0.0666733805568352 0.08352085323395708
000020 e1 ba a8 38 bf c8 ab bf 99 33 bf 1d 6f e7 a2 bf
       -0.05426595274581359 -0.03692195165749652
000030 a6 d4 c3 64 72 4d a2 bf c1 73 26 b3 34 db 9e 3f
       -0.0357471225742441 0.03013307898946827
000040 83 be 30 b9 60 e7 b3 bf 74 df 3a 9d fe ce 6d 3f
       -0.07774929543733759 0.0036387417729563613
000050 fd be ce 68 66 e1 b2 3f 8c 3d 8a 32 e4 b3 97 bf
       0.07375183161525097 -0.02314716871711435
000060 91 5b a1 fd 16 c0 b0 3f b0 31 d7 b8 6a 26 94 bf
       0.06543105785509186 -0.019677798778319378
000070 86 45 cb 9a 89 78 a6 3f 4f 1f 42 8a 3e 1b af bf
       0.043888378282313886 -0.06075473249171514
000080 c2 0e 50 9d 6e 9a a0 bf ba e9 1d f7 c9 61 8e 3f
       -0.032428223326886677 0.01483495507612963
000090 9b a2 50 1e bf ea 98 bf 01 ff c7 ea 6e 34 a1 bf
       -0.02433298704650842 -0.033603159103220655
0000a0 f7 e7 38 a3 ac fb 99 3f a5 80 b4 34 63 43 a5 3f
       0.025374124014184898 0.04152975099918991
0000b0 9c 9e de 36 c5 81 b5 3f 6d c2 a0 2f 51 3a ae 3f
       0.08401138867940933 0.059038674415550975
0000c0 c5 09 30 c7 1c ea ab 3f be 66 f3 95 3a b9 a4 3f
       0.054520510973833626 0.0404756839795488
0000d0 b2 d6 48 d5 53 ce b3 3f 03 99 66 46 60 36 b3 bf
       0.07736705739156483 -0.07504846304673056
0000e0 f0 e4 16 47 09 a3 8f bf fd 29 f9 29 41 b0 9f 3f
       -0.015447685701348551 0.030945795237395036
0000f0 fd 6e a0 60 c0 06 85 bf c6 ce 1d 92 66 39 a5 bf
       -0.010266783665478391 -0.04145355733535676
000100 73 34 60 45 a1 fc 85 3f bc 72 33 3f df 0d 82 3f
       0.010735759668046385 0.008815521351089976
000110 01 d2 a7 81 bb 46 9a 3f 63 bb b3 3e c0 05 b6 3f
       0.025660447872683182 0.08602525263607456
000120 0e 49 cf 64 40 c1 90 bf e2 63 1a 0a cf 6a 91 3f
       -0.01636219611447936 0.017009005538600415
000130 e2 d6 d8 d7 69 55 8e 3f 3e 69 6b 53 63 a1 af 3f
       0.014811350726727072 0.06177816766076426
000140 fa 2f 2c c6 9f 34 79 bf 67 73 0c cf b4 1f a9 3f
       -0.006153701894401559 0.04907002475213212
000150 f1 fe 77 49 b0 9a b3 bf df 13 c3 1d 57 8a 21 3f
       -0.07657911103887806 0.00013382256918795154
000160 49 ad 6d d9 85 67 74 bf 35 48 06 48 07 eb af 3f
       -0.004981539582199553 0.062339999715860385
000170 ae 79 53 45 52 11 a0 bf a5 f5 a2 46 79 6e b5 bf
       -0.031382151568084424 -0.08371694540524872
000180 b4 05 ef 15 79 e5 a9 3f 1a 40 5d 0e 48 0c aa 3f
       0.05057886498208167 0.05087495017380679
000190 8e be 28 20 da 65 98 bf 7b f8 31 55 49 15 b5 bf
       -0.023826034748877727 -0.08235605554543383
0001a0 cc 48 99 f7 c8 8f b3 3f 64 81 87 53 1b a3 b1 3f
       0.07641273541347288 0.06889506139078133
0001b0 3e 14 ae 34 87 b0 a2 bf dc 68 89 49 82 f6 a6 bf
       -0.03650305288378107 -0.04484946391740305
0001c0 e9 e7 93 36 57 5a a9 3f e4 22 19 72 d4 bb ab 3f
       0.049517369663547424 0.05416740315246729
0001d0 e6 52 77 1e 7d 86 b0 3f d6 09 bd de 2a 56 b1 3f
       0.06455213540841562 0.0677210611147879
0001e0 d0 3b 24 62 d4 05 ae bf 91 11 76 b9 5c 94 8f 3f
       -0.05863822649018113 0.01541969719870265
0001f0 21 f8 8a fb 51 d2 b3 3f 22 d8 97 f6 4e 2a 97 bf
       0.07742798224623516 -0.022622331429339344
000200 00 eb df f9 3b 07 b1 bf 38 b1 ae 0e df 5b 93 3f
       -0.06651663637596172 0.018905148764745777
000210 1d 7d 53 5b 8a 47 b6 3f 60 2b 60 b0 6e a5 b0 bf
       0.08702912072793763 -0.06502429777189667
000220 4b c5 26 1c 05 67 b0 bf 7e eb 96 58 d5 ff b4 bf
       -0.06407195985118112 -0.08202870762663214
000230 7e de 30 c9 28 92 b4 3f df 39 2b bc c3 44 a1 bf
       0.08035521423232159 -0.03372775718672804
000240 3f 1f 63 57 22 5d aa bf d6 b9 b0 59 6b 88 ac 3f
       -0.05149180714357592 0.05572829694607477
000250 78 63 71 38 22 d4 88 bf b1 f6 f5 45 76 2a a5 3f
       -0.012123362872601837 0.04133958438886277
000260 5d a9 a8 35 b6 92 8a bf 26 a5 58 34 ca 35 a4 bf
       -0.01297514296773688 -0.03947288407318643
000270 25 e8 2f 1e 0d ed 9b bf a5 99 97 51 f6 5d 70 bf
       -0.02727146622417122 -0.0039958593201618086
000280 19 a4 4a 5a c9 1d 82 3f 4f 3a 9a 9b 4b ee 70 bf
       0.008845875804881985 -0.004133506148390766
000290 96 94 af b4 1f a4 b3 bf 17 ad 51 94 fb 51 90 3f
       -0.07672308121944335 0.0159377393032801
0002a0 eb 9f 50 06 ea 48 a8 bf 75 8f 2a 11 ce 0c a5 bf
       -0.04743129088484451 -0.041113319011201556
0002b0 39 27 f1 9e 6e 53 b5 3f e2 7b cf 37 82 6a b0 bf
       0.08330432300968206 -0.06412519323883673
0002c0 78 bc 8c a8 1e c7 86 bf 12 46 a9 51 de 73 aa bf
       -0.011121978300790966 -0.05166525599328166
0002d0 8a 04 84 8b a1 39 82 3f d1 07 94 46 e9 a2 ab bf
       0.008898984975987529 -0.053977289071567854
0002e0 4a 4c eb 71 1a 11 b4 bf 47 16 cf 4c 39 35 b5 3f
       -0.07838597565869168 0.08284338116853816
0002f0 b7 e7 2d a2 7c 83 a3 bf 13 45 7b 2f 14 d5 a0 bf
       -0.0381125400517272 -0.032875662609180754
000300 f4 ab b0 3e 53 2f 9d 3f 8a 08 f3 63 ea f0 b3 3f
       0.028500843716908933 0.07789483013314871
000310 e8 3d 2a b7 c1 16 a4 bf dc 53 22 04 3d fb b3 bf
       -0.039236119851121576 -0.07805234290056212
000320 f7 c5 63 a1 94 fe b1 3f f9 c0 20 8d b4 07 96 3f
       0.07029084148577867 0.021513768304601808
000330 57 af 85 38 d3 7f a1 3f dc 5c 18 69 39 77 a9 bf
       0.03417835297554344 -0.04973773391628253
000340 4a fe 5d 04 23 0a ad 3f 54 d3 e8 b0 b1 e4 a5 3f
       0.05671796253500057 0.04276042255916104
000350 ee da 43 fb c3 a0 7f 3f 03 5b 59 68 73 b0 b4 3f
       0.007721677353621044 0.08081742570480448
000360 4b d5 0f a2 cd f2 b4 3f f5 fc 1b c5 36 35 b4 3f
       0.08182988363826842 0.07893698036422221
000370 11 75 e1 2e 86 76 b0 bf 06 f9 8b 55 33 82 1b 3f
       -0.06430853504703672 0.00010493696516886497
000380 ed 42 32 30 7e 71 6a bf 8a a9 f4 5d 00 36 ae 3f
       -0.0032279457678402374 0.059005748242571945
000390 17 29 6b af 86 25 b2 3f c6 8a 27 97 e3 cc 77 bf
       0.07088510306053696 -0.005810631776031533
0003a0 cf 77 7a f4 63 6c 92 bf c3 b9 c5 15 15 66 af 3f
       -0.017991601750160954 0.06132570162559461
0003b0 35 7f 05 c9 c9 a8 b4 bf 76 e5 36 a3 e7 34 b2 bf
       -0.08070050390005863 -0.07111976370551595
0003c0 ae 00 ec 8b 1f 66 9d bf 1d 3b 55 b5 51 b1 a4 bf
       -0.028709881701616417 -0.040415337930076435
0003d0 6d fc 58 f0 4c f3 b1 bf fa c0 34 30 15 54 94 bf
       -0.07011872165547724 -0.019852000300660123
0003e0 74 9f e1 f4 9a 23 b2 bf cb 9e dd 00 be f9 a3 bf
       -0.07085579374836276 -0.03901475678031615
0003f0 3f a7 a7 3d 4d 0b b4 bf 40 90 8d 36 fd 74 a6 bf
       -0.07829745059248426 -0.04386130610399208
000400 e2 a8 99 a2 0a 9a af bf 25 d7 ea 05 99 09 9f 3f
       -0.061722118710194854 0.030310049997488115
000410 73 5a f1 82 5a 52 97 bf 81 6e b6 10 c0 1e 70 3f
       -0.022775091402162006 0.003935575728430175
000420 cd f8 5d 03 3c 6f 5b 3f 62 2f f5 c1 f9 20 a0 bf
       0.0016744695726341075 -0.03150158398292892
000430 ac 1d 20 ca 2a 6f a1 3f 5b a5 d4 e0 23 36 b4 bf
       0.034051263021008665 -0.07895111311940665
000440 cb ed 6f 08 3a ba b5 3f 07 ff ea 9e 95 55 b3 3f
       0.08487284379946584 0.07552466516335353
000450 03 be 39 fd 33 22 a9 bf e2 4c 78 b1 ad ad 9b 3f
       -0.04908907381183882 0.02702971835794877
000460 ed 40 d5 58 7c d2 96 bf 31 d5 9f 86 d3 6a 8a bf
       -0.022287314340531706 -0.01289906744566824
000470 57 55 94 76 00 28 ae 3f a5 39 8a dc 00 28 b2 3f
       0.05889893958571218 0.07092290291095667
000480 5a ba 32 36 e5 ef a1 bf e3 10 32 4d 77 a0 b3 3f
       -0.035033381334291305 0.07666726717622256
000490 59 27 c7 ad d8 32 a7 bf b0 55 f7 b8 02 0a 9d bf
       -0.04530980225861354 -0.02835850004142565
0004a0 dc 8f 10 57 c5 e6 ad 3f 7b 7f 2b df fa 0b a7 bf
       0.05840126693536238 -0.04501327490083803
0004b0 7f 18 14 ac 19 b9 a5 bf 16 0b f8 3f b7 36 b3 3f
       -0.04242782807891476 0.07505364715329352
0004c0 40 ed 9d bb 15 37 a0 bf 6d e6 dd ab d6 49 b5 3f
       -0.03167026438947085 0.08315793701140146
0004d0 3a e1 29 e9 e5 fe 93 3f e1 c8 ae 7a cf a4 89 3f
       0.019527046543289496 0.012521382266502847
0004e0 fc 55 7c d8 1d ab b2 bf 6e 68 30 67 8c 3c b4 bf
       -0.07292353186888784 -0.0790488960196016
0004f0 7b b9 23 b7 3b c6 b6 bf d2 5e 35 a1 8f 6d b4 3f
       -0.08896229954891581 0.0797967690062891
000500 88 4d 39 18 35 fc 9b bf 74 d1 01 46 45 47 af 3f
       -0.027329282382493797 0.06109062652186284
000510 21 5c b3 ad 37 fd ac bf 6e 06 40 0a 0d eb ad 3f
       -0.05661939616555168 0.05843392133830326
000520 4d fa 85 85 de f7 a0 3f 68 5f 25 55 3e a9 96 3f
       0.03314109210895264 0.022129987666033385
000530 aa e5 b8 51 2e 24 b4 3f a3 c3 9e f9 83 be 85 3f
       0.07867707724735476 0.010617285781195756
000540 90 84 d2 07 c5 e7 8e bf e8 d5 e1 a1 72 c2 5b bf
       -0.0150905030262172 -0.0016943091827931137
000550 25 ce 39 a2 f6 fb b3 3f 31 83 1a 13 6f ef ac bf
       0.07806340656844009 -0.05651423557470137
000560 b0 0e 3d 45 80 f4 9a 3f da 14 95 fa e5 c5 b3 bf
       0.026323322511656755 -0.07723843925221577
000570 2f 78 63 7e e9 4f a3 bf 09 52 b6 be 40 67 9f 3f
       -0.03771905582264911 0.030667316093586226
000580 22 bb 38 1f db 77 ab bf 63 16 79 38 3f 70 b0 3f
       -0.0536488032924949 0.06421275261626529
000590 0c 10 b4 08 04 24 94 3f 0c 4d a7 39 0a f0 96 3f
       0.019668639212810077 0.022400054711238446
0005a0 93 64 09 91 f1 3a b3 bf 05 a7 ea 06 a7 20 a3 bf
       -0.07511815825400196 -0.03735849341803824
0005b0 e9 6b 64 d6 bd 2c 8c bf 96 54 6e 0e 5b d0 b4 3f
       -0.013757212739212892 0.0813042555076485
0005c0 e5 64 e9 9c f0 70 68 3f 50 fa 6a 92 73 36 ad 3f
       0.002983541438237413 0.057056056617046935
0005d0 5b 11 be 25 33 c9 82 bf 1e 3e 15 f7 0b 13 a6 3f
       -0.009172820653255689 0.04311406508588454
0005e0 74 2e 95 83 39 91 b1 bf 9c 63 82 03 69 9c ad 3f
       -0.06862220251530876 0.05783394019926577
0005f0 94 77 ed e4 ce 1e a9 3f 5a 2c fd ac 5f 76 b4 bf
       0.04906317276503028 -0.0799312398277591
000600 fb ae 01 ef a4 d0 b0 bf 02 cd f3 b5 b7 d2 b3 3f
       -0.06568365893479815 0.07743404571720094
000610 5a 7f 2f 99 e3 52 96 bf fe 9a e1 85 68 09 b5 3f
       -0.021800571655944047 0.0821748091562817
000620 d8 9d 52 8a 54 cd b4 bf 21 04 05 a7 a1 8f b3 bf
       -0.0812580907537418 -0.07641039207102597
000630 c4 ee bb b0 7a 0d b2 3f 0d 69 49 36 1c 9e 96 bf
       0.07051817717359216 -0.02208751756038745
000640 bf c4 f4 06 77 f9 b5 3f d3 65 ab f0 da e3 88 3f
       0.08583778304889032 0.012153349370623545
000650 60 d5 94 a1 6e 5e a5 bf 9d 47 d3 f6 c9 98 a2 3f
       -0.0417360851519486 0.036321936969798
000660 07 c0 b0 8a 79 2e b5 bf 99 a9 bb 62 52 87 5d 3f
       -0.08274039875027493 0.001802282767068597
000670 e3 ac 60 07 0f 5a 81 3f 8e 45 16 12 43 a4 94 3f
       0.008472554600379606 0.020157859782164382
000680 6f 71 0a 78 34 0c ad bf fc 67 7c 3b 7e be b3 bf
       -0.05673374142972675 -0.07712544395727144
000690 7e 30 64 e1 5e 73 af bf 36 92 d5 ec 61 d2 85 bf
       -0.06142708302840648 -0.010655179061992742
0006a0 87 55 8c a3 8c 86 a4 3f a0 f6 9f 0b 5a ee b0 3f
       0.04008903023183579 0.06613695892152771
0006b0 3c 20 fc b3 ef 05 81 3f b2 88 7f 23 69 cd 7d bf
       0.008312103920175777 -0.007275973031911119
0006c0 d4 05 42 57 9d 78 b4 bf a8 e1 ea ef e9 7b a5 3f
       -0.07996543293304309 0.041961012398533726
0006d0 04 7c 17 9b 28 61 a3 3f d3 43 31 ad e3 34 a7 bf
       0.037850636417481126 -0.04532538880506078
0006e0 35 b9 5b c0 a7 17 90 3f cc 5b a0 36 6b c9 a8 bf
       0.015715237727755144 -0.04841170350862675
0006f0 34 6e 13 e4 5d 30 ae 3f b6 fe a1 f4 a5 ae 6b 3f
       0.05896275910501139 0.0033791772194147985
000700 1d 48 1b 34 4a 0f b1 3f 8c c4 88 5d 09 fd a4 3f
       0.0666395547116569 0.040993015926127446
000710 f3 cb 1c af 04 b0 b3 3f a9 b6 62 71 a5 f8 ab bf
       0.07690457606513217 -0.054631395426765046
000720 08 09 69 91 a7 b3 7b bf 4d 32 ca 8f 75 ba b5 bf
       -0.006763128817114834 -0.0848763919877424
000730 ce 1e 83 7e e3 b5 9e bf 09 9b d6 66 a0 53 b3 bf
       -0.029990725132647715 -0.07549479017925988
000740 70 97 a4 98 9b 6c b5 3f 8e e9 a6 06 3c d2 89 bf
       0.08368847347864317 -0.012608021691325157
000750 24 90 f5 94 25 fb a6 bf 00 dd 4d b8 9b 3e b0 bf
       -0.04488484805440887 -0.06345532655346986
000760 ae 7f 7d 77 06 ab 79 3f 6e e8 f6 25 09 c4 ae 3f
       0.00626661802365895 0.06008938396867412
000770 64 47 c8 f3 88 4a b2 bf 1a 40 fb 4b 6a 77 b5 3f
       -0.07144981338231343 0.08385338168159287
000780 18 67 3f ab 79 83 8b bf 94 d2 8a 65 e2 65 b4 3f
       -0.013434362925113727 0.07967963198718514
000790 b8 9b 0e 10 d2 61 b0 3f 5e 7b d5 fe b5 03 b4 bf
       0.06399262325304178 -0.078181624141036
0007a0 8f e8 91 ce ce 6f 9f bf 32 b1 c0 d1 94 09 a2 bf
       -0.030699950559644192 -0.035229349712923144
0007b0 dd 59 6c 22 d0 dc ad bf be 43 29 0e 22 2e b6 3f
       -0.058325294687324926 0.08664143415195633
0007c0 6b 6b 67 84 64 df 9f 3f b9 b9 03 95 1a c9 a0 3f
       0.031125612813279895 0.032784300508740434
0007d0 9d 48 e7 22 e7 b6 a4 3f 75 a5 78 8f 3a 63 a1 bf
       0.040457938204455625 -0.03396018029554685
0007e0 7e 0b eb f9 0f cf b5 bf 81 a8 40 92 f8 ff a4 bf
       -0.08519077159421148 -0.04101540360746104
0007f0 fc d5 94 49 fc 24 b6 bf d5 79 96 7e bc 83 93 bf
       -0.08650185390873583 -0.019057221628480853

linear_layers.0.layer.bias f8 [100]
000000 18 eb 94 78 b1 b6 b4 3f 17 c0 9f 05 b1 2d 98 3f
       0.08091267770661792 0.023611799209845765
000010 22 07 f4 dd b1 d5 98 bf 2d b8 c2 e9 1d 0f 9c 3f
       -0.02425268094248801 0.027401416199318063
000020 87 7e 36 a3 1c a5 b2 3f 32 c8 35 8c 58 fa 74 bf
       0.07283190712632336 -0.005121560944973113
000030 1e e8 be fa 17 40 a6 3f 12 fd 1b 9a 8b 62 a7 3f
       0.04345774589405969 0.04567371612756167
000040 2f 13 c3 2f 1d 2f 92 3f 3e 13 0c 9d f7 48 99 bf
       0.017757850685273965 -0.02469241043128822
000050 be a6 8f b3 5f d0 af 3f f0 0c e5 ae c6 16 6f bf
       0.0621366411867945 -0.003795040181246649
000060 f9 e1 75 34 51 fc b5 3f b6 02 70 a5 f9 d1 a6 bf
       0.08588130503438397 -0.044570733494770406
000070 e7 c1 c0 8c 70 40 93 3f 87 e8 d6 ae 64 43 9a 3f
       0.018800505247954204 0.02564771000991375
000080 b0 76 03 4f d7 fa 71 bf 61 f1 7e 1f 9c 2f a3 bf
       -0.004389611291313919 -0.03747260937186315
000090 77 82 52 a9 64 19 9d 3f 5a 8a bb cd 18 b6 80 3f
       0.02841717990361522 0.008159822252712324
0000a0 aa f4 ad cc ce c4 af bf 63 77 4c 64 53 11 a6 3f
       -0.06204839943436842 0.043100934976094483
0000b0 bf 24 f1 7f ab 56 b4 3f eb 9b 31 9f ca 4b aa bf
       0.07944747804244211 -0.05135949319156182
0000c0 f6 e0 e5 b7 7f 47 b0 3f 4e 4f 5c 4d be 85 b1 3f
       0.06359098663040527 0.06844701183973464
0000d0 f7 dc bc 07 17 69 a6 bf 37 9e 21 12 32 3d ad 3f
       -0.043770522779988434 0.057107510293289136
0000e0 c6 84 88 3d e5 ec b1 bf fa da 6b 13 eb 7b b2 bf
       -0.07002098800923581 -0.07220334266808584
0000f0 67 60 fd 0b bc 6f a6 bf 95 bd 6c 5d f0 04 b2 bf
       -0.0438212170253685 -0.07038786202314491
000100 f3 88 b8 95 48 00 b4 bf 1f eb c4 c0 a4 60 ae bf
       -0.0781293263940233 -0.05933108189716151
000110 93 05 38 d0 d5 6f a8 bf 06 7a 3f d1 41 dc b6 bf
       -0.04772823492750002 -0.0892983566149966
000120 d3 44 69 dc f4 b2 ad bf 0a bf 08 d0 5e 8a ac bf
       -0.05800595465246663 -0.055743182081981216
000130 30 a3 05 3c e9 12 92 bf 4b 09 1c cc d2 2c 9a 3f
       -0.01765026501508088 0.02556161280427575
000140 45 ce 03 9c 50 2d a1 3f be 09 b9 84 48 20 a5 3f
       0.03354885010221812 0.04126192684317996
000150 29 e1 cf 96 3b 69 a0 bf 77 b0 99 7b 96 09 ad 3f
       -0.032052862319633064 0.0567137742881138
000160 b7 1d 1f 2e 29 46 74 3f d3 db 13 7f 64 17 89 3f
       0.004949723110207519 0.01225164902505852
000170 91 2e cf 8d ae ac a9 3f 3a e5 62 03 46 14 a9 bf
       0.05014558297224626 -0.04898279944741053
000180 8b f0 e8 ac 51 3d ae bf d7 90 71 78 e7 c8 b3 3f
       -0.05906157718388368 0.07728430452840783
000190 8b 70 34 55 e2 a2 3a 3f d6 11 6b 83 ee d3 b3 3f
       0.00040643716529743167 0.07745257099583766
0001a0 d5 3f 1b 7b 3d 39 b4 3f b8 11 ac b2 35 54 a5 3f
       0.0789984155228461 0.04165809446388685
0001b0 de 7f 39 4a fd 7a a6 3f 3d f8 78 05 06 78 b0 3f
       0.04390708476125814 0.06433141358954315
0001c0 c1 f2 d5 42 f5 85 88 bf 77 d8 95 6a f5 7d a4 3f
       -0.01197425470558622 0.04002348829355722
0001d0 03 c3 8a 4b 4a a4 b5 3f b0 de c7 93 a1 86 98 bf
       0.08453811973846474 -0.02395107712251726
0001e0 41 2a b6 81 d8 71 af 3f 82 8e b0 1e 18 9c 9b 3f
       0.061415448984082584 0.02696263968768032
0001f0 55 e4 6a ba ac ac 6d 3f 97 96 e1 e5 da 54 b3 3f
       0.0036223767850427726 0.07551353561719974
000200 a4 96 a7 e3 e3 b3 ac bf 48 cd 64 c4 c3 d8 96 bf
       -0.05605995325076421 -0.022311266767429033
000210 14 a4 c4 0c d2 ed 68 bf 24 40 a1 c6 02 52 b0 3f
       -0.003043089154875842 0.06375138615953851
000220 a2 4e e7 13 e7 91 8c bf 80 c9 09 f5 78 df 97 3f
       -0.01395016221514506 0.02331341739267989
000230 73 cc 16 14 7e 69 a6 3f b9 f1 d5 00 86 6a 94 3f
       0.04377359385707615 0.01993760471440151
000240 a4 dc f4 45 96 64 9d 3f 4d 76 ad 90 bc 90 b6 3f
       0.028704021472745325 0.08814600498359333
000250 1b 97 f6 68 d1 d4 b4 bf d4 ae 9f 99 cb 2d a9 bf
       -0.08137234509066753 -0.04917751550951058
000260 50 3d 03 41 ad 31 b4 bf 84 14 67 08 66 f7 b1 3f
       -0.07888300740454679 0.07018125252860058
000270 72 d2 3e ca 9a bb aa 3f fc 63 a5 f7 b1 14 96 3f
       0.052212559879454626 0.021563320865741517
000280 cb 95 7d 39 02 3d ab 3f a3 41 1b f4 19 2d a6 bf
       0.053199834363833874 -0.04331284622969924
000290 94 58 db 92 b2 56 a4 3f ba df 31 30 b1 f3 a6 bf
       0.03972394983945651 -0.04482797349277186
0002a0 74 42 a2 6f c5 c6 b1 bf 19 a8 25 03 20 ca 6f bf
       -0.06943925834117143 -0.0038805604209999453
0002b0 7c 5e fc 4f 5a 68 8b bf 8f 6f 8e e6 5e 82 91 bf
       -0.013382630887959872 -0.017098887273831628
0002c0 08 de ac 2d 99 a3 ae bf 9f 64 21 15 f3 51 ab bf
       -0.0598419063812195 -0.05335960038127862
0002d0 64 c6 d4 6d b0 5f 94 bf 52 c9 57 d8 87 eb a9 bf
       -0.019896275237618957 -0.05062508121399624
0002e0 2a 58 e8 44 2e dd b3 3f e1 a9 e5 7d 8b 20 b6 3f
       0.07759370024027193 0.08643409560833205
0002f0 b2 bf f2 6e 06 73 9e 3f bc 4d 6d b9 4a 58 b4 bf
       0.029735661050551428 -0.07947222735429355
000300 a1 a9 ec 06 86 6c b1 3f 92 be 2c d7 2e bd 8a bf
       0.06806218785337716 -0.01305615038071942
000310 c5 08 ba 2e aa bb a8 bf 1e c3 ff de e1 f2 a0 3f
       -0.04830676861185305 0.03310304495960835
