4_Poisson_2D/logs/models/RBF.pt (torch, 435067 bytes, 14 tensors)

net.0.layer.weight f8 [128, 2]
0	0x4766a1608555ab02	9.400291680210245e+35
1	0x47541e832725f40e	4.178592018555745e+35
2	0x473ccda040bd6e76	1.495549025497753e+35
3	0xc721e56f464b2612	-4.646126723758365e+34
4	0xc744f0bddef1b828	-2.174575171923622e+35
5	0x4758542fa3574dca	5.052904851471251e+35
6	0x478593fac8d19ff2	3.585267757824625e+36
7	0x4769b058c78aaf17	1.0670732750967216e+36
8	0x4769920b3b6fbd75	1.0621563453599402e+36
9	0x4752b23e914dc095	3.883062779139037e+35
10	0xc76f413cefb764cb	-1.298275096937557e+36
11	0xc73e1b92c16694d4	-1.5632815798169066e+35
12	0xc720ffe5d3ac535c	-4.413348647218508e+34
13	0xc7189d168551f857	-3.1950311798196635e+34
14	0x4778145e976c53de	2.0004522737181082e+36
15	0x47430098f2781319	1.973315160667951e+35
16	0xc72b85d4af0ba62f	-7.145321310106936e+34
17	0xc703fc10d8843cb6	-1.297076777393865e+34
18	0x473032aa2f7577f3	8.410435369217348e+34
19	0x472eb64d7e6bc3fc	7.973322199890742e+34
20	0xc73bbaa1be0d8a89	-1.4397735791940647e+35
21	0xc73e2dce68f7f1ea	-1.566979676758752e+35
22	0x477c0430cbfe5827	2.3275089241940945e+36
23	0x47759913afbe68f7	1.7942880387799386e+36
24	0x47719894c02f9605	1.4618201296247853e+36
25	0x476421d59f294308	8.362574523538533e+35
26	0xc736323e1d2fa9a2	-1.1524957254671054e+35
27	0x471004c34e7734fb	2.0793338287651316e+34
28	0x4744c16068ae5a6e	2.155361610500477e+35
29	0xc770e96deca3dde7	-1.4049801644877963e+36
30	0x471ab09e6ca8d61a	3.4645493522579283e+34
31	0xc7202b031d2599da	-4.1974570027261945e+34
32	0xc71f0556a8963ea9	-4.026737011492264e+34
33	0xc696da04fc4893d9	-1.1587157341013247e+32
34	0xc7824e23ce86edec	-3.0414786657738037e+36
35	0xc7712140b7ae6325	-1.4230958969758652e+36
36	0xc76583f86a204233	-8.937192889281806e+35
37	0xc775057057fd8309	-1.746376749809986e+36
38	0x47814a96dff5947e	2.87302075014991e+36
39	0x477846bc06574b00	2.016796642145359e+36
40	0x4738220b21cf64e9	1.2530560850487718e+35
41	0x4770ddab7ea820b0	1.4011639915699094e+36
42	0xc732350f3bd797fe	-9.453751810531054e+34
43	0xc721fe75e7a40100	-4.671506000936979e+34
44	0x4781eca91c71b5a4	2.978210995970094e+36
45	0x4783d138bf6240e4	3.2927091176590005e+36
46	0x47379be3e809122c	1.225846578392462e+35
47	0xc71b96f951689cd3	-3.5813532407052203e+34
48	0x4704a1e15fc829fb	1.339115763706369e+34
49	0x473a66acfb39c2c2	1.370822290959964e+35
50	0x47581db417eb97af	5.008703318222537e+35
51	0xc75cb2ed5e330496	-5.960535487048354e+35
52	0xc73f9f00c7d9574f	-1.6418616759182643e+35
53	0x471e1bb0caa3860e	3.908263442140147e+34
54	0xc76c4377bb0583a7	-1.1740217561129777e+36
55	0x4764ec40fa4b7f35	8.69101871216655e+35
56	0xc7401e1ffd78281e	-1.6737551308534553e+35
57	0xc769b8c31225aeea	-1.0684387195073546e+36
58	0x4784bbc0468c711b	3.4449274050405306e+36
59	0x478229362c624da7	3.017510857738696e+36
60	0x47788d64ae96c08c	2.0397267393254725e+36
61	0x478593018b104714	3.584635856231217e+36
62	0xc7689be7b2fa4bd6	-1.022218041518912e+36
63	0xc771a7fafb9796e2	-1.466817502456452e+36
64	0x4713e6b1e5dd2706	2.5833172261297693e+34
65	0xc728508790722f47	-6.312422893947482e+34
66	0x47519adf80198c6d	3.656409807970506e+35
67	0x47663829647a373b	9.229570022118763e+35
68	0xc750d31a0858d49f	-3.49433602713691e+35
69	0xc74eb0110f8533b3	-3.1867992305671338e+35
70	0x47423f0bcf3fd377	1.8948014181800517e+35
71	0x476a0aab8d440cc4	1.0817290732270848e+36
72	0xc731ade2b80a4d9c	-9.17958659789496e+34
73	0xc70839182d0c9c4e	-1.5721642171276879e+34
74	0xc744a7b99bf6a3c4	-2.144956101058343e+35
75	0x473632941fd0806d	1.1525638698209925e+35
76	0xc726dec868a5ac7a	-5.9374551919504005e+34
77	0xc73e4bcd4bfc33bd	-1.573063517659035e+35
78	0x47275631d726b81c	6.0585531869132e+34
79	0xc6eaf2a6a0a30e8f	-4.3725394698653694e+33
80	0x4735b5461dce746f	1.1271490536352218e+35
81	0xc719768028ddef09	-3.3052724912276306e+34
82	0xc72b541eaddaa4b6	-7.094908411862643e+34
83	0xc731f60937e68ff1	-9.325924971146123e+34
84	0xc76814edffb62330	-1.0003170320823436e+36
85	0x47670af78c3c6b71	9.57162116795383e+35
86	0x478474f207a93af1	3.398971912672975e+36
87	0x4787117eb862a1ec	3.8328853927206753e+36
88	0xc742fced8e803ec7	-1.971826637003467e+35
89	0x475374d098fd38d9	4.040917065273459e+35
90	0xc73144bbfef5b518	-8.966314502076506e+34
91	0xc721f85140cdee03	-4.665276085697787e+34
92	0xc71a8569c27a3927	-3.4426414486026484e+34
93	0xc744299febce5d40	-2.0938037244148485e+35
94	0x4760b3a8a8ab7da9	6.937653087017173e+35
95	0x4719531971bb67c6	3.2873219340725483e+34
96	0x476f4cb00a56d6fd	1.3001329048071413e+36
97	0xc752c54142e93258	-3.8984859473615124e+35
98	0x47243c0732960608	5.253172599983555e+34
99	0x46c4644530e1b746	8.271848437689802e+32
100	0x472032ddc7134f8e	4.2054220625758855e+34
101	0xc707c249d5ab3714	-1.5420433124070813e+34
102	0x477beb2821af2911	2.3193849758169653e+36
103	0xc77f4c03438caa68	-2.6000467893519155e+36
104	0xc751c67a43f27e69	-3.69178602244378e+35
105	0x4771688a5c033035	1.4462300665083863e+36
106	0x4782ba767e4b9292	3.11178430878578e+36
107	0x477050525795fed9	1.3552938611312773e+36
108	0xc731d2f6fb8731c6	-9.254792058401493e+34
109	0x475cd9610ba61a49	5.991731346394896e+35
110	0xc739c73e3a7c9314	-1.3384855122130519e+35
111	0x4700e985870660c3	1.0976641288501163e+34
112	0xc73edcdd64e02920	-1.6024857651225842e+35
113	0x47226e7b8c32b159	4.78510984816015e+34
114	0x475a65b8079419f3	5.482512880768624e+35
115	0x4720879a61aaf78e	4.29135531984049e+34
116	0xc7577d302ac2b3ee	-4.878477805292396e+35
117	0x4723c98dd47a4fa3	5.137082078604866e+34
118	0x47718b4ca3158e7c	1.4575099734794823e+36
119	0xc7689d7ff2d53568	-1.0224768003389941e+36
120	0xc7816bdc51001458	-2.8946150299781697e+36
121	0x473bbcd7f48d16ce	1.4402221792577606e+35
122	0xc7771dfb161aa792	-1.920494571751866e+36
123	0x47625471caf83d6c	7.613926516701871e+35
124	0xc7824de88ca79651	-3.041328430634023e+36
125	0xc781877aae6ded6a	-2.912540534742322e+36
126	0xc76cc326798ae691	-1.1947394415797565e+36
127	0xc76b2cd6cb9aa61e	-1.1288116723375609e+36
128	0x4776c7f9d0d92f28	1.8925843655488092e+36
129	0x4766300dbc9c3c91	9.216413990953157e+35
130	0xc735cf6079c6d6fe	-1.1324433640885742e+35
131	0xc7256e8c7dbe4a6f	-5.564021497202935e+34
132	0x47367c207849ec63	1.1674812220738854e+35
133	0xc71f79eb4d01efa6	-4.0858504156874688e+34
134	0xc76971e45dc5e18c	-1.056939414327728e+36
135	0x473045ff6fcd2549	8.44964737814923e+34
136	0xc74a6fd2547a87b7	-2.7453545969381904e+35
137	0x4770f58295334e8b	1.4089005748139415e+36
138	0xc7711cf9765fbace	-1.4217074961827462e+36
139	0xc755b4b0156f6438	-4.508120741933617e+35
140	0x476c13a90de15d9b	1.1662645734133195e+36
141	0x473e38dabd9105a2	1.5692205110126513e+35
142	0xc762744c7aa9b4f0	-7.665612981626855e+35
143	0x4759e576be905c05	5.3784600464982136e+35
144	0xc7711f18c3b8cb0a	-1.4223962134669393e+36
145	0x4740fc68f73ab9ad	1.763924663987418e+35
146	0x4730c17b1d6b1bfc	8.700100895860377e+34
147	0xc7299c9db79445e2	-6.649198649903146e+34
148	0x473b1e13f139f0c7	1.4080206745957084e+35
149	0xc75429baddb22dd8	-4.187692840570655e+35
150	0x4741e4c4cbcb2b73	1.8581805555130313e+35
151	0x4769cbf6ac0798f3	1.0715543518519755e+36
152	0xc76b3f2212f50335	-1.1317800528794243e+36
153	0x474922fdafc673bd	2.610342450296031e+35
154	0x475e440519488a2e	6.285940542989046e+35
155	0xc74f7da9cf971d5f	-3.270199152411691e+35
156	0xc771ee848e9697fa	-1.489708197234256e+36
157	0x476cfdbd1869e64f	1.2042459467766343e+36
158	0xc7209bebe1f85303	-4.311960588882346e+34
159	0xc73ca88d96844268	-1.4880297460594644e+35
160	0x4761913fef289c4c	7.297204910229795e+35
161	0xc76958867bf3e04d	-1.0528234275500269e+36
162	0x477aad6d2503f303	2.2162755601403367e+36
163	0x475a0f7e2f42bfbc	5.412558073637084e+35
164	0x472af950603c6b8f	7.002820317491017e+34
165	0xc721fbd3d75b8bf7	-4.668835759892474e+34
166	0x475c2ae41220ce27	5.850169714950845e+35
167	0xc765ccd1fd2909e6	-9.055398609892959e+35
168	0xc7425babbc64c865	-1.906412980967398e+35
169	0xc747c3283c4f5dfd	-2.467621708211265e+35
170	0x47797e2e6e9d873e	2.117866940843161e+36
171	0x47640b512b9430b7	8.32603797156055e+35
172	0x47849195e95d8b9c	3.417560441041195e+36
173	0x47856a86f62d2a52	3.5583635906850976e+36
174	0x47848cc69a5bed86	3.4144387028227535e+36
175	0x47782947940e24e7	2.0072379907040764e+36
176	0xc778d9b52d72b5d9	-2.0644921896279215e+36
177	0xc75e9a1ab254c810	-6.355780478322354e+35
178	0x47802b6ff5fbed46	2.686648441726132e+36
179	0x4769229ee5b23182	1.0440769002164955e+36
180	0xc75dc04d4ef13142	-6.179078261653569e+35
181	0x4730b1f88212c0ec	8.668642507643011e+34
182	0xc7660106dcebc046	-9.140108563044213e+35
183	0x4773f1bb2c054b88	1.656904485068379e+36
184	0x476ab81b658be1af	1.109870818211662e+36
185	0xc76361e43a4e3483	-8.051129288755516e+35
186	0xc768c02c9cda5b58	-1.0281030546522106e+36
187	0xc7739a8e7ffe7c65	-1.6286147424392312e+36
188	0x4788041bcec1546e	3.9903506365206966e+36
189	0x477aff1f7b55d479	2.2427876322286866e+36
190	0xc770a0ddd75d206b	-1.3814321815826794e+36
191	0xc776dabac73e813a	-1.8986703085227286e+36
192	0xc73cfc4f1613b8c4	-1.5050174511644636e+35
193	0x4731f4062295a31f	9.321844061074876e+34
194	0xc73136af158daf2d	-8.937816831260025e+34
195	0xc7306f52ae18108d	-8.533464779137283e+34
196	0xc72fd0d30265a664	-8.25983308481435e+34
197	0xc77228d40aee00bf	-1.5086310334528633e+36
198	0x477afb431a81466a	2.241534713955276e+36
199	0x475dd97d43338852	6.199512643984453e+35
200	0x4733d030f1c7e18b	1.0287625928905066e+35
201	0xc725ab6edb2d57df	-5.625765450068308e+34
202	0x473583567990c7c2	1.1170208093200081e+35
203	0x47364626394bf424	1.1565332796266528e+35
204	0xc75a77abf4453582	-5.497077947141639e+35
205	0x4745c67282d85f11	2.2612644727181846e+35
206	0xc737f626a92776e3	-1.2441536352965108e+35
207	0x472576512c67db4f	5.571899479326069e+34
208	0xc73cb25aa4ac76ab	-1.490017624470887e+35
209	0xc7508187b0516610	-3.428157237805377e+35
210	0xc75ab155e1027074	-5.543860354105667e+35
211	0xc7525ca5389d8aa0	-3.81361661222377e+35
212	0x4765cfe03419660e	9.060356483961285e+35
213	0x47344000d27198f3	1.0514407651451322e+35
214	0xc74c12eeb3a30869	-2.9153661461886136e+35
215	0x474ed5170e48cced	3.20181771340322e+35
216	0xc7735b770b6104a5	-1.608140340144897e+36
217	0xc750ca1db7c4a81e	-3.4870460386683185e+35
218	0x477f8f525613fc48	2.621889768593597e+36
219	0x477f0faba6b83013	2.580464613945686e+36
220	0x473965ccf5ae40a0	1.318721834129781e+35
221	0x4721740c538caadc	4.531139135218906e+34
222	0xc74f460742963edd	-3.247630929832385e+35
223	0xc74612462a112efe	-2.29202346502304e+35
224	0xc758e8e2bb3fc7a5	-5.173544285936529e+35
225	0x4767a7ecad20401b	9.826299326108743e+35
226	0xc77cfecdfde39cb2	-2.4088378308238678e+36
227	0xc74b4c8257518a91	-2.8348760999043587e+35
228	0xc7579f8f77e42c13	-4.906363904203223e+35
229	0xc770757fa73e5304	-1.367358486338654e+36
230	0xc773afdbac974077	-1.635527461994645e+36
231	0xc760afd86d2036bb	-6.931465477848762e+35
232	0x47700de239941688	1.3337335111328947e+36
233	0x4731a928b6e0b429	9.169999954253173e+34
234	0x473228de874132f7	9.429027034914831e+34
235	0x4740ef2fb7011bab	1.758560519851291e+35
236	0xc73eb35fc8035829	-1.594070456515824e+35
237	0xc70f5fa0870b3edd	-2.0362593728375028e+34
238	0xc78048b397254180	-2.7056419790843606e+36
239	0xc7638b1e41d4944e	-8.11802339723704e+35
240	0xc74e6d3cff3d6d8a	-3.1596904217106596e+35
241	0xc761e5e77c554e25	-7.434564686331043e+35
242	0xc754f95c66b712b6	-4.356143117669997e+35
243	0x472c2d2acd1afbbe	7.31502057655065e+34
244	0x47317d7ee6553c7d	9.081440182862193e+34
245	0xc731400c41f31dd7	-8.956809195811147e+34
246	0xc777f0adfef5b45e	-1.9888702628723758e+36
247	0xc73fe4819fd30a35	-1.6559586190042469e+35
248	0xc767cfdb28c6b50b	-9.891092009717617e+35
249	0xc76c5c3760e345de	-1.1780374500541316e+36
250	0xc75848d72a327c02	-5.0437002084256666e+35
251	0xc751415d51f90acb	-3.583791872312102e+35
252	0x47406e2af85f6303	1.7062243848676497e+35
253	0xc744b6716f2b45f8	-2.1509264581215117e+35
254	0x476019df38e441ea	6.68811963711969e+35
255	0x47568afbabbfebf7	4.681977713432682e+35

net.0.layer.bias f8 [128]
0	0x475053c5c90ed1cd	3.391034396243133e+35
1	0x473c32b470471c97	1.4641272833670017e+35
2	0x4759650287e97a98	5.2742458140959805e+35
3	0x4761b965b7a274f2	7.362348099866929e+35
4	0x47560cbec3ca471a	4.5795613499201375e+35
5	0x4713858c31d19ab3	2.534057703759023e+34
6	0xc723f055d217018b	-5.176410901525824e+34
7	0x475d630d1ece3db9	6.103424277930588e+35
8	0xc71b9c9d8d5e63a6	-3.5842138412905184e+34
9	0x47218535e9118c04	4.5485439148105615e+34
10	0xc74311b30c2f30b1	-1.9802525377476685e+35
11	0x4769d21645bcee4b	1.0725479366606552e+36
12	0x475c35e53f4619d5	5.859097703179476e+35
13	0xc7363aa79b5166d8	-1.1542018981650307e+35
14	0xc76f5d6161f54b43	-1.3028414572485707e+36
15	0x4719388efea8d1cd	3.273864140338375e+34
16	0xc7232d1a8cf32a38	-4.978422614921057e+34
17	0xc763e4140b70ac5b	-8.262369424447465e+35
18	0xc77100263b29c30d	-1.412353209205924e+36
19	0x476dca4cc7d81452	1.2374379106123169e+36
20	0x476315d3cf5160e8	7.927708177432526e+35
21	0xc73f017df2cb7c7a	-1.6099146368586973e+35
22	0x477b643b570edd0c	2.2755993207289366e+36
23	0x4721756ab68eeb91	4.532527160149876e+34
24	0x470fdd036b1377dd	2.0680485744988237e+34
25	0xc766cd0cc2036f9c	-9.471154851096857e+35
26	0xc6f5138c0bd29926	-6.839668463336595e+33
27	0x475cb019c915d7cf	5.958242362646971e+35
28	0xc76baab47dfeb873	-1.149234599007025e+36
29	0x4776db4e06f15254	1.898856968580672e+36
30	0x477faab51c0c3513	2.6307769795992567e+36
31	0xc76114db791bb343	-7.095366658874356e+35
32	0xc72706c44fb9af80	-5.978003779878578e+34
33	0x4765acb8af9f5bda	9.003315265239342e+35
34	0xc76738bdd97360f9	-9.645894728364181e+35
35	0x475980abdee35fde	5.296687475559164e+35
36	0xc72251d3ab037b59	-4.756049434997957e+34
37	0xc70eb55b07ee3b75	-1.9930904263936846e+34
38	0xc74132d1379cc189	-1.785994859448441e+35
39	0xc70a0dfb01a2f1dc	-1.6910409552752151e+34
40	0xc718858552a06bbe	-3.1830811999860917e+34
41	0xc742d1b686a1f62e	-1.9542965650631723e+35
42	0x476c88b111c3c31e	1.1852539890219515e+36
43	0x4781dfc205140386	2.9698366646993396e+36
44	0xc7256b111e665b4d	-5.560490407193837e+34
45	0xc6f65b04ccbfcab3	-7.254788152572039e+33
46	0xc73002af772dc912	-8.31312163682719e+34
47	0x4749d04881b3e01c	2.6806381445930716e+35
48	0xc73872547020f3b0	-1.2693400916746086e+35
49	0xc7411dfb201c3fa5	-1.7775426536011968e+35
50	0xc73002c3014b1672	-8.313276444771527e+34
51	0x475158b4d3f108c5	3.602729012087824e+35
52	0x4777c979906921b1	1.9761475740357916e+36
53	0x47727d187ee892e8	1.5359773665001515e+36
54	0x47595a582d8c84e6	5.26559298010813e+35
55	0xc73371a246176371	-1.0095840925192725e+35
56	0xc71c00af6d1aa5b6	-3.6349552683373965e+34
57	0x47531ba7f79d9ace	3.968582924317201e+35
58	0x474a48e1cf949fde	2.729558847860143e+35
59	0xc761f95d4d128b4d	-7.466140692662353e+35
60	0xc7600c9761eebd3b	-6.66657059304037e+35
61	0x47561b59b641d125	4.591410546374728e+35
62	0xc78044c52ed62ead	-2.7030904330515796e+36
63	0xc769b453cd7c054b	-1.0677191577910039e+36
64	0x476408c265d00ba7	8.32188785764409e+35
65	0xc744981a26ad987e	-2.138618706659433e+35
66	0x47004e118a1c34c2	1.0582520913429404e+34
67	0x4758bee60c484392	5.139480348323593e+35
68	0x4762db63ce9ff329	7.832887895375604e+35
69	0xc74cd48fb15cd569	-2.9939113478652916e+35
70	0xc73b41ebfd054a73	-1.4152906872897225e+35
71	0x47538dbd4a5fb056	4.061138288262528e+35
72	0xc742acf718b5d626	-1.939389898181262e+35
73	0x471bc90b96460110	3.606742438198582e+34
74	0xc74878674d2a1a04	-2.5411439627851306e+35
75	0x476b1c1472330268	1.1260923404444046e+36
76	0x46ec536a10bbbcfc	4.5961298562508285e+33
77	0x475b11fd38ed5b2a	5.6222751394770005e+35
78	0x4761645d549b387e	7.224374556716973e+35
79	0xc7215a5dcbe93c66	-4.505094739297824e+34
80	0xc7655843b70d2257	-8.866276081030094e+35
81	0x4756bfc37ea115df	4.7247983921442214e+35
82	0x4721a55f8fa8e29e	4.581160765782978e+34
83	0xc75008c1c3dd559d	-3.330174426636221e+35
84	0xc75d8330cd1c50db	-6.129498839441913e+35
85	0x4757ff2fb002a664	4.983944815657429e+35
86	0x477eab3168a5819d	2.5478577978361332e+36
87	0x47726e959d496e36	1.5312681949465886e+36
88	0xc760a50b2186a3bc	-6.913938336537762e+35
89	0x47639539133ce021	8.134419304174263e+35
90	0xc727fd70423b2f13	-6.228158571389304e+34
91	0x476bbe4c4404bc38	1.1524137231695237e+36
92	0xc75d2e926d1ae555	-6.060848032695448e+35
93	0xc77111194fa609f7	-1.4178536465993844e+36
94	0x477931559adc1d94	2.0929286696729313e+36
95	0xc77a96bb912f7ce0	-2.2089110457852653e+36
96	0xc7073a58339d16c2	-1.5075774444407302e+34
97	0xc72472b2ec4b14dd	-5.308615380383533e+34
98	0xc75b1df080001bef	-5.6319703772865135e+35
99	0x4755c1df3094f8bb	4.518816879934117e+35
100	0xc6fcad425aa488bb	-9.306151625730829e+33
101	0x473015ad33fee69e	8.351640290224061e+34
102	0x475156a2c7e06bbc	3.601049225686341e+35
103	0xc7335683b921401a	-1.0040836372228922e+35
104	0xc76f84c3041beaa7	-1.3092314515651289e+36
105	0xc76362b6d8d0b0ea	-8.052464246396106e+35
106	0x4759f7fa5a4bbecb	5.393480464852901e+35
107	0x474ae26c3d178c04	2.7918423688186887e+35
108	0x473968f3c9646613	1.3193610683350302e+35
109	0x47722ef56528dab4	1.510620424041387e+36
110	0x4742d2204f96ec92	1.9544641880673205e+35
111	0xc768a8698d056f02	-1.0242474561541486e+36
112	0x47640dadf7243283	8.329871316337303e+35
113	0xc75f64ddf9f89023	-6.520281214444888e+35
114	0xc767d9cdf5ad0da7	-9.907234274931593e+35
115	0xc74d371088509249	-3.0338690252735457e+35
116	0xc7627d1efb482145	-7.679927941351682e+35
117	0x47295fd864e10a98	6.587569743969e+34
118	0xc72531e3ecc2307f	-5.5025065082962e+34
119	0xc76665b562107951	-9.303473992367743e+35
120	0xc769c44933ee70e4	-1.0703085877883433e+36
121	0x473f6afb2029edef	1.631310342555677e+35
122	0xc71d84fb1cc56ff5	-3.8318445534562616e+34
123	0xc7498d6039d921b8	-2.6534973004845728e+35
124	0xc76062c98746ed36	-6.806431408368144e+35
125	0xc73eb40ab2124a17	-1.5942058687676956e+35
126	0x46f3707282a32ea9	6.308396414288992e+33
127	0x474abdfd3d04bc08	2.777063146928421e+35

net.1.layer.weight f8 [100, 128]
0	0x46fde0406ca0ccb0	9.695310804369043e+33
1	0x46dbc3aa4a1e49fd	2.252509012176371e+33
2	0x46ed4c3a009dbacf	4.753833357859278e+33
3	0xc7111fa2b9d8c004	-2.2227673442973536e+34
4	0x46b619a7681e0d8e	4.482455252100398e+32
5	0x46f7378affde5d17	7.534335809276718e+33
6	0x46e5812f8a0d713d	3.489325978653836e+33
7	0x46e7d454288056f2	3.866542696327496e+33
8	0xc6a2144b0d5dd138	-1.8334558182541355e+32
9	0xc6cc19cb8fe281ec	-1.1399023447362816e+33
10	0x46f0a09083a88496	5.395836554675344e+33
11	0x46f59156e901cae1	6.999129322244461e+33
12	0x46ee246cadc2dc54	4.8908650912439565e+33
13	0x46e3d2021d306fe1	3.2160348068398644e+33
14	0xc70c91f1844208cf	-1.8543049543815325e+34
15	0x46cb20616e96f21f	1.1003810284793314e+33
16	0x46d020307b784c34	1.3082754376212804e+33
17	0x46edd9a815c99629	4.843475276740413e+33
18	0xc70115d25a60edf5	-1.108895538521603e+34
19	0xc701158a6d6e8c4c	-1.108824306883827e+34
20	0x46f2135b6111defb	5.865871815033485e+33
21	0x46ebb38dce31a545	4.4948062963855737e+33
22	0xc6f998ec86d0ab8e	-8.306817955796071e+33
23	0x46c4eaf9358c7593	8.485294172103708e+32
24	0xc6d2465c36c0b55a	-1.4826315322186644e+33
25	0xc708ac6b83f7ec13	-1.6014027164038596e+34
26	0xc6b641ac8567c735	-4.514162345426657e+32
27	0x46fc56ef47cff43e	9.196722313785429e+33
28	0xc6f06786fc9f916a	-5.323533292664916e+33
29	0xc6e5771bf9d1731f	-3.4829392889822e+33
30	0xc6f5cf1c44519793	-7.07743327183482e+33
31	0xc6c498543b446e66	-8.354338823316147e+32
32	0xc6bfb6c1a92a635d	-6.4323415840632925e+32
33	0x4702560e7903e119	1.1900847165774013e+34
34	0xc71230f5372a08ac	-2.3613581771727387e+34
35	0x470465ee3cd0a564	1.3239166958085245e+34
36	0x46e165997caaab9b	2.82280407676233e+33
37	0x46a496f890a37ec0	2.0880467179500532e+32
38	0x46ec26bb06725a92	4.5678081645456067e+33
39	0x46bd3f3b716f6aa8	5.931996494946443e+32
40	0xc6b97e4a78747bc8	-5.170660360799921e+32
41	0x46eb49b1c69ba9b7	4.4277098728902764e+33
42	0x4711311e5b3c02bb	2.231632243655769e+34
43	0x46f406a1acccb842	6.498777552587247e+33
44	0x46c10b48c72b7a53	6.913899935039976e+32
45	0x46abe3901ca3670b	2.8282722632615844e+32
46	0x46e148cccb080321	2.804550170839096e+33
47	0x46f540794b7c040a	6.896619888301933e+33
48	0x46f6438d46b8d1df	7.225040336844344e+33
49	0xc6b737ddd616c1ef	-4.709216248270384e+32
50	0x46c953d2b88ee7cd	1.027402785098482e+33
51	0xc707183db10622ee	-1.4989311660120911e+34
52	0x47100d430a7881d9	2.083643314720689e+34
53	0x46ccc98a1fbe32c7	1.167750153747712e+33
54	0x4715e8123b355a89	2.8436299372080003e+34
55	0x46e60d1bec34c2d5	3.578012952351503e+33
56	0xc6b28b61c3caeaff	-3.7612634419995325e+32
57	0xc6f7c6180001e2ed	-7.71504039537531e+33
58	0x46fe5dc12dc715eb	9.85440469075343e+33
59	0xc703cd7331abe75a	-1.2852582611522973e+34
60	0x4700c8f9101a2357	1.0894120556639093e+34
61	0x470cd7744a1ad6a4	1.8719280438118543e+34
62	0xc70c104ee68544ef	-1.821438521649683e+34
63	0xc6b9e9f6dfe3f800	-5.2559680593654116e+32
64	0x470580bc32e0c550	1.3956161637379142e+34
65	0x46f19d933bc1229c	5.716565620991042e+33
66	0x46c303f81f0773cd	7.713605135025067e+32
67	0x46f14470a52dfb46	5.603573445184804e+33
68	0x470066f8652f6ab8	1.064565442696784e+34
69	0x46e0c0db8a91b625	2.7183864447854606e+33
70	0xc71803e61492d9c0	-3.117355016956419e+34
71	0x46e7e19ed58c2b30	3.874967313955018e+33
72	0xc70299f50b848dc4	-1.2072995823423048e+34
73	0x46c8bbe8cef9a021	1.003331095235256e+33
74	0x46f365ae53e6751a	6.294748459266861e+33
75	0x46f88e108cfc6865	7.968533628262394e+33
76	0x46d9568da6ae00a3	2.0556708038291715e+33
77	0x4703b40ceec94117	1.2788187334937875e+34
78	0x4711213f8d691820	2.2235850312672124e+34
79	0x46d4c3214de0d0fa	1.6844319636703688e+33
80	0xc70e995ce264b429	-1.9859934185213804e+34
81	0x46ffbb71b264d08b	1.0297688825189736e+34
82	0xc6b1d26c628070bc	-3.614724208524074e+32
83	0x46e3c095ac0d9624	3.204991287503882e+33
84	0xc7028cbba7cbfb90	-1.2039468549390606e+34
85	0xc6f03d1213d51f33	-5.269713060448061e+33
86	0x4690b8fe5a44b830	8.479381347034708e+31
87	0xc7047893c3f02516	-1.3286441687864824e+34
88	0x46e129dce1cbe0d8	2.784941420787371e+33
89	0xc706ec4848353a6f	-1.4877863291149844e+34
90	0xc70d7138fe98f95f	-1.9109129594243785e+34
91	0x46f26100f34285b6	5.96430077940369e+33
92	0xc7003aa12f957eaf	-1.0533237494282186e+34
93	0xc6f37abdcabf418a	-6.321445697106796e+33
94	0xc6f4d0dfa05c7240	-6.755149742366191e+33
95	0xc70c727a28a8dccc	-1.8463273144145102e+34
96	0xc6d14a82b8568d57	-1.4028172127619693e+33
97	0x46ba66ae7a71e1c3	5.354779206898493e+32
98	0x470f365c7bef9255	2.0257972510051084e+34
99	0xc711e6d50eda08a3	-2.323772024973106e+34
100	0x46c0d881c939b9c9	6.833440071889331e+32
101	0xc6c63520e1b0fe19	-9.008445605160805e+32
102	0xc6df94edaa4a62dd	-2.562216078325235e+33
103	0x46603f3450cd0f20	1.029769121249268e+31
104	0xc712daa78ca23ce1	-2.4474045843599423e+34
105	0xc700323a89c28c68	-1.0511938510600832e+34
106	0x46eb5d286d635cab	4.4400463204396206e+33
107	0x4716130559ba2642	2.8654080145063726e+34
108	0x4704afe6f2045142	1.342670702866321e+34
109	0x46f341654adb264a	6.248751384227458e+33
110	0xc6ee2b4ac87da461	-4.895217946935058e+33
111	0xc6fc897b5747a6ea	-9.260798389405158e+33
112	0x46f8155395e5cdcc	7.815479845942722e+33
113	0xc6e8c15f9e2de437	-4.0167876652465756e+33
114	0xc6dfe0cebc4bfbd8	-2.5862631506611899e+33
115	0x47036f319d8ae82d	1.2613614839400623e+34
116	0xc71094ea94d05f1e	-2.1524282950903307e+34
117	0xc6c8a8c089507758	-1.0002954978295006e+33
118	0xc6899ca3097949b9	-6.493378636915207e+31
119	0x47213b90ccd90462	4.473859050720459e+34
120	0xc6ffab27afea997e	-1.0277039937414522e+34
121	0xc6f6795183e9ad6f	-7.293197547250421e+33
122	0x46d373a8ac496a3c	1.578116891688422e+33
123	0x46feffa2c3910027	1.005961348076095e+34
124	0xc703b2c45227366b	-1.2784932920830051e+34
125	0x470e9cceacca48c1	1.9868667016457588e+34
126	0x46f3bb759af3a657	6.403485534894048e+33
127	0x46e6342c5ef63adc	3.602772862986605e+33
128	0xc6f8abd80db9762c	-8.006283386104865e+33
129	0xc6e89c527919b1d5	-3.9933035840962755e+33
130	0x46ee54092fcb7eca	4.921042375250636e+33
131	0x471998bc366b67e6	3.3226314864928666e+34
132	0x46f1a2951ad3a6fd	5.722913140598778e+33
133	0xc6e6802da4afe8d1	-3.6509467360171824e+33
134	0xc6f922004f215abb	-8.156065492470852e+33
135	0x46c0c616466d610c	6.804252472956053e+32
136	0xc6e9fcca5866d256	-4.2167068791032304e+33
137	0x46ef8dd319e07edb	5.119929609984648e+33
138	0xc6fe416a5e80de09	-9.818480613305666e+33
139	0xc6ebbf2aa4ed55f4	-4.5021666887508233e+33
140	0x47120248633d5ba6	2.337691085343212e+34
141	0xc6ef86f3a0e9a7de	-5.1155733670323114e+33
142	0xc6d0289344429d5a	-1.3109330279079023e+33
143	0x46d84244ec1ceb97	1.9681128785492598e+33
144	0x466bcc17f5d1e280	1.7618594368272172e+31
145	0xc70f76f283aed603	-2.0421717614629878e+34
146	0x46de56fdf6b9977a	2.4614580322617813e+33
147	0x471031df54396613	2.102207043837712e+34
148	0x47142cf503bef487	2.6189443813094726e+34
149	0xc6f3d36516295b02	-6.433827352600757e+33
150	0x4716e47fb70d604a	2.971625972649141e+34
151	0x46dcfb10b920692b	2.3511956530312665e+33
152	0x46f1e53d8fe91de3	5.807412240651183e+33
153	0x47040310716b0b15	1.2988510893915155e+34
154	0xc6e7eb1a84a3c1b5	-3.8809779682929847e+33
155	0xc704baa1362efd65	-1.3453904732517287e+34
156	0xc71383526d4f442f	-2.5329291627314865e+34
157	0x4714edeed34e250d	2.716794748631216e+34
158	0x471c4876717d97cc	3.6713507394313364e+34
159	0xc70ed96b21bfe89e	-2.0022334562304366e+34
160	0x46d4e3f49fe4b4c8	1.69483477042163e+33
161	0xc6f75a6afdd1067e	-7.57854508426624e+33
162	0x4723900cb4a13ef4	5.078765696763692e+34
163	0x4700ea623a1988eb	1.0978826990592303e+34
164	0xc6e8381e2b605fff	-3.929791556621294e+33
165	0xc6f8a0e79127eab0	-7.992416048158984e+33
166	0xc6f8f21f3d467b8c	-8.095371422859459e+33
167	0x46eab386d792c133	4.3325297791071474e+33
168	0x46ef4d58da36f4fd	5.079062117704161e+33
169	0xc6fa95142693fe57	-8.626462115965216e+33
170	0xc727900132fdcdfd	-6.117179486923543e+34
171	0x4706bda489c4adcf	1.4759617794840663e+34
172	0x46ef6e6745badd22	5.100014054752827e+33
173	0xc6e66dd86783c7e6	-3.639326839185519e+33
174	0xc6eb6bbc3f349cc0	-4.449285858241992e+33
175	0xc6f03cce5fdb844e	-5.26937781129436e+33
176	0xc717312b1e80e8d2	-3.0105020517065086e+34
177	0xc690a0225e6fa785	-8.430142407933571e+31
178	0x46dd2f3c6d867b44	2.3677292146105738e+33
179	0xc7371a02394de013	-1.1995034658711202e+35
180	0xc715311f8cc66f44	-2.7508642935160595e+34
181	0x46f1fbcb076a162a	5.836001063577807e+33
182	0xc71e961d9a775f36	-3.97034031545772e+34
183	0xc6e42314dc09afcc	-3.2674210677652286e+33
184	0xc6e4adc9c4a1a526	-3.3553368671022666e+33
185	0x47171ade5844bd72	2.999194659146415e+34
186	0xc7083b0c9c952316	-1.5726598246169831e+34
187	0x4700adba848bc6e7	1.0825048007152239e+34
188	0xc704e49e16c03c42	-1.3560356456384365e+34
189	0xc7106ac0829c48bc	-2.131048434593356e+34
190	0xc6ff0cf77978c4ae	-1.0076512404978161e+34
191	0xc6fe1bdba1e5da0c	-9.770870742993396e+33
192	0xc708c7d62cb4aa6b	-1.6083536597311557e+34
193	0xc6f6e35bff4f8999	-7.427620415338523e+33
194	0x46e28e0b49731f7e	3.0106981205848124e+33
195	0x46ecbdafd1ab2f18	4.6634880397444093e+33
196	0x470ac3d761b5dd57	1.7371481561183117e+34
197	0xc6d278286f1f4524	-1.4984130644250776e+33
198	0x4712f2e44fb3c0c0	2.4596943816346897e+34
199	0xc702830af8764b66	-1.2014901036077769e+34
200	0x471847d3501da2ef	3.1517979405903677e+34
201	0x46c93a5ca0a03210	1.0233682806453118e+33
202	0xc712b8ffd4e93b6e	-2.4303393973730597e+34
203	0xc6fd80b5a2b589dc	-9.574196748764418e+33
204	0xc6fc2952b1356e26	-9.138902649093189e+33
205	0xc6bc32a82ac1943f	-5.719209221986458e+32
206	0xc71886e3c61ff56a	-3.1837753400320876e+34
207	0xc6fb59e4bcf7d5c2	-8.87595450868841e+33
208	0x46f8b2bba851af79	8.015016329556832e+33
209	0xc704e7f810a6f50b	-1.3568853440880331e+34
210	0x46da2fda0c85d219	2.1245354248172604e+33
211	0xc700a3a5ef2eab1b	-1.079949114651291e+34
212	0x4712f70a993e512d	2.461798458347431e+34
213	0x471089ded36869c0	2.146827348297511e+34
214	0x471b986380facdd3	3.582070623639225e+34
215	0x4718fa32f9ff6b45	3.2422441446106147e+34
216	0x46d6750ea1cdcd3d	1.821948938774285e+33
217	0x47135921db3fb3c4	2.5115364287619523e+34
218	0x46fbc765a624d09d	9.014766759687442e+33
219	0xc709d9c4f8f5b518	-1.6778038764567544e+34
220	0x46fb48ea68a999cb	8.85443252833796e+33
221	0x4704d50bfd1aace3	1.352088003225225e+34
222	0x4711a15cdf34a3ba	2.2885468152756453e+34
223	0xc70a37d47df45075	-1.7016510775192932e+34
224	0xc6dd8d73cf67363f	-2.397587563726353e+33
225	0xc6f1149130426740	-5.542887362892927e+33
226	0xc71f02e7cb37ec33	-4.025503300809777e+34
227	0x4713e6a1039b6e94	2.583283784288178e+34
228	0x46e80f33e89f5b38	3.9038585430734724e+33
229	0x46fb2aacb050d540	8.816097387176813e+33
230	0x471078525205cc7d	2.137929024577568e+34
231	0xc6f5619475658970	-6.938586866333399e+33
232	0x471181bb4a954581	2.272507904567555e+34
233	0xc6ca5e76d2e86f17	-1.0696537423490072e+33
234	0xc6c556c70b3d57d6	-8.656116495154698e+32
235	0xc714977824360fa7	-2.6729524901791483e+34
236	0xc70f4d9ff8a22f07	-2.0316952797531388e+34
237	0x470110170506074d	1.1074423618900176e+34
238	0x46d8155f42e11c7b	1.9538844153141384e+33
239	0x46d02c2ee870c2e3	1.3120764404911854e+33
240	0x46b77b1fb56622c0	4.7625029820644315e+32
241	0x47041f7b58b191bc	1.3060558047718494e+34
242	0xc6f355aca1ec0063	-6.274457655301217e+33
243	0xc71a5abe2877c07e	-3.4210050265320866e+34
244	0x471890807192dfcd	3.188649198548242e+34
245	0x46e9816c3cee15fa	4.138513368772563e+33
246	0xc6f46e468a0af11f	-6.630161932539594e+33
247	0xc703b1e75eb02ea4	-1.2782744727766373e+34
248	0xc707fc7535d0a0bc	-1.556791016454457e+34
249	0x46fcc563f4e84521	9.336741632132694e+33
250	0xc6d1e84b4d719f39	-1.452820807859908e+33
251	0xc6fbaa11e981f49e	-8.97759024743361e+33
252	0xc6d4ee4cd566cd1d	-1.6981130943953575e+33
253	0xc716f28795d62b5c	-2.978740404649267e+34
254	0xc709a89111cc8326	-1.6653294983604263e+34
255	0xc6d7caabf8cca44a	-1.9302109297141836e+33

net.1.layer.bias f8 [100]
0	0x4715fb157c50a901	2.8532705276203533e+34
1	0xc743c8e9b951c4a2	-2.0545727949667253e+35
2	0xc730d4d7c3af5a85	-8.739371518903836e+34
3	0xc744afa426fe6b6e	-2.1481672867598558e+35
4	0xc747b7e5fd29761c	-2.463054606056325e+35
5	0x47001a4b862185db	1.0451259501244842e+34
6	0x4724c3d1a6159e44	5.3908808565010285e+34
7	0x474d541c5c9ab8f6	3.0456515670487215e+35
8	0x4742fc48f8659e22	1.971565839531577e+35
9	0x4726c0b880eff4dc	5.90696857088704e+34
10	0x4752f6856aadf50b	3.93845546309808e+35
11	0xc74359e4b5bfa931	-2.0095379007286114e+35
12	0x473b8e1ed7911f72	1.4307456090375416e+35
13	0xc73ae47b9c8ce766	-1.3963390122553125e+35
14	0xc786dace2d12db3f	-3.7973897962387737e+36
15	0x4755731b18740b07	4.4549143144786765e+35
16	0xc752a7006a8d7b3d	-3.8739415533555314e+35
17	0x4743700fd0eec1cd	2.0185304654346002e+35
18	0x4753f2e12bab2685	4.143192931502991e+35
19	0x47434bd5ccd3c27d	2.0038352004398987e+35
20	0x474a10e3f6687d1e	2.7068459585617247e+35
21	0x475222a31afe557f	3.7665547169888815e+35
22	0x4750c97d4d05416c	3.486537656956194e+35
23	0x47425602949857c0	1.9041167024763707e+35
24	0xc7504ad86c878f78	-3.383791796743764e+35
25	0x4727d5dfe5d23cde	6.1880359999174315e+34
26	0x47446d1516d3bb50	2.12116781347091e+35
27	0xc741a9c51acb44fa	-1.834247801169449e+35
28	0x474d4cc5ca523d35	3.0426748518159156e+35
29	0x4720eb0887398fcc	4.392189583438983e+34
30	0xc75d02ac663f4cd9	-6.0252333041866396e+35
31	0xc732ac028f08c538	-9.695012062873916e+34
32	0x4732a4c5cdd1c843	9.68033302746793e+34
33	0xc750631a18352a48	-3.403471028458284e+35
34	0x4724a6bacd55d8de	5.361380857567011e+34
35	0x478638fbdd8d4ecf	3.692361621164149e+36
36	0xc74d0c7c5efd680d	-3.0165970300569222e+35
37	0x475301942271e6dc	3.947426366000266e+35
38	0xc72efde28df736a6	-8.045915244337303e+34
39	0xc6d5cba6199164d3	-1.7682612963538384e+33
40	0x4775bd53fe1a35d2	1.8060522243630233e+36
41	0x46f017a9b8b83b32	5.222293242804365e+33
42	0xc6fc35d95a19c2b1	-9.154781259001734e+33
43	0xc75197eeb8feed4a	-3.654024160054056e+35
44	0x47533c32dd90efae	3.994984594716435e+35
45	0xc736bc152e3bd914	-1.1804530199332772e+35
46	0x473788229e72b813	1.221839782472415e+35
47	0x4732d10110320869	9.770045130119877e+34
48	0x47603c4d667814bb	6.743986127514395e+35
49	0xc743b49ebbd997e9	-2.046341004544948e+35
50	0xc7519dbe0285e79f	-3.658737561383762e+35
51	0x472ab3de4460f79d	6.93239397276221e+34
52	0xc730d7957b8b2beb	-8.744931103246127e+34
53	0x475012dccaa4b38a	3.338373040810391e+35
54	0x47461978424d812f	2.294942380541344e+35
55	0xc7377133010155b5	-1.2171878097890058e+35
56	0xc752708f10f7c223	-3.829772328310282e+35
57	0x46ea163207e26f65	4.23280922442031e+33
58	0xc7542badc1b0e88f	-4.189273888009784e+35
59	0xc74a47e75a971a5c	-2.729161982912575e+35
60	0x4750b34619fcd887	3.4685142027913585e+35
61	0xc74b2ff6ae24caf7	-2.82329664909324e+35
62	0xc7569d507ee5455d	-4.696849868832939e+35
63	0xc7516e448d80967f	-3.6202217183753724e+35
64	0x4722dbf763211936	4.896139559599861e+34
65	0x474707123f4261b4	2.3913250059651593e+35
66	0x4721ead96a71d265	4.651617794831269e+34
67	0xc77165ae50e71e9a	-1.4453020912567285e+36
68	0x473269ef396ae93f	9.56099497627444e+34
69	0x47237bed8e7a9d91	5.05835989315156e+34
70	0x46f537988de09f60	6.885365821692049e+33
71	0xc745a9d460bd8bb6	-2.2496557512481845e+35
72	0xc745df9388d9ed57	-2.271458005283087e+35
73	0x473fe22aff7b6f42	1.6554843383573131e+35
74	0xc730fe5e375dfaae	-8.823594635845055e+34
75	0x473b30897aaebed8	1.411764630681056e+35
76	0xc760781f0343d48a	-6.84104767779921e+35
77	0xc74cfdacfe033e54	-3.010589350515302e+35
78	0x474a4d7885f643c0	2.731420254002208e+35
79	0x474df8a4ab1264d6	3.1123938568408297e+35
80	0xc7904b66f240eded	-5.414789549009586e+36
81	0x4743c8152e3e82cf	2.0542360067237287e+35
82	0x47353474a9036b5c	1.1010216210257335e+35
83	0xc72f1090ce916e83	-8.064859697668414e+34
84	0x474e71d811b86675	3.161558736170638e+35
85	0x4745f15a215a4656	2.2786687120095703e+35
86	0xc7567a20e8f01720	-4.668303690055434e+35
87	0x47362959d894af3e	1.150692280164904e+35
88	0xc75e7bab648521cb	-6.331088850501265e+35
89	0x47572fc9a0a5e371	4.815683023059457e+35
90	0xc7442f4164f204f3	-2.0960878298743202e+35
91	0x473800fff1053fc4	1.2463540237851012e+35
92	0x471541986853ff58	2.759216640553965e+34
93	0x4738ccc68c4adce1	1.2876846675856358e+35
94	0x474457c6a86a8e3c	2.112524922093831e+35
95	0x47452bb3c23c45aa	2.1984923919246978e+35
96	0x473c4e4e7dc59e31	1.4697255870926777e+35
97	0xc714eef40b5f3271	-2.71731214618601e+34
98	0x47554e3f88f29129	4.42501182943046e+35
99	0xc739ad3b11e2df48	-1.3332095832190759e+35

net.2.layer.weight f8 [100, 100]
0	0x46ec3757ba7f4b78	4.5783373479817673e+33
1	0x46d7f0c38051ddb2	1.9422827383737327e+33
2	0xc726848d431d7f72	-5.8459500448759545e+34
3	0x46d408423f7e3bb9	1.625210080568969e+33
4	0xc713a9cd2c461fc9	-2.5524405752652406e+34
5	0xc7100784e931d7b3	-2.080731422287449e+34
6	0xc70799dc6e78464a	-1.5317937600020874e+34
7	0x4710a7b6cd9975e5	2.161959882397352e+34
8	0x472386ac0fa32b97	5.06925576412697e+34
9	0xc72c4324a9ac23f3	-7.337306910367101e+34
10	0x4705dea6be9dbbe2	1.4194267478632486e+34
11	0x471743deb62e6e5d	3.0199848556056854e+34
12	0x46ff073a0995c2cd	1.0069236105102875e+34
13	0xc6e7635877c4ed4e	-3.79493110756719e+33
14	0xc74a5b1c75a11180	-2.7369534477770813e+35
15	0xc712fb53fcc08fbc	-2.4639720606161787e+34
16	0xc6bf4aa1246a07da	-6.346674528478838e+32
17	0x46b3b7dbea3c6686	3.99932596600518e+32
18	0xc6f2bb8c509e5d60	-6.079079433907111e+33
19	0xc7054d590026a013	-1.382587886523393e+34
20	0x46e677c11f215f43	3.645607446885804e+33
21	0x472a3b2f411999ff	6.810006217981757e+34
22	0x47267ce30b830ce6	5.838176901713753e+34
23	0x47148d874fffb50a	2.6679119371299414e+34
24	0x4722c0bc97754e4c	4.8685253933065625e+34
25	0x470262d700a2cb79	1.1933256730816523e+34
26	0xc707e0ac570b18ca	-1.549746771001032e+34
27	0xc6fc33b5595e7082	-9.152067680282043e+33
28	0xc727168b1aa2fcc4	-5.994003085791037e+34
29	0x4720658176edf36e	4.256776517319327e+34
30	0xc71acfb9c7aa97f7	-3.4803224028419633e+34
31	0xc734fbe925381799	-1.089552936618356e+35
32	0xc7018a3f1fa6dc53	-1.138412753629898e+34
33	0xc6f7858e38da9a3f	-7.633228513631157e+33
34	0x472a857eb59f7c30	6.8853658878630215e+34
35	0x4754f61619925e04	4.353486434673703e+35
36	0xc6f3dada1127ad6e	-6.443280165899886e+33
37	0xc72d1540ae983bf9	-7.550383206800962e+34
38	0xc6f91ff517b5c906	-8.15347464992625e+33
39	0xc6b7f1c6761bc6d5	-4.856508288662892e+32
40	0x474d95151720e924	3.0720071775561745e+35
41	0x47138e94bec47a6c	2.5386381820902955e+34
42	0xc71aebf528f17e93	-3.4946377037482225e+34
43	0xc724df4f8e1bbec0	-5.418760875878134e+34
44	0x4717454afcb45fa9	3.020706377531498e+34
45	0xc7054b66d9eed649	-1.382094543363314e+34
46	0x471727e7e97bc19f	3.005805392150094e+34
47	0x4724c43c84db75cf	5.391304213004776e+34
48	0x47282b8e1b904e4f	6.274926357371015e+34
49	0x4727f8388e5a62ed	6.2228673080624665e+34
50	0xc7185d9761bb074c	-3.1628345599166165e+34
51	0xc7240de6f89212ab	-5.206395395089803e+34
52	0x471537499b32de5a	2.753989956124215e+34
53	0x47098b65f0a060da	1.6579344114122509e+34
54	0x46fd737c98144728	9.557434835019859e+33
55	0x4738768bbb8b2e8e	1.2701951969461362e+35
56	0xc712a3f295e4f963	-2.4196648956107454e+34
57	0xc72aa12309f496c6	-6.913398116741822e+34
58	0xc7194296757475d1	-3.278949526803169e+34
59	0xc700d9bf2a681ca5	-1.093664729047798e+34
60	0x471e3a6f458e885d	3.9238525341468203e+34
61	0xc72e820d62f5d0a4	-7.920333979866765e+34
62	0xc722931882e50f97	-4.822239982561647e+34
63	0xc720cf74240ca9e7	-4.36422050740673e+34
64	0x47127d9fa1579169	2.4002322966218233e+34
65	0x471fbda302671ce6	4.1201873240946374e+34
66	0xc7083e6c501547db	-1.573515192829267e+34
67	0xc745ebcfa60216b7	-2.2764210378553345e+35
68	0xc715d8979d69b68f	-2.8357811668276414e+34
69	0x47093a6c010cf87f	1.6374044773387455e+34
70	0x46e597451e9b9d09	3.503323565477239e+33
71	0xc7000cac7e11767a	-1.0416725613996998e+34
72	0xc72021494cc5fbe2	-4.187593833477495e+34
73	0x470e3ae9eb45be66	1.9620477311026846e+34
74	0xc712578feee37e2d	-2.380932916220962e+34
75	0x473db66dfd16fce0	1.5427672164258668e+35
76	0xc72d9c020cdccdd7	-7.687041361638027e+34
77	0xc72b6b7ea7bad492	-7.1186133833184275e+34
78	0x472444f1dd3f39f6	5.262215174176701e+34
79	0x4721a9cd7a556d4d	4.585652672593534e+34
80	0x47425b929fad5fd8	1.9063731891399924e+35
81	0x4702148324acd775	1.1734672735675295e+34
82	0xc6fc64aaea89738a	-9.214130898289282e+33
83	0xc7054886e3af2e2f	-1.381365681991857e+34
84	0x471872fc2e4cfb4d	3.1736824781495324e+34
85	0x47346c588acf8b64	1.0604345244602944e+35
86	0xc7125bec20700c9b	-2.3831437653223025e+34
87	0xc720f38dd17e2c6a	-4.400830563803028e+34
88	0xc6db4044f8d66158	-2.210868030024645e+33
89	0x472dec630d11ed90	7.768555259851972e+34
90	0xc717a7c9b611dda2	-3.0706492839661597e+34
91	0xc6e7bbab30580986	-3.8509125412401486e+33
92	0xc721ecc104ee4855	-4.653549391146254e+34
93	0x4723e79a44fa35fb	5.167554970754975e+34
94	0x472360d195d8b192	5.030867834765538e+34
95	0xc6fa3e65fe5ded9a	-8.516581780280656e+33
96	0x46c758533334d374	9.469864966914787e+32
97	0x470ebbf4863feaab	1.9947636196480375e+34
98	0x47228481552a44bb	4.807443415579927e+34
99	0x472d34be8beedd70	7.582319542748201e+34
100	0xc71307eb86b5bf3c	-2.4703569372072027e+34
101	0x4727e40be3ae2ad9	6.202407955468697e+34
102	0x47210ec1afa18f6d	4.428417286004977e+34
103	0xc710a28af7da5df0	-2.159337757139066e+34
104	0x47040b86efddfe42	1.3009966810675536e+34
105	0x46e4de5e6654e6aa	3.3861284756279255e+33
106	0x47276bf5af91476e	6.080625540460802e+34
107	0x4726cbe71594ac63	5.91830842108843e+34
108	0xc70826983fcaece2	-1.567473982416926e+34
109	0x4701ccbe269740d2	1.1552715431049875e+34
110	0xc701c8986dd276ed	-1.1542200648103334e+34
111	0xc72ac0a1de208fd3	-6.945338272250422e+34
112	0x47206d8e85b68f97	4.264941208232059e+34
113	0xc7190611fbedb0c2	-3.2482635191960736e+34
114	0x46f4d7b27ec33a48	6.763799817471012e+33
115	0x471deafded599cc9	3.883570273154068e+34
116	0xc711a1c45de4cf76	-2.2887518079963373e+34
117	0xc71c953272dc3de8	-3.7102597006398032e+34
118	0x47204abffd6e87d0	4.229642952979919e+34
119	0xc6e1aa2d2f4edaba	-2.8662698792547056e+33
120	0x469c9023f97aae75	1.4483186447038014e+32
121	0x4714769f9f09d71a	2.6562977000444975e+34
122	0x47314c2bba8348d8	8.981397425888281e+34
123	0x46ddf547d0f308ce	2.430492017447434e+33
124	0xc72c04f6f9101e49	-7.274250444331078e+34
125	0xc714ebb45af38ee1	-2.715664816122546e+34
126	0xc7064e1d2fc0f0aa	-1.447685890407621e+34
127	0x46da3a00a0bf4989	2.1277523098089215e+33
128	0x47078f894dbb6028	1.529176132934458e+34
129	0x47146b6131d16b1a	2.650596388699698e+34
130	0xc728554470b6adfe	-6.317227590968224e+34
131	0x472c243e88612c72	7.305971656910977e+34
132	0xc7009b13c984a472	-1.0777761365881597e+34
133	0xc6f73b72aabc809f	-7.539285922736264e+33
134	0xc70a9daff7d81a2e	-1.7274749782770982e+34
135	0x47472546aeef779a	2.4035775402580386e+35
136	0x47088edcf842abff	1.5939091724648913e+34
137	0x471183bc4276d102	2.2735239429343507e+34
138	0xc716757de5acf298	-2.915338685321396e+34
139	0x47196ce35667a73e	3.300398330861895e+34
140	0x4737465286033cf3	1.2084913460278874e+35
141	0xc72dea496401a479	-7.766425367555732e+34
142	0xc70ed253dc430d05	-2.0004356984757755e+34
143	0xc723932b8849a595	-5.081930175694075e+34
144	0x47301519ea3835bb	8.350473352974266e+34
145	0x470ff919824f9e3b	2.0751692954906927e+34
146	0xc70947a73ccbd661	-1.6407590307986843e+34
147	0x4701c06cc0775fd2	1.152148568074766e+34
148	0x47242d7486052d94	5.238393877348186e+34
149	0x471a1cd9b5239a71	3.3896218590475468e+34
150	0x470762311e617127	1.5176799433721568e+34
151	0xc6d63639e8452d8f	-1.8020370139965627e+33
152	0x4706e45ff3a53378	1.4857815294676356e+34
153	0x472326859298eef9	4.971747729620578e+34
154	0x4720db65d2aa98c0	4.376333234113085e+34
155	0xc73368caaf8d7c8e	-1.0077906933069283e+35
156	0xc70c2dfaccd1afb1	-1.8289611362525655e+34
157	0x4729200120bbd9f5	6.522827396473439e+34
158	0x47000c4f369bffaa	1.0415801822177633e+34
159	0xc7237f0810483b26	-5.061507259810387e+34
160	0x46e86c97921d60b8	3.963051047340529e+33
161	0x472adaaa04f612c6	6.971737696927673e+34
162	0x4719c594e384970b	3.3453713084182725e+34
163	0x47103f4e453d279a	2.1090185691665144e+34
164	0x472250ff6a41f968	4.755208614426459e+34
165	0x4730153f2ade48fc	8.350768497956893e+34
166	0x472548718da4e5c1	5.525378206989681e+34
167	0x46fff274b4768553	1.0367424503506227e+34
168	0x4721b10cf9c5e0d4	4.593003056693807e+34
169	0x470e207c0a8eb147	1.9553471302858523e+34
170	0xc729958cff19a39d	-6.642033569337004e+34
171	0x4718ad24f83755cd	3.2031727624824164e+34
172	0xc6d95c22cc3ac1a5	-2.0574400017250983e+33
173	0xc71370f70a561204	-2.5236210685703633e+34
174	0x470e2d1b1a960b79	1.9585470197075043e+34
175	0xc7366c7ab330b258	-1.1643075241747473e+35
176	0xc70c4f3b42301e94	-1.8373914667929436e+34
177	0x4711b95c6ed11305	2.3007153914706334e+34
178	0x471a776b17d00ace	3.435545246194798e+34
179	0x4728fa9ef1800e3e	6.484915989806158e+34
180	0x47368fc6f80e4f1e	1.1714667940684724e+35
181	0xc7031fb1cfce41cd	-1.2412060338423305e+34
182	0x472a498db3891eea	6.824578047873609e+34
183	0xc72c8d3b9dfb2ab5	-7.41244275737335e+34
184	0x471c77ddfd05acd4	3.695387662807341e+34
185	0x471e13e97d41e547	3.9043192616417293e+34
186	0x471027e73dd53be8	2.0971521138252538e+34
187	0x472c6f3f16ecbd78	7.382032898704518e+34
188	0xc726f968500af9fd	-5.964455769002377e+34
189	0x4733ba35aac164ae	1.02430420437304e+35
190	0xc71f0c82b6238c6b	-4.0303736890049407e+34
191	0x4722c317af48c489	4.8709144910962145e+34
192	0x472276ea55ce0a31	4.793661686609941e+34
193	0x4701b666edcb3d01	1.149607500114756e+34
194	0xc712f28acc449da8	-2.459517082050776e+34
195	0x47166a831ae2e402	2.909771337898672e+34
196	0x47232fdf476d6f78	4.981230177475452e+34
197	0xc70549c86f9696d4	-1.3816841262211004e+34
198	0x4717ca28c748219a	3.0880776321864384e+34
199	0xc72abcf0e8e2beee	-6.9415949080518305e+34
200	0xc6b0614500837d84	-3.322250405089334e+32
201	0x47192643094c0f10	3.2645866048128123e+34
202	0xc7203d83cdbcf705	-4.216220964227047e+34
203	0xc70c30836a9bfd7e	-1.829603494790393e+34
204	0xc713ebba09f35a7b	-2.5858686521702216e+34
205	0xc7172db60dd1c8d5	-3.0087489995240496e+34
206	0x46f3ce7e454f7dc4	6.427613805597218e+33
207	0x472685647bb59b8c	5.846802623375482e+34
208	0x47253a63b504946d	5.511125669832775e+34
209	0xc730f7d82f506341	-8.810363283474053e+34
210	0x46ecd88069bd97c0	4.680483951352981e+33
211	0xc6ae88f9f9b35f5f	-3.0966234092426377e+32
212	0x4713ba93b4f9a14e	2.5609467761854142e+34
213	0xc712646a4432a6f3	-2.3874500926358483e+34
214	0xc72228386fe8cf6c	-4.713855562458008e+34
215	0xc6e1659bd5b8f2c7	-2.822809889817079e+33
216	0xc709970939254024	-1.660884950658293e+34
217	0xc7062ea7651b44ba	-1.43970980154532e+34
218	0x470888503b95bac4	1.5922486125570142e+34
219	0xc70fcb2919530786	-2.0635223494535706e+34
220	0x46fa19e60bb880d7	8.470312791672561e+33
221	0x4733270d2991db3e	9.944569711803181e+34
222	0x4738b04511f6832b	1.2819030099755238e+35
223	0x471553a1b76a9cc0	2.7683621631285608e+34
224	0x470194b85db46d6e	1.1410681274820559e+34
225	0x46b9240d6addffd3	5.0991660644143195e+32
226	0xc71043f3b882301b	-2.111374518153055e+34
227	0xc6f285da867be182	-6.011013580693425e+33
228	0xc72a0bcb70cda014	-6.761947152772146e+34
229	0x472ee3280cd7d7bd	8.018809291866615e+34
230	0xc7308cfefed49e1a	-8.593648990057848e+34
231	0xc72dd5a1bd4f5564	-7.745478823291392e+34
232	0xc70ae7e53ad55c9a	-1.7462889549704236e+34
233	0xc6fdb17a1355f6ce	-9.636016701082654e+33
234	0x472ac7f6c0751c41	6.952773376185517e+34
235	0x4757ad8644a8274d	4.917692897191019e+35
236	0xc6e8eb11fa2ecde5	-4.043216099009128e+33
237	0xc7297bd2d397ed88	-6.615943062187721e+34
238	0xc7125a28bb620988	-2.3822496859168174e+34
239	0x4712c5e66a798040	2.4368808393805316e+34
240	0x475be2ddd21399f1	5.791736567613196e+35
241	0xc6f1c4611bd84214	-5.765755789169186e+33
242	0xc723b9ab8bae0034	-5.120973866669882e+34
243	0xc7325d5d643f1f19	-9.53550067906905e+34
244	0x4730abd3acb0becb	8.656181236616582e+34
245	0x46e4f4c6022ddcf0	3.400329155143138e+33
246	0x4714c3d4204c22cf	2.6954453352356177e+34
247	0x472c0439d1e38bd7	7.273501132005334e+34
248	0x4736a3c5cd2cfa6a	1.1755223509997904e+35
249	0x4732beb2f5b6ed88	9.732917993622187e+34
250	0xc71c46d84cfdf376	-3.670530445555064e+34
251	0xc72c1f95597f68c4	-7.30124497155486e+34
252	0x471ab0bde6729dbe	3.464611696374453e+34
253	0x4723ac320d88533c	5.107309018011381e+34
254	0x471550b7c57eda34	2.766884666829141e+34
255	0x472ec2f2ad38318b	7.9861460021661105e+34

net.2.layer.bias f8 [100]
0	0x4725157816cdbc94	5.473683953390016e+34
1	0x472dfe4151aa865b	7.786675802091931e+34
2	0xc70d8b467f6997b2	-1.9175181154505425e+34
3	0x47118bceab66d603	2.2776168894433836e+34
4	0xc7478f7faa9e797a	-2.446666542005963e+35
5	0xc718c2252fa3bb6d	-3.2138214563423195e+34
6	0x47151f14f845b001	2.7417162531681085e+34
7	0x475356f4c8691c22	4.016692849352051e+35
8	0xc72d4714649a0a75	-7.600913783867225e+34
9	0x47508e9891f4ca10	3.4387575900894594e+35
10	0x4739ba47b9618cb1	1.3358563222184543e+35
11	0x47469378be3081f0	2.3444322267959727e+35
12	0x471221bf35e28333	2.353645305653249e+34
13	0x473d6b0466b31e98	1.5274717542176399e+35
14	0x473595ea83d793ee	1.1207889325335773e+35
15	0xc74ab2ca4c4ee6b7	-2.7725202987285975e+35
16	0xc7585fbedd2f4f11	-5.062283012857622e+35
17	0x473d27cc2bfc433c	1.5138379903002756e+35
18	0x473682becebc466e	1.168823614686413e+35
19	0x473345e8b35c7984	1.0007156301812877e+35
20	0xc7453550290d1f59	-2.2023910539195107e+35
21	0xc728ae1d24924f4b	-6.407328640546107e+34
22	0x473840f2d1739e70	1.2593243685693974e+35
23	0xc7584a2d1cd6dc46	-5.044783884325994e+35
24	0xc71ba0be01cf8da6	-3.5863063657075973e+34
25	0xc71eb1e1e9f1b6bf	-3.984419774866957e+34
26	0x472018813eb7b8cb	4.178688370509296e+34
27	0x4740ba8427b51bed	1.7371949665830234e+35
28	0x4749eee4a4b01312	2.693054998769913e+35
29	0xc7007e78496c7123	-1.070523293120288e+34
30	0xc75ea23d32eb0a02	-6.3623801915258036e+35
31	0x473ad666fed5e8f5	1.3934831411745723e+35
32	0xc74c2be0ce1823d3	-2.925485330868616e+35
33	0x4736f33dad8143e7	1.1916404303654572e+35
34	0x4740175d30e9bd13	1.6710125702881624e+35
35	0xc6a7d67b7de57952	-2.4174423325881818e+32
36	0xc72a32c89c318ecd	-6.8014866387082105e+34
37	0x4753e800e969281f	4.134369263093715e+35
38	0xc760df9c37ea5aef	-7.008968318121391e+35
39	0x470463fe45673c56	1.3234255144250832e+34
40	0x47309499aabf5b6a	8.609072111055056e+34
41	0xc72d5d463de91c1f	-7.623421906121186e+34
42	0xc6d6e0304acf9102	-1.8559002616188753e+33
43	0x4737ee04e2af1eb9	1.2425042829993951e+35
44	0xc714e63740bdb841	-2.712881724121811e+34
45	0xc7199ca3c3b52497	-3.3246113030148864e+34
46	0xc787f6d2ee117a53	-3.9817283872476505e+36
47	0xc7354eda5a1b9161	-1.1063756160472273e+35
48	0x472eaf81d6e73d54	7.96643071894959e+34
49	0x47482a9a70f05a4a	2.509584437962122e+35
50	0x473a0f693bd17afb	1.3531229193588613e+35
51	0x473cd3c4502de4c1	1.4967945399948118e+35
52	0x4753bae2303df28a	4.0977635597335786e+35
53	0xc7554850d3ba0daa	-4.42019885199829e+35
54	0x47591135a68d6fc2	5.206258922589758e+35
55	0xc71f3ebb04f5185e	-4.055838230265954e+34
56	0x473f545eb4387242	1.6267242824410392e+35
57	0x471b9c52c3bb7999	3.584065709103911e+34
58	0x4734b2c77d844787	1.074720113300291e+35
59	0xc7626357fdfaae47	-7.638101876583128e+35
60	0xc7382a3e7a5cb199	-1.2547193582349617e+35
61	0x472fe4dfa72c516a	8.280165581101338e+34
62	0xc7241414d703fa85	-5.21266182350534e+34
63	0x4758563e4e9e7f5d	5.054573932330732e+35
64	0xc72b84b44b7c24c1	-7.144178883941552e+34
65	0x475f487ad181c0c7	6.4972506712439266e+35
66	0x47349a173c737470	1.0697126920607366e+35
67	0x47219b782d0df9df	4.571117070344063e+34
68	0xc7265948f034b285	-5.802072205515088e+34
69	0xc721d56aaabd3ce6	-4.629882543356131e+34
70	0xc73553b4303d12d2	-1.1073595002470086e+35
71	0xc757e970dc516866	-4.966302836930865e+35
72	0xc72244521b8a6a91	-4.742352626971583e+34
73	0x47470fa5a660dab5	2.3948037605754398e+35
74	0x47482c647e9c848d	2.5103102525595516e+35
75	0x473995f0610a170d	1.3284854528556228e+35
76	0xc7397042ef837345	-1.320843545235366e+35
77	0x4737aaf5e4aed99c	1.2289031905270078e+35
78	0x473f23d01a220d86	1.6168757449628803e+35
79	0x472f810cbad93119	8.178932100909074e+34
80	0x471a9787a799016a	3.451827746074133e+34
81	0xc7227afefa946ef6	-4.797799946462425e+34
82	0xc6f843642e05f45b	-7.87387394425256e+33
83	0x470276e6521d6e2c	1.198411445969825e+34
84	0xc717c8baf268df1c	-3.087353028185332e+34
85	0x475f3f819b757b9d	6.489970518591146e+35
86	0xc72d1fe1a8584504	-7.561162101599098e+34
87	0x4740c720f4e2ac84	1.742311206745174e+35
88	0xc752b2e8d35451eb	-3.883602348002156e+35
89	0x4742792deb498645	1.918383062016897e+35
90	0xc72edff0cb036620	-8.015548034311431e+34
91	0xc747786ddcf817de	-2.4373084231016353e+35
92	0xc755c1132e4278a4	-4.5181703493797275e+35
93	0xc72020eeb6bde214	-4.187234985118944e+34
94	0x4720fbc3cfdc463c	4.409157418422824e+34
95	0xc730f9f721886b7e	-8.814664946193438e+34
96	0x4774ee806507132e	1.7389331700433044e+36
97	0x4713d7978fb85cee	2.5756591577181023e+34
98	0xc7803fcac685e88e	-2.699859426250639e+36
99	0xc6dfd67c931be4dc	-2.5829923139051731e+33
