3_Heat2d_MS/logs/models/2024-01-02-16-10-01_2d_heat_rbf128_50X5/epoch_28000.pt (torch, 441211 bytes, 14 tensors)

rbf_layers.0.centres f8 [128, 3]
00000000: 42c8 d531 fbcf d5bf a8e3 cc2e f9bc c0bf
00000010: 7086 8ad6 0ce3 ef3f f16a 56ad 3c15 fa3f
00000020: a7aa dd19 48d1 bbbf 2c6f 1dee 693e edbf
00000030: 3430 7a23 76ab d8bf 6791 90d1 bfbb e9bf
00000040: d97a a8b5 ed05 f03f 620e 3132 aadf dabf
00000050: 3cdb 842c 55b2 f4bf f484 2aa4 c367 b13f
00000060: d53f 3ec1 00d9 f1bf d6bf bca1 d9a6 e0bf
00000070: 9a92 706f de99 e63f 5690 1388 cd80 ef3f
00000080: 0131 28c8 a5a4 f83f 692d e2ed aaff f33f
00000090: 8c39 3fcf 072f f9bf 81cc f379 a1fc d7bf
000000a0: aafe b89d b0c5 e13f 68d0 2e7c cc06 efbf
000000b0: 806a 4e89 f886 e53f e34c ae86 c0b4 c53f
000000c0: 6bcb af54 f312 c03f 874b 1969 4cf0 b0bf
000000d0: 1d38 9cb5 1646 d03f b18a 991a c40c f73f
000000e0: 3d95 0f10 e217 f1bf 64c4 67cb 91ab d83f
000000f0: 6f8f e073 afe3 e4bf 4d43 3891 39f6 ef3f
00000100: b350 04ad ce18 00c0 e019 1092 0d18 f0bf
00000110: acbe 7800 eb6f e83f 33b5 ac8f 54f7 f93f
00000120: 448c 0051 0331 d5bf 0e52 a47c f039 debf
00000130: 747d fa24 85f5 e5bf f638 6396 478b d93f
00000140: b5c9 6256 6f89 70bf 3a7a b9fb 96d4 f43f
00000150: 028a 9cff 49a1 db3f 6530 4b32 3c5e 0240
00000160: 6c95 9cce 9087 c33f f8da 3a27 500e e73f
00000170: 6488 a138 1907 f2bf 4e37 c525 70d1 d7bf
00000180: 7300 f3b6 ff48 e73f 3ff1 015f 36a4 d3bf
00000190: d29e 4ecc aa11 f2bf eb78 de5f 2b8b f73f
000001a0: 3a89 1afe 82ba d0bf 6af2 d84c 6468 f63f
000001b0: c755 9139 3772 eb3f 7d54 84cd 07a3 dabf
000001c0: ccb9 4758 fb96 afbf 410b 70ca b8c8 e9bf
000001d0: 887d 7d69 8214 e5bf 55d2 f2f3 0d0d e7bf
000001e0: 61b6 49a8 820e de3f 82e3 75fd aa92 fdbf
000001f0: 34c5 88b4 144a e73f a783 8bf1 5198 d13f
00000200: 8c67 d988 8448 0340 080a 455f cda7 d1bf
00000210: 263b 0ae2 e12b 01c0 4c86 d0ef de5f e03f
00000220: 36bf 6b40 f41b f6bf 23ec 82e9 165f f1bf
00000230: 8dcd 51e3 ca51 c83f eb68 813d 943d cfbf
00000240: 964e a130 75b6 f8bf f562 da2e 09bf e03f
00000250: 5c85 bd72 b714 e93f 4f8f 6c14 9c53 ae3f
00000260: d178 f5e7 3651 e5bf e345 19cd 9598 f23f
00000270: 4d04 5495 a4f6 f0bf 83af 80fc 0683 fbbf
00000280: 23e0 b158 897e e53f b7ae c2b5 e31c edbf
00000290: bb77 766a be8d f3bf b65b e79e 1853 e33f
000002a0: fdd2 b0f5 1988 e73f 487f 109d 4e98 ffbf
000002b0: 0750 b846 251c e43f a03f 1d02 1414 91bf
000002c0: 95a9 aede a58c f6bf 1b2b d1b0 369a f2bf
000002d0: 5c99 ba0e 631e d7bf ade3 e700 7ac3 f03f
000002e0: 7982 71ca afc9 02c0 691b 1ec6 12b7 dfbf
000002f0: 2173 11c5 0146 01c0 75af 6528 23c6 0040
00000300: cd9c 69c4 ac05 ee3f 5648 8ccc 46a7 f4bf
00000310: ace2 2de5 9c6c c5bf 4e44 1f40 ed83 eebf
00000320: f6be 7c3c bdbd a43f d4c9 a735 8182 bcbf
00000330: 6fec 4a0a 0974 0440 3c9f 8db7 0691 cfbf
00000340: 9f6f 5449 0f2b b2bf a188 b072 3860 ec3f
00000350: 3617 0241 3dc1 03c0 e03f ec01 3184 0340
00000360: f008 1225 a7f3 ddbf a47b 699e c984 f03f
00000370: d756 8836 465f f43f e5c6 eae1 4f52 e6bf
00000380: a43c 0132 907e b33f 63d4 f5fd 1510 02c0
00000390: 1bb3 25dc 5fec d33f 215f 07a4 afc9 f63f
000003a0: 1155 ee20 f344 f33f 7cab 982d 2b6e 0340
000003b0: e155 f01d e426 fdbf d4f5 63de a9fc f5bf
000003c0: c649 6584 cf3a e63f 9a8a 4cce fb4e 0140
000003d0: 49cd e016 2002 e3bf 44ca 281f ec7c e13f
000003e0: 2d38 0f14 cf59 fd3f 8c73 94ac af4e ec3f
000003f0: ed7d 06c0 ee85 ea3f 6c2d 8512 5ece 01c0
00000400: 95cf da10 1038 e83f 032c 46ce 335d f1bf
00000410: 7384 21f4 e687 f2bf 0bc3 cc30 c7af ae3f
00000420: b5d0 8771 048f ee3f b973 f670 f622 00c0
00000430: f98f 5d26 8c02 d2bf b5d0 d145 ab41 f3bf
00000440: c94e 98a8 9c03 e03f c15a 0ed3 5fda e5bf
00000450: 7603 fa8b a4f0 fd3f 9794 4899 fbe6 ebbf
00000460: 0931 a58d 3449 fa3f 1746 7606 d378 ecbf
00000470: a32d cdca 4963 e23f 06a3 29bc d0fe bdbf
00000480: 07ff 3830 1657 f4bf 60b4 16eb 7141 e73f
00000490: 9b06 3bbb cb67 f2bf 30b9 f321 09d2 f4bf
000004a0: a9f2 5777 28d9 e03f 1ec6 26a9 247f ba3f
000004b0: 05a8 cc49 a412 e53f 39bb be85 261a fe3f
000004c0: 47e1 9154 35c5 e4bf f819 a63f d17c 03c0
000004d0: 26f1 4f48 4544 e2bf 5628 93d5 f824 c1bf
000004e0: 530d 74ce e942 f3bf 8b67 2992 db1f ccbf
000004f0: 7517 28f2 5280 f3bf 7d05 64a8 36aa d73f
00000500: 5bb4 6c4d 84e6 d63f a9b5 89f5 8f91 c1bf
00000510: 78da ff28 4516 e6bf 8281 7ecd dd94 e1bf
00000520: 4951 a218 bb8e eebf a3d7 3c71 65cf eabf
00000530: 2cf1 5ee1 57a9 ecbf 528e cc7f 987d c53f
00000540: a725 9ca8 2bc3 f0bf 691f 59c0 6460 e43f
00000550: 5af1 e051 559d d83f af06 124a c796 f5bf
00000560: 36a8 e967 6947 fdbf f97a 0e01 f9d2 f3bf
00000570: bfa3 e8d7 3122 efbf 44a9 a4bc a433 e03f
00000580: d0a9 19e9 149e f63f bc44 943f 05ca f5bf
00000590: 2f2b 574a d0fb df3f 1b10 b2ba ebba e3bf
000005a0: 8b4e 7b30 90b7 fa3f 2cc1 50dc 8722 bebf
000005b0: 547e 0909 1168 f3bf b208 6be0 43ba f2bf
000005c0: f12d b581 c134 f03f 64b3 5b7f af0b dabf
000005d0: e92a 39e2 21a7 e4bf 3016 6229 20e2 e1bf
000005e0: 203b 3d0e dc17 e3bf 2ea7 ddf0 3fab c2bf
000005f0: dbb6 27d8 137d efbf 29cc ba73 f1b6 e53f
00000600: 3caa 79ab 837a f13f 6433 8bb7 af25 cbbf
00000610: 5dd8 5874 f6e0 f2bf d0cd 56ab 190c d7bf
00000620: 0f6c 2210 d6e0 f4bf 2d00 ec20 f5c2 b63f
00000630: 81a2 fbee 2732 e43f 3eff 6988 e649 fd3f
00000640: 233d f7d7 798f e23f 2f81 9461 9a76 f1bf
00000650: 3260 eb20 f439 e13f 4f5a d87e dad4 c33f
00000660: 8b7b a979 46fd f33f 47fe 4074 df32 f1bf
00000670: 4147 134a d59d ea3f c84d e969 1c3d e53f
00000680: 023a 736d b5af 0040 64e4 f3a0 128c b63f
00000690: daa8 7a2e 814d e03f 105a 233b 1490 df3f
000006a0: a8bc 4545 dabc e93f 338a 3aeb 9fd3 f8bf
000006b0: c693 b0d5 4ecf f73f 84c9 833a 62f2 f2bf
000006c0: ec9a e04d e10d efbf 5a0d 86d2 6831 e13f
000006d0: 6138 5ab9 e7c0 b0bf aa89 5053 f3f6 cdbf
000006e0: bc35 1352 0231 06c0 8b40 6b08 9932 8abf
000006f0: 606b 02ca 119b f33f 69dd 0fb6 7293 e13f
00000700: b9f7 f0f1 9bad eebf ee82 28ed 7170 f23f
00000710: c891 94a8 6560 f93f 36b0 a344 09a2 fa3f
00000720: 392f 007a a589 e3bf 904b f40f bfe8 a8bf
00000730: 6a68 5260 2577 f3bf d24f b220 5744 0040
00000740: d5d0 6535 d634 e8bf 838e 9fe4 cb59 e4bf
00000750: 80b3 441d 8bb5 f5bf 9c4a 9dbc 15b3 df3f
00000760: 0efa 6547 8189 e4bf aa71 df44 2c4c e83f
00000770: 0e6b 6b01 d607 dfbf fcd1 5379 ea37 fb3f
00000780: 4887 c0f8 0dc6 f3bf 366f 2114 d6c7 ef3f
00000790: f3c8 6d37 b284 e0bf 0b5a 2871 643d ed3f
000007a0: 9c14 8b9e dd3a e2bf 48ff 4d0e b9f9 f33f
000007b0: 00f3 264a 728b e03f a82d 59c3 1db6 f5bf
000007c0: a5bb aa58 4d1a e83f 46ac 95ad 95a6 f93f
000007d0: 9704 15aa 3033 e63f 13a9 5428 c84f d23f
000007e0: 2437 e0f4 a68d c7bf 13e8 72ed 9b6a f73f
000007f0: 94c8 1afe 9554 f83f bd39 6ec8 6a63 f03f
-0.34081916681964597 -0.1307670095937088 0.9964660825973635 1.6301848193167496 -0.10866213447085703 -0.9138688708003193 -0.3854651781518925 -0.8041686146794235
1.0014474006672371 -0.41990141774679135 -1.2935382594129825 0.06798956640206538 -1.1154792355118748 -0.5203674467975314 0.7062828232343066 0.9844730050795174
1.5401971644051289 1.249918870193904 -1.5739820571503484 -0.3747943583432019 0.5553820686836464 -0.9695799279638893 0.6727259332431714 0.16957861496175672
0.1255783236989275 -0.06616666379822621 0.25427787528394835 1.44061670675789 -1.0683308246019145 0.38547177184870507 -0.6527936232782688 0.9988067470859306
-2.0121129528943924 -1.0058723168927983 0.7636618622982119 1.6228833782473202 -0.33111651335110914 -0.4722863404470282 -0.6862207147823214 0.39912595449722177
-0.004037318145650938 1.301901801394378 0.43171930276926684 2.2960132531352877 0.15257463539561955 0.7204972044190461 -1.1267330371997781 -0.3721580857135124
0.7276609967448294 -0.30689772871098236 -1.1293132763620872 1.4714769120105824 -0.2613837701302547 1.4004862787106966 0.8576923488969265 -0.41620059080134536
-0.061698774839772236 -0.8057521776066566 -0.6587535915713696 -0.7203435673350876 0.46963564333313995 -1.848307600097741 0.727793076139426 0.27492188061119766
2.4104090396257956 -0.2758668356292735 -2.1464269313213604 0.5117029842260279 -1.3818247333947062 -1.0857152101077723 0.18999610995852514 -0.24406674388121216
-1.5445453548062793 0.523319808492572 0.7837788811704445 0.05923164128605995 -0.6661638765761159 1.1622522365254262 -1.0602155526287504 -1.7194890845666755
0.6716963512726618 -0.9097765493401856 -1.2221054228498207 0.6038935760105832 0.7353639410635818 -1.9746843467073223 0.6284357434510647 -0.016678154591602046
-1.4093378733183262 -1.162649813357979 -0.3612296718441905 1.0477237735160359 -2.3484798255815886 -0.4955489096395725 -2.159183063120864 2.0967467456848063
0.9381927334005923 -1.2908390035777493 -0.16737710180656984 -0.9536043407807797 0.04051009524698472 -0.11136634406992779 2.556657867824064 -0.24661334955748682
-0.07096953907279023 0.8867456665068582 -2.469355113865187 2.439546599409354 -0.46799639339600585 1.032418841168444 1.2732603197268213 -0.6975478565638836
0.07614995213337977 -2.257854446472764 0.3113021516681315 1.424239769685251 1.2043334280363676 2.4287932932106155 -1.8219948930249006 -1.3741854369285322
0.6946790300228762 2.163566219054087 -0.5940094420279048 0.5464993103581226 1.834426000935774 0.884605252332777 0.8288491964812558 -2.2257653662579084
0.7568435982889122 -1.085254483946074 -1.1581792389263483 0.059934830386174275 0.9549581735032208 -2.017071611901397 -0.28140548464421006 -1.20353247903135
0.5004409115667495 -0.6829070207775986 1.8712506740414176 -0.8719461435145089 1.6428723843592385 -0.8897490621768068 0.5746201477972374 -0.11716942399801775
-1.2712613948532991 0.7267388907981847 -1.1503407777494548 -1.3012782408000696 0.526508553593506 0.10350255136179284 0.658525604381112 1.8813843941131394
-0.6490732814554939 -2.4359459850850236 -0.5708338177060213 -0.13394079616984084 -1.2038362564643037 -0.21972221981814885 -1.2188291033976075 0.3697640079918399
0.35781962929724437 -0.13725471009403847 -0.6902185250063004 -0.54942217002467 -0.954923198808083 -0.8378169261620666 -0.8956717874312168 0.1678953765887053
-1.0476490579916147 0.6367667919921419 0.38460286136593924 -1.3493111508727613 -1.8299345072832813 -1.2390070000907925 -0.9729241578071351 0.5063041386068012
1.4135941606024183 -1.3618214114724614 0.4997444845181915 -0.6165674826047537 1.669815244084847 -0.11771439675135714 -1.2129068711291398 -1.1704748884517753
1.012879854842023 -0.4069632285816651 -0.6454018991874736 -0.5588532264961881 -0.5966625478848506 -0.1458511282065102 -0.9840182515888175 0.6785819301934498
1.0924107263805487 -0.21208759748551664 -1.179922537308378 -0.36011354191142875 -1.3048916464092633 0.08891231588131694 0.6311225574145994 1.830542118899714
0.5800141542512488 -1.0914558231089122 0.5383244173963304 0.15493327325448766 1.2493347885535708 -1.0749201337020098 0.8317667433532067 0.6637098377781792
2.0857952643193594 0.08807484082707756 0.509461012630051 0.49316888594822306 0.8043032982804066 -1.5516661823863955 1.4881122920280503 -1.1841757093176009
-0.9704443474809898 0.5372814285077923 -0.06544349932866701 -0.234098830872495 -2.7739302074539562 -0.012791820115495752 1.2253587618822266 0.5492490344903845
-0.958692524472773 1.1524523986810737 1.5860344491166973 1.6645596200205666 -0.6105525381876539 -0.04865071363214846 -1.216588379151768 2.03336930793919
-0.7564497988628555 -0.635961481599637 -1.3568221228881328 0.4953054754197781 -0.6417852777956925 0.7592984528706002 -0.4848532689917854 1.7011513461449104
-1.2358531681897649 0.9931440728355259 -0.5161982615084341 0.9137441835508197 -0.5696857544468403 1.2484674986626079 0.5170222709926691 -1.3569619780344997
0.7532107097412007 1.6031700878763941 0.6937487909236947 0.2861194986204662 -0.18401038128688996 1.463527610334954 1.5206508565866317 1.0242717580145915

rbf_layers.0.log_sigmas f8 [128]
00000000: c037 c3d3 5fa8 e6bf a899 c5fc ab53 d8bf
00000010: 4256 2336 b135 e4bf 605e c6d7 c52f e1bf
00000020: e3ab 2269 e0c2 c4bf 8876 b967 978b eabf
00000030: cd45 c0cb dcf4 a93f 38ac f66e cc9c afbf
00000040: 190e f763 0b39 b0bf 100a baaa 080b e6bf
00000050: 3353 50cd 54ec d1bf a7ba 4df0 dad8 c1bf
00000060: 4624 2a6b b825 ebbf 25c5 250b b8fd e4bf
00000070: 1733 253a 3f9a 9e3f 0220 ba43 d5b7 d5bf
00000080: 3614 ac11 c1ff e7bf cd26 ab67 36eb e3bf
00000090: ee78 942a 3826 bebf 26dc ef6c 8321 dabf
000000a0: 1446 f67e 6bf5 d3bf 5e46 057b c06a 81bf
000000b0: 8ed6 2c92 b7ab cd3f 8a8b ffd4 eb85 b6bf
000000c0: bf56 2e17 ea72 c03f b5fc e7ad 33ad e7bf
000000d0: c487 ced1 69b9 babf e7bf b35b 1f71 d0bf
000000e0: e5ba 689a 260c cfbf 0468 529b 88d6 c8bf
000000f0: 219d 4175 5eb9 dbbf 15cd 9ea9 0d16 37bf
00000100: 1bf6 58a4 e9b5 e0bf 1bea b131 81e2 c6bf
00000110: fca3 eeaa 1c45 c83f eb01 6a40 6978 833f
00000120: 24f0 45be 8985 e2bf 827e 77ff 64f6 cdbf
00000130: 33e8 c244 d105 e5bf 3bed 3d81 80fc b6bf
00000140: 2b06 f93c 0b09 c3bf af2b 8aec 4c89 d7bf
00000150: e7d7 50fd f683 bfbf ca6a 83f6 95b2 c4bf
00000160: 62bb 1ec5 9930 c4bf 374b cf4c 37c6 d1bf
00000170: ab90 97bd b37a d4bf b4b2 9c26 0bad dbbf
00000180: 43cf d6f0 abaf c3bf ce20 84c0 eba6 c63f
00000190: 7c53 0dae 87f8 d3bf 4281 1bc2 1cfd ce3f
000001a0: 8be7 75d4 b690 c4bf eb4d a744 871f d1bf
000001b0: af33 694a 92f6 ddbf 869a 7318 0a3e d3bf
000001c0: c252 c695 e1e7 c8bf 670d ad0b 00e0 b4bf
000001d0: 82c0 cf41 00d6 d5bf 7573 d310 7582 c7bf
000001e0: 5453 bafd 604c d4bf b3b8 f172 f785 cabf
000001f0: b3ee 8e15 daf7 e1bf 2648 993b feaa eabf
00000200: 6f4e 807e e76b e4bf a2b0 1e1b 79fd e1bf
00000210: 79da fe60 d695 e0bf 8011 6f15 10ec b93f
00000220: 0a47 abb2 ad1b e4bf 9b9a 54fe c6ed d6bf
00000230: 3716 0283 0a95 b5bf 3e31 b48c 0cee 97bf
00000240: a481 9689 ebc0 d1bf 994e 196e 43cc b73f
00000250: 8232 45bf ea3f e3bf 6015 86af 13ac c8bf
00000260: 2e39 bd0f 2823 debf a70c d504 1c4a d1bf
00000270: 206b c59a 82a9 cabf 4f3a 18a8 474f e1bf
00000280: 7f2d 2a15 1909 c2bf 3b68 a39e 7cae e3bf
00000290: f34b 9d91 845b e8bf 2b32 cf58 aff8 b73f
000002a0: a634 8466 b53e dabf f46f 16fb 747c e1bf
000002b0: 6e25 b0b2 f9bc c6bf 62e1 1027 5247 dabf
000002c0: 3485 3fbd 5d4c dfbf 3a5f 117b 44e9 be3f
000002d0: 7b32 0ce6 cb06 c1bf 441b 6311 e0e8 e2bf
000002e0: e577 9914 6b5d b83f 370f 8c57 d874 d3bf
000002f0: d4bb 71c2 7599 d9bf 70c5 533d 8195 b53f
00000300: 0401 d1ca 27d2 b6bf 0ae2 bb32 e46c d13f
00000310: 245d ba0d af26 bc3f 78be cadc 3891 b43f
00000320: 87b2 42f1 acab d8bf 259f 5f34 c5f3 e4bf
00000330: ddeb 1dc0 fd1d e3bf 98c8 3175 14b7 c23f
00000340: d158 4614 1770 acbf 3f16 a1ae fc00 c2bf
00000350: 0ca3 8188 dbe4 c3bf ee93 545a 2b32 be3f
00000360: c153 9984 384c cebf 3ef3 7309 ae49 d3bf
00000370: 1899 b1ea 9cab e4bf 94d4 6fd5 0669 c5bf
00000380: 594f f9ea f7fa 80bf 0a0d 9492 e436 e9bf
00000390: d1c7 8e76 fab1 d0bf 33eb a773 978a debf
000003a0: e408 5fdb fd7e bbbf f499 6cf5 4e76 c8bf
000003b0: 1a5a d0f7 0baf b7bf 21a6 1095 474c dabf
000003c0: 0534 a0ef b95f 70bf 28f8 4596 683f dfbf
000003d0: e242 dc84 19a3 d7bf 5308 be4e cfed d4bf
000003e0: 3c78 c3e0 41af e0bf 2366 f40e 3e94 cfbf
000003f0: 843b baec 1146 cfbf 0171 0711 e5ba bd3f
-0.708053506468552 -0.3801069229579306 -0.6315542275794501 -0.537081643519695 -0.1621971619946115 -0.8295399690502601 0.050696277496296106 -0.06174315313850126
-0.06337042990258403 -0.6888469061380551 -0.28004951524899296 -0.13943039640021945 -0.8483545392092615 -0.6559715478635196 0.029885280536564 -0.33934527982683005
-0.7499699921760399 -0.6224624657417849 -0.1177706817584043 -0.4082954944455558 -0.3118542423117969 -0.008504394296923564 0.23180288922747078 -0.08798097562934806
0.12850690967450437 -0.7398928066831078 -0.10439168331370668 -0.25690444903648174 -0.24255831279284404 -0.19404704650952465 -0.43318902445612834 -0.00035226663168970554
-0.5222061357414448 -0.17878737379562967 0.18960913034723592 0.009507009771596983 -0.5788010326646185 -0.23408186410869197 -0.6569601386065699 -0.08979037432975627
-0.14871349789795948 -0.3677551565130512 -0.1231073730894817 -0.16170000588211614 -0.157733174562476 -0.27772314549399674 -0.31998914255951644 -0.43243674059594217
-0.15379857310983355 0.1769690217991013 -0.3120440673567868 0.2420993755140533 -0.16066632627535812 -0.2675493402905135 -0.4681745268506416 -0.3006615866455963
-0.19457645238130367 -0.08154297146852728 -0.34118658472926466 -0.18366874047833517 -0.31716179636105335 -0.2072133361102196 -0.5615053578435066 -0.8333731807745195
-0.6381719084478855 -0.5621915368733605 -0.5182907003825924 0.10125828288352601 -0.6283787240629135 -0.35826277577363336 -0.08430543611947248 -0.0233690224531966
-0.2773999065048207 0.09296056211433736 -0.6015523658512196 -0.1927513701486232 -0.47089578187014325 -0.27014828178307443 -0.20829803998170693 -0.5409277232263977
-0.14090264829097163 -0.6150496576694943 -0.7611716121704134 0.09363838117787597 -0.4100774289261814 -0.546442499547537 -0.17764207100871537 -0.4106030828002273
-0.48903602105390864 0.12074687962137612 -0.13301991207881145 -0.5909271564094998 0.09517544987599498 -0.3040066580726832 -0.39999145497034516 0.08431251284834729
-0.08914421750614926 0.27227120356067813 0.10996526799350598 0.08034091368130614 -0.3854782444057396 -0.6547571204109529 -0.5974110367091005 0.14621215555559242
-0.05554268000121144 -0.14065512205904615 -0.15542167821265485 0.11795302348453138 -0.23670107340390525 -0.3013720600427411 -0.6459488471853403 -0.16726766034813478
-0.008291184290250152 -0.7879507887704744 -0.26086293771652175 -0.47720896048092526 -0.10740648847334772 -0.1911104868278951 -0.09251475143569401 -0.4109057384217483
-0.0039975417257780465 -0.4882451503289098 -0.3693298146691132 -0.3270147580116191 -0.5213937177575256 -0.2467114995022693 -0.24432586726149108 0.11613303819416744

linear_layers.0.layer.weight f8 [100, 134]
00000000: a0e8 5a76 9325 78bf beec ddbc be68 793f
00000010: 20ae 4cda be5c 773f a783 5682 b4ca 913f
00000020: b74a 5cb5 e74b ce3f 6bc3 6566 6ea9 c5bf
00000030: 6254 4371 6778 d03f 23c4 1017 4aac cb3f
00000040: 2f9b 6456 479f 8fbf 6e3e 60df 0cfe c13f
00000050: 0f1c 6d53 a67c c1bf 8651 5c05 e99b c13f
00000060: 6ce9 10f1 d185 c0bf 791a 761c 5338 bcbf
00000070: dc7e c7ee 7af3 debf 7e52 c751 8773 c73f
00000080: 8a2a faa0 2059 c8bf fd06 afce fa1a a23f
00000090: f656 8d67 4f56 ccbf 799a 9123 5f57 ab3f
000000a0: e646 8503 bb13 973f aa83 c249 4d91 e1bf
000000b0: 4b43 138a 0be3 d63f b3ad f33f 6272 d53f
000000c0: 7ad7 b328 4ff2 cc3f 8317 cd2f 1e09 663f
000000d0: ba31 98da 69a3 bf3f a146 0de9 3ba1 c03f
000000e0: 7a62 48ca 833e bfbf fc85 455a 3639 b9bf
000000f0: d047 d28c fc38 cdbf 674e 88a2 f33e bdbf
00000100: 77ef f60c 5433 bb3f 89ae de18 6a5d d43f
00000110: 133b 114c f964 c63f ac7e 625e 892a c13f
00000120: cb97 9165 41f8 b83f 4b46 349a b95d b0bf
00000130: 602e 60ae 1bb9 c03f 5162 c2e6 c7ae c13f
00000140: 9633 a0ec ab2b e1bf 6866 aec7 3595 d1bf
00000150: a180 f283 3a07 9d3f 78bf 10e3 c5b9 b03f
00000160: efe9 4a01 913c c33f 4a6b 3b79 168f c13f
00000170: 6e09 5860 df19 b2bf 0327 7e28 fce8 d23f
00000180: 4598 b602 a9ef bc3f 29cf 6815 0a89 d73f
00000190: df15 b2b3 11dd debf 9bcb dd7d 4812 da3f
000001a0: 82a1 c55e dda4 923f b0df a9c5 ae51 d3bf
000001b0: ad26 02d2 7245 73bf ad6f ebbb 10f5 c73f
000001c0: 4df9 a41f 6066 da3f 7aa8 1210 9334 7b3f
000001d0: 7988 8cb8 6ce7 c53f 6230 a07d c257 d23f
000001e0: cc19 31da f3d1 9ebf 3bd1 e47e 6ce3 ca3f
000001f0: d519 dbfc e30f ba3f 5f40 d171 c4f5 c5bf
00000200: fa60 550c 7809 bdbf bb4d c517 8050 b43f
00000210: 59e1 8af3 41ed debf c4ca d968 2ffc d93f
00000220: ca0d 7d77 5011 b1bf 4ad9 98be 7568 e2bf
00000230: e82a 4d5e 5a7b bbbf dd7a 3328 2aa6 ce3f
00000240: b2ad 0194 2223 d93f fb56 6804 cdc5 cfbf
00000250: e548 f622 8873 cebf 0c3a 83d5 4a19 b93f
00000260: f197 7309 1e81 c0bf 2b4d fb0f 86b2 c33f
00000270: 5fc6 897a 5740 ce3f e1ba 8a19 e2ac a7bf
00000280: 0af1 4b99 350b b53f 7d69 8f24 7aed c8bf
00000290: bfb3 7aa2 eb9f bfbf 51e0 b0ab 1111 d13f
000002a0: c144 e8a0 7a61 b43f 0e86 abc8 6c91 d5bf
000002b0: 7c68 9733 acf3 803f 4646 ca61 94bf d03f
000002c0: b45f a52d 9979 cfbf 015d 49ee 0adc d13f
000002d0: 363f 6813 5e60 d53f c57d d29a 9a0a 4f3f
000002e0: b453 6b7e 03d8 87bf 2ec2 f261 93ec b9bf
000002f0: cba5 4c8e a309 c83f a513 6a00 0667 c03f
00000300: b45c 8d06 82a3 ce3f 596f d6ed cea1 c93f
00000310: cc43 d453 e9d0 923f cd85 9b88 623f d13f
00000320: 64a8 42c4 086c b3bf 049a 553a bd98 c8bf
00000330: 3be5 0283 7362 b5bf a7b3 ea12 05ba cf3f
00000340: 3204 229c a789 c43f 5c3f 61f5 63cf dfbf
00000350: 74b3 cc2c 552e c23f 24e6 de10 be66 d4bf
00000360: 5e16 3f3e c22b 97bf 807e d593 f0c8 c53f
00000370: abce 13c3 9a23 9c3f 04f7 cbbc a875 dabf
00000380: d342 d81a aed8 d23f d957 c0f8 1045 913f
00000390: 1ac6 bb89 81dd d53f 38cb 0168 d3b2 bcbf
000003a0: dfc2 78a7 a927 92bf 4a11 68cf 9f56 d4bf
000003b0: 3039 0a5e 0099 aabf 6a11 7eb3 0279 9a3f
000003c0: ecf5 8b0d 6888 bfbf 742d b9c6 feb8 9f3f
000003d0: ef3e 5452 c925 af3f bfd9 8f0d a183 d5bf
000003e0: c258 6bb0 4c4e c7bf 451e 5619 5702 b13f
000003f0: 6f73 271c c721 9dbf 7c08 00db 3850 d13f
00000400: d8bd 2cf7 9eb2 9e3f c9e4 a656 4e2d a83f
00000410: 474a e2e5 8472 c23f c035 5f92 486f b83f
00000420: 8738 a272 b85a c83f 9c52 6be4 4101 cb3f
00000430: 1a2d 3b32 43ce b03f d7ef 5f0d 2772 bcbf
00000440: 40e8 2b9c 58b4 e03f 30b2 eba9 7c31 e43f
00000450: be51 4db8 17ac e53f 1136 11cf b4d0 ce3f
00000460: 0abb 0b5c 60da da3f 3a73 2d27 62a1 983f
00000470: c450 7215 8c17 b33f bd54 e883 cb41 b03f
00000480: 2a25 d2d2 1f57 debf 4f3a 7eb1 466d da3f
00000490: 6b9d ce92 096d b6bf 543b f22a 83d5 c23f
000004a0: 2574 fddc 63a6 d9bf 5eb9 7787 99b0 d13f
000004b0: e984 0e2a e93d c9bf fd95 3bc3 1fd4 bb3f
000004c0: 8ed0 e5ca 493e a53f fdb5 3d59 f2a4 bd3f
000004d0: edc1 3981 a354 e03f 00c4 9266 b620 dcbf
000004e0: 152b c63a f0d4 ddbf f94e 553d aa3a 87bf
000004f0: 2361 78a7 3707 d63f 5e7a 2339 1e99 cc3f
00000500: 626a 2e31 b273 eb3f 81ed 981c 7746 e53f
00000510: b9dc 7d2d f730 da3f fd68 9ae0 a019 dc3f
00000520: 3b2e eeaf 667b d9bf f84b c659 560c e73f
00000530: 8e87 e0d8 2b72 d53f 5b59 a955 d95a c53f
00000540: 91e3 ae1b e756 d83f f6e1 4798 9626 da3f
00000550: cb78 555f 1671 d83f 21c4 aa0d c0be d7bf
00000560: 489a 4703 181b c23f acb3 f9a1 f689 cb3f
00000570: 6d98 b003 3883 e2bf 9474 1554 1714 363f
00000580: 43e4 9845 e19c e13f 6b85 73c7 55bc e33f
00000590: 9c70 f286 334a dd3f 8fbd 7d8f 083d c6bf
000005a0: 90d8 b70f 42ed b63f 1ad2 920f b900 bd3f
000005b0: 83ac ec78 bb10 cfbf 0c22 5e37 0bb3 bd3f
000005c0: c624 015a 033f dfbf b1b0 d4bf 3d8d a0bf
000005d0: 0f17 1585 39b0 cbbf 67cb 6aac 80c3 7b3f
000005e0: 328d df56 abbf b03f 1015 68e9 75ad da3f
000005f0: b27e 2aba 5fac db3f 4ec2 bc37 2b6d dd3f
00000600: 6490 8df0 8e06 e13f 2141 046d acff c4bf
00000610: 46ce d77b 691c c1bf b997 2374 ec9f b8bf
00000620: 3aae 102c 3fbe b73f 2435 7cf2 5332 c43f
00000630: d1c3 3f85 4a10 b5bf 1d6b ab37 6d23 e13f
00000640: 7e97 8acd e748 d2bf 5c58 d5fa 5368 c13f
00000650: d1eb ce27 4c56 c53f 8006 9044 63c6 d2bf
00000660: fe0e fb6c 7a4f 84bf 3bb2 112c 409f cabf
00000670: 2ad3 3da9 d782 7e3f 5e73 d754 18c6 ea3f
00000680: a99f 2536 ed73 d2bf ed17 13ba 60ce d63f
00000690: a865 5167 5ece ccbf b8b2 9eaf 0a6f 603f
000006a0: 54f5 c3c2 fcb8 c9bf acfd f993 470c d93f
000006b0: 8bb0 f64e a940 8dbf 4aaa 1d87 e30a c53f
000006c0: d350 9343 0b63 d93f 0fad 3402 82d2 d03f
000006d0: 025a ceff 28fd dc3f b33a f1f4 2b79 d9bf
000006e0: 91c4 3802 33ec e53f bf20 9e0c 880f e13f
000006f0: d8d6 dc2f 0aea b5bf 8d24 1af9 3b4f c13f
00000700: 7fc6 4d50 30a7 da3f 75ce 3417 9d8e d43f
00000710: cd8d 0efd 479d e2bf 0910 1ebe 5129 8abf
00000720: d5ac f0f1 2360 d43f d3b3 65ef 4378 d43f
00000730: 281a 66f7 753c dd3f c8e8 ed11 b6a3 c83f
00000740: 258d 9de0 1962 b2bf 7ca7 a47f 80ad bd3f
00000750: 32ad cf84 f127 e13f 8687 1939 c55c d23f
00000760: 5008 afd5 ecf6 cd3f 0db7 ad6f 80c6 c2bf
00000770: d2c6 ed77 c876 df3f 175c aa8b b41a e2bf
00000780: 6a9f 4aef 1df3 bd3f 45e2 5f16 67e1 eb3f
00000790: a533 0304 1790 d9bf bc49 056a 6d0b d4bf
000007a0: ab5a 18d2 b54e c23f a49f ebb7 7d52 e0bf
000007b0: cf83 fd0a 90db a5bf 5931 81dc 20f3 db3f
000007c0: 2f89 17c1 12f9 e23f b9a2 0212 13d8 c93f
000007d0: c1fc 0d52 6d34 d83f e65b a49f 0e12 a33f
000007e0: 7f17 dcaa d59d d93f 9686 c0ab b8ef c3bf
000007f0: 9f46 a5b0 9f51 e53f 7c5a 2d8b d3fa d33f
-0.005895210289674463 0.006203408307437984 0.005703683393942366 0.017374821143338128 0.23669144015783214 -0.16923313140753335 0.2573488813480421 0.21619535566563383
-0.015440518688206588 0.14056549937275825 -0.1366165072779215 0.13757050287007305 -0.12908386488727375 -0.1102344459996888 -0.4836108524159337 0.18321315281959366
-0.1902199541112462 0.03536208889955892 -0.2213839774728325 0.05340096768559461 0.022536203470116777 -0.5489870491620554 0.3576077316657133 0.3351064323930714
0.22614469039370616 0.0026898946365773737 0.12358724200038909 0.12992047194943715 -0.12204765022796407 -0.09852924064536944 -0.22830159069104505 -0.11424181669308951
0.1062519580509028 0.31820156506248815 0.17495647634719855 0.13411061390524048 0.09753807763772142 -0.06393013014555853 0.13064905180395936 0.1381463886980492
-0.5365810033414273 -0.2747320604335983 0.028347887328550873 0.06533467095937151 0.15028584063641356 0.1371791927293436 -0.07070728399415824 0.2954702754437763
0.11303192440263483 0.3677392205311088 -0.4822429900017066 0.40736591617240386 0.018207034024642528 -0.3018605165775581 -0.0047049031419505285 0.18716630149617455
0.41249850359226486 0.006641935791018233 0.17112502108745156 0.2866064287961817 -0.03009778041112003 0.21006542392718494 0.10180497096289483 -0.1715627246617286
-0.11342573453055485 0.07935333805408266 -0.4832310560555207 0.4060171626980884 -0.06667044560622695 -0.5752514574622094 -0.10735096742898131 0.23944594347900408
0.39276947454228683 -0.248223902847421 -0.23790075022822701 0.09804218018255301 -0.1289403482580265 0.15388561039308377 0.23633855326947903 -0.04624086915770476
0.08220229141801752 -0.19474722657362156 -0.12353394238262093 0.266666810671727 0.07961241176987512 -0.3370010337513073 0.008277268719144575 0.26169309186761713
-0.24589838722999746 0.2790553404824579 0.33400680442081254 0.0009473090082287519 -0.011642482085713592 -0.101266108906892 0.1877941555806458 0.12814402599556476
0.23936486549312053 0.20025049794355246 0.018375058881307457 0.26949370709016024 -0.07586722175133925 -0.1921612295947882 -0.08353349636572187 0.24786437438652095
0.16045088885951625 -0.49703310931089617 0.1420389622448074 -0.3187709011795923 -0.022627863930912866 0.170194694695045 0.027479570538118264 -0.4134313434332031
0.29447510358390366 0.016865029509140903 0.34164465380226405 -0.11210366524919102 -0.01772942623773843 -0.3177871251539456 -0.05194855831097056 0.025852243619298866
-0.12317514734964846 0.0309791382590396 0.06083516244882314 -0.33615900349050415 -0.18207701315140495 0.06644195908131063 -0.028449164479627805 0.2705213679001941
0.02997825988421518 0.04722065742266463 0.14411984658052487 0.09544805120022826 0.19026856992099203 0.21097587254793815 0.06564731575342755 -0.11111682964832369
0.5220149088120323 0.6310408896220618 0.6772574042939181 0.2407442103453126 0.41957863797044637 0.024053128853995555 0.0745780517921189 0.06350395174407004
-0.4740676459119465 0.41291968663509676 -0.08760127863080462 0.1471408805559472 -0.4007806451898566 0.2764037917067038 -0.19720186761427463 0.1087055064814066
0.04149084665087442 0.11579813650833866 0.5103318714082526 -0.43949661271022933 -0.46612172832162574 -0.011342363354436712 0.3441905150844084 0.223422792339039
0.8578730545589901 0.6648517187635862 0.40923861925643795 0.4390642350569037 -0.39815680676176485 0.7202560189638225 0.3350934617939111 0.16683499033633606
0.3803041239112242 0.40860524054690417 0.3819023066515796 -0.3710174687831245 0.14145183715955256 0.21514780911402676 -0.5785179206911956 0.00033689088384909163
0.5504003867455441 0.616740121415359 0.4576538865892503 -0.17373759275822606 0.08955777057403425 0.11329228048527576 -0.24269812969700774 0.11601324178457889
-0.4882210139226796 -0.032327584902618674 -0.21631545065081823 0.006778242712857408 0.06542464133194839 0.4168371943818139 0.4323958700206091 0.4597881359395942
0.5320505808163145 -0.16405253718449678 -0.13367956683178955 -0.0961902411978305 0.09274668527421506 0.15778588619324652 -0.08227983239318283 0.5355745398804604
-0.28569979736709417 0.13599633929942712 0.16669609016193346 -0.29335862823072745 -0.009917217684580756 -0.20798494483769212 0.007448999811334992 0.8366815239965992
-0.2883255986002902 0.35634630366655423 -0.22504787487814082 0.0020060738288150935 -0.20095786581070263 0.3913744874079963 -0.014283488008765019 0.16439479920821248
0.3966701660076641 0.26284837928206256 0.4529516695123733 -0.39802073402544663 0.685082916583399 0.5331459280432894 -0.08560241383096512 0.13523053801717247
0.416454389974298 0.321204445516947 -0.5816993658558488 -0.012774122824119176 0.31836794497458004 0.31984041575088645 0.45681523475687635 0.19249606967406963
-0.07180940374160068 0.11592867962158765 0.5361259073228324 0.28691225601334513 0.2340980571153204 -0.1466827912622012 0.4916249438457331 -0.5657599189606825
0.11699091999127878 0.8712649762156351 -0.3994195498642575 -0.3131974730833027 0.143027045808329 -0.510069712848225 -0.042690755216206015 0.4367143777242482
0.5929044505431075 0.20190657023819883 0.37819989216945876 0.03724713991885391 0.40025846181412555 -0.15575321565943473 0.6662138414487407 0.3121842250015232

linear_layers.0.layer.bias f8 [100]
00000000: be92 9dd0 a259 9abf b8da f2e1 69c4 c2bf
00000010: 9cad 2954 444d b4bf 9bfa c94a c23b b8bf
00000020: 4d34 ab90 2888 b7bf a664 e809 b305 a4bf
00000030: 1942 d56a 7133 b7bf e7cd 3517 cc2f 943f
00000040: 0bbc cbd6 1d9b a2bf aac6 063e 764b 97bf
00000050: 36ee 991a 2ddd 633f 21d5 621f 3cfd b2bf
00000060: 9134 958f 09f0 afbf d282 e157 d967 893f
00000070: 96e0 73ea f6a4 9abf 63a1 f3ec 1789 b2bf
00000080: b6d5 e563 be38 c4bf 05fc 94b6 7005 b23f
00000090: b48a 6776 67b6 b23f 4816 dd3e 6e8f a23f
000000a0: 84fe 9751 d3a8 a53f 5585 c270 9860 aa3f
000000b0: 2972 94bd 03a1 bcbf 9122 f79d 3163 9bbf
000000c0: fa9d 1242 e9c8 c13f 3b96 ef7c e2fe ad3f
000000d0: f572 877c 6447 90bf 0a1e 161a 4804 a2bf
000000e0: 62c9 51ed 2a8b b4bf 17a9 1d9e e676 b33f
000000f0: 003a c6d4 95e8 913f 4ed5 6ef4 2ab5 a13f
00000100: ce15 cb23 312c 9ebf 22a8 5973 8926 983f
00000110: e190 ed7f efce 9e3f 1e39 06c8 b73d 6bbf
00000120: b92f ab93 d461 893f 492f 3699 c8b5 a13f
00000130: 6606 9b8c b774 513f 6ed6 e3d4 9b33 a03f
00000140: a0a8 290e d866 923f d65e 023e 9996 b33f
00000150: 81e9 e6fa 8711 b5bf e323 54b3 91a0 b63f
00000160: 2cf5 24df 1398 c93f 9a33 b36e 191f 933f
00000170: aac5 093e d675 babf c7dd 85b7 903e a23f
00000180: 7f11 e65d 5b39 6cbf 6d0a cb18 8019 a4bf
00000190: 494d 1a15 112e ba3f 4f7f 2ff9 228d a8bf
000001a0: 840f 33ab 6999 b93f 1700 0054 3e9c adbf
000001b0: 1070 871a 00d0 acbf 98a9 dc34 a20e a6bf
000001c0: 8dd3 6c80 8975 a83f 930e 8c79 d058 b03f
000001d0: c49e f4e3 dae2 c33f f65c a22a c4be b4bf
000001e0: 6b2b 8252 4862 903f b3d7 87a7 72fa 7d3f
000001f0: a622 e3cf 47b0 64bf 067a c5f7 6c78 863f
00000200: 9c5a f62e f535 77bf 4d55 615f c240 92bf
00000210: 6989 a0ed bda6 a23f 31e7 713b 8f87 663f
00000220: 2b04 78d0 ad2f acbf 0307 cbae 5ebe b43f
00000230: ad0a 33d1 7d18 97bf 7e75 2db5 a607 ad3f
00000240: 2421 63dd 7e77 c13f ac0e caef 4f6a 683f
00000250: 980f 9982 7ccb a6bf 3aeb 4f5e e24f 5a3f
00000260: b9b3 190c 3087 a13f 4682 c11c a051 81bf
00000270: c5af 91af 5995 bd3f 1199 31a9 ac80 a5bf
00000280: a646 75d3 bdd5 aebf 4b5c 38c3 4a7d a3bf
00000290: 2785 ec8f 7f53 703f 4241 213e 2cc2 b63f
000002a0: 2873 5ef4 9489 ba3f 9fc3 0d95 076b 753f
000002b0: 647c 289d 511d c0bf 7cf0 9045 c716 c4bf
000002c0: b97b f4ec f9f4 bdbf bb30 c14b bf88 cfbf
000002d0: 3e40 069a 0865 a2bf a7d1 028e bf77 c6bf
000002e0: 003a d101 7c3f b03f 42c8 57bf ed12 a33f
000002f0: 820c b766 9df4 a23f bced 4d05 e9c7 b0bf
00000300: 3c8a 3f0a 8223 77bf 380d e3be 600e c23f
00000310: ca08 1887 e276 b03f 6d2c b49d 5579 bfbf
-0.0257325591877755 -0.146619067503442 -0.07930399946933736 -0.09466184926894032 -0.0919213631816131 -0.03910598274178172 -0.09062870844105254 0.019713581959377804
-0.03633969542521961 -0.022748801742358417 0.0024248009620444723 -0.07417655721913664 -0.06237821462364324 0.012405107492840104 -0.026019914684156285 -0.07240438017800481
-0.15798168065854917 0.07039551217620506 0.07309576645597354 0.036250538991720094 0.04230366107003383 0.051518214954976806 -0.11183188799299927 -0.026745581880990136
0.1389438221569746 0.058585241080248505 -0.01589734087052626 -0.03518891638219308 -0.08024853033001514 0.07603303299189111 0.0174888049237385 0.03458532556343617
-0.029465453920030353 0.0235845066694439 0.030086271460633255 -0.0033253278235810943 0.01239362788819408 0.03459002371081838 0.0010654251549770065 0.03164374326472062
0.017970443596290964 0.07651670230768146 -0.08229875445878145 0.0883875906767027 0.1999535407611942 0.01867332208785264 -0.10336054815868204 0.035633585360240576
-0.003445318651929152 -0.03925705244684683 0.10226542248920113 -0.04795178691688184 0.09999714307474333 -0.05783266806975023 -0.05627441715088832 -0.04308039565360672
0.04777173702897306 0.0638551995035022 0.1553605664314458 -0.08103586235880642 0.015999918018262543 0.007318923825087187 -0.0025254633502281463 0.010971881209738587
-0.005666692493284355 -0.017825162002130402 0.03642838979455371 0.0027501866821325817 -0.05505126161370585 0.08102981345566822 -0.0225543650565309 0.0566989990390807
0.13645921525881832 0.0029803811324330045 -0.044521227781415706 0.0016059599522566096 0.03423452518186516 -0.008456469419059986 0.11556015526156134 -0.04199733319619459
-0.06022446829105137 -0.03806527741488049 0.003985880174498114 0.08890034214824019 0.10366183248556793 0.005229024522905328 -0.12589473890054415 -0.15694514176164265
-0.11701929125818723 -0.24636069487531195 -0.035927075197037514 -0.17552942690020965 0.06346869511001074 0.0372537895272136 0.03702251318784368 -0.06555038814069908
-0.005649097412944001 0.14106377907419598 0.06431403921309023 -0.12294516658964634

linear_layers.1.layer.weight f8 [100, 100]
00000000: 7017 028b 5e54 b23f 2dd1 30f2 7c40 a63f
00000010: 8826 6867 67aa c3bf 221e b54c 9e24 9fbf
00000020: 4574 a857 3103 993f 9e8d c4c2 02b7 c1bf
00000030: d952 9334 ff8a b8bf 3d03 def4 97c9 903f
00000040: a871 63ad 9437 9a3f 2816 e970 6ad1 c53f
00000050: 58cd 9923 1f47 abbf 7b72 2089 7dd4 a03f
00000060: af4e 8ffa 498d c1bf ae1d 1aea 079c b4bf
00000070: 7c42 dbe8 083d c2bf 6b6e a6e1 0130 b73f
00000080: 98c0 84fe 8660 a8bf 7631 c807 a9f9 66bf
00000090: 6197 d06f 47d0 c3bf 1422 6efe a471 8b3f
000000a0: 9713 36fe 07ab 9fbf b977 b46b e535 47bf
000000b0: 1d73 6a94 d734 b2bf 22cd d851 df71 883f
000000c0: f26d 6961 c426 c0bf 6797 491f da21 a7bf
000000d0: 3124 de94 dfc0 b9bf 0ada 90e3 5e76 a83f
000000e0: 748e 6363 afd6 183f f61d 76b1 2f43 c53f
000000f0: eb3d 50b4 d49b b13f 750a e361 53ea 8a3f
00000100: 2d96 720c 4bbe 763f ca4a 2930 ef8e 98bf
00000110: c49a b5ec 9a8a 9b3f bcd7 7ee2 1638 b0bf
00000120: 5f8a 7385 03a1 943f 25e6 8b94 f2ee 8f3f
00000130: 2842 3671 69cb 993f 390c d048 e329 ba3f
00000140: f5c5 debd a07f b13f f7e1 6d0c 96f4 9dbf
00000150: 743f fd06 f6a7 7a3f 8a68 c5d8 2601 95bf
00000160: 3911 9ddb da2f aabf bdf8 9996 3787 b1bf
00000170: 3006 832b 8590 b83f 94ad 896f 3f51 bebf
00000180: 4107 fd34 1be4 a4bf b823 d05e 2727 b33f
00000190: cd40 c3ab df4e 963f 8ca2 e473 32b2 5e3f
000001a0: f1e4 f54e 140d a5bf 1287 2b37 c0b8 bfbf
000001b0: e3b8 ae50 7286 bcbf f810 7c21 9e67 b03f
000001c0: b68a 1d77 216b a2bf 02f8 289e df8d 9c3f
000001d0: 56b2 c37b fd48 a2bf 5fc5 a2f1 4320 ad3f
000001e0: baef 9d94 ce96 95bf 57bf 20ab 725f bd3f
000001f0: 97c2 4461 bc37 a63f 292e a1bb 0a07 88bf
00000200: ff6a 6b24 627a b23f 4236 f23c 556a b03f
00000210: 8446 6b66 cfd0 be3f f026 2baa 4e5b 86bf
00000220: 15b2 45af 334f 783f 2716 bcc9 9059 b93f
00000230: 867f 15a4 9acb b03f 2a1f 17c5 c24e c23f
00000240: ccae 208d 909a b4bf d805 9082 663d 90bf
00000250: 29b7 22b5 9499 c33f adac 4c01 c35b a7bf
00000260: 50a2 ab9a 78ed c4bf 14bd 27df c037 9ebf
00000270: cfcd 28c6 00e4 b2bf a81b 8f03 e930 aa3f
00000280: ef1e 84eb 414a 9c3f cfc6 3aae 5d84 5dbf
00000290: 06af 61b9 9886 b23f f950 57d9 0a00 c03f
000002a0: 0c4a e606 d86b b0bf b8ea 3d64 c81c 99bf
000002b0: 8216 a2be 1628 bcbf d6b5 99d9 61d2 a93f
000002c0: 7d83 29bb d193 be3f 92b9 91d3 2513 7e3f
000002d0: 343f 19f0 a528 b53f 6138 e65e 5900 acbf
000002e0: 9637 af29 630e 823f 27d9 34a6 6d0a b6bf
000002f0: 9608 2ebe a829 a8bf c994 8f20 4ba8 65bf
00000300: 0fff b713 a85e b73f 3429 354a dd72 ad3f
00000310: 8518 2c7a 8d73 b7bf 7a33 9c85 8fe5 953f
00000320: 3c9e 7aa2 6d00 a73f 3e54 c051 9d56 b43f
00000330: fba2 330f e73c b1bf 4e57 6c79 c486 743f
00000340: 1727 38c3 ea0d 9f3f 9c0d 3a1d 6796 9abf
00000350: b61e 5266 5d96 bcbf d734 cb0a 26c9 a63f
00000360: 81ff a72a 2cc9 bbbf b5a1 e6e5 9a15 c6bf
00000370: d6cb 62e6 e1fe c0bf e785 9288 1776 b43f
00000380: d285 d233 26ba a3bf 3838 5dda 7202 bbbf
00000390: ce3a a0e6 1265 aebf 63b8 83c4 206a c13f
000003a0: a5b4 8770 ef11 b33f 6af3 b965 3241 43bf
000003b0: 2ed8 bed3 4d74 8d3f 3e92 f5d6 df60 81bf
000003c0: 75bd a255 c29b 933f dce7 964c fbd4 9b3f
000003d0: d18e a219 ce45 bcbf 0d62 d26d 2ac2 6f3f
000003e0: fbc7 39d9 4b22 abbf f3bb 06f7 969d 83bf
000003f0: ad63 66c5 b000 c03f 227a 556f 7021 903f
00000400: c4aa 38aa 490a bfbf ca42 d272 db6c b53f
00000410: 127c bcdc 4569 993f 2c51 5249 a4f6 78bf
00000420: c698 98ac 3181 cdbf 8bf5 ef17 ded2 c13f
00000430: 4d2a 312a dfa7 9fbf e7f1 f39d 2fba 8abf
00000440: aa27 1775 a5c5 b4bf d6ff fec0 cfc5 b13f
00000450: e8cd 435d 0b53 bdbf 2185 4c4c 4757 603f
00000460: fe5a 0cbc ed32 be3f 7678 dab3 7b35 863f
00000470: ddfb b5c0 c477 95bf 6df0 1574 f7b0 c2bf
00000480: c42d bc07 4572 c03f b9b3 3e41 83df b83f
00000490: a151 d31b b008 ad3f 22fa a79a c1a1 b4bf
000004a0: a7eb 1352 6640 b73f f438 ef57 f364 a8bf
000004b0: 0a57 a139 d3de babf 18ad efe6 dd06 9dbf
000004c0: f594 afd4 2516 b13f f170 b239 4400 a4bf
000004d0: 2025 2fb2 124e b03f 0484 e929 0824 8a3f
000004e0: ed2e d305 19d2 babf 3cbc a4d8 2437 963f
000004f0: 0a9c 9722 a530 b43f 78e0 ca1c fbab a5bf
00000500: b58c 3125 3652 88bf f8b5 ff49 d0c0 a23f
00000510: 2d14 a3ac d695 b5bf c854 7e2c 2960 b0bf
00000520: 6090 078c 0f85 34bf 7eb3 bd52 a61a bdbf
00000530: 2a74 76e3 9089 b3bf 25a6 9708 408a bf3f
00000540: 9597 196a 3a63 b2bf 6697 3552 9ce0 90bf
00000550: 7629 3d0d 9075 b13f 7ff6 568b 1394 c3bf
00000560: 930b d904 44b5 98bf 7d9c 8b9f 6c42 b63f
00000570: 50da 4f1a 3de8 b23f af88 8d8e 2800 b9bf
00000580: 74bd 4038 86a0 ad3f 2a4d c128 9d19 ad3f
00000590: 982b c479 fd58 a13f a989 9670 e468 ad3f
000005a0: 5a1b 5769 88d8 b6bf a9f7 c3aa fce0 b1bf
000005b0: 5785 76f8 6f4b c13f ae9c 14b8 282a a53f
000005c0: cd6d d87e 90af c6bf eea1 50bf 069f b2bf
000005d0: 1389 0f64 babf b93f 859a 20e4 2e7d aabf
000005e0: 836b 16e5 73a3 a43f 0351 4427 8e7c 9cbf
000005f0: f3d9 1589 da17 9d3f c7bb ba09 c569 c13f
00000600: fd7b 7238 a767 953f d57c c685 f507 b3bf
00000610: 1c96 91f8 8e37 b5bf 3032 67e6 9ba9 91bf
00000620: 894a ca5f 79a7 ac3f 3a0a 0d6e 2012 b0bf
00000630: 443b 47d6 0256 bb3f 0aa8 2e58 436f a33f
00000640: f67c 7ff2 66df babf d371 59f0 f259 debf
00000650: 7ede 32b1 90a4 df3f 68b1 0f21 d4fa e73f
00000660: 4f10 10fc fb62 b6bf 24c2 5a59 8b48 bcbf
00000670: ccaf 3793 8998 cd3f 00c7 5726 655c b1bf
00000680: 9f70 98c3 fcec c73f 740f 3697 09b0 db3f
00000690: 34a2 def2 099e bb3f cf24 2fb1 96df d3bf
000006a0: 48c4 58a0 55e6 763f dd93 704b 78a0 aabf
000006b0: 4f69 d2c3 419a bb3f a7af 3c3d e0d4 97bf
000006c0: c81e ccb9 11b5 d1bf 70e0 61f0 add8 9ebf
000006d0: 3031 1d9b c0b3 c23f a177 034a 89c6 ad3f
000006e0: c5c0 7ed5 865b afbf d1e9 0180 116f 953f
000006f0: fe34 5939 4c26 963f 95ae f393 e20a bcbf
00000700: 5606 c93a f492 cfbf 5174 5528 4593 e1bf
00000710: f91b 2556 a036 b83f 9ca3 416b 87ba 9c3f
00000720: 6c64 7425 204f aa3f 4954 8a53 9030 c7bf
00000730: e995 7cec 4e26 b03f f593 8cd5 6a12 a53f
00000740: 0e89 c583 ebfb a23f ae79 2409 de48 ddbf
00000750: c762 9eef 634e b0bf 143a 8cf8 3116 bd3f
00000760: 1ccf ea26 71c7 bbbf 8299 fa48 ca47 cdbf
00000770: 7b0a 2d9b d9d7 99bf 6731 0854 bc76 a93f
00000780: d172 8068 3371 e1bf ebc1 1cb7 24b6 b6bf
00000790: 0e63 7f59 644d ca3f 3d93 acce c003 c53f
000007a0: 8e37 b837 0e38 a23f 6702 3e36 5521 85bf
000007b0: 0f96 db80 723e d1bf 686a 45ee f317 ca3f
000007c0: c18a 7676 d90a 98bf 9242 8c9e df5f c03f
000007d0: 934a edd9 5994 bebf 4c14 a5a5 640d aa3f
000007e0: dba4 2908 f49f bd3f 432b d3b7 69e0 b1bf
000007f0: 7754 46f8 ca53 db3f 53ea 72eb 29a1 bdbf
0.07159987348322061 0.0434607549326834 -0.153637814990635 -0.030413125449994756 0.02442624185106392 -0.138397545911272 -0.09587092431622625 0.01639401847887999
0.025602648814002343 0.17045336259086352 -0.05327699002819014 0.032871172894577826 -0.1371242974697586 -0.08050584283238635 -0.14248763437219114 0.090576284017908
-0.04761144501606046 -0.0028045941710443346 -0.1547936721773864 0.01340035344561933 -0.03092586983759168 -0.000708329221570151 -0.07111880658562737 0.011935944257038648
-0.12618307835042192 -0.045180145568152245 -0.10059926399675657 0.04777809646514093 9.475179180956102e-05 0.16611286320788538 0.0687840404718753 0.01314225332715078
0.00555257144802605 -0.02398275119260055 0.026895924279780173 -0.0633558562247733 0.02014546873113898 0.015592475088385413 0.02519001725664985 0.10220165755895118
0.06835369716170432 -0.029253334530467936 0.006507836383960231 -0.020512206059131212 -0.051146354015630675 -0.06846949984353308 0.09595520317363859 -0.11842724297610224
-0.04080281278449017 0.07481618942996604 0.021785254343570416 0.0018735401823254698 -0.04111541236756889 -0.12391282412457041 -0.11142649144923981 0.06408108060356088
-0.035973592558339915 0.027884954479525 -0.03571312080189119 0.05688679051071221 -0.021083095379694085 0.11473766973426557 0.043393980859382335 -0.011732181406976032
0.07217992200041222 0.06412251222556001 0.12037369013276061 -0.010916342323429501 0.005934907811348218 0.09902291226543324 0.06560675149876091 0.14302858947325464
-0.08048346944331825 -0.015859224051387816 0.1531244167758186 -0.045621961506492205 -0.16349704315440983 -0.029509557361902486 -0.07379155004382841 0.0511544052929403
0.027627019881974964 -0.0018015780305344236 0.07236628080289273 0.12500129330022228 -0.0641455666393897 -0.024523860090520627 -0.10998670724992546 0.05043321400885829
0.11944304294003234 0.007342479476490376 0.08265149223120433 -0.054690163454424796 0.008816504201515401 -0.08609662349485757 -0.04719283410578716 -0.002643725140375784
0.09128809434332318 0.0575169709287188 -0.09160694344254423 0.02138351681701376 0.04492514236818265 0.07944663282280914 -0.06733554955611602 0.0050113367822371534
0.030326526799434008 -0.025964366110668644 -0.11166938541475244 0.044503392045592775 -0.108538399137613 -0.17253433442716717 -0.1327783942157043 0.07992693981443431
-0.0385295809039793 -0.10550611334949245 -0.05936488213784728 0.1360512694877257 0.07449242112461947 -0.0005876060562993561 0.014381988548716942 -0.008485554454361052
0.019148861386097466 0.02717964796986637 -0.11044014097074785 0.0038767651263464987 -0.05299603487664225 -0.009577922261852811 0.1250210727564797 0.015752560420304935
-0.12125072866244141 0.08369227936988036 0.02481564674155485 -0.006094590896413881 -0.23050518920462632 0.13924766701522304 -0.030913817358206242 -0.01305043412002589
-0.08114084347394504 0.06942461454218515 -0.11454840685819756 0.001994742635716876 0.11796460953733498 0.010844198633375362 -0.0209646933194526 -0.14602559250113548
0.1284872329491532 0.09716053336042209 0.05670690860430062 -0.08059320474419754 0.09082641128399747 -0.047645191654383995 -0.10496254117000717 -0.028346507282475647
0.06674419825101892 -0.03906453327474136 0.06369129991721367 0.012764037875230734 -0.1047683371754677 0.02169473240172358 0.07886726469551789 -0.042327735199649774
-0.011875556001717727 0.03662730124765895 -0.08431760515948446 -0.06396729789988165 -0.0003131068188209126 -0.11368789215130268 -0.07631784013069934 0.12320327958845974
-0.0718266018899086 -0.01648182155385971 0.068200114471585 -0.15295643142410495 -0.024128973766220318 0.0869510545268088 0.07385618107205372 -0.09765866737646677
0.05786532818489834 0.0568360435724123 0.03388206588177595 0.057440890067727075 -0.08924152919563025 -0.06983927887992415 0.13511466629010258 0.04133727309300049
-0.1772328013765744 -0.07273904963279396 0.1005817884720595 -0.05173632178075586 0.040309545244972454 -0.027818890711459165 0.028411306969667604 0.13604033446378436
0.02090321809793848 -0.07434019580840652 -0.08287900513240526 -0.017248569429101746 0.0559652261191746 -0.06277659117498838 0.10678117495920697 0.03795824481433392
-0.10497134609567013 -0.47424005004520814 0.4944192629295471 0.7493687291840105 -0.08744788078189568 -0.11048193866259531 0.23121757210117122 -0.0678160875902698
0.18691978025970443 0.43261947409359114 0.10788023166117783 -0.310521767646219 0.005590757825801047 -0.05200553818603002 0.10782252341087893 -0.02327299474488567
-0.27667658943435613 -0.030123441502354742 0.14611060689856847 0.058155336651665175 -0.061245168267647844 0.02093150466724031 0.021630469322464478 -0.10954109298807631
-0.24667218084691694 -0.5492273128289843 0.0945835314097251 0.02805530159131174 0.05138493020258114 -0.18116954878920158 0.06308453820800931 0.0411561380081266
0.037078246913340704 -0.45757246868916013 -0.06369614219728269 0.11361992185650421 -0.10851199340941914 -0.22875336230681503 -0.025237464996517005 0.049734006173909155
-0.5450684586572497 -0.08871678801074949 0.20548681612015013 0.1641770371581063 0.035583919812878326 -0.010317483632890046 -0.26943647941365695 0.20385598310788855
-0.023478887420092635 0.12792582742305975 -0.11945115633469987 0.05088343164474249 0.11572194289478281 -0.06983052003776628 0.42698930974558585 -0.11574041364921443

linear_layers.1.layer.bias f8 [100]
00000000: 1275 1805 f9ff 73bf 6d2b 4a0c ff04 a8bf
00000010: 597d 39c7 bdf4 b43f 9391 b7cf 3356 a13f
00000020: 5066 60e3 0582 b33f 3daa 104e 0908 3fbf
00000030: 39fe 846e 8161 b0bf 39b6 1a2c d015 603f
00000040: 2342 1314 682c b3bf 2251 71aa ce5b 5bbf
00000050: da3c 91c1 32f5 a33f 1f08 d9ba d022 b73f
00000060: 9846 bbfe 3c04 6bbf 1f08 6e19 0fa4 b33f
00000070: 0914 ace6 5e6b a73f daf1 96be e8ab 86bf
00000080: a5fa b9b9 2319 be3f 8540 7441 0736 9c3f
00000090: 9c65 86ad 5976 b73f 08aa 594a 1c6a a43f
000000a0: 6f6f b3c6 340f b83f 8cbc 6895 7b55 d5bf
000000b0: 4e44 5628 17f3 8dbf ee60 1d5f 3b26 aebf
000000c0: 2363 9939 e216 bfbf 877a aa11 6a56 c1bf
000000d0: 9ac5 798f da3d cfbf 4c43 be24 65a5 a03f
000000e0: 20c2 4451 32f6 abbf db0f 7ec8 dd99 aebf
000000f0: cafd 2350 f78b 8f3f d3d1 20e0 52b8 ac3f
00000100: de23 a809 1382 b2bf a1c4 b0d8 9589 b2bf
00000110: b474 f1bc c116 913f 693c daa3 76d7 b6bf
00000120: e419 7d08 5b1f a4bf 93d6 2bec 8932 b23f
00000130: 835e a5ca ca8e aebf 598e 4b93 e190 9ebf
00000140: 4e6c b8db 17c4 893f 2b0f 320b f198 bfbf
00000150: c314 cc60 911d 563f 9c15 05da 7818 4abf
00000160: 8a1c 6501 7813 c43f 91bd c40f 9742 9bbf
00000170: ffb1 fc6c 577a 70bf c1d8 ecbd e996 cdbf
00000180: 23d5 72f6 1727 b9bf e663 61d4 f291 853f
00000190: c7af edeb 7b0c cc3f 524d 2629 b582 b63f
000001a0: 19b4 9612 14f5 b83f 484b 426b 2a21 8d3f
000001b0: 3ab6 3f80 008d 8b3f 007e ad88 3266 9abf
000001c0: c26a 9e67 6f36 82bf 5c55 14c4 0c2f c7bf
000001d0: d4f0 44df 8376 a83f 4805 946b b70a b1bf
000001e0: 2c4a 697c 4220 bbbf 7ebd f2f3 5a2a cf3f
000001f0: 00c6 c9fa 9bb1 a0bf 94d7 c29b e7cf b9bf
00000200: fa42 8201 9b82 b33f ba87 9763 9558 bdbf
00000210: 68ee 9a09 ca80 a93f c2dd 15d9 52f3 a23f
00000220: ff24 e9e1 d091 a53f 6fdf 7634 9362 c3bf
00000230: 0cc3 c771 e5b1 c6bf 632b f987 1bd5 ba3f
00000240: 358a c39b e260 783f c8f0 6794 1277 c3bf
00000250: ed8b 7265 75ae 9bbf 1416 3ae0 0b27 b4bf
00000260: 7c1d b898 18ac 80bf 1e3f ef66 1fdd 73bf
00000270: 68b6 b36a c009 39bf 256f 7947 fca8 88bf
00000280: 3a36 47e6 ef89 bebf 53cc 7f9b 710b a03f
00000290: 5863 a11b 4ed6 8a3f 484b 3fb3 3da5 aabf
000002a0: 2983 8835 c0b1 a0bf 984b e7ec 96d2 a7bf
000002b0: 774a 5e41 1597 b4bf eb00 d4a8 e94f a43f
000002c0: 305a 9181 106c ae3f 486a 2d85 b458 a43f
000002d0: 1975 5648 c913 93bf 62d0 9851 daf4 963f
000002e0: e541 e596 19d7 8fbf 45d7 1c52 5332 b13f
000002f0: 8f6a 88ce cddc b9bf e44d 82a3 b31d c13f
00000300: 7e21 5adf 8548 bbbf edf7 2a4b ccc6 8e3f
00000310: 6265 a2d4 8092 7abf 0748 7a34 e41b a5bf
-0.004882786497117724 -0.04691311860104617 0.08185945619469716 0.03386079702957825 0.07620274354157996 -0.0004735014645712887 -0.06398781727056581 0.001963526331414636
-0.07489634027593488 -0.0016698377819653405 0.03898008931047921 0.0903749900981272 -0.0032979193982576975 0.07672209139676099 0.04574104848692435 -0.01107007819779764
0.1175710991319457 0.027549851770402718 0.09164963232469464 0.03987205894084772 0.09398202754112871 -0.3333424529145723 -0.014623814505087786 -0.0588854364020238
-0.12144292741994582 -0.13544965612978307 -0.24407512670181292 0.03251186440969053 -0.05461270563171561 -0.05976765701691963 0.015403682835766559 0.05609377847614252
-0.07229727731477406 -0.0724118856458227 0.016688372761895123 -0.08922521114640038 -0.039301724230018015 0.07108366027736172 -0.05968316768365602 -0.029849552741224226
0.012581049340090324 -0.12342745326355657 0.001349822970213397 -0.0007963743301295126 0.1568441397487031 -0.026621208512720044 -0.004022923952828438 -0.23116800092402026
-0.09825277106104528 0.010532281023346312 0.21913098354286673 0.08793194059972123 0.09748959974122363 0.014223414800914505 0.013452533639760057 -0.025780477134842883
-0.008892889356322601 -0.18112334798994822 0.04777919865088767 -0.06656977058812175 -0.10596099412331544 0.24348008071454424 -0.032605051387587736 -0.10082862427483824
0.07621163164936809 -0.11463292771762115 0.0498107086873148 0.03701266193359799 0.04212811238955715 -0.15144577085242925 -0.17730396323852238 0.10481426305447665
0.005951771916644468 -0.1520713066710242 -0.02703269416509706 -0.07872080063142334 -0.008140747223491777 -0.004849550880819979 -0.0003820509688939656 -0.012041064196800353
-0.11929225322747863 0.03133730910476431 0.013104067056859556 -0.052041938906447316 -0.03260613111002037 -0.046528545779117525 -0.08043034406572667 0.03967218576326722
0.05941821653020829 0.03973926664067001 -0.018630166092056564 0.022418414335519173 -0.015546989362207728 0.06717415575698478 -0.1010254506331114 0.1337189243682665
-0.10657536223346217 0.01502761463541088 -0.006487372631590689 -0.041228419691052
