5_Burgers_1D/logs/models/2024-01-02-16-10-01_1d_burgers_rbf128_100X5/epoch_20000.pt (torch, 440187 bytes, 14 tensors)

rbf_layers.0.centres f8 [128, 2]
0	0xbfde6ac9f65a2804	-0.4752678781302395
1	0x3fe10931e90e39ec	0.5323724319330814
2	0x3fd02f5656b9aa46	0.25288923711073996
3	0x3ff67dc3f1d53a30	1.4057044455145267
4	0xbfd1cd8c3082a031	-0.2781706308110215
5	0xbfecb9d86943a140	-0.8976862007084847
6	0xbfd1595a6bb040f4	-0.27107868687109193
7	0xbfe4d291bbc46bcf	-0.6507042567567342
8	0x3fe7d33ef4a9b208	0.7445368555614218
9	0xbfdc7a571812619b	-0.4449670538974943
10	0xbfefec56104842b9	-0.9975996320736932
11	0x3f9d446447dda90b	0.028581206213325532
12	0xbff004fc80c035c6	-1.001217368061917
13	0xbfd74b7c247bf937	-0.36398223460118423
14	0x3ff1594d8e141336	1.084302477830716
15	0x3feac5602620dffc	0.8365936989493998
16	0x3ff23df7ccab4757	1.140128898132806
17	0x3fea1020c17669a1	0.8144687441411415
18	0xbff7e54d344d9897	-1.49348183089163
19	0xbfd58c10b2d35ac2	-0.3366739031165872
20	0x3fe5ba90bc71f382	0.6790240936821734
21	0xbff01895f92f2ba6	-1.00600240075685
22	0x3ff18b55f31ec2c1	1.096517514885065
23	0xbfd3fdb319cf577d	-0.31235959549427844
24	0x3fc69c96c8aedde5	0.1766537170312709
25	0x3fe00ed0cccdb1f8	0.5018085479801462
26	0x3fc464f2b3e82c84	0.15933069023626356
27	0x3ff8d37916071628	1.5516291485267946
28	0xbfe5826257081d44	-0.6721660327756713
29	0x3fb93a53f813a546	0.09854626471100855
30	0xbfdfb50d409e3675	-0.49542552290299763
31	0x3ff1523b7a134057	1.082576252800228
32	0xbffa0ae78210e604	-1.6276621895507342
33	0xbfe4ac13a80b0151	-0.6460054666604639
34	0x3fedaf28f7a58737	0.927631839451556
35	0x3ffa54513be12531	1.6455852831880515
36	0xbf4f0f10459834ae	-0.0009478406383906146
37	0x3f9f2ed429f07394	0.03045207506157828
38	0xbfddece4616bc7cf	-0.4675837470414281
39	0x3fdec6dc0e6bc5af	0.4808874264554914
40	0xbfc8a1fe747fcef3	-0.19244366348686234
41	0x3feae999312cf259	0.8410154304943475
42	0x3fc4fa563d69f4c1	0.16388967512822286
43	0x4000800dbdd72e50	2.062526209954548
44	0xbfe40c3c3bef5553	-0.6264935656169349
45	0x3fe0e64edd651ed6	0.528113777553666
46	0xbff23369b433c3f7	-1.1375519789837634
47	0xbfe2955cfb44afac	-0.5807328136047452
48	0x3fdba8613dc6ccab	0.4321520903860782
49	0xbfc7754a2b97e948	-0.18326689842781207
50	0xbfe18516c86e6b21	-0.5474962153124104
51	0x3ff31f1b746388cb	1.195094542163633
52	0xbfccfb8a4c7af7cc	-0.22642639860526825
53	0x3ff3d0c98e19cbff	1.2384734679042138
54	0x3fec44d8a2454e82	0.8834040803289585
55	0xbfcd83b50e6522ca	-0.23058188631900683
56	0xbfccd62c4df88893	-0.22528604323548915
57	0xbfe7dcc8a9698097	-0.7457011517363011
58	0xbfe34eb6927ddd8d	-0.6033585415997763
59	0xbfe12bbc87a7d2ce	-0.5365889215014137
60	0x3fd10108a5c66be2	0.26568809689496053
61	0xbffde3ad274da36a	-1.8680850539478464
62	0x3fee59965dc587f6	0.9484359580494572
63	0xbfdc0c0b7623e09f	-0.43823515450595524
64	0x4002ff924e7a6754	2.3747907763580915
65	0xbfe22e5714edc607	-0.5681567581906969
66	0xc0019cac2111d59e	-2.201500185353054
67	0x3fa132787f30a1b6	0.033588185812110025
68	0xbffb8b74895f8f15	-1.7215466848510392
69	0xbfe77a608c5b309e	-0.7336886159260023
70	0xbfdfc4d12ec5ac17	-0.496387763667998
71	0xbfe2e13c7657ba41	-0.5899946509724218
72	0xbff7b5f9034d8b54	-1.4819269303340734
73	0x3fd1119ec1c37482	0.2667004482480665
74	0x3ff207bc7c673989	1.1268887385845991
75	0x3fe16bcaa49f32e2	0.5444081511755849
76	0xbfe0284574731556	-0.5049159311680949
77	0x3fe6848df31c7ce2	0.7036809681193541
78	0xbff3429c090d18f9	-1.2037620881615665
79	0xbffb64e7d55630b7	-1.7121351560081572
80	0x3ff4801b199f619a	1.281275844658103
81	0xbfef0a048104a303	-0.969972850788594
82	0xbff10916452184a7	-1.0647185039927451
83	0x3fea0e7cf33036cf	0.8142685651561922
84	0x3feb8f5603d84208	0.8612470698445245
85	0xc00067df7ff05f8d	-2.050719260714635
86	0x3fd4fe41a88b3c3e	0.3280185838638693
87	0xbfb2ebfb4666d0a2	-0.07391329258718085
88	0xbff39c5b9d511ecf	-1.2256733079138262
89	0xbff2a73d250737ce	-1.1658297964490774
90	0xbfc466518a94462a	-0.15937251345217024
91	0x3ff1cc3b4b8a4fb8	1.1123612356941361
92	0xbffb83959683ad58	-1.7196250800578436
93	0x3f99b20c4474b4a1	0.025093261411872295
94	0xbffdecc9617f85d6	-1.8703092392464575
95	0x3ffc91c756ebf6f1	1.7855904956226676
96	0x3ff50630179ee72f	1.3140107081112082
97	0xbff5a8e0b3b0be10	-1.3537299174457793
98	0xbfe74b76a3f2f6b9	-0.7279618456011213
99	0xbfe92fd3116ab1bb	-0.7870879497691513
100	0xbfdfe06a15cb0b5a	-0.49807216766582985
101	0x3f5aef1cfc5c0fc8	0.0016439230980162967
102	0x40056c9223b2c511	2.678013113873597
103	0xbfe4ee16867f9894	-0.6540634753153136
104	0x3fbec6bf040a66d2	0.12022012566230991
105	0x3ff5d7c478d57c9f	1.3651776046824933
106	0xbfff9168c6c81db3	-1.9730003132734566
107	0x40012f1bd55ab8e6	2.1480023067771183
108	0xbfe0935828bd9ff4	-0.51798637349293
109	0x3fed1925f34c328c	0.9093198539645342
110	0x3ff057ed3289d28e	1.0214664434580842
111	0xbfd36308ceb9b19f	-0.3029195803453834
112	0x3fdb34a6aecdc410	0.4250885684078307
113	0xc001de8f5fc292f4	-2.2336719018224986
114	0xbfdd1165d9ec2ddf	-0.4541868808889528
115	0x3ff0e9c989f8542d	1.0570769681410284
116	0x3fd644338f417440	0.347912683389783
117	0x40000d5aa61ded1a	2.0065205552942986
118	0xbffbde2c30f04118	-1.741741362730016
119	0xbff12c32b6940189	-1.0732905513724253
120	0x3ff1caecbfff0cf3	1.1120421886305933
121	0x3ffdcab61db069e8	1.8619900855761617
122	0xbfed0f1f3d30bbe1	-0.9080959506153442
123	0x3fd0eb6ead6b50bc	0.2643696492716676
124	0x3ffa05bc9e969a76	1.626400584683919
125	0x3fe8d4be42c53a2d	0.7759696296796555
126	0x3fe9460369b5c2d1	0.7897965492867006
127	0xc0034b82af1e3d80	-2.4118703538039767
128	0x3fe54ba91500cd27	0.6654858980386152
129	0xbff387e63eb478ea	-1.2206785630619899
130	0xbff0ded5dfe63368	-1.0544031854689937
131	0x3fd3e9d79804d6ce	0.31114759297939265
132	0x3ff35377b0716ca8	1.2078778164202877
133	0xc001ea2fd9a7d85a	-2.2393490795466677
134	0xbfed140fd2acb5db	-0.9086989512194877
135	0xbff1803ba106cfc2	-1.0938068666555272
136	0x3fc2183d6497c163	0.14136474048383282
137	0xbff2a96b31b26747	-1.1663619939121916
138	0x3fff1afc18140805	1.9440880718761957
139	0xbfe5b668849a49e2	-0.6785166349312102
140	0x3ff87516c953cba0	1.5285861839626946
141	0xbfe06427aaf27e07	-0.512225946313209
142	0x3fe6aee3360f6f14	0.7088485771050466
143	0xbfdb6c7bad944607	-0.4284962840184509
144	0xbff1d3d4be09d0e4	-1.1142165587780761
145	0x3ff2169412b19abe	1.1305123071885386
146	0xbff5d9beaeb29511	-1.3656603645443435
147	0xbff7409654cb72e4	-1.4532683670324156
148	0x3fb48ff83b9ec7d3	0.08032180266925985
149	0xbfdd2089dc51308c	-0.4551109935316695
150	0x3ff4697bfc71a956	1.2757530079930652
151	0x3ff5a6ca85753f05	1.35322048313168
152	0xbfe911eb48e08625	-0.7834373877887556
153	0xc006dfea1f35227c	-2.8593332708445
154	0xbff2bfd4e413d477	-1.1718338879848298
155	0x3f8a610c9b147795	0.012880419237770538
156	0xbff1336381e10358	-1.0750460694691437
157	0xbfdcef285138ed3c	-0.4520970147311407
158	0xbff32bc1683cc083	-1.1981824943323154
159	0x3f9162478b6a55bb	0.016976468929518634
160	0x3fd90d4de6365e64	0.3914370296638252
161	0xbfc000c93eeb38c9	-0.1250239903660655
162	0xbfd85ceb6e6d71d3	-0.3806713655847293
163	0xbfe4719512113538	-0.6388650277018888
164	0xbfe7a46b28d0f745	-0.7388206288521607
165	0xbfe79cd017bdfa6b	-0.737892195102018
166	0xbfe9bf13d029739e	-0.8045748773252972
167	0x3fc775472f4b8166	0.18326654252360725
168	0xbfe591d26d092a2c	-0.6740505342107261
169	0x3fe012d8dd4b42d6	0.5023006746433463
170	0x3fd97825dd0685d4	0.39795824608344543
171	0xbff905624d79836c	-1.563814451823613
172	0xbffaa1fe6e0ae22f	-1.6645492838416762
173	0xbff21a848a2c7b81	-1.1314740559971315
174	0xbfe932c6e9051006	-0.7874483634154792
175	0x3fdbfb867131731e	0.4372268777276974
176	0x3ff4e3d8690cb7cd	1.305626306867896
177	0xbff8d7513bf8b7c3	-1.5525677054060771
178	0x3fc293823fc6ee8a	0.14512661089053253
179	0xbff2e951b5187869	-1.1819626878782634
180	0x3ff29150352de902	1.1604768826787795
181	0xbfd49400dfc647c8	-0.321533411531274
182	0xbff0e324a4521b48	-1.0554548662928074
183	0xbfeb3c4499ea0f25	-0.8511069303644702
184	0x3ff585004be157f6	1.3449709858009533
185	0xbfe61465bdcd5b02	-0.6899899203370696
186	0xbfdf323edb349892	-0.4874417439153912
187	0xbfdc2923ece987d8	-0.4400110066982257
188	0xbfe099d8a29a7581	-0.5187800575110232
189	0x3fd2e473ae2af261	0.2951935959679642
190	0xbfdac2222b223bcb	-0.41809896671560115
191	0x3fd3b89e2df1e581	0.30814318167502824
192	0x3fdcb3b5d88f4331	0.4484686484184293
193	0xbfc23fd95b5cf28a	-0.14257351838195503
194	0xbfe6047d7c40e0e2	-0.6880481173348267
195	0xbfbf10df1afef2cf	-0.12135118874625593
196	0xbfefa917a811179b	-0.9893911631158859
197	0x3f8152d5b38d6612	0.008458776037218594
198	0x3feaa68b39b99074	0.8328300597609215
199	0x3ff679074f5b1496	1.4045479869685429
200	0x3fd1250f4918ef9a	0.2678869451372009
201	0xbff79f4d86618230	-1.4763922929051994
202	0x3f930ab5a1ede91e	0.018595541008360354
203	0xbfdb0719f4a19623	-0.4223084343887839
204	0x3ff3536325a5cc22	1.2078582258807349
205	0xbfe7965dc72f9194	-0.7371052637432052
206	0x3ff10f15f6dbdc15	1.0661830561564376
207	0x3fe81e4c1d854d55	0.753698403985633
208	0x3ff71fbc89d75423	1.4452481636446997
209	0x3fd6c8279e54973f	0.3559664770312913
210	0xbf8252bf893817bb	-0.008946892142386411
211	0x3fe4ee14d9b95660	0.6540626766606685
212	0x3fd49779cd71059c	0.3217453485741204
213	0xbffbd21dbbd601c0	-1.738797887548671
214	0x4000d4a5247cc361	2.1038306093764025
215	0xbff9a8cc4982dea6	-1.6037104484111437
216	0xbfe92de06ed1a53e	-0.7868501820022755
217	0x3fc7021f6183a722	0.1797522760528461
218	0xbfe14c2fee10512f	-0.5405501985247038
219	0xbfe85fb17aec94c2	-0.7616813088285641
220	0xc004e6ce8a80dc68	-2.6126986332488293
221	0x3fdfc1d5c72433d0	0.4962057537784945
222	0x3ff05db67ac2605a	1.0228791041645509
223	0x3fdd0aa4f8f61cb7	0.453774684072822
224	0xbfe5926bbad695b7	-0.6741236352142356
225	0x3ff24e6a2647fd59	1.1441442008361575
226	0x3ff6a834292ef402	1.4160653694846137
227	0x3ff696919b6d1d8e	1.411759955533714
228	0xbfd79a5163f2eb1c	-0.3687938190520741
229	0x3febabee93d2aede	0.8647377860229104
230	0xbfe673a49da9c3ae	-0.7016165809019321
231	0x3ff82c1b1f6f320f	1.5107680538086503
232	0xbfea71a4f2e5222e	-0.8263725990337372
233	0xbfd4c6795939c49e	-0.3246138926834393
234	0xbff3825245110b84	-1.219316739837013
235	0x3ff0c1eed17ff11c	1.0473468955597758
236	0xbfedf24f87824b01	-0.9358289381655994
237	0x3fd94a40400b05af	0.3951569199963058
238	0xbfb5aa1c6d5daa6c	-0.08462693853440734
239	0x3ff7fceb9cc309aa	1.4992481349478148
240	0xbfef9f39d684126c	-0.9881867589725295
241	0x3ff45f482ea96f9b	1.2732621977547527
242	0xbfe9e9dabae73cbb	-0.8097966814474583
243	0x3fe364d8b7b1b69f	0.6060603702332691
244	0xbfe02b3e190a7311	-0.5052786339834673
245	0x3fece936f0b63222	0.9034685803795279
246	0x3fda9c92f28f2032	0.4158065193883004
247	0xbfef0f8fb16f18c1	-0.9706495728976493
248	0x3fd7d1ecc46d49e5	0.3721877973777324
249	0x3ffdc33c5bb079e7	1.860164983903468
250	0x3fe5d4b4c1933d86	0.6822150975003047
251	0xbfd07852b73016ea	-0.2573439396804661
252	0xbfd4905737ce5d94	-0.3213098568898769
253	0x3ff49cc89b0c9fb0	1.2882772499669777
254	0x3ff57dbb575b0b85	1.343196240647303
255	0x3fea7cd9c842ff3e	0.8277405654298275

rbf_layers.0.log_sigmas f8 [128]
0	0xbfd707348b75d2dd	-0.3598147737423412
1	0xbfd5176f17794b35	-0.3295552949177137
2	0xbfd675af6440732d	-0.3509329298993176
3	0xbfd6c1ef1a52e83d	-0.3555867917126568
4	0xbfdaefc3937f053d	-0.420884031333191
5	0xbfbcd4e9d25ed893	-0.11262380014417976
6	0xbfba80abc7f58ca2	-0.10352586395088051
7	0xbfd6a3a8b4d692ed	-0.3537389532087179
8	0xbfd576c7653eb006	-0.3353746880263774
9	0x3fab921fb00f4fb9	0.053849210969615986
10	0xbfce966b2cb39b60	-0.23896541292853168
11	0xbfd5dfbf81a47789	-0.34178149853129774
12	0xbfe82e47c4c2a251	-0.7556494563078308
13	0xbfd047f8b54b68c6	-0.2543927927450905
14	0xbfcd933a384072d1	-0.23105552431743218
15	0xbfd090a14739d51f	-0.2588275142255316
16	0x3fb6fd015fcef895	0.08979805554460747
17	0xbfc626684f41e928	-0.17304710264199596
18	0xbfdf376b1d19e0f8	-0.487757471484215
19	0xbfd50868a46d7b9b	-0.32863822991742503
20	0xbfdcc8cdadb62e68	-0.44975606884029284
21	0x3faf4ce084cdee64	0.061133400165059
22	0xbfd06f7c6042b8c5	-0.2568045558972581
23	0xbfa0bb77fa7504a2	-0.03268027241075201
24	0xbfe563eaf8cde746	-0.668447004266661
25	0xbfc21a0b666aa258	-0.14141981602485276
26	0xbfd585185d291e34	-0.3362484845897342
27	0xbfd8d0474366b2c6	-0.38771230299134307
28	0xbfd9a45710bca9f5	-0.4006555236288983
29	0xbfcfb6888d05443a	-0.24775797734995014
30	0xbfca6428135b5e10	-0.20618153519784288
31	0xbfd45f4462637a21	-0.3183146439386367
32	0xbf7eccfa047373f8	-0.007519699697891895
33	0x3fce241d627eb8bf	0.2354771357472085
34	0x3fbc1b16848f8087	0.10978832947103188
35	0xbfd3cba61904df8b	-0.3093047375036739
36	0x3fb0f8d598b5abfa	0.06629691103232452
37	0xbfcef1a82f4165f2	-0.2417497854938087
38	0xbfd49a0ca7c5676d	-0.3219024313344708
39	0xbfa8336a7c3f3a0d	-0.047267272631518954
40	0xbfcd9f2dffdb0579	-0.2314202784819306
41	0xbfa0bdf05a46d05c	-0.032699118633360696
42	0xbfc1b13f98876d09	-0.13822169254022068
43	0xbfebfb4ccdfc4906	-0.8744262717393958
44	0xbf93a23f8bfec907	-0.01917361537898279
45	0xbfd9c6e19582dc91	-0.40276374436093315
46	0x3fbee3d2f84f97f0	0.12066381990697983
47	0x3fd4ee920680bb46	0.3270611823563069
48	0xbfceef9d29a6c1ec	-0.2416874364257774
49	0xbfca80e9dc388105	-0.20705912831272869
50	0xbfd4eeefd85c85b8	-0.3270835507301757
51	0x3fa18efc9ce79a6d	0.03429402747479036
52	0xbfd390d5318b9c65	-0.30571489180005634
53	0x3fdcee32ee213e7f	0.45203850989216926
54	0xbfd14315a21c5452	-0.2697195132362299
55	0xbfd8f7fb5dba97b3	-0.39013561394892377
56	0xbfc5dd7ea8fec26b	-0.1708219838306094
57	0xbfd18d0f871968db	-0.27423465913092365
58	0x3f4ec51780f1a239	0.0009390225185486662
59	0x3fbd9093873137fc	0.11548730898468301
60	0xbfa74ef61f602dce	-0.04552430279735696
61	0xbfc38e55a438ca43	-0.1527812053551135
62	0xbfbfcd9cec0a3739	-0.1242311550397205
63	0xbfc3f511d83ffa9d	-0.15591643389776247
64	0xbfc90bb6f9219b0b	-0.19567000546086208
65	0xbfb1b831de849cb7	-0.06921683962410695
66	0xbfc27bdd36092e80	-0.14440503252477654
67	0xbfb48d7efee26251	-0.08028405878793278
68	0xbfd5dbaf5365a1de	-0.3415335001396026
69	0xbfc144ca5df70f8b	-0.1349118193448898
70	0xbfcb35aebc2ea700	-0.21257576168618897
71	0xbfdfbccda8f22fd2	-0.4958986425269788
72	0x3fabe3a92f7ffeff	0.054471289680803274
73	0x3f61696167c2139a	0.0021254446456304256
74	0xbfdf416e932ca7bb	-0.4883686482668243
75	0xbfc323afcd30f310	-0.14952657240964884
76	0xbfc5ea476e6592e7	-0.17121212854831144
77	0xbfa96b9959cd8626	-0.04964904042459421
78	0xbfadf0e6aa6151a1	-0.058478554056509376
79	0xbf9ad228c51ab6e4	-0.02619231894521236
80	0xbfe6e52fc6553585	-0.7154768823326526
81	0xbfd75b13f0976ac2	-0.36493395324002276
82	0xbfc6d15eb0458f0f	-0.1782644615842561
83	0xbfc9c7304af9852a	-0.20139125500558325
84	0xbfce2438bcbb5b48	-0.23548039641783647
85	0xbfcc04e66c3dc35d	-0.2188995388528622
86	0x3fb4fc8335bc90e5	0.08197803556373946
87	0xbfc784f722bf197e	-0.18374528118711092
88	0xbfc6c1a0807bf9ee	-0.17778402589460945
89	0xbfd43256d953f209	-0.3155724642126932
90	0xbfd15e02647acca0	-0.271362875103657
91	0xbfad56b9ae5496e6	-0.05730228665406205
92	0xbfcb2318369cdf86	-0.2120085016883843
93	0xbfd968f4b8a13daf	-0.3970310023332457
94	0xbfd43b3de929b16d	-0.3161158349019136
95	0xbfd5a1d2fa686de3	-0.33800196126841636
96	0xbfe43d33bcbd09ac	-0.6324709593102873
97	0xbfcb9cee8acf439f	-0.21572667863668202
98	0xbfbdc7a9002d0869	-0.11632782224936168
99	0xbfd337796a1007b4	-0.3002608810203313
100	0xbfd243a575a0a634	-0.2853788040834815
101	0xbfda2c13b4d0b248	-0.4089402452252995
102	0xbfd0c34e4edcd4e9	-0.2619205255644617
103	0xbfdcbc64f680bb54	-0.4489986808065869
104	0xbfd1c9856b89b83a	-0.2779248762298071
105	0xbfe12f3781297a53	-0.5370137713142163
106	0xbfccf6bac001344b	-0.22627958655576416
107	0xbfc7ea184cae91aa	-0.18683151001199622
108	0xbfcafd9bc7f0490b	-0.210864517809178
109	0xbfd2af7956c19330	-0.2919600817897843
110	0x3fd46039f45b54e7	0.3183731924339796
111	0xbfda883463bcfb45	-0.41456327190455894
112	0xbfbe9c367679432f	-0.11957111732887137
113	0xbfb34bcef0c9c79c	-0.0753754937993833
114	0xbfd7db0e700f2b2a	-0.37274514144216886
115	0x3f9a9b8cb39b6dc2	0.02598399969325072
116	0xbfc2ecb73e9768ac	-0.14784899288389874
117	0x3fa448e87b42b265	0.03961874489445875
118	0xbfbb9e0c2233e73d	-0.10788036189105994
119	0xbfc50ca0ac9a8086	-0.16444786479860712
120	0x3f958d6c808171e1	0.021047301619875006
121	0xbfc564f9e958286a	-0.16714404958503631
122	0xbfd112874fb802ab	-0.2667558935645881
123	0xbfd3be37ca21d14b	-0.3084849809595382
124	0xbfb52da75be7657e	-0.08272787088153241
125	0xbfdda8e8be11765c	-0.46343439637516837
126	0xbfcd2e4f261e114e	-0.22797574387744607
127	0xbfce1beeb5b7228d	-0.23522743103810165

linear_layers.0.layer.weight f8 [100, 134]
0	0x3f98c5e33e5b8f29	0.02419238155461226
1	0xbfbc75bb02a5712b	-0.11117142500501546
2	0xbf91e8a3695083f5	-0.01748900728501109
3	0x3fc287066080e878	0.14474563324057832
4	0xbfc1ac436007670f	-0.13806955517684869
5	0xbfc966e65e1a9b02	-0.1984527549259028
6	0xbfc197b2069ee7e4	-0.13744187663343077
7	0x3fa78c0e21552403	0.04599041134731154
8	0xbfa5adc55f6c88d6	-0.04234139242022798
9	0xbfce2f9a550447ba	-0.23582772399146085
10	0x3f59dad90ad515a7	0.0015780562929007343
11	0xbfb6b74001323c20	-0.08873367337422211
12	0x3fd5b3589e466d7b	0.33907142120889205
13	0xbfba28a5daf24fa9	-0.10218273730634898
14	0x3f7ee62fe92a9d5f	0.00754374232443608
15	0xbfc12c5aab3dfebe	-0.1341660820144081
16	0xbfd159e90c626f7a	-0.27111269196915766
17	0x3fa10115b599f65d	0.033211401384488616
18	0x3fc2ee58283b50c4	0.1478986927455762
19	0x3f9e4859c980eb4a	0.029572871135523905
20	0x3fb9d3940e369f5f	0.10088467928892218
21	0xbfcb361d57f01e54	-0.21258894723745192
22	0x3fab6c06864600dc	0.05355854405479629
23	0xbfab50b1816c34da	-0.053350016640345735
24	0x3fbaa20a1ea5c6ab	0.1040350270102645
25	0xbfb5fa897c2c11b2	-0.08585414201303967
26	0xbf87020a78f20941	-0.011234361473047573
27	0xbfc0d474e1b966a6	-0.13148365995111994
28	0x3fa8e55484e2d26a	0.04862465021270597
29	0x3fa57a3a75ff072f	0.041948153404076975
30	0xbfb0ba31c691b68e	-0.06534110162621173
31	0xbfbeec205c6b5978	-0.12079050308543582
32	0x3fb1b10e385c9c99	0.06910790325183526
33	0xbfda632d05da1bc2	-0.4123032147548963
34	0xbfcbfe315fa531af	-0.21869485063724656
35	0x3fbeff172a477228	0.12107987196163406
36	0xbfd2aecca0a1611a	-0.29191890417634314
37	0x3fac122d45efc47c	0.054826178347760796
38	0x3f95e71b497844eb	0.021389414176216908
39	0x3fa6c87db3e1a3ea	0.04449837513750039
40	0xbfba4cc151da30d0	-0.10273369072291705
41	0xbfc3bce8628adb6d	-0.1542025071300616
42	0xbfc9ffa024e1d60b	-0.20311357308280295
43	0x3fca08a52378c627	0.20338882667560762
44	0xbfb52e7e362f0176	-0.0827406770977229
45	0x3fb0642ec1469784	0.06402866572042681
46	0xbfd5e3778bdeafb6	-0.34200848254362926
47	0xbfe14c5e55f203a5	-0.5405723265285941
48	0xbfaf55f73c531903	-0.06120274173149378
49	0x3faae78f950f5308	0.052547919221671846
50	0x3f8a1b184f384889	0.012746992032621545
51	0x3f8e7efd4af87ff2	0.014890650606560005
52	0xbf9b9ac108f4eaa9	-0.026957527324365547
53	0xbfd9525c46a9a591	-0.3956518831315288
54	0xbfae6b36b6f010e8	-0.059411725837010654
55	0xbfbfde44f7c0edb9	-0.12448531197235625
56	0xbfa734043a2681b2	-0.045318729494514
57	0xbf77c8d484e385f6	-0.0058067609336105355
58	0xbfc02e4dd40962ad	-0.12641308644631036
59	0xbfc2ceaef4001175	-0.14693247713160998
60	0xbf8ad0eb39355dd7	-0.013093793567050689
61	0xbfc02370e43a94dc	-0.1260815729521373
62	0x3fcb6e2560b0027d	0.21429888936110678
63	0xbfc737eca4adb26a	-0.18139417687361298
64	0xbfc3929c2edc70b8	-0.15291168487681772
65	0xbfc41c91416a6888	-0.15712180799602415
66	0xbfae8341a7c4db2d	-0.05959515736542751
67	0xbfb3a9bafcdfd1ae	-0.07680863069237517
68	0xbfa55af1df4a49c0	-0.04170947886190701
69	0xbfb5a92f0dcf4afc	-0.08461278998519711
70	0x3faa71c643524b95	0.05164928027911412
71	0xbfc0597f3649ab50	-0.12773122931261094
72	0xbfd1bdd0e1403644	-0.2772104453768842
73	0xbf9a7297228903ae	-0.025827752573835454
74	0x3fbdc4a76b91efa2	0.11628195167753444
75	0x3fc1908bb1bd0bff	0.13722368410716965
76	0x3f7556ff58651c8e	0.005209920351553111
77	0xbfcee906793a4c04	-0.24148636740991958
78	0xbfc11feb39f027db	-0.13378658608445346
79	0xbfcba06e5d2d8eaf	-0.21583346891121866
80	0x3fbc9ef9aef97d27	0.11180077096786488
81	0x3fa5aa2bc51ca614	0.04231392651702151
82	0xbfb49711c841259b	-0.08043013705277817
83	0xbfb76e7f802c18d9	-0.0915298164291899
84	0xbfb935227fdda8d3	-0.09846702214932472
85	0xbfb4cadd9ed8fe7a	-0.081220485001717
86	0xbfc09c909efc29ff	-0.12977798235836244
87	0xbfc390b3703dead5	-0.1528534219795207
88	0xbfc0cc27e5a12ff4	-0.1312303420294253
89	0xbfa0d5c2832f5ce5	-0.03288085795764476
90	0xbfa9da21f77b9f15	-0.050492345295252296
91	0xbfbe1ce62a31fd8e	-0.11762846498640142
92	0xbfc299dd2bb776a8	-0.14532055506326924
93	0x3fbc3d6b79a7798a	0.11031219215462876
94	0xbf7ab0f493ae189e	-0.006516414049548084
95	0x3fa53208a9724a04	0.041397352871303666
96	0x3fb3d19329db1da6	0.07741660854218554
97	0x3fa8aebf57e67eaa	0.04820821712496344
98	0xbfc8d5caa995d34e	-0.19402440338640264
99	0xbfb2c9cd9e7dd4a1	-0.0733917724554254
100	0x3fa7f29559867f03	0.04677263944472367
101	0x3fc17b2afa90113d	0.13657128557691492
102	0xbfaad3c502ecdd63	-0.052396923644148406
103	0xbfb0018823e423af	-0.06252337337731605
104	0x3fc009208a5f7c88	0.12527853733533711
105	0x3fca11ecc085b548	0.20367202187063982
106	0xbfa9e8aa84dd99b2	-0.05060322639365057
107	0xbf9492930d479ca5	-0.020090387044458997
108	0xbf7920644fdf6b4f	-0.006134406894456059
109	0x3fbb7d6b3b4eac76	0.10738249013836473
110	0xbfe1c34a58ecab17	-0.5550891625219688
111	0xbf4cf195d1879aef	-0.0008832913909458654
112	0xbfc419bae0a92c6b	-0.15703521699683462
113	0x3fc787f742624e5d	0.18383684865385677
114	0x3fb956359a98eb60	0.09897170090054663
115	0xbfcf6cde07c91716	-0.2455098665251902
116	0xbfb1e29916e37add	-0.06986386116794159
117	0xbfc9645cefeac20d	-0.19837533678720867
118	0xbfcbd5632d3fd8ba	-0.21744956693118472
119	0xbfd094d0680a6984	-0.25908289108488014
120	0xbfd1428cad021d42	-0.26968686004007136
121	0xbfc2e77e64c34c42	-0.1476896278387319
122	0xbfb88a35a128a776	-0.09585890945950645
123	0xbfa30af5aa140587	-0.03719299031400696
124	0xbfca55c9004725e7	-0.20574295533724227
125	0xbfb9430f3e659711	-0.0986794974647547
126	0xbfc80cc9a38ad0b8	-0.1878902481599931
127	0x3fa95339e1f11d7a	0.04946308978156373
128	0xbfa5dca6b1b66358	-0.04269905967084381
129	0x3fc185b4a8879c77	0.13689287404051573
130	0xbfbaa525ab3745aa	-0.10408244543147896
131	0x3fb46229f210d782	0.07962286147889411
132	0x3fcee873d2ae868c	0.24146888529962884
133	0x3fd55d1325a2dcaa	0.3338058345356766
134	0x3f9e97b702cdc51f	0.029875621362809853
135	0xbfc5d4a5af3adbef	-0.17055197769306527
136	0x3f977e8881d8ac14	0.02294362347144492
137	0x3f8355748f50d350	0.00944033682217485
138	0x3fa031adc18d19ca	0.03162901866612662
139	0x3fcec4aa5150f8dd	0.24037674875757534
140	0x3fbcf89bb8715120	0.11316846135133973
141	0xbfab5085a45ac210	-0.05334870940476233
142	0x3f9cc40cc173c6e2	0.0280916207384
143	0x3fd68492bf4cfdba	0.35184162790025264
144	0xbf8bd26381b82611	-0.013584878345699132
145	0x3fcc2d1c532c5421	0.22012666760625257
146	0xbfd15f228f195437	-0.27143157934671386
147	0xbfb40e0536ae98ef	-0.07833893380174904
148	0x3fc1c6f45546c03b	0.13888410724530495
149	0x3fa33ca74c028ee6	0.03757212450844154
150	0x3fcdf1c2243ed67b	0.2339403798084055
151	0xbfc86820c7217c87	-0.19067773554977327
152	0xbfc6c40d379d97b4	-0.17785802093129421
153	0x3fb0bb469998c852	0.06535760164186513
154	0xbf9e23883d9809f2	-0.029432419547456186
155	0xbfbc38ad3feb1ef6	-0.11023981867321794
156	0x3f86128f02bbf109	0.010777585287990126
157	0x3fb0197ffa773c90	0.06288909783255492
158	0xbfcb9cd1ccd513e5	-0.21572325231150483
159	0x3fc940ac8a64d6a9	0.19728619344248458
160	0x3f92e05e4688fe72	0.0184340220023373
161	0x3fc57c647dd43d9a	0.16785865921017945
162	0xbfc08dbd291e0db3	-0.1293255282181299
163	0x3fae69947c3456e7	0.05939926162879577
164	0x3f8d02b5921d79e5	0.014165323754863965
165	0x3fc2fbb4eb2d9dbe	0.148306479294872
166	0x3fc167ffe381d15e	0.13598631485695994
167	0x3fde327ed2ce6134	0.47183199488201244
168	0x3fd0fa4a223ad22f	0.2652764639163107
169	0xbf9fe0a95848b4bd	-0.031130453122547353
170	0x3fd9f227b2b91a32	0.4054049725859016
171	0xbf9c6661670d753e	-0.027734300532178617
172	0x3fb136b3460bc539	0.06724091014963997
173	0xbfae03535f4d8963	-0.058619122871067096
174	0x3fba132a2aa0e6f7	0.1018549303124948
175	0x3fd200026e0eefe3	0.2812505793369821
176	0x3f9bc39c4a0cc9b5	0.02711338235821766
177	0xbfca8f04ed32f91e	-0.20748960096347785
178	0x3fbcba7f0038a992	0.11222070460704561
179	0xbf73ccaa09375a35	-0.004833854869011269
180	0x3fd2613da2e139ec	0.28718510538320063
181	0x3fdc0e46101ce951	0.43837119649437734
182	0x3fc0d24bad599f3f	0.13141771282539058
183	0x3fb566c496ac088e	0.083599364075811
184	0x3f6bde59f3ea54c2	0.0034019238367571656
185	0x3fb42d9fed0a9ed5	0.07882117783685356
186	0xbfa7f1694f19ca4c	-0.04676369753442042
187	0x3fdbf60ebcf77784	0.43689316228653063
188	0xbf8cf8552c9ca446	-0.014145532058664877
189	0x3fcb068f6ea8f1f6	0.21113770392720682
190	0x3fb00369b4c5c1a0	0.06255207694426312
191	0xbf83eeef73817f6f	-0.009733076775034736
192	0xbfce4c06f9aa7d82	-0.23669516745301783
193	0x3fd471f31a3263a1	0.31945493276867337
194	0xbfd733ba56667efd	-0.36253221929108276
195	0x3fd1bcdcaf1f3dac	0.27715222455750665
196	0xbfc1e5ab40b81825	-0.13982144031632618
197	0x3fa04f42d441ea1a	0.03185471383126899
198	0x3fba976bed32583a	0.10387301007207919
199	0x3fca87acc78cb272	0.20726546996720036
200	0x3fcc5a7da9fe0553	0.22151156235126254
201	0x3f9e43ed784964ff	0.029555998293607107
202	0xbfbdeb9511ff0a8e	-0.11687595071183862
203	0x3fc177e3f1456729	0.13647126465621653
204	0x3fa404b137ca6ee7	0.03909829908408629
205	0x3fb4d51413938773	0.08137631872116717
206	0x3fd0ebf2d7fe9cd6	0.2644011601755215
207	0x3fbd056150654adb	0.11336334431443211
208	0xbfc9460d0a6ac2f1	-0.19745028504032505
209	0xbfd380c1ac0632bf	-0.30473367499579845
210	0xbfba4366187cc44e	-0.1025909242423648
211	0x3fcf19712eaf0d1a	0.2429639318416797
212	0x3fc6bce7c6779482	0.17763993445183607
213	0x3fd4fceb677d092d	0.3279369841221918
214	0xbfc51f2f9584034b	-0.1650142173821457
215	0xbfa8636e9c365c59	-0.047633606499567
216	0xbfafe947bccb18dc	-0.06232666186910915
217	0x3fc9e6e4e5a3980e	0.20235882962077806
218	0x3fc2661d77b34fea	0.1437413057780071
219	0xbfb3a3e4b7d77090	-0.07671956528014534
220	0x3fd0231a79424323	0.25214254228289884
221	0x3fb90a53416f77c7	0.09781380031151264
222	0x3fca3d3da6acfcf5	0.20499392164672484
223	0xbfb25f19fa613f76	-0.07176363337316424
224	0x3fcac3c7b9122cdb	0.20909973656339428
225	0x3fbf5684d69133aa	0.12241392363030337
226	0x3fcbad6b5517d250	0.21622983603414747
227	0xbfb158bdce7d9cd3	-0.06776033679271913
228	0x3f88046a45842acc	0.011727171179264494
229	0xbfbce93c46ee0354	-0.11293389064486564
230	0xbfc180e2c3867545	-0.13674578234796733
231	0xbf87c382b658714c	-0.011603375615827936
232	0x3fd26612e5663bb5	0.28748009111671574
233	0xbfc5779a2bd3279d	-0.1677124704349894
234	0xbfb8d177cd6b595a	-0.0969462276947061
235	0xbfc791f9c1be6923	-0.18414232216020662
236	0x3fc373b2a57990ff	0.15196831779315542
237	0x3fb150c30c7a00a5	0.06763857893565957
238	0xbf8169c91f4f4711	-0.008502551334376858
239	0xbfa55483d477c2c7	-0.041660422979366944
240	0xbf9f15823da71dbc	-0.030355486882198454
241	0x3fccf3858d499ce7	0.22618169211202785
242	0x3fc9a9e22f4c8cf6	0.20049693402788876
243	0xbfbaf1377aaf5be9	-0.10524317498435178
244	0x3fdfde65c68d65a9	0.4979490698802587
245	0x3fab2c13079835ba	0.053070635487624654
246	0x3fbbd1d2032049a9	0.10867035461732279
247	0xbfc4922ea18f58fe	-0.1607111252657844
248	0x3fa15a53c4658514	0.03389226696413963
249	0x3fcd323c38283280	0.22809555761377354
250	0x3fbf00b7e086c8fb	0.12110470992664439
251	0x3fd13f96a6538549	0.26950613253400896
252	0x3fbbdda0c3a1927b	0.10885052467490113
253	0x3f8815d8a987712e	0.01176041858064333
254	0x3fc699502217f68a	0.17655374207236135
255	0x3fc23ae78843edbc	0.1424226203306328

linear_layers.0.layer.bias f8 [100]
0	0xbfa05de8b5e269ad	-0.031966469004334065
1	0xbf5b88c8f4c7f6df	-0.0016805613005312287
2	0xbf8617310b0ae5eb	-0.010786421918385044
3	0x3fb3e82711844808	0.07776111772207639
4	0x3fa47b3143dc71b3	0.0400023837412137
5	0xbfaaba41d946ea14	-0.05220227982814066
6	0x3fbb516ae9a99960	0.10671108441019816
7	0xbfa17b2d31953f1f	-0.03414288740407145
8	0x3f74e1edabee2623	0.0050982746169068475
9	0xbfb1a914ce729fdb	-0.06898622551182092
10	0xbf92ee4bf12d866e	-0.01848715457470578
11	0xbfa50b366548d498	-0.04110116945631964
12	0x3f9eb5402349172a	0.029988290933281515
13	0xbfa26ad1556197eb	-0.03597120444537424
14	0x3fb46a1777711d06	0.07974383035717744
15	0x3f8f51e2c8322f07	0.015292903646944035
16	0x3f983430e825c4ca	0.023636593026314746
17	0xbfb6e9c24c9589de	-0.08950437898378236
18	0x3f8a3c45689f253b	0.012810270552921046
19	0xbfa551c55f224aaf	-0.041639488089591274
20	0xbf8eaa65b091ee68	-0.01497344441508304
21	0xbf8d6c0cd03d92a2	-0.014366245369907663
22	0xbf64b501fa0b1057	-0.0025277174575837713
23	0xbfaa40298ca2cd25	-0.05127076951739643
24	0x3f908d919dcba87d	0.0161650421677355
25	0xbf6e05ceb8661613	-0.0036648786073694233
26	0xbfb0b748fbd088a5	-0.06529670856301324
27	0x3fade14786062233	0.058359370336863135
28	0xbf983a35df36e3f1	-0.02365955519573854
29	0xbf88c033faa9b693	-0.012085348212362212
30	0x3fb27be5f340613d	0.07220303715474059
31	0xbfb63294d67d69c8	-0.08670931088037215
32	0x3fba66fefcfd0395	0.10313409496758504
33	0xbfb24115dd94db2f	-0.07130562457755894
34	0x3fa0a09e7b71bc40	0.03247542626274269
35	0xbfad647a3dadc0ba	-0.05740720751680457
36	0xbfaabc69033f4160	-0.052218705793736886
37	0xbf8ec83b586d40c2	-0.015030349384375422
38	0xbf9db7095a7d4ade	-0.029018541477237807
39	0xbfa837aed3f017df	-0.04729982697612888
40	0xbf96c1033aa4af58	-0.02222065968923856
41	0x3fa8536060e207ef	0.04751111204770086
42	0xbfadee66b7b93967	-0.058459482123555166
43	0xbfa35e1cff2fe430	-0.03782740225864989
44	0xbfb1c06cf1f83b5a	-0.06934243113958641
45	0xbf980a0c068d4b3c	-0.02347582616796305
46	0xbf975fcef905f890	-0.02282641787450551
47	0x3fb17a6564609590	0.06827386570565452
48	0x3fbf3e9dcb352a56	0.12204920016407902
49	0x3f93d666e82d41ad	0.019372566147753
50	0x3f4ef9974e275520	0.0009452809138631758
51	0xbf77aba8015059e0	-0.005778938550994955
52	0xbfaaa16a3dd938b6	-0.05201274876581989
53	0xbfb12bc5284f75f3	-0.06707412943020312
54	0x3faced348a6ab744	0.05649723233851359
55	0x3fa5b981f298a513	0.04243093572979197
56	0x3fa5f2943a0c6936	0.042866355978008405
57	0x3fc403bcad649194	0.1563640448231466
58	0x3f7623ec9f959d6a	0.005405353841843799
59	0x3fb020b9748ee2a7	0.06299933524759159
60	0x3fb8aaaef4cd83da	0.09635442234640781
61	0x3fa0f59f0f8f5704	0.03312394204082916
62	0x3faf42eb828ef0be	0.061057433783817214
63	0x3fb210b1c27816e6	0.07056723592549083
64	0xbf9204c4eeae834a	-0.01759631830975942
65	0x3f8f0929f18e7399	0.015154197391717793
66	0xbfaa3bd50f212fdd	-0.05123773393333384
67	0x3fa03c7df813ae24	0.03171151784212281
68	0xbfabaf4f56cd3433	-0.054071883531470986
69	0xbfb369e0e71f0347	-0.07583432810407685
70	0x3fa6bc94d1fcdba6	0.04440751136137715
71	0x3f8579c00f8c04d8	0.010486126398520687
72	0xbfa99bc9f5410736	-0.05001669997046891
73	0xbf9ebfe06dd38983	-0.030028826430574817
74	0x3fb19606ccca589a	0.06869547366872766
75	0xbf945c64564c100d	-0.01988369728771038
76	0xbf9ff869bd833142	-0.031221058074877968
77	0x3f90694a3e317e87	0.016026649518947635
78	0x3fae44bf0b0cae8b	0.05911824235803661
79	0x3fa7ed607082474f	0.04673291562461534
80	0xbf9ce1a0b5109917	-0.028204451609917216
81	0xbfad00d9e4ebf87b	-0.056647118753958524
82	0xbfa4e637f44b70bf	-0.04081892830956368
83	0x3fad7543202a1616	0.057535264660185145
84	0x3f4b11144e554fa5	0.0008260106230104548
85	0xbfa93c3d69f43faf	-0.04928771894822092
86	0x3f9dc7b236eb22b0	0.02908209285922919
87	0xbfa11a2e9e996645	-0.033402878628021195
88	0xbfb4dc1ddb9ff8b3	-0.08148371326385266
89	0xbfb32fed4a246066	-0.07495005664930118
90	0xbf9351c0810773ed	-0.01886654651194768
91	0x3fac578ecbbdb4d9	0.05535551297257663
92	0x3fb0615d9a71eb9a	0.06398568173055566
93	0x3f9dac283f68386f	0.028977040166914877
94	0xbfae6fdbc72983b4	-0.05944716268709929
95	0x3f9fc0e0d4499e5c	0.031009209591870465
96	0x3f9c40f56f3e0b02	0.0275915478846498
97	0xbf9d781d34130b48	-0.02877851133667811
98	0xbf9ff3bdf6ffbc6c	-0.031203239632244736
99	0xbf914b974b2912fc	-0.016889919245175897

linear_layers.1.layer.weight f8 [100, 100]
0	0x3fa49949a2cf21f0	0.040231991886290674
1	0xbfb593b79f466789	-0.0842852367262862
2	0xbfa212b7b3f7d2f5	-0.035299053877599386
3	0x3fbb50cee8a381e1	0.10670178584724212
4	0xbfc122b47fe96d23	-0.13387161489195262
5	0xbf7df5aace8825b1	-0.007314364637303881
6	0xbf8f5029444d439e	-0.01528961410227386
7	0x3f95d2b3f81e9b10	0.02131158067609379
8	0x3fd74bc19a869e68	0.36399879541793334
9	0xbfba8618b1cd1c2c	-0.10360864964342004
10	0x3fd0585fd1f3b742	0.25539393904806584
11	0xbfb4ccb819b719b6	-0.08124876621068364
12	0x3fb66665e82a66c2	0.08749997060877049
13	0xbfb69b0288b3fb23	-0.08830276334263636
14	0x3fb97ec34fa398b2	0.09959049887001717
15	0xbfb5e92b586deb9f	-0.0855891314403565
16	0x3faaffd7722dafb9	0.05273316639690457
17	0x3fd04878a358ce7b	0.25442329360814825
18	0xbf8a12cbf49ee9a6	-0.012731164362652713
19	0xbfb221c78beb1dab	-0.07082793394066893
20	0x3f9a69f41b0740e1	0.025794805669478008
21	0x3f95c5796db77c51	0.021261117288187418
22	0x3fcdaaa147a27f16	0.23176971433439836
23	0x3fa659c4115d7bcb	0.04365360939004111
24	0xbfcbd3fbeb7c29d3	-0.21740674017230663
25	0xbfa7e7efd57b5587	-0.04669141274431881
26	0x3fba34ca0895f24a	0.10236799916851527
27	0xbfb7eafa22dc51b0	-0.09342921591843978
28	0x3f9ecff959b863cd	0.03009023294552886
29	0xbfa691519dbc6933	-0.04407744455802955
30	0x3fb7d6b092b45b30	0.09311965543416245
31	0x3fb2c5955ea62700	0.07332738457457921
32	0x3fb9b5129a06aaf6	0.10041919956590192
33	0x3fc45d9b7e8e353a	0.15910667113750226
34	0xbfd29e84f3603e8e	-0.29092525260146196
35	0x3faffba7c9a41ee2	0.06246685348929561
36	0xbfa027568ed29d2e	-0.03155012601319594
37	0xbfc674517545fbde	-0.17542474962462412
38	0xbfae0d62bb8a2df6	-0.0586958745890022
39	0xbfd1f6b501f60fc4	-0.2806828040268068
40	0x3f9bc67878a8772c	0.027124292721160945
41	0x3f9268aa0dd52964	0.0179773875181949
42	0xbfc00909ba3bf29b	-0.1252758178087746
43	0x3fa377e3dec43701	0.03802406400983039
44	0x3f9c352f99760ba7	0.0275466382422668
45	0x3fb32acd3508ba07	0.07487185044076493
46	0x3fabfd107f97ddec	0.05466510350737139
47	0x3f99772df470d350	0.024868696255185896
48	0x3fa67e645e68eba3	0.04393304493392882
49	0xbfa9a5a04c597a4b	-0.05009175235749249
50	0x3fcf99141f03cc82	0.246859088081326
51	0xbf920225a7dc915f	-0.01758631550832612
52	0x3fb37034fca41a51	0.07593089263910115
53	0xbfcd214ee199ed37	-0.2275789834564905
54	0x3fa385eec009d60d	0.03813119978159927
55	0xbfaf7ee17bca54b7	-0.061514898644568765
56	0xbfb3a3bc8a3e10d5	-0.07671717047748257
57	0x3fc807f974d19f34	0.18774336055798246
58	0x3fc076c1b3fc8715	0.12862416542434887
59	0xbfbb2b34a89e8178	-0.10612801663092408
60	0x3fbe26f6ee95409e	0.11778205227642721
61	0xbf930086df449f8a	-0.01855669725151147
62	0xbf972c9ad758792d	-0.022631091493274958
63	0x3f74bb6267539f03	0.005061516179217798
64	0x3fa8acd8c862db08	0.048193716489029426
65	0xbfad68b56d9ae0b2	-0.05743948901130248
66	0xbfa9efad72d11fc7	-0.050656719461187154
67	0xbfa8d7d5ff1ce237	-0.04852169741792916
68	0xbfaca140d48e96a8	-0.05591776461305403
69	0x3fca41ef68ea2812	0.20513718245302975
70	0x3f752cc3c6713df2	0.005169644114246351
71	0x3fb5f33eee916f17	0.08574288677612817
72	0x3fbafd25abab38ff	0.10542521897443534
73	0x3fae5b99abdf1ec6	0.059292604666152424
74	0x3fb5d463bae53c43	0.08527205765607086
75	0x3fab1fd6ad7cffe6	0.05297728412415363
76	0xbfb5a2df4daa2673	-0.08451648374662017
77	0xbfacaa8ea69c23ec	-0.05598874839603937
78	0x3fc07a553b1edccb	0.12873330485101628
79	0x3fc353df4ec58f8b	0.15099707933688608
80	0xbfc211ff1ad85aa9	-0.1411742096976998
81	0xbfa034cdad6ebea4	-0.03165285818192601
82	0xbf93484bda763edf	-0.018830476006370552
83	0x3f9f8636c7899df6	0.03078542321091323
84	0x3fba68cdbe7eb053	0.10316167736772401
85	0x3fac4d501ecdfc50	0.055277351150828324
86	0xbf860086070b7a30	-0.010743186082831618
87	0xbfb05a7817e50b55	-0.0638804491364174
88	0xbfcc6af907805dbf	-0.2220145498874739
89	0xbfb75943ef3e6c29	-0.09120583144105922
90	0x3fa85a97e78307bf	0.04756617261001805
91	0x3f95cbf7c6c0277d	0.021285888200544435
92	0xbfc7fdaac32fde55	-0.18742880373587192
93	0xbfa3ac341d675646	-0.03842318400317572
94	0xbf853231e178e0ea	-0.01034964532219403
95	0x3fc3054f4b8e5137	0.14859954060796962
96	0xbfb22c247ab1a001	-0.07098606105284945
97	0x3f2ef8598a935beb	0.00023628323587018772
98	0xbfb91318942d4bb6	-0.09794763200379361
99	0x3fbec99b788a62b8	0.12026378338704091
100	0x3fd19358b7de3a9d	0.27461832004420633
101	0xbfca12398c6ace41	-0.20368117672261302
102	0xbfb7dbfde610a102	-0.09320055834598764
103	0x3fa7047331208085	0.044955825564330566
104	0xbfb3b4a9a0e92ed0	-0.0769754426811986
105	0x3fc1cb568e95dfe5	0.13901788675479945
106	0x3fbf0a6559d7f2d4	0.12125237887807866
107	0xbfa5b0cbd490ae74	-0.04236447305478644
108	0xbfc8bd0a6d16cf7f	-0.19326906515709294
109	0x3fa2153683f3b028	0.03531809197178887
110	0x3fa7faf3246aa100	0.04683646983659351
111	0x3fa015ea65b11fd3	0.03141720286708929
112	0x3fa04ca820acbb85	0.03183484457837608
113	0x3fda1ce3fc430d73	0.40801334032968056
114	0xbfa3f41c267aae95	-0.03897178621022338
115	0x3facdb4250a6d88d	0.056360313744719816
116	0x3fabbf6d02b31e65	0.05419483812289342
117	0xbfd8dbe4b98b8218	-0.38842123145698926
118	0xbfc66c71c6c2af28	-0.17518446164228263
119	0xbfa9779f5d733d40	-0.04974077239750807
120	0x3f94a42417a96a44	0.020157398170662214
121	0x3fa1a26949ba4230	0.03444222474093228
122	0x3fcd5e519b9f47bf	0.22944088076343225
123	0x3fd38b2d7e14127c	0.3053697329744762
124	0x3fc224ab45cb7906	0.14174405010175678
125	0x3f924295dcf3788c	0.017832128153593405
126	0x3fc25ef341f77eb8	0.1435226509192853
127	0xbfd84ecb5f8428aa	-0.3798092301154933
128	0xbfae346b4365824b	-0.058993675210107975
129	0x3f9c7659fd9251fd	0.02779522524049759
130	0xbfa97a8fdc471e66	-0.0497631985086258
131	0x3fdde65a151d5045	0.4671845632740353
132	0x3fb91a8a9ef24a32	0.09806124096420701
133	0x3fc3fb5cfcf0ca10	0.15610849714865127
134	0x3fbb3b431d73584d	0.10637301892288172
135	0xbf5672f6700626f6	-0.0013701826684119878
136	0x3faff1e0f43740e0	0.062392263232710965
137	0x3f97bdcf22101c68	0.02318500180629393
138	0xbf88396522fdb732	-0.011828222399084962
139	0xbfb5cbf322f32b8f	-0.08514327624577177
140	0xbf92dd046c4b89a7	-0.018421239003950565
141	0xbf95ec8d34acf9d2	-0.021410185184544357
142	0xbfca6ba42e34e3a6	-0.20640995269948553
143	0xbf8a426ff7ce028b	-0.012822031736278624
144	0xbfb1d9aaf7326308	-0.06972759757116986
145	0x3f5bd42150724548	0.0016985249838266814
146	0x3f76ccbd01b0dd70	0.00556634741501881
147	0x3fc0a15196380ed6	0.12992305598174053
148	0x3fc46da0ee50b251	0.15959560047612567
149	0x3f90577afaf75aa5	0.01595871121193206
150	0xbfc6f56829e6ab9a	-0.17936422391843793
151	0xbfb088408ae2c03e	-0.06457904234662323
152	0x3fbe129c886c06dd	0.11747148829092731
153	0x3fc352e9c042a2c1	0.15096780669889223
154	0xbfb0a19addc24383	-0.06496589578661198
155	0xbfd1bb5929b67b48	-0.2770598323203797
156	0x3fbfc8ada7b2dbaa	0.1241558584614341
157	0x3f8b846a2e99e438	0.01343615488734616
158	0xbfc88726b9664e49	-0.19162448933330925
159	0xbfc8418852a6acfb	-0.1894998935289108
160	0xbfb06bf87ca7124a	-0.0641475014045422
161	0x3fb089421880d181	0.06459439371321275
162	0xbfa873f0a757fee7	-0.04775955240984136
163	0xbfa9e7b251b2d854	-0.05059582946107413
164	0xbf6c5b1ff3c30063	-0.003461420446996087
165	0x3fa5ef54488e6fec	0.042841562134725425
166	0x3fa3de6e92133652	0.038806395846773825
167	0xbf89f4b06fa74c83	-0.01267373886813617
168	0xbfb0a0d9ad41225e	-0.06495438079685686
169	0xbfd278d84003a417	-0.2886257767809765
170	0x3fc40bb5a8990232	0.15660734875020094
171	0xbfd0e61a866288ca	-0.26404440997624745
172	0xbfceba98571e513c	-0.2400694299109406
173	0x3fb37c41f6962e76	0.076114771558588
174	0xbfcb64f350878df6	-0.2140182631693361
175	0x3fb186fed263f263	0.06846611629948422
176	0x3fa0fb8e6311205f	0.03316922149002787
177	0x3fb0c73d18a370f2	0.06554014064335315
178	0xbfbbac418bda31b6	-0.10809716858256632
179	0x3fb0cb0e6d242935	0.06559839405614272
180	0x3facf1b56674a39e	0.056531590229787584
181	0xbfc49c6ded9a90d4	-0.16102384664293956
182	0xbf8815e9a493d5d3	-0.011760545096403263
183	0x3fae10a7e29b930f	0.058720823680948546
184	0xbfb4483d0f7ade02	-0.07922727230003804
185	0x3f9e69874df89b31	0.029699434408168194
186	0xbfc974ce96f0a9a4	-0.19887716646310338
187	0x3f9819f1fcb161dc	0.02353647332015095
188	0xbfacf47a4bdf2e26	-0.05655271698159607
189	0x3fa97942922f2ee6	0.04975326570965226
190	0x3f930d824ecd494c	0.01860622030228258
191	0xbf72411661d2c033	-0.004456603460468544
192	0xbf9a2e22c3e7bd06	-0.025566619116884425
193	0xbf5b8345f315cb63	-0.0016792471982085215
194	0xbfbc32086a836653	-0.11013844108983877
195	0xbfc0a2f2472857d1	-0.12997272943965624
196	0x3fa82ee8cc34f08b	0.04723289006003125
197	0x3fc6332055471375	0.17343525089213654
198	0x3fbd816e41a92d1e	0.11525620558784452
199	0xbfaf3ca4e1a2f7a3	-0.061009552520302955
200	0xbfab482d782e9594	-0.05328504650178015
201	0xbfb86b409d6dbec1	-0.0953865417811768
202	0x3fafd1626f38c859	0.06214435203254771
203	0x3faa1465a8d90bf5	0.05093686758166164
204	0xbfbc2e5202ecf304	-0.11008179255891198
205	0xbfb4f4bd0edbe576	-0.08185941326873611
206	0x3f9c436581e3e3f9	0.027600847294682016
207	0x3fb064d59bf784b4	0.06403861100945357
208	0x3fc0dbb4d110cc6a	0.13170490463525947
209	0xbfa473f929f5a86a	-0.039947306034108745
210	0x3fbc3e94caecab7f	0.1103299136563418
211	0x3f852f1ddf421e86	0.010343774200250577
212	0x3fa4422f8fc47f99	0.03956745748496288
213	0x3fbbb5d1832ad021	0.10824307873082308
214	0xbf9f4aa4f25d79ba	-0.03055818299559985
215	0x3fbffd84536441de	0.12496211086204975
216	0xbfac55f777dadedc	-0.05534337366174011
217	0x3fbf37587dc3c103	0.12193825788904537
218	0x3fd02b4d360f0c72	0.2526429202955064
219	0x3fa12215f0b72222	0.03346317828578928
220	0xbfb227ebe0d7f24d	-0.07092165221542608
221	0xbfa9ad845dda8e3a	-0.05015195508647392
222	0xbfabe68ec14874ce	-0.05449339017307296
223	0xbf9697f60ca79c8b	-0.022064060709365434
224	0x3fa6e5417fadf047	0.04471783336245543
225	0x3fc05815c1af5116	0.1276881404616083
226	0x3fb413e1fafb9e32	0.07842838647376807
227	0x3fb7cd23600a4a74	0.09297391028148089
228	0x3fa13d7301907e93	0.033671945515604616
229	0xbf5e00c3f333759f	-0.001831237180162183
230	0x3fa785797435060a	0.04594020408195483
231	0xbfa4a8f6a6cc2f39	-0.04035158907035314
232	0xbf5ea6d93b68bc6d	-0.0018708344847586892
233	0xbfb7edd3cba3f19e	-0.0934727070015868
234	0xbfb01bd6dfcc9a08	-0.06292479480598712
235	0xbfa866750d03896b	-0.04765668662891439
236	0xbf9052ef7b948f7d	-0.01594137374662762
237	0xbfa11fdaf341cb9e	-0.033446161455592746
238	0x3fbc09e00a69d890	0.10952568296656495
239	0x3f91d44320f249b2	0.01741127861584752
240	0xbfab1c013e357638	-0.05294803509125895
241	0x3fbd98cf9b5be51a	0.11561296027129622
242	0xbfada7b6a5f1d885	-0.05792017722790014
243	0x3f95b198721629a6	0.021185285533229646
244	0x3f498ba7f20655fc	0.0007795877500479938
245	0xbf832ea747cc34e4	-0.009366328123656627
246	0xbfa5d69474b37c67	-0.04265273975919897
247	0x3fa757f3b4ac6038	0.04559289532170435
248	0x3fc41acd066b6ec7	0.15706789792499462
249	0xbfb187f8ddb70e11	-0.06848102009740155
250	0xbf985661b08888bf	-0.02376701965307215
251	0x3fbcd73908550453	0.11265903905315726
252	0xbfbb5319afb72455	-0.10673676052023613
253	0xbf993f3c59683406	-0.024655287701580895
254	0x3fbe78a6614860c1	0.1190284717089325
255	0xbf9c81f409870a3d	-0.02783948238517041

linear_layers.1.layer.bias f8 [100]
0	0x3fd221b4e1890241	0.2833072855465027
1	0xbfcef63c05071e95	-0.2418894791173797
2	0x3f834ab6a5a77c85	0.00941984837566979
3	0xbfc755629e18aefb	-0.18229325027038343
4	0x3fc8d5035f96473f	0.1940006462796706
5	0xbf8861e80cf47567	-0.01190549172911899
6	0xbfb45dd6f805d56f	-0.0795568805240998
7	0xbfa9e28c19351b72	-0.050556543423730185
8	0x3fb296b59955835e	0.07261214250094158
9	0x3f94c41849f292cb	0.020279292596245207
10	0xbfc2b78bced17cea	-0.1462263831954041
11	0xbf9be2820a784a88	-0.027231246842414097
12	0xbfc0a1510a5de900	-0.12992299085801307
13	0x3fc6723e4c3561b7	0.17536143036956073
14	0xbfcfebe3f2f173e4	-0.24938630449733445
15	0xbfb8911ef9202fb1	-0.0959643705575093
16	0xbfd382032ff5a8e3	-0.30481033023410314
17	0xbfca190f28319c72	-0.20388974630916185
18	0xbf83ad147b1fbb39	-0.009607467658467083
19	0x3fc0c78576e23e34	0.13108890824195074
20	0x3fbdfe3c0027256e	0.1171605587361648
21	0x3f646d190cfa79b4	0.002493428160803302
22	0x3fd0d79a9de820ed	0.26315942211705484
23	0x3fcc7c73774530dd	0.222547944295349
24	0xbfc0a7b24e3556c2	-0.13011769121901834
25	0xbfd148647049c0bd	-0.27004347768434994
26	0xbfc6960aa31d08a7	-0.1764539047672475
27	0x3fb302cb017cc8fc	0.07426136766733643
28	0xbf908c67ea220c7c	-0.016160606065124913
29	0xbfbb5d8281ce94e4	-0.1068955962096712
30	0xbfbe2b68dcc840d4	-0.117849878217615
31	0xbfc79ba953240d76	-0.1844379096947752
32	0xbfa2f3d75dd7f1fb	-0.03701661129523256
33	0x3fbc4d60e7258821	0.11055570262172455
34	0xbfc4e9334889ef1c	-0.1633667091554053
35	0x3f5efd3a447d3a3d	0.0018914288538841716
36	0xbfa0239e70797b8c	-0.03152175066929094
37	0xbfaa2eea9b9504fb	-0.051139194004017306
38	0x3fb3cc0e1e9ce04f	0.07733238456137424
39	0x3fbe77f246f1f639	0.11901773674068118
40	0xbf8e376e1e75ec08	-0.014754162125191442
41	0x3fb41ad77de8c793	0.07853457282979397
42	0x3fb5ee24f659719c	0.0856650449217739
43	0xbfbc4aa7feb47c5e	-0.11051416366943687
44	0xbfb7c5fd26c8a323	-0.09286482045048365
45	0x3fa65904ddb3b181	0.04364791113207201
46	0xbfbab356c839c81f	-0.10429899586031909
47	0x3f988b0642f62583	0.0239678362245619
48	0x3fc83d312ea6d38a	0.18936743524468752
49	0x3fa4e2e49ef4673d	0.040793556598329485
50	0xbfc24f194af462f7	-0.14303890380758563
51	0x3fc57e168344dbe1	0.16791039857500237
52	0x3fc842044d0a4e14	0.189514672868072
53	0xbfc0bde398d05071	-0.13079495393379006
54	0xbfa27d01197c8c6c	-0.036109957085749794
55	0x3fd2f334a3e4f5f4	0.2960940933733973
56	0x3fb7593131df9299	0.09120471446619617
57	0x3f96ff37ceb6b112	0.022457954398917464
58	0xbfa7c57016689009	-0.046428206191450334
59	0xbf87d402e5ef6e20	-0.011634848253314678
60	0xbfd3216e5a60ee46	-0.2989154703716149
61	0xbfa87d559843d04d	-0.04783122523977621
62	0x3fa235de7ea3106d	0.035567238768209865
63	0xbfabae7ec2b305ee	-0.05406566740704109
64	0x3fc0210ec510de3a	0.12600884077413516
65	0xbfb4d129f04dffba	-0.08131658665479238
66	0xbfb349968bf776fb	-0.07534161488680617
67	0xbfad367b4fbc119d	-0.0570562872726754
68	0x3fbeba3e76f79b5d	0.12002935795281418
69	0x3f9085c26397677c	0.0161352513585835
70	0xbfa1cd7d3502ba71	-0.03477088234045745
71	0xbfb052f4ab209e0b	-0.06376580408015557
72	0xbfaaaea6920b3410	-0.05211372883568555
73	0x3fd05625333e1b50	0.2552578926483209
74	0xbfbeb388baf26603	-0.11992697300083681
75	0xbf624645be8bd95d	-0.002230774134996212
76	0xbfb833b1b4f7e27a	-0.0945387903992784
77	0xbf8c911ba5df477c	-0.013948646544949865
78	0xbf929fd8519f9901	-0.01818788526716109
79	0xbfc5610f3f08de88	-0.16702452257026246
80	0x3fbc26b5dbde44b0	0.10996567361714216
81	0xbfb091f3ff7411f2	-0.06472706782012219
82	0x3f7bc442866984ad	0.006778964866129983
83	0x3fd0c7520b8ff4cf	0.26216555718549456
84	0xbfca15e7f6c5b240	-0.20379352139879536
85	0xbf87df39eb71d3d1	-0.011656239030552048
86	0x3fcbca732096f465	0.21711577502529447
87	0x3fc0740ded4a06cd	0.1285416992796428
88	0x3fab9fb36733d2c4	0.053952795360520805
89	0x3fcb0770d1c7abf9	0.21116457217371457
90	0x3fc2a49169edb2e3	0.14564721748629159
91	0x3f91d1c61ba77184	0.017401786268111077
92	0xbfb501aa8ccc1fef	-0.0820566743606148
93	0xbfb38f5abfc96055	-0.0764061659077709
94	0xbfb989d2af9e09cc	-0.09975926196606294
95	0xbfc0503761725582	-0.12744800813804252
96	0x3fc418b3dab0c077	0.1570038621734999
97	0x3fa52cebe490315a	0.04135834851340077
98	0x3fa6dbc2e132399d	0.04464539526917408
99	0xbfcd5a4401921fc3	-0.22931718899439887
