8_Inv_Lorenz/logs/models/2024-01-16-10-44-57_Lorenz_DNN_100X5/epoch_8000.pt (torch, 125547 bytes, 15 tensors)

alpha f8 [1]
0	0x3ff9bb3b32e4ce63	1.6082107532537513

beta f8 [1]
0	0x3fa97df4032fa1ab	0.04978907145397512

rho f8 [1]
0	0x402110c77127d9b4	8.532771621813346

rbf_layers.0.centres f8 [128, 1]
0	0xbfc23cc6d71183e7	-0.14247975827586787
1	0x3fd980e4c5ef957c	0.3984920437781836
2	0x3fe11399beb365de	0.5336426472305751
3	0x3fef6f3abed5f3e9	0.9823278167019655
4	0xbfc0de5b7e667233	-0.13178580924876968
5	0xbfe21d3e9da274f7	-0.5660698965836265
6	0xbfb2205b93c6c5fa	-0.07080623967956248
7	0xbfda17a35ec3f6f4	-0.40769275907938085
8	0x3feb2a414dc64fcd	0.8489080924068674
9	0xbfd329edc8e5aa65	-0.2994341337095306
10	0xbfed2d06a9240810	-0.9117463401346431
11	0x3fd2d2dfddae139f	0.2941207566112158
12	0xbfecaa30beadd95f	-0.8957751964760908
13	0xbfe0d08f0d9b98a7	-0.5254588380601221
14	0x3fe6d253a6b1fe03	0.7131746536032896
15	0x3fe5035ef15e47f6	0.6566614832138373
16	0x3fe8f1698099c620	0.779469252751543
17	0x3fe3efefe66d763b	0.6230391979731346
18	0xbff795b079003617	-1.4740452505678883
19	0xbfe289766ce6b038	-0.5792801024413228
20	0x3fe5e56d8d5582c2	0.6842563400678829
21	0xbfe9375e87f75a38	-0.7880089431371919
22	0x3fee76d699fc0d7a	0.9520066268454876
23	0xbfd07e04d7ac777a	-0.25769158422360017
24	0x3fd58b3e400429fc	0.3366237282904476
25	0x3fbe98b48e50ca86	0.11951759790899005
26	0x3fdbd4013a35783c	0.43481474575480994
27	0x3ff425a57a999a2a	1.2591910161078297
28	0xbfe0e4a4e7d97860	-0.5279106643972789
29	0x3fcc7fda0e30c5f6	0.22265172665497318
30	0xbfd16017b584507e	-0.2714900276780624
31	0x3fede0ccb27be4d1	0.9336913572325561
32	0xbff98d5f99afac66	-1.5970149997108591
33	0xbfeb3e8de7f55791	-0.8513860254704345
34	0x3fed8b726a9fb56c	0.9232723314759546
35	0x3ff80aac63adb210	1.5026058095637644
36	0x3fc1409e8b63323c	0.13478452497510485
37	0x3fb365e887141728	0.07577374742330945
38	0xbfc2140da7ab992d	-0.1412369793608347
39	0x3fddd450ab589fe4	0.4660836861899027
40	0x3fb20ce43b43b3da	0.07050920912634187
41	0x3fe473271f746041	0.6390567411754163
42	0xbfbe072e5704ac4b	-0.11729707359761325
43	0x4001882231a3186f	2.191471469678667
44	0xbfdc12e183071815	-0.4386523990218632
45	0x3fe470777c6f6d11	0.6387288504005558
46	0xbfef769f13072ed9	-0.9832301494256753
47	0xbfe55aa11d2b597d	-0.6673131532395896
48	0x3fe3e96266fac25d	0.6222393046683227
49	0x3f986b2d67d01209	0.023846349202374415
50	0xbfda7d4205e809bb	-0.41389513565823294
51	0x3ff1a41b2fd1b2e5	1.1025649898467063
52	0x3fc081cfdd941e17	0.12896154708163074
53	0x3fedbf7a9d0b0bb2	0.9296238963364571
54	0x3feb241a9ecbc4f8	0.8481572247966644
55	0x3f997d26549905b6	0.024891470826565253
56	0x3f9176bee2e11b2c	0.017054541204085158
57	0xbfd8f9f46acd6a46	-0.3902560275070396
58	0xbfdc77a88acac9f7	-0.44480336717529617
59	0xbfdb51ebac9e01af	-0.4268750367846463
60	0x3fd392dffbc1ef25	0.30583953462313423
61	0xbff83cee7b950026	-1.5148758723662552
62	0x3fec82f0517fdbe4	0.8909837333475221
63	0xbfd1049dfd9ea7e5	-0.2659068085437169
64	0x4001a07642faa5dc	2.203350566171805
65	0xbfe43ed3f488291b	-0.6326694274914958
66	0xc002167bacdea4fb	-2.260978079361505
67	0x3fe01d6dc318324e	0.503592377704601
68	0xbffb565bdda73c3f	-1.7085837038355434
69	0xbfee7ac474893e23	-0.9524862552734173
70	0xbfd170bd2b7f6c73	-0.27250603912188537
71	0xbfda8908c6be981d	-0.4146139088501302
72	0xbff7a3fd7ec724ef	-1.477536673761559
73	0x3fe652b5b43880b0	0.6975964088378728
74	0x3fee93800dd57a82	0.9555053968613978
75	0x3fe03a2a25205bd6	0.5071001744389558
76	0xbfc2cd9bfa7f39f5	-0.14689969760225066
77	0x3fe3628e32ad7d14	0.6057806958960179
78	0xbff044c1a5954b2b	-1.0167862384884738
79	0xbff976c219c18457	-1.5914937025156826
80	0x3ff1fc582dacb2d6	1.1241075309910022
81	0xbfe6f079185a94fe	-0.716854617658697
82	0xbfeff6e96e2559ee	-0.9988906050955941
83	0x3fed6221b2492d8e	0.9182289583344969
84	0x3fe3d794bb586bd9	0.6200660380449065
85	0xbffbf34f3e6c27af	-1.7469017446878572
86	0x3fcc5492b75c4b6d	0.22133096650267295
87	0x3fb458769b43c220	0.07947484293595908
88	0xbff0d76a114bc812	-1.0525913882852405
89	0xbff22e000bea3134	-1.1362305131361383
90	0x3fd110e30b0d5001	0.266655693810435
91	0x3fe7f26d1ab3e065	0.7483430406127921
92	0xbffb8afd644f9506	-1.721433059539153
93	0xbfd683cfdd360d62	-0.35179516413355405
94	0xc000ee15998a36fe	-2.116252135782701
95	0x400016e1fa78ac51	2.011173207099582
96	0x3ff235ea27c06492	1.1381627610010452
97	0xbff0c6be06eb8b10	-1.0485210676494638
98	0xbfe11365584e110d	-0.533617660971261
99	0xbfe53be8dc8d9ac0	-0.6635631854704442
100	0xbfd03790fc81b4f9	-0.25339150103430047
101	0xbfb5bc34a9373b8e	-0.08490304118389089
102	0x4003dc4b21f3b632	2.4825651791095646
103	0xbfe5e96e58583b57	-0.6847449994546463
104	0x3fc4441879cf4308	0.15832811305747208
105	0x3ff12cb2301ce501	1.0734121207627256
106	0xc002a641bbf85e3a	-2.3311800656481667
107	0x400317855f7e1c97	2.3864848575936537
108	0xbfca9c19daa526c8	-0.2078888242343082
109	0x3fea5232f2f32254	0.8225340600120696
110	0x3feaf1b660cc153f	0.8420059099741265
111	0xbfcd3967f48b3885	-0.22831439438454396
112	0x3fe1fe7a77c84d73	0.5623142566204663
113	0xbffe48aaec0dcf79	-1.8927411290032679
114	0xbfc44402199fe69c	-0.15832544566346918
115	0x3fec8a0c5f4b143e	0.8918516026684598
116	0x3fdb07ce8a670303	0.42235148921831484
117	0x4000f2fb16ceaa00	2.118642976934325
118	0xbffb3adbb3cbc1f0	-1.7018696807173193
119	0xbff2956801d850ad	-1.1614761421269961
120	0x3ff3bdbbe0d5d6ca	1.2338217527989621
121	0x3ffdeebe75081d76	1.870787102847172
122	0xbfe6e30179ebf426	-0.7152106648715104
123	0x3fdc9316955e916f	0.4464775522885906
124	0x3ff8104703fcb43e	1.503973975729664
125	0x3feb4fd60cd36997	0.8534956217293254
126	0x3fea430fbfb4931a	0.8206862205739498
127	0xc0004fc10ab4aecc	-2.0389424168005004

rbf_layers.0.log_sigmas f8 [128]
0	0xbfb4da3c8b1c2990	-0.0814550246833845
1	0xbfb66f362e4d5844	-0.08763445501730965
2	0xbfc1444d2584e9c0	-0.13489689189903054
3	0xbfaae2a1fec3666f	-0.052510320996316355
4	0xbfadef86c18200e0	-0.058468066331444524
5	0xbfa263cda0faccc1	-0.035917688275185274
6	0xbf6686306574016e	-0.002749533199335178
7	0xbfbfdea9e15590cf	-0.12449132682155838
8	0xbfc4fed8a747ca5c	-0.16402729194631405
9	0xbfbd63e3139e3c84	-0.1148054049392489
10	0x3fa99ef1f7f27c5a	0.05004078056048718
11	0xbfc8bac076680f0d	-0.1931992128521575
12	0x3f9bc41d1c385a8a	0.027115301940364968
13	0xbfac4b73db6d2a8d	-0.05526315740151686
14	0xbfbe70e27476183b	-0.11890998214048036
15	0xbfb04c90b699adfd	-0.06366829355254562
16	0xbfb37af56ddf9f7c	-0.07609495098551905
17	0xbfb506623cf429f2	-0.08212865818146733
18	0x3fc1ee8d92eb2cbc	0.14009256051790497
19	0xbf92b6ff25ac7db1	-0.018276201891351544
20	0xbfbc14781e822039	-0.10968733544189115
21	0xbf9b5155a9d2466f	-0.026677454462122826
22	0xbfb3e3f7d40a11d0	-0.0776972668337017
23	0xbfb716541e041a07	-0.09018445713818589
24	0xbfc72247ad057c6c	-0.18073364208518983
25	0xbfba3fe8ea14aade	-0.10253768648969294
26	0xbfc3967f5edbe0da	-0.1530303204706403
27	0x3f80ae665e8aa464	0.008145141372852112
28	0x3f4a003e046d24e8	0.0007934859103012866
29	0xbfbfd9047d009a08	-0.12440517474951929
30	0xbfc1bdafa02f8324	-0.13860125848352667
31	0xbfb880e1e6790ae2	-0.09571658970621003
32	0x3fc61631fb2effc9	0.17255234494041208
33	0x3f9ca56d04017c07	0.02797479950856643
34	0xbfc11d87ee064e19	-0.1337137138585696
35	0x3fa70e8806631c55	0.04503274038284447
36	0xbfa65315072e08d4	-0.043602616430705204
37	0xbfbf17d6a2300e7a	-0.12145749530469088
38	0x3f73936806124d75	0.004779249518054631
39	0xbfc036c0845d3539	-0.12667089903917786
40	0xbfc4686d3ae51779	-0.15943684936263106
41	0xbfc57d27ac700e06	-0.16788192672548535
42	0xbf9f952c269be659	-0.03084248529100928
43	0x3fc23044cf16bdc0	0.14209804641494195
44	0xbfb5ccb455f091f8	-0.0851547918142116
45	0xbfc4ec6dd2243253	-0.16346524010477256
46	0x3fc0db6d5afbc745	0.13169638578943413
47	0xbfb12f7edbee805e	-0.06713097447800595
48	0xbfc3d268b4009b2f	-0.15485867299249764
49	0xbfb5e93f1f47a080	-0.08559031022707764
50	0xbf9e539e89a29377	-0.02961585726793056
51	0xbf97b216d18723e1	-0.02314029363495596
52	0xbfc528183139a8e7	-0.16528608707023482
53	0xbfb5e05573f0f682	-0.08545431213948443
54	0xbfc190202eff698a	-0.13721086783227704
55	0xbf9056d93fe5ac1d	-0.01595630123612689
56	0x3f9251b8e1f2c72a	0.01788987044410032
57	0xbf9ef0150e73b972	-0.030212716109355005
58	0xbfb69ed15b011d45	-0.08836086723123511
59	0xbfa05952cb808af8	-0.03193148359448189
60	0xbfc65e290cb6a505	-0.17474854584478564
61	0x3fc7df92ad124658	0.18651040507079375
62	0xbfab69e66475691a	-0.05354232765485474
63	0xbfac44e14cf22449	-0.055213013308340005
64	0x3fc33590cd0a2f6d	0.15007219325741109
65	0xbfab729f6f2a09df	-0.05360887748703979
66	0x3fd0edf4eade9c40	0.264523724903885
67	0xbfc31cebf5282bae	-0.14932012053062976
68	0x3fc5627be30f2fe0	0.16706799113160198
69	0x3f991ec2d9959c84	0.024531406908320466
70	0xbfa9801feacbcbd4	-0.04980563870585511
71	0xbfb2b0a860def35d	-0.07300808300983648
72	0x3fc6589868782ab8	0.17457871533436786
73	0xbfc3965a0cb964ee	-0.1530258714799752
74	0xbfbb798faa468689	-0.1073236265861174
75	0xbfbe790cd7b34fc9	-0.1190345789539712
76	0xbfb08efbd47d927c	-0.06468175828701733
77	0xbfc2fa1bac953068	-0.14825769354718266
78	0x3fb15f61f92ab1be	0.06786167462514123
79	0x3fc0c46670bc684d	0.13099365715680947
80	0xbfb61af20ff1678d	-0.08634865655167641
81	0xbf9a7dc677398552	-0.025870419527909867
82	0x3faa8f8f5a6df660	0.051876525677454266
83	0xbfae4dfb1b3ed80b	-0.059188696933617356
84	0xbfb8247455c3da57	-0.09430625051377582
85	0x3fc8be53f9e12a0f	0.19330835057401471
86	0xbfd39ad8a78939e4	-0.30632606850568167
87	0xbfbb8fbc65121775	-0.10766198604150452
88	0x3fc0522a3bc298ea	0.12750747602439755
89	0x3fbe7a8db681ee79	0.11905751901388752
90	0xbfc9e2ce27eff2bf	-0.20223404836715095
91	0xbfc212bf51e86a66	-0.14119712352188002
92	0x3fcca793bb990225	0.2238640466694203
93	0xbfb1833d65a4095e	-0.06840881091560422
94	0x3fc95d7893876019	0.1981650085788267
95	0x3fbbf0055a1719b5	0.10913117837399151
96	0xbf950b61da259197	-0.020551232280369893
97	0x3fad1de54293defc	0.05686870992388823
98	0x3f7912b055bd4968	0.006121338661460342
99	0xbfa12de168c5e831	-0.033553165473634634
100	0xbf898275a73a3e10	-0.01245586315715655
101	0xbfb94f6ebbc22cd2	-0.09886829456279436
102	0x3fca10e6c3e856b0	0.2036407906131692
103	0xbf8f0573af2b2c1c	-0.015147117408011161
104	0xbfc18162bfaa73a9	-0.13676103933985687
105	0xbfb323612a4d682e	-0.07475859911701896
106	0x3fd272e9dae5e8b3	0.28826376320615593
107	0x3fc67adba76327ac	0.17562432931145844
108	0xbfa72e5f31b27f65	-0.04527566415458643
109	0xbfc642ed319b6491	-0.17391743585793454
110	0xbfbb6b7a554c9ad7	-0.10710873205662651
111	0xbfb56c3696ef9212	-0.0836824530120526
112	0xbfc4fcea5eb47561	-0.163968368761668
113	0x3fc8fcc45927276f	0.1952138362233273
114	0xbfb535eac40d0513	-0.08285395895383756
115	0xbfbd1b99253e7612	-0.11370236548688009
116	0xbfb8b6db3d5b2cc6	-0.09654016731217316
117	0x3fb8c7025f5de4af	0.09678664043703365
118	0x3fc764e9820321a6	0.18276709411862874
119	0x3fc1b455732b52d9	0.13831585048196507
120	0xbf8afa5cccaed70a	-0.013172841068676461
121	0x3fb749f642f5ac7c	0.09097231993443872
122	0xbf66044f7f28f34e	-0.0026876022978100994
123	0xbfbc7c8350bcf232	-0.11127491685051252
124	0x3fa8a1724a5685bc	0.048106738638363095
125	0xbfbba87c8857d981	-0.10803964928331845
126	0xbfc043e9918ece2c	-0.12707252127948843
127	0x3fcdfb9d5abab50d	0.2342411702169688

linear_layers.0.layer.weight f8 [50, 139]
0	0x3fb41ee8870d3eb5	0.078596623393646
1	0x3fa33e28217455f6	0.03758359344844202
2	0x3fab0f07d0123ff2	0.052849048756911446
3	0xbfc3632db88e0ad2	-0.15146419059245503
4	0x3fc61a0d24746546	0.17267002372754287
5	0x3fcb9a71e984bccb	0.21565078642149724
6	0x3fbb43044bb8db74	0.10649134491619155
7	0x3fc1c432e1debb16	0.13880001095591216
8	0xbfc70649a20b4d1c	-0.17987938320457253
9	0x3fc45cf558373d18	0.15908686454211174
10	0x3fc15b3ade12563b	0.13559661715832924
11	0x3fbc6b43d35e3022	0.11101173315381677
12	0x3fb92c83c410bd86	0.09833549057724697
13	0x3fc33088b1f03353	0.1499186390723489
14	0xbfb86ebd077afe64	-0.09543973381641419
15	0xbfabab857db66a88	-0.0540429798085898
16	0xbfb1ab95ef5c606a	-0.06902443975229891
17	0x3f9afed13510da7b	0.02636267553699632
18	0x3fd009be7c29b8c4	0.25059473157206136
19	0x3fc743ee5b6e4bae	0.1817605921210918
20	0xbfb24193597d9983	-0.07131310400800399
21	0x3fba2c82c05528fa	0.10224168010350701
22	0xbfb23cb68fdb2044	-0.07123890888317513
23	0x3fc465385a67e91c	0.15933899320936795
24	0x3fa9875959084f24	0.04986075603315346
25	0x3fc336f4ee1eed10	0.15011464716904088
26	0x3fa284b76ec25e98	0.03616879679719637
27	0xbfc261b3a5944231	-0.14360662064474775
28	0x3fc86a23b3833bc0	0.19073911919846687
29	0x3fba3641dd90cd00	0.10239040049855319
30	0x3fc992510eaa7d5c	0.19977772918808057
31	0xbfc916b9892d2bb3	-0.19600600431507828
32	0x3fc4e0d1e87ac2dc	0.16311096049823604
33	0x3fb6ea9317a1646b	0.08951682402529719
34	0xbfc7f6377520f2c6	-0.18720143527197858
35	0xbfc2393d81f2ae4c	-0.14237183423152755
36	0x3fc1b200b6d38902	0.13824471404138455
37	0x3fc14ce525ab03df	0.13515915240534945
38	0x3fbb8838d41196b8	0.10754733254870075
39	0xbfaab2f35fb3fa4c	-0.052146535332202676
40	0x3fc43b47a699319d	0.1580590785473647
41	0xbfb8b43e954b1214	-0.09650031227926831
42	0x3fb66001973956f8	0.08740243856422214
43	0xbfcaa6915082f837	-0.20820824080687014
44	0x3fc6a2e4dafa49ee	0.17684612934370086
45	0xbf989b30f40f10a5	-0.02402950753800383
46	0x3fc94766ffcd601a	0.1974915265116131
47	0x3fb80c8c597633a3	0.09394147094844967
48	0xbf7685f7412e7880	-0.005498853529301795
49	0x3fc1282906d227f1	0.13403809388211088
50	0x3fb0516efab932db	0.0637425768010859
51	0xbfc3a1ac593581fa	-0.15337137561711228
52	0x3fb44d9cbb6cb789	0.0793092687206053
53	0xbfc80ba392f7709a	-0.1878551929102102
54	0xbfbe816e9acb2f71	-0.11916247634070289
55	0x3fb4c9d2dd8422a8	0.081204585152714
56	0x3fa3e4fa1d4b49a3	0.03885633094400311
57	0x3fc3685b59d51a03	0.15162221800183326
58	0x3fcb68261ffdc2eb	0.21411587297509213
59	0x3fc2a7b1616a552f	0.1457425809536885
60	0x3fbd23ecd49a3040	0.11382942381368455
61	0x3fc7da514bd42c4e	0.18635002329424072
62	0xbfba1a132fae12b5	-0.10196037210523452
63	0x3fc0a53bd7cdbdeb	0.13004253423012754
64	0xbfd3e7484f42e8dc	-0.31099136104934444
65	0x3fc49a2297a5eda0	0.1609538307637708
66	0x3fd036bead2e1236	0.2533413592539405
67	0xbfb734423286c1a4	-0.0906411527018976
68	0x3fd00046198b1a88	0.25001671308965756
69	0x3fb96c10411c4c26	0.09930516805279463
70	0x3fb8663686579b4e	0.09530964641417691
71	0x3fc22b2891129af8	0.14194209178568662
72	0x3fc160a603dcf54e	0.13576197804096996
73	0xbf97613c87c5b16c	-0.022831865107421676
74	0xbfbf5c0ac5df7173	-0.12249820071105492
75	0x3f770b4e9cc871f0	0.005626017646616507
76	0x3fbad37238a9e77e	0.10478891261473497
77	0x3f5ff7e310c07bd7	0.0019511907039555432
78	0x3fb9f7dd69c0111e	0.10143836814683424
79	0x3fc05fae3b5ad220	0.12791993997747486
80	0xbfbc557592f55dbb	-0.1106790050301844
81	0x3fb49ce2887576f4	0.08051887351527026
82	0x3fb624ce6ab05820	0.08649911980350611
83	0xbfc458f47848e2d1	-0.15896468995358373
84	0x3f99f0469469a29d	0.02533064156378605
85	0x3fd210c34a89c6df	0.28227312354202455
86	0x3fbdff74ee9db9ad	0.11717921090687496
87	0x3fbddd9086acc92a	0.11666205680811417
88	0x3fcff5bc90f9fd95	0.2496867854970161
89	0x3fbd866c82fdaf78	0.11533239553471997
90	0x3fbd5197c673a5ba	0.1145262584210717
91	0xbf9b6650ed8cd9e0	-0.02675749254123072
92	0x3fd1e2ddf94df030	0.27947186800134016
93	0x3fbffdb1df97783b	0.12496482571393212
94	0x3fcabdb1214bcc67	0.20891393781457454
95	0xbfccabc1ab17c866	-0.2239915929235991
96	0xbfc423edbc780496	-0.15734645559863186
97	0x3fc520974563faac	0.16505709541521207
98	0x3fc9bd8fe27c2721	0.2010974746593144
99	0x3fcaf5ffa46a9ecf	0.21063228157185285
100	0x3fbbda5ce7b8deba	0.10880070359496133
101	0x3fb510e0922d596c	0.08228877609994861
102	0xbfd6c6f7a52bed38	-0.35589400415456707
103	0x3fccf97388ce4ff8	0.22636264972663844
104	0x3fb8b8e2b4362489	0.09657112979597761
105	0xbfae12b374ea217c	-0.05873642732791759
106	0x3fdde52fd00c7d8c	0.46711345021500317
107	0xbfd67ee4c2a5dce3	-0.3514949704035201
108	0x3fc6535f97ec1660	0.1744193546111772
109	0xbfc4a1dfb23b8429	-0.1611899967456634
110	0xbfb89f0f112d0165	-0.09617704552966229
111	0x3fb16a08f419074f	0.06802421531122359
112	0xbfa0902093145e65	-0.03234960360913134
113	0x3fd4bf80438b1360	0.3241882953264419
114	0x3fbb5cc22c2cea34	0.10688413218023457
115	0xbfc5017b4704da84	-0.16410771339151975
116	0xbfadb762488c4f6b	-0.05803973327252162
117	0xbfca5c577cafa6c5	-0.20594304645719866
118	0x3fcf6c663636699c	0.24549558302971952
119	0x3fc6f79baad3d4b7	0.1794313987844924
120	0xbfc385fca0403d7d	-0.15252645325425
121	0xbfd084ada0f45545	-0.2580980369396751
122	0x3fc1e10917224264	0.13968003873425794
123	0x3fb3625154962bd9	0.07571895899870586
124	0xbfc365cc3dc693c4	-0.15154412285224172
125	0xbfc4997539dd1219	-0.16093316388482107
126	0xbfc366466fe2473b	-0.15155868971901917
127	0x3fd0421a94b29bc6	0.2540346576810716
128	0xbfa987a16406ef4a	-0.0498629030803089
129	0xbfcd68b8d249dd50	-0.22975836055750642
130	0xbfd1d130f4545526	-0.27839301929755533
131	0xbfc4eb87e3abc6f3	-0.16343783013103738
132	0xbfd2ded78a51ae0c	-0.29485119350167177
133	0xbfd058da8ad3fc30	-0.25542319829395677
134	0xbfcccd73dabc6f0c	-0.22501991444084302
135	0xbfc13c0290f0f8c3	-0.1346438605996295
136	0xbfcb99783654250b	-0.21562101986663892
137	0xbfbeb130729ae8d2	-0.11989119337059442
138	0xbfa43863d1bad02f	-0.03949272093942146
139	0xbf976f5affbb880c	-0.022885724886585065
140	0x3fb35f87b1eda28e	0.07567642301513386
141	0xbf5ea9426928e9b5	-0.001871409277227271
142	0x3fb07c09d360abfd	0.0643926755007413
143	0xbfadf8002761f70b	-0.05853271942849688
144	0xbfaa43b9fdf45970	-0.05129796242742912
145	0x3f8f5c1e1df8752b	0.01531241921389411
146	0xbfa1e849565cde87	-0.03497533015473402
147	0xbf7b3940b23f743f	-0.006646397323462116
148	0x3f920550baa8ffae	0.01759840144427443
149	0xbf839f4300939961	-0.00958111138829726
150	0x3fb7c5087f7dd49f	0.09285023796640467
151	0x3f88f3ede59e9f12	0.012184008188185245
152	0x3fa22440ef452a9b	0.03543284340647298
153	0x3faea32b64e2544d	0.05983863455291125
154	0x3fb76c619f970658	0.09149751802672179
155	0xbfaa7c2f473e476e	-0.05172870392483629
156	0x3f6750b1582e4227	0.002846094489946677
157	0xbfb340a21be26180	-0.07520497494477318
158	0xbf9e3d37f482a61d	-0.029530405329444166
159	0xbf94df7b237a4109	-0.0203837623981267
160	0xbf9e096dffb6fe18	-0.029332846386521977
161	0x3fa04b2d7fe857e1	0.03182356058475456
162	0x3f9479dc8582dc7d	0.019996114395976584
163	0x3fb882a526ce2acb	0.09574348637958534
164	0xbf833fe3adfb807d	-0.009399203059217815
165	0x3fa014b9d6692f6c	0.031408126280978305
166	0x3fa2a502d4f0d812	0.036415184491872435
167	0x3fa5d61771a7e305	0.04264901411437986
168	0x3f6ce9ca4829bb31	0.0035294485872364935
169	0x3fa58439a4c957ee	0.04202442299417429
170	0xbfa98f677c4f94d0	-0.049922212528863974
171	0xbfbd94511fab059a	-0.11554438613077025
172	0xbfa5f9469ee61611	-0.042917448899100326
173	0x3fb5d8d423d6492c	0.08533979296615674
174	0xbf851e4c6afb980d	-0.01031169606671869
175	0xbfb2c69c916a2b7b	-0.0733430724159642
176	0x3fabbb414b63cf9a	0.05416301770483685
177	0x3fa888acce725826	0.04791774768925476
178	0xbf8034270966497f	-0.0079119729751127
179	0xbfb3135385770f67	-0.07451364525246405
180	0x3fb829f0d2ca502c	0.09438996454474652
181	0x3fb10c313e3e195c	0.06659229058832267
182	0xbfadea1edc863e7e	-0.058426823062402086
183	0xbfacc6a73d3ec60b	-0.05620310423490701
184	0x3fb16d2db785aeb9	0.06807218294641872
185	0xbf82a6b836cf0c30	-0.009107054875022141
186	0x3fa11af33f35f2b7	0.03340873858085074
187	0x3fb5c33454c960fc	0.08500983304964288
188	0xbfaa65731674bfd8	-0.05155524872895939
189	0x3f6cd9e7196b1206	0.0035218728693016147
190	0x3fb8c2242b771686	0.09671236096536448
191	0xbf8ea9e97bb2c478	-0.014972519004319049
192	0xbfa4d947c185a7df	-0.040720217107107486
193	0x3fa5d56f597b94f6	0.04264400451010346
194	0x3fb6521f12821726	0.08719057275638117
195	0xbfae41f3b8ce43de	-0.05909692412308919
196	0xbfb24f90d41cea61	-0.07152657679118014
197	0xbfb7a374d65678a4	-0.09233789666038433
198	0x3fb0c2482ff6f048	0.06546450778017843
199	0xbf9400f922504dbf	-0.019534962386456686
200	0xbfc524abe6515936	-0.1651816248510813
201	0x3fb31a2ca5564ef1	0.07461813961554832
202	0xbf910eb308dc04ac	-0.016657636085260094
203	0x3f81d601445b47f6	0.008708963297440402
204	0xbfa43bd89cc7265a	-0.039519089830332546
205	0xbfccb90181fec548	-0.2243959316961457
206	0xbf82cbc16466ccc0	-0.009177695156586174
207	0xbfc16dc53b3fa663	-0.13616242783546104
208	0xbfa328d02cb1e81e	-0.037420754867483405
209	0xbf8255241cb0339a	-0.008951456189629604
210	0xbfb5d1c17f22cfe5	-0.0852318702116573
211	0xbfb7ea34aa648424	-0.09341744575478167
212	0xbf9893a6ee114d64	-0.02400074794816244
213	0xbf8dd1a6a81309e8	-0.014560033802244868
214	0x3fb8944831b90132	0.09601260389263613
215	0xbfafe17b77c2c868	-0.06226716839718521
216	0x3f80ecf8217151cd	0.008264482994641132
217	0xbfbac63e4c3ec7d1	-0.10458745347457855
218	0xbfbae41cc0d43084	-0.10504321773277253
219	0xbf9a76d34a43bdf7	-0.02584390774512532
220	0xbfbb4ee8e9ed0249	-0.10667281828956122
221	0x3f9c8d81b103ca64	0.027883554867864993
222	0xbf8e22b3994fc17b	-0.014714625469395717
223	0xbf8b16c507252a55	-0.013227023392251494
224	0xbfbbcd0dbb228691	-0.10859762018892584
225	0x3fb67c660998e8d2	0.08783567175206322
226	0xbf9feb5fd043438b	-0.031171319090222787
227	0xbfc22162066973df	-0.1416437655742859
228	0x3f64465b887aa75b	0.002474955344799063
229	0x3fa053b46b877009	0.03188861668215288
230	0x3fac5616c7feccb4	0.055344306863298526
231	0xbfc7747b1e8b2719	-0.1832422160280707
232	0x3fa7a3f868fb021c	0.0461728695058847
233	0xbfc0f22775e46d6f	-0.13238995796642025
234	0x3f72c4dad43a67f9	0.004582266617626723
235	0x3fb99ff88e37ab6d	0.10009721252542443
236	0x3f95db8e964648b8	0.021345355913191283
237	0x3fae647bd26f0e17	0.059360379636498255
238	0xbfb6aef1042145fe	-0.08860689497785043
239	0xbf7205fa7dc473a8	-0.004400232774313041
240	0xbf5db3f0d0105d93	-0.0018129207312592474
241	0xbf9bd35377885ce2	-0.02717333237714293
242	0x3fa2e7d09713902c	0.03692485660738529
243	0x3f6c9ce7e74dcf39	0.0034927873006668467
244	0x3f7ef614a39bcb00	0.007558899518459894
245	0xbfc063a35047ec4a	-0.12804070873230194
246	0xbfc17ab3c4d07bce	-0.13655707464292138
247	0xbfb25c49d600f9b5	-0.07172070955946348
248	0xbf60f5ce8d568adc	-0.0020703348370302143
249	0xbf9078412ee18935	-0.016083734976185943
250	0xbfb1fd21b402bb04	-0.07026873249808935
251	0xbf3fdd90eb8216d6	-0.0004862288292389721
252	0xbfcbe04819459757	-0.21778203233696544
253	0xbfa3bfaddc4ddb0c	-0.038571770804017275
254	0xbfaa1ae5249deab5	-0.050986443252403126
255	0xbf9dc1d6885c93ad	-0.029059745858052533

linear_layers.0.layer.bias f8 [50]
0	0x3fa5fa798a4cbd81	0.04292659581403325
1	0xbf9eca257b10bddb	-0.03006800235396932
2	0xbf7bc365366bcfe0	-0.006778140412951189
3	0x3f16d9c97f12e6a2	8.716862045590271e-05
4	0x3f79bf8d708cf272	0.006286194323192095
5	0x3faf09bb8339e1f6	0.060621127861796895
6	0xbfaed8722a2152a0	-0.06024510158809915
7	0x3fbb8040bedaa06b	0.10742573413392768
8	0xbf9c4a1e8574d1f4	-0.02762649240067279
9	0x3fb2ea58fa4b23ef	0.07388836012536591
10	0x3fb11e1dbbe17348	0.06686578595094972
11	0xbfa986d2f7440e1c	-0.04985675114042129
12	0xbfa0947862f12741	-0.0323827381876769
13	0x3f93105a4c935ccc	0.018617068218046026
14	0xbfb368dd70e27e41	-0.0758188629720218
15	0x3fb4f9ec3393c259	0.0819385171814785
16	0x3fa56e62cba0665f	0.04185780273128325
17	0x3fb22e607d9c9887	0.07102015558902695
18	0xbfa77a4cb085dfcd	-0.045854946659289554
19	0x3fa2e6d279500636	0.03691728335253368
20	0x3f71ec794ca7a704	0.004375909639273482
21	0xbf9261b5c9615700	-0.017950859466814073
22	0x3fb01698c5a25637	0.0628447992806621
23	0x3fb647dfeab449c9	0.08703422050556421
24	0xbf908d33fd206a96	-0.016163647007582847
25	0xbfaaed10f3cf86db	-0.05258992172435991
26	0x3f773594a2dc6240	0.005666332826671339
27	0x3f97e5a0b864c982	0.02333689809274509
28	0x3f927bacfdeb9d1e	0.01804991054350779
29	0x3fa5d03edc13d062	0.0426044124268692
30	0xbf8bc872a74cd62d	-0.013565917711825548
31	0x3fb253d484f492d0	0.07159164663296314
32	0x3f7fe8fb8b392fc6	0.007790548890238063
33	0xbf9c6e96af514016	-0.027765612078212674
34	0x3fba6921eef4b246	0.10316669544108334
35	0xbfa8279af107cb1c	-0.04717716400400304
36	0x3fa0cba431bad027	0.03280366046001886
37	0xbfb9ef9ef510f193	-0.10131257517872987
38	0xbfadf9abe09b8e17	-0.05854546658317988
39	0xbfa503a169db9f96	-0.04104332368098011
40	0xbfb0fdceb8b5edc9	-0.06637279519593799
41	0x3f8be8f3bef81d3b	0.013627914681832656
42	0x3fa2f275f7bd0f14	0.037006079188840385
43	0xbf6a2322d9787600	-0.0031905823377786913
44	0xbfb0c0dceffe00d5	-0.06544285639938903
45	0x3fa01a82bdd2de35	0.03145226065811039
46	0x3fb3bd72e7bd7834	0.07710951001851712
47	0xbfb11ae0e4581f97	-0.0668163831215892
48	0x3f81e03e43386d9f	0.008728491236118794
49	0x3fb344711d007eca	0.07526308973364873

linear_layers.1.layer.weight f8 [50, 50]
0	0x3fc538e8187176aa	0.16579915231243564
1	0x3fb7e9654ff7df3a	0.09340508653974391
2	0xbfc1f1497ffeb5c0	-0.14017599820856042
3	0xbf7887db795d780b	-0.005988938637385042
4	0xbf9cdde196aa5b56	-0.028190159626855525
5	0xbfce318692671b59	-0.23588640354702298
6	0x3fa3d3c61b7743d8	0.03872508130337565
7	0xbfc04e1e5166677d	-0.12738398527727304
8	0x3fbbccf972bb2ff8	0.10859641123823838
9	0x3fb544543a52c2e5	0.08307386802585943
10	0xbfc0e0fb6e1f173b	-0.13186591031097258
11	0x3fbbde8171915ecf	0.10886391661312732
12	0x3fd3345211deba76	0.30006839509125116
13	0xbfbba6af59708d40	-0.1080121606215032
14	0x3fb7e0a4866d22f7	0.09327152521030856
15	0x3f92ec20f831a0db	0.018478884838629788
16	0x3f9229ff5ff72500	0.017738332969917003
17	0x3f97d9ae05869650	0.023291319930328236
18	0xbfb38648fa9e137e	-0.07626777762022915
19	0x3fbf19b09d2ec350	0.12148574674098467
20	0x3f93ea83b3332ea8	0.019449289143081444
21	0xbfbaf387c96662cb	-0.105278479261311
22	0xbfb540052c1e2a5f	-0.08300812079520757
23	0xbfc66253db8c8a73	-0.1748757192627469
24	0xbfc2beb80bc8b4e1	-0.1464452798403846
25	0x3fa87423f5b48814	0.04776108145075866
26	0xbf9f7bf050429f5a	-0.030746226214119467
27	0xbf9cb796a8fc6083	-0.02804408461005937
28	0xbfbc88a285b1e4b4	-0.1114598823932223
29	0x3fafd07ea4e166f1	0.062137563349734644
30	0x3fcb9c001a85091e	0.21569825453668384
31	0xbf97fc41879de0ac	-0.02342321768034654
32	0xbf9c97377899d9b3	-0.027920595870875874
33	0x3fc03abb16f0ae72	0.12679232235074128
34	0xbfd68e76344e86f3	-0.35244517429428796
35	0x3f82c464690bf55f	0.009163650947352662
36	0xbf97d8b734d153ba	-0.023287642096267304
37	0x3fa6b1ab3552e43c	0.04432425523686631
38	0x3fc3cfc48e08e15a	0.15477806983268289
39	0xbfbac03373d65c76	-0.10449525430736792
40	0xbfa83b0370ec8228	-0.047325236830378536
41	0x3f705de7a57a92cc	0.003995804661518231
42	0x3fc03de855418e39	0.12688926852125507
43	0x3f7722cc331b415e	0.005648420004675662
44	0x3fc32ef11fa5d2b0	0.14987005276966192
45	0x3fadd8ccc876c551	0.05829467722959215
46	0x3f9881d7660d3755	0.023932805637108718
47	0x3fc085c3d695a042	0.129082183625771
48	0xbfd5b522ec1121f9	-0.3391806893673955
49	0xbfae5cedc67b2a51	-0.0593027405535237
50	0xbfb8504669a44183	-0.09497490004674174
51	0xbfaedaa81a229cd3	-0.060261967840511986
52	0xbfc60a158c52aa80	-0.1721827445192794
53	0x3fc1c7f525e8afe3	0.13891472197553786
54	0xbfa03ed1561e3154	-0.03172926117176425
55	0xbfc1fa3301515acd	-0.1404479748186617
56	0x3fbaa4fee2b9573b	0.10408013377431484
57	0xbfc278a796cbfc8b	-0.14430708754659735
58	0x3f8e5c1198a29e5e	0.014824044676358724
59	0x3f9466ea3fdb882e	0.019923839709811535
60	0xbfc9999b5294fc72	-0.2000002053482351
61	0xbfb5f63385746492	-0.08578798301859283
62	0x3fc83bfc3e597f3b	0.1893306068841357
63	0x3f8dc1e3213c46f9	0.014529966785207448
64	0xbf9d1cf103c0bfe4	-0.02843071542173438
65	0xbfb12d956db80170	-0.06710180214577632
66	0xbfc27ec471d048cb	-0.14449363286309444
67	0x3fa2cd68db659a20	0.036723400861593314
68	0x3fbe42f18c859075	0.11820897751528199
69	0x3f832c02e6b22d99	0.009361288705142455
70	0xbfb0da80e5c0060d	-0.06583409890301813
71	0xbfb26c349020769d	-0.07196358221741624
72	0x3fa5fcb9243a0618	0.04294375006885448
73	0x3fa41e299ca29dcd	0.03929262196589498
74	0x3fa18a253af0563e	0.03425709099262207
75	0xbfa92654a94464ec	-0.04912056509255955
76	0x3fc778d4521e2bae	0.18337491998349037
77	0xbfb9627c87671bfa	-0.09915903382999139
78	0xbfc2d38fca27ec91	-0.1470813500489823
79	0x3fc07b4653409e9a	0.12876204552707265
80	0x3fa58fddc3c8ef93	0.042113237523579226
81	0x3fb0311f1bd5c8b5	0.06324953488891334
82	0xbf999a2b21e41afb	-0.025002168601555557
83	0x3fb22c3c0faf11df	0.07098746664912124
84	0xbfd0209418e7c647	-0.2519884341446396
85	0x3fc2bc5721acb975	0.14637269157669733
86	0xbfc5d2bc4acca74c	-0.17049363758388336
87	0x3fbb8b79cf68d1ba	0.1075969821329811
88	0xbf93ac7655bbc091	-0.019212578757049462
89	0xbfa7f352280e4513	-0.04677826632463158
90	0x3fbb2edb77a066b9	0.1061837355668115
91	0xbfc1274c97004203	-0.13401181576820428
92	0xbfbb63c8322a939b	-0.10699130272639794
93	0xbfa9f14cf3b16af5	-0.050669102428136194
94	0x3fbdb24ed380153c	0.11600201285917405
95	0xbfb9390b80630a9a	-0.09852668652005506
96	0x3fb4d055e1e3c3d5	0.08130394711385176
97	0x3fc7897a414ff83a	0.1838829821498978
98	0xbfd429cf8c7eb19c	-0.3150519248981938
99	0xbfbc301b01c55701	-0.11010903161271914
100	0xbfc021c4ca3e5220	-0.12603053927581787
101	0x3fc4b134bb1ee927	0.1616578973460687
102	0x3fc39e50738cb59f	0.15326886789391111
103	0xbfc5beb87b2e2350	-0.1698828317132901
104	0xbf71407d6789fdc6	-0.004211892949228474
105	0x3fb1e4e8adaf2cd6	0.0698991226228601
106	0xbfc82c73568eb3c8	-0.18885652281224297
107	0x3fcd17c53393cf5a	0.22728791254450692
108	0xbfb10af090110997	-0.06657317654847926
109	0x3fc6794a8060714d	0.17557650822062457
110	0x3f8f5d3dccaa0d11	0.015314562614781953
111	0xbfc3c7c7c35539fa	-0.15453431165447268
112	0xbf70122b7e9c65cc	-0.003923578167609642
113	0xbfa9a56015a9ae6e	-0.05008983864248938
114	0xbfbd6972e9469424	-0.1148902720947978
115	0x3fb2358b774db004	0.0711295286434393
116	0x3f8eeedc726edb4a	0.015104028932780306
117	0x3fc6fb63f6539c0b	0.17954682853380208
118	0x3fbf6007f6a779fc	0.12255906841117076
119	0x3fa39b176d3b9b11	0.03829262932213429
120	0x3fcddcf9daf1b88b	0.23330615225444648
121	0xbfbc8834bf1ddbef	-0.11145333925183797
122	0x3fb7a5c3028e8872	0.09237307369633799
123	0xbfb7dab62f6bb3d3	-0.09318102510196917
124	0x3fcdfd0632b8f4dc	0.23428418614086055
125	0x3fb3093f78910801	0.07435986226576576
126	0xbfb7956953710d3c	-0.09212358748577726
127	0xbf8042c15a728792	-0.007939825604186077
128	0x3fbb8b7d5ea374ca	0.10759719429502748
129	0xbfa4d0928703a66b	-0.04065378091929691
130	0x3fac17f5845e5af6	0.05487029305293405
131	0xbfc4214660fb9e7d	-0.1572654698895696
132	0xbfa7d407fa710be2	-0.04653954441211973
133	0xbfbdfe6913ed6562	-0.11716324554926907
134	0x3fc2f4eefcc978af	0.14809977858653187
135	0x3f305f8c7f72a0b2	0.00024983577845684023
136	0xbfa81c27195a09d7	-0.047089788288775906
137	0xbf835834b508716c	-0.009445583128631717
138	0xbfc2fd9deace0e21	-0.1483647724636379
139	0x3fa5178f033e60cb	0.04119536318393243
140	0xbfacbf1b70da6250	-0.05614553215599882
141	0x3fb61a7cd6e089e4	0.08634166952155159
142	0xbf9d662a1fa55383	-0.02871003931189221
143	0xbfa7f88335c5f353	-0.046817875208012304
144	0x3f9ac64db5016181	0.026147092983906276
145	0x3fbc4613a4caffd4	0.1104442860914781
146	0x3fcec3f86e661373	0.2403555430466003
147	0xbfc5ff8954979026	-0.17186085348578323
148	0x3fc2db2f18088d6b	0.14731396363741153
149	0x3fbfd9a0788b161f	0.12441447203590215
150	0xbfa5ffe9a0ebc8d4	-0.042968083280258945
151	0x3fa876d4513c3f7b	0.047781596104072364
152	0x3fb901a35626b8bf	0.09768124440481339
153	0xbf9820aaff739f3c	-0.023562118379145888
154	0x3fc53f240a345923	0.1659894037081325
155	0x3fd077ef20d04ae5	0.25732019619424157
156	0xbfc4463028b0cbd0	-0.15839197146269024
157	0xbfa969cbb87f5cfa	-0.04963528277556324
158	0xbfc2c06592dd8e91	-0.14649648352780223
159	0x3f9ebf227b81af34	0.030025996006244074
160	0x3fc9d75732f82e03	0.2018841742395666
161	0xbf9cccfc6a68a63c	-0.028125709528614914
162	0xbfd20ae2e8cd0101	-0.2819144509740142
163	0xbf9255bb4b81cd44	-0.01790516517980946
164	0x3fb859aa851a894f	0.0951181960067846
165	0xbfbf2932e322da06	-0.12172239346805477
166	0x3fa827731fa14967	0.047175977336013024
167	0xbfc13c83b7a77ed9	-0.13465925662511927
168	0xbfc4f6b558b6db06	-0.1637789424109643
169	0xbfc4e662c0e1a3d4	-0.16328081529652982
170	0xbfc0db15d598eccd	-0.13168595246847872
171	0xbf9b9502f2bc001d	-0.026935621323900805
172	0xbfbd95a208408582	-0.11556446744409324
173	0x3f8937e5ecef4a79	0.012313648503469598
174	0xbf8f16e1594c3647	-0.015180359399461397
175	0x3fbcf5dd93102798	0.11312661018760506
176	0xbfb3d956c7a2d7cf	-0.07753507970741612
177	0xbfc41a5d9e35671b	-0.15705461716680066
178	0xbfb5245395d44721	-0.08258554847659784
179	0xbf91533c50238d3b	-0.016919081107414895
180	0xbfd32a18e71e5d45	-0.299444413854378
181	0xbfa56a8a16717b5f	-0.041828456153544684
182	0xbfc2a2527a68521d	-0.14557867981842856
183	0xbfb36fa966449133	-0.07592257258199168
184	0x3fc6ee2d4fe90133	0.17914358522285453
185	0xbfc6e130f8041415	-0.17874729261544134
186	0xbf9859dceaf32765	-0.023780299987982718
187	0xbfb5efd870cb1bad	-0.08569100145096682
188	0xbfcaa7cafd52dc48	-0.20824563378639227
189	0xbfc206643bb83107	-0.14082005420676344
190	0xbfb41c327215755f	-0.07855525288819852
191	0xbfa5388094dcf95a	-0.04144670312097061
192	0x3fc0aa4f04146591	0.13019740771487112
193	0x3fce599e1c22b9c2	0.2371099126225556
194	0x3fb765bb087384ed	0.09139603573159479
195	0x3faf2d4d0802bf57	0.06089249346530206
196	0x3f7973ac8eac2dac	0.006213830997477226
197	0x3f85824cc7fc0578	0.010502433636704764
198	0x3fb3e664b676b759	0.07773427443200144
199	0x3fb162dc8599dde4	0.0679147554563922
200	0xbfca268de7bfc838	-0.20430158439518364
201	0x3fbacd25bc17f2f3	0.1046928009236117
202	0x3fc5b109d7b2d859	0.16946528465422508
203	0x3fb9ae914005814d	0.10031993687653547
204	0x3fc66468ba72cbcc	0.17493924240042558
205	0x3fd233670d14f38f	0.2843873622658117
206	0xbf960b8d86a97568	-0.0215284455720072
207	0xbf8d6aef6ac408b0	-0.014364119001133296
208	0xbfc1afec8e3a69b8	-0.13818127579436434
209	0x3fa64d41565cd44c	0.043558160583793
210	0x3fb838523af5ca36	0.09460939349609351
211	0x3fac621e22053151	0.05543607869421641
212	0xbfbdc4059e2b8440	-0.11627230750629369
213	0xbfc1ca7f70c7e1dd	-0.13899224287867087
214	0xbf8132cded9ab7dc	-0.008397682965860236
215	0xbfba2bd2437c984f	-0.10223116061806191
216	0x3fb8bd1e5f8aa21d	0.09663572151715312
217	0x3fb16e5af2a913e7	0.06809013771369586
218	0x3fa396c65a69ac1d	0.038259695564953435
219	0xbfc8bee7c58a5a1f	-0.19332596917657072
220	0x3f5081d0919f108a	0.0010075127415669926
221	0xbf8512567cb7f5bb	-0.010288882905110755
222	0xbf7a0780331b48c6	-0.006354809551071655
223	0x3fc6ded4c015d286	0.17867526415979657
224	0x3fb423864daf0893	0.078667062726739
225	0xbfa52c0cbbe700a5	-0.04135169786195662
226	0xbfbd7781aac7d201	-0.11510477466055848
227	0xbf99b99e163e2c4c	-0.025122137172314304
228	0xbfc15a95ed301116	-0.13557695466455105
229	0xbfc1ee31096eff28	-0.1400815292417914
230	0xbfac6629e3b34cf3	-0.055466946645219915
231	0xbf836dead6f3a35b	-0.009486994442754406
232	0x3fb3a52b3b56fa2f	0.07673902701115119
233	0xbf99194e1021f831	-0.02451059316126009
234	0x3fd4b317a45670a8	0.3234309296474387
235	0xbfc7bdce1fca5729	-0.18547989418282754
236	0x3fa4a2c650bbf30d	0.04030437217259051
237	0x3fae76fe62d441a2	0.05950159984979854
238	0xbfcb74dda3b9f335	-0.21450396055652168
239	0xbfab0b28d99b6dd1	-0.05281951576554501
240	0x3fb1235bc8847c2b	0.06694577832648523
241	0x3fb7ccea4584a5d8	0.09297050664158435
242	0xbfb8feb48a224a62	-0.09763649341975048
243	0x3fc8ecf154363a20	0.1947309170904683
244	0xbfb6e9b8a96f67ea	-0.08950380455590304
245	0x3fb684472a3d4d42	0.08795590192066974
246	0xbf7003ccf4a16808	-0.003909874542012311
247	0x3fae6f936095a400	0.059445004978279314
248	0x3fd4c18b0d287dc7	0.32431293759324514
249	0xbfb2870236f605a9	-0.07237256852933761
250	0xbfd90be8e729d602	-0.39135191511681466
251	0x3fc19d574b6950d1	0.1376141660899806
252	0xbfa640d65ced1b0a	-0.04346341976502373
253	0x3fc644423e9aa065	0.1739580922778742
254	0xbfb339889a49bec3	-0.07509664313124191
255	0xbfa19b38360d0b26	-0.03438735637475636

linear_layers.1.layer.bias f8 [50]
0	0xbfb5421817a0a32b	-0.08303976609080325
1	0xbfa171b6c539f8f6	-0.03407069356488705
2	0x3fcbe73d2ff8189c	0.21799435465090233
3	0xbf97cafe9a97461a	-0.023235300240974956
4	0xbfa1544c8215fac1	-0.033846274261113425
5	0x3fc10fcd86e64d5c	0.13329476439376264
6	0x3fc63910453d2b98	0.17361644154365474
7	0x3fc09c5944656d89	0.12977138366373378
8	0xbf9f2dc26204a21a	-0.03044799540762897
9	0xbfb0871c3c0f4c77	-0.06456161943724391
10	0xbf9ccbe258bf2c88	-0.02812150637309377
11	0x3f8731070bd3702c	0.011323981331251863
12	0xbfaddc753d664ba1	-0.058322585816447566
13	0x3fc2ae25a692cd7b	0.14593954690426955
14	0x3fbd86b8801ca6e4	0.11533692481739483
15	0x3fc24fa3c5be2cf2	0.14305541186727272
16	0xbf824b8a9240269b	-0.008933146084035662
17	0xbf86aec546eced88	-0.01107553599069068
18	0xbfa66bd9909e64ac	-0.043791579154637134
19	0x3f73396e3a698972	0.004693441942978148
20	0x3fc4bc18c88ddb73	0.16199025910074347
21	0x3fbe2ba65d921be9	0.11785354408685546
22	0xbf9fb0bbbf4bc93c	-0.03094762187078824
23	0xbfbf605406a904c7	-0.12256360209086657
24	0x3f96b2f4ad20d48d	0.022167037074002627
25	0xbfab29a02e306e23	-0.0530519539244916
26	0xbfb45ac70f8f0bda	-0.0795101559624948
27	0xbfb2bf822c60da39	-0.0732346876473934
28	0x3f9b0c4236514ec9	0.026413950505527226
29	0xbfbe275e819bdd1d	-0.11778822578695665
30	0xbf862f508ee3baff	-0.010832433090823821
31	0xbfa65f4bf1f9d99f	-0.04369580582435905
32	0xbfc0c9fa3d5951ca	-0.13116386409332242
33	0xbfbfc006cdcd2cc8	-0.12402384304475611
34	0xbfbbfe2f43513144	-0.10934729951367667
35	0x3fc0d1ba8860186c	0.13140041026071303
36	0xbf844200256201e9	-0.00989151109774951
37	0xbf9fbb8cf842afe3	-0.0309888865019018
38	0x3fc4db829479d424	0.1629489159564922
39	0x3fa816c308b570f5	0.0470486591463856
40	0xbfa937039590d306	-0.04924784851792734
41	0xbf562876b42d1749	-0.0013524207322048335
42	0xbfb96dbdc5ad9d93	-0.09933076931121425
43	0x3f9e3740643012ac	0.029507642855622393
44	0x3fb67bc5d7d600c5	0.08782612342293124
45	0xbfaaf1b856cee007	-0.05262542781514417
46	0xbfa61cd568dc512b	-0.04318873314892565
47	0x3fbcbeb5c33304fd	0.11228500381095681
48	0x3fc340e50c101e5e	0.15041792954456218
49	0xbfa5cdfc7eabfab0	-0.04258717581068561

linear_layers.2.layer.weight f8 [50, 50]
0	0x3fa58c8d824aaf62	0.04208795752978635
1	0x3fbc6ebc6f28685d	0.11106469835104478
2	0xbfa264cbe14dc20d	-0.03592526555337736
3	0x3fc46ebe411c4595	0.15962961367817444
4	0x3fb5987c7d334e7f	0.08435800606394571
5	0x3fc43abd5b6a2400	0.15804259265522091
6	0xbf943c03cd8fdb31	-0.019760188504700685
7	0xbfb003f4875be9be	-0.06256035141624403
8	0x3f9139a4752e7e6e	0.016821450855444224
9	0xbfb89399cb40968b	-0.0960022088262013
10	0x3fb19feb7466693d	0.06884643165395672
11	0xbfc072bad164aeda	-0.12850127434045683
12	0x3fc36c9152d4bc5e	0.1517507223556746
13	0x3fb546ad75836069	0.08310970419859277
14	0xbfc2807f2f36caab	-0.14454641156551892
15	0x3fc256898bf3653b	0.1432659085610711
16	0x3fc0f223eb81178e	0.1323895358966038
17	0xbfa995a839d524a1	-0.04996991830791698
18	0xbf96124dbad5d848	-0.021554197815440795
19	0xbfc489db35e7ad14	-0.1604570401390012
20	0x3fd10e018a02f57a	0.2664798591393588
21	0x3fc0c8f4a3f8e760	0.1311326790471936
22	0x3fa7c675f7c1b902	0.04643601083158623
23	0xbfb767045bc72c0a	-0.09141566506075108
24	0xbfb6ea6db684dc89	-0.08951459604291946
25	0x3f9c753210eb8400	0.027790815623010445
26	0x3fa1de891dc928e2	0.03490093697162579
27	0x3fa90a74453b6cd4	0.04890788407439009
28	0xbf797d5dadadbbe4	-0.006223073893905504
29	0x3fa6c8bb6bb6341a	0.0445002144798325
30	0xbfb1f844630f8e06	-0.07019450586772544
31	0xbfd21204a536e17b	-0.28234974035469634
32	0x3fa167a646b0fe87	0.0339939080517953
33	0x3fa6638b1df4406e	0.043728206068522776
34	0xbfd99d9e4db4642f	-0.40024526203484617
35	0x3fd139560fd66fe7	0.26912452265400905
36	0xbfc3d0e30dd10c9c	-0.15481222319258314
37	0x3f991c30b7b5218f	0.024521599972361193
38	0xbfb5fdaf95040067	-0.0859021891410535
39	0x3fc5db7917418eca	0.17076028476286914
40	0xbfc35829db237cae	-0.15112803650024403
41	0x3fc0a48aae287471	0.13002141479310894
42	0x3fc6eea0d4b69fa5	0.17915735613246145
43	0xbfb808a65c49c96c	-0.09388198617106064
44	0xbfc2564e53cd9fc8	-0.14325884906724995
45	0xbfa53843d16192f6	-0.041444892224523786
46	0x3fcd4f2b59c791e1	0.22897855647819568
47	0xbfbd35e9e0b94749	-0.11410390602511912
48	0xbf9df302c40bd5a0	-0.02924732514926165
49	0x3fc07f1e6d83630a	0.12887935969663317
50	0xbfa4c7c3c89df953	-0.04058658431948694
51	0xbfc585fda0734868	-0.16815157255638558
52	0x3fc46a304ec88e2d	0.15949062201353695
53	0xbfa2c0d172edc918	-0.03662733581485805
54	0x3fbf5257fcb3dfcd	0.12235021514413731
55	0xbfc4786798da2519	-0.15992445910914269
56	0x3fa266d9804d471b	0.03594093028244868
57	0x3fc1f155e1711d5a	0.14017747409728082
58	0x3fbee8a138f38650	0.12073714867030927
59	0xbfcaf85ffbcdd67c	-0.21070480151290727
60	0x3fcc83315b837805	0.22275368660388054
61	0x3fab7d31b134c8d3	0.05368953025971881
62	0x3fb3c80ea3fedf27	0.07727138046072622
63	0x3f58e26f4de54a50	0.0015188300090655145
64	0x3fc1ae325d1e9441	0.13812856242035035
65	0xbfa0db225731c67a	-0.032921860832073116
66	0xbf8c0718872199cb	-0.013685409187201089
67	0x3fc81e8848276da7	0.1884317734064613
68	0x3fbddda66a014cb6	0.11666336143507547
69	0xbfc092199f2d0497	-0.1294586207605206
70	0x3fb346d838adffdb	0.0752997530344141
71	0x3fc33b67e26556af	0.15025042108998352
72	0xbfb766da57310404	-0.09141316059778154
73	0xbfba38576aec3bd0	-0.10242220268649693
74	0x3fc4a7484feacfd9	0.16135505583008472
75	0xbf7b1c0d645cb990	-0.0066185496450955755
76	0x3fc4399349941311	0.15800705998130884
77	0xbfb8a2db1269e4c5	-0.09623498153259209
78	0x3fbb1b659d4e4f50	0.10588679399944323
79	0xbfb4d0c7933dfc00	-0.08131072373178938
80	0xbfa51987dbf4607d	-0.04121040878288882
81	0xbfad628bf420397b	-0.057392476606866936
82	0xbfaaf2b62bfad63f	-0.052632992619163314
83	0xbfa8d62f295d553d	-0.048509095954310834
84	0xbfa38e8e1f8b2938	-0.03819698462537463
85	0xbfad62866673d334	-0.057392311102296395
86	0xbfc543821c0f45e2	-0.16612268800831403
87	0x3fbcfb3572683b08	0.11320814173835114
88	0x3f91200a95e9944e	0.016723790550163202
89	0x3fa6b13857762580	0.04432083194394476
90	0xbfbd1d255254e097	-0.11372597942397743
91	0x3fb4ca97ef4c921b	0.08121633140815059
92	0x3fc86824f7bf38d5	0.19067823502559259
93	0xbf7c2941e43e007e	-0.00687528361220313
94	0xbfcfe9a7375ae57b	-0.24931802943119039
95	0x3fcc3f3e280d30e6	0.22068001704827295
96	0x3fa74c32e5f60168	0.04550322587147343
97	0xbfc67013efb43bde	-0.1752953453473926
98	0x3fd32760e1d17e1f	0.2992784695870529
99	0x3fa5efcd48413dc9	0.04284516818062973
100	0xbfc1bada7de2d5a4	-0.1385148157766426
101	0x3fb9ffb6736645c8	0.10155811612482701
102	0xbf9f537fb2457cd4	-0.03059196019728179
103	0x3fcf9f8490f2df4b	0.2470555980451031
104	0x3fd17f9b6e51f98b	0.27341352246721645
105	0x3fc1303b8d495981	0.1342844428897472
106	0xbfa2f3075a46cc4e	-0.03701041199692466
107	0xbfc69811d21e5eda	-0.17651579627703634
108	0xbfbedd22f824ab2f	-0.12056177671608446
109	0xbf8cca89ae8efac6	-0.0140581852336913
110	0xbf88c9e200893529	-0.012103810922008922
111	0xbfc3a6d99874604a	-0.15352935737678514
112	0x3fcd1839db2467da	0.22730181885054784
113	0x3fb9326d59595e96	0.09842570716261387
114	0xbf90ce94ae6dc7ff	-0.0164130431616698
115	0x3fc4b7ca112f2e1b	0.16185880507542624
116	0x3fbd1aa4f3c4eeba	0.11368781043432366
117	0xbf6bff8f17eea47b	-0.00341775844522779
118	0xbf963a28123261c6	-0.021706224547047424
119	0x3f9f434dbde17e12	0.030530180658727764
120	0x3fcc317a8a97aadc	0.22025996939858927
121	0x3fca760623ca8d46	0.20672680614107203
122	0x3fb2cf1a75bafe11	0.07347264646795561
123	0xbf9b6a53af012576	-0.026772792393136645
124	0x3fbfb3b7ffc66a92	0.12383604044445409
125	0xbfbe881fc05c7060	-0.11926458784404437
126	0x3fc15e45af91fb07	0.1356894595409914
127	0xbfb5b40c369dd33e	-0.08477856000338321
128	0x3fa9d192231e5688	0.05042702368443225
129	0x3fb94ab469a53bab	0.09879615382418076
130	0xbf74c252b9056c12	-0.005068133483599817
131	0xbfc556d606d43625	-0.16671252568669206
132	0xbf8b914a4712f683	-0.013460712713249784
133	0xbfa05e7dd57eab5a	-0.03197091323030206
134	0xbfb762d2aef8d124	-0.09135166904235753
135	0x3fc5063dcf73895f	0.16425297383745893
136	0xbf9f1d58600d0972	-0.030385380613787878
137	0x3fcb14870abc7402	0.21156394981599652
138	0xbfc5728ea3428807	-0.16755850764917588
139	0xbf983d44d2c282c0	-0.02367122207999972
140	0xbfc3ee46b7d34cce	-0.15570911384438663
141	0x3fafda3493ff4448	0.062211649957710835
142	0x3fc0920d8d247c34	0.1294571818516218
143	0xbfc1b57c369c7f43	-0.1383509890229054
144	0xbfc1c0fe20f67525	-0.13870216950901085
145	0xbf98df97f2a1cd5a	-0.024290441688618138
146	0x3fc628d9b59005f2	0.17312165608750224
147	0x3fb04da129f5e51b	0.06368453287531788
148	0x3fa7da482b609a1a	0.04658723382481274
149	0xbfaa3bec1a8e35f4	-0.05123842071689558
150	0xbfbac6f8ba6e366e	-0.1045985655930168
151	0xbfbff98d806dfa65	-0.12490162263382272
152	0x3fd362e049cfd96f	0.3029099198169182
153	0x3fc6fb05ba93862d	0.179535595037167
154	0xbf82402dc3b81888	-0.008911473784803073
155	0xbfa918c726feb640	-0.04901716567051695
156	0x3fd0d1f85252d6e0	0.2628155521336861
157	0xbfaecb5317ab5c69	-0.06014499343808028
158	0xbfbec16acae8b4b8	-0.12013881162484352
159	0xbfc5452f1eb0913e	-0.16617383001824665
160	0x3faf19930d8b475a	0.06074199238140805
161	0x3fc30a8009217a20	0.1487579388221585
162	0x3fbc6e36cb800469	0.11105673282874452
163	0x3fb53fbbfb36b747	0.0830037582697659
164	0xbf6adc53e5f3b567	-0.0032788885724729824
165	0xbfbd3ccab426a06f	-0.11420885942664126
166	0xbf9e9f336923ff2d	-0.029904177944444377
167	0x3fb347fde15a3139	0.0753172564674899
168	0xbf98048b21ba5e84	-0.023454832013696705
169	0xbfb0225079e9340c	-0.06302359558431209
170	0xbfa6b4b8115f8845	-0.04434752666544787
171	0x3fc445a0f0939c9c	0.1583748984041663
172	0xbfd37ab5f871c831	-0.3043646742072524
173	0xbfc59998d900824d	-0.1687499103145619
174	0xbfba3305917771a8	-0.10234103013448836
175	0x3f93bdc70f352328	0.019278631499477644
176	0x3fb1e620a6026287	0.06991771748506369
177	0x3fbbc5da5101283e	0.10848774411820813
178	0x3fb9895b1174e585	0.0997521321886748
179	0xbfb97ffc7583238f	-0.09960916394187634
180	0xbfbf788578f55d23	-0.12293276026808946
181	0xbf9c0526d08ab732	-0.02736340186918724
182	0xbf8962c8651a4f8a	-0.012395444474613066
183	0xbfa0a27a099cd799	-0.03248959891645526
184	0xbfb6d3cd7b27c437	-0.08916935211870301
185	0xbfb934ff40b2c16e	-0.09846492127940618
186	0xbfb987b7ce61360e	-0.09972714222495702
187	0x3f9149e60aaf0ae9	0.016883463289341902
188	0x3f9ef09df4baede9	0.030214756071229507
189	0x3fc183988ded59e5	0.13682848863636746
190	0xbfc06c102da472d7	-0.128297827040021
191	0x3f81b22e785ecc50	0.008640635536585034
192	0x3fc0173ed2f0c16f	0.12570939349962937
193	0xbfc2bc3f4b74c6f0	-0.14636985000975455
194	0xbfc7945e7d0091ec	-0.18421536544441552
195	0xbfb88f2d12c3d768	-0.09593469341402072
196	0xbfbe8144405b3be8	-0.11915995188904527
197	0x3fa0d93896cc991c	0.03290726509867367
198	0x3fd01d1dbadf1f5d	0.2517771077077578
199	0x3fbcced8d1b2a019	0.11253123397420985
200	0x3f966f8b098487cf	0.021909878211893215
201	0x3fb13f486b361f8c	0.06737187020746499
202	0x3fcc1ed658ea510e	0.2196910795361266
203	0x3f960ae9a56f99fe	0.021526003572853718
204	0x3fb333ba00866c6f	0.07500803482837325
205	0xbfc53955a80e3f53	-0.16581221299974888
206	0x3fbaff86b7ceb303	0.10546152102933708
207	0x3f609e462a32c242	0.002028595963189412
208	0x3fccf308020bd61b	0.22616672611154418
209	0xbfc365eda0329641	-0.1515481025900716
210	0xbfb319cf02c5018e	-0.07461255853286827
211	0x3fbc3dbbcd4ad84f	0.11031697999973854
212	0x3fb726b1c3419b2f	0.09043417946814424
213	0x3fce463f3c3810be	0.2365187686956513
214	0x3f5f359f40930b27	0.001904874343652005
215	0x3fc246a300e14503	0.14278066199270975
216	0x3fc1c2e7edbd5e8c	0.13876055820832212
217	0x3fc8c5a59db29b3c	0.1935317058571061
218	0x3fe03a2cb9741d8c	0.5071014043941644
219	0xbfc4001e9cec0f39	-0.156253649351237
220	0xbfb80999002613cc	-0.09389644864684427
221	0x3f9572b5a041a9a1	0.020945394426613032
222	0x3f9978ec6b35da37	0.024875349086381084
223	0xbfb5d459490a6c8b	-0.08527143510075257
224	0x3f7f19a408b10beb	0.007592812306998357
225	0x3fa75f8efdc51c6b	0.045650928952959934
226	0x3fbee72f667246ec	0.12071510554440196
227	0x3fbc637a24daf108	0.11089290046487943
228	0x3fc2ad4994191c2a	0.14591331225730758
229	0xbfbdd05357078538	-0.1164600455736221
230	0xbfd14d12f7c7ecd1	-0.2703292293296729
231	0xbf7d7ac62f54d86c	-0.007197164687843576
232	0x3fa14f8e21d17177	0.03381008303469717
233	0xbfe7f2d00f8a4c58	-0.7483902266998355
234	0x3fbb0a68db91d89c	0.10562758789623888
235	0x3f9b1ff63d547a49	0.026489112370763377
236	0x3f94be88f94bc72a	0.0202580835493286
237	0xbfc384a451d2259c	-0.1524854087368056
238	0xbfa2ff9e29a416f5	-0.037106459220053546
239	0x3fb1345f42ce4d38	0.06720538502695639
240	0xbfd1d464101dc464	-0.2785883099923636
241	0x3fd2b0042fbb53ad	0.29199318562796855
242	0xbfb7a0c9364f7b11	-0.09229714942874191
243	0xbfbf79e137b2c509	-0.12295348748991243
244	0x3f93fccd569d42e5	0.01951905099059816
245	0x3fbdd99a5a3e4f1e	0.11660160735328559
246	0xbfc4118507fc3700	-0.1567846573820404
247	0xbfbdb999fef6b553	-0.11611330485057651
248	0x3fb3bcef87e39b94	0.07710167949299623
249	0x3fc33c6c1096f46d	0.15028143701593724
250	0x3fc038d46d1ba45b	0.1267343075517456
251	0x3f86fbfc6b35367d	0.011222812673305821
252	0x3fb1b64290f13b60	0.06918731726294203
253	0x3fa08ec29622fe83	0.0323391731521925
254	0x3faf95fc7733bbe2	0.06169117884734711
255	0x3ff2e13bc09b4030	1.1799886249246008
