8_Inv_Lorenz/logs/models/2023-10-16-16-42-13_Lorenz_DNN_100X5/epoch_0.pt (torch, 31300 bytes, 11 tensors)

alpha f8 [1]
00000000: 3a06 1ed9 cef7 ef3f
0.9990000000545429

beta f8 [1]
00000000: 5127 32d9 cef7 ef3f
0.9990000002010025

rho f8 [1]
00000000: fccb 26d9 cef7 ef3f
0.9990000001183712

net.0.layer.weight f8 [40, 1]
00000000: 7de1 bc77 efc0 c6bf 2e98 e481 1b7f cebf
00000010: 2c2a d4fe 5fe8 d4bf 05b2 dda2 6131 cd3f
00000020: b7d0 b3e4 a5e7 d3bf a9e0 5f6e ef0e c73f
00000030: f84a aeb6 9512 d13f 3ff6 da3e 75eb bdbf
00000040: fd50 cb74 109d b13f c1ed 8741 e9f0 a53f
00000050: 5d54 e131 b48d c53f 0dd7 fb75 ebbd d1bf
00000060: 635c 0385 df41 a0bf 1312 2d54 3250 d0bf
00000070: 2d6c d007 549b 9c3f 7f4f 0d99 1ced d2bf
00000080: b7a2 8148 4021 933f c39f 5330 af97 ca3f
00000090: 3d23 8c4d c313 d1bf b6bd 68b2 7d2a d43f
000000a0: 73bc e4d7 0d6c d2bf d56f b627 6d38 ba3f
000000b0: 951b 946e b9d7 d63f 80ed 3674 c4c2 d73f
000000c0: 2ee5 a38b 32e1 a43f 9200 c0db 82fd c3bf
000000d0: 274a f533 b811 d5bf 37e1 7ec7 ce9b c83f
000000e0: c6bd c02b 834b babf d48c 8c52 d993 b03f
000000f0: 6fa6 17d3 07ba cb3f a945 45b3 19b7 d43f
00000100: 97b3 e73f 6cdc d4bf 10c8 f242 f9e9 d3bf
00000110: 103e 5d2d fafa c33f eee6 fffc c036 cbbf
00000120: b484 8212 d473 d03f 393b 96ea 1564 d23f
00000130: 88c8 7da6 2977 c23f ead5 7323 75d2 93bf
-0.17776292177746802 -0.23825401155880982 -0.3266830433427994 0.22806950046960153 -0.311013673155013 0.18014328851109454 0.2667593273155684 -0.11687405380777081
0.06880286075039872 0.04285363125742548 0.16838695941501927 -0.27721678277826883 -0.03175257204718986 -0.25489481182401724 0.02793628022855559 -0.2957221502922422
0.01868153040450934 0.20775403842639947 -0.26683123181333085 0.3150934450413517 -0.28784509738301906 0.10242349834010096 0.3569167690151798 0.3712626585872485
0.04078062014191129 -0.15617404680233854 -0.32920651506461457 0.19225487462041155 -0.10271472757516795 0.06475599542004612 0.21661470229382782 0.32367556101697886
-0.3259535430977904 -0.31115561998297014 0.15609671797800262 -0.2126084552144713 0.25706960494614894 0.287358740891182 0.1442615569063188 -0.01935751942524703

net.0.layer.bias f8 [40]
00000000: bb49 c0d2 4d62 503f 62fa cbcd 4d62 503f
00000010: 2214 acd2 4d62 503f a327 c2d2 4d62 503f
00000020: 63e1 4dd1 4d62 50bf 175d 81d2 4d62 50bf
00000030: e4d0 bcd2 4d62 503f 3a59 add2 4d62 50bf
00000040: 3e63 6bd2 4d62 503f 3b0d c1d2 4d62 50bf
00000050: 096a b9d2 4d62 503f 2d03 a1d2 4d62 50bf
00000060: 79aa c4d2 4d62 503f dbcd d2d2 4d62 503f
00000070: 40aa 36d2 4d62 50bf 6733 aad2 4d62 50bf
00000080: feeb 2fd2 4d62 503f 8ad0 97d2 4d62 50bf
00000090: 144c b9d2 4d62 503f ee8d 96d2 4d62 50bf
000000a0: 0262 23d0 4d62 50bf f083 8ad2 4d62 503f
000000b0: 3f8d c9d2 4d62 503f 02ff b9d2 4d62 503f
000000c0: bfd8 65d2 4d62 50bf 82ac dfd2 4d62 503f
000000d0: 6ee4 c4d2 4d62 50bf 5980 d1d2 4d62 503f
000000e0: e212 86d2 4d62 503f 002f c6d2 4d62 503f
000000f0: cb5f c7d2 4d62 503f 33b8 dcd2 4d62 503f
00000100: 67b4 6bd2 4d62 503f 8d57 b1d2 4d62 503f
00000110: 96fa a4d2 4d62 503f f26a d4d2 4d62 50bf
00000120: 95c6 d2d2 4d62 50bf 18a2 cdd2 4d62 503f
00000130: f25e b6d2 4d62 503f 8d08 a3d2 4d62 503f
0.000999999999298325 0.0009999999812745565 0.0009999999990111326 0.000999999999324854 -0.0009999999940345165 -0.0009999999984041158 0.0009999999992489845 -0.000999999999029179
0.0009999999980918185 -0.0009999999993091774 0.0009999999992006423 -0.000999999998853872 0.0009999999993605387 0.0009999999995614548 -0.000999999997342585 -0.0009999999989844467
0.0009999999972467584 -0.0009999999987231633 0.0009999999991989793 -0.000999999998705255 -0.0009999999897926108 0.00099999999853417 0.0009999999994299705 0.000999999999208912
-0.0009999999980130762 0.0009999999997443447 -0.000999999999363756 0.0009999999995429414 0.0009999999984710507 0.0009999999993821063 0.0009999999993990257 0.0009999999997023612
0.0009999999980963238 0.0009999999990859293 0.0009999999989102385 -0.0009999999995843859 -0.000999999999561051 0.0009999999994879712 0.000999999999157394 0.000999999998882592

net.1.layer.weight f8 [40, 40]
00000000: 3de2 3c3a 05a0 c93f 2129 fb06 f016 bd3f
00000010: 6278 ea69 4972 95bf b7f2 ee2b 4478 6ebf
00000020: b4e0 b900 4f9f c0bf 38cf 2b58 bd24 d03f
00000030: 7559 5e70 39b4 93bf 7de0 88eb 961c b5bf
00000040: f035 4a09 1f99 c6bf c358 e307 b443 ccbf
00000050: 8ce1 c86d 386f 733f 0a8b f597 82d2 cc3f
00000060: 5190 9829 11f2 ca3f 6bc2 f6a9 de8d b9bf
00000070: 0027 b61b 94e3 b03f 5d9f d1dc 779b c5bf
00000080: 4620 c2f7 9faf c2bf 196f 1475 090b cabf
00000090: e882 7265 ac4a c8bf b3e4 0df1 fef2 b3bf
000000a0: 7d9f e7b3 d75b bfbf 40db bf10 9c93 c5bf
000000b0: 55d9 b109 b416 bdbf 91ca c580 5841 c53f
000000c0: 53b2 712e a0d4 c53f 6539 240b b524 a0bf
000000d0: fbd9 4f2e e8e1 7bbf 7134 5026 7c0c 903f
000000e0: bcda a456 4933 bc3f 5c8c 9ae4 ab33 bcbf
000000f0: b83b fbab ea9c a8bf e7d8 642a b445 c7bf
00000100: f91c 57ef 8657 b0bf 4f0d 68c3 ce94 ae3f
00000110: 8c62 a365 2524 d13f f354 523c ecf6 c7bf
00000120: 02c0 53aa b8b0 cbbf 53a5 b4ec f408 c23f
00000130: c7d3 57ca 70b6 bf3f 138b cf55 ea1f cf3f
00000140: 3365 00a0 92c7 abbf 3e49 ed72 8087 c9bf
00000150: d7a7 d841 81c8 a13f 32da 2deb ed9a 853f
00000160: eebf f32e f745 b9bf d2cd b89b ff6f c03f
00000170: a32d 86ba 49dd bc3f b258 a9d7 3f54 873f
00000180: 5b76 a609 0edd 843f 4b6b 48ca 153f a13f
00000190: b535 9b78 d2d7 9c3f ea74 9f19 39a2 b2bf
000001a0: 8281 82de 1dc7 af3f 6680 81a7 5b59 d03f
000001b0: 463f c53a cab5 babf e29a 6c26 a1b8 c8bf
000001c0: bf94 ce25 b6cc c6bf e1d8 39a4 2440 cabf
000001d0: 94b6 2434 1ac3 bd3f f0ac b199 bb43 b03f
000001e0: 189f 2a4c a45d bf3f 1419 0fd6 5cc4 cdbf
000001f0: d0f9 ff38 f7aa c0bf 4dc0 27d9 7bbe cf3f
00000200: fe9d 2ca9 2c46 c5bf 2d54 9456 5661 d03f
00000210: 4590 989c 07f7 a03f 2fc8 785d 4eea cebf
00000220: 486c f5ef 6651 b43f 2cda 374c 1f30 c83f
00000230: 6207 feb2 43d4 963f 2bf3 8494 dc19 d03f
00000240: b1bb 924a 12a7 af3f bfae 6dc9 97ea b9bf
00000250: cf0e 0141 7db0 8b3f 7313 6301 45d9 c9bf
00000260: a6bc d12f fb7c c23f 6047 ba88 8698 c63f
00000270: dee2 9b71 838f d0bf 9113 378d c70f d1bf
00000280: 3743 934d 8925 c0bf 588c cf74 9e8f 8bbf
00000290: a519 7737 162a a1bf f852 de39 7205 6bbf
000002a0: 8b41 b2c2 2fbf bbbf cc0c c1a7 30d0 cfbf
000002b0: 2861 e35f c084 cd3f f9b6 a605 267c c7bf
000002c0: b309 0fec 82ce ccbf 4701 4afb c7d0 923f
000002d0: df81 e26e a663 91bf 72d0 c8bf 5036 d1bf
000002e0: 4b15 f141 63f1 c2bf 49df bc47 a00d ab3f
000002f0: b287 0c1f 2221 c7bf 33be 397d e5d6 8e3f
00000300: 14dd e01e ca60 cebf 856f e4cc fd5f c13f
00000310: 5033 f02d b2fb b23f 2fcb 0704 30ac cb3f
00000320: c2da 86ba 661e a3bf e886 4ea8 75dd 91bf
00000330: 9b3a 1531 4f0d cd3f 58ab f5d9 b6d5 cb3f
00000340: 8b73 e428 1c8a c23f 2539 a90c 1d5c c7bf
00000350: f264 5bd4 f33f bdbf b1cb 8727 7eb8 c73f
00000360: 7f58 3791 71da cebf 3480 19db adb8 bb3f
00000370: 7433 bae3 e038 b4bf 9433 ed85 0b36 c1bf
00000380: ee39 11cf 2ff5 c13f e12b a689 a523 bfbf
00000390: d27d 7d76 7797 613f 3e91 b00e 2c73 b93f
000003a0: 9889 9e53 b41f d0bf 5744 a5d5 4149 bf3f
000003b0: d75d 6ab0 90ac d03f 64b9 3762 4c32 ca3f
000003c0: 261a 9d08 3a94 cf3f c8ce 1ebb 9b37 92bf
000003d0: af6b 7e3e 3358 b8bf 4eac 9623 76fb ce3f
000003e0: d478 90de a0a1 bebf fe46 bea0 909f c33f
000003f0: f112 22ac 2a26 c0bf 77ea be9f c4a5 c53f
00000400: b237 faf9 b154 c3bf a1a7 4ca8 bb58 b7bf
00000410: 9217 ec91 e12c cfbf 4492 1767 1d08 90bf
00000420: b207 4aef 55fa af3f c0e0 a6d1 1c85 cd3f
00000430: 4263 4a8c 850b b3bf fa67 e307 e022 b1bf
00000440: 5e94 7332 3d80 c73f df4c 4373 8901 c6bf
00000450: 0473 820b eb5b c7bf d8bf 755f 9def c83f
00000460: f3ca c988 d845 ccbf a983 4923 65e7 cdbf
00000470: 054f c0e8 67ce cc3f 34fa e3fd 67ca 973f
00000480: e29e e1a7 23d6 c6bf fdd4 0b82 bcf2 c53f
00000490: 66af 978c 6423 a83f bc1f 549d 929f d03f
000004a0: 9950 4e62 2196 5abf c164 693f c523 b83f
000004b0: 7bc8 b6f9 1f1a bc3f 3b2e 6d30 faf1 b4bf
000004c0: 5d58 cc7c 0a8a bc3f bfb2 0693 a4f2 c3bf
000004d0: 5254 081f 1dd9 c33f d432 2ad7 8589 cabf
000004e0: 826b ce8f ebe8 cb3f 7510 fead ed0d c93f
000004f0: 045d ff90 71cc ae3f 453f a5a6 f5ae bd3f
00000500: 0f7e dfaf 866a c23f 7fb6 2e7d 11b5 c13f
00000510: efca 871c ad57 ae3f 0e38 9c13 2e5d cf3f
00000520: 7086 892f b582 a13f f7fe 5af4 0029 b33f
00000530: 5cd2 c5ba e079 c43f d515 7b54 1d4b c33f
00000540: 9047 9a6f 1a1f ccbf 3ff5 9257 2e5c a3bf
00000550: 5223 2fb9 6a11 9bbf 88d4 f489 2aa3 c53f
00000560: 2ae9 df9f 431c c6bf 39b5 15b4 94c1 91bf
00000570: 0279 6e80 b117 bbbf 85a6 b677 9e43 c6bf
00000580: ccb8 4f2b 6483 bebf 1f8d 3245 a4ba 9ebf
00000590: 5d44 be8f 2b98 ce3f 090d 5c3a 9dec 933f
000005a0: c02a 3cb5 ef2b 6d3f 5294 42a6 a226 c5bf
000005b0: 23e9 635d 79be ce3f 57c8 5c80 bbe3 b73f
000005c0: a29a 474c 448d a53f 4731 3cff 4571 c43f
000005d0: f665 eff5 5c82 b0bf 3cf4 ff28 c110 793f
000005e0: a278 b216 363c cb3f c8e8 7b32 57bc a2bf
000005f0: c5a5 ab35 0296 663f 3683 e6c9 0b2a b4bf
00000600: b08c a345 7934 b2bf 4e18 6fc2 0615 c4bf
00000610: 538c 92b5 5b77 97bf 02a3 ad59 cda4 903f
00000620: aa85 4734 0f03 a0bf 8492 ed82 0696 c5bf
00000630: e842 969e d141 bfbf f4a0 554d 2873 c5bf
00000640: 1173 5f58 560c 993f e3a6 ee47 7eb0 c03f
00000650: f1c2 547a 4a9f b9bf 67b9 4c13 243b b53f
00000660: 27cd e06b 6cc5 b13f ff31 68f1 6e89 a13f
00000670: a5b8 506a b829 73bf 9ed1 9052 6aee c9bf
00000680: da8a b2b6 db29 d1bf d768 71a2 7c36 cb3f
00000690: 365d 9c44 1489 acbf 5eef 11cb 3990 b13f
000006a0: 3e74 f820 4d04 c03f f4e4 f746 4529 a93f
000006b0: b7ff 4468 22fa c8bf bdf4 8850 6d0d bdbf
000006c0: 789a cf0c e410 aa3f a57a 247f 1d62 90bf
000006d0: f3d9 f8fa 65aa ccbf d440 62f6 0e37 ba3f
000006e0: 7fc8 4213 e94c cfbf ba70 dbcb 481f a3bf
000006f0: 28ff 7b27 9822 7c3f a1b1 78a4 9cc9 b03f
00000700: 4653 4ebf e939 4b3f b974 2602 5db3 ba3f
00000710: 24e1 f807 8301 d03f 0dfe 753c 2884 c3bf
00000720: 2637 d6bb 824d c7bf 5d74 d0e6 c2c0 a5bf
00000730: 9db1 42cf e0d5 c63f cb37 75f5 fb6f d1bf
00000740: af1b dc22 73f3 aebf a358 3aeb 1696 cfbf
00000750: 6b4d c010 c948 b83f 33ab 506d cf3b d1bf
00000760: 30b3 4154 3bb1 b53f f101 01bb 1d98 75bf
00000770: 0f41 440f 9790 cfbf fad8 6616 fdf7 c53f
00000780: 8d21 36f1 5a7c bebf b9de de53 2bad b83f
00000790: 6c80 12f6 39e3 bcbf d6fa 1887 9ecc c7bf
000007a0: ad26 c99b 64f7 bdbf 4afa 6e46 9c86 cd3f
000007b0: a2ac 322a d2b4 d03f 7e72 354e 27d3 7bbf
000007c0: 528a dcbc 1884 d0bf 3a26 3adc 32d5 ba3f
000007d0: 8b4e 432c bf13 cbbf aeca 7c50 7ca3 bebf
000007e0: 1756 386a 1237 cd3f 9680 2df8 738d b7bf
000007f0: 601a 977f 1955 c83f 4a96 8378 9363 c13f
0.2001959356655493 0.11363125009953425 -0.020943781938165158 -0.0037194568135120137 -0.12986171279385916 0.2522424088522146 -0.01924218891471115 -0.08246749163015639
-0.17654788926704112 -0.22081613907966444 0.004744739937955333 0.22517425937538632 0.21051229983379696 -0.09982101106175782 0.06597257305670823 -0.16880701334161588
-0.1459846458203648 -0.20346182076252076 -0.1897788520191377 -0.077926572657719 -0.12249515669065932 -0.16856718843311036 -0.11362767445266304 0.16605669296003048
0.1705513216760602 -0.03153005372051857 -0.006807238537467781 0.015672626341303123 0.11015756955462569 -0.11016344386239169 -0.04807217931158142 -0.18181469030395833
-0.0638355573965902 0.05972906241734199 0.2678311817703978 -0.18722298570052195 -0.2163306075740366 0.140898337916307 0.12387757244125829 0.2431614798543583
-0.05425699427741861 -0.19944768535294516 0.0347328560713575 0.01054941057166756 -0.09872383972447071 0.12841792205436647 0.11275158695041525 0.011391161698309869
0.010187253636838969 0.0336844262530663 0.028167046176170014 -0.07278782725866831 0.062066014682616646 0.2554539809989421 -0.10433639464212971 -0.19313444496329796
-0.1781222996334346 -0.20508249300809836 0.11625827572853559 0.06353352072044394 0.12252261027844857 -0.2325550122461172 -0.13021745951841845 0.24800060370717106
-0.16620405445540593 0.2559409947874112 0.03313468729564354 -0.2415254551320358 0.07936709745756432 0.18896857472982853 0.0222940996168356 0.2515784693130622
0.061821529009982064 -0.1012358538407012 0.013520220323818858 -0.20194304053998344 0.14443912348676696 0.17652970958857406 -0.25875936598417393 -0.2665881041578411
-0.1261455181870816 -0.013457525195866335 -0.03352422167840822 -0.003298495385886443 -0.10838602546050972 -0.2485409564124893 0.23061375314751698 -0.1834762122720617
-0.22505222822480916 0.01837456198927725 -0.016981697576399554 -0.2689401505369978 -0.14799156875430194 0.05283833385186527 -0.18069864765226168 0.015058319934921993
-0.23732878215535236 0.13574192528255594 0.07415307637729751 0.21619224736022022 -0.03734131838739564 -0.017446363828304806 0.22696866890551778 0.21745954172669246
0.14483978268335948 -0.18249858015264767 -0.11425708708283702 0.1853177731532845 -0.24104137030252912 0.10828672980414994 -0.07899289664983461 -0.13446182288535324
0.1402950059004548 -0.12163767443250563 0.0021474202402911114 0.0994136367667737 -0.25193508306451795 0.12221156564670942 0.26053254345012306 0.2046599845484237
0.24671101971235138 -0.01779025392143188 -0.09509582782486235 0.24204899537775976 -0.11965375360202596 0.1533070359114887 -0.12616475491463278 0.1691213397987956
-0.15102219301155412 -0.09119770869133827 -0.24355716347798456 -0.0156559557125482 0.062456784687142344 0.23062477337749065 -0.07439455676138798 -0.06693840210519389
0.18360104525996496 -0.17192190292426 -0.18249261915197945 0.19481246148234166 -0.22088152579416195 -0.2336241171169864 0.22504900803379982 0.023233055945633477
-0.1784100122197208 0.17147022581017515 0.047145025407955996 0.25973954547998424 -0.0016227079406450405 0.0942958144963937 0.10977363440068359 -0.08181728060042641
0.11148133799392342 -0.15584237269412957 0.15506328597317293 -0.20732186323257074 0.21804565927308422 0.19573756213879148 0.060153531026736956 0.11595092123502322
0.14387591922330542 0.1383382664911785 0.05926266644737221 0.24503112752466943 0.034200346043473995 0.07484441724499989 0.15996941680681942 0.15072981476821093
-0.21969919633243906 -0.03781266039866659 -0.026433627655737375 0.16904193626547603 -0.17273755365733595 -0.017340014926437084 -0.10583028207335946 -0.17393856854805648
-0.11919237191588933 -0.03000885650966467 0.2390188648101085 0.019457298933969223 0.0035609895511517775 -0.1652415572945381 0.24018780765602185 0.09331867107246815
0.04209340506695482 0.15970683062222177 -0.0644891834666835 0.006119493991716015 0.21277500255832132 -0.03659317485103625 0.002757076564525037 -0.07876657180032684
-0.0711131854073297 -0.15689167493673256 -0.02291625304918583 0.016253670309569486 -0.0312733413045508 -0.1686409129425962 -0.12209806558372416 -0.1675768258676339
0.02446112551102703 0.13038614761654008 -0.10008683668707953 0.08293366881546192 0.06941869386428277 0.03425165840971899 -0.00467845952247906 -0.20258835822609184
-0.26817982522531525 0.21260030681407358 -0.05573333108457705 0.06860696037068467 0.12513126478089193 0.04914299479782783 -0.19513349620137685 -0.11348612991510527
0.05091011673339535 -0.01599927986637319 -0.22395014528747445 0.10240262522916349 -0.2445346206710077 -0.03734805572978091 0.006868929245456269 0.06557635322014345
0.000830878385942848 0.10429936697478838 0.2500922754147885 -0.15247061683838617 -0.1820529381915829 -0.042486277270861385 0.17840204353468617 -0.27245997400757166
-0.06045112419638287 -0.24676786885965382 0.09486061724628818 -0.26927552867225585 0.08473559195563207 -0.005272022375777828 -0.24660003896179503 0.1716305121787583
-0.11908501042319682 0.09639235303518036 -0.11284219987510519 -0.18593198391496085 -0.11705616763461064 0.23067048491607728 0.26103643532651166 -0.00679316858017087
-0.25806253856186345 0.10481565357817937 -0.2115401235702062 -0.11968209233308855 0.22824316202665848 -0.09200215157534539 0.19009703378670206 0.13585132011864892

net.1.layer.bias f8 [40]
00000000: e09d b9d2 4d62 503f 0b0c b9d2 4d62 503f
00000010: 35c2 a9d2 4d62 503f 10a2 bed2 4d62 503f
00000020: 85dd 75d2 4d62 503f b9b8 c9d2 4d62 50bf
00000030: 655c dbd2 4d62 50bf 0ea2 7fd2 4d62 503f
00000040: dcb0 bcd2 4d62 50bf 5ebd ccd2 4d62 503f
00000050: 8bd1 d0d2 4d62 50bf d670 c9d2 4d62 503f
00000060: aa7f c8d2 4d62 503f 4f62 8fd1 4d62 503f
00000070: 90bf 6bd2 4d62 503f 8eb5 d8d2 4d62 50bf
00000080: 8a48 a8d2 4d62 50bf 1b14 4ed2 4d62 503f
00000090: cb9f eed1 4d62 503f beb8 ccd1 4d62 503f
000000a0: bd8f e8d1 4d62 503f 19c4 b0cf 4d62 50bf
000000b0: 55c9 ded2 4d62 50bf 4503 66d2 4d62 50bf
000000c0: 7826 d7d2 4d62 503f 4377 69d2 4d62 50bf
000000d0: 9c24 b8ce 4d62 50bf b7b7 a8d0 4d62 50bf
000000e0: 9af4 c7d2 4d62 50bf 9ca2 aed2 4d62 503f
000000f0: 874b 96d2 4d62 503f 99e9 bbd2 4d62 503f
00000100: 8319 8cd2 4d62 503f f90d a8d2 4d62 503f
00000110: 2593 b7d2 4d62 503f 2c5b 15d2 4d62 503f
00000120: ed5d 76d2 4d62 503f e860 d7d2 4d62 503f
00000130: 2328 6ed2 4d62 50bf 4e61 8bd2 4d62 50bf
0.00099999999920352 0.0009999999991954246 0.0009999999989781631 0.0009999999992748067 0.0009999999982407148 -0.000999999999432384 -0.0009999999996830541 0.0009999999983795224
-0.0009999999992472064 0.0009999999994752744 -0.0009999999995332378 0.0009999999994283935 0.0009999999994150057 0.0009999999949653786 0.0009999999980969433 -0.000999999999645371
-0.0009999999989571983 0.0009999999976753108 0.000999999996318823 0.0009999999958370388 0.0009999999962326666 -0.0009999999881638076 -0.000999999999731734 -0.0009999999980154367
0.0009999999996232172 -0.000999999998064508 -0.0009999999846306623 -0.0009999999916874122 -0.0009999999994072862 0.0009999999990474634 0.0009999999987015688 0.0009999999992361451
0.0009999999985566839 0.0009999999989539472 0.0009999999991745026 0.000999999996869237 0.0009999999982478428 0.0009999999996264611 -0.00099999999813117 -0.0009999999985464583

net.2.layer.weight f8 [40, 40]
00000000: 6be6 02c1 23b3 c2bf 9490 73fd 18cc cbbf
00000010: f389 de64 a552 c5bf 335c bb06 10d8 c93f
00000020: cb4f aa7f 1ee1 abbf 4221 415d c9c1 cbbf
00000030: 54e2 dcdb b818 c8bf 583f 391a 9522 923f
00000040: bf0d f540 eb5d cabf f88d ce08 3785 c93f
00000050: 4d64 5a12 ddc1 d0bf 3551 73e7 baa1 c2bf
00000060: 1933 73d2 37ce c1bf c7b7 1475 8c6f b3bf
00000070: 1b57 8a92 d95e c3bf bff9 b325 94f7 c43f
00000080: 55f1 6ffe 94e5 c7bf e4b8 0a08 a078 d13f
00000090: a6ee dafd 60bb c03f 2608 97fd 9d61 cc3f
000000a0: 0b88 2fd9 4132 c43f f0a2 1748 0f71 a6bf
000000b0: 1ac8 43f7 dc4b c1bf 2a16 d4db faba c23f
000000c0: 14ff c253 b6a7 be3f 14a7 d211 79be c3bf
000000d0: 8c42 2fc0 3484 cd3f 69ae f5a7 ca0a c6bf
000000e0: 305c 7a9d 712c c7bf 788f b673 ba28 c73f
000000f0: 0c5b 75ee 6b96 6e3f 2d64 98a9 1952 b23f
00000100: eee1 dd89 c2c1 bbbf 024d 3b96 93a7 babf
00000110: 1853 bc62 a231 993f baec 7d35 2735 cf3f
00000120: 380c 90fb 65bf d03f e01e 841e 3a67 74bf
00000130: c644 ffc5 5ca9 6e3f 220f 0b23 bee3 d03f
00000140: a6e4 082c 5565 d13f c6cd bd9d e8e3 a5bf
00000150: 2ff3 8578 e2a5 babf cfd9 737f 4892 80bf
00000160: 1cd8 9392 2208 c63f 686a dfd2 87d2 c7bf
00000170: ba34 90d6 9111 b03f 16c2 a291 c7a5 c23f
00000180: 006e 603a ad1d c73f 1630 30fb 0226 843f
00000190: f90e cc5b fe09 c03f d77c f896 d952 c7bf
000001a0: 64ee e82d b838 ca3f f31a ea8f c9b2 c73f
000001b0: 32f3 2305 aac9 c53f 4ec6 1ba4 73b7 b8bf
000001c0: 95b5 7b50 63fc c53f f6d7 5a4e be15 c3bf
000001d0: cd84 e0f5 0e3c a9bf c48b 8017 9a8f b9bf
000001e0: 3fb9 fa33 16d4 ca3f fcc4 bd61 e794 c33f
000001f0: 0a73 b869 45c6 c83f f3fc 4da4 2552 8dbf
00000200: ee2e 7a13 28dc b7bf a055 f3da 88ff c2bf
00000210: 1ff9 edec e3e6 a4bf 2d7d 82a5 6f0e d1bf
00000220: 29e0 b07c 3972 d03f db29 bb1c 6338 a3bf
00000230: 95e4 b120 b4cb c23f 81af 8bf9 c0b4 abbf
00000240: 9b37 8629 9049 d1bf 6f3a d6d7 2911 d03f
00000250: b170 51f0 2c41 ba3f f8ee a217 8485 c13f
00000260: 3850 e078 29e7 953f 75d5 0037 9565 4bbf
00000270: e7f8 3bd2 2b89 bc3f fd8b a4a7 234e c93f
00000280: 8c1d 5189 5631 c43f 32f6 7b4b adb7 c5bf
00000290: 0cb1 dbb8 a162 c0bf e6fd c85e 993e c5bf
000002a0: f6c6 a459 9c4d b0bf 4e20 fe32 7ee0 aebf
000002b0: 81aa 749b 063c cf3f 243c 47e9 2e91 a33f
000002c0: d20f eb97 5f29 a2bf fe96 1076 88ac abbf
000002d0: ea49 03bd 4fcc c33f a16e ab37 2105 cfbf
000002e0: 42ee 607c 0607 cc3f bdfa e555 e4b0 a7bf
000002f0: f2d2 2e7f b7dd bf3f 1ff9 ef1b 4ce5 cf3f
00000300: ca33 d225 ac7c c93f f37f a09c 323d aa3f
00000310: db72 f6cf 8722 cbbf fbf9 3c63 ee42 ca3f
00000320: c2c3 b4ab ddca d0bf 6fcd 666a a7a5 babf
00000330: f300 99ce 9f98 cbbf 20db ee6f 815c a33f
00000340: 1910 d6fc d796 c43f 19f0 fc5b 7ad0 c03f
00000350: 9b3a 0212 73cf 8c3f 74d5 1dbd c514 913f
00000360: 3e68 17d3 c2fa c9bf 9053 c52d f368 c9bf
00000370: d3dc ca87 6b88 493f 87fb 989c 4f97 b7bf
00000380: 9820 bce6 df05 d1bf 10bb 63aa eb53 643f
00000390: 31dc e991 2372 64bf b38f 8d5a 16a3 c53f
000003a0: e432 6749 dac9 c7bf b587 649c 98fd a5bf
000003b0: 0713 b362 e148 d13f 6ce7 005e e5e2 c73f
000003c0: 8e84 7b9b 0c6e cf3f 2b62 8e0a d432 93bf
000003d0: 983e 28d0 0866 bf3f 9108 30f6 5751 ca3f
000003e0: 7f29 cb64 6858 b3bf 6a97 e75a 2bcf b3bf
000003f0: 8f6d ee40 2c6d babf 5d3b 5321 0340 97bf
00000400: 7063 d345 2a2b c0bf 896e 71db fd6d c5bf
00000410: 050a 95b2 8c97 acbf fe2d 71b6 bbf0 cebf
00000420: d273 e478 71a8 d03f 24a8 294b 479a 9a3f
00000430: 9606 48ad d220 c3bf 13a4 3bb3 6a48 c33f
00000440: 20ae 064f 335e c93f cc22 2439 36d8 b4bf
00000450: 8737 4ee1 9285 c33f eb23 3149 e944 933f
00000460: b07a 667a cc11 cbbf fcc9 b18d 90e8 cc3f
00000470: c696 e920 9d72 cdbf 4fda f45d f197 723f
00000480: 5744 654c a7f6 ca3f 8942 694d 1468 a93f
00000490: adfa b836 95e8 b33f f6ee c7fa ca31 c13f
000004a0: cd28 0bd9 ce3e cbbf 3e79 c342 d778 cbbf
000004b0: 3a85 a55d bd95 d1bf e300 7315 d79a a33f
000004c0: 14b9 5747 f564 c1bf 526d 9918 4b0b c0bf
000004d0: ddb6 53ea e031 92bf 8c62 5e96 0453 3a3f
000004e0: 1cb3 0f05 ff4b b6bf 6082 4686 be47 d13f
000004f0: 1452 97b0 13eb c0bf c135 317d c93c 6ebf
00000500: 3d26 39ad 9bc2 c0bf 339a 1fec f4d9 d0bf
00000510: 64cb 4978 a705 a43f d4a9 d666 7729 b73f
00000520: 6f38 2ca2 3aa8 b1bf 1f69 e3e6 12c6 ab3f
00000530: 486c 86b9 4f40 ba3f f47c 376f a4a0 a5bf
00000540: 7240 1847 73ef cebf 8b75 a049 de87 cbbf
00000550: 24b9 5af5 8855 c4bf 9c9b 4891 e5da c23f
00000560: 57ac f854 42b6 b53f bb95 35d6 7781 d1bf
00000570: 7726 8162 89af b83f 4162 75e2 07a4 aa3f
00000580: 0f44 cdc2 863a c73f 592b 3f55 9b1c b8bf
00000590: b081 24c3 5772 b43f 6011 9761 b14d babf
000005a0: 655a a431 4388 b0bf bddc b056 818b 703f
000005b0: 26d5 4d35 1ad5 ca3f 766a 23a7 3737 b43f
000005c0: 5b7e 25eb a978 d0bf ae99 dcd0 4cac c4bf
000005d0: 002b 6df2 265f b7bf b521 461b 4176 d0bf
000005e0: eff0 633c 802e b1bf 975d 5a60 afa8 9d3f
000005f0: 24d7 81dd 4b55 d1bf 6a44 74e1 7db9 c43f
00000600: 61cd 4259 47ff c9bf b64d dcc6 76e8 cbbf
00000610: ac6c 75fb 7898 af3f c753 2e63 0780 c9bf
00000620: c57e 9d90 bde9 a53f 5a5a 0484 dba9 bebf
00000630: 525b 1bc3 007f ce3f 69fc bd1d a52e cc3f
00000640: 9631 4cd9 ca05 ac3f fd79 2c0e 41bb c9bf
00000650: 7793 9399 8b86 c83f 47e4 3f50 70f2 813f
00000660: b92b 7ded 3a00 a13f dc63 4bfc e111 a63f
00000670: 71fb 46c2 6467 cfbf 3230 aaaf d327 b7bf
00000680: b673 2fbf 7bf6 acbf 1425 9a10 b094 c93f
00000690: 3c6a bc8b 7f13 bebf f59b a698 c7fb b23f
000006a0: 7192 f86f 0b0c cfbf 0900 33f5 6d60 d03f
000006b0: 66b0 7d9e 2fe5 7f3f 40e3 24d1 4528 923f
000006c0: 22be 7c10 4bab ca3f e519 3ad1 b656 b83f
000006d0: 77c3 9cc5 2d12 c4bf fd6b e190 130c d0bf
000006e0: b7ea ba0a a7aa c7bf d814 7cba 66d8 a8bf
000006f0: 23c6 6968 3bda babf 6484 c469 c5de cdbf
00000700: d9c6 7b7a 3730 cfbf a0b1 e7a1 2c02 abbf
00000710: 4e4f 6c11 2447 babf 6cf9 f9c5 0612 d03f
00000720: dc8b ecdc 4a6d 6fbf 8390 0099 9350 c73f
00000730: e6c3 2803 14ba bd3f 6147 83bf 86fd b03f
00000740: 3cd9 b79a 8bf9 7d3f ffe7 9a5b 7c82 d0bf
00000750: cfa0 77d0 75ec c63f 0ffb b283 2397 c1bf
00000760: b0dc aa1c 1d5a bc3f 4477 47dc a27f a3bf
00000770: 5f5b c3ff d3d9 b73f 9145 ef5b 91f2 b03f
00000780: 92d2 c212 937e b8bf 4bf4 4b37 4d4b 74bf
00000790: b56c c94d c336 c93f e083 536b cf45 c3bf
000007a0: 8385 b65b d772 c53f 8dde 80b9 e99a b93f
000007b0: 1dd1 c9de 5333 bf3f 6f29 db1f bb67 c8bf
000007c0: a29a d708 eec2 cabf 88d5 b458 0d4a 933f
000007d0: e569 aef3 4156 bebf a158 98ea f411 c0bf
000007e0: 304f ed58 9922 a2bf 2214 26c1 996a c3bf
000007f0: a6a7 e724 e942 d13f ed21 ba88 0b00 b0bf
-0.14609190868741292 -0.21716606498296598 -0.16658465790995045 0.20190620735840667 -0.05445189770139754 -0.21685139707029505 -0.1882544587658851 0.017710046506464877
-0.2059911791967419 0.19937789850256116 -0.26183249275488124 -0.1455606107834996 -0.13910577560309248 -0.07592084749623416 -0.15133208899776993 0.1638055023285698
-0.18669378684706808 0.2729873732122441 0.13071834941171295 0.22172903902361546 0.1577837286450293 -0.04383132700951886 -0.13512765954470823 0.14633117421924285
0.11974658532107824 -0.15425027246720246 0.23059710868848915 -0.1722043342700659 -0.18104381741861308 0.18093042993597996 0.003733835986774797 0.07156525030622225
-0.1084252916897481 -0.1041195146347498 0.02460340240129985 0.24380960571202143 0.2616820294062481 -0.004981257465494798 0.0037428676587088787 0.2639003126353022
0.27180985737102004 -0.042754430060906 -0.10409369890653573 -0.008091513051550784 0.17212326199631967 -0.1861123828556004 0.06276809204446723 0.1456841908561876
0.18059316015647653 0.009838126459747836 0.12530498010902827 -0.18221588012327203 0.20485594026273468 0.1851436569888488 0.1702168011760477 -0.0965492511420731
0.17176476888509443 -0.1491010553924636 -0.049286334528241584 -0.09984744142324958 0.20959737337165937 0.15298168442271975 0.19355075513967562 -0.014316839291267125
-0.09320307231444833 -0.14842329684203737 -0.04082405345160311 -0.2665061107927212 0.2569717137989778 -0.0375395748684075 0.14684154125624063 -0.05411341711246021
-0.27011493735414555 0.25104757383170456 0.10255699984685653 0.13688708452342957 0.021389625551890584 -0.0008360842312017796 0.11146806605026748 0.1976971214836282
0.1577556772701708 -0.16966787515404885 -0.1280100014331612 -0.16597287300281421 -0.06368424595418873 -0.06030649540395015 0.2440193423329511 0.03821703527102496
-0.03547190408201541 -0.054050697719771876 0.15467259148733997 -0.24234404772038423 0.21896439622092784 -0.046271453366889294 0.12447687964488433 0.2491850983059942
0.19911720129712612 0.0512481514163027 -0.21199128775051332 0.2051675781785461 -0.2623819519822598 -0.10409017894453652 -0.21559522235657588 0.03781513682718285
0.16085338445202593 0.13136224261859367 0.014067553507883182 0.01668080298209902 -0.20296511943053192 -0.19851531729605343 0.0007792019892666431 -0.09215257237609197
-0.265983558012985 0.0024814226954882404 -0.002495831940275938 0.16903953000575953 -0.18584755500923855 -0.042950409975915184 0.27007326735137877 0.1866118153573625
0.2455459365074017 -0.018748582023905207 0.12265067178690925 0.20560740967636496 -0.07556774578839585 -0.07737990350105198 -0.10322834573019278 -0.022705124768261132
-0.12631729516467827 -0.16741917815203447 -0.055843731689055466 -0.24172159584337288 0.2602809601392525 0.02597915073639724 -0.1494391771412224 0.150647485271549
0.19818726881690996 -0.08142413039252999 0.15251384736296478 0.018817563144953125 -0.21148067452027908 0.22584731024433313 -0.2300602350907665 0.004539435233985658
0.21065226774456633 0.0496221870895442 0.0777676828956639 0.1343320583836129 -0.2128542480261956 -0.2146252704614628 -0.2747643866078594 0.03829071175414513
-0.13589349730995848 -0.12534464551104435 -0.01776839666575013 0.00040167676922346 -0.08709710954253719 0.27000392067751555 -0.13217397806751363 -0.0036910949070605163
-0.13093896825948717 -0.26330302294664704 0.039105637963891465 0.09047647724825164 -0.0689732213906795 0.05424555843792888 0.10254381446286331 -0.04224122865320537
-0.2416824433462384 -0.21508387179430274 -0.15886032085604385 0.1473051986115167 0.0848123032998712 -0.27352710646513473 0.09642847685713628 0.05203270568262442
0.18147358428771596 -0.09418650466174706 0.07986973299239852 -0.1027479995019056 -0.06457920038187977 0.0040392925539471354 0.20962836840377824 0.07896755056882818
-0.25736473048707403 -0.16150818060232325 -0.09129565638174242 -0.25721767104598864 -0.06711579775214081 0.028963794952316126 -0.2708310759693282 0.16191075809959737
-0.20310298784680028 -0.21803173742283172 0.06171014852108078 -0.19921963064976309 0.04279892340013939 -0.11977931950637224 0.2382508232755876 0.2201734919762857
0.05473169233855228 -0.20102704231335614 0.19160599707461376 0.008763196419737563 0.033204881182050845 0.04310518460051302 -0.24534282194323567 -0.09045146025363307
-0.056568018997246325 0.19985009012842936 -0.11748501931689587 0.07415435292078583 -0.24255507438023785 0.25588559098469027 0.007786928188448261 0.017731753244535797
0.20835245423357757 0.09507315261917133 -0.1568047728447046 -0.2507370867585335 -0.18489540122921763 -0.0485260107653091 -0.10489245700025455 -0.2333609358256893
-0.24365895729675094 -0.052750963939476536 -0.10264802384727753 0.25110024770392303 -0.0038362943809189098 0.18214650126276774 0.1161205775940882 0.06636850524526273
0.007318063096582169 -0.2579642195302085 0.17909119299952755 -0.1374248879492019 0.11075002622497965 -0.03808316172556528 0.09316754335610032 0.06620129103182239
-0.09568137367279864 -0.004954625725756288 0.1969837312525208 -0.1505679391912329 0.1675671766106853 0.10002003458873272 0.1218769472996581 -0.19066561751817399
-0.20907378608463484 0.018837173976142846 -0.1185036868977601 -0.12554799513663276 -0.035420219521851926 -0.15169069224444437 0.2697089062117989 -0.06250068748534661

net.2.layer.bias f8 [40]
00000000: 3a7e 92d2 4d62 50bf f747 afd2 4d62 503f
00000010: 671d cbd2 4d62 50bf c076 82d2 4d62 503f
00000020: 0c76 c7d2 4d62 50bf d9e0 d9d2 4d62 503f
00000030: 0e22 d7d2 4d62 50bf ceb6 c7d2 4d62 503f
00000040: 25f4 d1d2 4d62 50bf 469d c6d2 4d62 503f
00000050: ceb4 52d2 4d62 50bf 0b1e acd2 4d62 503f
00000060: f6a5 dbd2 4d62 50bf af14 d3d2 4d62 503f
00000070: fcd9 d3d2 4d62 503f b806 a2d2 4d62 50bf
00000080: 07ee dbd2 4d62 50bf 06e5 64d2 4d62 503f
00000090: a3b9 b7d2 4d62 50bf b58d bed2 4d62 50bf
000000a0: b06d 9ad2 4d62 503f e7ae 82d2 4d62 503f
000000b0: d932 ced2 4d62 50bf 0072 ced2 4d62 503f
000000c0: f2fa 13d2 4d62 50bf 63b2 d8d2 4d62 503f
000000d0: edd8 c7d2 4d62 50bf fa16 bad2 4d62 503f
000000e0: d6ae ccd2 4d62 50bf 06c4 b9d2 4d62 503f
000000f0: 2aa3 d4d1 4d62 503f 2ad4 abd2 4d62 50bf
00000100: 55f9 d2d2 4d62 50bf 5c2d d5d2 4d62 503f
00000110: 50f4 95d2 4d62 50bf 5241 d2d2 4d62 50bf
00000120: bbb1 a6d2 4d62 503f 68db dcd2 4d62 50bf
00000130: b2b4 dcd2 4d62 50bf 7325 c1d2 4d62 50bf
-0.0009999999986475398 0.0009999999990566424 -0.0009999999994521837 0.000999999998419751 -0.000999999999400261 0.000999999999661985 -0.0009999999996229722 0.0009999999994038558
-0.0009999999995493694 0.0009999999993882277 -0.0009999999977410748 0.0009999999990116827 -0.0009999999996871379 0.0009999999995653865 0.000999999999576339 -0.0009999999988682794
-0.0009999999996911384 0.0009999999979995468 -0.0009999999991766393 -0.0009999999992736767 0.0009999999987603085 0.0009999999984228681 -0.0009999999994960067 0.0009999999994995123
-0.0009999999968496845 0.000999999999645195 -0.00099999999940575 0.0009999999992102424 -0.0009999999994744677 0.0009999999992056376 0.0009999999959495278 -0.0009999999990075816
-0.0009999999995638682 0.000999999999595178 -0.0009999999986967274 -0.0009999999995536535 0.000999999998934616 -0.0009999999997043155 -0.0009999999997021666 -0.0009999999993105218

net.3.layer.weight f8 [3, 40]
00000000: 5da7 69bb f1a9 c2bf 2d9e b048 0225 d3bf
00000010: b8e2 1581 87ff d63f 1ab4 c64f e5d4 ce3f
00000020: f997 a714 d1ba 9b3f ce29 22eb eed5 bb3f
00000030: 3acc 0092 ab74 d63f 36bc d84d 835e c2bf
00000040: 0c0c fa54 fa5f d03f 12b0 3b21 8af7 d0bf
00000050: 3438 6ee0 22d9 d6bf 202a 0392 f2d2 c8bf
00000060: d0bf 59b5 cb6c cbbf 0be2 1ce0 dbd9 c9bf
00000070: 9e94 336e c31f cdbf 5a60 b610 3e26 c1bf
00000080: 3188 4ef3 7181 b63f 6a30 881e 58a1 c13f
00000090: 16b3 eeff 2cb8 c13f ec43 c241 b073 abbf
000000a0: 1bf8 866d a269 bbbf b522 3054 073a 98bf
000000b0: 2c3e 9d4e d16b d13f 798a 0a52 3d63 b1bf
000000c0: a43f 4f79 9c53 d03f 042a c09a 607f cb3f
000000d0: ded1 8d22 c728 cb3f 38a9 4f1e 68e8 cabf
000000e0: 7626 6aeb 0c51 d1bf f243 4d5b f481 d73f
000000f0: f16d 1056 3d17 d5bf d717 7914 7604 c13f
00000100: 840e 963d 228a b3bf 05f8 6664 30f0 883f
00000110: cabc 8a99 1322 d0bf ff83 49c3 fb7c d3bf
00000120: 9b0e 1a70 a8a1 b7bf 8b51 46b1 77ec ca3f
00000130: 1005 ce27 2cca c73f 4f32 0931 29d8 d4bf
00000140: 08a9 cad2 9853 d2bf 9cb3 b81b ad10 d23f
00000150: 631f d82a eb04 993f f327 7f15 88aa c4bf
00000160: e357 fa4f 23bf c93f b03a 2295 f60f d33f
00000170: f074 6c91 dc24 91bf 789f 9a54 d8b2 bb3f
00000180: c6eb 3e76 5bcc d43f 16a4 30bc 8888 c93f
00000190: c2ea 6d0a c2e9 d3bf 3961 0559 8b2d c2bf
000001a0: 2e31 5539 58fe c2bf 6a12 7ac6 a7ba d23f
000001b0: 2c7c 596e cfe6 6fbf 0716 ea6b 144a c23f
000001c0: d24b 7f89 2392 cebf 8b4e 4f66 5bd2 c43f
000001d0: 3706 d103 a6a7 c43f 2b89 fe70 a686 d53f
000001e0: fcc2 49cb 5c6d c93f 1e10 4838 07a2 d13f
000001f0: edd8 e8dd de82 b2bf 62da 1291 0c91 d1bf
00000200: aa66 b8a9 32c9 ca3f c3d1 a80c 6707 d53f
00000210: c688 8326 6c76 903f f8b5 0c53 9810 703f
00000220: 8968 1811 2e51 d3bf 6feb 1d33 a9b8 d7bf
00000230: 44bd 6a3b 91e8 d23f 7921 277b 4788 d7bf
00000240: 8e58 47bd ad15 cbbf 023a 38d4 9638 babf
00000250: f497 fa9d 0cac a9bf a523 990d f51b be3f
00000260: 3670 4734 481b b73f 2aef 288a e65a c6bf
00000270: 043b 8875 03e1 cbbf 8143 1528 cfe6 c6bf
00000280: ad25 eb11 1f96 8dbf 5f81 e09d eba6 953f
00000290: 511a 3ba2 f78e c9bf 92f5 0917 5867 c23f
000002a0: 7aee 222c 7b35 d0bf 9ecc 6547 1335 d13f
000002b0: 01d9 76eb a44c d2bf a8a8 f8e1 633b c43f
000002c0: e952 f163 b6b0 d5bf 5c4a a0c5 0b46 be3f
000002d0: bb73 f0fc 7bf4 8b3f f60a 4a9c e6ca c23f
000002e0: c972 9bcc a1dc d6bf 58f5 e53a d8e9 c53f
000002f0: 0b70 c3d7 090b d13f 6525 8646 8720 c4bf
00000300: 6e6a 7e36 51c8 d3bf 6b9f 30c6 c369 943f
00000310: 866b e996 e511 c7bf 0e1c 7b03 560c d1bf
00000320: 2833 66c9 7d32 a03f 3d72 ed68 de2b 80bf
00000330: c6d2 1851 bf17 c9bf 694e 6911 5408 d43f
00000340: d30d a3fc 2826 b5bf e801 dd3c a007 d03f
00000350: a6b4 c74d 597c c8bf c29a b40c 2d58 c13f
00000360: 9186 98b5 5dee c3bf 86a6 8f86 e31e d23f
00000370: d21a cb17 62c3 b4bf 08af 48b2 f0d1 6dbf
00000380: df3c 0416 850b ccbf 11ac 2631 ae94 d43f
00000390: 3a54 b0d5 86cf b8bf 769c 4d31 e2c5 d4bf
000003a0: 0a94 446c ee5d b43f ba66 2b2f d6e6 d5bf
000003b0: 545a 03fb 377f d4bf cd3d a15b 98da c1bf
-0.14581128741275054 -0.29913384531616566 0.35934627157216026 0.24087206263848843 0.027079836736355365 0.10873311272204164 0.3508709836780245 -0.1435093050108393
0.25585802362928756 -0.26510861630845384 -0.35700294415517253 -0.19393760804662552 -0.21425768237122478 -0.2019610256482028 -0.22753184204990345 -0.13397956672702344
0.08791267576319296 0.13773633471317065 0.13843309876156046 -0.05361700823517154 -0.10708060430531001 -0.023658861649922886 0.27220566441698923 -0.06792052510221848
0.2551032242454261 0.21482474857505462 0.21218194186407308 -0.21021749000585443 -0.27057192792617657 0.367306794320995 -0.32954343228058663 0.13294864654215985
-0.0763265037876924 0.012176874221832898 -0.2520798682625808 -0.3045033843137048 -0.0923104547201156 0.21034141689291305 0.18585731452552823 -0.32569341458000606
-0.2863523539077879 0.2822678347318346 0.024432825555805403 -0.16145421075481145 0.2011455669896228 0.2978493172057979 -0.016742178321796197 0.10819770875479928
0.3249729780906673 0.1994791907211783 -0.31114245432369725 -0.14201490256051288 -0.1483869819588874 0.29264253981117483 -0.003894238604331265 0.1428857352185988
-0.23883480275853103 0.16266958709330867 0.16136622606613724 0.3363433936557551 0.19864997793367667 0.2755144166587814 -0.07230942647661083 -0.27447809378955956
0.20926507269978362 0.3285768149974297 0.01607674584455123 0.003922076241719356 -0.30182983083216947 -0.37064580909616657 0.295444782280317 -0.36769282366414974
-0.21159908048747805 -0.10242598229545055 -0.05014075687840594 0.11761409360873516 0.09026004101127758 -0.17464906450356327 -0.21780436743616616 -0.17891873795681693
-0.014446490034418636 0.021144563208623676 -0.19967551633290495 0.14377881169268086 -0.253264229871753 0.26886445972849937 -0.285927991815143 0.15806244405513792
-0.3389106727602625 0.11825631689888766 0.013649910599321182 0.1468170416956906 -0.3572163103215585 0.17119887233631448 0.26629873343131355 -0.15724268859438975
-0.30910139390622404 0.019934710475495814 -0.18023366802921376 -0.26637792911464053 0.03163521846281575 -0.007896173073896335 -0.19603721103489685 0.31300832462623035
-0.08261352699178497 0.25046544974978113 -0.19129482553345162 0.13550341720948295 -0.15571185461981377 0.28313530102477846 -0.081106310662203 -0.0036401463605865193
-0.21910155844714205 0.32157473373325823 -0.0969166061116348 -0.3245778542972809 0.07955827849635014 -0.34221415144348166 -0.3202648116397644 -0.13948349451173528

net.3.layer.bias f8 [3]
00000000: 70f5 75d2 4d62 50bf 264e d5d2 4d62 503f
00000010: ee5a e9d2 4d62 503f
-0.0009999999982420425 0.0009999999995969982 0.0009999999998819248
