6_Steady_ns/logs/models/2024-01-02-16-09-46_2d_steady_ns_rbf128_100X5/epoch_8000.pt (torch, 441771 bytes, 14 tensors)

rbf_layers.0.centres f8 [128, 2]
0.024084856863229576 0.2789794734992281 0.3828354058582864 1.1889471376188157 -0.06953626100878774 -0.7271987857148899 -0.23206546614983747 -0.6143745713899476
0.8760281080899797 -0.638920814998363 -1.0793535385499544 0.34899406059963706 -1.2306480269299962 -0.7183190377326792 1.0236218598163538 0.9194719726276854
1.1031441226619538 0.9163090972322283 -1.762239120731428 -0.6949020781391823 0.43216746054025523 -0.9164613293425062 1.114188632321696 -0.38168194305217124
0.6128535291981148 0.17711323177939975 0.16201655288631767 1.3615235144929607 -0.5980123479150343 0.3197940835950671 -0.17340334799983373 1.123396487598316
-1.852919411733697 -0.9899316183714104 0.7444909488034749 1.6232720493725776 0.35880463252254935 0.028690057031481593 -0.1351941819020694 0.28846745291392367
0.5482308004605269 0.816954936715044 -0.019435548886448543 2.1915283666187175 -0.5191266327309588 0.48995988195014817 -1.2561148141597038 -0.8632815495678362
0.7842827261983656 0.11701891883249069 -0.39576822293784897 1.2691160963296146 0.0951160832769953 1.1497113357910285 1.063191641608777 -0.10782464533026567
0.011999793344231966 -0.6172257294873859 -0.6246716526834107 -0.6521418617545562 0.06744828233832456 -1.5198477368550685 1.1584436350648104 -0.5123479008976567
2.2880528053792073 -0.3711956305138938 -2.490817599524528 0.3004726063096032 -1.9219484862895737 -1.0503669410321708 -0.22301793150196464 -0.6338110191899269
-1.7073158200110443 0.4394169141676544 1.1078440592119214 0.43796147468660124 -0.14294338232549236 0.3452295048267882 -0.8508472239873746 -1.5820562933726532
1.0681380241886604 -0.913932790698492 -1.2409704971877413 0.9828996022775959 0.29315974074204854 -1.7253867362140949 0.6953433576949335 -0.4490220315234847
-1.0585268505934438 -1.2354406612471638 0.2941041387229503 1.0355760003110002 -2.0014206078454344 -0.26084748671643304 -2.147104633988354 2.0946126232894593
1.0084697867623782 -1.1412966125666448 -0.5394004499498102 -0.8277676405325924 -0.49522782087127376 -0.19530082604780957 2.5693458305839543 -0.39431427486282916
0.17408465487303712 1.223937883985914 -2.374245653017234 2.457661386999795 -0.42854195566432923 1.0792205668000372 1.0522143960733896 -0.46295009816397414
0.08917569948234114 -1.8406106786277272 -0.1785612777696229 1.0698661817905053 0.07231425745700568 2.0936080332756326 -1.7856295389172065 -1.289063781806902
1.1634046999680445 1.946423577422654 -0.9395063155806652 0.4181941329975925 1.587902554599604 0.6093809233519938 0.3165822306853515 -2.002383645057868
0.391132873184985 -1.0776831460057477 -1.1238848538042616 0.4420833142338712 0.6736386163759298 -1.892171263064281 -0.7522259298136429 -1.1224572783070887
0.05529589375781537 -0.9321847414844441 1.8672615689714909 -0.475627937113875 1.500799187592667 -0.4269999134482459 1.0102722909283646 -0.4558075278133666
-1.2648843941881254 1.3676754447961592 -1.1327316190930399 -1.458643645151048 0.1276631856315699 -0.5442067502737297 1.118723794557568 1.5100778154814964
-0.1983557277478587 -2.343748690795805 -1.3236506820494995 -0.06063723693055362 -1.2939751896889848 -0.7935019979159134 -1.3177179695695307 0.3909709889651702
0.7167657472758105 -0.32776682757717485 -0.25805494711332844 -0.641345979522752 -0.6892032911037196 -0.8591261416634032 -0.7787396135234325 0.3397383134228403
-0.583413332155777 0.4046437292483567 0.10998767028935832 -1.288254023753192 -1.5858939747301404 -1.3658399121287048 -0.7416928951846609 0.3693466901853545
1.0205688902354952 -1.3440873928353063 0.054968260851275146 -0.9595287440641643 1.175087588072885 -0.3054130514357613 -0.9900672805693913 -1.006813210572059
1.2706439101504006 -0.6968097301510607 -0.4454119924071694 -0.30646146263922364 -0.3108349439818299 0.2748598303667526 -0.10805005016876193 0.2883460839902843
0.7774397020190175 -0.2037783335804395 -0.6887688321357782 -0.1336484850973338 -1.0615582900759193 0.2842126449007107 0.48531791433624133 1.2345947186802746
0.05442542261793262 -1.1656086712237308 -0.005975748175237096 -0.5215671944618807 1.1008708685156086 -0.7302414263235874 0.7968340193324039 0.5660382121328252
1.372643233143824 0.36043765777045217 0.47475191849217624 0.24561228158590606 0.08488415638100451 -1.4167206773010088 1.666151598220154 -1.2138821845983787
-0.8247087890948391 0.32279030602270486 -0.23533063196122725 -0.7114586184522629 -2.9621463832067163 0.866895480900203 0.8542751709311993 0.35770168877338393
-0.6138345530662696 1.2877446845620188 1.300607284606501 1.5727999203497107 -0.45493766640656536 1.0762149508922745 -0.7793534302980357 1.6458818975351275
-0.893270837220702 -0.6303196824843571 -1.4200261776827048 1.316144382202514 -0.970040149890267 0.4598127960424417 -0.07911525429008714 1.5100855134287077
-1.0803140735698908 1.4718103229138093 -0.8300062192323555 0.6178688304990471 -0.4365507497474511 1.0541337150327579 0.4143475563433816 -0.8597934133221469
0.10522931286496402 1.870786122731399 0.8058200154734415 -0.08839114928717619 -0.10540287202679638 1.2270653637822357 1.3561237101679635 0.8737561428451305
00000000: 1dc4 3962 b3a9 983f 93ce bbb8 ccda d13f
00000010: ed61 fa12 6080 d83f 14ee 0b6f ed05 f33f
00000020: a03a ebde 20cd b1bf 7fc3 4a63 3645 e7bf
00000030: 8480 d239 52b4 cdbf 98a4 73dc f4a8 e3bf
00000040: 62f1 5319 6c08 ec3f 32da a410 0a72 e4bf
00000050: 894d 4e37 0845 f1bf 0784 312f eb55 d63f
00000060: f7d1 48fc bbb0 f3bf 57fe e434 78fc e6bf
00000070: 691c b650 c160 f03f d6c8 807c 506c ed3f
00000080: 28b9 9973 7aa6 f13f 7678 b474 6752 ed3f
00000090: 5a5f f4a5 2132 fcbf 99f7 7048 a33c e6bf
000000a0: ec9b 5ab5 a1a8 db3f 5964 b2b5 a653 edbf
000000b0: b158 9675 b7d3 f13f f57f b819 7a6d d8bf
000000c0: 569c 2401 7f9c e33f c837 1779 a5ab c63f
000000d0: 8458 075a f5bc c43f 4ab7 77e1 ccc8 f53f
000000e0: a0c6 9cca ea22 e3bf c6af 9f9a 8177 d43f
000000f0: 7d8d 56b6 1432 c6bf 0cd1 6a98 6ef9 f13f
00000100: 0c51 38d3 8ea5 fdbf 58cf c512 85ad efbf
00000110: 09ed a8ae ded2 e73f d20e c91c ecf8 f93f
00000120: 049c 95b4 a7f6 d63f b2ae ae22 ed60 9d3f
00000130: 967e f0fe 0a4e c1bf 3b72 0e31 4076 d23f
00000140: 6369 d451 1b8b e13f 4fe6 efad 7e24 ea3f
00000150: ae6f 639b e9e6 93bf cc11 3706 4088 0140
00000160: 7dfc c174 af9c e0bf 6efc 54b1 805b df3f
00000170: 8a64 edd8 0b19 f4bf 374a d4a0 00a0 ebbf
00000180: d8de 7a16 d818 e93f 7619 66ad f3f4 bd3f
00000190: 301a 943d 4454 d9bf 8f01 09ae 4c4e f43f
000001a0: 1291 ff12 8759 b83f cf01 b1b6 3765 f23f
000001b0: aa71 213d d502 f13f 4673 655d 659a bbbf
000001c0: 0523 c7ff 5893 883f f3bc 4c2c 50c0 e3bf
000001d0: c16e e067 4ffd e3bf f2d3 129c 58de e4bf
000001e0: a881 d066 4a44 b13f fa12 4bdc 4b51 f8bf
000001f0: b3cd 6d31 fc88 f23f 2df3 d06c 2765 e0bf
00000200: 7cff 14a1 ee4d 0240 e26a 5e51 abc1 d7bf
00000210: 9512 12c7 31ed 03c0 6b64 5c74 f13a d33f
00000220: e55d 530e 4dc0 febf 1486 c890 4dce f0bf
00000230: 167b 1c01 da8b ccbf 3a7c e80b 2e48 e4bf
00000240: f440 ae64 2a51 fbbf 3632 ea1e 681f dc3f
00000250: 2321 36b1 bab9 f13f e9f5 ab90 8f07 dc3f
00000260: 2e41 2200 f84b c2bf e119 367e 3d18 d63f
00000270: 9261 1df5 233a ebbf e576 8742 1a50 f9bf
00000280: d511 98e5 1717 f13f 5c58 d9fa ef3e edbf
00000290: 2b8e 4be1 03db f3bf eb13 e1dd e973 ef3f
000002a0: 846b bf12 21c3 d23f 12de 4f1f 2f9b fbbf
000002b0: 584c 99b6 4040 e63f 13eb 24e7 c6bc dcbf
000002c0: 9ac9 d3d9 b9ef f0bf 6e48 436d 5dc4 f3bf
000002d0: 7fbb 5b2a 9ad2 d23f 51bb dd23 b891 f03f
000002e0: 85e4 c1ce e802 00c0 4937 2ca8 b9b1 d0bf
000002f0: 6c8f c031 452d 01c0 3589 5643 c4c1 0040
00000300: 4a60 1237 b122 f03f 2f26 a03c c042 f2bf
00000310: 866d 7fbb c442 e1bf 44c9 1890 127d eabf
00000320: ad88 ad07 d0b1 dfbf 8ae9 6012 9eff c8bf
00000330: bdc6 d32f 058e 0440 836f b8f0 713c d9bf
00000340: 5b23 b5ed 6748 c63f 0ce1 00e4 3f95 f33f
00000350: 9108 4381 74fe 02c0 ef72 8e5f 4aa9 0340
00000360: 03b3 223d 3b6d dbbf 573a f9c8 7c44 f13f
00000370: e53f 38c3 ded5 f03f 22d5 d272 f9a0 ddbf
00000380: 6ee4 dff8 37d4 b63f c4fd d52e 2473 fdbf
00000390: cb1e 2d90 18db c6bf 8f2f 5e00 2c1e f13f
000003a0: 0ef7 cfea 2f83 b23f 687e 8c91 b5bf 0040
000003b0: 42bc 8647 f091 fcbf 7e19 1558 01a0 f4bf
000003c0: d101 263f 4e9d f23f 1419 930c 8d24 ff3f
000003d0: bfbd 798c 6f10 eebf 95a3 2653 b1c3 da3f
000003e0: abd7 5382 0c68 f93f 904c 136c 0c80 e33f
000003f0: b673 d21d e242 d43f ef8c 6cb7 e104 00c0
00000400: e814 ae2c 5208 d93f a5b8 b8ae 303e f1bf
00000410: d9f1 38af 6efb f1bf 2179 2fd0 174b dc3f
00000420: ac08 5592 728e e53f 71ac d45f 5546 febf
00000430: d616 f81c 3c12 e8bf 22c7 57c3 95f5 f1bf
00000440: fbf7 954e be4f ac3f 5930 5018 75d4 edbf
00000450: 96f6 bcaa 4de0 fd3f 55f4 bd28 b070 debf
00000460: 962e 4902 4603 f83f 49ec e971 f753 dbbf
00000470: 287a 1947 132a f03f 43a8 4e56 f32b ddbf
00000480: ed23 246b f73c f4bf 7011 afa5 ffe1 f53f
00000490: 5165 b230 ab1f f2bf 5a12 07b8 9a56 f7bf
000004a0: 256b 986b 4457 c03f fb04 5646 246a e1bf
000004b0: c31b eeeb 4ae6 f13f c887 fe5a 4729 f83f
000004c0: e05e d371 b863 c9bf 1e16 4850 ffbf 02c0
000004d0: edb0 6b56 ac2d f5bf 38b4 120b d80b afbf
000004e0: 1bcb 1854 1fb4 f4bf 1781 4b4d 5e64 e9bf
000004f0: 4971 0a70 5f15 f5bf 5b92 d22e ab05 d93f
00000500: d729 6eb8 beef e63f b916 4ab7 21fa d4bf
00000510: 6c0e 9be5 f883 d0bf ef14 ef00 e885 e4bf
00000520: dec0 720f f40d e6bf c5a7 321b f67d ebbf
00000530: add9 8556 6feb e8bf e15a 56c4 45be d53f
00000540: 311a b56f 52ab e2bf 8ccd e9cf aee5 d93f
00000550: 7224 dbe6 2628 bc3f aa5d 4f40 b09c f4bf
00000560: ff3a 465c d25f f9bf faa0 a2f3 7ada f5bf
00000570: 2ecc 0fbd f2bb e7bf 22d8 ce4c 60a3 d73f
00000580: 0106 6e0b 4054 f03f c318 33c8 6181 f5bf
00000590: df33 59c5 cc24 ac3f 357b ea9f 75b4 eebf
000005a0: 4456 8ba4 28cd f23f d30a ec2e e38b d3bf
000005b0: 7e53 dc93 a1ae efbf 7267 492b e81b f0bf
000005c0: 0e52 6fb5 8e54 f43f 8a11 51eb 434c e6bf
000005d0: b9a3 284d a181 dcbf 4344 e189 109d d3bf
000005e0: e9c7 b63f b8e4 d3bf 2332 9aaf 4d97 d13f
000005f0: 7a55 ce07 2ba9 bbbf 88bf 2a22 4374 d23f
00000600: c913 d939 c9e0 e83f 4041 2e8f 6815 cabf
00000610: 7ddf 10ef 640a e6bf 3e95 53c0 641b c1bf
00000620: b3c7 aa8b 24fc f0bf 5f53 bd3b 8a30 d23f
00000630: 6b2c 8fde 720f df3f d3bc 4864 e6c0 f33f
00000640: 6414 6e24 a6dd ab3f 6570 2d47 55a6 f2bf
00000650: b559 b5af 067a 78bf 022b 5caf adb0 e0bf
00000660: 694c 96c5 2a9d f13f 7fd0 8744 235e e7bf
00000670: daee ab0e aa7f e93f 8bb2 2c2b fc1c e23f
00000680: d7da 36c0 58f6 f53f 5bbd 171c 6911 d73f
00000690: 24c7 e8de 5562 de3f ff25 7426 3970 cf3f
000006a0: edde 9ad3 f7ba b53f 6432 094d e3aa f6bf
000006b0: 028a 0894 8ea8 fa3f cec0 c0b9 0f6c f3bf
000006c0: e55a bcaf 0364 eabf 9855 f5ab 98a8 d43f
000006d0: 339f 026c 501f cebf c6b6 56dd 44c4 e6bf
000006e0: 43b3 8ecd 79b2 07c0 b287 7097 9bbd eb3f
000006f0: e0e5 1de2 3856 eb3f a45c c09f 95e4 d63f
00000700: 8561 525c 88a4 e3bf d5aa 9c2b 9a9a f43f
00000710: 4730 8595 49cf f43f c7da d03f 302a f93f
00000720: 0bd3 bbdf b21d ddbf ecc6 182b 2d38 f13f
00000730: aff9 e49a 76f0 e8bf 65de af41 8855 fa3f
00000740: a9ab 0ab9 ac95 ecbf 1074 c92e 942b e4bf
00000750: 13c7 895e 6db8 f6bf 96fb 6569 ed0e f53f
00000760: 85bd f2a3 910a efbf f936 52a6 926d dd3f
00000770: e867 cab5 e540 b4bf 486f 656d 4f29 f83f
00000780: 6f42 f668 f748 f1bf b947 2dfb 888c f73f
00000790: dd8b e233 698f eabf f1c1 86da 94c5 e33f
000007a0: ce69 4d8e 72f0 dbbf add3 7a50 bbdd f03f
000007b0: a407 eb9c ab84 da3f 571d f179 6d83 ebbf
000007c0: 15e8 55e9 4ef0 ba3f 7012 ef6d bdee fd3f
000007d0: ed75 9d0e 47c9 e93f 09bc 7167 cda0 b6bf
000007e0: c472 42c0 aefb babf 17fc 774a 0fa2 f33f
000007f0: 7f06 88c6 aeb2 f53f b75d 4671 cff5 eb3f

rbf_layers.0.log_sigmas f8 [128]
-1.0852125988282524 -0.236823576669825 -0.2316208722148199 -0.42717322319048145 -0.3779853247387364 -0.11665603058144207 -0.28461446585743083 -0.35077949128550007
-0.35336935153619303 -0.14830316594821685 -0.11484405744881028 -0.18593204763651128 -0.2959927626248285 -0.1562282355567797 -0.19834220431945274 -0.2863713356189482
-0.08101030569374584 -0.06112970729816825 -0.42809498690295533 -0.6461219112301458 -0.4287557541519507 0.08510176392182346 -0.2985559593894245 -0.1436828771721842
-0.27621323250336904 -0.17443474253828575 -0.29017242380730607 -0.2782210395713988 -0.32702252542157323 -0.2936616752357965 0.08884661866870522 -0.2963737959493673
0.06639870435625436 0.024631535611450137 -0.03900673468931696 -0.2935235897174392 -0.07096422979081901 -0.16415929280824074 -0.5065235969915031 0.11262696885203105
-0.0873347049200996 -0.16651975431710125 0.13810505577014812 -0.42433717431740947 0.02385279420452502 -0.3556514005057536 -0.06570820756002803 0.09652646240108041
-0.0039052864779345387 -0.14211153564266446 -0.40601936133605454 0.11861012639475174 -0.20332844429732522 0.1802804075061139 -0.41602128959275364 -0.24344808132692308
0.16425799737496566 -0.24910127738463805 0.056976066144157185 0.050777901090857724 -0.01599491677387859 -0.14490837056293496 -0.08648236538741826 0.19917076957914745
-0.051601088413723656 -0.07865580519142196 0.16898995498681807 -0.035227082492494816 -0.11618293609826884 -0.03826341742374913 -0.18268157942579696 -0.33544619939234843
-0.07711416522848749 0.08618753488570964 -0.46203090690178555 -0.16162045720378584 0.2787246377234397 -0.10199642520441889 -0.23164947085154242 -0.06043044342091232
-0.35503665502255577 -0.43399541787173207 -0.19534466981993667 -0.1443888830808219 -0.22767660288286304 0.009399563579638115 0.0607666981719377 -0.15128373898137915
0.030842727033552716 -0.12388314502556211 -0.14004872158637163 -0.07304473746005723 -0.25281978760978613 -0.3270990727103942 -0.4105695986569132 -0.6855128683318067
-0.2894217561596008 -0.16010096475091248 -0.10543769580127577 -0.21328355137584185 -0.023622552360969655 -0.37801137767728615 -0.24695982727251273 -0.30642004192887456
-0.13541452860013908 -0.5504045046013387 0.04644824316798596 0.10700514274358172 -0.2481518453064358 -0.2092984325887517 0.034213433031393486 -0.2053054695803151
-0.1716988515414466 -0.07862830812556103 -0.5029855217841228 -0.03402732346983493 -0.24888464984570235 -0.12061255330215505 -0.10889098662570353 -0.10364030851407631
-0.07876378078789731 -0.1796119679106904 -0.4238574287960782 -0.14393905008208804 0.007095913553074528 -0.18418261135695713 -0.20892996420097604 -0.18859242634759887
00000000: cdca d2e2 075d f1bf a0fc 5b26 3c50 cebf
00000010: 21e8 9db3 c0a5 cdbf 281f d55b ce56 dbbf
00000020: 65bb 075c e930 d8bf fb7c 3a6c 2bdd bdbf
00000030: 09e0 b497 1f37 d2bf 7970 cbd2 2b73 d6bf
00000040: 636d 107c 9a9d d6bf 7207 d21f 99fb c2bf
00000050: 1df1 e18e 6b66 bdbf cc45 f00f 9fcc c7bf
00000060: 95e2 d4a0 8bf1 d2bf b9cd 366d 49ff c3bf
00000070: 11fb 7b00 4763 c9bf b9b1 3f70 e853 d2bf
00000080: 3cf6 9765 17bd b4bf 41c2 519b 644c afbf
00000090: 7c1a 1584 e865 dbbf bbcc bedb 07ad e4bf
000000a0: 057c 83f9 bb70 dbbf 014b e0ac 3ac9 b53f
000000b0: 749f 6674 8a1b d3bf 4c90 3955 3364 c2bf
000000c0: 34c3 1444 7aad d1bf a17a 3ead e053 c6bf
000000d0: 0505 9d5b 2f92 d2bf 7f2b 819e 5fce d1bf
000000e0: 4f6c efe2 efed d4bf 037c ce56 5acb d2bf
000000f0: 56d2 8ae9 a6be b63f 389c 3fcc c9f7 d2bf
00000100: 6ef6 b467 81ff b03f 7c12 9b5f 0239 993f
00000110: 75f4 a0d3 b0f8 a3bf 1638 9c2a 17c9 d2bf
00000120: 6c2c 2336 b62a b2bf a912 f9f4 2b03 c5bf
00000130: a162 77f9 7035 e0bf 38f9 ddfb 1ed5 bc3f
00000140: 0d09 7035 915b b6bf 1e07 77f1 8450 c5bf
00000150: 25f7 f82c 6dad c13f 9ae6 8a1b 5728 dbbf
00000160: 004b 1bec dd6c 983f 4cb9 7c17 fec2 d6bf
00000170: d791 8cca 40d2 b0bf 1f12 364f f5b5 b83f
00000180: 0d22 89b6 fafd 6fbf 451b fcf6 b530 c2bf
00000190: 58cb 9ea1 38fc d9bf b602 d7b5 3b5d be3f
000001a0: c441 4d9d aa06 cabf 7e95 2cab 6d13 c73f
000001b0: 5a66 4fc2 17a0 dabf c85a c985 4e29 cfbf
000001c0: ba7c 6af3 6706 c53f d421 e1f7 8ce2 cfbf
000001d0: e1de 7c89 f72b ad3f 58ea 16a1 8fff a93f
000001e0: 6ec1 c8b1 f860 90bf 9d02 3e84 5b8c c2bf
000001f0: ff09 0553 b523 b6bf fbae d482 6d7e c93f
00000200: bc92 5936 756b aabf 640d f06e c922 b4bf
00000210: b6ac 027d 76a1 c53f ac3e 7abe 4809 a2bf
00000220: db33 e536 2abe bdbf cab7 ef3c 4397 a3bf
00000230: 0793 9b28 1c62 c7bf d649 fd55 f377 d5bf
00000240: 32f6 b601 c1bd b3bf f92f a8e3 6210 b63f
00000250: d799 b814 ea91 ddbf 9904 07a9 faaf c4bf
00000260: ce24 e7dc 9fd6 d13f f9d7 8f0e 701c babf
00000270: d8b6 b89a b0a6 cdbf d2e7 5934 bdf0 aebf
00000280: c6ff 8ca9 ebb8 d6bf 4dde 97b7 94c6 dbbf
00000290: bb8a 29dc 0d01 c9bf fd79 5ebd 557b c2bf
000002a0: 931f b9c5 8124 cdbf c0a7 5e11 1440 833f
000002b0: 4133 ab0a d01c af3f 54ba abfb 435d c3bf
000002c0: 7cd9 b65f 3c95 9f3f ea10 6948 ceb6 bfbf
000002d0: 8db0 87d3 1ded c1bf 972d 8956 0fb3 b2bf
000002e0: 6334 e40b 332e d0bf d8f4 f5f2 30ef d4bf
000002f0: 82a6 bdb5 c546 dabf c91c cfae b8ef e5bf
00000300: 3335 5dd4 e285 d2bf 53e4 d43b 307e c4bf
00000310: 5469 3bff f6fd babf 8b8c f71a e04c cbbf
00000320: be88 5aa7 8230 98bf 47f3 28a2 5631 d8bf
00000330: 13d7 c72e 619c cfbf 0d1a bbce 629c d3bf
00000340: 4ed4 de65 4355 c1bf bfae 5ae8 e99c e1bf
00000350: 78ef b96a 10c8 a73f 1666 9664 b064 bb3f
00000360: aa3f 048e 70c3 cfbf d84f 8981 4aca cabf
00000370: 244e e84f 6c84 a13f bec8 c41a 7347 cabf
00000380: 88cd 105c 3afa c5bf 9368 f01b fc20 b4bf
00000390: e493 cd17 7518 e0bf 7e5b f282 076c a1bf
000003a0: 6c27 c8c3 73db cfbf d978 ebdb 76e0 bebf
000003b0: 41f6 629a 47e0 bbbf d584 9dd7 2b88 babf
000003c0: 9ce4 97f6 dc29 b4bf 56c4 1264 86fd c6bf
000003d0: a921 b6e8 7a20 dbbf d724 5c44 986c c2bf
000003e0: b2c7 54ca 9a10 7d3f a88f 22ba 4b93 c7bf
000003f0: f6e5 b291 37be cabf 40d6 b7ef cb23 c8bf

linear_layers.0.layer.weight f8 [100, 134]
-0.012263854542225353 -0.03440760719394071 -0.06554849775433619 0.05299979716339581 -0.041241828851211144 -0.06760480653546004 -0.0665120759683266 0.008744199972451254
-0.11111535471779606 -0.03255590222705892 0.11557814087961343 -0.019119253397787896 0.043926956578549795 0.04247093559542716 0.019788359662774254 -0.0150296909173765
-0.05637864130402692 -0.003939875817581656 -0.050151858716851905 -0.03811457148201893 0.04648465893042536 0.17469474670750498 0.07510200090350856 0.032275151124489275
0.023480320180304055 0.09787212925756728 0.12240862666358045 -0.08930780211227965 -0.035383773520228756 0.0022364588787423894 0.13578554275548324 0.0005957111079341493
0.05564257159128663 -0.05848969023242946 0.0004887453590128734 0.06353135104331105 -0.0518483515577497 -0.030905710374760673 0.022648764179088475 0.19051658820203562
0.05256604892178575 0.05199148563958601 0.1073238759534975 -0.02168408879746861 0.045776807135429275 0.08860824467051416 -0.08059686335393677 0.07744195182302727
0.13139618486871443 0.044774092003305545 -0.048293344968320405 -0.02630078249157382 0.12876450691536165 0.3046474292128804 -0.02608371832481743 -0.03922294182979794
0.2658760777070526 0.09018285122291964 0.16022019829364986 0.08535403429876655 -0.18517046384346553 -0.012429238760931686 -0.04523168807242995 0.2119645410348455
0.007140876302237402 -0.007366810871838508 0.28474445393650855 -0.030007076127698037 -0.015114522521915892 0.0024492762389091986 0.1473332969619182 -0.016410646802168506
-0.023823060608453118 0.14654875795088648 -0.05058484813253526 -0.05862116747686612 0.2788112226408235 -0.07572826625825053 -0.053457625861852515 -0.03949870169545908
-0.012496626669693622 -0.037613961220353355 -0.0843937099938731 -0.010827097788001649 -0.06070728136329518 0.07752261415351276 0.143341461671805 -0.08175286371029183
0.10499603657819225 0.008716833779437045 0.012766358832923631 -0.050478244466008244 0.022346702711862097 0.06118117889350139 -0.05101340926852902 -0.034884422937276414
0.0072138433666774394 0.05076113700616486 -0.07105233626165453 -0.05119740349879196 0.15741948429860506 -0.008935487310175426 0.10583625033908063 -0.06207313592881467
-0.021574789461437868 0.03604895777931065 0.14341079749914906 0.22247738257164193 0.054198209716179564 0.06949863158473868 -0.12307341601911839 -0.027594382671972954
0.04289594200072232 -0.06424005158446398 0.06048018626184558 0.09586495985575633 -0.05422673482449242 0.07027481370911787 -0.09963601750384254 0.025208743386402443
0.031217666962327736 -0.04420303194510642 -0.05583249797884998 0.01560783931593723 0.008474813279327432 -0.05425118650937296 -0.013735930511267258 -0.1171883926971419
-0.0508797146905837 -0.003742147208655924 0.025038164406593472 0.02286399519451486 -0.0043027022876961285 -0.0326820549628022 0.14401986893952864 -0.15644318889301229
0.0362850622001852 0.06571989691552539 -0.04517952887802851 0.06616471917593245 -0.020811895922666548 -0.00870856254974411 0.07224369689188344 0.07944672239814086
-0.11555616803654463 0.12818988917651766 0.027835831582824537 -0.15340984187976509 0.10213628378407086 -0.12203422905825971 -0.06813706505453217 -0.024202543207564167
0.043620038750845865 0.15267430711139526 0.0011020629879353134 -0.2502074030147873 -0.042760978140442836 -0.09191229979351577 0.0026810638217295954 -0.02606446745959538
-0.11077736285619687 0.13512153607855173 -0.06710636233903317 0.05795409896877796 -0.1861331933906083 0.0399189002039548 0.2786447525751006 0.0654832217602951
-0.04762327061238735 -0.018186918575084775 0.114448279047971 0.04736994457944821 0.07094391995499613 -0.3207270420538933 -0.07562688735428089 0.0030318344522897176
-0.3055643116436283 0.09549098979666011 -0.12637684422765802 -0.021260671067539542 -0.033396474118276176 -0.26808327510790086 -0.10557810901074371 0.029962391965218098
0.04278694732546289 0.29631904382581237 -0.1070651872518704 -0.27881458527512903 -0.12470705848973186 0.09866517071688456 -0.25490796629173923 -0.13159363633586635
-0.2912493648104399 -0.03634104302732244 -0.06467340211822051 0.11874573416174311 0.1129336122545414 -0.3896087303611328 -0.054027515865655615 0.008915927143983428
-0.18045096635538668 -0.10642615582927556 -0.14463561286500845 0.1394312051668891 -0.005613702292893029 0.011043807553727638 -0.06033897599324821 -0.18144518737183674
-0.05920110604760881 -0.11543896458995345 -0.45256333723063985 0.027234721573042787 0.029623957370137215 0.10561824919443061 0.049712546185373234 -0.015815490627785925
-0.12843630762909175 0.08253861390308244 0.07139329336148223 -0.23293932478082033 -0.15229911125487153 -0.01349251798475872 -0.09593495212975037 -0.12093108519946535
0.12913889426816444 -0.04184120775471883 0.07019007838874144 -0.031762496786355995 0.04809978217572652 -0.009259319121495389 0.029168828093934895 -0.042262221346705146
0.12271401832091566 -0.09285999592961329 -0.19948674167705896 -0.04834713127448226 -0.02446610511301673 0.10916093098255568 0.10653029423358812 0.16797027794720953
-0.22368269121278428 -0.012563152845468257 0.10353284251626063 -0.11302296466326638 -0.001184999499729236 0.05186210499434024 -0.1496133375176381 0.0877816100228164
0.009285701665540406 -0.13986247897877407 0.05802053345764632 -0.08573160799786678 -0.05569925766189848 -0.21100146599333805 -0.19907645782792857 -0.010365665551252394
00000000: 083e 74b1 ca1d 89bf b95f 43b7 df9d a1bf
00000010: 4424 284e c9c7 b0bf a8d8 0517 ca22 ab3f
00000020: 094f 4924 a61d a5bf 0549 1f71 8c4e b1bf
00000030: 1db2 1277 ef06 b1bf 4978 4aa7 7ae8 813f
00000040: edab 984e 0e72 bcbf 9bc7 b6ce 2aab a0bf
00000050: 1cde 356f 8796 bd3f ea0d 4560 ff93 93bf
00000060: 9ada d513 987d a63f 4365 d31e c0be a53f
00000070: df55 5f56 6643 943f 4447 acf7 e2c7 8ebf
00000080: d0fa 2f49 a9dd acbf c6ca 965c 4223 70bf
00000090: 0084 0b22 81ad a9bf d35b 08cc c083 a3bf
000000a0: 8868 be53 d6cc a73f 7524 f2bf 655c c63f
000000b0: bda6 be7d e239 b33f 0b35 1b5d 5e86 a03f
000000c0: 5297 189d 390b 983f 10e4 59da 250e b93f
000000d0: b1b2 44f8 2b56 bf3f ca91 5949 e0dc b6bf
000000e0: 082b 286c d21d a2bf 530b c7b7 3152 623f
000000f0: b7c3 b3b0 6b61 c13f 9a05 fcdc 2f85 433f
00000100: d4f4 7fe2 2e7d ac3f 2225 6755 5cf2 adbf
00000110: 7dcb a0aa e403 403f 7d70 0033 9743 b03f
00000120: 0187 95fc dd8b aabf 29e8 461d bfa5 9fbf
00000130: 46a8 c6d5 3c31 973f cf2c d6f9 d862 c83f
00000140: b27d ffe9 efe9 aa3f c225 fcc4 a09e aa3f
00000150: 0bdc 4cd9 9379 bb3f 182d ea90 5a34 96bf
00000160: 4bba 1fc3 0e70 a73f 150d 04a9 07af b63f
00000170: 47ed 43fc fea1 b4bf 5816 6b5a 3cd3 b33f
00000180: 3947 6a16 97d1 c03f 657e b939 a1ec a63f
00000190: 53bb 81c2 e7b9 a8bf 155f a4a2 97ee 9abf
000001a0: 4324 0bf9 5a7b c03f 2fe8 51ee 577f d33f
000001b0: 3015 a7b4 b0b5 9abf 95e3 d288 0715 a4bf
000001c0: 4d98 a218 1d04 d13f dc97 a92c 3916 b73f
000001d0: e438 ea6f 1882 c43f d915 e511 c3d9 b53f
000001e0: 6a48 326f aab3 c7bf 6f63 f02f 8074 89bf
000001f0: c125 079a 9b28 a7bf 0302 d471 a721 cb3f
00000200: 2b1f ed62 c03f 7d3f d368 533c a92c 7ebf
00000210: cdfa 57cd 4039 d23f bfda 77ca 2cba 9ebf
00000220: b107 69df 5cf4 8ebf c11d 0a2b 8110 643f
00000230: 0b1a 0846 d1db c23f ba3c 49dd f3cd 90bf
00000240: 8dd3 d088 1265 98bf ab90 5515 1cc2 c23f
00000250: de02 ced8 41e6 a9bf b63c 55fa 9703 aebf
00000260: d401 c006 0bd8 d13f 6d43 f67a ed62 b3bf
00000270: cccf 9845 cc5e abbf fd6c 0880 2c39 a4bf
00000280: 336e dad6 d497 89bf f5fc a01a 2342 a3bf
00000290: 4a6b 6980 d39a b5bf 13ce 4777 842c 86bf
000002a0: 8139 2b58 0615 afbf 2d61 7da4 85d8 b33f
000002b0: 5a47 0555 0359 c23f d473 fd73 c1ed b4bf
000002c0: d91d 502f 05e1 ba3f 9d0d 0fa0 21da 813f
000002d0: 7448 69ad 3f25 8a3f f130 48d2 48d8 a9bf
000002e0: 5995 48d5 0de2 963f 90e5 f4b4 2353 af3f
000002f0: bd7c eef8 6d1e aabf 1b95 4fff 5edc a1bf
00000300: a4dd 6955 438c 7d3f 58d1 b21e 5dfd a93f
00000310: e856 8c64 7c30 b2bf 0db9 55cb 8b36 aabf
00000320: ab68 6858 5226 c43f ec0f 2bce c44c 82bf
00000330: e107 f0a1 1518 bb3f fd80 8cd1 0cc8 afbf
00000340: 1fae 9e9c b317 96bf c61d 6f4d 0275 a23f
00000350: cb78 93f6 485b c23f 4f58 1f8d 237a cc3f
00000360: c929 7724 debf ab3f c8f0 c58d a9ca b13f
00000370: 3a22 cf48 bd81 bfbf 118a 84ac b341 9cbf
00000380: ee65 0cf8 74f6 a53f 570c a638 0972 b0bf
00000390: 3eea 194c 42f7 ae3f fcae 6923 9b8a b83f
000003a0: d8b5 4749 9bc3 abbf a4f7 9cba 87fd b13f
000003b0: 98c4 aefc be81 b9bf 20e2 ab21 52d0 993f
000003c0: dc78 a42a 86f7 9f3f 6d32 2da1 c7a1 a6bf
000003d0: 180d bfc1 1396 acbf bea8 62bb 00f7 8f3f
000003e0: c7ce fe2e 3e5b 813f 6b66 a7bf cfc6 abbf
000003f0: 20b1 9b62 9521 8cbf 3ae3 1afa 0e00 bebf
00000400: bd71 40ed e70c aabf b988 18fc d9a7 6ebf
00000410: e5dd 1cc5 9aa3 993f 7c22 77be a869 973f
00000420: 77e2 c2d9 b59f 71bf 426e 76ca b3bb a0bf
00000430: c7e4 8839 3e6f c23f b21c fd95 5406 c4bf
00000440: ab5b f7a6 f493 a23f 39dc f2e7 04d3 b03f
00000450: f8aa f56d c521 a7bf ae78 02c9 2bf0 b03f
00000460: a724 6cb1 b64f 95bf 1d44 c57a cbd5 81bf
00000470: 9526 7e1b 907e b23f a772 79d2 9e56 b43f
00000480: 0d6b 91ca 1695 bdbf f172 d8ba 8668 c03f
00000490: 1e85 3809 ff80 9c3f 260a e106 efa2 c3bf
000004a0: 4c6a 967e 9a25 ba3f 833c cc9e a23d bfbf
000004b0: e5fc 0d42 6e71 b1bf 14df 392e 8dc8 98bf
000004c0: 8130 c59f 5d55 a63f c3cf fde9 d48a c33f
000004d0: 2cb1 711f 630e 523f 3e99 4ae9 6503 d0bf
000004e0: 09fc 5055 c4e4 a5bf af9a b681 9087 b7bf
000004f0: d9a3 d92d 99f6 653f 0b75 4ecd a4b0 9abf
00000500: e7bf 9abe e75b bcbf 35a9 3899 a94b c13f
00000510: 3484 99ef e12d b1bf a9e7 7adf 28ac ad3f
00000520: c006 2865 36d3 c7bf 5b8e bc05 4070 a43f
00000530: bcc5 e0cc 50d5 d13f c9ad e527 82c3 b03f
00000540: ff15 9ecb 1362 a8bf 56e2 fa71 979f 92bf
00000550: 4c32 987f 7b4c bd3f 806a 9095 df40 a83f
00000560: 2e87 0e78 6129 b23f 4d1d 24b7 ca86 d4bf
00000570: 9e89 e29f 485c b3bf 021a 39ba 37d6 683f
00000580: 7a62 559d 5d8e d3bf 6544 3df6 1872 b83f
00000590: 1ff9 76ce 1d2d c0bf 7152 b47b 5bc5 95bf
000005a0: a087 47b8 5719 a1bf 325a ccc0 4628 d1bf
000005b0: 30ea 5fbd 2a07 bbbf 3ef5 6616 76ae 9e3f
000005c0: 77c5 eab6 2be8 a53f 997c 9a26 e4f6 d23f
000005d0: 3f72 c9c5 9f68 bbbf 0ae3 5921 19d8 d1bf
000005e0: b133 cb41 cdec bfbf fbb7 7be1 1e42 b93f
000005f0: ff9f ad80 6950 d0bf 424e 366e 0fd8 c0bf
00000600: fbdc 3560 d4a3 d2bf 1019 9c0e 4b9b a2bf
00000610: 02d1 04a3 6f8e b0bf 64a2 c3d4 1e66 be3f
00000620: 4c9d 409b 37e9 bc3f 07c7 c874 59ef d8bf
00000630: 0648 749b 7ea9 abbf 21b5 f97b 8342 823f
00000640: eb94 836b 0419 c7bf fcc9 b99a be3e bbbf
00000650: dbca 8b75 6b83 c2bf 67e8 1db9 e1d8 c13f
00000660: f289 1ebc 64fe 76bf a1f3 21c2 229e 863f
00000670: be58 2111 c0e4 aebf 2eaa e38c 9839 c7bf
00000680: 8817 b97c 9b4f aebf 6413 9971 688d bdbf
00000690: c78c 3137 ccf6 dcbf ad35 e339 6be3 9b3f
000006a0: 5bd3 5420 be55 9e3f 9e9e 262e cc09 bb3f
000006b0: af56 2240 ec73 a93f 91ee 109c ef31 90bf
000006c0: a066 71d6 9970 c0bf f5f3 5e27 4021 b53f
000006d0: 3e2c 24b4 d446 b23f ab66 f1ae f4d0 cdbf
000006e0: 4957 068b 897e c3bf 8bc0 e11b f7a1 8bbf
000006f0: 62cb f069 318f b8bf de61 00f0 56f5 bebf
00000700: bafd c28f 9f87 c03f 6702 ddf5 356c a5bf
00000710: 1eee 2e1b faf7 b13f ae97 df89 2c43 a0bf
00000720: 7f68 c7de 88a0 a83f 92fb 7ac6 8cf6 82bf
00000730: d085 e7ea 6ede 9d3f d7b0 14d5 64a3 a5bf
00000740: c0f6 7297 2f6a bf3f 83d7 9f35 acc5 b7bf
00000750: 6989 be13 c888 c9bf d8cf 5b87 f4c0 a8bf
00000760: 629b 4885 a40d 99bf 632c 9284 f8f1 bb3f
00000770: 8c3a c4c1 9145 bb3f 9cdc 3dd1 0c80 c53f
00000780: a857 b869 a2a1 ccbf b7f4 d8d4 b5ba 89bf
00000790: 7a54 abdc 2081 ba3f 33fa ecb0 12ef bcbf
000007a0: 3f1b 3786 3f6a 53bf 086f b479 ab8d aa3f
000007b0: 5a82 d7a3 8726 c3bf 22fc 3c08 db78 b63f
000007c0: af90 cac7 6104 833f 865e 9382 03e7 c1bf
000007d0: ace5 640b deb4 ad3f a496 95b4 81f2 b5bf
000007e0: 687f 23f4 9c84 acbf 8dba ec95 1802 cbbf
000007f0: 0b22 e35d 567b c9bf bce9 5914 983a 85bf

linear_layers.0.layer.bias f8 [100]
-0.04014712402407397 -0.0005935041332077275 -0.05312539931435108 0.052699545091772486 0.045219373248836334 -0.04246039782641641 0.10390573889624834 -0.04892830612301098
-0.009891272509110125 -0.04715856612239435 -0.0369421526257032 -0.05131323219792345 0.06118665532680248 -0.02945476362247516 0.06808559975377002 0.0226550186095756
0.013752397340234743 -0.051595244103494003 0.03524705234189913 -0.04766240144254027 -0.03435261358180302 -0.016603944709684376 -0.017355125147569584 -0.05896815526310804
0.03310230551074719 -0.009200053492989357 -0.07023353388328796 0.040375895661872066 0.0034844292504492068 -0.017371848528462318 0.06804365288966602 -0.06566366665731826
0.06236348031182391 -0.0675994468468885 0.06379215058432433 -0.04017965943733568 -0.058470096826280245 -0.01980192921108231 -0.01996427394385743 -0.03514466129899234
-0.05352397990618156 0.07297590078196428 -0.08202093736163563 -0.019286154481988282 -0.06492130449227469 -0.018290382651412924 -0.035461034427126746 0.05524828130873786
0.07595783672736395 0.0431282733252133 0.011437314993624107 -0.01165774368264653 -0.05816585808295307 -0.051283995686488844 0.017766575594634362 0.03639091023943789
0.03610324543890755 0.08483794584411146 -0.027301407277875205 0.08234525073428377 0.06158406951230983 0.020996016801704417 0.05950472085960969 0.04332067625344233
-0.03019749530928371 0.0054587754663829365 -0.04943066691125612 0.01859873032026591 -0.06062937908932463 -0.07384791869063609 0.041000789554823745 0.011498741174721978
-0.025859296671759176 -0.029771000690943645 0.05285329559308136 -0.021399547109551817 -0.0330894244907875 0.03426252273821853 0.062048524442947346 0.028514052139741515
-0.01196962628452255 -0.07280252542900952 -0.0402909923305753 0.045585342035883866 0.0015240238191598257 -0.04694017088266274 0.0364496672101569 -0.03388132720876536
-0.07961331427225389 -0.07956287598675632 -0.007592862775021588 0.040760804407964465 0.05567894564926488 0.018582503399108934 -0.0369612871879015 0.06399924044466304
0.058090749861675076 -0.006154999746328724 0.009461421794309295 -0.0032529968750493387
00000000: 1478 6cf1 298e a4bf 5e29 cc6b ac72 43bf
00000010: 8abe 4899 4033 abbf a7d1 5d4d 6ffb aa3f
00000020: 56ad 7f62 fe26 a73f 7f47 1488 5ebd a5bf
00000030: 0115 6d06 9199 ba3f ba44 4b85 210d a9bf
00000040: 3224 8a1f e041 84bf c3a1 71e6 2a25 a8bf
00000050: 9e12 bef2 14ea a2bf f9c5 485c ba45 aabf
00000060: 5415 2977 db53 af3f 4b38 e1b9 6329 9ebf
00000070: 765f 45d0 0e6e b13f 15d7 1290 e032 973f
00000080: 1812 8b86 372a 8c3f 2c77 1b1c b16a aabf
00000090: a97e 2dd2 e60b a23f eb99 e3ce 3467 a8bf
000000a0: 5760 bb6f aa96 a1bf b8fd 0cde 9f00 91bf
000000b0: ad0a b5bb 8ac5 91bf 5d93 b8f4 1231 aebf
000000c0: 2c85 2e0f c9f2 a03f c09f fd46 7ad7 82bf
000000d0: 8c79 1c2b d3fa b1bf a232 d43e 26ac a43f
000000e0: cf03 a1b5 608b 6c3f e607 3405 edc9 91bf
000000f0: b48a dc0f 4f6b b13f f020 d484 55cf b0bf
00000100: 2edc ce28 1bee af3f 2b61 6f85 324e b1bf
00000110: 5a4d 80b0 ae54 b03f 4ddc 7ea6 6d92 a4bf
00000120: 115e 53e3 caef adbf cfed 6ff9 f446 94bf
00000130: b581 b5be 8371 94bf 86fb d025 7bfe a1bf
00000140: 2664 7fbe 7e67 abbf 8a32 4173 8cae b23f
00000150: 9034 8efb 52ff b4bf 101f 10eb bfbf 93bf
00000160: 6da4 9bbf ae9e b0bf c2cd 46cd b6ba 92bf
00000170: 8b2e 4bde f227 a2bf 8531 c3b2 8049 ac3f
00000180: 9472 9e08 f971 b33f 71f2 edb6 e814 a63f
00000190: 4236 d06e 726c 873f d59d e5de 03e0 87bf
000001a0: 138d 6b54 eac7 adbf a937 9058 e541 aabf
000001b0: 443f 90b4 6631 923f b53a b352 d4a1 a23f
000001c0: 330f e1e4 1f7c a23f 2b3b dc8a f0b7 b53f
000001d0: 3bb0 926d e6f4 9bbf a779 e20e 9414 b53f
000001e0: a919 0579 f287 af3f 2cd1 09d6 fa7f 953f
000001f0: 7369 191c 6777 ae3f 198f 7faf 202e a63f
00000200: 1b13 199b 17ec 9ebf 664d abe1 f05b 763f
00000210: 054c 9bf3 f94e a9bf 7902 e4a9 8b0b 933f
00000220: 5e1a bb60 d00a afbf 3669 a77b b2e7 b2bf
00000230: 0b0d 7f34 0efe a43f d725 53ea a68c 873f
00000240: 6fd5 0206 dc7a 9abf 25e1 5809 4a7c 9ebf
00000250: fdbf 1d50 960f ab3f bc5e f04b c3e9 95bf
00000260: d812 10d8 18f1 a0bf c438 477d db8a a13f
00000270: 59ba 7efe d2c4 af3f b2a0 aaa5 c932 9d3f
00000280: edb9 7f0b 8883 88bf 65a7 c8b1 2fa3 b2bf
00000290: ce33 c45c 05a1 a4bf 6633 7142 f656 a73f
000002a0: ce1f 8b1d 38f8 583f 6a8f 9ec5 8a08 a8bf
000002b0: 2644 3ce1 87a9 a23f b10a 9db0 e458 a1bf
000002c0: cd20 20c5 8961 b4bf 0cbd 568e 3b5e b4bf
000002d0: 89e6 d394 b119 7fbf ce1e c8a3 99de a43f
000002e0: 6d59 4765 f381 ac3f 7e07 82b1 4a07 933f
000002f0: e354 61ff 96ec a2bf 34bd ad14 4162 b03f
00000300: 1247 b61d 12be ad3f 8abf e029 fc35 79bf
00000310: 3717 7189 8260 833f 2e8b 2766 07a6 6abf

linear_layers.1.layer.weight f8 [100, 100]
0.03031490039682131 -0.010869948833487452 -0.08049761543102217 -0.0031823021038472937 -0.006935391971373337 -0.030912788089658028 0.09947075213865679 0.012332559988245213
-0.022968933111342054 -0.08048463646938028 0.04761224893861933 0.00016446839414997473 0.004468298488873053 -0.0990642477008893 -0.04867752304281826 0.06523063826047726
0.04106308688087051 0.09159677495843878 -0.07012537185667253 -0.04430985013404581 0.06864693583883104 -0.037097881879967806 0.020346424752318352 0.04088172752261925
-0.02491721449756728 -0.04313634163236425 0.06746575619074681 0.033132177444110934 -0.011323743952429556 -0.05106676330447316 0.03913482558975612 0.030535889433320338
0.07006807169351444 0.08263743534319816 -0.29020483606841 -0.026438275827970956 0.03674703178199682 -0.019311111802117982 -0.07552807668856859 -0.040553841688082175
-0.06699665809715534 -0.0006463193178093896 -0.01576954674092798 -0.05163270117237845 -0.002178674939170278 0.06015105775925601 0.10432395117887444 0.06961149405638806
-0.049939909439612955 -0.01616865403215672 0.04603431028298985 -0.06651395928481496 0.05918906746747687 -0.03289714220608704 0.0397153353170953 -0.045021555237520314
-0.08890156366924161 0.34573193674520314 -0.12193346746408734 -0.05520320176251818 0.027771948871431078 -0.013845565725846026 0.048261118494471046 0.0074064214090250845
0.07295541405755068 -0.01961058079480534 0.07094021550428051 -0.035564512234554896 -0.078711786849296 0.05118201989040784 -0.0306289454543511 0.0833913881551384
0.10638627429471947 -0.006678936583438234 0.018384285868603606 0.05918123256501427 -0.020154460686612714 -0.03697664562325791 0.048373880094254675 0.0795277266217425
-0.12279148180363036 -0.042112222106717744 0.02983061971809796 0.12828657451790726 0.003327183165985389 0.09734733350075599 -0.02069880174406565 0.024691076769629422
-0.0480008698403687 -0.049421095979590615 -0.0042510156887577925 0.004161918027792217 0.0014043318213471313 -0.049316118012837855 -0.053089337109677504 0.0025608274419899237
-0.08410361361849908 -0.06094205373072872 -0.012326711732555964 0.061018827331677704 0.03588261630776112 -0.004647381971981953 -0.08367064859644838 0.01578506475924594
0.014807448796396965 -0.009656076954456578 0.07727317560197036 0.008446115191217131 -0.04668631528627206 -0.013414297797994657 -0.06916969348146924 0.05923242158624196
0.017135336273455842 0.048268224277264626 -0.025677701830609755 -0.07817315665944458 -0.016607458032807377 -0.06605437514822879 0.05127006601194302 -0.026154617429198945
0.10183773760618017 0.04631812012149982 0.03358186691032682 -0.06841739254984419 -0.0036936507339737222 0.021386239841405526 0.05204242200586271 -0.006216280420731121
0.050963129240784916 0.025549149959996267 -0.06040110867494309 0.035312717718141824 0.09576643822726039 -0.08473570611899287 0.030302119813454705 -0.019507450403077962
0.07081586959094603 -0.00221204670073297 -0.021705180252325627 -0.020236417597907667 0.008448349952878895 0.032951507418555195 -0.11831546107908045 0.11061048529396307
-0.003629142617046339 0.009099056179415067 0.03924435736251313 0.0008871513856802786 0.045424252093479334 -0.0742487937635709 0.01916716206640462 -0.0135009915548175
-0.01817555990273975 0.005914006286434367 0.05288552817357723 -0.0012375500196195243 0.01668338612011218 -0.15525743700786523 -0.0735777658885641 0.00713762012294886
-0.014963992882854766 -0.0005342848354207551 -0.016334555428777237 -0.005022433794725337 -0.004757233079790217 0.005217701682021551 0.09097555385736568 -0.03256104902698332
0.06656651091235288 -0.009141496128320992 -0.011630566991640206 -0.028873416560554623 -0.05443804533640845 -0.03388830294692114 0.04597917947815148 0.04836048637112415
0.005046024114524614 0.05423787537425837 0.015036050755003092 -0.0434924603342206 -0.030926551369141107 0.09734619641693194 0.00458485681471668 0.0002689593697813654
0.0357868958881519 0.016778767594957746 0.010142689261770145 0.10093921895943475 -0.05005018942584321 -0.03082106627201619 0.024413769720713546 0.027095180628704786
0.0812569261539545 0.015361470006530261 -0.031523336828531805 -0.058888665946701536 0.10167322651335274 0.023608113544166802 -0.048087229700080496 0.011663718320794202
-0.06670395337923804 0.012208389470314234 0.15359738519200136 -0.0729210112527126 -0.02519655081996085 0.0005827372961020756 0.10423615209528068 0.0667204176243963
0.018760500673502975 -0.025752625929542167 0.020333200740304917 0.00894442465508167 -0.04628950009670226 -0.056251767974798215 -0.01578194280514365 0.0886220428048923
0.061996755400537534 -0.023267578175069976 0.11838938494199552 -0.0333386202733088 -0.031040290114156172 0.03567560739000852 -0.07552417209979048 -0.1067085903353526
0.056010308279643636 -0.006893611537493884 0.05244862427838945 0.03946498312395582 0.00048814973043416157 -0.07928415226390517 0.018309095654091296 0.0651905728235574
-0.016931317880735382 0.006764022378425163 -0.31702273665708003 0.023020793495104237 -0.0502369745148943 -0.0006699582189406235 0.028311336567804112 0.024537082899853742
-0.025289419008869538 -0.07613601541100891 -0.07387390470943998 0.02351265751353839 -0.019022821319356113 -0.01647989455015273 -0.01307696946873709 0.0709125136913935
0.014267633825851977 0.009506229404905336 -0.0527526123694718 0.01775590156757864 0.01986293047366409 -0.013803195315921534 0.092154696191421 0.004302010326035876
00000000: 8ab4 2487 de0a 9f3f 39ff fdd5 fb42 86bf
00000010: 4fa6 aee1 7d9b b4bf 09d6 c86e c511 6abf
00000020: 4a59 3b1b 4968 7cbf c037 7e17 9aa7 9fbf
00000030: db13 584b ea76 b93f b790 9a2e d041 893f
00000040: 7b1e 2602 2b85 97bf 6e68 7721 a49a b4bf
00000050: aa27 29f8 a160 a83f 9a01 8abf a48e 253f
00000060: d53c 0ebe 594d 723f 7902 1448 465c b9bf
00000070: 62d3 09a3 42ec a8bf 10a5 0682 f4b2 b03f
00000080: 57c9 738e 3806 a53f c195 dde0 e272 b73f
00000090: fe86 be82 bcf3 b1bf 67ca 6eda c7af a6bf
000000a0: ddfc 6578 d892 b13f 36c5 d95a 7efe a2bf
000000b0: b15f 9b73 b1d5 943f 4761 6d25 73ee a43f
000000c0: ae74 7ff5 e583 99bf 4201 2971 f715 a6bf
000000d0: 416d 7090 6f45 b13f e5ac 2265 b3f6 a03f
000000e0: 543c 8d2f e730 87bf 554e 9c3c 6c25 aabf
000000f0: 60d8 15d8 7a09 a43f 09ac e1d9 cc44 9f3f
00000100: 8ddc 6a2c fbef b13f 0b6f 391a ba27 b53f
00000110: dd82 034e b792 d2bf 19d0 2ca8 a212 9bbf
00000120: 951e 75c7 81d0 a23f 22d8 8ec6 4ac6 93bf
00000130: 7ca3 4edb ce55 b3bf 1f11 8e1f 79c3 a4bf
00000140: 95f4 7767 b126 b1bf c305 982a b82d 45bf
00000150: 38a1 195e e425 90bf f806 e1f5 996f aabf
00000160: 6761 9833 03d9 61bf d2a7 ca93 1ecc ae3f
00000170: 4cb5 8076 f9b4 ba3f ccdb 6512 0fd2 b13f
00000180: a7de 9d4b b991 a9bf de5f 2701 848e 90bf
00000190: 5c97 5122 cf91 a73f d012 db0f 0f07 b1bf
000001a0: ff6a 1b8a 074e ae3f fa62 d0eb e4d7 a0bf
000001b0: 9656 ac84 9155 a43f 166d b8b6 100d a7bf
000001c0: afcc 85bc 40c2 b6bf 8337 60d8 7820 d63f
000001d0: 84cf 0b1f 0837 bfbf e6b4 6814 9843 acbf
000001e0: 5e8e 98f0 3f70 9c3f f0a2 e55f 105b 8cbf
000001f0: e54a 346b aeb5 a83f 3cea b61b 3256 7e3f
00000200: 587d 71bd 34ad b23f 1551 adcc cb14 94bf
00000210: 46e4 8f51 2329 b23f 5c26 e401 8335 a2bf
00000220: b6d3 53a6 7426 b4bf c221 259b 8734 aa3f
00000230: b74d 26bc 315d 9fbf dbf4 e454 2359 b53f
00000240: a0cf d680 213c bb3f 9bb3 2a63 5f5b 7bbf
00000250: f88c 438a 54d3 923f 9eb2 cea4 004d ae3f
00000260: 95f0 11f6 5ea3 94bf 67d9 5557 9aee a2bf
00000270: cd8c f811 76c4 a83f 6332 f7d8 ed5b b43f
00000280: ccef 9236 436f bfbf b3a4 6bb1 bb8f a5bf
00000290: 3c40 6f00 eb8b 9e3f e4fe 08c9 b16b c03f
000002a0: 5fba 57dc 9b41 6b3f c111 bd3d c1eb b83f
000002b0: 7585 3a12 1132 95bf d811 ea1c 9e48 993f
000002c0: 05b2 49ec 9193 a8bf bafc edcd b84d a9bf
000002d0: ba5b ba55 8369 71bf 9487 165d 160c 713f
000002e0: e2ed b4cf 3102 573f ffc6 0f54 f63f a9bf
000002f0: 4805 4e8d 862e abbf ec43 a6c3 71fa 643f
00000300: 0a85 f77d d087 b5bf d3f8 72ff cb33 afbf
00000310: 4881 113e bf3e 89bf 0bdf a817 dc3d af3f
00000320: efd0 12cf 345f a23f 4992 4e19 2209 73bf
00000330: ca5a 5b8b 706b b5bf caf3 9fc3 f529 903f
00000340: 89b0 8a22 5e53 8e3f bdff d0b5 90c6 83bf
00000350: 0a8b 11c2 2cc8 b33f e13a 3264 324c 813f
00000360: 8b8b a6ca 44e7 a7bf cdc2 ba92 f478 8bbf
00000370: c593 60e3 1ab5 b1bf 6dce 2643 b653 ae3f
00000380: f810 9af3 ec8b 913f 90e7 69d9 9cb6 a83f
00000390: 3348 6566 414b 9abf a003 47ef 2703 b4bf
000003a0: 9d7e 7ba4 8b01 91bf a2f4 0485 f0e8 b0bf
000003b0: eaf2 91f1 1140 aa3f 90bf fda9 46c8 9abf
000003c0: 7665 84b8 0912 ba3f 0fa1 4436 02b7 a73f
000003d0: 2fa9 3c78 a431 a13f 34ab 7a5f cd83 b1bf
000003e0: a151 5ea3 2542 6ebf 7f20 d042 46e6 953f
000003f0: ad24 0ae9 4da5 aa3f 30c3 c111 3e76 79bf
00000400: 2c30 c8da d617 aa3f 073c 136e 8e29 9a3f
00000410: d152 cde4 e4ec aebf e1ef 762f 8214 a23f
00000420: 9890 3d38 2684 b83f 82a4 953e 3db1 b5bf
00000430: af9e 64d6 8407 9f3f 96ca 09d6 c2f9 93bf
00000440: 6350 ee23 fd20 b23f 4776 9487 ff1e 62bf
00000450: c99f 59fd e139 96bf aeb8 15ff dab8 94bf
00000460: 78b0 0556 5e4d 813f aae5 6e1d 05df a03f
00000470: b220 f20b ec49 bebf 9da8 ee00 f850 bc3f
00000480: 8f98 491b ddba 6dbf 746e b8a5 86a2 823f
00000490: 175c d91e d617 a43f 6097 1318 f711 4d3f
000004a0: 209e 5ffa d841 a73f 6b63 fb0c f801 b3bf
000004b0: 70ea ed78 8ea0 933f 2738 8869 68a6 8bbf
000004c0: 379b 792d 9d9c 92bf 96cc 6af9 4839 783f
000004d0: c9d8 dfdb cf13 ab3f 5cab 2137 a946 54bf
000004e0: d4f5 1617 7315 913f 816c 34c7 79df c3bf
000004f0: ae41 3412 fed5 b2bf a448 fd4f 563c 7d3f
00000500: bd3f 6520 71a5 8ebf f574 8bf2 e781 41bf
00000510: f8f7 7175 01ba 90bf 0492 504e 6792 74bf
00000520: d151 f407 527c 73bf ab62 5a21 285f 753f
00000530: 0989 8d84 2c4a b73f 5181 6381 d7ab a0bf
00000540: 289c 60bb 800a b13f a0dd 42d7 c6b8 82bf
00000550: 367d e746 c4d1 87bf bacc 672f fe90 9dbf
00000560: 688e c1b0 4ddf abbf 9178 bfc1 ce59 a1bf
00000570: 85a7 4f40 958a a73f 56e8 c3a6 b4c2 a83f
00000580: 9753 bfc8 23ab 743f adb9 df19 11c5 ab3f
00000590: e5a5 0792 38cb 8e3f bf1f 84cd a444 a6bf
000005a0: 9987 d5ba 35ab 9fbf dd2e 002a aeeb b83f
000005b0: 1f81 3721 92c7 723f 9252 79b2 63a0 313f
000005c0: 7410 eef6 a852 a23f f7a0 5908 742e 913f
000005d0: 61e1 61b5 b0c5 843f b486 5014 27d7 b93f
000005e0: 4736 7cad 2da0 a9bf 5e25 aabe 8e8f 9fbf
000005f0: a814 175a ecff 983f cace b7ca d6be 9b3f
00000600: d69b 6700 41cd b43f 5e4c 5f9a d575 8f3f
00000610: 4f8a 7aa9 d323 a0bf d53a b1bc a726 aebf
00000620: 37ef c0ae 4107 ba3f 7eab 5eae b92c 983f
00000630: 3f8c d5ad e39e a8bf 9989 e6c5 25e3 873f
00000640: b619 47a2 8213 b1bf 893a 184c b600 893f
00000650: 1f4c 1341 14a9 c33f c38a 858e f3aa b2bf
00000660: 5d95 f9e6 1fcd 99bf 9661 80d0 5a18 433f
00000670: 8763 4f70 38af ba3f 3118 acdb 9614 b13f
00000680: fca9 65e3 f335 933f 7830 9d78 e55e 9abf
00000690: ae79 cf00 3ad2 943f a53a 005b 7451 823f
000006a0: 5b86 20e2 41b3 a7bf 1b7f 961f 08cd acbf
000006b0: db9a dc40 2429 90bf d23d 8d27 efaf b63f
000006c0: 148d cee9 09be af3f c2b4 46bd 74d3 97bf
000006d0: 14f9 8448 c44e be3f ff05 8977 c211 a1bf
000006e0: 7538 989b 06c9 9fbf 4f92 02be 1244 a23f
000006f0: 1ae0 3959 8d55 b3bf 4e4e b111 4151 bbbf
00000700: b692 9914 62ad ac3f 6886 adc1 793c 7cbf
00000710: 3ce3 fdcb 8bda aa3f cb8b b517 c134 a43f
00000720: c544 b520 cbfd 3f3f d086 1059 f74b b4bf
00000730: 15f2 369c 9ebf 923f 25e1 4852 54b0 b03f
00000740: d2c2 4d82 7156 91bf 43d9 796e 97b4 7b3f
00000750: 02f5 81bb 194a d4bf 25fd c14c c392 973f
00000760: 62d3 2e25 a9b8 a9bf 58b6 ec51 04f4 45bf
00000770: d3b8 a8a2 a5fd 9c3f 125f 60c2 3f20 993f
00000780: 4cce 4f2e 78e5 99bf e1ef 3c60 a67d b3bf
00000790: d73e c174 66e9 b2bf 6633 40bc b313 983f
000007a0: eef2 c6ed b77a 93bf 3aa9 8900 1be0 90bf
000007b0: db95 9721 19c8 8abf 0f83 2e8f 5227 b23f
000007c0: d3fe 6265 5938 8d3f 10ff 3783 0078 833f
000007d0: ad96 cff1 6302 abbf 98cb 2c62 9a2e 923f
000007e0: ebff 25b3 f256 943f 338d b283 d944 8cbf
000007f0: cea1 503e 7397 b73f 329f 841a fc9e 713f

linear_layers.1.layer.bias f8 [100]
0.12844444052516815 0.005374685689597833 0.20678903938979337 -0.08619490012805324 0.03118236758806026 -0.15221014990504983 -0.09710359823369105 0.13903573018580553
0.045613222305547055 -0.04742479144082869 -0.12687157337594945 -0.0009673270018135222 -0.148299808074446 0.20875258184027995 0.0026172474045570143 -0.031208098584803192
0.02090142870497978 0.060882143264884524 0.03622651813305233 0.10253367149555047 0.12035271687892218 0.04557570190910192 0.12395578759719647 0.10395129989157928
-0.1598315244932374 0.017201061427986403 0.05245979474683918 -0.26643272234666926 -0.08979035286067008 -0.045941283931125496 -0.12145458337491884 0.06499676060679863
-0.05153605809864483 0.009490249000493407 -0.22694863694881434 -0.10340785905209819 0.03352294801370253 -0.15102243444623037 -0.16380791228218583 0.016543291956344755
0.06788301666678459 0.1620842392198739 0.04462222725548207 -0.14309396976471608 -0.15070414162042958 0.09209634476983558 -0.23334465121280135 -0.22216832769355344
0.027180952522900127 -0.005198835410341057 -0.01123079794695486 0.07015068969916692 0.09686630255954674 -0.07889456099335758 -0.0179496965413495 0.09590420334898611
0.09748694390366552 -0.11197060938820526 0.07513807454894159 -0.13462561634358644 -0.13971196889969348 0.18363966103529333 0.13015165477964152 0.1982578677492964
0.058833398974084676 0.010013080024877868 -0.11600934937438691 0.06586222896774681 -0.03781993766955214 0.040831294033534825 0.029352543104691632 0.12006816914242488
0.004091288360658342 0.08634594113030584 -0.1372431807971465 -0.03516113943653044 -0.02270251826827411 -0.1234681184067289 0.0027076849366088483 -0.06022000721209808
0.06125084175047279 -0.04961468565763329 0.08794742756549113 0.06649171836878628 -0.0382359465548313 0.08930894050359331 0.02824672255083563 -0.040537326220563254
-0.18536149996264445 0.023554354566944307 0.07146003543008263 0.02541499110350029 -0.08090551585060439 -0.13678513059025751 -0.028930347895310776 0.0004369504047059593
0.05056506662101134 0.09856565389445317 0.2828527754599543 -0.060763697887700224
00000000: 794d b40f de70 c03f 57aa 3534 c403 763f
00000010: 82da ac30 1078 ca3f 1bc9 2175 de10 b6bf
00000020: 81a1 0244 45ee 9f3f ae10 fb47 9f7b c3bf
00000030: 16d5 bc0a c8db b8bf 55cf 0f3d eccb c13f
00000040: aa8f 22c4 9d5a a73f f215 84f0 0f48 a8bf
00000050: d48b 38e5 533d c0bf 6286 2deb 86b2 4fbf
00000060: b966 d7f4 7cfb c2bf 0ed3 fa93 67b8 ca3f
00000070: bc76 4200 c470 653f 5715 2b0b 04f5 9fbf
00000080: 7b06 e922 2f67 953f 6354 77bc f12b af3f
00000090: 2042 423d 488c a23f 1fec cf8d a53f ba3f
000000a0: ccce fa86 6fcf be3f 8738 62ca b255 a73f
000000b0: e63f e105 91bb bf3f b238 6969 8d9c ba3f
000000c0: 52bd 4801 5c75 c4bf 25a4 28b1 279d 913f
000000d0: b4c8 959d 02dc aa3f 5a0b 44d5 3b0d d1bf
000000e0: b26a 0825 80fc b6bf 5e76 0ab0 9d85 a7bf
000000f0: b569 8bc7 a517 bfbf baf2 26b1 a0a3 b03f
00000100: 2366 3228 ef62 aabf aa41 b4a8 9f6f 833f
00000110: 5291 c826 a70c cdbf 2334 c7fc ef78 babf
00000120: e7ca c47a eb29 a13f a255 7400 b454 c3bf
00000130: b8fc 095d a8f7 c4bf e4c6 ae87 b9f0 903f
00000140: 44a4 8908 c860 b13f 33bd 5225 2dbf c43f
00000150: d554 797d b9d8 a63f 6377 3238 e750 c2bf
00000160: e9d4 d0f7 454a c3bf 041a de44 a093 b73f
00000170: b4e7 d3ce 3cde cdbf 2c4e d302 0370 ccbf
00000180: 0ad3 a3d8 52d5 9b3f 8604 09c1 5f4b 75bf
00000190: 9f09 1f2f 2c00 87bf 77bd 0c46 65f5 b13f
000001a0: c7e3 93e1 3acc b83f c17a 4c17 6f32 b4bf
000001b0: c60e 79be 6761 92bf e2cd ee88 2d8d b83f
000001c0: 486d da83 e7f4 b83f 097f 6f19 1baa bcbf
000001d0: de42 dfb4 3f3c b33f 5a24 b385 693b c1bf
000001e0: 8f58 a4f0 14e2 c1bf fa92 3221 8181 c73f
000001f0: 7840 6636 cfa8 c03f c336 1489 8360 c93f
00000200: 6f2e 0349 691f ae3f 76a3 e9d9 bc81 843f
00000210: e9dd 97e9 c9b2 bdbf 6d48 75d7 58dc b03f
00000220: 4ddf da86 225d a3bf 5306 0ee1 d6e7 a43f
00000230: 6a9e c1d2 970e 9e3f 26df c19b c9bc be3f
00000240: 280e 52db 06c2 703f 8308 4c81 c41a b63f
00000250: 95b6 8f3e 2f91 c1bf 11a3 f00f a400 a2bf
00000260: ca0e ff35 543f 97bf 89d2 a74a 9b9b bfbf
00000270: a1f8 0448 6d2e 663f b0e9 1423 28d5 aebf
00000280: cf6c 5734 455c af3f b209 9a98 1867 a9bf
00000290: b93e 29fd b883 b63f 9e49 d9eb 9905 b13f
000002a0: 0e1e f877 a993 a3bf 4a0e b462 f3dc b63f
000002b0: 48d3 4c76 b5ec 9c3f 9dea c4f4 4ec1 a4bf
000002c0: ce76 23f6 ecb9 c7bf bb74 2cfa a11e 983f
000002d0: 29a9 2473 344b b23f 187d 782e 6306 9a3f
000002e0: 7bf4 a450 39b6 b4bf 636c 3bd7 2c82 c1bf
000002f0: 1bff 49c8 ea9f 9dbf 5552 bcb2 cfa2 3c3f
00000300: df23 ea16 aae3 a93f c94b fc43 993b b93f
00000310: c3bb 0b87 421a d23f 8463 6c5e 6b1c afbf
