7_Inv_Burgers/logs/models/2024-01-16-11-42-07_Lorenz_DNN_100X5/epoch_36000.pt (torch, 129595 bytes, 14 tensors)

mu1 f8 [1]
0	0x3fef81888a5b24e2	0.9845621778742066

mu2 f8 [1]
0	0x3f74d8e19cfa0c0d	0.00508964662697321

rbf_layers.0.centres f8 [128, 2]
0	0xbfc7396d979f31a3	-0.18144006637011242
1	0x3fdaa602278c55e6	0.41638234960677634
2	0xbf9f947a838fcc94	-0.030839838294877867
3	0x3ff27ddd5ad46003	1.1557286785155163
4	0xbfb356371c2d281b	-0.07553429067516541
5	0xbfe35bd43708e014	-0.6049595904250986
6	0xbfb4fcbcf9c047b2	-0.08198147866667574
7	0xbfd7639895b7a801	-0.36545385952797466
8	0x3fe9ff57872e453c	0.8124196663140206
9	0xbfd1f88297de5aed	-0.2807928546039154
10	0xbff05361eb48149e	-1.0203570547758214
11	0x3fbaaea9313c192b	0.10422761394520268
12	0xbfed21f8da684ff9	-0.9103969827433495
13	0xbfde00b417e45671	-0.46879293759534507
14	0x3fed1127b15fae4d	0.9083441223460312
15	0x3fe57db42959ba8a	0.6715946967722897
16	0x3fee326d1686996f	0.9436555328327766
17	0x3fe598d99a214f57	0.6749084482530446
18	0xbff714956cbb9bd9	-1.4425253150345638
19	0xbfdbde05af57789f	-0.43542616008006435
20	0x3fe2a5397d92cfcf	0.5826690151793573
21	0xbfe912fd8deafb4e	-0.783568169768708
22	0x3fefaa727b1a0c60	0.9895565418559151
23	0xbfc94146a95f7f29	-0.19730456609885863
24	0x3fc9a377d4444716	0.20030114998422083
25	0x3fafced90d053a05	0.062124998893171614
26	0x3fb84c1c390c9747	0.09491135018160178
27	0x3ff5d0912eb5f7df	1.3634197067872191
28	0xbfe33cb2e3de875b	-0.6011595202037187
29	0x3fc7f8aa05ab3150	0.18727612759392764
30	0xbfc9077b36dec581	-0.19554081134041826
31	0x3ff01817d65ef6bf	1.0058821081033071
32	0xbff8e65d60318199	-1.556241393809705
33	0xbfe5c9377eaac09a	-0.6808125947918768
34	0x3ff0ba529ebc1804	1.0454889488769377
35	0x3ff6b6073297b56d	1.4194404579423818
36	0x3fb1565cdb36fc5b	0.06772404052661456
37	0xbfa8fd2b558bfa9d	-0.04880652827522634
38	0xbfd042ecc0bde2c1	-0.25408476660190266
39	0x3fd6549c0dd3fb28	0.348914159301716
40	0xbfb9898861ca7d3d	-0.09975483310198725
41	0x3fe0a6062401adc5	0.5202665999653894
42	0xbfb47f10971536f1	-0.08006385506197568
43	0x4002383a91cc9df6	2.277455462510029
44	0xbfdaedbdc91f0c4f	-0.42076058045148995
45	0x3fe161821c97ac3d	0.5431528624006955
46	0xbff16eb6d01108e0	-1.089529812583855
47	0xbfe4021c6e55fb30	-0.6252576975819917
48	0x3fea0be00e3921af	0.8139496114536565
49	0x3fc81c12fe4eab6b	0.18835675637577806
50	0xbfd5d44b8e9765b8	-0.3410824673170185
51	0x3ff20aa1553e0012	1.1275952653668395
52	0x3f9dcbbc2e7c2677	0.02909750016900722
53	0x3fee8a8be3b8021f	0.9544124076492756
54	0x3fed237e7447bdbe	0.9105827590082567
55	0x3fbf434c9bf22794	0.12212065512917852
56	0x3f85b11fba5fa6c0	0.010591743350193084
57	0xbfdd3b3474253904	-0.4567385801536974
58	0xbfd66bb3d95e6ced	-0.3503236410849258
59	0xbfdb247e26951a21	-0.4241023422986548
60	0x3fd2bce52b57a5d5	0.29277924759534574
61	0xbff93c1da218eebf	-1.5771766979150212
62	0x3ff06c7d7c7820da	1.026486860473645
63	0xbfc359cc497fa386	-0.1511779173736409
64	0x4001db1737f7560f	2.2319778797489174
65	0xbfe404cb15dda0de	-0.6255851199212221
66	0xc001ccf1c310dad5	-2.225070499374264
67	0x3fb85b8a0a885a76	0.0951467776979856
68	0xbffa34a0ad4facc1	-1.6378485460252679
69	0xbfe8118185c48843	-0.7521369564676735
70	0xbfc9a386916f38fe	-0.20030290700237424
71	0xbfda86855b6d8162	-0.41446050575725313
72	0xbff92189759dfd1d	-1.570687732164351
73	0x3fd7259324e192e0	0.36166838266062307
74	0x3ff1c6a7805c328f	1.1109995855396482
75	0x3fddc64179ce4894	0.46522557158562816
76	0xbfce4f2d013ef387	-0.23679125367007378
77	0x3fe1eed30766d25a	0.5604033608020231
78	0xbfef09eaa7977800	-0.9699605248713397
79	0xbff9fdf93b3184e0	-1.6245052635425097
80	0x3ff2435de59553ba	1.1414469688508988
81	0xbfe9be5c3b0bb0b5	-0.8044873383746763
82	0xbff09e51dc2e0bc1	-1.0386522866035508
83	0x3fea39d90ea9e1c0	0.8195615087889152
84	0x3fea4f759648396b	0.822199624557283
85	0xbffbb78e33280844	-1.7323133467002814
86	0x3fe47a9d1d5748f5	0.6399674962106291
87	0xbf73d26108df3a0f	-0.004839304963708559
88	0xbff078bc855ba460	-1.029476662568662
89	0xbff0280454844876	-1.0097697545466224
90	0x3fadafcbd89c2c90	0.05798184413114271
91	0x3fe647647fada651	0.6962149137227219
92	0xbffba8e165319a5f	-1.7287305786973304
93	0xbfcc1f85d1357455	-0.21971199717782733
94	0xc00027a9de15c488	-2.0193669653313613
95	0x3ffed1ac2e6e1be8	1.9261895955730726
96	0x3ff30204edc086ca	1.187992981642696
97	0xbff0ec1cce0bd0f2	-1.057644657962609
98	0xbfdc5b16b373b75c	-0.44305961155520435
99	0xbfe7c61906ba8dfb	-0.7429318553371894
100	0xbfd7866f7acba0fe	-0.3675802897619319
101	0xbf5f32ad72c8414d	-0.0019041723090858665
102	0x4003979fe87bc009	2.4490354693189187
103	0xbfe6f8a639fa997c	-0.7178527004623869
104	0x3fba05aed502fdb2	0.10164921474915081
105	0x3ff23e0dee73b135	1.1401500048187476
106	0xc001f517a7d8698a	-2.24467402581394
107	0x40027caf55c3aeae	2.3108813000051986
108	0xbfcfe80c63fe2055	-0.2492690551991951
109	0x3fe7c764e05211ef	0.743090093732972
110	0x3fee303e2b189635	0.9433890191764421
111	0xbfc2eec5b471adda	-0.1479117518496043
112	0x3fe35d7c3347125f	0.6051617623821349
113	0xbffbff56a384f72f	-1.7498384845234332
114	0xbfd01b5539184e8e	-0.2516682679717882
115	0x3fec1a234a295073	0.8781906555618789
116	0x3fc32742fe11909a	0.1496356716699026
117	0x40016bfc8e7237a3	2.1777278069120753
118	0xbffa1529cc294378	-1.6301668143316572
119	0xbfefb0cecfd0dc4a	-0.9903329905417959
120	0x3ff3dc5e07162b86	1.2413006092853904
121	0x3ffe76e4b6d1cc69	1.9040267125499446
122	0xbfecc412d1b11d30	-0.8989347549003579
123	0x3fc640de968477af	0.17385465955243037
124	0x3ff8b3e19ba181c7	1.543916328366423
125	0x3fe96ddf386bb868	0.7946621038406763
126	0x3febbb50c474b5f1	0.8666156613377877
127	0xc0000aedf41e59b7	-2.0053366729509565
128	0x3fe660b55d5aeae3	0.6993052314131457
129	0xbff057ddaf0fbbe2	-1.0214516485536866
130	0xbff0f702c5960772	-1.060305377789032
131	0x3fdde691edebf3cb	0.46719787821330944
132	0x3ff128236af9c160	1.0722994021162648
133	0xbffe7a8c796bb492	-1.9049191229817422
134	0xbfe770b48dd60a81	-0.7325079698787961
135	0xbff1413c5565454c	-1.0784266792073423
136	0x3fc3f18a02c790fe	0.1558086885044147
137	0xbfec31fde14158d8	-0.8811025046841463
138	0x3ffc93fe9bc8753b	1.7861314854884103
139	0xbfe6afad1238ae01	-0.7089448314558809
140	0x3ff58912aa5b0e34	1.3459650663870777
141	0xbfdc681bb5a610e4	-0.44385426272516626
142	0x3feaa9c9d69b3698	0.8332261268166858
143	0xbfca5ebf59e052f5	-0.20601646316995184
144	0xbff1e6a91eede130	-1.118813629929786
145	0x3ff32bf86f75c2bf	1.198234973326336
146	0xbff1fbcb34cee14c	-1.1239730894868272
147	0xbff388a141548d2b	-1.2208569099391962
148	0x3fa5b0279bfa8fdc	0.04235957888639039
149	0xbfcdcc49ccd9536f	-0.23279688360585335
150	0x3ff332e4ded5785e	1.199925299114987
151	0x3ff41f33c2dd6e22	1.2576177226936882
152	0xbfd92a6db1462a4a	-0.39321462928697726
153	0xc003bc9a1ad5a51e	-2.467090806622436
154	0xbff2b097ce450b02	-1.1681135232362867
155	0xbfc10343fe6d926a	-0.13291215823405206
156	0xbff07e97f3e477f7	-1.0309066321419758
157	0xbfe1872ac67a77b1	-0.5477498890429527
158	0xbff2df8f008fb567	-1.1795797368934815
159	0x3fa30ea934b163c7	0.03722122925018528
160	0x3fe8b8d8c8fbc133	0.7725643086869581
161	0x3fa0f673e2a7b526	0.03313028470788941
162	0xbfc40226a510e1ce	-0.1563156419740736
163	0xbfd19e833985dc7c	-0.2752998410937335
164	0xbfe081656d007611	-0.5157954338971554
165	0xbfe866b8f6867ff9	-0.7625393691014316
166	0xbfe80db52ac3cf27	-0.7516733012439304
167	0x3fd203728ac9d74a	0.28146041444357606
168	0xbfe10295c901e6bf	-0.5315655637670814
169	0x3fdf1d595662947e	0.4861663192371636
170	0x3fdaab8b4de51f61	0.41672022444662643
171	0xbff492f38e46db70	-1.2858768041312167
172	0xbff872ea38b5b3e3	-1.5280554023004178
173	0xbff0d9731ec1f925	-1.0530883027527775
174	0xbfe5ec2219bd7833	-0.6850748541580799
175	0x3fe0882606695864	0.5166196942543704
176	0x3ff322fe8dfaad7f	1.1960435434401402
177	0xbff4d33f3def907e	-1.301573984085763
178	0x3fcc024108e47532	0.2188187879009234
179	0xbfede633e66a0e2e	-0.9343509197501072
180	0x3ff108af7f43ab54	1.0646204921019562
181	0xbfd0858bd1b6e4fc	-0.2581510112755294
182	0xbfed7fa8cae365ed	-0.9218334162389376
183	0xbfe9be922a9b2ef2	-0.8045130569603016
184	0x3ff3723ead23a6c1	1.2153918040516347
185	0xbfe300cb2d3470e4	-0.5938468821437053
186	0xbfc3e00bc4e6e185	-0.15527484049176735
187	0xbfbe629350743d02	-0.1186916419430766
188	0xbfd4111505b8f695	-0.31354260977591625
189	0x3fd213a434c15bf9	0.28244881774793346
190	0xbfcbf8a373508be3	-0.21852534418675792
191	0x3fcbc30a49c9ca54	0.21688965418759898
192	0x3fe87db6faea8d02	0.765346040793162
193	0x3fcbe844b063eaba	0.2180257664948238
194	0xbfe1be5b15f53f60	-0.5544867924563555
195	0xbfc56b29dd32be91	-0.1673328714436946
196	0xbfef3a93b354644b	-0.9759005072147685
197	0x3f7b9d766d9a7d56	0.006741964921871476
198	0x3fc47391466da79c	0.15977683962711076
199	0x3ff2fd9762bf0846	1.1869119508051127
200	0x3fcd9fac31191400	0.23143532178269766
201	0xbff307187c0020c1	-1.1892323344964526
202	0xbf5c8745b74ed111	-0.0017412358113065333
203	0xbfd0380d8f030ba5	-0.2534212013817359
204	0x3ff1fa85f9597313	1.123662923833028
205	0xbfe314bc8019fe45	-0.596281290243447
206	0x3feb12ef42a09957	0.8460613538089018
207	0x3fded74e0e1610b7	0.48189116836170903
208	0x3ff56d2d1bbc14ed	1.339154346789026
209	0x3fd79f79679e0c9e	0.3691085349930264
210	0x3fa93de790132a54	0.04930041917539954
211	0x3fd3b18c65e58124	0.3077116961558366
212	0x3fdceaba09febed8	0.45182658172687473
213	0xbff6961f7532bd14	-1.4116510942511171
214	0x3ffc3a9eba4cd1ce	1.7643115308138593
215	0xbff4ed0bf39e843f	-1.307872726094743
216	0xbfe5ff2156a474a8	-0.6873938266977762
217	0x3fd27e3697180576	0.28895344500786935
218	0xbfcce25e8b2b424e	-0.22565824313507438
219	0xbfe45c8eab906b7f	-0.6362984991895785
220	0xc00546d49383b148	-2.6595851444782603
221	0x3fdb3523aa5f5da4	0.42511836660329494
222	0x3fed1aac3f1d929d	0.9095059616780251
223	0x3fd589acc5a72e66	0.3365280084806045
224	0xbfe0d02a918961fa	-0.525410923243782
225	0x3ff108cd3588fdc3	1.0646488276687343
226	0x3ff4cbbed4bf38d3	1.2997425375393064
227	0x3ff5eafab544dcd7	1.3698680001087291
228	0xbfbf8ca9332410ae	-0.12324006556088093
229	0x3fe1686a44e8c250	0.5439959855921845
230	0xbfe81180c49c6450	-0.7521365966850997
231	0x3ff8aa8fef2451f8	1.5416411725501558
232	0xbfe5e2371061faa0	-0.6838641471839146
233	0xbfd5e732add7b1d8	-0.34223620392620324
234	0xbff37d1dab82fa2c	-1.2180458736107864
235	0x3ff202b54c3d9c09	1.1256611803198686
236	0xbfed4825065a9e22	-0.915056717310055
237	0x3fdfc9e60621353e	0.4966979083881887
238	0xbfc8113ce0f759fc	-0.18802605614355616
239	0x3ff787425d492384	1.4705222743961892
240	0xbfef2402af0c3017	-0.9731458109758958
241	0x3ff512d4624a0d17	1.3170970763611132
242	0xbfe655722dee7b6d	-0.6979304215527528
243	0x3fe5a900a831324e	0.6768801960948367
244	0xbfcf61196a6b393e	-0.24515073486549882
245	0x3fec3f873a8e3bfc	0.8827549117721669
246	0x3fe73527835fc501	0.7252385679149996
247	0xbfe90bbe830042ec	-0.7826836165059752
248	0x3fc5dc8bdeef94b1	0.17079304109134832
249	0x3ffecdfdf3af1060	1.9252910155201093
250	0x3febc6e7470f51b4	0.868030203617812
251	0x3fa7f2d41bf24afe	0.04677450982230445
252	0xbfbc7435853d4538	-0.11114820959962379
253	0x3ff387b7bd927f05	1.2206342129865686
254	0x3ff3b4f379cb962c	1.231677509081588
255	0x3fe8c88dbcea3335	0.7744816484206242

rbf_layers.0.log_sigmas f8 [128]
0	0xbfb89e8a46f48097	-0.09616913063337261
1	0xbfbb54264e359490	-0.10675277146727269
2	0xbfbb6afaa154a65a	-0.10710112036454103
3	0xbfbc5d9ddeb21aae	-0.11080347716242997
4	0xbfc200a9427f22de	-0.14064517733483844
5	0xbfa272b0f764f94a	-0.03603127498580479
6	0x3f913d7d6365a6b2	0.016836127464023583
7	0xbfc8c3ee4975ba5a	-0.19347933375270793
8	0xbfc96f2f29da8922	-0.19870557349811074
9	0x3fb25a39603079be	0.07168921087620725
10	0xbfc2f3fe38d3e8e3	-0.1480710771064145
11	0xbfbe1a4fd1a81ca0	-0.11758898609706359
12	0xbfcc2b1d0ba58162	-0.2200657183520987
13	0xbfc157d6423c4087	-0.1354930709280817
14	0xbfa42ba45bd1cc0f	-0.039395462234914295
15	0xbfc0c56145abbaa6	-0.13102355863471365
16	0x3fbe3a6795c820af	0.11807868391781783
17	0xbfa85e924571c6df	-0.047596522309403026
18	0xbfc01c457422c8fb	-0.12586277170846202
19	0xbfc0cc8846806d61	-0.13124183123077685
20	0xbfcc0df698cd1ad1	-0.21917612515445353
21	0x3fa961e5162e8ded	0.0495750035836656
22	0xbf8bb0c4284656a4	-0.01352074859532177
23	0xbf83b35fd5ac6c24	-0.009619473179148193
24	0xbfc006d679e918a9	-0.12520867302572938
25	0xbf8ad66707b3003b	-0.013104252741300218
26	0xbfb644fcd5bf9a6a	-0.08699016779392257
27	0xbfb51f12259b8a5a	-0.08250535410074047
28	0xbfbd17caed9849e9	-0.11364429760605045
29	0xbfa572ecb742664c	-0.04189243065884493
30	0x3fb1e0b5383b4720	0.06983502028313326
31	0xbfa8267aa7cf2afa	-0.04716857241108659
32	0x3fbf113bbfa01d4c	0.12135671070438042
33	0x3fcdfb228babb9c7	0.23422653026450588
34	0x3fc39d94bbdeb018	0.1532464902242061
35	0xbfb35974a730520b	-0.07558373529202116
36	0x3fb3e99fc6a56031	0.0777835712409576
37	0xbfb0bf2c0c8ea1de	-0.06541705423899866
38	0xbfbf7469ecad66e2	-0.12287008312469141
39	0x3fb9e1418c875642	0.10109338456035125
40	0xbfb5b6eb1e1bca7d	-0.08482236371109227
41	0x3fb99954c0fc5852	0.09999589644971366
42	0x3fc09cd42b312253	0.1297860346696945
43	0x3f88652edeca426a	0.011911741422666117
44	0x3fbb253deb04b50c	0.10603701579812624
45	0xbfb9dfdbe52135e1	-0.10107206672656545
46	0x3fc060cdbda9187d	0.12795421372192442
47	0x3fced6d7774cb9ba	0.24093144726925947
48	0x3f532b5a10212a58	0.0011700038453620522
49	0xbf928966c351ba59	-0.018102269812909053
50	0xbfc037870ea76095	-0.12669456687467986
51	0x3fc4ea3eb5651dcc	0.1633985887258248
52	0x3f92479d44c285a2	0.017851311990516934
53	0x3fd57a1c077b0b60	0.3355779717496059
54	0xbfc7e1c9cef31975	-0.1865780125137452
55	0xbfbda3802ecfbba8	-0.11577607291086045
56	0x3fcc89a57c8745d9	0.22295063572396037
57	0xbfc0626ac9040078	-0.12800345244614042
58	0x3f9cd62039e57d7d	0.028160575422018653
59	0x3fc6d516273a3e53	0.17837788501172955
60	0x3f79308feecd8892	0.00614982818373923
61	0xbfb14f9ae82fcd68	-0.06762092751141824
62	0x3f92f25180491082	0.01850249619953149
63	0x3fc870db7d9f8d43	0.19094413408229557
64	0xbf9a1fd861335b61	-0.025512104923872573
65	0x3fa96a04278a4a63	0.049636964632686874
66	0x3fc35279402c742f	0.1509543956134691
67	0x3fa43efece715a3b	0.039543116283927
68	0xbfb2e62e30675e30	-0.07382477456791814
69	0xbf9539c380857301	-0.020728163451496865
70	0xbfabc9c23a3887b2	-0.054273671729120024
71	0xbfbcdda5f42e7a24	-0.11275708400214818
72	0x3fba4fd5f108ad23	0.10278069624535084
73	0x3fc37ffb8c149274	0.15234321918355287
74	0xbfc3b894a1cdc9f7	-0.15407045269564865
75	0xbf742ff9bcc746b9	-0.004928565537243018
76	0x3fc893355decda48	0.1919924458140534
77	0x3f84439a4f80fb96	0.009894567061676612
78	0xbf80ad867b9cca46	-0.00814347328887267
79	0x3f8642f17ad5dcf9	0.010869871674670227
80	0x3fa43db86a727974	0.03953338908580664
81	0xbfb8caa6ec3ba6fa	-0.09684222476394302
82	0xbfa9be886915c924	-0.05028177531029801
83	0x3f9065d507c5e024	0.016013458823607732
84	0xbf937a59130936a4	-0.019021407877792954
85	0x3fa31b0f7d39f956	0.0373158302654583
86	0x3fc4cd4a651bd5b6	0.162514972085473
87	0x3f9e2201e03f780a	0.029426602661139646
88	0x3fa1578eda558ced	0.03387113967144182
89	0xbfac10529ba80f32	-0.05481203222373522
90	0xbfb99dd6c8091f12	-0.100064681851219
91	0x3fabf6379b179d64	0.05461286323753248
92	0xbfb67d3bb3eb7907	-0.08784840719770069
93	0xbfb7d968b9fdff0e	-0.09316114941429651
94	0xbfbfd753e98a02b5	-0.12437939120901371
95	0xbfc3b60a54824b89	-0.15399293066419897
96	0xbfc6e09407dc8ec0	-0.1787285841356745
97	0xbf65ffbb19bf27e1	-0.0026854185398166174
98	0xbf699695787fb489	-0.0031235617971022184
99	0xbfbb0ab3801ed287	-0.10563203695239497
100	0x3f47bf57658476fb	0.0007247139683703435
101	0xbfc07199a8bd093e	-0.1284668039243772
102	0xbfb626409a0ed8a5	-0.08652118455106235
103	0xbfb112642705b07d	-0.06668687775317213
104	0xbfaba59969bc846e	-0.053997797162318104
105	0xbfbf8a5084f318bc	-0.12320426221694708
106	0x3fb20eb642e7bded	0.07053698666981463
107	0x3fbb29fd96fcc89a	0.10610947548119257
108	0xbf39f1c88887c3c5	-0.00039588113625571255
109	0xbfb6b6dd9b6579ff	-0.08872780841691251
110	0x3fd2ce817cc5c15c	0.293854114387633
111	0xbfc61538c04ac94f	-0.1725226344038426
112	0x3f993563c1069446	0.024617727905610808
113	0x3f97cb31e4ec1790	0.023236064526848177
114	0xbfbb7bfc9d6f176e	-0.1073606380806191
115	0x3faa916a354840fb	0.05189067745607364
116	0x3f6dfad5189d3161	0.0036596452745582407
117	0x3fc12bd433e70e8f	0.13415005239777542
118	0x3fa53da94634d6dc	0.04148606283199083
119	0xbfb42ad354975e19	-0.07877846541611468
120	0x3fb931615d0b569e	0.09840973397816774
121	0xbf5488bbbf75a794	-0.0012533029056051902
122	0xbfbd17c24cb75b2b	-0.11364378331141427
123	0xbfa5c67cee0ba1d1	-0.042529968317299834
124	0x3f6f7e531c739ee6	0.003844415975993931
125	0xbf9918620e30d93e	-0.024507076374186136
126	0xbfd00585bd46cbab	-0.2503370617297899
127	0xbfac9824fc9e6dcf	-0.0558482702610622

linear_layers.0.layer.weight f8 [50, 149]
0	0x3f94ecd6f99c71bc	0.02043472193246186
1	0xbfad92b96ca26114	-0.0577600426779005
2	0x3f9d2cffa970adf0	0.028491968838506965
3	0x3fc44fece5e3cc5e	0.1586891291150065
4	0xbfb7f0e3d1e85e3c	-0.0935194385023061
5	0xbfa56a6ee56bf26d	-0.041827645783972446
6	0x3f951cd0647a04a5	0.020617729313475625
7	0x3f9c8a8187c2a9e8	0.02787210837474588
8	0xbfb2e5da9944ebde	-0.07381979219364562
9	0xbf952349379d40d5	-0.020642417926240626
10	0x3f9990560477165e	0.024964660666020648
11	0xbfb3b51aed5df0e6	-0.07698219580737806
12	0x3fb52f4c7746d73a	0.08275297081021629
13	0xbf9191556d73b877	-0.017155966573163952
14	0x3fb60b1cb4a6c9a2	0.08610705767094953
15	0xbfa0b9fbea98c002	-0.03266894568184854
16	0xbfaa1742c4b16fce	-0.0509587159255883
17	0x3f7c805abcad11f7	0.006958345834224825
18	0x3f97eeb3baf699e2	0.023371513639767978
19	0x3f93eb5bcf81b396	0.019452509441567033
20	0x3fb1115b225598d1	0.06667108143082891
21	0xbfa5f8ddaa3a788f	-0.04291432097419189
22	0x3fbe3cbd887dab23	0.11811432440087492
23	0x3fb86e6617c211d2	0.09543455200225218
24	0x3fa2325c98b20f05	0.035540479316322794
25	0x3fa53bb14f0be9f1	0.04147104349063458
26	0x3fb8dc2c07e5ace8	0.0971095580368232
27	0xbfb900ce46c3f10d	-0.09766854503317664
28	0x3fae9db46660c627	0.059796941277806596
29	0x3fbca130b516e682	0.11183456822518603
30	0x3f96645776e7f4bb	0.021867148048831036
31	0xbfb6c2a45de4e8e5	-0.08890750210131022
32	0xbfb041d987e920d0	-0.06350478714114449
33	0xbfbe321587d74499	-0.11795172277858725
34	0x3f3a971a14cbf128	0.0004057348894972606
35	0x3fc4fbc116b700d1	0.16393293007968748
36	0xbfc0102d7fe676d8	-0.12549370522622527
37	0x3f816602aca0b620	0.008495350735837681
38	0x3fad1662378b5f75	0.05681139877350364
39	0x3fc60c9a2106459c	0.17225958454632184
40	0xbfc1167d52258d9f	-0.1334988261324783
41	0x3f93edd96b51f3bf	0.019462010550785665
42	0xbfc6c91a98a1d531	-0.1780122037195411
43	0x3f8922f72ccfd104	0.012273722701117602
44	0x3fb16aa71661f0a0	0.06803364082765251
45	0x3fb66896cd45d925	0.08753340255302484
46	0xbfbb4c8ec709740a	-0.1066369281702039
47	0xbfe0fc2fb61b6f8e	-0.5307844692974741
48	0xbfb65350b2cff691	-0.08720878949676548
49	0x3fc1defdfbd10937	0.13961767955522372
50	0x3fa6a7085927e73b	0.04424310768440739
51	0xbfc1134dfdfe6e93	-0.13340163137478508
52	0x3fb4b024aa742503	0.08081273232905421
53	0xbfd5c385539f008e	-0.3400586430179907
54	0x3f50af3471eaf2e4	0.0010183345945470818
55	0xbfb68e0a8e643e78	-0.08810487724644556
56	0x3fa2123129b2db62	0.03529504426972242
57	0x3fb3414227089f58	0.07521451428385484
58	0x3f914da402eb8b00	0.01689773814986051
59	0x3fabdc8a1520bea4	0.05441695697697682
60	0xbfb762aec6d7e6e5	-0.09134952883314502
61	0x3f98b3c7e31986a6	0.024123309360567412
62	0x3fbb50594c9315ff	0.1066947757672878
63	0xbfc4243941393a8d	-0.1573554581140865
64	0xbfbfdbc72aae8436	-0.12444729606660662
65	0x3f475abfacb6644b	0.000712722388402595
66	0xbfb487c18107ee29	-0.08019647026224476
67	0x3fa163f4932334bf	0.03396572395431851
68	0x3f58dcab8f4c47a7	0.0015174556148775749
69	0xbfc84d5b33cf9f01	-0.18986072568736037
70	0xbf86a4fa9b335ec6	-0.011056859837864318
71	0xbfb0c570348d65b2	-0.06551266940132086
72	0xbfc2a21f448182c4	-0.1455725750447724
73	0x3fc04066c862401b	0.1269653776585081
74	0x3fac5d8f4f24ac11	0.05540130463699467
75	0x3fa1e3f65bb7ccb1	0.03494233960727778
76	0x3fc4393f377f26ba	0.15799703798102432
77	0xbfa5406b729b4c4c	-0.04150710844046354
78	0x3f92b6a749b77d02	0.01827489268714278
79	0xbf98c61f5f789e6e	-0.0241932775517441
80	0x3f804ef108da49d1	0.007963069040930389
81	0x3fb2f100894b7cfd	0.07398990013051683
82	0x3f95e11a68b8e3c8	0.021366512910592467
83	0x3fa679cc7f8abfb2	0.043898001259889866
84	0xbf7cb7fe154756dc	-0.007011406433283542
85	0xbf9ea5907899ecfe	-0.029928452835958012
86	0x3fb6db2153248423	0.08928116111611976
87	0xbfa152951071999e	-0.033833177811902745
88	0xbfc4d9ab4ea88165	-0.16289273586972822
89	0xbf608ab5959ac66e	-0.0020192667551207
90	0xbfaaf07bf8823bf1	-0.05261599930337713
91	0x3f94ba3c684861a3	0.02024168383113224
92	0xbfc715da0de84a14	-0.1803543632418757
93	0x3fc2ab0d1bc42ac0	0.1458450685098196
94	0x3f91eb956af3068e	0.01750024285570944
95	0x3f9aa24cd15b4453	0.026009750631434802
96	0x3f91a4e7290014bc	0.017230617406330792
97	0x3fc1740439c4a5cb	0.13635304280005153
98	0xbf96f9f7f9ffc4aa	-0.022437929757818033
99	0xbfae5853c6241547	-0.0592676333781506
100	0x3fbbd3dc89551a67	0.10870149948923712
101	0x3fb71509f66232e2	0.09016477837776507
102	0xbfb1f5e8b6392489	-0.07015852402504853
103	0xbfa8e8ab5027c6bf	-0.04865012505969223
104	0x3fa70e74aa137023	0.04503216339227858
105	0x3fb3d6648ba2eaec	0.07749012383548476
106	0x3f90bfe00d250156	0.0163569458029554
107	0xbfb4c1961063c033	-0.08107889080179191
108	0x3fbc56081600b475	0.11068773781944848
109	0x3fc58e7a2adc54ed	0.16841055958563036
110	0xbfd3f1a89c3c6ead	-0.31162467248371223
111	0xbf8f57e4461cf824	-0.015304358853992346
112	0xbf704ffb457cfcbc	-0.003982526330047861
113	0x3fa82b8bd341a8a5	0.047207231081146696
114	0x3fbc2a6094f28ec2	0.1100216258660636
115	0xbfc20487a3f5b476	-0.14076323991631384
116	0x3fa8f89f6c123d6d	0.04877184099415897
117	0xbf97759238907a0e	-0.022909435942091654
118	0xbfb2211f669873e6	-0.07081791167043114
119	0xbfc05f0131b257d1	-0.12789931227297172
120	0xbfbcc861cc84d2b8	-0.11243258708129644
121	0xbf9a283b5efd4cd3	-0.025544097588249336
122	0xbfa1de5afbe4edee	-0.034899562119303215
123	0xbfb02de638483c6b	-0.06320036768032515
124	0xbfb83ead6d55ed2b	-0.09470638198211094
125	0xbfaee5de16646dfb	-0.0603475000700335
126	0xbfb2ac89a923f41c	-0.07294521693616257
127	0xbf9de3ce9c00f8a6	-0.029189327499118754
128	0xbfaed18fa3abd104	-0.06019257424296323
129	0x3f6a9ac0fd1e441a	0.003247620516909422
130	0xbfc07c050112d26d	-0.12878477623384602
131	0xbfb22b16085485b7	-0.07096994117139031
132	0xbfa30e868f214287	-0.03722019669715331
133	0xbfa9d6733cb6eb51	-0.05046424976486342
134	0x3f8bc78dd708c8c5	0.013564212918116056
135	0xbfb77d3c01886711	-0.09175467526838711
136	0x3fadd9a41bcc2283	0.058301094430196286
137	0x3fa857e2050e8835	0.047545493237763393
138	0xbfb1e8cda80e203c	-0.06995854714307453
139	0xbf52ff884830ed40	-0.0011595564726708113
140	0xbfa8bf2f6826e412	-0.048333627189499975
141	0xbfa4eb3c8561caa6	-0.040857211381895284
142	0x3f993231197d1228	0.024605529003809107
143	0x3fa1c267b3218065	0.03468631803184578
144	0xbfb08f99449ae145	-0.0646911423199344
145	0x3fa32b26d4b32ea1	0.037438596214625315
146	0xbfb3cd833e712c06	-0.07735462450470729
147	0xbfb055dc6da60d41	-0.06381013562172645
148	0x3f8c8a1be0bf4617	0.013935296818007576
149	0x3f978a7e9cb06b4e	0.02298925238947485
150	0x3fa1e331c8eac04d	0.03493648126220759
151	0x3fca4302e13289d9	0.20517002101867268
152	0x3fb4b283f8851a6f	0.08084893052464691
153	0x3fb5a1d7e7a43026	0.08450078397089608
154	0x3faefb62f08c2881	0.06051167665835156
155	0x3fb670dae89644a5	0.08765953234093844
156	0xbfc20225e6a145e2	-0.1406905532954133
157	0xbfc56832f1253b55	-0.16724240088157197
158	0xbfa4f146b0df4910	-0.040903290835233475
159	0x3fc401ee6e31ea20	0.15630894070257373
160	0xbfa9c257945c0972	-0.050310837612431394
161	0x3fb697244844894e	0.0882437397417892
162	0x3fab7da0a29542f8	0.05369283661514673
163	0x3fbe5def444cd1ec	0.11862082879526498
164	0x3fc0c3f42083edb9	0.13098002994216332
165	0x3fb173954fe6cc77	0.06816991043779007
166	0x3fa714358854489d	0.04507605828452308
167	0x3fb14e626a1f8cf7	0.06760230151080636
168	0x3fabdd7a39c7c83b	0.0544241138012613
169	0x3fad3703d28bb236	0.057060355616929945
170	0x3fc7afd153d7f214	0.18505302995608075
171	0x3f9863ef6019b5e9	0.023818722000603563
172	0x3fb9f7a0251f1420	0.10143471628460121
173	0xbfb7358486c6138a	-0.09066036501287847
174	0x3fb38688047d2664	0.07627153501121026
175	0x3fb984d69f523fa5	0.09968320264510895
176	0xbfb52da7cd542d71	-0.08272789729033093
177	0x3fc5d6bcb019e145	0.17061575506864748
178	0x3fbff565c0304f46	0.12483821813685578
179	0x3fc995e60d40e493	0.19988704344885785
180	0xbfb8932337cf32b7	-0.09599514114888562
181	0xbfc127919fc4188d	-0.1340200452907009
182	0x3f9c46692b01e1bb	0.027612345933876386
183	0x3fc0d294a479b439	0.1314264109709329
184	0x3fbd471097f807f3	0.11436561308076403
185	0x3fbe0b6b213d86f2	0.1173617321160483
186	0xbfb8ca3401804459	-0.0968353751816421
187	0x3fbcfcdcfa659e50	0.1132333861656829
188	0x3fb52fab2ab43c57	0.08275861542300454
189	0x3faefb6fc18c6bcd	0.06051205861714202
190	0x3fc0cd1f0f0ff9c4	0.13125980601757992
191	0x3fad9c5754a3069c	0.05783341320194532
192	0xbfa543358c496e90	-0.04152839028821831
193	0x3fc709bab07787ed	0.17998441330479356
194	0x3f94da67a0ed365e	0.02036439819067081
195	0x3fbdba992ca89eab	0.11612851467418277
196	0xbf99913dad52e43c	-0.024968112663121142
197	0xbfac6726552bd96f	-0.05547447004021221
198	0x3fc852b13a0a7af9	0.19002356847791882
199	0x3faed50cbc28d332	0.06021919056767046
200	0xbfa94a4767df5dc9	-0.04939482825255543
201	0x3fb40946a21cf838	0.07826653917160875
202	0x3f9979e7fa85174e	0.02487909761955303
203	0x3fbf55faef616f0a	0.12240570396664566
204	0xbfb879bac17f49ec	-0.0956074449925734
205	0x3fc505d7754a2227	0.16424077250509692
206	0x3fbb074676b2e238	0.10557976148528148
207	0x3fbe87d2810dca39	0.11925998354653523
208	0xbf5f331890f645a5	-0.001904272070394655
209	0xbfbba11055dd5865	-0.10792638870529599
210	0xbf857170860e7a84	-0.010470275012093973
211	0xbfc9ad11737f4cf6	-0.2005941213561539
212	0x3fc54d2bd6a125a9	0.16641757945971605
213	0x3fc27361821c402b	0.14414614537281642
214	0x3fb1e20e3378dc71	0.06985558277743721
215	0x3fb31dafa6ad442a	0.07467172450311979
216	0x3fab614efb128aae	0.053476780079355066
217	0x3fc74080a2527729	0.18165595937619486
218	0xbf9bcfc9c6de37f8	-0.027159836543027865
219	0xbfb572a41d5f7c5b	-0.08378053395380063
220	0x3f922207c50ad958	0.017707940484535584
221	0x3fae1883969fe577	0.0587807771079935
222	0x3fc6878ab378546f	0.1760114075010821
223	0x3fb787b1d8621ccd	0.09191428692621458
224	0xbfa249dbd595793f	-0.035719747373820436
225	0x3fd4a4b092d1fc83	0.32255186403194375
226	0x3fbe32d38499f225	0.11796304690683053
227	0x3f98b91c475c3cad	0.024143640380370247
228	0x3fa321f6e6909a2c	0.037368503232120126
229	0xbfb25007839e4e24	-0.07153365100230552
230	0x3fb25f20e33e1c78	0.07176404521861623
231	0x3faaddc4a90e2660	0.05247320712721826
232	0x3fc1513a63f806ec	0.13529138451854494
233	0x3fb0649b0571999b	0.06403511889366202
234	0x3fb9cc02786b397f	0.10076919021523699
235	0x3f815a7a1359a86e	0.008473352160951655
236	0x3fb3fff6fb11a593	0.07812446241009345
237	0x3fb63fdd4119c2fa	0.08691199149485476
238	0x3fb1c4a098890a80	0.06940654491430998
239	0x3faa6220dea8ed35	0.05152991025939927
240	0x3fb5e33bae5bea13	0.08549855238735686
241	0x3fab26e8bb2684b7	0.053031227918162775
242	0x3fc24d470da582e4	0.14298332372984313
243	0xbf660e4835048131	-0.002692357091419372
244	0x3fa47cbe7f19ad5d	0.04001422215955117
245	0xbfa7c4fa9e7e9e6d	-0.04642470535992236
246	0x3f968f77b087cb92	0.022031660222591017
247	0x3fc0954f31c82142	0.12955655985593678
248	0x3fb3e8a94076b0a3	0.07776887725657615
249	0x3fc794f12323c68c	0.18423284736450218
250	0x3fc0ace7e64ff98f	0.1302766680309557
251	0xbfa3ee24d098585c	-0.03892626806570895
252	0xbfbe1ddd12790d52	-0.11764318181035563
253	0xbfc32f5e1d7b3937	-0.14988304557341234
254	0xbfa3f93390094dd7	-0.03901063092476036
255	0x3fc1a5700a263996	0.13786125655719833

linear_layers.0.layer.bias f8 [50]
0	0xbf9e44ae69f1d256	-0.029558873382898497
1	0xbfad71c4617151dd	-0.057508599181037325
2	0x3fabfeb47cba70dd	0.054677620149250684
3	0x3f67bf2e4d574ba3	0.002898779329123484
4	0xbfaf84c102300cbe	-0.061559707181026976
5	0xbfa196ae44db3cdd	-0.03435272779972263
6	0x3fb12e23be55aa78	0.06711028477517711
7	0xbf6f273b4b02eff8	-0.003802886778514033
8	0x3faffab17013012f	0.06245951169103347
9	0xbfc520827a77a509	-0.16505461673595104
10	0xbfbb47c9e65c6c0c	-0.10656415819214277
11	0xbf9b0c8686a37281	-0.026414968459777647
12	0x3fa22df2187ab29d	0.035506787765688254
13	0xbf80a1ba52b2db2c	-0.008120971344721527
14	0xbf9e1fc667f420d9	-0.029418087096048182
15	0xbfb72e0e0a150b9c	-0.09054649110934893
16	0xbf855bcd72698144	-0.010429005674439502
17	0xbf9eadda8665b6b8	-0.029960073903046974
18	0x3fa26919de556279	0.035958107366870835
19	0x3fa89fdf4e28958b	0.048094728747211844
20	0xbf9a3c9d881dcf49	-0.02562185424126476
21	0xbfa251a4884b021a	-0.035779134404496385
22	0xbfb1194ade8aa7dd	-0.06679218228478541
23	0xbf7041ed530e0dcb	-0.003969122932974976
24	0xbfb0dc826f67655b	-0.06586470813581029
25	0xbf921f5b22018184	-0.017697738600305893
26	0x3fb05d2ae352f79f	0.06392162370590747
27	0x3fb62c3e1eb08b55	0.08661258935221146
28	0xbfa68f546e2c2e33	-0.04406226963882567
29	0xbfa048e562826a28	-0.03180615260608405
30	0xbf9cde2bfc59388b	-0.028191268231517113
31	0x3f3a33bee2323264	0.00039981279605497675
32	0xbf92d2aad5d8f718	-0.018381757070748156
33	0xbfb711a93a046007	-0.09011323610718601
34	0x3f71e37c65136078	0.004367338101666111
35	0xbfb146db2b288942	-0.06748742870016591
36	0xbf843cb4a58d0ff0	-0.009881411840645143
37	0x3fa654145417623f	0.0436102249765935
38	0xbf8f4d54dbd334bc	-0.015284216841246916
39	0x3fa1ce2f6a20c319	0.034776193337512314
40	0x3fadd35d71e966bd	0.058253212123145805
41	0xbfa5310145f7501a	-0.04138950327947573
42	0xbf9877148018f23b	-0.02389175445408596
43	0x3f796d69a16ddfff	0.006207859630073641
44	0x3f7dec93c5e6a9b2	0.007305695761184715
45	0x3f9a5e4b4e3ee6a0	0.025750328684557844
46	0x3f799f6c1310a066	0.006255552450092327
47	0xbfb60494a35de7cf	-0.08600739468047823
48	0x3f914c54f63c0fc0	0.016892745522468777
49	0xbfa358f50599cd13	-0.037788063939752224

linear_layers.1.layer.weight f8 [50, 50]
0	0xbfbc0124b4d95754	-0.10939244666346087
1	0x3fb5c70a6bcd4d32	0.08506837016948479
2	0xbfc7fa6df93c234d	-0.18733000440286177
3	0x3fa103cc44fcca9d	0.03323210088855897
4	0x3fcbd416c3be482e	0.217409940316942
5	0xbf6a28e5ea187762	-0.003193329860336756
6	0x3f65c9328e44ba1d	0.00265941499869561
7	0x3faccf461b3474e4	0.05626887399760408
8	0x3f9d1f007297ae9a	0.02843857478539622
9	0xbfb6c4e42139be15	-0.08894182025118653
10	0x3fb52a799d2786d1	0.08267936789300313
11	0x3fbc2689273541cf	0.10996300894954135
12	0xbfab2976b30a5ae5	-0.05305071769287454
13	0x3fd0a508d08eaef1	0.2600729023640574
14	0x3fd144b0b8150bf3	0.26981752373484297
15	0x3fd0917baf6fe17e	0.25887958652995013
16	0x3fa467c2105e44c2	0.0398541111927755
17	0xbf850b0f906fb5bc	-0.010275003047321422
18	0x3fc3c101b612db7c	0.15432759657207018
19	0x3fc36a1095ac17d5	0.15167434032645014
20	0x3fce195861110849	0.23514847507073203
21	0x3fb081c01b684356	0.06447983426211343
22	0x3fbffa66cead9dd6	0.12491457506040801
23	0x3fb3fc6c80e4b7b9	0.07807043215572564
24	0x3fb449837fbbc45f	0.07924672955029298
25	0xbfb6eae68fd6ae37	-0.08952179919895618
26	0xbfb091f4a5fd8793	-0.06472710659502771
27	0xbfb6f7eaf33bbc3b	-0.08972042501749027
28	0xbfc040e5c9b97854	-0.1269805178625939
29	0xbfb7f49980f89e33	-0.09357604407033975
30	0xbfbfc10450b23a85	-0.12403895349619105
31	0xbf90d51363671550	-0.016437819425637656
32	0x3fa8f547db3bd6ce	0.04874634314721292
33	0x3fb48780a6cbaef0	0.08019260475310452
34	0x3fb10ef9e6efa943	0.06663476837244268
35	0x3fab4270e29f2c86	0.05324127928141657
36	0xbfb950a048360f98	-0.09888650668113852
37	0xbfc3a1d1919829f2	-0.1533758126173122
38	0xbfb4d41c2b56eb50	-0.08136154230207393
39	0x3fc7246ac57f798d	0.1807988609643413
40	0xbfb775961195666b	-0.09163797311102832
41	0xbfbbef931c01b50b	-0.1091243689895302
42	0x3fcca0fa155a5328	0.22366262476557464
43	0xbfaf942cceb76b6a	-0.061677360757775926
44	0x3f78e72c11e40ef3	0.006079837940209154
45	0xbfafa96b6c8cfa42	-0.06183944416124067
46	0xbf7598b73a2b4827	-0.00527259419568974
47	0x3f7ce7483d67fd55	0.007056505381569285
48	0xbfbd0a20e35ce5dd	-0.11343579817630407
49	0x3fa0ababfcbe23f5	0.032559752085099015
50	0xbf6740fa874a74ef	-0.0028386014112827744
51	0x3fc1ba8d3cc68611	0.1385056063418664
52	0xbfb16cced20221bd	-0.06806652667194775
53	0x3fa532af073e28e6	0.041402310976154585
54	0x3fa263c8fbc5c5c8	0.035917549833253626
55	0xbf5de306433d58f3	-0.0018241463812578823
56	0xbfa47bfa7f79492c	-0.040008380947840955
57	0x3fc3a91a46c4e02e	0.15359810309905825
58	0xbfa85888e537b338	-0.047550466519032886
59	0xbfc1dd223f12f44f	-0.13956096725260855
60	0xbfbf60b8146ad7a1	-0.12256956575842405
61	0xbfc045753d32a17e	-0.1271196888749379
62	0xbfa2259b73b4dded	-0.035443170427637095
63	0xbfb2ededb2c68013	-0.0739430009330138
64	0xbf2f66445e7b207e	-0.0002395590265591475
65	0xbfa4743b1320d4c0	-0.039949270329466824
66	0xbfc8fafd758ad8ea	-0.19515960921643877
67	0x3fb6771fa6bfbe35	0.08775518246670162
68	0x3f852af566997ca3	0.010335843270864514
69	0x3fc31e7b34c0a10f	0.14936771465114204
70	0xbf9bffce8cf23ca1	-0.027343013146091114
71	0x3f70e938fda13727	0.00412866842277796
72	0x3fbcda7ab7ec998f	0.11270873060548169
73	0x3f3f35a0d6d1e9a2	0.00047621895539120597
74	0x3fa172eab73e1ec5	0.03407987105225411
75	0xbfb1da5c456342b0	-0.06973816579853565
76	0xbfb6c77a5a5457c6	-0.08898129182156742
77	0xbfae2ce021c6efe0	-0.05893612301176154
78	0xbfb54dbf31419cd1	-0.08321757271334042
79	0x3fc1e7b57b180faa	0.13988369474838908
80	0xbfb61457b6786077	-0.08624790387000468
81	0x3fb20d871ba4eba6	0.07051891732127888
82	0xbfa0b8e58c0874f0	-0.03266064962756754
83	0x3fa04e030e6e56ec	0.03184518386039578
84	0x3f8dc83205cbb9c8	0.01454199867427243
85	0x3fbab84a7d03b266	0.10437455703840612
86	0x3fac32d7a330c26f	0.05507539622374657
87	0x3fb388b39b050928	0.07630465063724456
88	0xbf8113552f9684e6	-0.008337655558366252
89	0x3fb3272fd5b5b18f	0.0748166939499184
90	0x3f671c334e21b269	0.002821064191314716
91	0x3f83b801fa7e847f	0.009628310639359093
92	0x3fa74b626a77531d	0.04549701261172443
93	0xbf8d37f07fe8d42a	-0.014266852286803983
94	0xbf9dc587fc30418b	-0.029073834197391995
95	0xbfc81681cc34b105	-0.1881868598078499
96	0xbf9efaab69a49fc2	-0.03025310356420597
97	0x3fb72a5bf9fa6c3c	0.09049010136588803
98	0xbfb34bcc4316a97d	-0.07537533414748583
99	0x3fc56f15b9048626	0.16745254072252286
100	0xbfa2b3a36046394a	-0.03652678060744792
101	0x3fc96800c1e1e493	0.19848641840852518
102	0x3fceb6aa46e1c9fe	0.2399494978049716
103	0x3f9023f647b7db47	0.015762184264498626
104	0xbfc5ce6d421e0982	-0.17036214569459324
105	0x3fd6f5b6aff60bc3	0.358747169339207
106	0x3fd67e274c1c469b	0.3514497988954674
107	0xbfd8394910a06d95	-0.37849642394731947
108	0x3fb3986451426719	0.0765440653216526
109	0x3fcb9fe0c68f07b2	0.21581659026383943
110	0x3fcff57a110a9f40	0.2496788581095135
111	0x3fce60d1c0a656b4	0.23732969195105158
112	0x3fc7c6c80ae19958	0.18575382739363522
113	0xbfd5fd1f124dc87b	-0.34357430255398186
114	0x3fc74469f01b61b4	0.18177532409641872
115	0xbfc876ad10ff03f3	-0.19112170534029324
116	0x3fde39adf2448a7b	0.4722704759498481
117	0xbfa9dc60090a80b9	-0.050509453872338246
118	0x3fa2615629999a6a	0.035898869112135426
119	0xbfda122007b78687	-0.40735626939395114
120	0xbfa5da4b62608fc7	-0.04268107963460426
121	0xbfc76c67a21734a4	-0.18299575247366306
122	0xbfd4715104d23b3c	-0.31941628905126485
123	0x3fd03b89e893534f	0.253633954166891
124	0xbfd5c2a4fdbb186d	-0.3400051572647332
125	0x3fbe43d3477f4e14	0.11822243209399402
126	0xbfcf3f9f7695fbde	-0.24412911691976452
127	0xbfddfb61f888163f	-0.4684681822840026
128	0x3fbfd88a56d7c49f	0.12439789409815426
129	0x3f9b96e9bdedc2fc	0.02694287511571057
130	0x3fb98506c72fb41a	0.09968607294986534
131	0xbfd43bbb964620f2	-0.3161457984465549
132	0xbfcaa272c23340f5	-0.20808252794677853
133	0x3fb81134faeda23d	0.09401255727937836
134	0x3fc67ffe0f247b31	0.17578101863269915
135	0x3fd04ddb59f9e185	0.25475200449684393
136	0x3fc8c1c7eddde89d	0.19341372599212017
137	0x3fa45025bff3f9c1	0.03967397659470207
138	0x3faa55c8cf3796f3	0.05143573312288465
139	0xbfd016be8c9be6cb	-0.2513882039198562
140	0xbfc64b43beb58caa	-0.17417189418765605
141	0xbfb0dc294d4e5bf8	-0.06585939538341268
142	0xbfea6c64799ec36d	-0.825731504001039
143	0x3fdf1f5f215bda30	0.4862897706765663
144	0xbfd94c6172903a18	-0.39528690517264087
145	0x3fc4d96bed916139	0.1628851804732763
146	0x3fd7b0f877ac9709	0.37017642676288226
147	0x3fb9b02b69689aaf	0.10034438441707992
148	0x3fda9d971b1d89e4	0.4158685459898648
149	0x3faed4e289773d85	0.060217932968607925
150	0xbfa24835803bbb07	-0.03570716085766006
151	0xbfcac5c58f0799f0	-0.2091605137240573
152	0x3fd286e80d73561d	0.28948403657463634
153	0xbf9e372931b4d1e1	-0.02950729719050738
154	0xbfb708c7d62b6541	-0.08997773150203604
155	0x3fb9ccfc10dba4a3	0.10078406726428794
156	0xbfcb1ed47b688987	-0.2118783571796252
157	0xbfbca8f5936e820d	-0.11195311402708104
158	0xbfc1a3fda8f8bdda	-0.13781710386818596
159	0xbfaffaf9c648039e	-0.06246166749406899
160	0xbfcc6ae013f458d8	-0.22201157545413852
161	0xbfabde6bbc30e281	-0.05443131134274371
162	0xbfbbfad4e4336f55	-0.1092961365824839
163	0xbfba41f8230c3a3f	-0.10256911140116019
164	0xbfd9be847c7f9c75	-0.40225326688818736
165	0x3fce850640f3096c	0.23843458339076606
166	0xbf90ab97fcbcfdf6	-0.01627957801906451
167	0xbf8f6dd6bc7c8fc4	-0.015346219660905443
168	0x3fa025b3c0fa1d6f	0.03153764467884456
169	0xbfa26c56c1071565	-0.03598281008047869
170	0xbfd65962fb03a177	-0.34920572770217667
171	0x3fbfdf5b7ab32f49	0.12450191255191813
172	0x3fd227ab79f74658	0.2836712542603883
173	0xbfc873b7c46918e3	-0.19103142824514582
174	0xbf97900fbb92ef2d	-0.023010488341909486
175	0xbf2859a5c2f155a4	-0.00018577717262028865
176	0xbfbae939d3d5b120	-0.10512124463793215
177	0x3fd7655702509659	0.36556029535345186
178	0x3fa06b2b5bc00134	0.032067637395814336
179	0x3fa5e581b72428c6	0.04276662216769149
180	0x3fad2801370faed4	0.056945836993546856
181	0x3fc534310357b56a	0.16565525687421295
182	0xbfb2ed3cfa698c34	-0.07393246759015498
183	0xbfb0e73ad65ed7ac	-0.06602828725485094
184	0x3fba6b8843844df3	0.10320331238136031
185	0x3fb7874c1690227c	0.09190822172980434
186	0x3f7766fe5bde86f6	0.005713456715882739
187	0x3fd1bc0fc392386a	0.27710336779353517
188	0x3fba2948921250f1	0.10219243589591877
189	0x3fc5f84717729700	0.17163933415320543
190	0x3fc6b1913e7c2b82	0.1772939257719735
191	0x3fa66f625dd86c0e	0.043818544345605046
192	0xbfc06db3a7a4367f	-0.12834783254259105
193	0xbf73aad650c01b3b	-0.004801594895986134
194	0x3fc3efdad11b7191	0.15575728617012577
195	0xbf8f6061ab477e22	-0.01532055190995069
196	0x3faffeaea4a8bb36	0.06248994598387585
197	0x3fb73474a0dd4fe4	0.09064415862422909
198	0x3f919f300ab23c69	0.017208815243574458
199	0xbf7300219556c0bc	-0.004638796982746548
200	0x3fa17e8071de83e6	0.0341682566643227
201	0xbf989fbf358e183b	-0.02404688610433701
202	0x3fc337dcae65980e	0.1501422740504385
203	0xbf8e82ab0aaa523a	-0.014897667181949282
204	0x3f90fdcf1b518de8	0.016593204538720402
205	0x3fb1597d71b992c6	0.06777175928580012
206	0x3fa9c5fb530770d0	0.0503386057714309
207	0xbfc126ffc30462cd	-0.13400265714951445
208	0x3fb4ec18acb53cc7	0.08172754494192978
209	0xbfc02b8605eb4fd8	-0.12632823266051108
210	0x3fbc3b2994984e57	0.11027774694258007
211	0x3fb4a9334e34129e	0.08070679339659612
212	0xbfa65b405d2a4d52	-0.04366494309683823
213	0xbfc599a6ee2420b7	-0.16875158908829288
214	0xbfb3823502304836	-0.07620555213387167
215	0xbfb7716615906d71	-0.09157407785862916
216	0xbfaee2bc4ad64622	-0.060323604712845716
217	0xbfb74ba12fcc416a	-0.0909977666563059
218	0x3fc28ecb2fa75da4	0.1449827177700459
219	0xbfb80c41af0c1508	-0.0939370205270117
220	0xbfa317104bb3afc2	-0.037285336724238075
221	0xbfaae83ecd8635a4	-0.05255314120141044
222	0xbfc6acdeb99ad6c0	-0.17715057432876868
223	0x3fb32bc0bef04f20	0.0748863664778665
224	0xbfca708996e56722	-0.20655937068914293
225	0x3fb57c5fa3b7f24e	0.08392904040369695
226	0x3fc185ebd8a12149	0.1368994529496013
227	0x3fb08abef67e094f	0.06461709516410007
228	0xbf968f3eff34265f	-0.022030815435789438
229	0xbf91fc425ec63972	-0.01756385520416743
230	0x3fb0a730cfd75fb7	0.06505112718821136
231	0x3f79f26d89aed4d7	0.006334712869763246
232	0x3f916bbbffa73b10	0.01701253650554252
233	0xbf9e130c4faff87b	-0.0293695377003975
234	0x3fbcd737fe5aafa2	0.11265897712536213
235	0x3fb01deb52ff92f4	0.06295653129889073
236	0xbfb2fe6d74a7e183	-0.07419475648919698
237	0xbfba188059e67b54	-0.10193636126358047
238	0x3f9abd6990f30e06	0.02611317584229591
239	0x3fb7a8977692abbe	0.09241625447127341
240	0xbf9414eb0cd008f8	-0.019611046463986676
241	0x3fb1c5cd6e45be5d	0.0694244760722937
242	0xbfc1e0584242ad95	-0.1396589587724121
243	0xbf9bcff6404eb7b1	-0.027160499262826657
244	0x3fc2ce777563e480	0.1469258616632807
245	0x3fc70e635df0866d	0.18012659155742786
246	0x3fbc37828a5e7369	0.11022201421878965
247	0x3f9fafb991b11c5c	0.030943774716686398
248	0x3fc5b72cd4dbf94b	0.16965256112593816
249	0xbfbc1d87100e559c	-0.10982555524818455
250	0x3fc6d968d93aaa53	0.17850981337444924
251	0xbfc2e7b55e52a7bd	-0.14769618135079368
252	0x3fc384a7627d8162	0.15248577412695413
253	0xbfb9a00fcae9baac	-0.1000985975640371
254	0x3f7e234c5e4a95c6	0.007357881845256603
255	0xbf9ba610e6708fab	-0.027000679078028316

linear_layers.1.layer.bias f8 [50]
0	0xbfc0ca78cb7684b0	-0.13117895064082097
1	0xbfb838214df4b1fa	-0.09460647729128616
2	0xbfc56f2982fdaa43	-0.16745489975012803
3	0xbfb07fed5804175b	-0.06445201300456686
4	0xbf77b2b7ca55617d	-0.0057856730757851445
5	0xbfc223fdb3c7caaf	-0.14172335890142082
6	0xbfa50507f68d98b9	-0.0410540092914728
7	0x3fc49c32b95f34af	0.16101678897249402
8	0xbfb1027c9bca9c3f	-0.06644419482709994
9	0xbfb6216b63638024	-0.08644744087678241
10	0x3fbc66d69bf324d7	0.1109441881882448
11	0xbf9964da74b2a09a	-0.024798787472406582
12	0xbf978e0ab3d35886	-0.023002783990556462
13	0x3fbddd0d4605f54c	0.11665423354675858
14	0x3fa53a880ba2d2e9	0.04146218435326949
15	0xbfa418de3e2ee30c	-0.039252228823391716
16	0x3fbefd30a7a353db	0.12105087368702476
17	0x3fb9dba0dbc6d59e	0.1010075127186014
18	0x3faed84d34640b25	0.06024400009666512
19	0xbfbbce1a4d5a77dd	-0.10861362827787908
20	0x3f57256aa82c7b25	0.0014127294131822201
21	0x3fa59043fbd720db	0.0421162838861748
22	0x3f900dde7d28e198	0.015677906407491088
23	0x3fa7fac0c5aad78b	0.04683496869021927
24	0xbfbca499c23ee9b1	-0.11188660614326441
25	0x3fbaed490f339270	0.10518318768624524
26	0x3fc3d44d4d79b342	0.15491644175508595
27	0xbfc5a985fc8663d9	-0.1692359431297337
28	0xbfae44cb6ae650f1	-0.05911861114432949
29	0x3fa66ae966477543	0.04378442166828702
30	0xbfa956de116be5b4	-0.04949087107338404
31	0x3fb74f87c6e7def4	0.09105728727433499
32	0xbfa3e28d71c4bfac	-0.03883783353592149
33	0x3fbcd706b049de9a	0.11265603832168339
34	0x3fa5d5f2800ec2be	0.04264791310504766
35	0xbfc101ba3220fb40	-0.1328652138490387
36	0x3fbdb2af1f356449	0.11600775253227015
37	0x3f78c093c71f3dfb	0.006043030984030913
38	0x3fa1ee4f6173695c	0.035021286626675446
39	0x3fba277d7bf40a63	0.1021650722141572
40	0x3fb0501d3e7ca75b	0.0637224462085703
41	0xbfc03b8959736a56	-0.12681691043583737
42	0x3fb1d6d9b7551147	0.06968460775266748
43	0xbfb44a87fe1d3578	-0.07926225618321847
44	0xbfaf63340518e44d	-0.061303735372754
45	0xbfb105a040a538e4	-0.0664920957399065
46	0xbfc24a651bc50558	-0.14289535385072827
47	0x3fa904085487b997	0.0488588908373117
48	0x3fbe197a0948e998	0.1175762436550144
49	0xbfb0ca1449edb0f1	-0.06558348469633636
