8_Inv_Lorenz/logs/models/2024-01-13-14-46-47_Lorenz_DNN_100X5/epoch_20000.pt (torch, 232764 bytes, 15 tensors)

alpha f8 [1]
000000 8b 61 4c 30 f0 11 23 40
       9.535035619090896

beta f8 [1]
000000 fd 0a b8 e5 e3 34 05 40
       2.650825304678959

rho f8 [1]
000000 95 a4 10 eb fc 34 2e 40
       15.103492112905125

net.0.layer.weight f8 [128, 128]
000000 b5 fa e5 90 82 7c ba bf fe 14 a7 6e 90 d0 a4 3f
       -0.10346237218434846 0.040653718478589326
000010 05 17 bc 7e 99 34 c0 bf c0 5c fe 6b ce e1 a4 bf
       -0.12660521209925704 -0.040785265620053135
000020 1f f7 e7 22 d0 8c b6 bf 6f 2d 67 d1 b8 6e bd 3f
       -0.08808613636207639 0.11497073280695756
000030 46 e3 c9 78 17 b7 a6 bf 89 95 c5 a3 3c c2 c5 3f
       -0.04436562871428022 0.1699901389758163
000040 58 f9 e5 18 5d 16 aa 3f 94 ff e6 34 98 af ac 3f
       0.050951871194217346 0.0560271801546143
000050 8f 38 9a 44 9b 62 c3 3f 85 de 1f 17 9c 57 c6 3f
       0.15144673204162415 0.1745486367142243
000060 6c ea b9 8f 16 13 c0 3f 0c 0d 53 c1 eb c1 bf 3f
       0.1255825235164879 0.12405274839243335
000070 07 74 72 0a 72 4b be 3f ff ce 49 11 51 28 bb 3f
       0.11833870654159294 0.10608393356397626
000080 b3 22 75 fa dd c8 c0 bf 16 e2 63 f2 9b 42 9e 3f
       -0.13112997750638086 0.029550968808481036
000090 c3 a0 27 99 65 47 a3 bf c7 52 f2 2e 88 84 b8 bf
       -0.037654089875844864 -0.09577227731854086
0000a0 6a 10 8f 42 04 ee 20 bf 27 4f 42 4c a9 27 97 3f
       -0.00012916376115701687 0.02261223342846033
0000b0 0d d2 c0 22 32 62 c0 bf cc 9b f6 27 85 14 b9 3f
       -0.12799669930394977 0.09796936250368943
0000c0 e9 a3 07 fa 72 54 89 bf 41 bf 08 1c a2 09 a6 3f
       -0.012368105178170512 0.04304224579061478
0000d0 91 49 54 02 e4 db c0 3f 49 d2 25 94 f1 44 b7 3f
       0.13171053041203298 0.09089574686897452
0000e0 dc 69 3a 54 1a f1 63 bf 63 69 2f 2b 23 0b bf 3f
       -0.0024343027342414846 0.12126369289709298
0000f0 4a 81 93 54 36 4e b6 3f 6e ed 3f 99 d2 21 c1 bf
       0.08713092388962199 -0.133844685391391
000100 4b b0 89 f8 a4 f9 90 bf 2b 1f 0f f6 43 9f be 3f
       -0.016577317876383096 0.11961769826222894
000110 3d 3a df 3e a8 90 a5 3f 57 f0 dc 5a 6c 1d bd 3f
       0.0421192719219232 0.11373021334014886
000120 ef d9 a3 f9 e2 71 a0 bf d5 44 e8 d3 14 52 a5 3f
       -0.03211888596881695 0.041641856067266815
000130 8a 35 c8 6d c3 9b aa 3f fc ec b5 b5 80 41 a5 3f
       0.051969630385524004 0.041515371495700365
000140 a7 91 e7 49 87 ab b6 bf e9 bd 24 0c 67 93 bf 3f
       -0.0885548167639799 0.1233429340979836
000150 3f eb 25 ca f6 ff c0 bf 67 c4 8f bf 40 87 a8 3f
       -0.13281140203965866 0.04790689791105578
000160 cc f6 2a 1a eb 94 a6 bf 2f dd e8 18 1b 0e b3 bf
       -0.044104906982722264 -0.07443398817200796
000170 16 6f 03 e7 29 da c5 bf 29 57 88 6e 47 03 bd bf
       -0.17072032718612523 -0.11333128403233829
000180 e6 03 ba 02 ee 23 c3 bf 3e 86 c7 54 41 ec 91 bf
       -0.1495339883149704 -0.01750280456497521
000190 e4 a4 a7 2c 19 4a 67 3f 9f 3d 28 0f fb 3c a4 3f
       0.002842950028242629 0.039527745819323494
0001a0 a4 92 02 67 0d 33 c4 3f ed 8d 75 a9 85 82 a6 3f
       0.15780799417293168 0.043964554725587
0001b0 c9 61 ff 52 e7 92 b5 3f b0 df 6c 30 9a d4 b8 bf
       0.08427282120044945 -0.09699405367143643
0001c0 c7 f9 f5 08 45 af bf bf 36 a0 f6 c5 f0 b5 a3 bf
       -0.12376815289278574 -0.03849747101350014
0001d0 a3 a2 73 1e 76 77 9d bf f8 e4 8d cd bf ab a0 3f
       -0.0287760215841525 0.03256034263808688
0001e0 11 e2 bd 0b 9b 4e bd 3f 11 5d 8d 67 91 12 94 bf
       0.11448067700064991 -0.01960208124668578
0001f0 0c c9 cc d2 44 d4 9c 3f 3f 5f 2b 06 31 13 a3 3f
       0.02815349136944527 0.037255794528106005
000200 79 42 bc 1a 63 48 c0 bf 6e c1 3a 85 11 c9 c1 bf
       -0.12720907979430132 -0.13894862180087436
000210 c7 dc ed b3 55 28 c1 bf 6c 66 9e 1a 51 48 be bf
       -0.13404341970065145 -0.11829096698638758
000220 2c 61 ca 61 7a 72 a6 3f 02 e4 fb 09 9a bc a4 3f
       0.04384214824421159 0.04050141689180721
000230 3d b2 c0 95 71 e9 ab bf 5a e1 4c 0e c7 d7 af 3f
       -0.05451540902172212 0.06219312715114951
000240 37 87 db d1 47 01 ac bf 4a 67 e2 22 c2 ad c1 bf
       -0.0546972697900529 -0.13811518386210714
000250 29 45 a2 04 bd 27 97 3f 56 cb 6c 49 72 79 a9 3f
       0.022612527282551618 0.04975468775082585
000260 f6 24 c1 9e d1 3d b4 bf 0b 5d 4a f4 a5 2d bf bf
       -0.07906828046647604 -0.12179028715251065
000270 ab f8 72 81 f0 be 65 3f e1 e5 92 f8 39 ec b9 3f
       0.002654523599260624 0.10126077955910474
000280 66 f1 f9 e5 a0 ba c3 bf 62 58 d8 a7 7a d3 ba bf
       -0.15413295010865652 -0.10478941533833244
000290 92 c8 a6 38 53 36 8a bf 3f 6d 1b d8 ed ed bb 3f
       -0.012798929373137011 0.10909925962498777
0002a0 d9 af 7b dc 90 c5 ad 3f 8d fa f6 25 4f f8 b9 3f
       0.05814793292469717 0.1014451472937969
0002b0 1a eb a9 ea 09 40 b0 3f 49 ce c2 6c 5e 0c 8e 3f
       0.06347715357871345 0.014672029203530406
0002c0 de b7 6a 60 97 d6 c1 bf b0 bc 05 b5 32 83 a5 bf
       -0.13936130721907508 -0.0420165868734953
0002d0 49 b2 f3 80 1e 2f bb 3f e9 99 2e 83 1e 3c 9d 3f
       0.10618773124924376 0.028549649006572784
0002e0 35 23 2e 1a e0 61 b2 3f d1 8a f3 f1 70 51 a1 bf
       0.07180596007505076 -0.033824471983981426
0002f0 f4 b2 57 dd c4 c4 b8 bf 31 f0 19 96 34 44 be bf
       -0.09675245670196003 -0.11822823204596557
000300 28 47 d7 52 dc d8 8e bf 10 51 e5 47 74 76 c2 bf
       -0.01506206634340719 -0.14423993597541385
000310 fc 2e a3 77 f5 c0 aa 3f 7f f6 ef 48 af cb b1 3f
       0.05225340924661556 0.0695142319745745
000320 ee fa 15 62 91 8c a3 bf 1e 9e af 2f 43 96 a6 3f
       -0.03818182298981819 0.04411516148666926
000330 74 c2 b1 65 20 e0 93 bf 76 95 41 38 f2 89 c2 bf
       -0.019409662444049805 -0.14483478304752467
000340 cb dd 17 b2 76 2c 95 bf 34 f9 fc 4a 13 f9 aa bf
       -0.020677427883098603 -0.05268154421217944
000350 94 4b 5e e4 96 55 c3 3f 61 cb 59 6f 1a df b8 3f
       0.15104948187635314 0.09715428560757068
000360 90 8a 6c 4f db 6e af bf d8 0b d2 ba d4 44 af bf
       -0.06139264435320968 -0.061072013669239034
000370 eb d6 d0 4c 71 5f a4 bf 62 2f d5 bc e8 3d c2 3f
       -0.03979066908543224 0.1425143167529042
000380 4f 4a e3 bc b7 b8 b2 3f 6b fd 34 6b cd 63 b1 bf
       0.0731310688163742 -0.06792911403043937
000390 c8 4c fe a2 37 10 a8 bf 47 50 39 f8 58 7c be 3f
       -0.04699872841515568 0.11908489284661626
0003a0 4e 65 65 28 57 48 b3 bf bc 1f 20 3b 51 19 be 3f
       -0.07532257782204008 0.11757381146901386
0003b0 9c f0 10 b2 1b 82 bb 3f 5e 46 28 72 78 13 c4 bf
       0.10745404336279524 -0.1568441922577674
0003c0 d4 f1 7d 74 a0 b8 a3 bf 16 bd 04 9a f4 bf bd 3f
       -0.038517965526782355 0.11621025810449157
0003d0 f8 3d 0e 09 cf f1 aa 3f 76 49 c4 14 3a dd c1 bf
       0.05262610421697994 -0.13956380857468859
0003e0 af 7c e3 f2 71 e3 c0 3f c7 b7 a1 80 56 40 b8 bf
       0.1319410739879223 -0.09473171844885463
0003f0 be 90 66 19 85 0c b4 3f ce 4b bc 3d 7d 43 bd 3f
       0.0783160388005539 0.114311053821708
000400 bd ff c0 7e 1a 45 c1 3f 7a 59 1b a9 66 65 a1 bf
       0.13492137135653862 -0.033976753371166304
000410 d2 c9 70 43 e2 bc 98 3f 14 f5 8f cc f8 0f 9b bf
       0.024158034673925695 -0.026428115354055384
000420 dc ec ab 72 db 2a bd bf 08 2f 23 fe 04 25 c8 3f
       -0.11393519925688927 0.18862974556974899
000430 d0 4b fa 28 26 73 bd bf 74 61 69 cf ae e4 c5 3f
       -0.11503828525955773 0.17104134681245464
000440 68 0f 8a 02 ce 21 a5 3f bf 1b d6 fa 01 b5 bd 3f
       0.04127353459355626 0.11604320882734863
000450 42 88 1e 9a d5 51 a7 3f e4 f9 70 c4 90 0e ae bf
       0.045546221793543853 -0.058704875926640004
000460 e5 ea 4e 0b 36 f7 94 3f 95 b4 c9 8a 78 a8 c6 3f
       0.020474285545541888 0.17701632286790372
000470 bf 22 f6 bf e0 a2 ac 3f c2 12 ba 86 0f c1 c3 3f
       0.05593015998153338 0.15432924345454607
000480 0e f1 87 06 d1 66 c1 3f ca b4 e2 41 81 43 c6 bf
       0.1359502107515102 -0.17393508641308691
000490 56 d4 77 ac c3 04 b3 bf 3a fd cf 5e 6c 7a ac 3f
       -0.07429144821783615 0.055621515821253145
0004a0 36 47 5f 44 40 85 83 3f 16 62 c4 40 c1 75 ab 3f
       0.00953149994521461 0.05363277354826239
0004b0 8f f2 a5 72 dd 42 9f 3f 76 c2 fb 57 f7 47 91 3f
       0.030528507349560526 0.016876091713984263
0004c0 21 b5 6a 97 77 ab c7 bf 1a 98 03 6b 7b 8b ba bf
       -0.1849202622737858 -0.1036908279671426
0004d0 37 91 96 dd 03 9d ac 3f a5 76 d3 fb 08 05 a5 bf
       0.05588543014462959 -0.041054039707643576
0004e0 eb d6 e0 7d e1 e4 b5 3f 25 de 2f dd 86 5d c2 bf
       0.08552369425964527 -0.14347921180864023
0004f0 8b 4c d9 35 1f f8 93 bf 2c 0d d6 8c 8c f9 b8 bf
       -0.01950119749228611 -0.09755781591779983
000500 d8 db 0b ab 58 9a c1 bf 6a 66 87 78 7a 02 cb 3f
       -0.13752277709838157 0.21101313481522094
000510 a1 b9 b9 bf 45 70 93 3f 39 ea 60 10 ce 5e bc 3f
       0.01898297293376461 0.11082160854213265
000520 45 46 57 37 1a 89 b9 bf 1a 2f de 5b 6a 3f b4 3f
       -0.09974826670738775 0.07909264319294743
000530 62 a9 9d 9e 22 91 c4 3f 28 10 e8 6f 7c 07 a1 bf
       0.160679175805238 -0.03326023927732563
000540 3d 95 63 9c c3 c8 bd bf 5a 4e 3b b4 73 6d 92 3f
       -0.11634466713038179 0.01799565112635402
000550 75 66 3a 3d 32 1b 94 3f 19 60 cd 4d 01 38 b3 3f
       0.019634995448177556 0.07507331990689216
000560 49 cc e2 65 44 52 90 bf 19 0e 12 df 82 bd ca bf
       -0.015938824385284076 -0.20890842334857565
000570 aa c8 57 fc ba 74 c2 bf d7 f1 57 94 46 f7 ab bf
       -0.14418732949667873 -0.05462093888124613
000580 f5 6a 92 d1 37 c5 a3 bf 7b 99 61 07 79 e9 c1 bf
       -0.03861402924777294 -0.13993752346432217
000590 21 f6 07 24 13 a3 72 bf 06 da b1 30 e0 54 a7 bf
       -0.004550051468411393 -0.04556942552965286
0005a0 d9 02 d4 1a e5 07 aa bf 97 b8 52 e0 f3 a2 ae 3f
       -0.0508414836167554 0.05983697999305198
0005b0 5c 27 4c 1d 1e dc c2 bf 2d ce b3 b7 27 61 b0 bf
       -0.14734245710888672 -0.06398246989174856
0005c0 f4 4a 58 69 bb 63 8b bf a4 61 3f 6a 42 99 9b 3f
       -0.013373817589159988 0.02695182584270274
0005d0 c5 78 ba 9c 25 b5 c6 3f f0 64 13 20 ca d7 a9 bf
       0.17740316536668935 -0.050474468627450864
0005e0 5b cf fc 85 d6 64 b9 bf 7e 7f c2 11 aa df c3 3f
       -0.09919491549663688 0.15526319377113035
0005f0 f7 84 f8 34 10 7e c5 3f c4 f7 21 da ba 14 a0 bf
       0.1679096468588239 -0.03140815651657605
000600 29 ee 40 a5 bf 42 c0 bf 2a e3 5c df 83 69 c6 bf
       -0.12703700608277416 -0.17509506613148434
000610 dd 8d 56 0c 08 51 a5 3f 42 16 34 45 ca 57 c6 3f
       0.041633845811954485 0.17455414179873868
000620 15 eb d8 fa 9a c7 a6 bf 22 2c cd 8e c8 d8 b1 3f
       -0.04449161827183993 0.06971410261500968
000630 c8 b4 2d c2 ff e9 b1 bf f5 09 58 5f 2e 33 b2 3f
       -0.06997679224669462 0.07109346225482922
000640 6b c3 c8 41 a2 c1 c7 bf 12 96 3c b7 53 4d 9c 3f
       -0.1855967351162023 0.02763872915160987
000650 88 96 25 64 7a 05 c5 3f 2b 17 43 2b 3e 9b bf 3f
       0.16422967805845112 0.1234625678653997
000660 04 98 ca 5a 68 9a 84 bf 22 47 f3 95 17 c7 c2 bf
       -0.010060134192212196 -0.14670080968658633
000670 f4 6f 24 18 c6 25 c0 bf 88 ed be cc b8 55 af 3f
       -0.12615276507210604 0.061200880998025176
000680 89 82 7e 17 91 09 b8 bf ea 33 6b f5 51 ed 80 3f
       -0.09389597724521982 0.008265152265630921
000690 76 84 14 5e 77 00 c3 bf d6 c4 f3 4b 4c 54 9e 3f
       -0.14845172971493853 0.02961844647956443
0006a0 02 fe fd 6b 5e 27 a2 3f dc 59 18 e2 1a 6b c4 3f
       0.03545661037696492 0.1595185855846485
0006b0 c7 49 4a 75 28 6f c1 3f a8 82 69 d4 64 b6 a9 3f
       0.13620477416095708 0.05021967976495506
0006c0 d6 5d 8e ac 22 8c b5 bf 2c 35 aa 37 81 f1 9a bf
       -0.08416954720302469 -0.026311892530931733
0006d0 4e 4d 71 95 27 b5 c2 bf 01 f1 a0 f3 16 64 73 bf
       -0.14615340039254437 -0.004734124808291052
0006e0 4b 69 8b 2b cd e4 a7 bf 7f 2d 43 2d ab b9 70 3f
       -0.046667491498470236 0.00408331743183099
0006f0 f7 52 8d c9 73 5c b8 bf b0 49 1d b1 88 2f cb bf
       -0.09516071005539205 -0.21238812111057603
000700 80 a9 db 7a e0 a5 a2 3f 2b 7e 26 7a ee a4 a7 bf
       0.03642179012043112 -0.04618020287602705
000710 b0 7d 41 46 33 48 86 bf ed d3 31 83 5d 35 bd 3f
       -0.010879898625886536 0.11409553959840908
000720 16 a3 b3 77 43 02 c3 bf d3 75 eb 3c 44 66 91 3f
       -0.148506577919101 0.01699167844605205
000730 73 20 14 36 88 99 aa bf 6e 90 17 2f 58 ff b3 bf
       -0.051952606774705944 -0.07811499738414948
000740 bd 11 17 5c aa 6e a2 bf 11 7d 37 a4 d8 78 c7 3f
       -0.036000560513943715 0.18337543505092715
000750 69 65 03 84 a1 6e a2 bf 22 dd 00 07 ff f1 b8 3f
       -0.03600029694070878 0.09744256897908035
000760 12 88 09 9b 0c bf c8 3f 36 a4 bf e5 97 eb b9 bf
       0.19333036012818688 -0.10125111922356286
000770 24 b3 c8 4e fe b3 b2 bf 34 23 40 4b ef 3c b0 3f
       -0.07305898116528603 0.06342979037448232
000780 e7 cd 49 84 4e 7f c6 3f 7f ba 40 a4 75 1b ab bf
       0.17576009234799914 -0.052943874645611004
000790 f1 dd 27 0c f2 f2 a1 3f 9f 07 c1 76 3c 35 c8 bf
       0.03505665205369358 -0.18912463949714906
0007a0 d8 3e 1c 6e e7 2f b8 bf c5 1b ac ca 50 28 c2 3f
       -0.09448095739594053 0.1418553342448076
0007b0 49 a7 66 c1 cf 7d b2 3f 27 0c d8 73 ba c1 c6 bf
       0.072232231823958 -0.17778711945001754
0007c0 82 8c 09 0a 4b 52 b3 bf 6c 53 ad 1b bf d4 b1 bf
       -0.07547444338847423 -0.06965250421246844
0007d0 80 43 48 a9 12 2b 8d 3f 37 5c 00 33 32 6f 9a bf
       0.014242311278424458 -0.025814804423216677
0007e0 30 68 a1 9f 83 50 bd bf 42 bb d1 07 3d 57 b7 bf
       -0.11450979850033671 -0.09117490235233297
0007f0 90 99 aa 77 76 04 a2 3f 6c e3 11 2d d2 1d c1 3f
       0.03519029818316988 0.13372256470372734

net.0.layer.bias f8 [128]
000000 9a 8a c6 a6 9d 69 96 bf 88 69 c3 47 a2 17 a2 bf
       -0.02188726740281286 -0.0353365624047966
000010 60 60 26 fe 63 e0 a1 3f 8a b4 91 26 bb 7e a4 3f
       0.03491508939185972 0.040029381235265296
000020 62 c2 72 69 5f 4c b3 bf ae 93 4f 80 13 a5 83 3f
       -0.07538410496159423 0.009592201569782546
000030 c2 a3 b2 d3 08 f5 be bf b4 c8 8b e7 c7 28 78 bf
       -0.12092642944720836 -0.005898266674863862
000040 d2 a4 5a 58 0d e8 95 3f ad 7a 7d 87 43 ea 8c 3f
       0.0213930211236047 0.014118697712260564
000050 1a b9 23 10 f3 7f 94 bf ac a7 54 4f 3b 1c 55 3f
       -0.020019338474349536 0.0012884692381000913
000060 5f 5e 2f ea be cf 91 3f 7e 3b a6 f8 df e6 85 bf
       0.01739404968597424 -0.010694265151668377
000070 2f 74 0a 3e 09 eb 77 bf f3 1d 3c be 6f e2 5c bf
       -0.005839382269781131 -0.0017629710427530226
000080 88 47 e4 2f ae 99 a0 bf 3e ee e5 89 d2 46 94 3f
       -0.032422488542706296 0.019801416079174176
000090 5c ae b7 68 65 1c 9a 3f 9d 69 5f f6 b6 eb 90 bf
       0.02549894763607906 -0.016524180209538043
0000a0 dc 25 e4 ec b3 90 93 3f 8a bd 75 7e 2c ad 53 bf
       0.019106685002986498 -0.0012009558211863746
0000b0 ce 1b fd 51 0f c8 87 3f 07 30 95 97 1a aa 86 3f
       0.011612052621456839 0.011066634894312711
0000c0 59 de 05 25 78 c2 98 bf 2a 9a 8b 24 1d 95 91 3f
       -0.02417934156389232 0.017170386653470406
0000d0 50 8d da 40 cb 4e 82 3f c9 87 77 75 a0 cc 97 bf
       0.008939350048712186 -0.02324152676545291
0000e0 4c 7e b4 b1 ea da 3e bf 17 20 db 37 15 f8 6b bf
       -0.00047081212842845356 -0.0034141935746880947
0000f0 e5 37 75 6d c4 9d 81 bf c2 d1 f4 f1 f9 67 a1 bf
       -0.008601698484792262 -0.033996401582416805
000100 d7 89 fe c4 46 b9 98 3f cc fc 7f 02 ac f3 80 bf
       0.024144273542001073 -0.008277267290394262
000110 e4 fe f1 b2 8f 11 b2 bf f4 06 b7 7e fe ed 80 3f
       -0.07058046454221373 0.008266437761338598
000120 9c 58 e5 d8 be c3 79 bf 31 cb 30 01 29 ad 9e bf
       -0.006290193078106434 -0.02995742864386414
000130 33 2a d3 30 34 7e 91 bf 5f 90 af 56 a1 5c 90 bf
       -0.01708299205783188 -0.01597835628116717
000140 4f be a4 b1 36 2f a0 3f a3 9a 4b 6e 7f 00 6c 3f
       0.03161021154880627 0.0034182061084380862
000150 ef 22 b8 01 2e cb 91 bf 16 bc b1 29 0c 5e 9e 3f
       -0.017376631598412236 0.029655637783829368
000160 1b 47 c1 cf 22 d7 70 3f 4c fa 42 78 17 70 68 3f
       0.004111419661130512 0.0029831369775757174
000170 4a 42 3a a8 3e 39 3b bf f6 cc 6d 35 51 63 a9 bf
       -0.00041539935794169104 -0.049585855266650755
000180 eb 29 08 95 a7 a4 a1 3f 1b c5 44 76 b3 52 84 3f
       0.03445934004055914 0.009923364683887706
000190 e8 76 19 e5 3e 59 68 bf 25 99 1e 11 29 98 79 3f
       -0.002972243157997368 0.006248627107117853
0001a0 76 d2 27 95 da 8b 60 3f 6f d9 3c 4e 62 0c 81 3f
       0.0020198125068822638 0.008324401867508794
0001b0 6b b0 9b 72 e3 6a 88 3f a4 9f 35 5d b1 49 7b bf
       0.011922623572410104 -0.006662075832856749
0001c0 1d 17 cb f8 b7 b3 91 bf 06 8c 14 35 dc 10 82 3f
       -0.01728713470472264 0.008821220750695257
0001d0 16 42 b8 96 2b 17 71 3f ec da 80 15 29 57 75 3f
       0.004172487515021325 0.0052100758403443685
0001e0 9d e4 82 03 52 96 99 bf d1 c6 25 cc 38 bc 6d bf
       -0.024987489189446255 -0.003629790241739574
0001f0 c0 52 1e b9 9b 68 9f bf 30 3f b5 cd e8 60 83 3f
       -0.030672486470922022 0.009462183740339108
000200 07 85 7d 9e ea 40 9e 3f d5 45 d8 95 07 31 91 3f
       0.029544511722069646 0.016788595696260195
000210 25 7b b8 7a 45 f9 95 bf 61 db dc f5 84 09 9e 3f
       -0.021458707442543763 0.029333188539762193
000220 c1 62 ac 71 8e bf 92 bf 83 1b 7c 5f 01 20 9c bf
       -0.018308854759285568 -0.02746584077160775
000230 3a 49 2f 60 f1 a6 9b 3f 9e 2f 41 58 96 1e 6c bf
       0.027004024024628516 -0.003432553903655446
000240 7d 8c d2 91 f8 15 83 bf 3f a8 6d 85 20 88 a0 3f
       -0.009319250059269141 0.032288566863670536
000250 50 b4 d8 af 60 d5 8c bf 88 3b 06 55 ec ac 9a 3f
       -0.014078860632333129 0.026050274552797542
000260 6e c9 fa d3 fd 10 85 bf 0a d3 c8 61 ef b2 6d bf
       -0.01028631499443541 -0.003625361960326483
000270 10 e4 05 ed 08 d3 ad bf 17 5a 96 e8 07 12 a7 3f
       -0.05825069325778298 0.04505943979454601
000280 8a 33 8a 2c 7a 90 a0 3f 5c 13 a3 aa 9f 4d 9d bf
       0.032352273880952145 -0.028616423406464406
000290 fe c5 b6 df 5f 1c 97 bf 2e d0 90 89 d6 73 8e bf
       -0.02256917765561716 -0.014869381020709307
0002a0 76 6d a7 91 e4 f8 7f 3f 89 8a b1 e2 39 d8 51 bf
       0.007805722091201664 -0.0010891499794289125
0002b0 c7 73 e1 cf e2 02 9e 3f 1c ab ab 39 f8 93 88 bf
       0.029307884157208777 -0.012000979671446248
0002c0 e5 3d e3 ab f5 da 90 bf 19 6d 3c 8c 7c 6a 92 3f
       -0.016460264793577557 0.017984338816956134
0002d0 da 1f 88 ae 0c bc 6f 3f c6 01 f1 8e a4 60 92 bf
       0.003873848694869492 -0.01794678804822227
0002e0 e3 02 c0 a3 e8 31 9c bf c3 c4 8b 90 59 1a a7 bf
       -0.027534136766919636 -0.04512290849187075
0002f0 7f 3b 20 7a b4 f5 74 3f 7d c0 e7 1f 11 b2 9b 3f
       0.0051171350369391124 0.027046458790153317
000300 e3 b0 10 78 0e f5 93 bf 37 49 ab 77 28 32 92 3f
       -0.019489503935049234 0.01776946287538658
000310 1a 96 37 3f 11 68 25 3f d5 56 f2 d3 98 30 a3 bf
       0.00016331873449286564 -0.03748014056433894
000320 68 e0 2e 91 dd 42 9f 3f 2c 89 54 db 0b 77 93 bf
       0.030528509126924425 -0.01900881315408147
000330 e8 f1 26 b8 a0 ab a2 bf f5 c9 81 b5 ca a8 a0 3f
       -0.03646566627455511 0.03253777948056672
000340 0e 49 8c 42 87 76 a4 3f 62 c3 bd 25 3b d2 a4 3f
       0.03996679961541548 0.0406664355822446
000350 d7 8d 96 e1 08 c9 90 3f bc de 5c f5 4e 42 9f bf
       0.01639188649063591 -0.0305263840920975
000360 73 35 c5 17 54 c2 84 3f c3 7e 02 52 d2 0a 83 3f
       0.01013627717534391 0.009297984245051244
000370 93 a8 7d 1a 4a 5a 88 bf cb 55 ee bd 3b ae 83 bf
       -0.011890963490902606 -0.009609667524084117
000380 5d bb 60 c5 2f fe 90 bf 8b c4 46 03 e2 78 91 3f
       -0.016594644948948346 0.017062694025018515
000390 4f b8 e4 2e 55 ae ae 3f 3b 01 74 a6 c3 a6 94 3f
       0.05992380330495505 0.0201674051613747
0003a0 cd 4a aa 81 bd 4a 9b 3f b1 cd 4e 97 61 1d 90 bf
       0.026652298964630106 -0.015737080440613564
0003b0 68 2d f5 1e 0c b5 91 3f 20 08 5e 48 af 32 a1 3f
       0.017292203320989158 0.0335898185576442
0003c0 f3 6f 51 7d 36 e0 6b bf bd ee 32 80 23 2b a4 bf
       -0.0034028114555848476 -0.039391621970449965
0003d0 42 4f b9 f6 e7 b1 9c 3f fb 85 30 34 18 9c ac 3f
       0.028022407945470514 0.05587840687827491
0003e0 4e 5a 47 e6 ed 2b 63 bf 37 66 60 cf 39 03 9e bf
       -0.0023402830577013206 -0.02930918052888939
0003f0 99 e6 81 62 59 97 9f bf 84 47 e0 0f 6e f1 8c bf
       -0.030850788724342413 -0.014132366046428542

net.1.layer.weight f8 [50, 128]
000000 98 93 96 b0 15 8f 8d 3f 0b 7c 34 63 15 6a b6 bf
       0.014433068706077454 -0.08755620643613342
000010 03 40 4b 1b c0 cd c8 3f 42 4e f1 d7 d9 25 a0 3f
       0.19377900440895254 0.0315387798406417
000020 de 75 e6 f6 6a 01 b0 bf 19 19 e0 5c 37 5f ba 3f
       -0.06252163436734956 0.10301538484063534
000030 41 ba a6 f6 6d be b6 bf 90 5f 20 88 00 6e c2 3f
       -0.08884322425613168 0.14398199698257175
000040 28 83 fe 7c 70 dc ba 3f a2 01 37 8e dc 97 8e 3f
       0.10492613841644227 0.014938090410283437
000050 49 c2 70 0f cf 1c c6 bf 59 fe 76 10 91 39 c4 bf
       -0.1727541757004636 -0.15800679496713846
000060 41 3d 78 48 6c 7b cb bf b8 27 72 9d bc ad aa 3f
       -0.21470407045897313 0.052106756419632416
000070 eb 16 21 a0 ff 17 ba 3f a4 3b d9 2c 51 00 ca bf
       0.10192868861585296 -0.20313467683669473
000080 e2 c0 19 64 dd ed 94 bf f3 d6 dc 65 60 09 a5 bf
       -0.020438632235198713 -0.04108716243210422
000090 d8 84 de 31 a6 24 ae 3f d7 9b 1c 43 78 8d d0 bf
       0.05887336119418202 -0.2586346297634327
0000a0 81 30 e3 51 20 64 b8 bf 6c 4c 9f cf f3 14 bd bf
       -0.09527780532079257 -0.11360095805075482
0000b0 93 64 7f b9 d0 46 c9 3f 49 54 c4 f0 d3 26 a7 3f
       0.197473612380041 0.04521810831116874
0000c0 ba 03 97 c8 12 10 8c bf 10 83 19 6e 69 7f b7 bf
       -0.013702532526510203 -0.09178790033321271
0000d0 21 45 c5 77 26 a3 c7 bf 6b bb 11 c0 64 4d c4 bf
       -0.18466645095990322 -0.15861186388380175
0000e0 fb 38 29 58 9e f0 b4 bf 1b f1 0f 00 32 1f aa 3f
       -0.08179654743546287 0.051019251353837634
0000f0 ae f8 79 58 2e f3 b2 bf c2 48 08 ef 28 e4 88 3f
       -0.07402314815587616 0.012153930468262412
000100 aa 6f ff 7c ee 94 c5 3f fc 50 06 f6 f3 78 b1 3f
       0.16860753158004843 0.06825184589826344
000110 a0 5b 91 11 a2 e4 a2 3f 5e 2f 22 95 de c0 cd bf
       0.0369005819745134 -0.23244840890799429
000120 26 37 9e 80 bb d0 c3 3f e3 1c dd 00 d6 26 bb bf
       0.15480750827958295 -0.10606133957945789
000130 66 34 ec 0f 3d 3e b4 bf 7a 91 48 c2 05 93 c5 bf
       -0.07907468451249286 -0.1685492705011134
000140 ec 56 51 dd 3e 47 c1 bf c3 63 74 2c 86 6d c7 bf
       -0.1349867420819274 -0.18302991076123307
000150 70 3d 1c 07 9a 75 d0 bf 0a 03 6e dc f5 93 75 bf
       -0.25717783636442615 -0.005268059153309643
000160 e4 d1 8d c2 30 d6 c2 bf 13 fd 79 a8 6d ec d0 3f
       -0.14716157436090704 0.26443044140610644
000170 6f 0c 31 88 48 9a c1 3f 83 ee e0 de d3 5b a4 bf
       0.13752085351925156 -0.03976308913885609
000180 f7 c5 80 49 c9 43 a6 3f d4 65 f2 17 86 6b b0 bf
       0.04348591825727149 -0.06414068302765169
000190 6b 35 32 70 15 01 70 bf 7c 8b fe 86 88 ed a0 3f
       -0.003907283538081212 0.0330622353351577
0001a0 b0 ed f2 3b 2c 23 a1 bf 24 c4 44 76 d4 ff b0 3f
       -0.03347147208975387 0.0664036549321883
0001b0 c6 a2 e5 58 9e c3 ca 3f 19 f9 fa 5a fd b3 a0 3f
       0.20909480419802245 0.032623212200166125
0001c0 cc a1 2b 25 da b1 9c 3f f7 30 55 c7 0c ab c6 3f
       0.02802220203276011 0.1770950291924078
0001d0 f8 59 9e 34 46 7e c3 3f 98 51 2b 7e df 87 95 bf
       0.1522910839964451 -0.021026126933820416
0001e0 85 75 6b 6d 05 12 c9 bf d7 2b fb a2 4e e9 ba 3f
       -0.19586246340524496 0.10512248496085817
0001f0 73 23 4e c0 dc e3 85 bf 32 63 16 2e ed 26 a0 bf
       -0.010688519114198524 -0.031546985507878836
000200 25 75 a4 07 96 5e a3 bf 53 2c e4 eb 1e 22 b8 3f
       -0.03783100932398956 0.09427064189019178
000210 3e f8 d4 b0 f1 54 c0 bf dc f5 c7 9a 77 3c 34 3f
       -0.12759228834505792 0.00030877990755570433
000220 34 b6 07 ee 36 22 a6 3f 25 e6 87 6b 7f 49 b0 bf
       0.04322978644982492 -0.06362148642792727
000230 ae 8f 5e e4 c8 6b bf bf 95 dc f9 4c 63 ad c4 bf
       -0.12273841453003229 -0.16154137858004405
000240 51 2f 33 8c 52 a4 5c 3f 6f 09 89 d1 be 91 bb 3f
       0.0017481619004681879 0.10769264808280864
000250 c4 d2 48 13 c4 7d ce bf 93 db d8 4e f0 30 d0 3f
       -0.23821307126640623 0.25298698139106895
000260 8b 17 af c2 b9 90 c1 bf 68 cb ff 87 43 43 b4 3f
       -0.13722917562534706 0.07915136404316814
000270 fb d5 c5 5e 45 23 c0 bf 74 a3 87 b0 a5 ad a3 3f
       -0.12607638480737635 0.038434198187878105
000280 ff 92 b9 60 d7 28 ac bf 36 3d ea da d3 c4 c5 bf
       -0.05499909454082363 -0.1700692004128343
000290 85 93 e6 7c 19 37 c6 bf 96 ae 91 b3 c5 9b 97 bf
       -0.17355650519052915 -0.023055161557222613
0002a0 df 21 ad bf d0 45 be 3f 4c bf 2c 84 c3 c3 b4 bf
       0.11825279883954164 -0.08111211754726105
0002b0 08 84 93 54 73 14 b9 bf 18 a1 75 a7 af c3 be bf
       -0.09796830000733803 -0.12017343366972388
0002c0 f8 10 f0 bd c3 27 a1 bf 0b ca 7e 0e e4 7c a5 3f
       -0.03350650495124968 0.04196846653885097
0002d0 8d ea 46 a3 f6 3e bc 3f 0d 0e 29 2e 53 f1 9b bf
       0.11033574568038258 -0.027287769024281917
0002e0 eb 53 60 92 20 cf a2 bf 99 a0 48 74 88 eb cb bf
       -0.03673650538272696 -0.21812539747157159
0002f0 34 30 57 70 e9 b8 60 3f e0 13 86 2b 46 c2 c5 3f
       0.002041297850814439 0.1699912750738397
000300 7f 4c e3 26 2f 6f c8 3f 1a 8b 47 cd ff d8 ae bf
       0.19089307211706694 -0.06024932270863399
000310 be e9 a9 a5 1f 93 c1 bf fd 71 15 05 ed 4f c5 3f
       -0.13730235661553353 0.16650164364081368
000320 e8 1b be 74 12 59 ca 3f 07 e9 5c 2d 64 00 91 3f
       0.20584326458285251 0.016603055256589474
000330 b3 d5 7e ce e9 2c a1 bf 89 6a 46 e8 99 24 a8 3f
       -0.0335457863397254 0.04715424499882654
000340 5a fd 58 39 8f 3b c3 bf 7e f6 b7 06 60 e4 c4 3f
       -0.15025511074234538 0.1632194550328911
000350 1e b0 cd 1d cc 20 b6 bf df 34 36 20 4b 93 a8 3f
       -0.08643794753669495 0.0479987599202134
000360 3d e4 ce ed c6 05 b0 3f c1 64 f6 79 c6 da c0 3f
       0.06258815103400735 0.1316764922637841
000370 1a fd 1e 11 c0 b2 ac 3f 6b ab 00 4f dc d9 c2 bf
       0.05605125626561343 -0.14727357728528587
000380 d2 4f ba 5c 11 9d c5 bf bd c0 6b b3 4f e1 c1 3f
       -0.16885582950328498 0.1396884561613713
000390 37 94 76 c0 9b d5 a1 3f 08 96 70 ff 46 c6 c0 3f
       0.0348328278007916 0.13105094406743967
0003a0 c4 cc c2 f9 99 8c 99 bf 82 21 a3 9f c8 13 b5 bf
       -0.024950414532850088 -0.0823331250895816
0003b0 0e 22 19 53 19 bc c3 3f 8c 6f 45 c2 78 4c a2 3f
       0.15417782361534232 0.03573968287920967
0003c0 b5 e9 1f f8 01 e5 a2 bf d8 e1 11 3f b3 f0 c5 bf
       -0.036903440035490766 -0.17140808658201823
0003d0 ad 1f 2a 5a f6 e3 95 3f 9b 47 a1 a9 5c 72 c4 3f
       0.021377419713217872 0.1597400501510123
0003e0 1c 53 4e b0 f4 aa aa bf 60 2e 89 39 d1 47 c1 3f
       -0.052085539361689664 0.13500418958061555
0003f0 04 5b 32 8a 28 88 81 bf 3f 1a 4a 97 12 69 c7 bf
       -0.008560482709339741 -0.182894061919983
000400 2a ab 4b cf a2 fa a9 bf b0 2d 0d f8 0e e3 bd bf
       -0.050740325741421025 -0.11674588733619973
000410 dd ae 4a 2a 0f 3b c3 bf b8 1f f7 7f 57 65 a9 3f
       -0.15023984494234002 0.04960130154682879
000420 ab c7 28 88 72 68 b5 bf d5 bf 00 93 25 25 ba 3f
       -0.08362499069406108 0.10212931479395533
000430 36 fd 22 56 55 75 c7 bf 23 14 22 5b bb c7 a0 3f
       -0.18326822954075234 0.032773833155296715
000440 f7 ec 45 37 66 fd db 3f a9 fd b0 21 84 48 b7 3f
       0.437341264703448 0.09095025846999384
000450 85 b0 45 54 9d 49 9c 3f 81 c3 02 bc 87 50 c7 bf
       0.02762456728798714 -0.1821450870534385
000460 0b c2 f4 f2 0d 63 ae bf 00 fb e1 91 4a f0 c2 bf
       -0.059349475772595715 -0.1479581081693695
000470 1e 01 4e 56 0c 24 c4 3f 77 26 ce 87 89 2c c6 bf
       0.15735010351273443 -0.17323416834942737
000480 e1 cc 7f 49 e1 3a c3 bf 27 c4 80 99 54 49 c2 bf
       -0.1502343758471403 -0.1428628682638486
000490 92 9a 09 5c 95 6b c8 3f b5 79 26 4a c8 7d c2 bf
       0.1907831859018257 -0.1444635736524568
0004a0 6a e9 22 b7 bb c3 c1 bf 17 37 b8 19 c2 c1 c2 3f
       -0.13878580515104072 0.14653803115691552
0004b0 ff 60 37 54 15 36 c5 3f d6 83 e8 f6 fc 29 cd 3f
       0.16571299183011232 0.22784387641971077
0004c0 df c5 1b c3 2a e2 c2 bf f3 f5 6d ae ac 5f ab 3f
       -0.14752707030088083 0.053464313786189786
0004d0 33 a8 d4 ff ac 60 bb 3f 24 55 a3 da 6a 39 8d 3f
       0.10694390531412594 0.01426967124681739
0004e0 c6 9f 82 37 d5 ff b8 bf 50 c3 c4 f8 be a7 cc bf
       -0.097653699924762 -0.2238692011537986
0004f0 7b 83 4a dd 98 12 c8 bf fb 03 53 f7 1b fe c0 bf
       -0.18806753926494565 -0.13275479866391024
000500 98 62 24 d7 04 52 b3 3f 3e 1e 3b 9b a1 46 b0 bf
       0.07547025921338457 -0.06357774772470123
000510 33 65 46 62 e0 fa c5 bf 41 1a 53 98 b2 4a c1 bf
       -0.17171864317496385 -0.13509209096646838
000520 91 e9 27 1b b8 ae 9c 3f bb 95 21 c1 09 99 97 3f
       0.028010250718560285 0.023044731533806245
000530 1b 1b 8c a3 86 b1 c3 bf 96 ec 14 ee e9 7a b7 3f
       -0.15385516153056575 0.09171926558058127
000540 3f ab c5 fd d8 22 b9 3f 0c e5 d4 2e c1 1a b1 3f
       0.09818798251732817 0.06681449311590287
000550 e5 31 71 ef e9 d6 c5 bf 96 4c 6d ee c1 96 b2 bf
       -0.17062114898216332 -0.07261287756891685
000560 48 50 33 03 94 24 b1 bf d1 10 b5 e9 77 ff c1 3f
       -0.06696438863883813 0.14060877715576806
000570 34 c6 07 b7 2a 46 b9 3f a8 5b 03 55 1b 43 c8 bf
       0.09872691124453398 -0.18954793597251052
000580 40 30 1b 16 77 a3 8a 3f 7e 2f 26 2a a0 00 c8 3f
       0.013007097589614713 0.18751909311356124
000590 fa df 17 80 0c ad ba 3f f7 7e cc e6 4d f0 c3 3f
       0.1042030155875863 0.15577100533936747
0005a0 8a 47 43 02 55 8f ac 3f 2b ee 3c 83 02 34 cb bf
       0.0557810368787975 -0.2125247135935394
0005b0 d0 b6 be 92 c6 d7 c2 3f 96 aa ef 5c c7 c7 be 3f
       0.14720995106966095 0.1202358819861423
0005c0 dd 59 93 ed a5 fb 96 3f 16 cf 79 ae b0 1e b8 3f
       0.02244433653398824 0.09421829471267204
0005d0 4d ce 52 87 aa 59 b3 bf b7 72 56 7e a1 4d c3 3f
       -0.0755869465236227 0.15080660504181306
0005e0 1d 45 e2 22 b9 54 ab bf 8d f7 ff ef 3b 18 c5 3f
       -0.05338076163128334 0.16480206698173241
0005f0 a9 38 a4 94 d3 19 a6 bf 8a 62 0f 3e 5d e3 c0 3f
       -0.0431657904574519 0.13193860559728804
000600 b6 25 12 74 9c bf c4 bf cd 23 39 ae c2 e1 b5 bf
       -0.162097508120764 -0.08547608140464931
000610 a1 5e db bb 96 39 be 3f e8 64 e3 02 dd cd b2 3f
       0.1180662354121247 0.07345372505678294
000620 57 81 de 99 44 c9 c2 bf e4 cf 82 5c af f6 c9 bf
       -0.14676721108572607 -0.2028407289232056
000630 51 1a 99 9c 71 44 b4 bf cd 1a 79 03 2c ef 82 bf
       -0.07916936944193621 -0.009245246749867953
000640 62 12 e2 be a0 a1 bb bf 0f 9c ab 1a 51 24 a2 bf
       -0.10793499622565997 -0.035433325296075784
000650 ea bf 26 73 d3 18 ae 3f 8d ec 46 e9 73 25 ca 3f
       0.05878315716415712 0.20426796808701334
000660 19 7d 34 bc af 9e 9b bf 14 4c 32 47 ff b0 c4 bf
       -0.026972528326152465 -0.16165152527227689
000670 48 e9 1e be ad 20 c7 bf 0e 97 f5 3b c6 39 c5 3f
       -0.18068477423896412 0.16582563331319772
000680 7a 80 d3 b4 74 49 bb 3f 2a 2d 70 71 fc e8 b5 bf
       0.10658959784223213 -0.08558633584486999
000690 e2 01 50 53 34 75 be bf f6 3f 41 23 2b 4b c9 bf
       -0.11897589715955051 -0.19760646077565952
0006a0 cd d1 45 52 48 f8 a5 3f 40 97 e0 11 eb a8 b8 3f
       0.04290987018876855 0.09632748781640732
0006b0 ec 95 e8 e2 54 79 c2 3f a5 cb c3 41 d0 62 c8 bf
       0.144327746195969 -0.19051554881261015
0006c0 14 35 1c 8d f2 d8 c2 bf 37 60 77 5e 5c 50 9b 3f
       -0.14724571123262165 0.026673739686742883
0006d0 52 34 b4 80 ae c2 b5 3f c9 e2 e0 b9 88 8d c3 bf
       0.08500185625253323 -0.1527567775354071
0006e0 43 e3 99 1a a9 0c be bf 2b cf 55 63 04 f4 a1 bf
       -0.11738068484727386 -0.03506482803905294
0006f0 0b 30 d5 f1 0b ed 9d 3f 8d 96 4e 06 8a a3 ca 3f
       0.0292245737412458 0.20811581905325163
000700 b8 52 75 81 da 28 bc 3f e3 ce 99 18 8a cd b8 bf
       0.10999837551691882 -0.09688628292661465
000710 dd 02 77 ba 05 07 b6 bf 8b ee 3a ca 3a 99 be 3f
       -0.08604465296140114 0.11952559888134766
000720 bc 43 db f2 15 26 92 bf df 05 c3 1b cf 47 d4 bf
       -0.017723410556587757 -0.31688287459482284
000730 e7 7c 3b 81 9c 28 c0 bf 4c 77 a1 02 7b 3a ac 3f
       -0.12623935995268384 0.05513367087472307
000740 f4 35 60 b1 eb 8e 9a 3f 8b 00 9e 3a 8e 72 c1 bf
       0.02593582410923108 -0.13630845892112506
000750 97 23 67 12 05 c0 9a bf a6 ad 5c 41 8b c9 a4 bf
       -0.026123122451994964 -0.040600158432734276
000760 6b c8 86 af c3 5c b6 bf 90 a3 7d db a2 c1 c6 3f
       -0.08735297236742816 0.17778430669139
000770 c9 fe e7 72 b7 cf c4 bf dd bb 9c 2b a2 92 a6 3f
       -0.16258900747924646 0.044087474654922444
000780 99 db 5e ef 41 f3 d4 bf c8 59 ae dc c6 5f bf 3f
       -0.3273472631075776 0.12255518806191568
000790 4d 20 0c c0 72 39 b3 bf d2 2c 93 b6 b7 60 a7 bf
       -0.07509534062057917 -0.045659771954513
0007a0 b5 95 e7 4c 85 52 ac 3f a8 bd cd 56 58 59 51 bf
       0.055317083013317093 -0.0010588991819665359
0007b0 36 ba 51 0b 61 59 c7 3f 16 d0 1c 78 14 b4 94 bf
       0.18241513302514684 -0.020218200522506967
0007c0 74 ab 37 a7 8c 0a b7 bf 8b 83 90 41 3b 5d b6 3f
       -0.09000472147424238 0.08736009932228066
0007d0 c9 0e f9 3f fd 3b bb 3f 0d a9 90 f4 05 7f a9 bf
       0.10638411342466293 -0.04979723558820313
0007e0 e6 79 7d 38 e9 e8 c2 3f e7 47 10 d2 1c 40 91 3f
       0.14773288019473724 0.01684613258482406
0007f0 e9 17 22 f2 35 6b a4 3f 34 63 f7 8d 5b 63 c5 bf
       0.03988045292594206 -0.1670946543879609

net.1.layer.bias f8 [50]
000000 03 3f 57 d2 1c 04 a3 3f af de 6a 23 8d 94 a2 3f
       0.03714075153004439 0.036289606641216714
000010 3c 5f 7e 64 a3 27 90 bf c7 92 b4 55 f9 1a 7c bf
       -0.015776207932133732 -0.0068616618766880804
000020 d8 4a 83 b8 9e 0b 75 3f 81 70 ec b6 db 9e 9c bf
       0.005138034823363134 -0.0279497461698246
000030 e2 ee fc db bd 3c a7 3f 1f 4d 7b 30 d6 53 a3 3f
       0.04538529692078243 0.03774899808709108
000040 2d cc 74 4c f3 15 a2 3f 61 df b9 97 c1 cd 8b bf
       0.0353237181501743 -0.013576042597591433
000050 58 b2 91 08 5c 88 a9 3f 8a 06 75 26 1a 1d 85 3f
       0.04986846546748741 0.010309414194696904
000060 64 4a 5d 0c 37 4b 95 bf 52 0b b1 76 91 bc 91 bf
       -0.02079473507849129 -0.01732089316306979
000070 c5 0b 93 90 0e b3 90 3f 3f 04 32 d0 14 a0 91 bf
       0.016308047842141144 -0.017212224204289802
000080 56 cf e2 60 5e 2d b7 bf f1 bc 40 11 c7 11 77 3f
       -0.09053602090244559 0.005632188422210791
000090 5f bc bb 4b ad 06 77 3f 50 26 06 fb e2 3c 87 bf
       0.00562160199818526 -0.011346600804944235
0000a0 ae 55 d4 8e d7 2b 74 bf 60 81 64 d6 36 e4 92 bf
       -0.00492462351146143 -0.01844869311855868
0000b0 be 93 a3 02 77 81 47 bf 8f 3f 06 94 81 8d 9b bf
       -0.0007173377137205045 -0.02690699068040164
0000c0 a3 de 20 79 6a 83 99 bf 51 74 5e 27 9c c2 8f bf
       -0.024915374415484092 -0.01550790782112635
0000d0 71 63 97 a6 5f 64 87 3f a8 ba 3b 3d ba 8a 5c 3f
       0.011421916266884687 0.0017420595876804033
0000e0 18 a2 2d 82 5c e7 77 bf 5b be 83 37 5e 1c 79 bf
       -0.005835877763140228 -0.006130569490991523
0000f0 27 b7 5e ed 58 80 a2 bf a0 f8 a3 da dd bd 9c bf
       -0.036135462737872985 -0.028068033666379777
000100 00 3b 92 3f ca be 96 bf f6 48 75 c7 d3 f2 ab 3f
       -0.022212181215361504 0.05458699998657039
000110 d9 86 ba 0b 4f b6 b4 bf 3a 68 77 b1 8f e1 a0 3f
       -0.08090681110709443 0.03297089616144473
000120 e5 9d 53 e6 a3 0e 80 3f 03 bf 98 8e 60 3e 91 bf
       0.007840424028883805 -0.01683951254216166
000130 63 4d b6 9a 07 08 9a 3f 23 5d 5c e9 2c 61 96 3f
       0.02542125589168388 0.021855069869244247
000140 19 55 33 59 2f 64 a5 3f 10 38 35 a9 6a 2c b6 bf
       0.04177997554658414 -0.08661524420787736
000150 2d c6 47 25 92 eb 5e bf 9c a4 71 65 b2 f1 79 bf
       -0.0018872191623099486 -0.0063340157131303275
000160 d8 94 3f 4a f4 f0 86 bf f2 52 75 f7 0f 77 95 bf
       -0.011201771274452474 -0.02096199939599592
000170 a2 66 05 11 5c ab 80 bf a5 69 3d 5d 64 13 64 bf
       -0.008139342565004985 -0.0024506530989302938
000180 28 bb ed ed 38 cf 9b bf ee 1e 16 96 b4 c4 91 bf
       -0.027157678148280656 -0.01735193410925622

net.2.layer.weight f8 [50, 50]
000000 a2 69 3f ad 03 b7 c6 bf 21 da 0c ba d6 28 a4 3f
       -0.17746015509949326 0.03937407513733527
000010 73 37 bd 5a fe 90 d2 3f 2d b5 8e 3c 7f 52 8e 3f
       0.2900997053264895 0.014805788074080251
000020 17 5e 01 6c 79 58 c1 3f 76 ed 6d f7 a8 c1 c9 bf
       0.1355125214929422 -0.2012225349570646
000030 4c 06 e7 7a 95 9d ae 3f bc 4c 8f ce f9 53 c0 bf
       0.0597960197951691 -0.12756273828435905
000040 31 a9 23 88 a2 c3 bd bf cb 53 7a dc 5c 2b c8 3f
       -0.11626640151704205 0.18882332578200897
000050 0d 37 60 cf 93 94 c6 3f 8b 8c 35 4a c8 17 ac bf
       0.17640922189496458 -0.05486894517778137
000060 51 90 9b 68 df e2 c2 3f db 2d da c1 e2 68 ae 3f
       0.1475486050395625 0.05939396492348311
000070 72 a2 df 17 02 e6 ad bf b7 75 bf 77 06 dd bf bf
       -0.0583954481260819 -0.12446632789165944
000080 3b 34 9b 95 91 11 d1 3f 23 ea 17 b5 26 f8 a3 bf
       0.2666973076819123 -0.03900261841404908
000090 42 2b 37 18 f6 60 b8 3f d3 9c bd 34 4b ed ca bf
       0.09522951213072609 -0.21036663127163155
0000a0 a3 5d 31 a1 92 98 bd bf 39 dc d2 68 c2 a0 c0 bf
       -0.11560932574626874 -0.12990598791449928
0000b0 ca d5 11 86 df d3 b7 3f 0c 48 cf 4d 0b f1 ce 3f
       0.0930766775434996 0.2417310838632719
0000c0 53 59 d0 a1 f5 0d c1 bf c3 0a af b8 01 29 d9 bf
       -0.13323851014201668 -0.39312785182498206
0000d0 19 78 fb 4b 20 16 c7 bf 51 a0 11 4a 25 97 b5 bf
       -0.18036273679803186 -0.08433754976579279
0000e0 b0 fe 55 3b b6 df ce 3f f4 2e b7 b8 c8 df aa bf
       0.24120214364301296 -0.052488586948667676
0000f0 aa 50 21 c5 12 ea c5 bf c5 c9 d8 36 df 5c c6 3f
       -0.17120585084433532 0.1747092263991147
000100 77 5e be eb 30 cc d1 3f f4 56 8e 1b 73 08 87 3f
       0.2780878355201603 0.011246585157816714
000110 ce c2 09 02 b0 bb c4 bf cf 31 06 74 db ed bc 3f
       -0.1619777688934136 0.1130044134390069
000120 67 30 f1 da 58 d7 a0 3f 0f 33 a0 a7 a4 db a7 3f
       0.03289296791680912 0.04659761949742435
000130 28 ce 9c 82 5d 7f ca bf 12 a8 01 f5 a1 8c a2 3f
       -0.20701187970699775 0.03622919193078657
000140 61 b0 5c 47 10 26 c3 bf 29 b6 11 e5 63 df ce 3f
       -0.14959910854793448 0.24119232831019247
000150 25 13 bb 9d 16 ac 93 bf 31 54 72 8e 3e 5e bf 3f
       -0.01921115243637241 0.12253180482578398
000160 82 f5 92 15 df ef ca 3f 5a 79 ee 50 2a bc aa bf
       0.21044529488964875 -0.05221683729108646
000170 4d 9f 82 60 fa ce cc bf 3a 21 b7 ec 12 73 cb bf
       -0.2250664683572218 -0.21444927748076187
000180 0c dc 07 e4 59 cf c5 3f 3f 52 41 44 ec 8c b5 3f
       0.17039035448371498 0.08418156305681011
000190 5d ce 42 15 94 6c 99 bf 66 88 7b a0 2a 0e b2 3f
       -0.02482825641409502 0.07052866380721098
0001a0 e6 c3 76 78 6f 06 91 3f 6f c9 d3 dc 98 07 aa 3f
       0.016626111724409663 0.05083921142240199
0001b0 b2 3f e1 47 5e b2 ac bf 07 bb fa 4b d3 97 d1 bf
       -0.05604834201278609 -0.27489168567528605
0001c0 13 a2 82 ee ca 0c cf bf 3e a3 8b 84 ff e9 cb bf
       -0.24257790227899587 -0.2180785557932498
0001d0 53 b2 a6 48 a0 ca c6 3f 2b 6e c5 94 5e 77 c6 bf
       0.17805865809841012 -0.175517866747087
0001e0 22 4d d5 30 a0 5a d3 3f b5 bf 52 33 53 87 b7 3f
       0.30240635651462544 0.09190864565857633
0001f0 c3 62 8b 62 be e9 d3 bf 87 5f 95 aa 53 ba c7 3f
       -0.31114158271297415 0.18537374333640974
000200 32 fd 1a 99 24 80 96 3f 00 36 eb d4 ac 35 78 bf
       0.021973201603711696 -0.005910563587077089
000210 1f 04 db a2 28 7a c8 bf 4b 40 ea 42 41 bf bf 3f
       -0.19122798873834854 0.12401206859272056
000220 7d 72 df 00 60 67 bc 3f 11 bf be d2 5f c7 ca bf
       0.11095237752256 -0.20920942106521825
000230 61 b1 de 70 a0 36 c5 3f d0 20 62 6f 45 39 ce bf
       0.1657295752642183 -0.236122779261001
000240 ac d3 68 ed dc ba c8 3f e4 d1 7a 51 18 f5 bd bf
       0.19320260612735518 -0.11702110280277328
000250 81 01 a4 cd 6b 31 a7 3f d4 04 5c 40 f6 57 c6 bf
       0.045298928120248945 -0.1745593847518082
000260 41 47 db d0 a0 1d c4 3f 4a bb 10 88 eb 92 b8 3f
       0.15715418050836585 0.09599182197483205
000270 58 ac c5 36 ad 41 a4 bf bb 0c 6b f3 b6 fb a7 3f
       -0.03956357282262307 0.046842305387622095
000280 21 1b c9 d8 b9 cb db bf 8b 51 30 c5 18 7e b4 bf
       -0.43430944605317917 -0.08004908384493185
000290 ce ec ce 09 dc 49 b0 3f 49 b0 53 f6 11 70 c8 3f
       0.06362700690708609 0.19092011001282774
0002a0 51 f0 cc f9 8e a1 a8 bf 5e 3f 28 64 06 69 a1 3f
       -0.048107593529920785 0.034004401899550216
0002b0 82 5a ca 44 0e fb a1 bf a8 3b 78 fc fc 3e 92 bf
       -0.0351185282681188 -0.017818406018757976
0002c0 8d a9 e6 4a bc 37 be bf 8b d7 ca 18 e5 b3 a2 3f
       -0.11803795651090905 0.0365287392391301
0002d0 e7 c9 5d 8e 2d 83 c0 bf 2a 5f 5c ce 13 ae a0 bf
       -0.1290032334469082 -0.032578104916124964
0002e0 c8 de fc 9c f6 60 bc 3f 83 de f3 29 3a 36 c0 3f
       0.1108545430441793 0.1266548828932522
0002f0 b6 83 f2 3f fa 8f c0 bf 5b 6d b2 88 8d b2 c0 bf
       -0.1293938457720551 -0.13044900107056887
000300 d6 9d 11 6b 93 bc a7 bf 5b 66 dc e2 e8 89 cc bf
       -0.046360594577716505 -0.22295867039865666
000310 92 9e b8 53 7c df d7 bf 15 8f b3 e4 6a 44 c3 bf
       -0.3730154817189738 -0.15052543799458165
000320 92 58 b7 cc 53 76 b1 3f 7d cb 09 27 8d a4 a3 bf
       0.06821178195909486 -0.03836480237523341
000330 71 9a 01 a2 c1 c1 c5 3f 3b bb 10 c8 54 2e d3 bf
       0.1699754754110532 -0.2997028306735278
000340 90 b5 c8 08 d0 52 bb bf c2 55 8d e7 b3 96 b5 bf
       -0.10673237051442741 -0.0843307915032119
000350 81 23 24 ac 39 ae b6 bf e7 ec 9d 50 c6 09 b6 bf
       -0.08859596684136585 -0.08608664959131183
000360 4a 4b 40 bc 3a 2b b6 3f c2 b6 9e bb 1d 58 d9 3f
       0.08659712882972062 0.3960031826235132
000370 7e 87 42 52 8f 80 c4 3f b9 f1 89 c3 4b af 40 bf
       0.16017333523364735 -0.0005091781559510212
000380 19 96 30 19 26 9f c2 bf 5f 04 ef 9a 20 66 bd bf
       -0.1454818366047881 -0.1148395899063117
000390 30 8e d9 70 ae f8 c6 3f e4 2f 0a b9 9b 0c c2 bf
       0.17946415434117702 -0.1410097745432487
0003a0 e8 3b 94 d0 48 70 d1 3f 49 b2 e6 cf 6c c6 b8 3f
       0.272478297892063 0.09677772594177116
0003b0 84 37 79 77 05 88 c3 bf 5b ec 4e 9d 40 87 99 3f
       -0.15258854230563312 0.024930009461723617
0003c0 42 ea 9f 9a 3a 67 d0 bf 11 94 ca cd 08 14 c7 3f
       -0.256300593376782 0.18029890106586824
0003d0 dc 7d 34 6a db 37 b2 3f 69 aa 4c 8d 64 61 c9 bf
       0.0711648115434324 -0.19828469180477562
0003e0 e8 c4 0a 53 17 bb bb bf 3a 94 76 06 b6 ce df bf
       -0.10832353379625526 -0.49699164038821986
0003f0 aa 82 67 61 66 c4 bd 3f f4 78 4c 48 38 66 ae bf
       0.11627807500873169 -0.05937362558892004
000400 90 cb d5 9d 78 7e cb 3f 5f a2 93 1b e5 69 98 3f
       0.21479709345620934 0.023841457183979006
000410 52 71 56 9a ee bf 42 3f 8e c6 2d c3 44 76 b7 bf
       0.0005721964886791586 -0.09164838566882791
000420 37 53 0f 1c bd 9f 7d bf 8c 6c 16 b0 f1 99 d2 bf
       -0.007232416829499758 -0.2906460017781647
000430 46 ad 72 ad 29 0a ad bf 6c be 89 82 8d d1 be 3f
       -0.056718161032530065 0.1203850215622368
000440 25 28 3d d1 06 da c1 bf b7 a4 c1 56 7e 13 c7 3f
       -0.13946614472143995 0.18028239475396443
000450 97 23 2c 55 72 6f a1 bf b3 8d 62 d7 ec 5d d2 3f
       -0.034053395173095406 0.2869827369088071
000460 1f b0 8c f1 a2 2d d5 bf b3 de fd 0f 10 6f d0 3f
       -0.3309104308016248 0.25677873193442763
000470 7d d7 ad 68 d4 83 ae 3f 5b b0 19 e9 08 6a b3 bf
       0.05959953096218749 -0.07583671275068708
000480 0a 86 fa b6 9e 0b d5 3f b1 b2 02 cd e6 c1 9f 3f
       0.32883422726635614 0.031013113272524154
000490 ee 14 b2 47 cd ed b9 bf ab 9e e6 28 73 1d 78 3f
       -0.10128481865293157 0.005887460558745931
0004a0 a1 28 1b be 7f 1c c8 bf 63 50 42 a1 33 1f c0 3f
       -0.18836972029231894 0.12595219968773383
0004b0 40 9f e2 df f6 98 a5 3f 8b ed f8 c2 54 d0 bf bf
       0.04218265040372993 -0.12427263031070461
0004c0 d8 2d 18 f2 0e 84 81 3f a7 7c 85 66 38 05 be bf
       0.00855266262353542 -0.11726715567555122
0004d0 83 6a c4 c2 41 34 cc 3f a8 35 40 dc 1e 12 b2 bf
       0.22034475336188927 -0.07058899762360815
0004e0 ec 2f fb 92 e4 03 c0 3f 0b 54 87 b3 51 87 c0 3f
       0.12511880089584737 0.12912961259885977
0004f0 df 57 7c cb f7 2f c6 3f e7 04 9c 20 ec 50 b1 bf
       0.17333886562181441 -0.06764102741364618
000500 ef 3c bc 7e e3 37 d4 bf 1c 77 71 e5 6c b5 b6 bf
       -0.3159111726426564 -0.0887058315433617
000510 55 5b 08 74 84 31 b3 bf 86 4d 61 b7 c0 c7 c7 bf
       -0.07497432549312795 -0.18578347162347714
000520 52 e9 7e 72 70 d8 c5 3f 5d 79 e6 ef 2f 2b ca 3f
       0.17066770163166695 0.20444297040826145
000530 55 4d 12 47 72 5c b0 bf 16 43 61 5f da f7 d6 bf
       -0.06391062007087574 -0.358877747673476
000540 01 b0 6e f9 23 9b c5 3f 44 7d 11 14 3f a2 cc bf
       0.16879701308550923 -0.22370136718653033
000550 69 99 67 c8 11 54 c6 bf 56 2c 49 e9 7d 3d c0 bf
       -0.17444059644112578 -0.12687658205900004
000560 b1 ce bc 8a 7d e5 b2 3f 7b 7f 94 a7 a5 f0 83 3f
       0.07381424557825757 0.009736341644895443
000570 6b 1b b9 42 bd c0 96 bf 68 45 9a bf 1f 7a d4 3f
       -0.02221961707825974 0.31995385848229896
000580 89 04 2b bd 8d bf ce bf ba 86 2f af 04 a0 ca bf
       -0.24022075401993373 -0.20800837091433327
000590 ee 31 e9 49 ae 3a cb bf 20 3d 83 5b e9 64 94 bf
       -0.2127282963650851 -0.01991619702385805
0005a0 21 fd 8f d5 5e 45 c7 3f 5f d4 57 1d e6 91 d0 3f
       0.18180451801161104 0.25890496125732015
0005b0 6c 93 03 b2 f8 16 be 3f 66 32 20 8c 09 4d ca bf
       0.1175380167583861 -0.20547599165037694
0005c0 e7 72 71 61 a6 47 ca 3f 01 a0 69 24 8f 44 c2 3f
       0.20531158216444753 0.1427172591968429
0005d0 e5 5b 4d 69 9d b5 d1 bf 96 a1 54 bb 86 53 ca bf
       -0.27670989306846955 -0.20567402026177878
0005e0 69 f4 fd 88 b3 c1 b1 3f 07 31 06 00 cc eb d2 bf
       0.06936189741641531 -0.2956418991314113
0005f0 63 ed 0f c9 44 6e c1 bf 47 b8 02 6c 0c 41 bc bf
       -0.13617763345232978 -0.110367561692983
000600 49 0a 56 2c f6 dc a1 bf 1e f3 9f d3 a3 dc 93 bf
       -0.034888928329583076 -0.019396362105896896
000610 f3 78 d5 a4 67 b9 97 bf cc 26 bd 9c ca ae c5 3f
       -0.023168200908338 0.16939671185746474
000620 ea fd 6d 77 98 66 b9 bf 23 99 3b 38 e9 85 76 3f
       -0.09922173419726446 0.0054988012450165906
000630 6e de d5 0a 3b d3 a4 3f 27 be e3 b0 fe b7 ac 3f
       0.04067406184452414 0.05609126958176729
000640 19 ea f7 11 ba ed c8 bf 7c c0 66 53 5a 3a ba bf
       -0.19475484731067708 -0.10245289360205051
000650 56 ce 1c 06 72 ba c6 bf 52 fa fc 9c 71 1f c4 3f
       -0.17756486223662432 0.15720958867491902
000660 af f0 06 ae aa 39 8c 3f 02 da 47 bc 28 51 c6 3f
       0.013781865535627295 0.17435177987472633
000670 52 74 99 4f 58 42 c7 3f 06 fb 5a 67 98 b3 8a bf
       0.18171218764010405 -0.013037863401562
000680 11 8b 9d c2 dd c2 a3 3f c5 b1 06 54 71 9c ad bf
       0.03859608650852498 -0.05783418799123611
000690 56 16 75 ca 37 b4 bd bf 3e d0 94 aa 58 7c c6 bf
       -0.1160311574249929 -0.1756697495380894
0006a0 a6 47 c9 3a b9 40 d2 3f bd ab af 48 67 2f b3 3f
       0.28520041218609504 0.07494206928792742
0006b0 f5 e5 9a a2 81 90 c1 bf ad 22 18 31 2f d0 9b 3f
       -0.1372224849672389 0.027161347743489262
0006c0 e5 0a 79 45 c8 e0 cb bf ca 62 f8 84 32 bd a5 bf
       -0.2177973117087141 -0.042459086162300944
0006d0 25 30 96 8a a3 89 a4 bf 8c d4 c6 1b 87 db c7 bf
       -0.04011260096294248 -0.18638695579798925
0006e0 86 8b ae 57 2f c0 a2 bf 31 22 f1 d0 2a 37 c7 3f
       -0.0366225046666591 0.18137107088320328
0006f0 6d de b8 9b 28 09 65 bf 14 ad c1 64 6d d7 9e 3f
       -0.0025678437357575163 0.03011866500348244
000700 63 1f 32 4e e5 77 c3 3f 60 03 9f 80 a4 43 91 bf
       0.15209642713693503 -0.016859598493968675
000710 1d 42 ea da 3f b0 a0 bf 4f 90 26 96 aa 5a c6 3f
       -0.032594676468878904 0.1746419175298137
000720 ec 97 64 75 53 9f c3 bf f3 a6 7a 0a 74 41 cd 3f
       -0.15329974395825674 0.22855997573542872
000730 cc 50 7c 29 f6 66 c4 bf f0 4f d6 56 a3 81 cc 3f
       -0.15939213777222105 0.2227062391290242
000740 db 6c 8a b4 59 45 c5 bf 06 6d bf 65 74 3e 5d 3f
       -0.16617890658822074 0.001784909886729137
000750 c1 8f f7 3a 9d 14 c6 3f 74 83 68 9f 4b c2 ce bf
       0.17250409487962595 -0.24030442508321992
000760 91 0b cf 6d 41 73 d0 3f d0 49 2e a5 2a f4 bc 3f
       0.2570346424437782 0.11310068638548576
000770 c6 eb e4 c0 dc 97 c3 3f 6f d9 9b 93 d5 92 b3 bf
       0.1530719701639482 -0.07645926336031093
000780 5a 1c ef 92 1d 4a cb 3f 84 98 cc 94 5a 54 86 bf
       0.21319932627213484 -0.010903079668036726
000790 c7 83 eb f4 0b 70 d4 3f 9d d4 e1 0d 9f e2 d3 3f
       0.319338788203876 0.31070686679533727
0007a0 e7 8d 85 e2 f1 ca 8a bf 44 ca 04 83 3e 99 ab 3f
       -0.013082399106401034 0.05390353535985473
0007b0 46 db 11 13 76 d4 d0 3f de 00 a1 99 3d 6f d1 3f
       0.2629676042774246 0.272414588955156
0007c0 1a 1f a3 c4 a5 23 bb 3f 6f df c9 0e 95 64 c1 bf
       0.10601268816673973 -0.13588202688310555
0007d0 e9 c1 7b df 50 46 bd 3f 19 85 b7 72 61 17 71 bf
       0.11435418563974732 -0.00417268815678653
0007e0 6a a0 1c 05 c5 be c1 bf 0c f9 1c c4 53 d0 cb 3f
       -0.13863432645416945 0.21729514194334631
0007f0 4b c1 5d 1d c2 53 a4 3f 00 58 05 0d 8d 1a d1 3f
       0.03970152481531616 0.26724554320878724
