5_Burgers_1D/logs/models/2023-12-21-15-54-21_1d_burgers_rbf128_100X5/epoch_24000.pt (torch, 440187 bytes, 14 tensors)

rbf_layers.0.centres f8 [128, 2]
00000000: 090b 2d96 d1de debf acbb 903c 1548 da3f
00000010: 0b8e 1dba b2f8 d7bf e897 1470 c8bd f13f
00000020: a845 44d9 e1eb d6bf 6b32 228e 6ec8 ebbf
00000030: ed4a 2b0c 63f0 d6bf c16d bd49 fe88 e3bf
00000040: 119b f866 5056 e33f 201a aa98 941b e5bf
00000050: df15 92a3 fd53 f0bf 2913 1bcd cc06 d73f
00000060: 4aed 95a4 ced7 f0bf f42f 0f64 2706 d7bf
00000070: d27d dcff 0083 f23f 87b3 b73d 977a e63f
00000080: 4d86 5cf2 7093 f23f 8f31 0ee9 3ecd e53f
00000090: 67b9 0778 2b23 f8bf dee5 244b 0cf7 ccbf
000000a0: cd58 d004 7217 ec3f 66a7 09fd 3e15 f3bf
000000b0: a598 ebe8 c5c8 f23f 2f95 e631 0082 d3bf
000000c0: 70d4 a854 5dad 853f 536e c935 b3e1 e0bf
000000d0: 732a 70f3 243c bcbf b6a3 a879 d789 f83f
000000e0: 7a11 b549 79cb e5bf 63b9 dd71 5fdc d13f
000000f0: 8414 e2d1 fb40 dbbf 18b2 af7e 808d ee3f
00000100: 2549 73ee 9a70 fabf a34d 2e5e b067 e3bf
00000110: 359d 50d8 a36c f33f 12e8 437c 65c2 f93f
00000120: c615 8843 4394 c4bf 0975 d6e8 7b4f babf
00000130: 19ce 87e6 50dc debf 5608 19aa 4830 d73f
00000140: 2098 214c 6016 d8bf 3e68 fca4 d582 e13f
00000150: 207b 4775 c0e4 c5bf 5550 d882 c689 0240
00000160: c9d7 1a88 6d56 e3bf 647e 063e 53d1 e23f
00000170: 32dc 474a 73e5 f2bf 45bc 3c3b 66a8 e3bf
00000180: bfa3 886e a702 f13f 12ae 0bdb a0f5 c63f
00000190: 055e 5f38 8aa9 dcbf 8891 f432 8bc2 f23f
000001a0: c508 a65c 8a12 d5bf d9ed 8475 c985 ee3f
000001b0: 25e5 51e1 7414 f03f c6c9 fac6 3865 c6bf
000001c0: 916a 52fd d846 d7bf 0368 97bc 6894 e9bf
000001d0: 8721 59aa 8f49 e3bf 1a6e f096 2d41 e2bf
000001e0: a972 4330 e127 afbf 2642 264c 9847 febf
000001f0: c2eb 3fcd 3975 f23f 1e58 f1e3 367a e4bf
00000200: 8f8a 3199 fdcf 0140 b762 4966 36db c3bf
00000210: a144 b6c1 c007 01c0 ac35 cb83 3e05 d73f
00000220: 4c6a fd3e 72db fbbf 5d1c 0469 2292 e6bf
00000230: 2d68 5ef3 6b45 dfbf 0486 8d1b f6f4 e4bf
00000240: b3fa 5e99 1586 f6bf 2caa 2f34 a60f e03f
00000250: a825 1027 0fd4 f33f dae5 0e71 8088 e03f
00000260: 3f6b 2238 3404 e0bf e8ca 32f5 434f e33f
00000270: b06c 12e6 f8a8 f1bf df0d c715 7105 fabf
00000280: 825d 44fc b836 f73f a3cf d351 2e5d f0bf
00000290: b9ec 63f6 ddaa efbf fb4b 6b6d 5223 eb3f
000002a0: fd43 4a57 8499 f13f 6d8d baed 170f 00c0
000002b0: 11ac 35dc cc60 f03f 242b b2c5 f053 cd3f
000002c0: 588d 2265 efa0 f3bf e205 0120 2f02 f3bf
000002d0: 6889 ed0d ea2b dabf 71cb 970c 7709 e73f
000002e0: 34b4 b41a e273 fbbf d9fe f3e9 081c c23f
000002f0: 7db0 1ca2 2321 00c0 59db ebdf 18d2 f93f
00000300: 1adb 387e cbe8 f63f e1e9 b1c4 e3c0 f1bf
00000310: dac3 11bf 9b02 e8bf b5c2 24f8 f4c7 ebbf
00000320: d135 fa16 993e dfbf fb09 f497 ec35 863f
00000330: 18b3 b1d8 0db2 0340 9f89 4e85 5c60 c9bf
00000340: df86 dd0a 5fb7 cabf 0045 88e5 27a7 f43f
00000350: 1d2e 5f52 478a 02c0 921b c342 ab1f 0240
00000360: a3b1 0184 3099 e0bf e31f 5098 eb32 e83f
00000370: 9239 2767 2dc9 f13f a191 9f7e 4e91 dcbf
00000380: 8078 50a6 3ec1 993f 2379 04a5 5ed0 01c0
00000390: 4ddd c923 61f8 dbbf 8e90 0b36 6231 ec3f
000003a0: 53b5 4eab a4b6 b63f 0308 c922 fe9d 0240
000003b0: d8ce 6d49 f608 fcbf 5194 b9da 6a98 f0bf
000003c0: 8abc cf74 7fe9 f53f c679 ad7a ce4d fe3f
000003d0: b1ec 67f3 3c9c ecbf 0c3b 31fe c0ed dc3f
000003e0: 032d afc7 8853 f83f a8a2 e6a2 037c e63f
000003f0: 6ffc b18f 93d5 f13f d7a1 77c6 1864 02c0
00000400: f8e1 8ce0 a280 e73f 4631 753c c2f7 f5bf
00000410: 7c1a 11f1 a41f f0bf baeb ff1a f08f e13f
00000420: 7004 34e3 ac91 f63f 9070 af26 6b0f 00c0
00000430: ffb9 31e8 29b9 ecbf c83b 2984 93d6 f1bf
00000440: 415b 7415 c4df b9bf e790 0856 f3d5 f4bf
00000450: 3eea d38c 7a77 fe3f 8c11 db78 8d6e ddbf
00000460: f8bf 3c0f 3cb0 f83f 8efb 8825 baa2 d5bf
00000470: 6723 86a5 50df e13f 7bfa 5f31 1283 e7bf
00000480: a4f9 9ddf 1ea1 f0bf 55a0 8e0a c620 f23f
00000490: d50e 1a86 903c f5bf a508 0028 44cc f6bf
000004a0: d006 44d5 595a afbf de50 310b 109b e0bf
000004b0: 8cb2 918d be57 f43f 202f 3b1e 795a f13f
000004c0: bcf1 0503 bfb8 e6bf b89e b49f ba89 03c0
000004d0: 559b b33f d84c f3bf d020 41ee 9c78 c53f
000004e0: 2caa 0d5e 1b34 f2bf 883b 08bc 3936 e0bf
000004f0: e458 f5ad e062 f3bf e06e ad7a 40b2 d33f
00000500: 5486 f1a2 deab ec3f 9795 289c 58ce cabf
00000510: ac25 5204 35e4 d8bf 9e51 d3c7 b8a8 e1bf
00000520: a3e8 0ba3 5914 e8bf d898 70c9 453f eabf
00000530: 34d7 5df9 7716 eabf 6853 a367 28c4 d83f
00000540: e625 e651 3f9c e4bf b494 7a1f b4b9 e13f
00000550: 019f e710 b6d3 c33f ce5e 7502 431f fabf
00000560: 6f1c 01a5 73ab fabf eada 1250 aeb8 f1bf
00000570: dc42 90cf f7da e7bf d1e0 a682 8117 e23f
00000580: 2214 bc2d b967 f83f 85e9 f6c0 bd2f f6bf
00000590: b9c4 01cc ef8a 803f 68ca a7dd c5e3 f3bf
000005a0: 56c5 ddc4 2187 f43f 2dcd f43d 7aa7 c5bf
000005b0: f42e e64f b733 f1bf 669a 8361 b1f4 ecbf
000005c0: dfbd 8279 4fd7 f63f 98f9 94f9 328a e5bf
000005d0: 05eb a9cd d19d dbbf 00fb 68fe 3853 dbbf
000005e0: 7b40 0994 0742 e1bf eced c25b 4254 d53f
000005f0: 7760 a1f9 2097 d8bf 8e85 7f61 7675 ce3f
00000600: 1777 2199 4447 f03f 3b42 77f8 54f5 c03f
00000610: aa5e fe87 813b e6bf a917 8d18 8d0e b9bf
00000620: 3af2 54a8 3e6b f0bf b9e5 f06f ec54 cf3f
00000630: 98e2 b4b2 2518 f33f f527 30db bcac ef3f
00000640: 8c3a 3bf7 dfdb c13f 8628 8150 a8ea f8bf
00000650: d00a 79e8 de8b c1bf 9605 df0e 3251 e1bf
00000660: 70a3 8db1 4c7b f53f 6ec3 0c09 f3a1 eabf
00000670: 33a7 1d4d 621c f23f 891e 6d79 cef3 e13f
00000680: 7bf4 ca89 807a f73f 3cf5 7ab7 1aa5 d83f
00000690: 3a59 1897 2dae d3bf e107 f81e c25e dd3f
000006a0: 9f4e 64d8 ba4c c63f df12 0cf3 3729 fcbf
000006b0: 731e e627 248f ff3f 2239 9378 6073 f4bf
000006c0: e69a 0ae2 b79e e9bf 7dfd 7c2a 0b43 da3f
000006d0: 0e00 a235 f702 e0bf 4850 c5ef 1dd1 e8bf
000006e0: 51ce 9092 29b0 03c0 81ce 1cb9 9e59 e63f
000006f0: cfe6 02d0 cc32 f23f 3cda 1f0a 493c d93f
00000700: 39b5 a6b8 ab16 e3bf 5a35 c526 abf1 f13f
00000710: d4e4 3a4f ee9e f63f 36ca a0e3 09f6 f23f
00000720: cc42 151e d916 dcbf eb4d af2a 34b3 e33f
00000730: dbcb 3e20 018c e7bf 764c 99a7 a8d2 f53f
00000740: 5be6 d122 276e ebbf e0f8 1c92 c1c1 d7bf
00000750: 37c7 7068 bd72 f2bf a67c 45bf 7be1 f03f
00000760: 2008 e8fd f3c5 ecbf 0e15 459a fd7d e23f
00000770: 9884 632d 1c57 d1bf 72ea 4d6e 1882 f73f
00000780: 0c60 6f8a 54a0 eebf abb6 a022 af15 f33f
00000790: 18d6 4d5f 76d7 e7bf f2eb 9fd0 955d e53f
000007a0: 7b75 5c3d 4fc8 dfbf c168 c485 6908 e83f
000007b0: 748f e709 899c d63f 411c f3d2 0de2 f2bf
000007c0: 1903 0dbd b5c9 c33f cc95 55e8 fe71 0140
000007d0: 1606 2029 8749 ec3f b1c4 8f81 6844 c9bf
000007e0: b184 8526 1bf4 d2bf 5208 9afe 5fd7 f23f
000007f0: 94f8 8895 609c f43f 1fd4 7dfa d97d e83f
-0.4823497740327843 0.41064959444605154 -0.3745543305905989 1.1088337305204679 -0.358147108244419 -0.8682167793318291 -0.3584220522726998 -0.6104728164895549
0.6042863856463062 -0.6596167546966321 -1.0205055608251923 0.3597900393472622 -1.0526873044135123 -0.35975060244959356 1.1569833750325995 0.7024646954938455
1.1609963862651 0.6813044120659003 -1.5085863770178436 -0.22628930730006308 0.8778619855900388 -1.1926870235715454 1.1740168665360582 -0.3048096167861613
0.010584572931387565 -0.5275512743496144 -0.11029272979082254 1.533652758817181 -0.6810881080241835 0.2790754901860934 -0.42584128853224734 0.9547731851903931
-1.6524915041414456 -0.6064073409528884 1.214023442249368 1.609960065280124 -0.16077462003174342 -0.10277532991900186 -0.48219702255957625 0.36232201205360093
-0.37636573252382455 0.5472210142500058 -0.17104345060848747 2.3172731611503345 -0.6043002756402923 0.5880523883278781 -1.1810181523885714 -0.6143065602281089
1.063147956631141 0.17937098212802077 -0.4478478956711743 1.1724960318034352 -0.329256620862122 0.9538314147279677 1.0049942781027508 -0.17496404376795577
-0.363699195275026 -0.799366348593367 -0.6027296378243115 -0.5704563091307506 -0.06085113252786318 -1.8924792265498893 1.1536195771757183 -0.6399187519080021
2.226557919334773 -0.15512733454194969 -2.1287856229542546 0.359695080475684 -1.7410757504027456 -0.7053386736960295 -0.48861216322404993 -0.654902509512056
-1.4077354422621908 0.5019103068601161 1.2392722631360389 0.516662808243548 -0.5005131813407856 0.603425959494726 -1.10375299331535 -1.6263285494504698
1.4508600095922195 -1.0227492519743258 -0.9896077930747175 0.8480617653934809 1.099979725815728 -2.007369858985547 1.0236328699054449 0.22912416127322743
-1.2267908049187408 -1.188033223167047 -0.4089303146376069 0.7199053998905197 -1.7157918017576437 0.14148055480472158 -2.016181246281177 1.6137932536054989
1.4318346911001698 -1.1095922168157062 -0.7503184062790027 -0.868158802657567 -0.48819567912945866 0.010845039736982356 2.461940472529374 -0.19825321683044891
-0.20872104673895017 1.2908095327478009 -2.317518847970645 2.2654633727829117 -0.5186998918775781 0.7562158560622233 1.1116155652449362 -0.44636881223257246
0.025151232625028275 -2.22674302024747 -0.4370348786828416 0.881028276020986 0.08872441465674301 2.3271448819732554 -1.7521880024259442 -1.0372112792913593
1.3695063174198219 1.8939957420439995 -0.8940720323584143 0.4520113451334715 1.5203941154639444 0.702638452688082 1.1146426785560626 -2.2988753800639006
0.7344526658771988 -1.3729879724151757 -1.0077256600067406 0.5488205458963116 1.4105652690052715 -2.007528593281741 -0.8976029906314692 -1.1148867762128578
-0.10107064746658258 -1.3022340164835045 1.9041696072660126 -0.459872596762829 1.543026027222366 -0.3380570761254881 0.5585101349725904 -0.734749885974295
-1.0393360838930699 1.1330013668430372 -1.3272862661696554 -1.424869686365619 -0.061236197741903475 -0.5189285486799482 1.2714219598812262 1.0845881634622359
-0.7100520190284025 -2.4422504879947518 -1.206260918459255 0.16774331697002376 -1.137721412082679 -0.5066193268302053 -1.2116400523423687 0.30775463085386257
0.8959801847924589 -0.20942218422821376 -0.3889286558338323 -0.5518459227410408 -0.7524841484548869 -0.8202237066623423 -0.8152427549782488 0.38697252388856507
-0.6440731620397713 0.5539188971348694 0.15489841294697018 -1.632632264712743 -1.6668583341104541 -1.1075881126286569 -0.7454794935202602 0.5653693725389762
1.525323084498503 -1.3866555726695833 0.008077500737473252 -1.2431086214461633 1.2829911890115304 -0.16917350793083 -1.0751259919224454 -0.9048697380611201
1.427566027308664 -0.6731200098654879 -0.43150754055356827 -0.42695450634703036 -0.5393102542239058 0.33326777421072395 -0.38422417047468777 0.23795966873789748
1.017399404684914 0.13248693592187685 -0.6947639137387871 -0.09787828301804659 -1.0261828017675172 0.2447791620814266 1.1933953266836053 0.9898361474054115
0.13952254840701916 -1.5572894234378807 -0.13708101607524847 -0.5411615648701396 1.34260243756054 -0.8322692085986156 1.1319296848618705 0.5610115405661001
1.4674077398806549 0.3850771705436562 -0.3075059867418478 0.45890858673385365 0.17421660963065208 -1.7600631231336406 1.9724465902853836 -1.27816817378659
-0.800624791609917 0.4103420176433799 -0.5003620193019758 -0.7755269701979239 -2.4610167932931195 0.6984399428824447 1.1374023557131527 0.3943045233603788
-0.5965174299687198 1.1215011133638968 1.4138014883922567 1.1850680247995462 -0.4388945382861891 0.61562546097633 -0.7358403806487063 1.3639303728894254
-0.8571963958813272 -0.37120093602051263 -1.1530126647671304 1.0550496551075326 -0.8991641959294192 0.5778797162135179 -0.2709417765855249 1.4692615803493507
-0.9570715621766808 1.1927939751289311 -0.7450515614897908 0.6676739763928465 -0.4966009234647896 0.7510268795624812 0.3533041569446518 -1.1801889648647974
0.15459319811818586 2.1806619788282884 0.8839755824303122 -0.1974001534104324 -0.2961490513026304 1.1775817819002623 1.28817804729582 0.7653627293026409

rbf_layers.0.log_sigmas f8 [128]
00000000: 7ee0 e7e7 ed2a d2bf a958 79d0 1085 d6bf
00000010: e140 a492 070e d7bf d21b 2de2 0aa4 d5bf
00000020: b508 4444 1035 e6bf f8d3 0f5d 0019 90bf
00000030: 25ca f2a5 2ff8 b9bf 7990 2400 d37b d7bf
00000040: 021a df68 660c d8bf 40a3 200e 024a ab3f
00000050: d774 4de3 de33 e1bf 0c0f b812 d8c1 cbbf
00000060: 861e a012 c4c2 e0bf 658c aa5a 6eed d1bf
00000070: 6b76 6596 265c bfbf 155b 5d09 cba3 cdbf
00000080: 1bfd 254c bf4b b23f 6adb 3380 6f77 cebf
00000090: 7f3a d801 af3b d8bf d15f d9fc 32d3 d2bf
000000a0: 66e4 20db 7bf5 d8bf f39a 553f a727 a1bf
000000b0: af12 faa0 159b c1bf 03b4 8837 a276 a8bf
000000c0: 2714 a5ae be19 c7bf df0c 53d7 2102 bdbf
000000d0: b51c e356 ecf8 d1bf 39ef 61a9 7474 d4bf
000000e0: 8d4e 08c8 e700 debf 2925 fcc8 281a ccbf
000000f0: af55 332c 5014 d3bf b17e 003b 5e81 dbbf
00000100: bd23 fe1c a66c b43f 6635 6c84 5ff9 d43f
00000110: 3043 4ba5 7f5c b83f cfc1 b2b8 d459 d4bf
00000120: d5f3 5410 2ac1 c53f 4876 4d49 f588 cdbf
00000130: 3178 0e1a 0494 cdbf c925 1d05 a789 97bf
00000140: e681 2e53 825e d5bf e1a9 fcf4 bef4 b13f
00000150: b720 e14a d5cc cabf c5b3 661c 02f6 a6bf
00000160: ab86 2d94 2c7d adbf aa11 c3f2 7c2c d2bf
00000170: 2931 344b 085e c53f cff6 8c7f 3b44 d33f
00000180: 13ba 7a55 5389 d7bf 038f 93b9 4941 d0bf
00000190: 71bf dc14 c578 cebf d00b 5011 5787 c73f
000001a0: 7513 c09a c10f d2bf 601d 5c57 e9f2 d23f
000001b0: ff0d 84fc c47b c9bf f5d2 9499 1062 d8bf
000001c0: 61dd ad89 9b97 ccbf d1fe f855 e921 cebf
000001d0: d886 e77e 6242 c4bf 0f27 bfce d6af b83f
000001e0: 78fe 7cfa 8370 bebf e6ce a76b 67e2 aabf
000001f0: 9114 f665 cb98 b5bf 583d a2b1 c136 c4bf
00000200: fc61 42b6 1b65 ddbf 95e6 705d fdf2 a83f
00000210: 9d8c d035 4fe7 bfbf 9556 6d08 c633 b8bf
00000220: acf2 3b11 bcad e0bf 6843 3923 da4a babf
00000230: 6472 0546 90f1 bebf 479f ef4a 3e43 eabf
00000240: 77c7 5110 2c8d c53f 847f 7945 2b0f 81bf
00000250: f846 f20e 7b05 d8bf 5b53 13f8 c1d6 c8bf
00000260: 6363 04bb 7f5f b33f 5061 311f 2aff 90bf
00000270: 11c4 ea74 c810 b6bf c6ad d5e0 04c1 ab3f
00000280: f1ff 4b6b 1628 c3bf 6d82 b1e0 6a97 d4bf
00000290: 12bb 1132 f8d6 cabf 0420 5a0e b264 b3bf
000002a0: d9d9 63ca cdad c1bf 9feb b34c be83 d6bf
000002b0: 728f 14ab 1bb2 b13f dbaa dbed 5c70 b2bf
000002c0: d238 a11a 0d43 d0bf cd93 8d24 1918 d9bf
000002d0: 3999 ff58 15bb c0bf aebc fb47 2177 b6bf
000002e0: 6ea3 7ecb 7896 cabf 2614 8a45 8d91 d4bf
000002f0: e85f 1844 ee82 cfbf 75ab c407 89a2 d2bf
00000300: cf78 1d65 3ab2 c6bf f8c2 f4af d816 c0bf
00000310: 4974 8fbf 643a a2bf ae90 a5a2 be50 d0bf
00000320: 82df 79a4 fc14 d9bf 59dc 6253 44ea d7bf
00000330: 7237 c40c f00f d4bf 1cc0 187e 71bb d4bf
00000340: f3a0 7dec 05ef bebf d38e 6952 a0ed dcbf
00000350: 95b3 08bd 8ce7 d2bf af25 a32a 21fc a5bf
00000360: fb30 8a92 afb0 b7bf 564b c91f 0d0b d2bf
00000370: 4e67 5067 099d dd3f 7e08 c771 dbcb c7bf
00000380: 5598 6871 b14f a3bf 160a 0269 7cbc b5bf
00000390: a26f 984e 7ccd d3bf 207a 1527 a2dc b33f
000003a0: eb6c f67e 0b30 bcbf de9b 4d5f e674 c33f
000003b0: 0ef1 99ca 8720 7cbf ca61 ce49 eef9 c2bf
000003c0: fbcd c200 5cd4 bf3f b4de 8db6 0981 b4bf
000003d0: 977d 2ffa de68 c8bf f24b 1075 ba15 e2bf
000003e0: c93d b194 203b d2bf c4cb f2c6 9b2f debf
000003f0: 274d 99e5 d4e7 cdbf c2c9 b22b 6390 cebf
-0.28387019774482514 -0.3518716846350665 -0.3602312976882001 -0.3381373604537973 -0.693977483111914 -0.01572037284855196 -0.10144326974367653 -0.36693263067196075
-0.375756838239255 0.053299011444613686 -0.5375818671706395 -0.2168531505013721 -0.5237751354006412 -0.2801166425144344 -0.12249985858712768 -0.23156106908091859
0.07146831139651903 -0.2380198837269874 -0.37864279918805005 -0.2941405743817969 -0.3899831428457844 -0.03350565574765154 -0.13754530296514164 -0.04778010299592241
-0.18047317054348008 -0.11331378466552476 -0.2808180664546385 -0.3196078924299744 -0.4688052609865075 -0.21954831899373886 -0.29811481777627596 -0.42977100145251784
0.07978285034017936 0.32772052699950505 0.09516141686914348 -0.3179828456586877 0.16995740697339437 -0.23074213103511654 -0.23107959053317154 -0.0229860398169757
-0.3338933765717499 0.07014077645423057 -0.20937601238461465 -0.04484564396566485 -0.05759562786876179 -0.28396533686852854 0.1669321410375997 0.30103957611195836
-0.36775668475721196 -0.2539848625440159 -0.2380606033198052 0.1838177523169109 -0.2822116862519615 0.29607614070160615 -0.1990896447169774 -0.3809854030435383
-0.2233766958486099 -0.2354098958767197 -0.15827590176109285 0.09643309161688428 -0.11890435090480789 -0.0525085753360182 -0.08436270942009318 -0.1579210393287933
-0.45929615782509337 0.048728864342092816 -0.12462325157007333 -0.0945400019239407 -0.5212078415493884 -0.10270465240433924 -0.12087346753600908 -0.8207084144205304
0.16837073132370126 -0.008329713876434892 -0.37533451518639493 -0.19405388463078563 0.07567594829414541 -0.016598375467169746 -0.08619358877582807 0.05420699352802276
-0.14966087569337064 -0.3217417902251672 -0.209685348937875 -0.0757552418746173 -0.1381165731651908 -0.35179097643384155 0.06912396361127351 -0.07202702338296822
-0.2540924797111873 -0.3920958382571456 -0.13070933194757986 -0.08775527961164428 -0.20771703659309132 -0.32138377943948837 -0.24618318867646782 -0.29117036589257533
-0.17731409013044305 -0.125697217861237 -0.035601757415613174 -0.2549282635066089 -0.3919059377872075 -0.37367351668530585 -0.31347275969243704 -0.3239406329548744
-0.12083470367145192 -0.4520035557563748 -0.29538267574644667 -0.04293922086214807 -0.09253976180679395 -0.28192451576358246 0.46270976151719345 -0.18590872817555132
-0.03771738538152706 -0.08490731776877455 -0.3094168441327786 0.07758534864613198 -0.11010810708687628 0.15200500157808866 -0.0068669609405527365 -0.1482522831327187
0.1243340970857431 -0.08009396273507258 -0.19070040908898697 -0.5651523863219821 -0.28485884209382256 -0.47165579250866707 -0.23363743983154814 -0.23878135331831457

linear_layers.0.layer.weight f8 [100, 134]
00000000: e4b2 b1c1 aab9 8e3f f614 bd2f b041 79bf
00000010: 7e70 abaa 67d6 523f 4bc5 7e5a ae85 bf3f
00000020: 2668 363e 42b7 98bf 4b61 e66a 54c0 b8bf
00000030: 0c8a 5d18 9bb4 bbbf fda5 8183 0aa7 873f
00000040: e13a f1d8 2180 b7bf 8f87 474a 8db4 c8bf
00000050: 7255 c890 af67 cc3f ec26 60eb 3c59 a5bf
00000060: 366f e280 8d13 be3f 7475 a54d 3f74 5e3f
00000070: 1a7e 5980 013c a83f 3a57 3b0c 89f1 9abf
00000080: 8af9 400b 6e9e cfbf 7d62 8757 c917 aebf
00000090: 7d84 fd6c 0551 9b3f 1252 74b9 c516 7e3f
000000a0: bc49 83d7 d750 b93f 4632 c2ac a9b6 b1bf
000000b0: 9e23 8271 6fa5 ba3f 6d61 95ed 07fc 9fbf
000000c0: 8572 32cf 8a9e 973f 6ffe 4cb5 d972 a43f
000000d0: ade0 f25d ec73 c03f 321d e42d 6a22 babf
000000e0: 84ee fbd9 2f5a ab3f 0a71 dbbb 5f09 a83f
000000f0: 6730 a3c9 1172 cb3f 15b8 5374 301e aabf
00000100: b5a7 7fec da16 d03f d107 e5bd 2952 cfbf
00000110: 0878 4298 ff56 c9bf f5e4 a11d 0bab bd3f
00000120: ea6b b018 2b44 c2bf b5f3 f5b6 cdc1 723f
00000130: 1285 bad2 060d af3f 0e57 20e9 59cb bc3f
00000140: 381a b089 4c17 a03f c5e6 d1ed ff8d 95bf
00000150: 45c4 1d68 c28e bc3f 7a1c e03a d259 93bf
00000160: 6362 2440 ca5f a9bf 61e5 3d3f efdb c03f
00000170: 779e b427 b507 cebf 33d9 28f3 1463 d2bf
00000180: 5582 f4bc b168 c53f b262 13f9 5268 b33f
00000190: b438 91f3 cdf2 753f 517b d485 2436 cd3f
000001a0: 73c2 e122 b8e9 be3f 16ac a603 c887 c5bf
000001b0: 9da8 50c4 91d3 613f 7a2d 9c1a 9806 b0bf
000001c0: 85c0 77bf 98c6 d23f 4ea3 c4aa f131 b83f
000001d0: a36a 36ee 2fb3 a5bf b17e 2ed6 b2a6 c2bf
000001e0: ba18 bf57 8c74 c6bf d197 8d84 53ff 99bf
000001f0: 6af8 691c 56b5 c73f f577 a0ae 33da c53f
00000200: 0071 8923 710f b83f efd1 6156 cb64 a4bf
00000210: aa10 a7b1 9f32 cd3f 373e e0a0 3de1 a7bf
00000220: 7d1c e472 06aa c53f 3b5d 4822 2b8d ab3f
00000230: b753 78a4 54cc b93f c61d d4c9 cff2 a93f
00000240: 54e4 2732 0f99 bfbf 6016 405a 9795 8d3f
00000250: c670 5697 02a8 a43f 5cd6 4c86 e112 953f
00000260: 89af 0eea 6fa4 ca3f 4ac2 217b bc46 c3bf
00000270: bdc4 6bbf 5fcb bdbf a84d b872 a306 babf
00000280: 8c93 fcba d3e8 6cbf b698 673e 1e4c a03f
00000290: cfe2 9afd 2eb9 afbf 9594 7f54 13dc 553f
000002a0: 9a7d 467e eb94 a0bf cd9c d7c3 8dd2 c33f
000002b0: 8e59 bc74 6d9c bebf f938 f5b5 3396 b1bf
000002c0: acd6 9dd2 440a b43f 7f0d 0d01 67a5 b33f
000002d0: e777 984a 88a6 87bf 0996 890a dc9e b7bf
000002e0: a979 e5eb 0963 abbf 0d78 4ed5 db44 bb3f
000002f0: 9ace bab7 da05 77bf 6b1f 7578 26b7 813f
00000300: 7efa 861a e18e 5abf 0630 1653 a4e0 b23f
00000310: b746 8462 96e0 b9bf d214 796d 629d b7bf
00000320: 55df 1002 d145 d03f 0a32 f9fc b37d b13f
00000330: df3b e0b5 f821 ac3f a828 f7b9 0658 b5bf
00000340: 7736 50ac 8d57 b23f df38 5481 8255 bd3f
00000350: cd8f a70c f356 c93f 2583 df0f b0ed ca3f
00000360: 31b9 3056 c8b8 b13f 2b58 9971 71cc bd3f
00000370: 7de7 a239 2f88 d4bf 6312 79a4 dcd7 a0bf
00000380: 3a3a aaa6 180c 92bf 224c 82f8 35ea 9f3f
00000390: d9c0 09d1 258b c03f bc4b 750e 5835 b1bf
000003a0: 285d 82c4 0505 a6bf 0ac9 2b7c de29 a2bf
000003b0: fb36 f938 2829 bdbf 8e3f 7297 84e4 b8bf
000003c0: d7d3 6d2a de41 b9bf 5932 7c69 c921 abbf
000003d0: 0764 829e 9351 9ebf 86b2 a377 9f03 c03f
000003e0: c028 850a be4f c3bf 87f5 737e 74e9 b2bf
000003f0: 3767 2a85 cdb0 a9bf 543f 4fee bcbf 76bf
00000400: 531a 2a3c 3845 a8bf 258d 6b50 3110 b33f
00000410: 844d 6575 1d1d 81bf 58b0 84ca 942f 963f
00000420: efc6 c95c 96bd 983f 66cb f641 917c 74bf
00000430: 7165 b8b9 168d 773f e264 f4f2 c152 c5bf
00000440: 0b9b 1dfb 7ec8 b33f 3e39 630c 461e ae3f
00000450: 72f4 d6f7 95c4 b1bf 387f 482f 50d4 c63f
00000460: 43a5 fc26 1855 c23f 8d46 ba3a 068a 993f
00000470: 3b13 c018 3bf6 b73f 2f87 a3cc b7d9 d83f
00000480: 7837 c1fd 43e2 923f 6e5e 28f9 fce3 b23f
00000490: d8a5 ab2c 2f1e bebf 84e6 f1a3 966a bebf
000004a0: e069 fa2a 43e5 ba3f 591b aae5 ee0d b7bf
000004b0: 9261 5d6f 8da8 d33f 9e15 f21c efbf cf3f
000004c0: de94 4bc5 0569 bbbf 3d0c 72bb 8607 af3f
000004d0: ff4a 6bb9 7ab8 a7bf f64d d799 c2bd 953f
000004e0: 6980 bc4f d148 b1bf 8c26 c88e 0c31 bf3f
000004f0: a815 18d5 c65f babf 6ec1 e430 7472 a93f
00000500: 0817 32fe 3f15 bbbf 365d b25f d77d ab3f
00000510: 47eb 3ff9 4c5f 9dbf 6f07 4be7 70ff b63f
00000520: 556b 6b60 c6a5 c13f fae7 fa2f d418 a73f
00000530: b074 89d5 b868 babf 5750 7a4b 3b44 da3f
00000540: f99b 80e9 60dc d53f e479 c22f fc82 923f
00000550: 55cd ecaa 0af2 d33f a244 38eb e835 a9bf
00000560: 4754 6ab5 625f 353f d85b 3fe3 33f3 a03f
00000570: da55 ddcd 429b 93bf e8f2 7c52 edaa c13f
00000580: 6fc4 b05d ada1 93bf 1fda 4848 35fb a23f
00000590: 31b6 5ff9 000b cb3f 5f48 536d 2653 adbf
000005a0: f7ff 0dcc 5be4 d03f e6c6 d080 711a c73f
000005b0: 38e7 34d8 3cfb a83f c332 fefb d977 c63f
000005c0: fbd2 01ad 24f4 583f 8ce4 ec3d a5db c8bf
000005d0: 3067 6381 e565 b9bf 2a0c c67a 4150 cd3f
000005e0: 186c e075 be9f b8bf 5100 ec9f cba6 b23f
000005f0: dd8d 3e0b 59f5 bf3f 9177 7c7a f504 c0bf
00000600: b0ed 8489 112d aebf 1e15 757d 2999 db3f
00000610: 9c11 4cdf 9301 cb3f bf4c ac30 dcdc c93f
00000620: c759 c114 e8a8 c2bf b518 dea2 4431 adbf
00000630: 60d9 cf03 3f0d b83f f8db 9326 a856 bc3f
00000640: 7f5a c758 2deb c03f 824e b4ec 3682 bb3f
00000650: 4247 4dd0 f9a8 c33f 1704 d887 9b19 9bbf
00000660: 99cc 152a 8252 b7bf 6b04 6ad9 2cb7 94bf
00000670: fdab 90bf 299b b73f 7c33 6910 0974 cc3f
00000680: e728 006d 9c5c c1bf d29e 41ba 8d11 77bf
00000690: 9087 7c06 a435 bdbf 3945 cc08 164f cb3f
000006a0: c169 9805 91a0 cd3f 4367 b809 b50e d13f
000006b0: 456d defa 9d81 9dbf 817a a560 da84 92bf
000006c0: 93e6 208d ab48 763f 0ac9 ebb3 7427 bf3f
000006d0: 77cb 0c34 2dda b23f e230 9e2b 1d01 873f
000006e0: 5bd6 6bf5 db11 d73f 93dd 1958 e7b1 883f
000006f0: 9795 4515 ed3e b53f 5f5e c9fc 1785 97bf
00000700: c048 edc3 dd9f b03f aa8a ad0f 3400 c93f
00000710: a120 1150 61f7 b23f fdd6 955a e36f aabf
00000720: f429 fb53 465b f3be 606f 95e6 dc02 bdbf
00000730: 51ac 5ce3 f714 aabf 5748 ba8b 199b 90bf
00000740: 0635 8b03 265a ce3f 8469 d679 dfe6 a83f
00000750: b439 5bbc 32cb 6c3f 3d86 03f8 a9cd c0bf
00000760: 8f05 d1ec 403e 933f 9b3c 2683 273b b53f
00000770: 903c 182b 0337 b6bf 2ab5 3d06 a6b0 343f
00000780: a94f c4e1 d4b3 963f ec3a e1df 1cc6 853f
00000790: aa74 d05e d4af c13f 2484 4ed2 fe5b adbf
000007a0: 4176 f225 5579 d73f 22d5 b50b 6939 9ebf
000007b0: 774c 2919 f6a7 acbf fd2e 9462 4b7c c43f
000007c0: 4ad8 6aef af45 85bf c417 1108 055d b03f
000007d0: d0aa 2e23 93dd c13f 41fc 4a57 bceb b53f
000007e0: 9940 6bec 282a 923f 4f26 29e2 d613 b4bf
000007f0: c820 50bd 520f 85bf f0d8 7e0f 6786 a73f
0.015002569233013081 -0.006166160801347012 0.0011497509355456177 0.1231335612235586 -0.024136576697493826 -0.0966847191797388 -0.10822457642419908 0.011549074304826762
-0.09179889246409402 -0.19301000716137337 0.22191423959217677 -0.041696456653950026 0.11748585125536412 0.0018587701984736612 0.0473328084160551 -0.026312009212083633
-0.24702239560606315 -0.05877522653071752 0.026676258828392186 0.007345936165866112 0.09888981830162086 -0.06919346301783333 0.10408684273910615 -0.031234859348246703
0.023065728088669708 0.039938739186706644 0.12853769862500056 -0.10208762760531867 0.05342244659365483 0.04694651764086373 0.2144186243589303 -0.05101157588966047
0.2513949689442783 -0.244694917413709 -0.1979674809890073 0.11589116548011076 -0.1427053328087305 0.004579356740006914 0.06064626047487755 0.11247789327202559
0.03142775707970141 -0.021049498453499255 0.111553335589421 -0.01889732822749266 -0.049558945016717336 0.13171187007882693 -0.23461021841761795 -0.2872974753003234
0.16725751615833198 0.07581060963583289 0.005358509538451784 0.228214803072627 0.12075377322777019 -0.168206216604944 0.002176079464807647 -0.06260061883602033
0.29337137887979053 0.09451208514350393 -0.04238271506183835 -0.14571223695837923 -0.17543176922317177 -0.025388054814719233 0.1852214468708014 0.17072149302197173
0.09398562543487188 -0.03983149938077079 0.22810741590922606 -0.046640325439622314 0.16925125703730606 0.05381140511979728 0.10077408805257347 0.05068063105323577
-0.12342925047404779 0.014445478860589833 0.04034431550391697 0.020579837629347217 0.20814322403509447 -0.15059619915293104 -0.11638449118960899 -0.10166379500178968
-0.0035289893493363807 0.03183073531890683 -0.06195971341862149 0.0013342083711845077 -0.032386168636772086 0.15486309111222454 -0.11957439517968835 -0.06869815056163366
0.07828169004445823 0.07674258971842639 -0.011548104073025157 -0.09226775414716583 -0.053489980741449124 0.10651945073775 -0.005620817533486333 0.008650112677642338
-0.001620979144817319 0.07374026325686608 -0.10108318238442392 -0.09224524662666347 0.2542612571883088 0.06832432676419145 0.05494668216862641 -0.08337442436382736
0.07164845902317461 0.11458602578588593 0.19796598546883928 0.21037865424207172 0.06922580818420411 0.11640080474293828 -0.32081204060124674 -0.03289689548231391
-0.017624268696233104 0.031166880886825628 0.1292464514440386 -0.06722021439536169 -0.0430070688609539 -0.03547568574676248 -0.11390925780252907 -0.09723690698069573
-0.0986613133989772 -0.052992147566418075 -0.029608065175668965 0.12511056272287052 -0.15087104333571766 -0.07387474143248172 -0.050177023416110016 -0.005553949366870221
-0.04740310415677542 0.07446582997686287 -0.008356313843853831 0.02166588293145852 0.024160718358365803 -0.005001609242230786 0.005749787112585878 -0.16658806193371506
0.07727807646515943 0.05882471944061017 -0.06940591145299083 0.17835428532361575 0.14322187331826272 0.02494058354802191 0.0936009345460435 0.3882884500909424
0.018441259730301834 0.07379132349921644 -0.11764807549084055 -0.1188139105087434 0.1050607662131493 -0.0900563536361977 0.3071626269861777 0.24804486192094272
-0.10707126681116416 0.06060429609444682 -0.04632934106270702 0.021231690063201435 -0.06751735874832011 0.12184217916378709 -0.10302393629543494 0.049701338737920916
-0.1057929988474734 0.05369446795628578 -0.028683855736726185 0.08983522078326954 0.13787154872883414 0.04511130414671523 -0.1031604310350811 0.4104145276153352
0.3415758400246314 0.018077793517130916 0.31164805118460964 -0.04923942443213859 0.00032611999396553844 0.03310548924462581 -0.01914696103570699 0.13802877929437973
-0.01917143711415686 0.03707281596546274 0.21127330948313408 -0.05727500996148715 0.26393790175643467 0.18049448766537707 0.048791791336454116 0.17553257755607463
0.0015230520403097237 -0.19420304797839483 -0.09921106728452567 0.22901171202474419 -0.09618749978874097 0.07285759596197862 0.12483746075172726 -0.12515133362552125
-0.0589375954027348 0.4312232709092586 0.21098564532452435 0.20205261589635445 -0.1457796193451044 -0.05701651085023355 0.09395212023796295 0.11069727842173893
0.13217703661821997 0.10745566634096274 0.1535942332362144 -0.02646487251877624 -0.0911027291056591 -0.020230007905869856 0.09221135069735449 0.22229111958804626
-0.13563876459404087 -0.005631974814697309 -0.11409974249229848 0.2133510153731011 0.23146260045252912 0.2665226550030761 -0.028814762532062294 -0.018084919117763668
0.005440397379112521 0.12169579880336215 0.07364161034347015 0.011232593434919062 0.36046503989141393 0.012058074356203352 0.08299142617541687 -0.02296864967715206
0.06493936570521708 0.19531870618364638 0.07408722119100954 -0.05163488846566897 -1.845983683671812e-05 -0.11332493428693402 -0.05094122553267567 -0.016216658738422342
0.23712611363445307 0.048636420843837264 0.0035148611958455093 -0.13127636537596912 0.018792166189319167 0.08293387367142417 -0.08677692224613254 0.0003157048542935132
0.02217037799807967 0.010631776411313486 0.13817839269259952 -0.05734249417515283 0.36678055482648025 -0.029515878047694184 -0.05596894318718964 0.16004316628856677
-0.01038682412523086 0.06391936728422737 0.13957442491422123 0.08562829142737007 0.017738952092998337 -0.07842772504332028 -0.010283132936834596 0.045947285310306785

linear_layers.0.layer.bias f8 [100]
00000000: ea20 5640 7ac6 a2bf 41aa f742 8957 9cbf
00000010: 7322 1db5 e217 babf d633 20f3 aa93 ab3f
00000020: 08be 271b 7af3 b13f 18b4 5776 5795 9fbf
00000030: b330 702d 0a1b b33f dc47 8586 faf6 9b3f
00000040: b717 b058 636c c6bf ba36 2d24 8c76 a2bf
00000050: 28bb b942 96df a0bf ad38 2f9c edd6 a1bf
00000060: 7a89 f5c1 cd0c b53f a600 6041 a0aa a0bf
00000070: 7f85 9bb4 e4d6 af3f 69d6 a7e1 ef4e c73f
00000080: a2bc 28e8 2cb3 933f 33b3 0d34 4a62 aabf
00000090: 043d 6ef7 bcd5 bc3f 56c8 b05d 27f5 b1bf
000000a0: c071 24be aa15 afbf 5d6a a210 443a 83bf
000000b0: f6a1 a7e9 9c6c a9bf d4be 2bb3 41cc b1bf
000000c0: 310f 6c0a 0a87 ac3f b38f 9d58 f290 783f
000000d0: cb5b 958a 0e8b b1bf 972c 8582 2f5a af3f
000000e0: 0dcf 4f81 0cd5 98bf a2ae 1e43 11a3 843f
000000f0: 5d93 484f 473c 853f 0635 4fdb 9917 a7bf
00000100: e61d 8864 d565 b73f 5389 4711 e167 b0bf
00000110: b980 b4ed 5827 a53f 3bf2 5898 4ae6 b5bf
00000120: ca41 eba6 256a 82bf 2932 07a7 f637 a83f
00000130: 9b6e c1cf 2bec 97bf 55f1 2215 f188 a4bf
00000140: 28b8 1d54 8594 953f d277 fd61 d0ad a93f
00000150: 39fe 8000 0329 bfbf 98c4 a475 8fea 8ebf
00000160: 0791 362e 3d4b b2bf 46fe 60b7 2960 b9bf
00000170: 6b21 646a 8631 9fbf ada5 4cf0 3bb1 aa3f
00000180: ddcb 098e 795a b53f fbcb 800b 4248 983f
00000190: a31c 39ea baf9 843f bc11 533e 0248 7b3f
000001a0: 0ec2 9421 ce48 c6bf 3e44 8828 93e1 aabf
000001b0: 2ed8 6bce c585 b43f 05de 9a36 82fe 98bf
000001c0: 51f2 177f 6740 a63f b064 6823 3059 c63f
000001d0: 55c9 e21b 6bd7 89bf d236 fb9c 44b6 b03f
000001e0: 8daa b50d a188 ab3f 33a7 1711 954f a03f
000001f0: 1417 7f8f 38be ad3f 9064 82a9 aae0 c13f
00000200: ecca 94de 83a6 a8bf 97db 0508 446e 9c3f
00000210: f41d 13e3 463d b4bf e485 b904 55b1 aa3f
00000220: 1f64 8089 8694 acbf cd54 42e7 2855 afbf
00000230: b713 c6c5 3e21 ae3f aea0 f116 4374 893f
00000240: a40c 0e4f f39e cfbf fbe5 14fa f2b5 b0bf
00000250: 16d6 7b83 602d b33f 211f 3cad 5df4 a1bf
00000260: b3f5 0be2 2765 9bbf 79a3 89b8 b9ac 993f
00000270: 29a7 0d57 e3d4 a93f 2f98 09c8 03b0 b03f
00000280: 1ca8 f695 f413 9ebf 622d 53e6 17f8 b0bf
00000290: a757 8376 9620 9abf a8b7 65a9 7fec c03f
000002a0: bf1f b21a d7cb 8e3f df1d e807 56f7 a9bf
000002b0: 9109 c397 fe95 7d3f 639c a4c3 47e7 9dbf
000002c0: 3cb0 2de9 f6fa c4bf 5511 16aa 9639 babf
000002d0: 319d c982 9646 93bf 52cb 8c7e 904c a13f
000002e0: 93cc 9de9 d7d6 b33f d9d7 8342 e9f4 9d3f
000002f0: 5761 4d5c a718 c3bf 67e1 b0c8 e7a5 aa3f
00000300: 3717 d172 10a9 983f 1ed0 7a00 2c03 903f
00000310: 3c1e 1b8b 7c4a 8cbf c57f aa0d f484 93bf
-0.036670513490266135 -0.027677674019211066 -0.10192696496700097 0.053860990694466856 0.0701214138314229 -0.030843130682047443 0.07463134393055064 0.027309336147773297
-0.17518274145566945 -0.03606069509133421 -0.03295583309669886 -0.03484289676235739 0.0822266195805578 -0.03255177305254735 0.0621863813846728 0.182096467193037
0.019238187475079223 -0.05153114209574596 0.11263638535296044 -0.0701469997154914 -0.06071218081544627 -0.009388477094309506 -0.049656775972667974 -0.06952295898713184
0.055717767498235544 0.005997606911339592 -0.068528088411184 0.061234936411517164 -0.024250216858447127 0.010076651440463383 0.010368878466644632 -0.04510193636051878
0.09139760689151152 -0.0640850703416949 0.04131582166360332 -0.08554521769924232 -0.00899152198454169 0.0473019675151572 -0.023361858897586 -0.040107282476557295
0.0210743744459522 0.05015422054451303 -0.12171953928281533 -0.015095825936983595 -0.07146055582285636 -0.09912358023665843 -0.030462360614394706 0.05213343914358446
0.08341178624850394 0.023713142349333066 0.010241947434350534 0.006660469783302533 -0.17409683837605922 -0.052502249429501976 0.0801662091215298 -0.02440837343485038
0.043460115684841434 0.17459680298705882 -0.012617909229764615 0.06528118927527807 0.05377677242616583 0.03185716470382118 0.05809189559617614 0.13966878201316435
-0.0481454095082848 0.027764380445173122 -0.0790600113278897 0.05213418657946159 -0.05582065990910955 -0.06119659255015506 0.05884739078741268 0.012428783548060398
-0.2470382820139082 -0.065276323371016 0.07491114816715369 -0.03506748904879787 -0.026753066226765387 0.025072957886013356 0.05045233190214866 0.06518577226378917
-0.029372998860402885 -0.06628560422102717 -0.025514937385046867 0.1322173668990534 0.015037231924239223 -0.05071514936940579 0.007223124030306131 -0.0292025769387262
-0.16390882859866618 -0.10244123127455869 -0.01882395909561047 0.03378726525115518 0.07749700025105914 0.02925457447505395 -0.14918987280794724 0.0520470077976281
0.024082428939684788 0.015637099770813838 -0.013813946719337548 -0.019061864217860398

linear_layers.1.layer.weight f8 [100, 100]
00000000: b30a b224 3594 a43f 0860 4cf1 9648 7bbf
00000010: a17b c2c7 15c6 b1bf 1de1 b15c 85e4 a8bf
00000020: fa55 d199 95d8 9f3f f053 c9f7 84cd bc3f
00000030: 2315 0891 c7d7 9c3f 6c22 836b 97c5 8e3f
00000040: c626 bb7e 8714 b23f 939c 05aa ed5f a1bf
00000050: 56d9 3e29 cc38 a03f 421d 1aa7 e8af 973f
00000060: 4fc1 91f4 f221 943f 67a9 4390 263d 9b3f
00000070: a3f2 5329 5ae5 b0bf 9144 3ce0 e1bb b63f
00000080: 66f7 4542 e86a 993f 9a0e 98c0 8847 a7bf
00000090: 72a6 2ed8 0698 b5bf 6d15 3776 40d4 b2bf
000000a0: b422 49bd a4f2 bc3f f37f 8182 06ec a3bf
000000b0: 5f5e dd73 d394 a43f 561e 177e 8564 963f
000000c0: 29a7 e7ba 0e2f 993f a353 e888 a2fa 8dbf
000000d0: d70e bb58 4053 973f 7492 5734 ea9f aa3f
000000e0: 9df1 324f bdc6 a3bf aca4 e821 bd98 93bf
000000f0: 823d 56f6 8994 a93f 0e26 152d 3786 b03f
00000100: 74b6 baf4 3cb6 ab3f 2ef4 344b 768d 9d3f
00000110: 3202 9679 8cfb 7cbf 9826 5768 d9b4 a73f
00000120: 808e 41b3 ed11 b63f 6e03 0b1d 7e51 bcbf
00000130: 814b 57e1 9733 acbf 9d6c c68a b17f 8fbf
00000140: 8770 7309 7295 92bf fabc 9143 566a b3bf
00000150: 971c 6618 2005 913f 50e9 9a96 ff62 973f
00000160: fe10 00e6 21ad 96bf a938 c101 1b83 a93f
00000170: afa5 9790 4e6d 94bf 3422 bff2 6c05 a1bf
00000180: 0c87 f26b 0d3d a13f 52ef e3bc b90a 923f
00000190: b246 d46c 6c14 adbf 920f 26a4 699c afbf
000001a0: 38e0 929d 4074 b63f 8341 385e 3e38 91bf
000001b0: 9ae4 605a df48 a73f 8c51 f63c be20 9bbf
000001c0: 46f0 feb1 8e7b 5e3f c78e fc32 7939 b33f
000001d0: a9a8 83db 6fc5 94bf bd31 f091 7ede 74bf
000001e0: 00c5 e3e7 2b8f b43f 37ae 9f0a a94c 75bf
000001f0: e704 5dbe 7dea 943f e02d 755f 5c9d 87bf
00000200: 10f3 62d7 51d5 a6bf 1962 4dec 971b 9d3f
00000210: 89fa e5d9 d47f b23f c5cd a059 6b09 a9bf
00000220: 1b1d 34e7 5e02 76bf 264c d894 2adb b1bf
00000230: ecd0 5908 053a a4bf e795 71b5 4cc3 833f
00000240: 3e7d 3c99 93e9 be3f ea29 d35a ac41 a2bf
00000250: 4188 ba30 98c9 9dbf 9987 6e9a 690a 9e3f
00000260: 2457 7340 1548 a4bf 83e6 390b 5b5a 90bf
00000270: d366 5979 a54a 28bf 0226 7cc1 be4c a6bf
00000280: 115d bab3 53c4 943f 7cd0 1cb9 4d7f 9bbf
00000290: 8141 b950 4077 b53f 391d fc12 0641 9e3f
000002a0: 2da0 00ed 967b afbf 0e66 5f4f 33d5 963f
000002b0: 0858 3f16 f6d2 65bf 206c bb45 62f8 a63f
000002c0: 5082 cf14 9239 b2bf 83c5 7ece 879e adbf
000002d0: 80eb c677 ef35 6dbf ea1f 9b51 8297 833f
000002e0: 1440 b750 4005 a2bf e898 b19c e875 97bf
000002f0: ba69 3fda f83d 5dbf 7839 6ce0 824a a4bf
00000300: 65c2 478e cf89 9dbf 8092 ccb5 7193 94bf
00000310: a356 803d 1f50 96bf c7d6 8c2a 14ed 89bf
00000320: 5ddb a530 25d4 93bf 3794 824c 0740 893f
00000330: ad45 0d2f f4be a5bf 6637 880e 87ba 7f3f
00000340: f882 1eb0 5126 7abf 08b0 9e84 a02e b0bf
00000350: 3488 afba 431b b03f 4d9b b43d c32b a1bf
00000360: 587f 3ec0 7f5e b0bf be22 0163 208f c1bf
00000370: c56e 2dd8 f1f8 a3bf e1a5 f866 ea0a 3b3f
00000380: a408 de47 ab33 95bf ef7e 6248 f9f3 b3bf
00000390: d04c 9f2a 4f11 923f c4bf 1679 ce92 9dbf
000003a0: 0041 f274 971c 9c3f 240a df4c f04a ab3f
000003b0: c3e2 fb1e 9d11 8b3f c350 6491 784c b8bf
000003c0: 7468 62da 2752 a93f a9cb 85a5 d8ec b83f
000003d0: 9cdd e2bd 02dd a93f 5994 3948 8fba 9e3f
000003e0: 9e96 995f 365f 42bf 93b5 5bf7 0768 aa3f
000003f0: f6c9 646a da2c ac3f 9141 89c9 dc38 b1bf
00000400: 4440 0abb 1be8 a43f ff17 6046 8b89 913f
00000410: 1278 7956 7a17 b0bf a5c7 5043 76cd 95bf
00000420: 75d3 ab1d fdd5 9cbf cbf8 caf0 89b3 a9bf
00000430: bc97 d6e6 7f7d aa3f 4545 4da7 b58c a4bf
00000440: 17d4 514f 3da1 9d3f 4696 7c17 17df 7dbf
00000450: 3cda da35 af25 a23f 5e90 fadb ed25 a33f
00000460: 09eb ac10 ab01 adbf 5dc4 38d6 6da7 a83f
00000470: 1c09 bced f8d9 b4bf 48a9 41d9 5715 763f
00000480: d7c7 bd8e 7a94 9dbf 8d81 fbcb 46f7 a4bf
00000490: a47c dbcf 5256 9c3f 64b7 d230 f2e5 8b3f
000004a0: cf50 ab67 4563 8f3f 7e29 395c cd3f 79bf
000004b0: 9dc6 b262 feeb 8c3f d512 e4ff 7c89 af3f
000004c0: dc6e c06f b547 aebf 32e6 a082 1464 903f
000004d0: fb6e dfc9 ca08 7a3f 0d11 c47b b498 bc3f
000004e0: 8b9f 01f0 8d06 8bbf 3b67 aad2 2839 a8bf
000004f0: 777b f03b a911 aa3f 1108 33f7 21d2 5f3f
00000500: 62c0 f23c 858e 9a3f 069b 9385 aefb a3bf
00000510: 367f 21bc 5cca 6cbf b3a1 bd41 e34e a7bf
00000520: fe14 246b a5ec a13f ed20 7ea3 892a aabf
00000530: d299 a62f e3a3 b23f 3642 093c 0376 a53f
00000540: 3613 3f7b ff99 923f dcbb 68a3 f835 983f
00000550: 2259 8f10 9add b1bf 5f52 9713 2a9d a33f
00000560: daf5 c1a6 78bb 753f 95cd 6f3b 0020 80bf
00000570: 4fb5 1c13 fc00 a93f f0bf 61f2 397e b5bf
00000580: e5a3 171c 635d 8d3f 8f99 24ad a63a b13f
00000590: b547 9bf9 d91d a73f 33a2 83d7 3765 ad3f
000005a0: 8cb7 74e3 65a5 a1bf c24d c53c d933 b43f
000005b0: 6f51 943c fe15 aabf 2803 18f2 a318 a13f
000005c0: 64fc 5abc ebd2 a13f d893 283d db2b 9ebf
000005d0: a3f8 51fc 5cd1 603f eaa5 2bb9 1ffd 923f
000005e0: 55cc cf27 7c50 98bf baad c4c1 70b0 87bf
000005f0: 1af8 2bcb 9104 653f b7ef 6aec ae50 b1bf
00000600: 061b 8ed6 b512 7e3f 70c7 8556 1d64 b6bf
00000610: 43e4 efab bd6d b2bf 56d7 8252 7fc2 a53f
00000620: 782b d870 6ea6 a83f 73e5 d946 ca0c 713f
00000630: f8ca 0f52 6c9a 993f 186d 969c 6c36 9bbf
00000640: df7a d931 3b44 95bf 161d 4fba ba41 a1bf
00000650: ef21 a989 5554 ba3f 2133 236a a8bf 763f
00000660: ede8 66f5 e500 93bf 8836 28ac 40e4 74bf
00000670: 50b2 53f1 7664 b13f e10d 4e4c 1dd4 ba3f
00000680: c166 13a7 4064 b33f 54bb 7a07 708c a2bf
00000690: 183e a363 eae1 64bf 05fe b86a 1c3a c0bf
000006a0: 4742 b775 771b b6bf 596b 29dd 9e01 693f
000006b0: b9ef 333c 0b7b babf 247d eee4 0b85 d33f
000006c0: 7f88 b3e6 e361 a83f 2cc4 beef 9caf 943f
000006d0: b1e5 af66 a6d4 a1bf 4d76 2353 1ade acbf
000006e0: 44b2 96c2 e3ac b0bf 29a6 b44a c822 823f
000006f0: f5ca 877a c2f6 cabf 1365 33ba 26a5 783f
00000700: 166c 4d1e 4936 903f 98cc c890 1da8 903f
00000710: ede3 de38 3d00 b1bf 490a c167 a82d a3bf
00000720: e0da 48cc bb17 71bf f857 1e8d 2433 8e3f
00000730: c11c c980 c566 b83f a38e 36f5 b033 91bf
00000740: b8bc 61ad b57a 943f 5521 0b5a 33cd ad3f
00000750: 3727 cf1f 6baa 9abf 4e17 f110 1db7 b13f
00000760: d908 e376 8fd0 883f 18d8 7fcc 0be8 c5bf
00000770: 4aac aa9f a5a8 a13f 1ce6 0b4a f114 5d3f
00000780: 0861 2b34 0459 973f e3a3 aa15 a419 863f
00000790: aa45 e796 9083 babf 5573 7656 c170 993f
000007a0: 29d1 8b09 b4f7 853f 719d 1fb2 aec1 a1bf
000007b0: 49e4 a65d d201 663f fb82 33db 929e 92bf
000007c0: e79f 317f a0cc 823f 1cfc 84e0 9707 90bf
000007d0: 4856 1b20 e9b4 adbf 6964 6941 5099 a23f
000007e0: a0ed 8bc2 2b1c 72bf a770 335d f2c1 7c3f
000007f0: 48fb f735 2fd0 903f 4a92 1c60 ac8d 52bf
0.04019323418562717 -0.006661023730679012 -0.06942878844209456 -0.048618476453102334 0.031099641335762464 0.11251097726319848 0.028166883685135546 0.015025313347352319
0.07062575191516904 -0.03393500042403121 0.03168333056912569 0.023131976317498422 0.019660755326584674 0.02660045867461616 -0.06599963673574875 0.08880435680863942
0.02482188133716736 -0.0454676375484528 -0.08435099389921577 -0.0735512055026299 0.11307744618637622 -0.038910106116190855 0.040197952169077615 0.021867833920423095
0.024593572767037806 -0.014638204386793257 0.0227785162121695 0.05200130356732738 -0.03862563697609576 -0.019137339777590398 0.049961386986178816 0.0645479664864512
0.0541247414342764 0.028859947529088874 -0.007075833063368496 0.046301645266408176 0.0862110674511829 -0.11061847886140949 -0.055081125504918844 -0.015380274818019674
-0.01814821417507109 -0.07584132337227692 0.016621114243687698 0.022838586394507587 -0.022144822753049624 0.04982838055058043 -0.019948222708909998 -0.033244518882899504
0.033668918063325476 0.017619039682343747 -0.05679644421082965 -0.061740208900146545 0.08771137091650949 -0.016816114903180256 0.045477847845583244 -0.026492092581592838
0.0018605130680802314 0.07509572500981242 -0.020284412167634134 -0.0050949997085009665 0.08030962382669671 -0.005200062101703254 0.02042576288591116 -0.011530610716952105
-0.04459625009756085 0.028425573156115023 0.07226305312904392 -0.04889998883336547 -0.005373354640375606 -0.06975046285542472 -0.03950515486659065 0.009649848258230299
0.1207515954124476 -0.03565729721738704 -0.029089334463272335 0.029336595583692924 -0.03961244975805148 -0.015969679413024195 -0.0001853301043180296 -0.04355426895024196
0.020280177921987056 -0.026852812217115204 0.08385087939064385 0.029544920834294806 -0.06148978846641771 0.022297670096895365 -0.0026640707383007757 0.04486376858923102
-0.07119095810004095 -0.05785011668866515 -0.003565757475568032 0.009566324344078187 -0.0351963137178474 -0.02291072327025115 -0.0017847948265542327 -0.03963097562346979
-0.02884601884756179 -0.020093704911362753 -0.021790016297095104 -0.012659223125960918 -0.019363957494955886 0.012329155943300403 -0.04247248720515571 0.007746245923511674
-0.006384200185409077 -0.06321147191800958 0.06291602428203263 -0.033537007601174375 -0.06394194072208614 -0.13718037447167392 -0.039008672369815346 0.0004126379271577035
-0.020704914342339578 -0.07794149415212435 0.017644154526192335 -0.028880334988286696 0.027452818405948598 0.05330611170167668 0.013217189319662542 -0.09491685437780277
0.049454923065426565 0.09736398736076403 0.05051430290171341 0.030008543761500615 -0.000560666608362143 0.051574944443795755 0.05502970265151312 -0.06727390213314367
0.04083334596828128 0.01712625138318202 -0.06285824404901089 -0.021291587694754494 -0.028160052238451045 -0.05019789757123901 0.051738736084458975 -0.04013602893122451
0.028935392347609303 -0.00729283352101146 0.03544375927360874 0.0373987513569609 -0.056653352532938746 0.04815238227855254 -0.08145099453034671 0.005391448172398512
-0.028886713945617117 -0.04094907035846793 0.027673047958952993 0.013622181048358058 0.015326063371880498 -0.0061643621334702674 0.0141219972486824 0.06159582732838024
-0.05914084424168006 0.01600677535336654 0.006356041090807225 0.11170509359005028 -0.013196095358764889 -0.047311092105884765 0.05091599327737744 0.0019421893783122572
0.025934297413812486 -0.03902955418180025 -0.0035144625881428316 -0.04552374055384991 0.0350085919654166 -0.051105786521533726 0.07281322396611437 0.04191598995078431
0.018165580651628953 0.023643383954716643 -0.06978762535377261 0.03830844391965082 0.005305739683647082 -0.007873536886086533 0.04883563741018781 -0.08395731132054585
0.014338278097925492 0.06730119444964643 0.04514962360339273 0.05741285806454179 -0.0344650116115722 0.07891614659938909 -0.0509490441274093 0.03339111643072662
0.03481232332477971 -0.029464173896616902 0.002052957165289264 0.018543716122541833 -0.023744525842584647 -0.011567002213800904 0.002565655472948525 -0.0676373793784809
0.007342062287426959 -0.08746512758605518 -0.0719870133178953 0.042499522039561796 0.048144770884468835 0.0041625882564572 0.025003139980934258 -0.026574799592350734
-0.02076809398419754 -0.03370460056572193 0.10284933672767925 0.005553872937707622 -0.01855811415018931 -0.005100491167934991 0.06793921844264017 0.1047991095820673
0.07574848250387857 -0.03622770396520161 -0.0025491311945200594 -0.12677340708795284 -0.08635660766527407 0.0030525305567556224 -0.10344000072285454 0.30499551159478444
0.04762184325387952 0.020201160557636808 -0.034825515780492984 -0.05638201012491759 -0.06513808727931641 0.008855404643855884 -0.21065550787860557 0.006016875532816063
0.0158320832009445 0.016266309701859244 -0.06640989912456492 -0.03745771662263004 -0.004173024736295189 0.014745984608264692 0.09531816858462873 -0.01679874893819878
0.019999350268730537 0.05820618127978842 -0.02604071981094266 0.0692003408776973 0.012116547408713195 -0.17114398465463476 0.03448979925209324 0.0017750126209520383
0.022800508197947017 0.01079109374161819 -0.10357001957097248 0.02484418955065178 0.010726362744641964 -0.034680804484930834 0.0026864155490469483 -0.018183035496693183
0.009179357415817392 -0.015653966024952934 -0.058020863694463076 0.03632593916399502 -0.004421397149367762 0.0070208995195707785 0.01641916052721662 -0.0011324103692881443

linear_layers.1.layer.bias f8 [100]
00000000: cf21 29a6 7f25 bc3f a603 d73a 093a b0bf
00000010: 2922 2994 2d9e aa3f ed70 a187 9e6e b9bf
00000020: a432 6342 8f83 c53f e9bf 4d0a dfa6 953f
00000030: 1315 444a aa81 a7bf 84bf c259 7a3c c03f
00000040: 4de6 d19e ce38 993f b17d 589b 9f52 99bf
00000050: 6263 a33c 43b5 a6bf 497e 97d1 7232 af3f
00000060: 1897 0325 ddbf afbf f056 885b b078 c23f
00000070: 843d c8d3 a208 9cbf 18bf 9688 d150 b6bf
00000080: 3c5c 1f07 08d6 b83f fd5e 0f0c b0e9 9e3f
00000090: 7796 eaf4 9ea7 86bf 3ae7 6a4f f3bd a63f
000000a0: 9572 7e0d 513b ab3f 641f 2ea8 6aab b1bf
000000b0: f581 658e 726b 933f bbb6 3dc3 d9d7 bc3f
000000c0: 9fce c620 f8ff 7ebf b950 d8f6 95dc 8abf
000000d0: 2f7a 3a24 ffb1 b4bf 9476 20d3 1d9d b2bf
000000e0: 61c0 845c 6904 a3bf 300d 3ebd a692 bbbf
000000f0: 40e7 0a80 80a9 91bf f08b 8352 2884 a0bf
00000100: c406 186b 1131 a9bf 1697 625c 9f56 c4bf
00000110: 5186 5f8f 4de0 b7bf 7f68 40b5 19ee b7bf
00000120: 27e2 48ff ecf4 9abf 6a05 3a0a f69e babf
00000130: 91d1 1887 b6b2 a53f 31d1 a291 a41c b2bf
00000140: b726 027d dd42 c23f 9614 16e1 2c6a bf3f
00000150: 83a8 30fe e723 79bf 3069 63d9 5615 b6bf
00000160: 8259 1d05 5ce3 bcbf c417 b954 6dc9 be3f
00000170: 54cd 3572 e684 85bf 5f93 4618 7ce3 783f
00000180: 5aa4 6395 f69a 663f 326f 4181 bf2e a73f
00000190: fc17 78bc 5915 6c3f 3fa2 4644 09ad c0bf
000001a0: c174 aef6 bcdf b33f 428f f1f7 e09d 993f
000001b0: d750 25d0 247e 8a3f 157a a39d 7ddf ac3f
000001c0: 1151 1482 a3a2 b13f cb04 5e86 b323 bc3f
000001d0: 0ce0 2762 c0ba 703f ba5b be4e 8a02 a8bf
000001e0: 272f e670 d1a0 aabf 985c 4596 71bf c1bf
000001f0: a7e4 61ac 7d46 92bf d669 3d45 f2e8 78bf
00000200: 2f91 a491 4198 91bf 45a6 0040 92ff b3bf
00000210: 511d 436b fff1 a6bf 4e1c a772 042f ca3f
00000220: 82e9 d084 5d28 b33f 7ae8 5908 4327 8fbf
00000230: be36 ec5e 7cda a0bf 5682 a126 e1fb b0bf
00000240: e1fb 74fd 4065 a6bf 31b2 1a32 880d 64bf
00000250: 56b8 8361 b43e b0bf ac24 3f20 d0db 893f
00000260: 99be 9f30 81f8 c2bf f870 e419 bb3b a3bf
00000270: a88c 85e0 8b49 99bf 9d1a 5b7b df04 c0bf
00000280: c7cc e65a d4e5 a43f 7c52 11ba ebdd b8bf
00000290: 5a80 b6dc 54fa 863f 0160 4561 849d 9c3f
000002a0: 172b a6aa c485 713f 17f2 e64d 71a9 973f
000002b0: be60 9ac2 f55a a23f 36b7 6dff 0948 a4bf
000002c0: 1d2e 295d 7836 9d3f 87dd 4d00 e562 c53f
000002d0: a37d 82d4 9b06 923f 5851 0a51 4b6a a4bf
000002e0: 5f11 1e38 c396 b4bf 12d6 79ea 7275 b5bf
000002f0: 56ee 943e d9b0 913f 092e 1d1b 1ad3 b4bf
00000300: 930b 4fe6 ea57 8cbf 2247 b3a2 25b7 753f
00000310: af04 c519 0100 a03f 232f 3e1d 03e5 813f
0.10994718367249522 -0.06338555990715963 0.0519880526886179 -0.09934416590971624 0.1680773805768655 0.02114437580479481 -0.04591114193503123 0.1268456400189245
0.024630764430617003 -0.024729246002719033 -0.04435167422497589 0.06093176659100814 -0.06201067997771598 0.14430813283313837 -0.027376693893584228 -0.0871706922978287
0.09701585935486973 0.030188322769247645 -0.011061899041418173 0.044417956776170844 0.05318692483635804 -0.0690218601795301 0.01896456712836599 0.11266861931445764
-0.007568330049639776 -0.013116046519862189 -0.08084101328356817 -0.0727099075743019 -0.0371430325925537 -0.10770647163558489 -0.017248161139583162 -0.03225828177689738
-0.04920248443887723 -0.1588935090159615 -0.09326634168930893 -0.09347687411391979 -0.02632494266637955 -0.10398805379556611 0.04237909697659171 -0.07074955516401783
0.1426655636208147 0.12271385665197196 -0.006137758467085533 -0.08626311118442653 -0.1128442299353534 0.12026103323395804 -0.010507393227021801 0.006076321359078956
0.0027594390950196725 0.045278534439346166 0.0034281494770338466 -0.13028064569268058 0.07763272306916048 0.025016322263027087 0.012935912706474912 0.05639259862231342
0.06888791967168496 0.10991975813341807 0.004084350106943201 -0.04689438067651204 -0.05200819495357072 -0.13865489804695552 -0.01784702648771899 -0.006081529969231577
-0.017182373537381664 -0.07811845839082661 -0.0448150461611997 0.2045598563983923 0.07483467571811356 -0.015211604778631694 -0.03291691454624644 -0.06634337609421811
-0.043741255702563604 -0.0024478588173535644 -0.0634567964623057 0.012626291259851229 -0.14820876001566743 -0.037565085325896364 -0.02469461973067824 -0.1251487114261253
0.040815960022337054 -0.09713624279658889 0.011219656930563971 0.027944630085897874 0.004277961949251694 0.023107309703606384 0.03585021973157286 -0.039612114362951464
0.028528099714362754 0.16708052172519336 0.017603335233273076 -0.039873460428824614 -0.0804254543309688 -0.0838233778429969 0.01727618641346703 -0.08134616052591793
-0.013839564469781773 0.0053016157282444205 0.03125003280229898 0.008737587289736453
